model_weight/actor/13_13 14:45:58 std 0.4 lr_actor_0.004- gamma_0.9 memory100 actor_weight.pth (torch, 646091 bytes, 9 tensors)

std f4 [4]
00000000: 0ff5 d23d c4cf d03d 8bad 153e 95b2 bf3d
0.103006475 0.10195878 0.14616983 0.09360234

model2.0.weight f4 [512, 24]
00000000: 1cd7 873d bd1e c8bd ef68 70bd f720 62be
00000010: 963c ceba 0441 e1bd d168 a6bd 2589 353d
00000020: effc 033d 6746 023e 1bea 0bbe 3017 66bc
00000030: 0cfe d63d 76ba aa3d 6c8e 823d ca53 f3bd
00000040: e4b1 67be 0ec8 5dbe aa8d 243d 68e1 473d
00000050: 69fe 82be 38eb 8fbe 8a9f 2bbd 5988 0c3d
00000060: dff6 71bc 39fa a93d 1554 2a3e 41b2 93bd
00000070: 4063 afbd 4d91 1bbe e0e9 2ebe e06d 5dbd
00000080: dbd4 d5bd 15c7 17be 8cd5 f53c e063 babd
00000090: ba16 0e3e 4c0d 45be b490 45bd d94f b33c
000000a0: 31e1 4bbe bd01 e5bd 0a43 9d3b 846e 52be
000000b0: b3da 3bbe 69e9 0c3c c937 0dbe 24c0 2d3d
000000c0: 8daf 0c3e 36e6 623d 2d56 0cbd 7e5b 23be
000000d0: 1421 413e 2706 bc3b 01ad f6bb 180f 153e
000000e0: 2702 babd 356e f33c 378c 453d 3d35 1e3e
000000f0: 7f5f d83c cba4 45be 9952 69bd 8ca1 d53d
00000100: f7ee 033e 25eb c03d 44a2 833d 6de7 9a3d
00000110: 01f1 cfbd 532e 14be 027c 03be 7c8b ed3d
00000120: 3264 1c3e fcff 303c fd49 2dbe d6af c4bd
00000130: c0ec 3a3d e7b5 03be 36c1 5b3c 3bec 31be
00000140: 9b2b 883b 3eff 833d af30 123e b61f da3c
00000150: 7164 f4bc 5570 1f3d 12bc b63d 0c3d bd3d
00000160: 838e 92bc c934 1abb cf1a 1cbc 3060 dabd
00000170: 7244 193d 0cc8 c4bd e949 21bd 262e 50be
00000180: 855e 18be 72a1 843d afb7 f2bd 6a18 13be
00000190: 357c e4bc 55ca c13d 74a9 11bd ddd1 dfbd
000001a0: 9885 8e3c e6ed 0b3c 50f6 9e3c bc83 c7bd
000001b0: 7d04 023d 45bc 023e 9f43 4bbe 80b6 e0bd
000001c0: 4a36 16bd 9b5b dcbd 89ef dbbd 755d b4bd
000001d0: 0171 4bbe 5b97 1d3d cb27 65be 90e6 0c3e
000001e0: c1e2 bbbd 6fb9 193c 3dec fc3d 2927 fe3d
000001f0: 4bc8 343e f74a 7ebe 5a55 aebd 942a c8bd
00000200: 29c9 26bd f9ab 0a3d f6cb 1cbe aa1c 183c
00000210: f554 ad3b 4410 0bbe da0b 68be 228d 58be
00000220: 64b6 003e 249d e1bd 862b 123e 4bc2 01be
00000230: 5eab e8bd 24cb 193d 8f4b 7d3d 8103 10be
00000240: 3924 e33d 7378 8dbc fff6 8fbd b2a0 a13d
00000250: a5bb f13d 5646 af3b 8f36 243e a69b 2cbe
00000260: d8eb 273d 093a 05be 5d01 023d 3b99 49be
00000270: 4ade 95bd 4dc7 8ebe c3f8 2dbe 9b30 6bbe
00000280: b455 4abb fd28 59bc 4bd2 7cbe 16d8 113e
00000290: b891 d23c 9c1e 1ebe f3bf b63b 525a 313d
000002a0: 8c11 583e 1dfd e83d 7ec7 0ebe 7357 a1bd
000002b0: 53f8 46bd 3908 97bc a8cb d5bd 395a 273e
000002c0: 4923 203e 83ee e2bd 7e39 b03d 4ee9 fbbd
000002d0: bfec 6abd 60da 2c3e 4e31 ac3d 8e11 3abc
000002e0: 2b07 adbd c684 05be 6b54 32be 6f43 64be
000002f0: c113 cdbd dc76 14be 652d 55bc 1433 df3c
00000300: 8cf9 353e 5a93 053e e2fd b6bd 49e4 2cbe
00000310: e81d 47be 0557 07be 30c6 3dbd d0de 4e3e
00000320: e0b9 f93d e3b4 33be 69bb 8cbd 7ba1 273e
00000330: a994 edbd 3926 91bd 4e95 32bc 087e 83bd
00000340: 2611 50bd 8e8e fe3d a367 263e 615c 3d3d
00000350: 4eb4 4bbe 7cd0 41bc 9f33 36be c8be 58be
00000360: 91c5 ccbc ba8e 5bbc 0053 acbd cc84 f93c
00000370: 03e7 a5bd 821f d03d f560 ac3d df54 bcbd
00000380: 4efe 17bd db29 a83d e529 ea3c 47c9 fcbd
00000390: c2f7 09bd e0e4 9bbd 7615 0e3e 45fe 4f3b
000003a0: 89a1 e4bd 342c 253e fc4c dbbd b94b 5bbe
000003b0: bfdb adbd e4a9 41be db39 76be 776d 70be
000003c0: c336 3f3e 9c2f 293e c18b 183d 66d1 5b3d
000003d0: 8037 233d 582b 9ebd 52ad c8bd 47b3 b03c
000003e0: 2905 cf3d 2524 1ebc 9602 c63d 1b02 0dbe
000003f0: 53d1 81bb b905 86bd d425 043e 8f24 5abe
0.06632826 -0.09771488 -0.058693822 -0.22082888 -0.0015734609 -0.10998729 -0.08125461 0.044320244
0.03222364 0.12722169 -0.13663523 -0.014043614 0.10497674 0.08336346 0.06374821 -0.11881216
-0.22626454 -0.21658346 0.040174164 0.04879895 -0.25584725 -0.28109145 -0.041900195 0.03430972
-0.014768331 0.08299679 0.16633637 -0.072117336 -0.08563852 -0.15192147 -0.17081404 -0.054059863
-0.104409896 -0.14822038 0.030009054 -0.09101081 0.13875857 -0.19243354 -0.048233703 0.02188866
-0.19910122 -0.11181972 0.0047992514 -0.20549971 -0.18345146 0.008600571 -0.13790812 0.042419568
0.13738842 0.055395328 -0.03426187 -0.1595287 0.18860275 0.005738038 -0.007527948 0.14556539
-0.09082442 0.029715637 0.048229422 0.15449996 0.026412724 -0.19301145 -0.056963537 0.10431203
0.12884127 0.0941985 0.06427434 0.07563672 -0.1015339 -0.14470796 -0.12840274 0.1159887
0.15272596 0.010803219 -0.16922756 -0.096038505 0.04563594 -0.12862359 0.013412764 -0.17375271
0.004155589 0.06445168 0.14276384 0.02662645 -0.02983305 0.038925488 0.0892259 0.092401594
-0.01789022 -0.0023529998 -0.009527876 -0.106628776 0.03741879 -0.096084684 -0.039377127 -0.20330104
-0.14879806 0.06476106 -0.11851441 -0.14364782 -0.027891258 0.0946242 -0.035561994 -0.109287
0.017397687 0.008540606 0.01940456 -0.09741923 0.03174256 0.12767132 -0.19850014 -0.10972309
-0.036672868 -0.1075966 -0.10739047 -0.08806888 -0.19867326 0.038474422 -0.22378461 0.13759828
-0.09174109 0.00938259 0.123497464 0.12409813 0.1765453 -0.24833284 -0.08512373 -0.09773746
-0.040719185 0.033855412 -0.1531218 0.009284178 0.0052896687 -0.13580424 -0.22660771 -0.21147588
0.12569577 -0.110163 0.14274415 -0.12671773 -0.11360811 0.037547246 0.061839636 -0.14063837
0.11090893 -0.017269349 -0.07029533 0.07891978 0.118033685 0.005348961 0.16036437 -0.1685625
0.040996403 -0.1301042 0.03173958 -0.19687359 -0.07317789 -0.2788643 -0.16989426 -0.2296776
-0.0030873837 -0.013254401 -0.24689595 0.14242586 0.02570425 -0.15441364 0.0055770813 0.043299027
0.21100444 0.113764025 -0.13943288 -0.07878008 -0.048576664 -0.018436538 -0.10439235 0.16343011
0.1563846 -0.11080649 0.08604716 -0.12300359 -0.057354685 0.16880178 0.084078416 -0.011356724
-0.08448633 -0.1303893 -0.17415015 -0.22291349 -0.100135334 -0.14498466 -0.013011311 0.027246036
0.17770976 0.13044491 -0.08935143 -0.16883959 -0.19445002 -0.13216789 -0.046331584 0.20202184
0.12193656 -0.17549472 -0.06871683 0.16370194 -0.1160062 -0.070873685 -0.010899855 -0.06420523
-0.050797604 0.12429534 0.16250472 0.046230678 -0.19893 -0.011829492 -0.1779313 -0.21166527
-0.02499655 -0.013400728 -0.084142685 0.03045883 -0.081007026 0.1016226 0.084169306 -0.091958754
-0.03710776 0.08211108 0.02858443 -0.12343078 -0.033683546 -0.07612014 0.13875374 0.003173725
-0.11163623 0.16130143 -0.10708043 -0.21415605 -0.08489179 -0.18912464 -0.24045508 -0.23479258
0.18673234 0.16522068 0.037242655 0.053666495 0.03984785 -0.07723111 -0.09798683 0.021569861
0.10108406 -0.009652172 0.09668462 -0.13770334 -0.003961721 -0.0654406 0.12905055 -0.21303008

model2.0.bias f4 [512]
00000000: 51b2 1b3e 0e89 1dbe 2827 043e 2df5 b1bd
00000010: 518d c33d c2b1 10be 5f8d 56bc 6b57 55bd
00000020: fe58 a83c 4640 a3bd 6cf2 373b 8326 bbbd
00000030: 1989 1e3e e89c 5fbd dee1 c0bc 1453 4abd
00000040: c518 1bbe 25b7 3dbe 7d47 05bd d621 023e
00000050: 145e 013e ec2b dbbd b68f 933d 9527 46bd
00000060: 6eb0 503d 226a 113e d2d0 23bd 06f1 253e
00000070: cd3d 2d3e 8fef e23d 9720 1dbe 865f 28be
00000080: cc47 503e c2ac 66bc 8ec4 a43d a4b1 bdbd
00000090: 640c d83d 2cbb 6a3d dc88 5f3b 43d1 403e
000000a0: a2b0 2b3d de39 24be ad35 003e df74 3dbe
000000b0: 7a7c 403d 81bd 07bd f5fc d2bd dd85 673d
000000c0: 2553 afbd 3836 29be d084 e83c 7f4f 21be
000000d0: 7877 ee3d a1a0 253e 496b 2dbe 63e0 dd3d
000000e0: 04b7 3a3d df03 a1bd 596c 0d3e 91bb a23d
000000f0: 4561 1a3e c6d9 e13d 84df 3bbd 558d 4ebe
00000100: bf23 b7bd e5de 2d3d 3fc4 823d af8e 4abe
00000110: c95c 093e 339f 153d 2a8a 2dbe 7c01 43be
00000120: 6898 f03a 827f c1bd f24d 153e ff93 e0bc
00000130: 2dd4 24be f88b 9c3b bad3 1bbd ab57 27bb
00000140: cdac 0fbd bb9a af3d 3f08 b83c 45b7 e5bc
00000150: 05ca 51be 5a61 0ebe 6e32 40bd 5600 183e
00000160: 6412 6a3d 96f4 12be 3b9a bb3c 5cef 3dbe
00000170: b2ee 3e3d ba96 28be 1423 7c38 91e9 28be
00000180: 2a45 2d3e 5a77 43bd cabc 183e 99f8 223e
00000190: 4ff9 3ebe 7f23 b83c 4629 b33d 020b 8b3c
000001a0: 9d10 a7bd 3bb4 ed3d cdc2 d13d 4e21 3f3d
000001b0: a6d8 85be 5434 763b 02ef 03be 9d47 4abd
000001c0: f571 163e f4dd 9f3a 0d12 233d 9e42 243d
000001d0: ebdd f3bc 8ce2 0f3e a3f6 30be c589 bfbb
000001e0: a031 3dbd 16a6 763d b125 643d 874d 00bc
000001f0: 0a36 72be 9675 d7bc adf5 92bc e4b7 9ebd
00000200: ea3b 32bd 15ac 423d 7569 213d 7d07 71be
00000210: 3d9e 723c f5fd d1bd f2df 50bd 8b63 b6bc
00000220: 0b0d 1fbe 677a 0bbe 6342 67bd 2aeb 1c3e
00000230: 1566 90bd ee75 61be 008c 37be 4382 d0bd
00000240: c333 d63d 33fe a33d 3ad3 54be 4147 b2bc
00000250: 51ab df3d ca6a e83d 43cc d9bc 0f2e 0d3b
00000260: 5875 09be 75f8 0bbc dcbf 08be e56b 71be
00000270: 71d9 203d ba5c fb3d b4dc 36be 342d 8cbd
00000280: 2f0f ec3d 2271 843d c667 9e3d e2c9 933d
00000290: 1057 093e ed8f 0fbe 40ff ee3d 7200 4bbe
000002a0: 447d 00be 03f9 9cbe 5678 ba3d 4047 373e
000002b0: f65c a8bc 018d 57bd 8eb0 3c3e 8b00 47be
000002c0: 5656 c3bd 6144 2cbe 9863 27bd 3244 19be
000002d0: 198a 0cbd 5d67 d1bd 044d 453d 883e 403e
000002e0: 3187 d73b 2ece 24be 6d74 b8bc 4c9a f1bb
000002f0: 55f4 573d 9b9c 843c aafa 27be e76e cfbd
00000300: 7e13 f2bc 6af1 873c 5494 a53d 8d3b b0bc
00000310: 95e2 a23d 67d1 27be ca1a 55be b47b 89bd
00000320: 7bef 4abe cc77 39bd 53a4 a1bc dfaa e9bd
00000330: 058d 0abe 8b77 2ebe 4805 79be e289 babd
00000340: 5b4b 48be eb9c c1bd 07da b83d f3c6 d83d
00000350: 1f42 18be 29f1 28be c503 2abe 2f6e 0b3e
00000360: c280 75bc d916 443e 5ac7 2c3e 02af 24be
00000370: af8e 9d3d 6447 0ebd d021 263d 5db0 883d
00000380: 43f0 46be 2772 5b3e e0fc 20bd d8da 3bbc
00000390: 5d54 e83d e9bb 38be 0168 11be 3397 283d
000003a0: 2816 3a3e abf2 a03d 0040 ebbc 09cb 55bd
000003b0: bdcd 86bd 0283 24be 44d7 2ebe 398b fd3d
000003c0: dc38 44bd a588 02be 0da4 773d ad9d 47bd
000003d0: c634 0cbe 8977 093d b1c0 22be c671 843d
000003e0: c131 0cbe a82f 4f3e 342a 04be 2635 ba3c
000003f0: 0fdf 4a3e 9bf1 da3d 6910 3ebd f8a9 663d
0.15204741 -0.15384313 0.12905562 -0.08689342 0.09548438 -0.14130309 -0.013095229 -0.05208532
0.020550247 -0.079712436 0.0028068079 -0.09138205 0.15481986 -0.054592997 -0.023545202 -0.049395636
-0.15146168 -0.18526895 -0.03253888 0.1270822 0.12633544 -0.10701737 0.07205145 -0.048377592
0.050949506 0.14200643 -0.03999407 0.16205224 0.16918106 0.110808484 -0.15344463 -0.1644269
0.20339888 -0.014079275 0.08045302 -0.09262398 0.10549238 0.057307407 0.0034108674 0.18829827
0.041916497 -0.160377 0.12520476 -0.18501614 0.04699371 -0.03313971 -0.10302154 0.056524146
-0.085607804 -0.16524589 0.028383642 -0.15752982 0.116438806 0.16174556 -0.16935457 0.10833814
0.045584694 -0.078620665 0.13810863 0.07945932 0.15076168 0.11027865 -0.045867458 -0.20171101
-0.08942365 0.042448897 0.06385087 -0.19780992 0.13414301 0.036528777 -0.16947237 -0.19043535
0.0018355967 -0.09448148 0.14580515 -0.02741432 -0.16096564 0.0047774278 -0.038043715 -0.0025534432
-0.035076905 0.08574434 0.02246487 -0.028041491 -0.2048722 -0.13904324 -0.046923093 0.14843878
0.057146445 -0.14351115 0.022900691 -0.1854834 0.046614356 -0.16463748 6.011415e-05 -0.16495349
0.16920915 -0.047721244 0.14915767 0.15915145 -0.18649791 0.022477863 0.08748107 0.016973022
-0.081574656 0.11606642 0.102422334 0.04666262 -0.26141852 0.003756781 -0.12884143 -0.049384702
0.14691909 0.0012196884 0.039812136 0.040102594 -0.029768905 0.14051265 -0.17281584 -0.005845281
-0.046189904 0.060216986 0.055700008 -0.007830984 -0.23653427 -0.026301187 -0.017939413 -0.07749918
-0.04351417 0.04752739 0.039407212 -0.23538013 0.014808235 -0.102535166 -0.05099482 -0.022264263
-0.15532319 -0.13620912 -0.056459796 0.15324083 -0.070507206 -0.22017643 -0.179245 -0.101810955
0.104590915 0.08007469 -0.20783702 -0.021762492 0.10921348 0.113484934 -0.026586657 0.0021542346
-0.1342367 -0.0085431235 -0.13354439 -0.23576315 0.03926987 0.122735456 -0.17857629 -0.06844559
0.115263335 0.06466891 0.07734637 0.072162405 0.13412118 -0.14019747 0.11669779 -0.19824389
-0.12547785 -0.3065873 0.091049835 0.17898273 -0.02055214 -0.052624706 0.18426725 -0.19433801
-0.09537952 -0.1682296 -0.040866464 -0.1496742 -0.034311388 -0.10224793 0.04816915 0.18773854
0.0065773954 -0.16094276 -0.022516454 -0.00737313 0.052723248 0.016187957 -0.16404215 -0.10128575
-0.02955031 0.016594607 0.08084932 -0.021512771 0.07953373 -0.16388474 -0.20811 -0.067130476
-0.19817917 -0.045280263 -0.019731676 -0.11409544 -0.13530357 -0.1703779 -0.24318421 -0.0910833
-0.19559996 -0.09453758 0.090259604 0.105848216 -0.14868973 -0.16498245 -0.16603 0.1361625
-0.014984312 0.1914934 0.16872922 -0.16082385 0.0769323 -0.034736052 0.04055959 0.066742636
-0.1942759 0.21430264 -0.03930366 -0.011465751 0.11344216 -0.18040432 -0.1419983 0.04115982
0.18172514 0.07858785 -0.028717041 -0.052195583 -0.0658221 -0.160656 -0.17074305 0.1238007
-0.047905788 -0.12747438 0.060459185 -0.048734356 -0.13692006 0.033561263 -0.15893818 0.06467013
-0.13690855 0.20233023 -0.12906724 0.022730421 0.19811653 0.10690614 -0.04640237 0.05631444

model2.2.weight f4 [256, 512]
00000000: 066f 8a3d 85bd 03bd 4bc8 c5bc 5fcc 79bc
00000010: 7308 c9bc efd3 87bc 64cd c63c 5faa dc3c
00000020: 8b5c ebba 6b92 02bc b8c5 fa3b b8c4 aa3d
00000030: 260c 173d ea7b bd3c da9e 253d 28c0 7cbc
00000040: b72a 05bd 23de f1bc ace8 173d 7576 fa3b
00000050: 4951 b13d 53f2 10bd 7980 9fbc 105c 71bd
00000060: 197b 6abb 8c4d 133d 5273 88bd 7850 9bbc
00000070: 035d a43d 6f6d c3bd 4646 8b3d 2d60 92bd
00000080: 7536 7f3d ecf0 b33c 60d7 183d b439 babc
00000090: d84d a43d 8f7a 693d ff60 aa3d ddbd 143d
000000a0: e6b2 543d a268 843d 4bba e93c 38f1 30bc
000000b0: 3419 08bd ee18 343d 65b9 7f3c 4187 f23d
000000c0: 7556 c6bb f96e 2c3d e540 10bd 0a30 a0bd
000000d0: f3f2 4db9 2649 f83b 06ce 443d e7a1 56bd
000000e0: 498b 7abc 5182 66bc 1739 febb 0ff6 ccbb
000000f0: 5fc5 203d bfff 60bd 7a62 67bd 210e a23b
00000100: 420b 213b 7491 2e3d 7fd6 ef3c b45d 8fbd
00000110: c734 10bc 06c7 9ebd 094b 633d cf54 4ebd
00000120: ecfe 5f3c 149e e539 a2d4 353c 3547 623d
00000130: 0bba 983c 546e 0cbd ef4f b03b 1a62 96bd
00000140: a1d8 35bd 954b 133d b06f 383d 41e9 d1bc
00000150: c3c5 22bd 9b5e 843d d87e 653b 2039 2b3b
00000160: 321a 853d 3c27 403e a146 393e 7355 b8bc
00000170: 5640 f6ba e7e4 573c 8ba9 24bc 55ed 15bd
00000180: 26b9 0f3d 1df6 f13c 3086 b93d 7fcf dfbb
00000190: 4805 753c e35c 0cbd 53fd b13c d409 0a3d
000001a0: 63c1 6c3d a552 52bc 54cf eabc f24b 913b
000001b0: 8fff d339 3633 18bc 4072 babd 10cf 82bc
000001c0: 62b0 603a a9a4 a23c a508 8a3d 1e75 f5bc
000001d0: a34b e83c 4144 cdbc cacb f83c 9fdd 3a3d
000001e0: 3692 9e3c a080 963b cd89 62bd 52c0 553d
000001f0: 4975 563c 2068 35bd 6b01 f1bc 50df f4bc
00000200: 5ec5 ebbc a7e5 8f3c 5db8 4dbd 1ae9 a3bd
00000210: d768 8abd 5c96 e9bc 11d2 643d d248 3ebc
00000220: 736f 8bbd 9320 5bbd 886e 2c3d 21c9 8fbc
00000230: 2777 abbd f1a8 913c 31c2 8abd 2aff a8bc
00000240: 48e1 18bd 8033 843d 80ee 92bc c64e 54bd
00000250: 20e2 bf3c a425 db3c f445 9bbd 0918 3d3d
00000260: 6b4b 643d 1b2b 85bc 27b4 dcbc aab8 363d
00000270: 5969 17bc 0c8f 133d 53e1 a7b9 e20f 1e3d
00000280: 6c2d 3a3d d1d6 46bc 7c46 a4bb 1c76 15bd
00000290: 5bae 3e3d d320 05bd ea8a c93d 29c5 26bd
000002a0: dd23 fbbd cfe7 753d 8d92 c2bc cfb9 2dbd
000002b0: 6337 673d be1a 443d 57b7 f33d 2e2b 543d
000002c0: 7894 953d de17 44bd 65fa a63d 7bd6 c03d
000002d0: 78b1 623d 76c7 23bd 43a9 e9bc 8bd0 003d
000002e0: 3943 833d 7f26 183d a5d2 91bc b3fe 343d
000002f0: 4d71 883d 9bb9 9f3d a668 0fbd 60eb 913d
00000300: a544 e93b 3837 ed3c 5925 70b8 5d9d 45bc
00000310: aad3 8dbc 534b 5b3d 3fc7 3fbd a1d6 0fbd
00000320: c292 1f3c a48a f43c 2795 19bd a4aa 06ba
00000330: a0e1 efbd 466b 84bd 1881 693d 0d98 9e3b
00000340: cd49 e73c 08a7 06bd 2bee 9e3c 2a39 11bd
00000350: bd5e 0bbd 8fb0 103d da72 9abd 56c3 073d
00000360: d254 62bd 99a7 e53d b978 9c3d 9448 b53d
00000370: 61bd 58bd bca1 10bd 46d7 9e3d a56c 0b3d
00000380: 173f 0b3d c89a e23c 4612 59bc d676 5b3d
00000390: c862 953d 7a3c e73d b312 8f3d 128f 6e3d
000003a0: 22c6 a73d f731 223d 236b 3bbd d303 63ba
000003b0: 78ef c6bd c838 e63c b94f a93c 725b 693d
000003c0: 1b89 ff3d 2561 29bc 1c42 773d ba58 723c
000003d0: 24b3 a3bd 74e7 983d 7453 e93c 7b3d 4cbb
000003e0: 93c7 a33d 5d77 9f3d 3fa7 f5bd 28cf 5c3d
000003f0: 013e a53d 1acc 7abc a5bc b3bc 584c 0c3c
0.06759457 -0.03216316 -0.024143359 -0.01524648 -0.024540162 -0.01658055 0.02426786 0.026936708
-0.0017956657 -0.007969479 0.0076529644 0.083383024 0.03687682 0.023130376 0.040434696 -0.015426673
-0.03251144 -0.029524868 0.037087128 0.0076435157 0.08658082 -0.03538735 -0.01947044 -0.05892569
-0.0035778938 0.035962626 -0.066626206 -0.018959269 0.08025553 -0.09542357 0.06800513 -0.0714725
0.062307794 0.021965466 0.037314773 -0.022732593 0.0802266 0.057001647 0.08319282 0.03631388
0.051928423 0.064652696 0.028531214 -0.0107996985 -0.03322716 0.043969087 0.015608166 0.11842204
-0.006052787 0.04209802 -0.03521814 -0.07821663 -0.00019640829 0.0075770793 0.04804804 -0.052400496
-0.015291997 -0.014069156 -0.0077582705 -0.0062549184 0.039250728 -0.0549314 -0.0564904 0.004945532
0.002457336 0.042619184 0.029277084 -0.07000294 -0.008801646 -0.077528045 0.05549148 -0.05037385
0.013671618 0.0004379606 0.011098059 0.05524369 0.0186434 -0.034284905 0.0053806226 -0.0734293
-0.044396047 0.035960753 0.04502839 -0.02562392 -0.03973938 0.06463357 0.0035018232 0.0026126578
0.06499137 0.18764967 0.18093349 -0.022501683 -0.0018787484 0.013177133 -0.010050188 -0.03660329
0.03508868 0.029536301 0.09058797 -0.0068301554 0.014954872 -0.03426827 0.02172724 0.03370078
0.057801615 -0.012837087 -0.028663315 0.004434102 0.00040435462 -0.009289553 -0.09103823 -0.015967876
0.0008571205 0.019853907 0.0673993 -0.029963072 0.028356379 -0.02505696 0.030370612 0.04562151
0.019356828 0.00459297 -0.0553072 0.052185364 0.013089486 -0.044288754 -0.029419621 -0.02989164
-0.028780635 0.017565561 -0.05022465 -0.08003445 -0.06758278 -0.02851408 0.055864397 -0.011614041
-0.068083666 -0.053497862 0.0420976 -0.01755196 -0.08372336 0.017780753 -0.0677532 -0.020629484
-0.03732422 0.06455135 -0.017935991 -0.051832937 0.023423254 0.026751347 -0.07581702 0.0461655
0.055735987 -0.016255906 -0.026941372 0.044609703 -0.009241425 0.036025092 -0.00032020602 0.038589366
0.045453474 -0.012136177 -0.005013285 -0.03648959 0.046552997 -0.032502007 0.09840949 -0.04071537
-0.122627 0.060035523 -0.023751521 -0.04241353 0.056449305 0.047877066 0.11900204 0.05179899
0.07303709 -0.047874324 0.08153228 0.09415909 0.05534503 -0.039985143 -0.028523093 0.031448882
0.06409306 0.037146088 -0.017800638 0.044188213 0.066622354 0.07799073 -0.03501191 0.07124972
0.007118779 0.028956994 -5.725524e-05 -0.012061444 -0.017312843 0.05353863 -0.046820875 -0.035116795
0.00973958 0.029851265 -0.03749576 -0.0005137122 -0.117129564 -0.06465773 0.05700788 0.004839903
0.028233433 -0.032874137 0.019400677 -0.035454907 -0.034025896 0.03532463 -0.075414374 0.03314527
-0.055256672 0.11213607 0.076402135 0.08851734 -0.05291498 -0.035310492 0.07755904 0.03403916
0.033995714 0.027661696 -0.013248986 0.053580128 0.07294232 0.11290832 0.069859885 0.05824191
0.08192088 0.03959843 -0.04575647 -0.00086599326 -0.09713644 0.028103247 0.020667898 0.056971975
0.12477323 -0.0103381025 0.06036578 0.014791662 -0.07993153 0.07466021 0.028482176 -0.0031164575
0.0799705 0.077864386 -0.1199479 0.053908497 0.08068467 -0.015307451 -0.021940539 0.008563124

model2.2.bias f4 [256]
00000000: c413 aabc 3a8d c0bc fa85 3abd 6ed3 25bd
00000010: 13b2 49bd c851 2dba 9a18 e33c bad6 1fbd
00000020: 34f9 083c 0eff d7bb cb81 09bd 0b64 4cbd
00000030: 8549 423d 3e31 fdba 1317 9abc 616c 113d
00000040: 7495 973c 104a 6abd 1331 8c3c 98f2 03bd
00000050: c2c0 38bd f6f8 c73b 2cc7 fdbc dcb1 12bd
00000060: 8a74 003d 3a5a ffbc 1d59 48bd 802e 993d
00000070: 488e 52bd 4437 b8bb 9dff 44bd be58 c63c
00000080: 08f7 0abc c639 83bb d172 3bbd 3bd0 00bd
00000090: 5a61 ae3c e38f 703c abd1 0a3c d117 803c
000000a0: 3c5d 173d 564e 8abc 7e01 943c 5eec ea3c
000000b0: f4f9 393c 530f bb3d 5873 27bd dc4b 7a3d
000000c0: 9810 bd3c 44f4 033c 329d d7bc a09f 0c3d
000000d0: 90c1 043d 75b6 8bbc bc27 213d 6af3 e83d
000000e0: d8ee 03bd 4444 413d 6578 593c a817 85bb
000000f0: df64 d239 1b36 70bc 9984 09bd cc34 ebbb
00000100: 3526 6d3c 049c 973a 3d34 423d 12bb 6ebd
00000110: 0668 f9bc 5163 9ebc c78a 80bd e0c4 26bd
00000120: 5b01 cd3c 5c07 133d 1ef1 26bb 3e19 3bbc
00000130: fffd 833c 8e39 273d 7521 4b3c 5a65 40bd
00000140: 6ff1 ecbc a8a7 3cbc e422 31bd 0222 37bd
00000150: 3f7b 1f3c c4a2 dc3c c908 8a3b 6dfc 753c
00000160: 319c ebbc 46b9 5e3d 4cdb 7dbc f78b 8dbc
00000170: fa4c e0bb 550c f6bc 4077 9cbc 542c ddbc
00000180: a28c 12bc a84c 97ba 89b4 34bd 65b0 333c
00000190: 9113 83b9 97a1 51bd f876 1fbd 7503 7b3b
000001a0: a1ed 073d 4c17 91bd 7878 63bd b278 993b
000001b0: 607a fb3b 288d 39bc a00d 37bd c578 593c
000001c0: 374f 40bd ce22 4cbc f7d4 37bd f80a 903b
000001d0: 361f 033a c0b9 28ba b5b3 b2bc b006 86ba
000001e0: ed6b e23c 4cf7 4b3c a05f fb3b b49a 05bd
000001f0: 65e0 c83b f819 d93c 42a2 79bd 6539 293d
00000200: a7e7 20bb de95 43bd b758 6fbd d912 723c
00000210: 9dc9 3c3c ee04 e03c 4edd 95bd be72 42ba
00000220: 4ac2 70ba 7b34 923d 6627 43bc fce5 9c39
00000230: 3d00 a0bc 197d 923b 2c07 b0bc 7c05 c03c
00000240: ccab a83c 4a9e 253d 03fd c2ba 4611 60bc
00000250: c1e4 0cbd 2f14 01bd dbd3 1c3d 0a64 5abd
00000260: 7f7e f6bc 05ea 0f3d cda6 db3b a4fd 033d
00000270: 0740 b93c 020e 4f3c 700a 86bd 74ca 2dbd
00000280: e201 c33c 5996 8bbc 2865 60bd 66e8 cc3c
00000290: 2f03 8cbd f1eb 533c 5164 40bd 3ad0 c13c
000002a0: f8ef 58bd 9ef7 73bd 5b40 4fba bde6 37bd
000002b0: 9992 023d fec6 4dbd 0c2c 083d b140 fdbc
000002c0: 9586 3abd c73e 523c 3837 94bc 58f7 0d3d
000002d0: 1a44 8ebc 690d 37bd b58e e6bc 29b4 db3b
000002e0: c878 1ebd 129c 943b 1f57 d0bc fe0d fdbb
000002f0: 2f97 81bd 8aeb 0ebd ff13 843c 9a7c edbc
00000300: baac b63a d363 063d f461 113c 8bec e6bc
00000310: 9997 1dbd 7af6 80bd ce68 e83b 6f74 fcbc
00000320: 47c3 d6bc b436 04bb c98e 193d 82f8 bebc
00000330: 2fbd 2dbc 0f01 123d c890 26bc e8c7 a33c
00000340: c880 ba3c 1d97 46b9 6f29 a73d 05db e03a
00000350: 3d94 3cbd d3ca ed3a a840 cbbb 7928 3abd
00000360: 4724 2cbd 04be b23b dd2d 98bc 3a2a 87bc
00000370: 1198 243c dc70 9c3c a9f3 d93c 83b3 31bd
00000380: 2782 fdbc e80b 09bd a974 e23c 6584 1f3d
00000390: 7b47 743d 0bf2 cabc f7ae 5dbd 728c edbc
000003a0: 770f 043c c8b9 bcbb 0ce9 a43c f3d5 863c
000003b0: c831 613d 0a24 373b 8bf1 4fbd 0b49 c43c
000003c0: a279 743d 4256 0f3c e4bc 7fbc 2bb7 22bb
000003d0: a017 8bbd a92a d1bc e2d0 1abc e108 4bbc
000003e0: 7396 d3bc 455d 14bd be00 c5bc 5cf7 bcbc
000003f0: 0c58 833c 2978 5fbd f760 c53b f14f 03bd
-0.020761378 -0.023504842 -0.045537926 -0.04048484 -0.04924209 -0.00066116126 0.027721692 -0.03902314
0.008360196 -0.006591684 -0.033571046 -0.049900096 0.047433395 -0.0019317043 -0.01880983 0.03550375
0.018503882 -0.057199538 0.017113244 -0.032213777 -0.045105703 0.0061026765 -0.030978762 -0.03581415
0.03136114 -0.031170953 -0.04891311 0.07479572 -0.05140522 -0.0056218226 -0.048095334 0.024212237
-0.008481748 -0.00400469 -0.045763794 -0.031448584 0.021286655 0.014682743 0.00847284 0.015636357
0.03695415 -0.016883057 0.018067118 0.028677162 0.011351097 0.09133782 -0.040881485 0.0611075
0.023079202 0.008053843 -0.026320074 0.034331918 0.032411158 -0.017054776 0.039344534 0.113745525
-0.0322102 0.047184244 0.013273333 -0.004061658 0.00040129476 -0.014661337 -0.03357372 -0.0071779247
0.014474441 0.0011566882 0.0474131 -0.058283873 -0.03044511 -0.019334467 -0.0627647 -0.0407151
0.02502506 0.03589569 -0.0025473307 -0.011419592 0.016112326 0.040826373 0.0123981135 -0.046971656
-0.028923718 -0.011514582 -0.043246165 -0.044710167 0.009733974 0.026933081 0.004212473 0.015013796
-0.028761001 0.05437591 -0.015494179 -0.017278655 -0.006845114 -0.030035177 -0.019099832 -0.026998676
-0.008944662 -0.0011543231 -0.044117484 0.010967349 -0.00025000845 -0.051179495 -0.038931817 0.003830162
0.033185605 -0.07084522 -0.05553481 0.0046835775 0.0076745003 -0.011325158 -0.04469073 0.013273423
-0.046950545 -0.01245947 -0.044880833 0.004395839 0.0005001904 -0.00064363703 -0.021814207 -0.0010225382
0.027639354 0.012449097 0.0076713115 -0.03261824 0.0061302655 0.02650164 -0.060945757 0.0413145
-0.0024552138 -0.047750346 -0.058434214 0.014775001 0.011522678 0.0273461 -0.07317601 -0.00074176106
-0.0009184225 0.07138916 -0.011911249 0.0002992599 -0.019531364 0.004470479 -0.021487795 0.023440115
0.020589732 0.04043416 -0.0014876429 -0.013675993 -0.034397844 -0.03151339 0.03828798 -0.05331806
-0.030089615 0.035135288 0.006703234 0.032224312 0.022613538 0.012637617 -0.065449595 -0.042429402
0.023804609 -0.017039465 -0.05478397 0.02501316 -0.06836545 0.012934671 -0.04697067 0.02365886
-0.052963227 -0.059562318 -0.0007906013 -0.044897784 0.031878088 -0.050238602 0.03324513 -0.030914636
-0.045538504 0.01283235 -0.018092737 0.034659714 -0.017366458 -0.044690523 -0.02814422 0.0067048264
-0.038689405 0.0045352066 -0.025432168 -0.0077226153 -0.06327664 -0.034892596 0.016122816 -0.028990079
0.0013936975 0.032810044 0.0088734515 -0.028188964 -0.038474653 -0.06297012 0.007092572 -0.030817239
-0.026216162 -0.0020174207 0.037489686 -0.023311857 -0.010604187 0.03564554 -0.0101663545 0.019992784
0.022766486 -0.00018939046 0.081622 0.0017155117 -0.04603981 0.0018142111 -0.006202776 -0.045448754
-0.042026784 0.0054547805 -0.018576557 -0.016499627 0.010046021 0.019096784 0.026605444 -0.043384086
-0.03094585 -0.03345862 0.027643519 0.03894462 0.05963848 -0.024773618 -0.054121938 -0.028997634
0.008060328 -0.0057594515 0.020130657 0.01645944 0.054979116 0.0027945065 -0.050767463 0.02396061
0.05968631 0.008748593 -0.015609 -0.0024828415 -0.067916155 -0.025533037 -0.009449216 -0.012392254
-0.025828576 -0.03622176 -0.024048205 -0.023067169 0.016033195 -0.054557953 0.006023522 -0.03205866

model2.4.weight f4 [64, 256]
00000000: 4796 3c3d 7d7d 9a3d 0496 4dbd fe7f a4bc
00000010: 3e1f a4bc d7df 91bc 7f26 5abb 29e8 103d
00000020: 36b7 613d 3b00 503d 59c6 e7bc 0c65 0a3d
00000030: ef42 08bd 8e2f 80bd a074 7bbd f75b de3d
00000040: e8ea 14bd a216 2ebd b5ca 9bbc de04 2bbd
00000050: 24e8 8bbc 8b84 aa3c 53ae 813c 296a 75bd
00000060: 1632 a0bc 28ad 24bb 5e1a ad3c ded2 023d
00000070: e900 193c f7d4 5c3d 7ffa f83c a80a 97bc
00000080: 928d f23d 64a9 903b ab75 a53c e2f2 72bd
00000090: 6068 16bd 5500 523d cb2a 443c 3918 433c
000000a0: bc0c adbb 322b 423d 2159 1c3d 6bf6 dc3c
000000b0: b90f 1d3d 2e84 90bc f9d5 413d 055b e6bd
000000c0: dd78 493d 82cc 813d 2eeb 2ebd 7562 5d3a
000000d0: 6a07 3b3c 96c2 313d 1ac8 303d 93cb 843d
000000e0: d55f 153d cdb1 f0bc 9925 983c fa66 ebbc
000000f0: e7ae 113c be17 c53c 3293 393d 4c53 143d
00000100: a4ed c3ba b636 10bd df10 ca3c 42e0 473d
00000110: d557 4ebc de86 a3bc b9df cf3d 8a22 5bbd
00000120: 19cf bf3d d8ee 46bb fd47 a7bc cb85 d1bc
00000130: d4b1 b9bc b958 ac3c 464f 6d3c bfb2 423c
00000140: 289e 78bd 1096 58bc 7853 033e 09f1 7abc
00000150: 9ddb 0e3d b6a0 4a3d 80cd 89bd 809f 953c
00000160: 7a53 433d b7d7 bb3c b84d ec3c 4b27 103d
00000170: fe2c 873c d0a8 4b3d 725a aa3c e5d5 373d
00000180: 1f5e dd3b dbd7 953d 0275 373d ba43 5e3d
00000190: 8884 3f3d 5e54 5e3d 858a 163d 3415 893d
000001a0: b844 1fbc 5ff4 323d d912 203d d54a 263d
000001b0: e874 1b3d 8238 36bd 910b 963c 4ad8 e13c
000001c0: 2871 8ebc 0281 ca3c b04f d33c 2715 eabb
000001d0: 8e67 31bd cf52 f33c caf5 bf3c c0d9 83bb
000001e0: 1e66 f53c a03e a4bc d30c 3c3d e0f2 01bd
000001f0: 53b5 e23b 060b 823d c7a5 b3bc af7e 58bd
00000200: 9188 fdbc aeb0 56bd e669 953c 780a 9cbb
00000210: d893 a9bb f51f 0e3c 495a 84bc 059a cf3b
00000220: 7d3d 79bd 3a6b 0fbd 59b6 e83c 106c 063e
00000230: 41b8 4bbc b04e 233d 87d8 b23d 2455 66bd
00000240: e08e 27be b5ee e93c 0b74 10bc a0cc e5bb
00000250: 88aa c93c 144b 1dbd 3219 4abd ed58 5bbd
00000260: 1b2f 693d a725 a83d 9a3c 8ebc 072e a6bc
00000270: 6e90 8a3d bc2e ac3d 8d42 ca3d 659e 613c
00000280: 220a 29bd 8fe4 08bc c36f 513c e7db 52bd
00000290: 6639 3d3c 527f 86bd 9eab d43c 7412 483c
000002a0: ef66 e2bc 07ad 73bd a6c5 513d 2cfa 123d
000002b0: 73db b4bb 32d7 f03c 50a9 4ebd b469 85bb
000002c0: 7121 87bd 02fa 183a 74b5 123d e803 febc
000002d0: afb3 4fbd 3956 6a3d 63f8 f4bd 7bea 003c
000002e0: ca72 823d dbe7 983c b8d5 293d 7c0a 21be
000002f0: 1454 84bc e3a3 8a3d dce6 62bc 26df febb
00000300: 6c5c 4fbb 8b93 343c 5b3f 873c 3d3f 403d
00000310: 16cb 48bb fdb1 943d ac5e 69bd 5eea 443d
00000320: efc0 8ebc 439f 013e bf0d 0c3d 7265 d13c
00000330: 0050 fa3c 4e05 ab3c 7523 5dba 4526 fdbc
00000340: a0e2 373d 924f 483d 7bb5 9f3c f755 413d
00000350: 3c7b 04bd 4851 413c ee44 123b f38b 1abd
00000360: 8efd 5fbc 1790 cd3d a1d6 a6bb 604e 3ebc
00000370: 13a9 873d 221f a23d 784a 00bd efdd 29bd
00000380: 6469 89bc 2130 293b 791c ab3d a6fb a03c
00000390: ec2d 483d 72aa 33bc 4121 50bd 7e5f b33c
000003a0: 6ae8 183d 93be 653c 6a6a 1a3c d04b 013d
000003b0: 9911 9abc 72b1 eabc 8768 a6bc 0285 81bd
000003c0: 9eef 103d 65e4 0cbc 4e30 5c3d 727e 46bd
000003d0: 3b1d fcbc b037 863c f065 7bbb ad5b 393d
000003e0: c516 22bd 3896 543c 136a e0bc c570 fc3c
000003f0: 94b1 963c 25d2 e23c ba99 1f3c 575d 603d
0.046041753 0.07543466 -0.050191894 -0.020080563 -0.020034429 -0.01780693 -0.0033287106 0.035377655
0.055106364 0.05078147 -0.028292822 0.033787772 -0.033266958 -0.0625907 -0.06139052 0.10857385
-0.036356837 -0.042502053 -0.019017557 -0.04175269 -0.017078467 0.020815155 0.015830195 -0.059915695
-0.019555133 -0.0025127623 0.021130737 0.03193938 0.009338596 0.053914037 0.030392883 -0.018437698
0.11843409 0.004414724 0.02019771 -0.059313662 -0.036720634 0.051269848 0.011973093 0.011907631
-0.005281059 0.047404476 0.038170937 0.02697297 0.038345072 -0.017641153 0.0473232 -0.11247829
0.04918753 0.06337835 -0.042704754 0.0008445152 0.011415342 0.043398462 0.04315958 0.06484141
0.036468346 -0.029381657 0.018572615 -0.028735626 0.008891798 0.024059173 0.045306392 0.03621225
-0.0014948142 -0.035208426 0.024666248 0.048797853 -0.012594183 -0.01996177 0.101500936 -0.053499736
0.093656726 -0.0030354764 -0.020420069 -0.025576493 -0.022667803 0.0210384 0.014484232 0.011883437
-0.060697705 -0.013219371 0.1282481 -0.015316256 0.03487741 0.049469672 -0.06728649 0.018264532
0.04768703 0.02293001 0.028845653 0.035193723 0.016500946 0.04972154 0.02079508 0.04488172
0.006755605 0.07316562 0.04478932 0.054263808 0.04675725 0.054279678 0.036753196 0.06693497
-0.009720974 0.04369008 0.039080475 0.04059871 0.037953287 -0.044487484 0.018316062 0.027568955
-0.017387941 0.024719719 0.025794834 -0.007143635 -0.043311648 0.029702572 0.023432631 -0.0040237606
0.02995592 -0.020049393 0.045910668 -0.031725764 0.006918588 0.06349759 -0.021929635 -0.05285519
-0.030948909 -0.05241459 0.018238973 -0.00476199 -0.005175095 0.008674611 -0.016156333 0.006335499
-0.060849655 -0.03501437 0.028407263 0.1312716 -0.012434066 0.039869964 0.087327056 -0.05623354
-0.16363096 0.028556207 -0.008816729 -0.0070129186 0.024617448 -0.03840168 -0.049340434 -0.053551603
0.05692969 0.082103066 -0.017362881 -0.02028562 0.06765829 0.084073514 0.09875975 0.013770674
-0.04126943 -0.008355274 0.012782994 -0.051479246 0.011549329 -0.06567253 0.02596074 0.012211431
-0.027636973 -0.059491184 0.051213883 0.035883114 -0.0055193244 0.029399488 -0.050454438 -0.0040714387
-0.06598175 0.0005835594 0.03581758 -0.031007722 -0.05070847 0.057211135 -0.119614385 0.0078684045
0.063695505 0.018665245 0.041463584 -0.15726656 -0.016153373 0.0676954 -0.0138489865 -0.007778066
-0.003164078 0.011021505 0.016509702 0.04693531 -0.0030638627 0.07260511 -0.05697505 0.048075072
-0.017425982 0.1265841 0.034192797 0.025561068 0.030555725 0.020876553 -0.00084357645 -0.030902037
0.04489386 0.04890401 0.019495716 0.047201123 -0.032344088 0.011799164 0.0022318917 -0.037731122
-0.013671292 0.100372486 -0.0050915037 -0.011615366 0.06624045 0.07916094 -0.03132102 -0.041471418
-0.016773887 0.002581604 0.0835504 0.019651245 0.04887192 -0.01096593 -0.050812963 0.02189612
0.037331022 0.014022487 0.009424785 0.03156644 -0.01880722 -0.028649066 -0.020313514 -0.06324197
0.035384767 -0.008599375 0.053757004 -0.04846043 -0.030775657 0.016383976 -0.003836032 0.045253444
-0.039572496 0.012975268 -0.02739433 0.030815491 0.018395223 0.027688095 0.009741241 0.054776516

model2.4.bias f4 [64]
00000000: 9631 53bd 4cd3 5e3c 595b 6abd 61a8 87bd
00000010: ebbe 5bbd 1f61 813d 18d5 913d b59e 65bc
00000020: 1275 e73c 4817 053d 0bb3 493d 856d 60b9
00000030: 36c4 523d cb4c 093d 12f4 cf3d 3434 c03c
00000040: abdb 53bd 1790 07bd f1f3 883d ac3f 40bd
00000050: d1d1 4bbd 50f0 1e3d e2de b2bc 181c 47bd
00000060: 078c 45bd 5eb5 bbbc 06e1 3ebd d162 3e3d
00000070: 6825 14bd c52f 353d 3d99 a4bd a9ed c33d
00000080: d979 73bd a849 44bc d68e 31bd 2197 d8bc
00000090: e2d6 97bd dba0 913c 16c7 0dbd 0972 21bc
000000a0: 1332 a63b d912 68bb 0576 28bd 8cbd 273d
000000b0: d7c4 db3c eb59 9bbb f6a5 22bc 1ae4 c43c
000000c0: b14c 1d3d 5d61 783b b28e e13b eca0 4d3d
000000d0: c619 58bd 83a0 8cbd e37d 8f3c 0174 5c3d
000000e0: c462 943d 0e91 35bd 6250 803c 4bfa 823d
000000f0: b804 8a3c 1f5a 703c d00f fdbb 32ee 18bd
-0.05156096 0.013600182 -0.057216022 -0.066239126 -0.05364887 0.063173525 0.071207225 -0.0140148895
0.028254066 0.032492906 0.049243014 -0.00021403104 0.051456653 0.0335205 0.101539746 0.023462392
-0.051723164 -0.0330964 0.06687153 -0.046935722 -0.049760643 0.0388034 -0.021834794 -0.048610777
-0.048229244 -0.022913631 -0.046601318 0.046480957 -0.036168486 0.04423501 -0.080370404 0.095668145
-0.059442375 -0.011980452 -0.04334911 -0.026439251 -0.074140325 0.017776897 -0.03461369 -0.009853848
0.0050718873 -0.0035411625 -0.041128177 0.04095225 0.026827259 -0.0047409437 -0.0099272635 0.024034549
0.038403217 0.003789983 0.0068834657 0.050202295 -0.052758954 -0.06866553 0.017516082 0.053821567
0.072454005 -0.044327788 0.01566333 0.06395396 0.016847953 0.014669924 -0.0077228323 -0.037336536

model2.6.weight f4 [4, 64]
00000000: 98ad 3b3b 5a2c e13d 9d4b 833d e760 50bd
00000010: 2b0e a8bc 4c53 503d d274 02be 9feb 61bd
00000020: c8b1 9ebd ade9 893d 6492 bf3d bbae 583d
00000030: bcd4 24be ac98 72bb f355 05be b82d 53bc
00000040: 6372 acbd 73d2 413d b57f 203d 48a0 adbc
00000050: f3cc e1bd a822 e23d 0d2a 88bd f93f bd3d
00000060: 08eb 2abc 7991 11be 642e bf3d a1ee 0fbe
00000070: 7669 a93d cdb8 94bd bada 37bd 0fc5 b2bd
00000080: 5d19 d73d da34 6bbd 90ec bcbc 7729 1e3c
00000090: 8805 99bd 4624 8a3d b55b e2bc 0202 acbc
000000a0: acca cb3c 8a4b 25bd 859d 04bd 8793 6cbd
000000b0: 9bb1 673d 11b3 9abd d571 eb3b ac3b a0bd
000000c0: b7aa 4b3d a2d0 9c3d 6c55 8d3d 92e1 143e
000000d0: 5b3b 0f3d bede b13c 7878 fd3c 04fc e53c
000000e0: 9334 c7bd b894 dabd 6282 e93d b246 773d
000000f0: 8d96 21bc 0878 e03d 0c88 d13d 2778 3d3d
00000100: adc2 763c 6aae 83bc f85a 8dbd f586 8b3d
00000110: 2b24 d5bd 8e23 243e 4d30 3fbc 609f 6d3d
00000120: c593 95bd 9295 a8bd acbe 9c3d e846 22bc
00000130: 5cac eabc fd4f 98bd cd43 8a3c 1725 1a3d
00000140: 0227 07be 379e 36bd d1ed 223e 887b 56bc
00000150: a785 073e b6cf 223e 6588 0abd 0397 c6bc
00000160: 2009 bebc b109 0abd d8d9 e4bd 7492 793d
00000170: 850e e5bb 2fe3 0dbe ad34 86bd 8a2b 8fbd
00000180: 1948 623d 2e29 1f3e bd71 e83c b1e2 2a3e
00000190: 29a0 68bd afd3 cc3d 5758 fb3c f4bf bc3c
000001a0: 4a1d 57bd 1080 2f3d 4c08 6a3b 27ef b93d
000001b0: bdb1 703a 2dce ebbd a98f a3bd b895 453e
000001c0: 8909 783d cac2 48bd 205d 063e ee7b d9bc
000001d0: 0f49 6e3d 4ee7 e5bc ba64 d9bd c628 1b3e
000001e0: 300a e0bd 5ee8 cbbd c265 9e3d 7254 c4bc
000001f0: 99fb ef3c 743a 333d 46b8 ad3d e670 713d
00000200: 02ca b03d aa8e 81bd 0c76 1fbe 0364 d9bd
00000210: 005a 1bbd 9eab 663d 07e7 eebc 20cb 8dbd
00000220: 76a4 af3d 13fd abbd fdd5 0d3e 576e fe3c
00000230: ca55 eb3d 11c3 6cbd 24e8 193d 2222 a1bd
00000240: 3be1 073d 7f1e 4f3d 5fa9 3e3d 7a72 8f3d
00000250: 1a60 fc3d 8115 593d 7bf7 953d 5f8e 84bd
00000260: 7908 693c a7d6 2b3d 2c7f a33d f096 843d
00000270: 111c dd3d 4e6f ddbd c5ae 04be af5e ec3d
00000280: 780b ebbd 4320 46ba 43a3 d5bd 6027 08bb
00000290: 63ff c03d 6588 043d 3207 debd d9d9 0b3c
000002a0: 2e68 3cbd 9682 97ba c8c7 983c 1de5 04be
000002b0: c568 8c3d 81e8 bebd f2ae d73c 8e69 063d
000002c0: 94d6 d53b 6da3 0dbe ce15 d83d 159b abbd
000002d0: daeb 7cbc 599d 3ebc 2130 6ebd 9bac 2cbd
000002e0: 9e19 823c bf00 4abc 10ac 263d 850e 80bd
000002f0: 8799 7a3d b6c2 413d 3892 98bd 106c 54bd
00000300: 8302 693c 78be a13d 3a4d a33c 1161 143e
00000310: 43e6 b9bd 9751 47bb f35b 8dbd 2545 59bd
00000320: 2429 a1bd 9058 95bd 43e2 003e 324c 3dbc
00000330: 4cde 253d 938a 3cbc cc01 1ebe fd7b 4bbd
00000340: 911f ee3c 8ecd dcbd 3e8f c83d 439a 473d
00000350: ec8c 153c 4f88 03bd 599a 1fbd bdd3 973d
00000360: 2750 ac3d fbb5 a53c fbd7 4ebd d926 0e3e
00000370: 1064 113e 1387 773a c55f 05bc 395b e1bd
00000380: efbd 56bd 8ba0 44bd 0e50 1abe e3fc 0f3d
00000390: 91b8 c5bd c5e7 f63b 435c 9c3c 65b4 e33d
000003a0: 756f c03c 09a8 04bd 6b54 1e3d aee7 a6bd
000003b0: 704e 243e fc5e 7c3d a9f2 a4bc cd1f 61bc
000003c0: 4f0d e2bc 9920 3dbd f645 4b3d 48ba b13d
000003d0: 5092 023e f998 1a3d 8dde 17bd 1f00 073d
000003e0: 5787 d3bd 2bba aa3c d22c 933d 0e3c 3cbe
000003f0: a11a a63c 60d7 983d 1c8f eabc 8df8 ab3d
0.0028637405 0.109947875 0.064109065 -0.050873663 -0.020514568 0.050860688 -0.12739876 -0.055156346
-0.07748753 0.06734023 0.09354094 0.05290101 -0.16096777 -0.003701727 -0.13021068 -0.012889318
-0.08420255 0.04731984 0.03918429 -0.021194592 -0.11025419 0.110417664 -0.066486456 0.092407174
-0.010432012 -0.1421565 0.0933502 -0.14055873 0.08272068 -0.072618105 -0.04488633 -0.08728992
0.105028845 -0.05742345 -0.02306202 0.009653441 -0.07471758 0.067452 -0.02763162 -0.020997051
0.024876915 -0.040355243 -0.032376785 -0.05775788 0.056565862 -0.075536855 0.0071852007 -0.078238815
0.049723353 0.07656981 0.069010586 0.14539173 0.034968715 0.021712657 0.030941233 0.028074272
-0.097268246 -0.10672897 0.11401822 0.060370155 -0.009862554 0.10960394 0.10231027 0.046257164
0.015061063 -0.016074378 -0.069021165 0.068128504 -0.10407289 0.16029188 -0.011669231 0.05801332
-0.073035754 -0.08231653 0.07653555 -0.009904601 -0.02864664 -0.074371316 0.016878033 0.037633028
-0.13198474 -0.04458448 0.15911032 -0.013090976 0.13234578 0.15899548 -0.033821482 -0.02424193
-0.02319771 -0.03370065 -0.11174363 0.060930684 -0.0069902563 -0.13856195 -0.06553016 -0.06990726
0.05524454 0.15543053 0.028374547 0.16688038 -0.056793366 0.10001313 0.030681772 0.02304075
-0.052518167 0.04284674 0.0035710512 0.09078818 0.00091817585 -0.11513934 -0.079863854 0.19295394
0.06055597 -0.04901389 0.13121462 -0.026548352 0.058175143 -0.028064396 -0.10614915 0.15152273
-0.10939443 -0.0995643 0.077342525 -0.023966048 0.029294776 0.043756917 0.08482413 0.05894556
0.0863228 -0.06326039 -0.15572375 -0.10614779 -0.037927628 0.05631601 -0.029162897 -0.06923509
0.0857629 -0.083978795 0.13851161 0.031058474 0.11490972 -0.057803217 0.037574902 -0.078678384
0.03317378 0.050566193 0.046548244 0.070042565 0.123230174 0.052999023 0.07322594 -0.06472468
0.014223211 0.041952755 0.079832405 0.064741015 0.10796369 -0.10812245 -0.12957294 0.11541497
-0.11476797 -0.0007557908 -0.1043153 -0.0020775422 0.09423711 0.03235664 -0.10841216 0.008535826
-0.04599779 -0.0011559303 0.01864995 -0.12978025 0.06855921 -0.0932169 0.026328538 0.03281551
0.006525824 -0.13831873 0.10551034 -0.08379189 -0.015437091 -0.011634194 -0.058151368 -0.042156797
0.015881356 -0.012329279 0.040691435 -0.062527694 0.06118157 0.04730483 -0.07449764 -0.05186087
0.01422179 0.07897657 0.019934285 0.14490153 -0.09077122 -0.0030413622 -0.069023035 -0.053044457
-0.07869175 -0.072922826 0.12586312 -0.011553811 0.040495202 -0.011507648 -0.15430373 -0.04967879
0.029067786 -0.10781394 0.09792946 0.0487311 0.009127837 -0.032112416 -0.038965557 0.07413433
0.08413725 0.020228377 -0.050498944 0.13882007 0.14198327 0.000944243 -0.008140509 -0.110037275
-0.05242723 -0.04800467 -0.15069601 0.03515328 -0.09654344 0.0075349533 0.019086963 0.11118392
0.023490647 -0.032386813 0.038654726 -0.08149658 0.16045547 0.06161402 -0.02013524 -0.013740492
-0.027594237 -0.046173666 0.049627267 0.086781085 0.12751126 0.037743542 -0.037077475 0.0329591
-0.103285484 0.020840725 0.07186283 -0.18382284 0.02027637 0.074629545 -0.028632693 0.08397017

model2.6.bias f4 [4]
00000000: c3de bf3d 5ea2 8dbd b111 31bd 458b 093d
0.0936866 -0.06915735 -0.043229762 0.033580083
