model_weight/actor/13_13 15:13:26 std 0.4 lr_actor_0.004- gamma_0.7 memory100 actor_weight.pth (torch, 646091 bytes, 9 tensors)

std f4 [4]
0.1305501 0.15649796 0.055144377 0.15623559
00000000: edae 053e 0041 203e 12df 613d 39fc 1f3e

model2.0.weight f4 [512, 24]
0.18327998 -0.032143436 0.036902335 -0.2366114 -0.010141638 -0.15767948 0.12137126 -0.08898237
-0.15455775 -0.21873872 0.05678066 -0.05571065 0.22049794 -0.18569118 0.055053465 -0.22036795
0.023625875 -0.005195833 -0.12732436 -0.14011143 0.0466572 -0.008613263 -0.037209503 0.09809268
0.002159972 0.07242836 0.027214563 0.12113161 -0.25612393 -0.057693325 -0.13079147 -0.15428802
0.104259506 0.08876723 -0.0037459352 -0.12574744 -0.23150781 0.00042372587 0.03998091 0.1977923
-0.13810128 -0.14655079 0.0772558 0.0017032241 0.07191843 -0.010475666 0.10706575 -0.15419112
0.1193762 -0.15779993 0.03962962 0.06636874 0.009003432 -0.028774438 0.037251584 -0.21675529
0.16438514 -0.29825705 -0.035557564 -0.10454007 -0.10242561 -0.0037686315 0.024155827 0.20244177
0.026457902 -0.009375466 -0.14461288 0.07669594 -0.052487627 0.16929334 0.122560784 0.16687816
0.015933182 -0.11450044 -0.27514562 -0.17387699 0.25354946 0.13678883 0.09562841 0.12243831
0.013959816 -0.16095407 0.04099407 -0.19378611 -0.22748171 0.11293222 -0.013250484 0.05694371
-0.12926981 -0.16117772 -0.15763132 0.096459664 -0.16001563 0.15100534 -0.013300326 -0.039712865
0.10761167 -0.07859978 -0.10163503 -0.1373974 0.19310655 -0.1407138 0.21695976 0.094781935
-0.031031648 -0.25749224 -0.15400702 -0.18060455 -0.07693204 0.26206416 -0.119155206 0.0050479984
-0.03004754 -0.015247897 0.25858682 0.10599916 -0.124201976 0.10291333 0.077986546 0.033300646
0.12866718 0.011350279 0.20671174 0.14711748 0.13904788 -0.012821503 0.08656552 -0.18803737
0.07830867 0.010194779 0.11611488 0.1182267 -0.069128916 -0.04579809 -0.12314348 -0.30362415
0.06701845 -0.23890606 -0.03105564 0.0008267828 -0.26169136 -0.29992503 -0.10434943 0.06384948
0.23736712 0.107453585 -0.15193102 -0.1893367 -0.026549403 0.13316286 -0.20197237 0.12346303
-0.1307862 0.10166335 0.05192402 -0.026988383 0.041062165 -0.19746558 -0.036042508 -0.0868497
-0.0927027 0.05111132 0.149214 -0.16380048 -0.07132173 0.021271894 -0.11990588 0.1432648
0.21783616 0.065399826 -0.09400075 0.053839196 -0.0147191975 0.10035069 -0.236948 -0.06890848
0.013982344 -0.02073417 0.06513802 0.16312727 0.15077151 -0.17197163 0.011241405 -0.12827417
0.10817701 0.08038795 -0.069836214 -0.0647485 0.028018741 -0.14095472 -0.010128101 0.05267822
-0.15499541 -0.08070194 0.17609754 0.06529665 -0.16376403 0.17901854 0.21518311 0.00068704924
-0.21184777 0.16093378 -0.09273895 -0.13315243 -0.06977376 -0.18133493 0.09374572 0.13162225
-0.15039843 -0.11221986 -0.023662599 0.07416229 0.02210571 -0.21452413 -0.10716208 -0.018972155
-0.17657958 0.15742359 -0.18332787 0.1329577 -0.2699022 -0.19489299 -0.2864557 -0.053789012
0.10969218 -0.04354066 0.029694406 0.05447189 0.083352774 0.038631503 -0.0054165646 -0.16344056
0.02014194 -0.1277648 -0.059843123 0.058443528 0.13602656 0.17391098 -0.06713792 -0.034389976
0.019133478 -0.016824499 -0.056297205 0.14315306 -0.06871313 0.14503609 -0.084771544 0.1943623
-0.047487896 0.0038017542 -0.18032841 -0.20817603 0.21167521 -0.2914258 0.0202012 0.09638103
00000000: bfad 3b3e d6a8 03bd e726 173d 424a 72be
00000010: 1d29 26bc bb76 21be 7f91 f83d 643c b6bd
00000020: 6344 1ebe 0bfd 5fbe d692 683d da30 64bd
00000030: 36ca 613e d425 3ebe be7f 613d 23a8 61be
00000040: 0d8b c13c ce41 aabb 5161 02be 5f79 0fbe
00000050: 9f1b 3f3d a51e 0dbc fe68 18bd d1e4 c83d
00000060: 518e 0d3b 5255 943d 13f1 de3c d913 f83d
00000070: ad22 83be d64f 6cbd 33ee 05be aefd 1dbe
00000080: 0286 d53d 98cb b53d 5d7e 75bb f0c3 00be
00000090: 6210 6dbe 8627 de39 06c3 233d 118a 4a3e
000000a0: 6c6a 0dbe 6911 16be 4a38 9e3d b83e df3a
000000b0: f849 933d 21a2 2bbc 4a45 db3d 47e4 1dbe
000000c0: 827b f43d 4e96 21be ab52 223d 55ec 873d
000000d0: 2183 133c 5fb8 ebbc 1e95 183d 19f5 5dbe
000000e0: 9454 283e 26b5 98be cfa4 11bd 1b19 d6bd
000000f0: 85c4 d1bd 25fb 76bb 71e2 c53c e54c 4f3e
00000100: 3ebe d83c 8e9b 19bc 6615 14be c312 9d3d
00000110: 44fd 56bd 3c5b 2d3e 2601 fb3d 1ce2 2a3e
00000120: 4e86 823c 357f eabd e3df 8cbe cf0c 32be
00000130: 3cd1 813e 5f12 0c3e d4d8 c33d f0c0 fa3d
00000140: b6b7 643c 25d1 24be 66e9 273d de6f 46be
00000150: f7f0 68be 0249 e73d 8f18 59bc cf3d 693d
00000160: 4e5f 04be c60b 25be 1b6a 21be a58c c53d
00000170: 23db 23be 25a1 1a3e 9ce9 59bc f5a9 22bd
00000180: 8263 dc3d ecf8 a0bd 0726 d0bd e7b1 0cbe
00000190: b9bd 453e 4717 10be b32a 5e3e 081d c23d
000001a0: 1536 febc 06d6 83be 04b4 1dbe 66f0 38be
000001b0: 8c8e 9dbd 462d 863e a507 f4bd ae69 a53b
000001c0: 4226 f6bc 51d2 79bc 7e65 843e 1616 d93d
000001d0: 9b5d febd 39c4 d23d 69b7 9f3d 4266 083d
000001e0: 54c1 033e 85f6 393c 3eac 533e f7a5 163e
000001f0: 9162 0e3e 4811 52bc 4349 b13d de8c 40be
00000200: 4c60 a03d 0108 273c a3cd ed3d d720 f23d
00000210: 7693 8dbd c796 3bbd a632 fcbd a074 9bbe
00000220: f840 893d caa3 74be 6668 febc 74bc 583a
00000230: 69fc 85be c68f 99be 27b5 d5bd 84c3 823d
00000240: 5e10 733e a010 dc3d ce93 1bbe 7be1 41be
00000250: 227e d9bc d85b 083e d8d1 4ebe 2fda fc3d
00000260: d1ec 05be e034 d03d 48ae 543d be16 ddbc
00000270: cd30 283d 6b34 4abe 4fa1 13bd 41de b1bd
00000280: eada bdbd 1a5a 513d 8ecb 183e 50bb 27be
00000290: 2111 92bd 6542 ae3c 3791 f5bd 02b4 123e
000002a0: 7110 5f3e 58f0 853d 7783 c0bd 7d86 5c3d
000002b0: ca28 71bc aa84 cd3d 7fa2 72be e41f 8dbd
000002c0: 3416 653c b5da a9bc 1567 853d d60a 273e
000002d0: d963 1a3e 5519 30be df2d 383c 4e5a 03be
000002e0: e98b dd3d 70a2 a43d 4a06 8fbd dd9a 84bd
000002f0: 8f87 e53c 6f56 10be 56f0 25bc 1ec5 573d
00000300: 1eb7 1ebe 0f47 a5bd ea52 343e 40ba 853d
00000310: c2b1 27be a350 373e f658 5c3e 181b 343a
00000320: 9fee 58be d3cb 243e ebed bdbd 1c59 08be
00000330: 8ce5 8ebd ddaf 39be c2fd bf3d fcc7 063e
00000340: 0c02 1abe 87d3 e5bd 11d8 c1bc 66e2 973d
00000350: 0917 b53c 37ac 5bbe cb77 dbbd 7e6b 9bbc
00000360: 47d1 34be a633 213e 4dba 3bbe 1026 083e
00000370: 9f30 8abe 0792 47be 52aa 92be de51 5cbd
00000380: 4ba6 e03d b157 32bd af41 f33c eb1d 5f3d
00000390: dcb4 aa3d 113c 1e3d 707d b1bb f65c 27be
000003a0: b600 a53c c7d4 02be 101e 75bd 7b62 6f3d
000003b0: 8c4a 0b3e b815 323e 9b7f 89bd 81dc 0cbd
000003c0: d0bd 9c3c 88d3 89bc e697 66bd b796 123e
000003d0: 78b9 8cbd 5784 143e b49c adbd e906 473e
000003e0: ab82 42bd da26 793b 03a8 38be 192c 55be
000003f0: 63c1 583e c335 95be fd7c a53c 6b63 c53d

model2.0.bias f4 [512]
0.14108446 -0.13155012 -0.09144602 0.10379987 -0.11837163 -0.054178666 -0.035375636 -0.10128042
-0.18871984 0.16596463 -0.04123471 -0.089756586 0.03663681 -0.08570267 0.1036472 -0.13584071
0.028567864 0.082594596 -0.11629575 -0.123732954 -0.038175393 -0.20662074 0.1063445 0.025986722
-0.087985344 0.085664794 -0.17096968 -0.04764623 -0.026101071 -0.24151327 -0.088281475 -0.06445067
0.052328244 -0.06360739 0.04471097 -0.13916335 -0.029191334 0.017820854 -0.043529492 -0.0994888
-0.16767746 0.07856248 -0.14069329 -0.00058853504 0.06959704 -0.07735421 -0.13485688 0.046087448
0.047301114 0.008806827 -0.13538566 0.07743753 -0.18651876 0.17495458 -0.0023979389 0.07915017
0.07077153 0.1166622 0.009923443 0.1062621 -0.11559177 -0.046711233 -0.15307182 0.049600445
0.20689565 -0.15521882 -0.051441483 0.10806533 -0.14433704 -0.07932953 -0.056921076 -0.08190102
0.14590162 -0.07463326 -0.022495322 0.16622008 -0.1096627 -0.012501754 -0.0041352026 0.038052797
-0.0049032373 0.09552327 -0.059204664 0.13749866 -0.026162142 -0.01752073 -0.12347809 0.18463267
0.13253374 -0.1259134 0.13662162 0.06506641 -0.02123034 0.0760907 -0.042577747 -0.02780532
0.006105507 -0.034409154 0.111119606 -0.12951069 0.044534016 0.044524983 0.18089943 -0.16106835
-0.00118811 -0.2190939 0.06770394 -0.019914983 0.015881954 0.11950639 -0.13792494 -0.17834915
-0.15304661 -0.035068344 -0.12593068 -0.020587873 0.031928778 -0.06029428 -0.089679815 0.03828999
-0.07624976 -0.015237676 -0.07027037 0.11554161 0.079603 0.17082563 0.14895229 0.13696086
0.052723736 -0.0096851345 0.11548905 0.09393737 -0.02990266 -0.15312843 -0.07259147 -0.10897495
0.0488884 -0.14615022 -0.047718532 -0.18143381 0.05693373 0.13162218 0.12751944 -0.035109106
-0.06837544 -0.17817688 0.03424992 -0.16625978 0.08351309 -0.047589075 0.009623225 -0.059793994
0.039103158 -0.13969198 0.03603328 0.09891714 0.12451896 0.153443 0.13941821 0.09614423
-0.15040646 0.055096395 0.1554314 0.08358738 -0.1243822 -0.15703176 -0.08095063 -0.09560062
0.1660161 -0.14052148 -0.11461436 -0.15597187 -0.23421791 -0.02115417 -0.23386855 0.03663296
0.07180522 -0.10194303 -0.03157484 0.19130154 -0.20525667 -0.21230023 0.028453989 -0.056188293
0.08621776 -0.057237852 0.15937828 -0.08787453 0.009254515 0.13408089 -0.070323296 -0.103368565
-0.13715678 -0.14572172 0.1707491 0.119093396 -0.1537468 0.058773465 -0.21095853 0.15361457
-0.11095251 -0.19079855 0.010506815 0.099494986 -0.17646416 0.026643438 -0.1823997 -0.050877146
0.17178647 0.14229177 0.027132371 -0.025253043 0.0954712 -0.08071092 0.014081658 0.19796367
-0.14866666 -0.1437926 0.15597874 -0.17056021 0.03730295 -0.018287344 -0.10331622 -0.035105303
-0.140798 -0.15842925 0.08897619 0.1767472 -0.115983844 -0.12428149 0.09184419 -0.18434802
-0.06330864 -0.20364588 0.0107384315 -0.12804906 -0.021785885 0.08290551 0.02206423 -0.22904542
-0.19982326 0.14801805 0.01018441 0.037360486 0.107305296 -0.06860738 0.12209662 -0.059561394
0.0013044049 -0.19602713 -0.09796379 0.023740526 -0.012030801 0.0039349813 -0.034901805 -0.1248455
00000000: 7278 103e 13b5 06be 0d48 bbbd 0795 d43d
00000010: d36c f2bd 73ea 5dbd 0be6 10bd 1c6c cfbd
00000020: c63f 41be a2f2 293e bae5 28bd 4dd2 b7bd
00000030: 7b10 163d e284 afbd fc44 d43d d419 0bbe
00000040: 2707 ea3c 5b27 a93d 772c eebd b467 fdbd
00000050: cd5d 1cbd 6394 53be 25cb d93d 1be2 d43c
00000060: a931 b4bd 0671 af3d ad12 2fbe b128 43bd
00000070: ead1 d5bc 414f 77be ebcc b4bd b6fe 83bd
00000080: 2456 563d 9744 82bd da22 373d d680 0ebe
00000090: aa22 efbc 0afd 913c fb4b 32bd c9c0 cbbd
000000a0: a4b3 2bbe 5ee5 a03d e711 10be eb47 1aba
000000b0: e588 8e3d e26b 9ebd ec17 0abe 31c6 3c3d
000000c0: d0be 413d 824a 103c 8aa2 0abe 9197 9e3d
000000d0: c6fe 3ebe 4b27 333e bd26 1dbb 7c19 a23d
000000e0: aaf0 903d 97ec ee3d f095 223c f29f d93d
000000f0: 61bb ecbd 4754 3fbd dcbe 1cbe d629 4b3d
00000100: 74dc 533e aff1 1ebe 4eb4 52bd 5b51 dd3d
00000110: 17cd 13be 8577 a2bd 1326 69bd b9bb a7bd
00000120: 3c67 153e 53d9 98bd 1c48 b8bc 9935 2a3e
00000130: d696 e0bd 28d4 4cbc 9880 87bb 40dd 1b3d
00000140: 56ab a0bb b4a1 c33d 9780 72bd 73cc 0c3e
00000150: fd51 d6bc a287 8fbc 15e2 fcbd 5910 3d3e
00000160: edb6 073e 71ef 00be 8ae6 0b3e 8a41 853d
00000170: 40eb adbc 71d5 9b3d 0166 2ebd fcc7 e3bc
00000180: b410 c83b 9df0 0cbd ad92 e33d 739e 04be
00000190: 4d69 363d d45f 363d b33d 393e 1aef 24be
000001a0: 5bba 9bba 275a 60be 5da8 8a3d bf24 a3bc
000001b0: df1a 823c c4bf f43d 323c 0dbe 29a1 36be
000001c0: 40b8 1cbe d3a3 0fbd f9f3 00be e6a7 a8bc
000001d0: c0c7 023d 23f7 76bd 0daa b7bd f7d5 1c3d
000001e0: d628 9cbd 72a7 79bc e9e9 8fbd 14a1 ec3d
000001f0: e606 a33d eaec 2e3e f386 183e 783f 0c3e
00000200: d8f4 573d 66ae 1ebc 8685 ec3d 3c62 c03d
00000210: 6cf6 f4bc b3cd 1cbe d6aa 94bd 422e dfbd
00000220: 343f 483d 67a8 15be 8274 43bd c9c9 39be
00000230: 5833 693d f7c7 063e 7594 023e 91ce 0fbd
00000240: 6c08 8cbd 0074 36be a549 0c3d 0140 2abe
00000250: e908 ab3d c3ec 42bd bbaa 1d3c 8cea 74bd
00000260: a22a 203d 6a0b 0fbe a297 133d 1295 ca3d
00000270: cc03 ff3d 2920 1d3e a6c3 0e3e 44e7 c43d
00000280: 2704 1abe c2ac 613d 6929 1f3e dc2f ab3d
00000290: 18bc febd efcc 20be 72c9 a5bd 42ca c3bd
000002a0: 2000 2a3e dde4 0fbe efba eabd 17b7 1fbe
000002b0: d2d6 6fbe 834b adbc 3d7b 6fbe 710c 163d
000002c0: 9d0e 933d 82c7 d0bd 9f54 01bd 8de4 433e
000002d0: ce2e 52be 3b65 59be 5718 e93c b225 66bd
000002e0: f092 b03d 3d72 6abd 0f34 233e 90f7 b3bd
000002f0: 40a0 173c 804c 093e a905 90bd e6b2 d3bd
00000300: d472 0cbe 1338 15be dad8 2e3e 3de7 f33d
00000310: cd6f 1dbe 72bc 703d 8305 58be 234d 1d3e
00000320: 123b e3bd b260 43be c724 2c3c 07c4 cb3d
00000330: 05b3 34be 5743 da3c fdc6 3abe 8e64 50bd
00000340: cbe8 2f3e efb4 113e b544 de3c 78df cebc
00000350: 6886 c33d c44b a5bd c1b6 663c fdb6 4a3e
00000360: 133c 18be 5e3e 13be e4b8 1f3e 56a7 2ebe
00000370: faca 183d 57cf 95bc 7497 d3bd 94ca 0fbd
00000380: 5a2d 10be 473b 22be 2639 b63d 38fd 343e
00000390: f088 edbd 4b87 febd cf18 bc3d bac5 3cbe
000003a0: f6a7 81bd 8c88 50be 3ff0 2f3c 4b1f 03be
000003b0: 5078 b2bc 5dca a93d 0bc0 b43c e28a 6abe
000003c0: 789e 4cbe 0b92 173e 83dc 263c 4f07 193d
000003d0: e1c2 db3d 0782 8cbd cb0d fa3d a6f6 73bd
000003e0: 91f8 aa3a 56bb 48be 3da1 c8bd 7e7b c23c
000003f0: d61c 45bc 04f1 803b 32f5 0ebd ffae ffbd

model2.2.weight f4 [256, 512]
-0.019641286 -0.017958643 0.0061024795 -0.026362408 0.040337294 -0.029546414 0.005983816 0.028139198
-0.006690749 -0.013712151 -0.00017629738 0.02760895 0.03488412 0.03440497 0.006402777 0.027274303
-0.028511252 -0.03247598 -0.035728145 -0.022285447 0.0012815534 0.023719674 -0.023875616 0.010045633
-0.001099668 0.034982413 -0.016578592 -0.041353837 -0.02204532 -0.019854523 -0.032399427 -0.0072651845
0.027531298 -0.035021737 -0.028590377 0.0015405172 -0.041367784 0.012735169 0.0012580537 0.04763894
-0.029236227 0.004072814 -0.003292901 0.005204277 -0.029773057 -0.007393973 0.010105305 0.008829868
-0.022947058 0.03367288 -0.01070923 0.018564686 -0.030927835 -0.018963747 0.02542875 -0.035246417
-0.044732805 -0.039836083 0.016998984 -0.021235315 0.028480342 0.027315797 -0.026326645 0.03331348
-0.034571704 -0.02092152 0.00933977 0.0081802625 -0.0447199 0.030796058 0.04425443 0.011651813
-0.045135096 -0.044653982 0.026233409 -0.03300266 0.02888996 0.023129908 -0.023497418 0.03366479
-0.046322763 -0.012778394 0.0058679827 -0.03430256 -0.034635086 0.008527045 0.010033204 -0.009586417
-0.005050901 0.028197791 -0.007821659 0.027888842 -0.013062045 -0.023461387 -0.044222567 -0.017778095
0.02144592 0.023016842 -0.008799828 -0.023039412 0.009128866 0.016883632 -0.0056033833 -0.0100942105
-0.04100995 -0.0065201414 -0.015778083 -0.007978394 -0.010319862 0.028574651 0.013886779 0.003714425
0.032596163 0.026024727 -0.047568046 -0.02412951 -0.0030634853 -0.04569239 0.029367672 -0.04062145
-0.031859636 -0.0052942494 -0.00067236053 0.016930617 0.009016707 0.014481043 0.013365563 -0.028428612
-0.021230206 -0.008174619 -0.05086393 -0.036650494 -0.035712056 -0.0025860923 0.027541343 -0.017239988
-0.038376544 0.03372164 0.02780151 0.029797945 -0.025829712 -0.019598963 0.00837537 0.03932561
-0.03852931 -0.03422558 -0.016801788 0.04001247 -0.047492933 0.012095146 0.0076126806 0.03403137
0.031558596 -0.02326407 -0.0012585642 0.004891799 0.004560013 -0.03251609 -0.02268639 -0.02925433
0.002026037 -0.044835072 0.029522136 -0.0024106628 -0.041820068 0.023296084 0.030986488 -0.0189303
-0.018193016 -0.0017830422 0.0020315906 -0.011214031 -0.013643003 0.008016963 -0.008009963 -0.043240115
0.018031051 -0.040957794 0.011186924 -0.029018251 -0.022866895 -0.0039091627 -0.051907938 -0.012201327
0.030098142 -0.029151857 -0.010355779 0.0017206973 0.034155305 0.019068547 0.010696817 0.035909843
-0.030557808 -0.03994092 -0.011599957 -0.0478163 -0.00644076 -0.014432708 0.0031255858 0.007817
-0.021420475 -0.040948424 0.024701376 -0.0014193959 0.016703669 0.01579342 -0.044975854 -0.037453182
0.0040981504 -0.02312624 0.00037395247 0.0017821131 -0.003410532 -0.012002394 0.041407328 -0.016376382
-0.038520698 -0.0031026383 0.02101077 -0.028549766 0.003514822 -0.008485132 0.013041804 0.016234694
0.03630623 0.009396873 0.009994537 -0.041534312 0.038116757 -0.022202373 -0.047773812 -0.037303686
-0.031232724 0.031823106 0.022170067 -0.030778402 0.029247137 -0.031477816 0.032167803 0.03765942
0.01593519 0.023492415 -0.040648803 0.023356397 -0.0125738755 0.004154658 0.01097619 -0.053429153
0.030773249 0.022014556 0.002243009 -0.04115239 -0.036612533 0.03589414 -0.040555894 -0.039508563
00000000: c3e6 a0bc 011e 93bc 4ff7 c73b faf5 d7bc
00000010: b838 253d 520b f2bc e313 c43b 2d84 e63c
00000020: 123e dbbb eea8 60bc 78dc 38b9 2a2c e23c
00000030: a7e2 0e3d 3aec 0c3d 63ce d13b 5c6e df3c
00000040: 6e90 e9bc 8905 05bd ad57 12bd f88f b6bc
00000050: ccf9 a73a c34f c23c cc96 c3bc 7096 243c
00000060: bc22 90ba b849 0f3d d4cf 87bc a462 29bd
00000070: 6398 b4bc f4a5 a2bc 43b5 04bd c910 eebb
00000080: 5189 e13c f472 0fbd 5e36 eabc 2eeb c93a
00000090: 4471 29bd 2ca7 503c 47e5 a43a 0d21 433d
000000a0: d080 efbc 3d75 853b b6cd 57bb a488 aa3b
000000b0: a0e6 f3bc 2449 f2bb b990 253c 27ab 103c
000000c0: 78fb bbbc 93ec 093d c475 2fbc f814 983c
000000d0: 5f5c fdbc dc59 9bbc f44f d03c 8c5e 10bd
000000e0: bf39 37bd 292b 23bd 7441 8b3c aff5 adbc
000000f0: 9b4f e93c 61c5 df3c faaa d7bc b773 083d
00000100: 0f9b 0dbd 9c63 abbc d605 193c 8206 063c
00000110: 372c 37bd 0448 fc3c 2244 353d 3fe7 3e3c
00000120: 94df 38bd 18e7 36bd 72e7 d63c cc2d 07bd
00000130: a3aa ec3c ef7a bd3c a87d c0bc 17e4 093d
00000140: f0bc 3dbd 785c 51bc 3548 c03b d780 0cbd
00000150: 85dd 0dbd 05b5 0b3c 4f62 243c 5910 1dbc
00000160: 0782 a5bb 0eff e63c 6a26 00bc 2477 e43c
00000170: 3002 56bc 1832 c0bc b922 35bd 5ea3 91bc
00000180: 5baf af3c d18d bc3c 272d 10bc 26bd bcbc
00000190: 3d91 153c 8b4f 8a3c 969c b7bb 3062 25bc
000001a0: 0dfa 27bd e9a6 d5bb 0a41 81bc cfb7 02bc
000001b0: a314 29bc 6315 ea3c 5f85 633c b66d 733b
000001c0: 8e83 053d cf31 d53c b6d6 42bd 40ab c5bc
000001d0: c1c4 48bb f227 3bbd 7994 f03c ad62 26bd
000001e0: 407f 02bd 627b adbb 5a41 30ba 14b2 8a3c
000001f0: cfba 133c e641 6d3c 3cfb 5a3c 1fe3 e8bc
00000200: f8ea adbc d6ee 05bc b256 50bd d41e 16bd
00000210: ce46 12bd 6e7b 29bb 629e e13c e03a 8dbc
00000220: b930 1dbd b41f 0a3d febf e33c d21a f43c
00000230: d598 d3bc 018e a0bc d938 093c e413 213d
00000240: e9d0 1dbd 1f30 0cbd e7a3 89bc 1ee4 233d
00000250: f387 42bd b82a 463c cb73 f93b 7a64 0b3d
00000260: 9643 013d 4a94 bebc 68f6 a4ba 624b a03b
00000270: 296c 953b 972f 05bd cfd8 b9bc c7a6 efbc
00000280: 43c7 043b fba4 37bd 68d8 f13c 36fc 1dbb
00000290: 854b 2bbd 6ed7 be3c 60d7 fd3c b713 9bbc
000002a0: 8509 95bc f8b4 e9ba 6f24 053b 0ebb 37bc
000002b0: e786 5fbc 9459 033c 383c 03bc 8c1c 31bd
000002c0: dbb5 933c 5cc3 27bd 5c49 373c afb7 edbc
000002d0: 5b53 bbbc 6f18 80bb 6b9d 54bd 13e8 47bc
000002e0: 6190 f63c e0cf eebc 49ab 29bc 0589 e13a
000002f0: 6fe6 0b3d a435 9c3c b441 2f3c 3316 133d
00000300: 5e54 fabc 1799 23bd bf0d 3ebc 06db 43bd
00000310: 030d d3bb 2a77 6cbc a1d6 4c3b e012 003c
00000320: fe79 afbc 89b9 27bd 8a5a ca3c 060b baba
00000330: 22d6 883c 3461 813c 9a38 38bd 8268 19bd
00000340: c749 863b 3e73 bdbc 0d0f c439 cb95 e93a
00000350: 3b83 5fbb b0a5 44bc bb9a 293d c327 86bc
00000360: e1c7 1dbd a255 4bbb c71e ac3c 33e1 e9bc
00000370: ee58 663b 3905 0bbc 4aad 553c 9ffe 843c
00000380: d7b5 143d 58f5 193c 20c0 233c e21f 2abd
00000390: 5120 1c3d c0e1 b5bc 79ae 43bd c0cb 18bd
000003a0: c5db ffbc f258 023d 009e b53c fd22 fcbc
000003b0: b197 ef3c e2ee 00bd 63c2 033d c440 1a3d
000003c0: 848a 823c 2a73 c03c 5c7f 26bd ea55 bf3c
000003d0: a802 4ebc cc23 883b 7ad5 333c 87d8 5abd
000003e0: 2e18 fc3c df57 b43c 72ff 123b 698f 28bd
000003f0: 06f7 15bd bc05 133d f01d 26bd bbd3 21bd

model2.2.bias f4 [256]
-0.004392078 -0.02449709 0.012176584 0.0008956654 -0.0013292144 0.03377451 0.022892626 0.0421952
0.010132221 0.027197512 0.023342248 0.0072874366 -0.00019845612 -0.026901044 -0.03125776 0.0059057116
-0.055683665 -0.030972889 0.016036069 -0.016012035 -0.0059057395 -0.022493506 -0.0010338416 0.0016324891
0.021298112 -0.02407337 -0.030891988 -0.0010937543 -0.043676555 -0.030556498 0.01869168 -0.026000952
-0.008533572 0.03834666 -0.023474436 0.005665063 0.0062535414 -0.014920754 -0.043250423 -0.022105642
0.006549972 -0.040009398 0.024942953 0.023518397 0.030072628 -0.014253 -0.04209241 0.0047501754
-0.024234202 -0.035130884 0.060477857 0.031639516 -0.018473955 -0.045263972 0.016315604 0.033166427
-0.030337216 -0.0031543209 0.030108925 0.044361968 0.008044028 -0.02538294 0.068476155 0.035606246
-0.043745097 -0.0017367763 0.027462622 -0.022383355 -0.011041219 -0.003248626 -0.038167007 0.031846397
-0.021929242 -0.005732608 -0.0008009077 -0.031067304 -0.025126256 -0.022970624 0.002049897 -0.019534871
-0.05387709 0.021232454 -0.00313779 0.010033624 -0.029724302 -0.012376749 -0.0025651478 0.028469088
0.03380094 -0.014482474 0.02295432 -0.025887888 -0.033972226 -0.009952322 -0.025943963 -0.043130632
0.012968054 0.015289243 0.0065098624 0.0025833366 -0.041872114 -0.020109724 0.035793763 0.05493601
-0.0007321837 0.00047854424 -0.025666086 0.013521233 -0.037731886 -0.031314135 0.019622292 -0.049330775
-0.013872635 -0.01453892 -0.056314774 -0.03392241 -0.04867129 0.006439323 0.034636877 0.01642018
-0.012718658 -0.025478546 -0.05294867 0.004563687 -0.008621115 0.05563198 -0.020973112 -0.0027212969
-0.04318697 -0.053779088 -0.02499716 0.017990025 -0.012357523 0.017639382 -0.034949932 -0.02108239
-0.041776747 0.04239734 -0.023045348 0.0155428555 0.04486196 0.0112173315 -0.024155205 -0.052037664
-0.004091668 -7.4018564e-05 0.04247957 -0.0023266703 0.020450125 0.019727362 -0.0116727445 0.0030813783
-0.04882702 -0.041076813 0.031206064 -0.04893822 -0.046477754 -0.014996598 -0.04259329 0.035889972
0.07540043 -0.021466682 0.06084134 -0.055538625 0.0032943333 0.0065777283 -0.007172349 -0.014101097
-0.007946247 0.009979335 -0.046634383 0.04365154 0.022951938 0.04400705 -0.045082323 0.020272627
-0.004455558 -0.05386768 0.05325567 0.0054301363 -0.046171848 0.034983892 -0.0203141 0.00813069
-0.05657609 -0.034861397 -0.007730575 0.011015259 -0.033941526 0.017015837 0.013911068 0.00013563204
-0.02985235 0.023213781 0.024021346 -0.055242024 -0.0028122282 -0.052952208 -0.044186626 -0.017091446
-0.035453763 0.002959452 0.005931485 -0.039409053 0.01182662 -0.04835904 -0.030307703 -0.05363778
-0.05517292 -0.04597393 -0.006777471 0.0038083403 -0.051369347 -0.0049810675 0.046374805 -0.047652896
-0.022797698 0.03986311 -0.035032753 -0.019840728 -0.03016481 -0.03605853 0.031056078 0.059136566
0.056819957 0.037122346 -0.024365323 -0.0024078572 0.0032512231 0.06713587 -0.02259388 0.028168404
0.034388497 -0.046193156 -0.032586236 -0.00052032276 -0.03381325 -0.0013918328 0.019000752 0.01881219
0.022259222 -0.047277194 -0.047627196 -0.03562464 0.01987829 -0.0081943525 0.03713564 -0.0401287
0.0055930093 0.028381228 -0.014171452 -0.053223576 0.023443505 -0.013560302 -0.013429989 -0.038523007
00000000: 6ceb 8fbb 1fae c8bc 4c80 473c 16cb 6a3a
00000010: 0939 aeba 2457 0a3d 5189 bb3c e0d4 2c3d
00000020: 9d01 263c 51cd de3c 3e38 bf3c 73cb ee3b
00000030: a918 50b9 945f dcbc 2308 00bd b384 c13b
00000040: 8e14 64bd dbba fdbc 135e 833c ac2b 83bc
00000050: ef84 c1bb 4d44 b8bc f881 87ba 3ff9 d53a
00000060: 6179 ae3c 8435 c5bc 3211 fdbc 4e5c 8fba
00000070: 30e6 32bd 9f51 fabc 4b1f 993c f3ff d4bc
00000080: 65d0 0bbc 6311 1d3d 764d c0bc fea1 b93b
00000090: 82ea cc3b 2e76 74bc 5b27 31bd e416 b5bc
000000a0: 26a1 d63b e5e0 23bd 2a55 cc3c a7a9 c03c
000000b0: df5a f63c 6a85 69bc 1769 2cbd 5ca7 9b3b
000000c0: ce86 c6bc 67e5 0fbd a1b7 773d 7098 013d
000000d0: b156 97bc b766 39bd 4da8 853c 85d9 073d
000000e0: c185 f8bc b9b8 4ebb fea6 f63c e5b4 353d
000000f0: 19cb 033c e2ef cfbc 3a3d 8c3d dbd7 113d
00000100: 0f2e 33bd 8ba4 e3ba 4bf9 e03c 4c5d b7bc
00000110: 3be6 34bc e6e6 54bb 0255 1cbd 5e71 023d
00000120: f4a4 b3bc 9ad8 bbbb 02f4 51ba dc80 febc
00000130: 94d5 cdbc e42c bcbc 9157 063b 9807 a0bc
00000140: 39ae 5cbd afef ad3c 61a3 4dbb 1264 243c
00000150: 6180 f3bc d9c7 4abc 0a1c 28bb 0138 e93c
00000160: db72 0a3d e647 6dbc b30a bc3c d612 d4bc
00000170: 7626 0bbd 100f 23bc 6f88 d4bc bfa9 30bd
00000180: f677 543c bc7f 7a3c af50 d53b 324d 293b
00000190: 1882 2bbd 26bd a4bc 7b9c 123d 9504 613d
000001a0: 04f0 3fba 1fe5 fa39 af41 d2bc 2988 5d3c
000001b0: c08c 1abd 4043 00bd eebe a03c 110f 4abd
000001c0: 0c4a 63bc a634 6ebc 52aa 66bd 3af2 0abd
000001d0: 8c5b 47bd f500 d33b 66df 0d3d 9d83 863c
000001e0: eb61 50bc 62b8 d0bc b4e0 58bd fb8a 953b
000001f0: 943f 0dbc 5cde 633d cecf abbc c957 32bb
00000200: d2e4 30bd 7647 5cbd d8c6 ccbc d15f 933c
00000210: 3577 4abc 7780 903c a927 0fbd fab4 acbc
00000220: 181e 2bbd d5a8 2d3d 99c9 bcbc 76a7 7e3c
00000230: 2dc1 373d e6c8 373c 23e1 c5bc 7225 55bd
00000240: 6613 86bb 6a3a 9bb8 0fff 2d3d 0d7b 18bb
00000250: 0587 a73c 479b a13c 0a3f 3fbc f3f0 493b
00000260: d7fe 47bd 2940 28bd dca3 ff3c 7173 48bd
00000270: 755f 3ebd 4ab4 75bc 4d76 2ebd 5d01 133d
00000280: 8a6b 9a3d e5da afbc c534 793d 787c 63bd
00000290: bee5 573b fc89 d73b 0606 ebbb 4a08 67bc
000002a0: fa30 02bc 5d80 233c b203 3fbd f5cb 323d
000002b0: b405 bc3c bd40 343d 3ea8 38bd c812 a63c
000002c0: eeff 91bb 5ba4 5cbd 9e22 5a3d 49ef b13b
000002d0: b11e 3dbd 454b 0f3d c169 a6bc 9636 053c
000002e0: 55bc 67bd d3ca 0ebd c350 fdbb 5879 343c
000002f0: 4506 0bbd cc64 8b3c 40eb 633c 7338 0e39
00000300: ea8c f4bc d42a be3c 6ac8 c43c 7645 62bd
00000310: 5c4d 38bb 6ae4 58bd 09fd 34bd 5c03 8cbc
00000320: f737 11bd 5ef3 413b e75c c23b 636b 21bd
00000330: 71c4 413c 2114 46bd dc47 f8bc 4ab3 5bbd
00000340: 00fd 61bd 294f 3cbd 8c15 debb 5995 793b
00000350: aa68 52bd 3938 a3bb 82f3 3d3d af2f 43bd
00000360: 3dc2 babc 8047 233d 817e 0fbd 0689 a2bc
00000370: 311c f7bc 1cb2 13bd 5169 fe3c 2f39 723d
00000380: 0bbc 683d 9a0d 183d c999 c7bc 24cd 1dbb
00000390: 7912 553b 887e 893d cd16 b9bc 6dc1 e63c
000003a0: f4da 0c3d 0935 3dbd 2579 05bd 4566 08ba
000003b0: c37f 0abd 296e b6ba 77a7 9b3c 061c 9a3c
000003c0: f958 b63c bba5 41bd bc14 43bd 24eb 11bd
000003d0: ccd7 a23c 9b41 06bc 8a1b 183d fe5d 24bd
000003e0: 9045 b73b c07f e83c 612f 68bc f700 5abd
000003f0: 980c c03c 072c 5ebc 7509 5cbc 4dca 1dbd

model2.4.weight f4 [64, 256]
0.03845504 0.013831796 0.008066142 -0.04489333 -0.0025610514 0.007875362 0.027618324 0.014055813
-0.037298277 0.010398801 -0.03226764 -0.042851802 -0.007946748 0.043326057 -0.02818667 -0.035537668
0.016103473 0.04364788 -0.07479308 -0.017882098 -0.020181715 0.02507383 -0.004746264 -0.06338458
0.000780304 -0.006192704 0.0030304661 -0.07161698 0.02451878 -0.014964715 -0.04893654 -0.03213812
0.06170747 -0.07899151 0.060951345 0.04024264 0.036814246 0.037618417 0.04567222 -0.04181547
0.051930167 -0.018982247 -0.099723525 0.04923135 -0.05369351 -0.026889544 -0.053206407 -0.038114976
0.0852808 -0.0116493255 -0.009146172 0.06349987 -0.08004381 0.053664777 -0.038930185 0.0371152
-0.027159475 -0.0763614 -0.0063680783 -0.07512576 -0.062404025 0.038951524 0.012018541 -0.12457324
-0.060930304 0.015294892 -0.05313829 -0.089141846 0.034350313 -0.033468273 0.019042611 -0.076024175
0.051545236 0.03505451 -0.07215879 0.021312872 0.0081149535 0.046795275 -0.0035885014 -0.046209853
-0.13404505 -0.023244023 0.016399048 0.038422786 0.031355474 0.0046594427 -0.021217631 -0.051106717
-0.015084256 0.008201419 -0.013162156 -0.04525887 -0.013692935 -0.012165483 0.033217967 -0.024735587
-0.05412475 -0.043282557 0.021233713 0.045991257 -0.028200852 -5.1632524e-06 -0.05115294 -0.065370955
-0.013031931 -0.026922338 0.056128755 -0.14501372 0.04216634 0.036352858 0.036531013 -0.022956409
-0.03648884 -0.030499507 -0.0069839335 0.05491038 0.028954245 -0.042284872 -0.004041036 -0.06307863
-0.008207787 -0.11416147 -0.044282295 -0.010899424 0.02632722 0.0046508657 -0.080956034 -0.039934512
-0.026610924 -0.054012883 0.008394782 -0.036081214 -0.014960536 -0.061517265 0.0013548993 0.007930707
0.028668076 -0.00019299472 -0.046718165 0.036195938 -0.06319156 -0.044100344 -0.025966313 -0.0024948567
-0.015804952 0.055772692 -0.028036332 -0.041615687 0.083377205 -0.010847416 0.024835082 0.0017822379
0.0096595455 -0.06806988 -0.056353904 0.0016404468 0.037997343 0.07999073 -0.058906212 -0.045555495
-0.042345464 -0.0483401 -0.019650962 0.020129025 -0.048508767 -0.053097468 0.04418966 0.05080257
0.104585156 0.05739726 0.042850606 0.04590375 -0.057680853 -0.06407589 0.01788789 -0.050565988
-0.08485506 0.005540034 -0.053811908 0.012011978 0.064297885 -0.07117348 -0.018992012 0.018902639
-0.011335627 0.017540408 0.08108706 0.09557625 0.018218255 -0.035969645 -0.044925764 -0.05025986
-0.0034458635 -0.013248284 0.0504307 -0.021590024 0.054550618 -0.07014434 -0.018386902 -0.0053022928
-0.041013706 -0.009055712 -0.0008615076 0.0100234505 0.06708917 0.043622255 -0.031333085 -0.029452626
-0.048818447 -0.018033672 -0.07891542 -0.037364617 0.036096 0.01274034 -0.028382218 0.05905965
-0.0085782055 -0.05689477 -0.030137125 0.025716743 0.044908073 -0.02067538 -0.0018063503 -0.032788813
-0.0021278684 -0.02013319 -0.010037442 -0.021421932 0.04469624 0.07120263 -0.024192419 -0.015856871
0.03247659 -0.0015050772 0.030753471 -0.016148634 -0.050281256 0.038403787 -0.037114106 -0.010291843
0.039373297 -0.033763487 0.05257176 0.040134717 -0.028410057 -0.05004575 -0.0024771434 -0.031476926
-0.008789372 0.0647824 0.022317171 0.056809213 -0.08497036 0.027943023 -0.012963831 0.00617858
00000000: 0883 1d3d c29e 623c da27 043c 12e2 37bd
00000010: 50d7 27bb aa07 013c d33f e23c 5a4a 663c
00000020: 14c6 18bd bc5f 2a3c 132b 04bd 5f85 2fbd
00000030: 1433 02bc aa76 313d bbe7 e6bc f28f 11bd
00000040: 6eeb 833c 1fc8 323d 1d2d 99bd 7a7d 92bc
00000050: 2054 a5bc a267 cd3c 8c86 9bbb c6cf 81bd
00000060: 518d 4c3a 2bec cabb c99a 463b ecab 92bd
00000070: 9cdb c83c 902e 75bc ae71 48bd 43a3 03bd
00000080: f9c0 7c3d 4dc6 a1bd 1ea8 793d 77d5 243d
00000090: 89ca 163d c515 1a3d cb12 3b3d b346 2bbd
000000a0: bab4 543d a880 9bbc d93b ccbd d0a6 493d
000000b0: baed 5bbd 7647 dcbc f6ee 59bd 731e 1cbd
000000c0: b3a7 ae3d d0dc 3ebc d3d9 15bc 380c 823d
000000d0: 02ee a3bd 99cf 5b3d 4275 1fbd 1c06 183d
000000e0: 8c7d debc 5e63 9cbd 50ab d0bb 89db 99bd
000000f0: 5d9b 7fbd a28b 1f3d 6ae9 443c 4120 ffbd
00000100: 0e92 79bd 6d97 7a3c 89a7 59bd 0090 b6bd
00000110: eab2 0c3d 0716 09bd 40ff 9b3c 90b2 9bbd
00000120: 1921 533d 5195 0f3d fdc7 93bd 5598 ae3c
00000130: 95f4 043c 67ac 3f3d 102d 6bbb 8b46 3dbd
00000140: 1b43 09be 406a bebc 4c57 863c 3661 1d3d
00000150: 996e 003d 3dae 983b 99d0 adbc 4755 51bd
00000160: f523 77bc 3f5f 063c 15a6 57bc 5d61 39bd
00000170: 5558 60bc bc51 47bc 900f 083d 49a2 cabc
00000180: eab1 5dbd 0d49 31bd 53f2 ad3c 5461 3c3d
00000190: 7905 e7bc 0040 adb6 bf85 51bd 35e1 85bd
000001a0: e183 55bc 3c8c dcbc 44e7 653d 7a7e 14be
000001b0: 9db6 2c3d bce6 143d 8ba1 153d 140f bcbc
000001c0: 5275 15bd 1ada f9bc 7bd9 e4bb b5e9 603d
000001d0: 7431 ed3c e732 2dbd ab6a 84bb 5e2f 81bd
000001e0: f479 06bc 7dcd e9bd 5a61 35bd 7f93 32bc
000001f0: 2fac d73c 4a66 983b 47cc a5bd 5f92 23bd
00000200: 27ff d9bc 9d3c 5dbd 458a 093c e5c9 13bd
00000210: 091d 75bc 87f9 7bbd e096 b13a ccef 013c
00000220: 50d9 ea3c a05e 4ab9 8c5b 3fbd 3142 143d
00000230: 946a 81bd 90a2 34bd 4eb7 d4bc c080 23bb
00000240: 6379 81bc e871 643d 73ac e5bc 3675 2abd
00000250: abc1 aa3d 5cb9 31bc f172 cb3c fb99 e93a
00000260: 1243 1e3c 3968 8bbd 5ad3 66bd 4304 d73a
00000270: 1aa3 1b3d 2ed2 a33d a447 71bd 6698 3abd
00000280: 7072 2dbd 4500 46bd 0efb a0bc a0e5 a43c
00000290: 21b1 46bd bb7c 59bd 3800 353d 5b16 503d
000002a0: be30 d63d 6419 6b3d 1e84 2f3d 9205 3c3d
000002b0: c242 6cbd 383a 83bd a089 923c 481e 4fbd
000002c0: 7dc8 adbd 2c89 b53b e069 5cbd e3cd 443c
000002d0: 9cae 833d 67c3 91bd 2395 9bbc b5d9 9a3c
000002e0: 11b9 39bc e7b0 8f3c f910 a63d 7bbd c33d
000002f0: 733e 953c e854 13bd 1404 38bd 48dd 4dbd
00000300: ffd3 61bb 550f 59bc 6c90 4e3d 90dd b0bc
00000310: 7870 5f3d d6a7 8fbd 21a0 96bc dbbe adbb
00000320: fdfd 27bd 695e 14bc ccd6 61ba 6639 243c
00000330: 0c66 893d 40ad 323d 1f57 00bd a246 f1bc
00000340: daf5 47bd 5abb 93bc 689e a1bd a40b 19bd
00000350: 66d9 133d dcbc 503c d381 e8bc 88e8 713d
00000360: 9a8b 0cbc 7e0a 69bd 22e2 f6bc ebab d23c
00000370: 87f1 373d 6a5f a9bc 0fc3 ecba 904d 06bd
00000380: b573 0bbb 5cee a4bc 1574 24bc 0c7d afbc
00000390: 6813 373d afd2 913d 2e2f c6bc 45e6 81bc
000003a0: 2c06 053d 0346 c5ba b4ee fb3c 244a 84bc
000003b0: b8f3 4dbd 4a4d 1d3d f604 18bd 1e9f 28bc
000003c0: e545 213d 954b 0abd 7c55 573d 4d64 243d
000003d0: 35bc e8bc c6fc 4cbd 9257 22bb f3ed 00bd
000003e0: 4c01 10bc a3ac 843d 80d2 b63c c7b0 683d
000003f0: f104 aebd c4e8 e43c 4066 54bc b075 ca3b

model2.4.bias f4 [64]
-0.033084106 -0.07101824 -0.07482712 -0.08028245 -0.07948645 0.032120638 0.039335996 -0.05589778
-0.031156851 0.041006856 0.027462414 0.024927929 0.067776226 -0.06572524 0.014870914 0.031379536
0.05473687 0.030974535 -0.03936312 0.019645741 -0.024167836 -0.0638196 0.12619781 -0.00911965
-0.023663247 -0.05617283 -0.042619757 0.07673233 -0.07703356 0.0154929 0.025049431 -0.018265052
0.06921385 -0.0063679935 -0.052136622 -0.05119354 0.026492847 0.02429619 -0.061103344 -0.0066247047
0.06368551 -0.05260706 0.049416814 -0.0627376 0.035482135 -0.06994768 0.010946094 -0.00031166838
0.066276066 -0.04264099 0.046094812 -0.00981602 -0.01795068 -0.04041723 -0.0821682 0.0377341
0.045702305 0.081197456 0.07443655 -0.047675643 0.041111067 0.007846891 -0.0059576742 -0.049797785
00000000: 3383 07bd 0372 91bd f63e 99bd 206b a4bd
00000010: cbc9 a2bd ee90 033d c81e 213d 12f5 64bd
00000020: a73c ffbc cef6 273d dbf8 e03c a835 cc3c
00000030: 43ce 8a3d f49a 86bd 22a5 733c d487 003d
00000040: c533 603d 4fbe fd3c 393b 21bd 1bf0 a03c
00000050: a0fb c5bc dab3 82bd 003a 013e 966a 15bc
00000060: 6dd9 c1bc 7b15 66bd 0e92 2ebd d725 9d3d
00000070: c5c3 9dbd efd5 7d3c 7734 cd3c 97a0 95bc
00000080: febf 8d3d 9aaa d0bb 368d 55bd 51b0 51bd
00000090: 8707 d93c ce08 c73c 8047 7abd 0d14 d9bb
000000a0: 8c6d 823d 807a 57bd 4969 4a3d 927c 80bd
000000b0: b755 113d bb40 8fbd 3f57 333c 6c67 a3b9
000000c0: bfbb 873d 52a8 2ebd eacd 3c3d 5fd3 20bc
000000d0: 4e0d 93bc 8a8c 25bd cd47 a8bd 128f 1a3d
000000e0: 5732 3b3d da4a a63d 3172 983d 8947 43bd
000000f0: 1464 283d 3f90 003c 9838 c3bb c3f8 4bbd

model2.6.weight f4 [4, 64]
0.01301384 -0.050214257 0.10074721 -0.026786549 0.0074673975 0.07827011 0.009281289 0.009887918
0.06977439 -0.19116493 0.039806783 -0.0153039675 -0.14925767 0.0013804366 0.113923654 0.09302333
-0.0815314 0.08324262 0.008801253 -0.07941844 -0.006556593 -0.04979212 -0.14355876 -0.035297867
0.15594742 0.019991547 0.009185847 -0.11758779 0.10712882 -0.06966681 0.07112998 -0.023364598
-0.046998527 0.04561605 0.0929951 -0.07058234 -0.011873203 -0.064147376 -0.0041507627 -0.009753824
-0.14411227 0.045473684 -0.07536348 -0.09921249 0.06820818 -0.121202774 0.017968563 -0.06259479
-0.18378581 0.14818 -0.0119838845 0.06842045 0.036571056 0.10226647 0.10037956 0.046900343
-0.06105558 -0.06464202 0.017029062 -0.030376766 -0.13851826 0.106178254 -0.03989553 -0.08327082
0.045824777 -0.010375394 0.027536701 0.058891054 -0.058568727 0.105145164 -0.013018845 0.032620747
0.039659064 0.006340166 -0.041689407 -0.09825986 -0.06794674 -0.043991577 0.13702177 0.0006801698
-0.1775258 -0.0991806 -0.06445268 0.105927765 0.08628285 0.05621848 -0.05382348 0.060463108
0.068290755 -0.0681241 -0.032882754 -0.094179876 0.099691726 0.10009016 0.09207149 0.0057130908
-0.1724167 0.009724265 0.00092326564 0.1609923 -0.08244658 -0.028427675 0.11309886 0.20242086
-0.034574177 0.060974058 0.008839645 0.089131065 -0.012363184 -0.087463096 0.19946948 -0.1141381
0.055448685 0.0881289 0.013731787 0.010397473 0.08605969 -0.17574735 0.2182656 -0.14786166
0.027254801 -0.1375615 -0.14326425 0.048421927 0.13882695 0.026508737 0.05845724 -0.02897887
-0.07825354 -0.054423872 -0.051142637 0.06217938 -0.039745335 0.053412862 0.085117824 0.07686409
0.03009381 -0.034493882 -0.16055483 -0.043036994 -0.1340845 -0.06278397 -0.052510098 -0.10038442
0.08132473 -0.07657991 -0.07135255 -0.00545955 -0.13882494 0.08422611 0.0396856 0.11842306
-0.044548485 0.02562855 0.14042698 -0.047356006 0.048052356 0.10761098 -0.09971972 0.02968878
-0.09336975 0.1289526 -0.08568833 -0.009379204 -0.10789241 0.06858036 0.042997975 -0.08426183
0.104925066 0.02619696 -0.10534475 0.0144135 0.12606794 0.008768243 0.09009327 -0.008712675
-0.040399294 0.08102362 -0.104828715 -0.050891083 0.044445373 -0.036424417 0.033557978 0.091713965
-0.10416554 -0.15152478 -0.10669588 0.034167133 0.14476186 -0.095327325 -0.0787422 0.10839482
-0.06771714 -0.07581546 0.017059011 0.0248358 0.085163124 -0.072987005 -0.031105058 -0.100116804
-0.061914217 -0.042630214 0.03778244 -0.08800165 0.0466159 0.020119444 0.09217527 -0.061661005
0.040213857 0.06855725 -0.019754635 -0.02707359 -0.09181733 -0.08839472 -0.094123095 0.076810926
0.044157434 -0.037740123 0.015072881 -0.0996856 0.10629116 -0.08299204 -0.17716856 0.07988206
-0.16272666 0.040586274 0.0051912894 0.038715776 -0.07671505 0.07718019 0.08259617 0.059048582
-0.03940365 -0.15239558 -0.06537893 -0.09913015 0.019081017 -0.093618415 -0.054469 0.003335211
-0.16752326 0.027904183 -0.10338722 0.049387246 -0.11316393 0.03562063 0.081497684 -0.07350331
-0.09865913 -0.124616675 -0.125144 -0.1578267 -0.027661275 -0.0114391185 -0.08579908 -0.0022083558
00000000: 0038 553c 77ad 4dbd 8e54 ce3d 776f dbbc
00000010: 12b1 f43b 144c a03d 8c10 183c ef00 223c
00000020: e0e5 8e3d bdc0 43be 700c 233d 7ebd 7abc
00000030: 01d7 18be c4ef b43a ce50 e93d 0483 be3d
00000040: eff9 a6bd 1b7b aa3d 2133 103c 23a6 a2bd
00000050: b0d8 d6bb d2f2 4bbd 1101 13be 7f94 10bd
00000060: aeb0 1f3e 50c5 a33c 3c80 163c ded1 f0bd
00000070: 5b66 db3d 79ad 8ebd 98ac 913d 1d67 bfbc
00000080: 8781 40bd e5d7 3a3d 3774 be3d 798d 90bd
00000090: d387 42bc b35f 83bd 1f03 88bb 81ce 1fbc
000000a0: 2b92 13be 9d42 3a3d 2b58 9abd eb2f cbbd
000000b0: bbb0 8b3d 2939 f8bd cf32 933c b231 80bd
000000c0: 5932 3cbe 7fbc 173e 0e58 44bc 0520 8c3d
000000d0: 88cb 153d 1571 d13d cc93 cd3d 931a 403d
000000e0: 6a15 7abd 0963 84bd 8880 8b3c b2d8 f8bc
000000f0: bbd7 0dbe fc73 d93d 7f69 23bd e489 aabd
00000100: c3b2 3b3d 8efd 29bc a694 e13c bf37 713d
00000110: c3e5 6fbd 5956 d73d fe4c 55bc 559d 053d
00000120: 8b71 223d 2bc1 cf3b 83c2 2abd 773c c9bd
00000130: a927 8bbd 8330 34bd 6f4f 0c3e 6c4d 323a
00000140: 53c9 35be 331f cbbd c4ff 83bd a8f0 d83d
00000150: 10b5 b03d 5945 663d 0276 5cbd 2aa8 773d
00000160: 06dc 8b3d a684 8bbd 11b0 06bd 61e1 c0bd
00000170: 2d2b cc3d 12fc cc3d fa8f bc3d e134 bb3b
00000180: 018e 30be 8652 1f3c 4f07 723a 2adb 243e
00000190: c1d9 a8bd 28e1 e8bc 60a0 e73d 6a47 4f3e
000001a0: a79d 0dbd efbf 793d 29d4 103c 598a b63d
000001b0: f48e 4abc da1f b3bd ba41 4c3e 3cc1 e9bd
000001c0: 291e 633d ed7c b43d 4afb 603c 2a5a 2a3c
000001d0: 1040 b03d 1df7 33be 0481 5f3e 0c69 17be
000001e0: 7645 df3c ecdc 0cbe ddb3 12be 1256 463d
000001f0: a728 0e3e da28 d93c dc70 6f3d 1865 edbc
00000200: 6443 a0bd 91eb 5ebd f17a 51bd ceaf 7e3d
00000210: 01cc 22bd 72c7 5a3d 4152 ae3d ec6a 9d3d
00000220: 4b87 f63c 7549 0dbd 7c68 24be 8f47 30bd
00000230: 724d 09be e294 80bd d414 57bd 5996 cdbd
00000240: 948d a63d eed5 9cbd 4921 92bd 06e6 b2bb
00000250: 2028 0ebe bd7e ac3d 5e8d 223d ca87 f23d
00000260: 7978 36bd f7f2 d13c 17cc 0f3e 5ff8 41bd
00000270: 8cd2 443d 2563 dc3d da39 ccbd e235 f33c
00000280: a438 bfbd 260c 043e 5d7d afbd 3cab 19bc
00000290: b2f6 dcbd dc73 8c3d a51e 303d 7791 acbd
000002a0: f4e2 d63d 029b d63c fdbe d7bd 9a26 6c3c
000002b0: f417 013e ada8 0f3c d282 b83d 9cbf 0ebc
000002c0: bb79 25bd b6ef a53d 70b0 d6bd 2b73 50bd
000002d0: 5a0c 363d c531 15bd 1774 093d 88d4 bb3d
000002e0: be54 d5bd 5029 1bbe 5f83 dabd d6f2 0b3d
000002f0: 743c 143e f93a c3bd 9743 a1bd 1afe dd3d
00000300: 49af 8abd 2345 9bbd 57bf 8b3c 7374 cb3c
00000310: 016a ae3d 367a 95bd 09d0 febc 0a0a cdbd
00000320: c399 7dbd 059d 2ebd c3c1 1a3d 363a b4bd
00000330: 50f0 3e3d 88d1 a43c 63c6 bc3d 4090 7cbd
00000340: 49b7 243d be67 8c3d 79d4 a1bc 6fc9 ddbc
00000350: b90a bcbd 4a08 b5bd 9cc3 c0bd 0c4f 9d3d
00000360: 6dde 343d 6395 1abd 3ff4 763c f727 ccbd
00000370: 2eaf d93d bbf7 a9bd ad6b 35be 3599 a33d
00000380: d1a1 26be cb3d 263d b11b aa3b 6f94 1e3d
00000390: c81c 9dbd a610 9e3d 2e28 a93d eddc 713d
000003a0: b965 21bd 960d 1cbe 63e5 85bd c004 cbbd
000003b0: cb4f 9c3c 03bb bfbd e31a 5fbd 8e93 5a3b
000003c0: 388b 2bbe 5097 e43c aebc d3bd 484a 4a3d
000003d0: 7ec2 e7bd f0e6 113d 42e8 a63d e788 96bd
000003e0: cc0d cabd 0737 ffbd c025 00be 539d 21be
000003f0: e699 e2bc 246b 3bbc 6eb7 afbd 10ba 10bb

model2.6.bias f4 [4]
-0.024505338 0.037052613 0.038727853 -0.123379976
00000000: 6bbf c8bc 7bc4 173d 19a1 1e3d a4ae fcbd
