model_weight/actor/13_13 17:43:11 std 0.3 lr_actor_4e-05- gamma_0.8 memory100 actor_weight.pth (torch, 646091 bytes, 9 tensors)

std f4 [4]
0.03446953 -0.015103248 -0.099895276 -0.030239107
00000000: ec2f 0d3d 9d73 77bc e595 ccbd 01b8 f7bc

model2.0.weight f4 [512, 24]
-0.17444474 0.124776706 0.07459661 -0.21883436 -0.12701246 -0.12874326 -0.11492931 -0.13181777
0.19726735 -0.15429606 -0.1387187 -0.16972178 -0.021973068 -0.19694363 -0.007090207 0.027663983
0.08149315 0.14050616 -0.084588856 0.14178875 -0.08260311 0.008759465 0.049464248 -0.061428882
-0.032023493 -0.08761352 -0.072664514 -0.19483644 -0.18255179 -0.2236048 0.036416423 -0.00061010104
-0.14420757 -0.20447832 -0.1665599 0.095468596 -0.12284351 -0.2801108 0.00909473 -0.1578661
0.052365545 -0.107605204 0.10200355 -0.11318479 -0.047010913 -0.03563681 -0.2130187 0.15810826
-0.13433515 -0.038476706 0.10864741 0.076511964 0.051076666 0.1175276 -0.04943726 -0.13906935
-0.14624323 0.059150625 0.21311076 0.12168895 -0.009118277 -0.08892305 0.052139618 0.03637312
0.055122245 -0.0514616 -0.17827857 -0.11252596 0.16050613 -0.15750828 -0.14051883 0.034470323
0.05841033 0.15762915 -0.10890842 -0.24026294 -0.19323224 -0.21502642 0.13356057 0.065588474
-0.10494414 -0.1021548 -0.11327208 -0.14454408 0.075681746 -0.30708706 -0.029911257 -0.0033731854
0.1189769 0.045709923 -0.14878118 -0.21374285 0.005551864 -0.13030802 0.15907751 -0.09317348
-0.078859486 -0.012102608 -0.10826257 0.05998044 0.1159304 0.018130548 0.03794932 -0.0760982
0.2502459 -0.15042497 0.0049705864 0.35268828 -0.07066975 0.041996792 -0.021204367 -0.09015849
-0.12749752 0.22552815 0.15837756 -0.1277821 -0.009027966 0.13275042 0.14896539 -0.06512311
-0.20869437 -0.051385675 0.13006349 -0.03752361 0.10927746 -0.09343493 0.09408198 0.16793036
-0.2374773 0.053831622 0.14383525 -0.14346877 0.17848328 -0.19381283 -0.045641452 -0.10828966
-0.038962442 0.038582657 -0.2024733 -0.16082685 0.11186254 -0.2005225 0.0066162613 0.04962373
0.0673804 -0.076546274 -0.0876409 -0.14140764 -0.24221863 0.009866421 -0.26417917 -0.04523645
0.1303888 -0.1704076 -0.1805832 0.045239143 -0.076594666 -0.24083596 0.024335548 -0.070749216
0.097195156 -0.09414388 0.16390188 -0.07973446 0.0026885918 0.14012316 -0.11003109 0.18278368
0.081508406 -0.054464936 0.09902907 -0.15741466 0.051699463 -0.055279724 -0.012683184 -0.13526432
-0.18659683 -0.07796974 -0.038047418 0.014859309 -0.012749646 0.055185895 0.17262086 0.054809112
0.13589868 0.021171939 -0.06458709 -0.18511054 -0.17251424 -0.15011723 0.09040775 -0.18096742
0.11887576 0.23547494 -0.021515407 -0.19435467 -0.0911343 -0.28635412 -0.14684477 -0.06941353
-0.10750027 -0.073279604 -0.014934823 0.04727747 -0.06974566 -0.15552318 -0.07504972 0.128246
0.023824869 0.02620489 0.13204299 0.16428803 0.030672183 -0.070680074 -0.10619687 -0.0324227
-0.124870524 -0.047533814 -0.13393 -0.17201506 0.13586926 -0.0647503 0.060993593 -0.07522845
-0.1378997 0.0748561 0.10704095 0.08108592 -0.14023335 -0.03984022 0.1576331 -0.07290325
-0.005273967 0.08811614 -0.15600085 -0.14824049 0.13800573 0.13136674 -0.13515359 0.01195087
-0.06357614 0.10896301 -0.017810699 -0.083842516 -0.09319106 -0.038852304 -0.17747147 0.09137196
-0.07360648 0.19809842 0.0586977 0.16021326 0.23888807 0.15350866 0.0041581816 -0.01364182
00000000: a4a1 32be ee8a ff3d 1cc6 983d 1d16 60be
00000010: 8e0f 02be 46d5 03be 0f60 ebbd 3dfb 06be
00000020: 7400 4a3e c9ff 1dbe 460c 0ebe 8ccb 2dbe
00000030: dd00 b4bc 97ab 49be f854 e8bb 949f e23c
00000040: e1e5 a63d d9e0 0f3e ec3c adbd 1231 113e
00000050: d22b a9bd dc83 0f3c 069b 4a3d da9c 7bbd
00000060: 112b 03bd b86e b3bd 22d1 94bd 3483 47be
00000070: dbee 3abe a8f8 64be 6329 153d 30ef 1fba
00000080: 26ab 13be c462 51be ae8e 2abe 0a85 c33d
00000090: 6195 fbbd af6a 8fbe 1002 153c a7a7 21be
000000a0: 417d 563d 1e60 dcbd 3de7 d03d 6dcd e7bd
000000b0: 848e 40bd e7f7 11bd 9321 5abe 22e7 213e
000000c0: 278f 09be c099 1dbd 8982 de3d 4eb2 9c3d
000000d0: c435 513d 4fb2 f03d b97e 4abd 3268 0ebe
000000e0: c9c0 15be ed47 723d b539 5a3e 0e38 f93d
000000f0: d364 15bc 4a1d b6bd 5a90 553d fbfb 143d
00000100: ddc7 613d 66c9 52bd a88e 36be 0374 e6bd
00000110: b85b 243e da49 21be 2be4 0fbe c130 0d3d
00000120: ac3f 6f3d 8969 213e 610b dfbd 7d07 76be
00000130: acde 45be e32f 5cbe 1ac4 083e 4053 863d
00000140: f4ec d6bd 8936 d1bd 31fb e7bd 5d03 14be
00000150: 08ff 9a3d 843a 9dbe 7408 f5bc a910 5dbb
00000160: 29aa f33d 543a 3b3d 185a 18be 68df 5abe
00000170: 69ec b53b 776f 05be 37e5 223e bdd1 bebd
00000180: 1581 a1bd 044a 46bc c4b8 ddbd 0dae 753d
00000190: eb6c ed3d 8486 943c bf70 1b3d 60d9 9bbd
000001a0: 3b20 803e 0109 1abe 4de0 a23b 8f93 b43e
000001b0: 4dbb 90bd d404 2c3d c8b4 adbc 04a5 b8bd
000001c0: b68e 02be daf0 663e ba2d 223e 50d9 02be
000001d0: 09ea 13bc baef 073e 628a 183e 445f 85bd
000001e0: fab3 55be c979 52bd 5d2f 053e 5bb2 19bd
000001f0: dccc df3d d05a bfbd 0eae c03d f0f5 2b3e
00000200: 402d 73be 8c7e 5c3d 8c49 133e 7ae9 12be
00000210: 52c4 363e df76 46be 88f2 3abd f8c6 ddbd
00000220: 1597 1fbd d908 1e3d 2955 4fbe cbaf 24be
00000230: 3018 e53d c555 4dbe 39cd d83b 4142 4b3d
00000240: bcfe 893d 4bc4 9cbd 127d b3bd 2acd 10be
00000250: 2908 78be c5a6 213c 7e42 87be db49 39bd
00000260: a484 053e 547f 2ebe cdea 38be ae4c 393d
00000270: aadd 9cbd b49d 76be 585b c73c f7e4 90bd
00000280: 410e c73d 82ce c0bd e5d5 273e d24b a3bd
00000290: 1633 303b 727c 0f3e fb57 e1bd a52b 3b3e
000002a0: e1ed a63d a016 5fbd c1cf ca3d 4f31 21be
000002b0: d1c2 533d fe6c 62bd 21cd 4fbc bb82 0abe
000002c0: 3d13 3fbe 99ae 9fbd 9cd7 1bbd 7674 733c
000002d0: e4e3 50bc 9b0a 623d 86c3 303e 857f 603d
000002e0: 0629 0b3e c670 ad3c 3c46 84bd 9e8d 3dbe
000002f0: 93a7 30be 55b8 19be b327 b93d 864f 39be
00000300: 2275 f33d 5820 713e 1441 b0bc e904 47be
00000310: 9fa4 babd 029d 92be 7a5e 16be ae28 8ebd
00000320: 1a29 dcbd 9e13 96bd 30b1 74bc 05a6 413d
00000330: d0d6 8ebd 7841 1fbe abb3 99bd eb52 033e
00000340: 5f2c c33c a3ab d63c 4736 073e 1f3b 283e
00000350: 3b44 fb3c b7c0 90bd bf7d d9bd aacd 04bd
00000360: 1ebc ffbd d1b2 42bd f224 09be b724 30be
00000370: 5021 0b3e ce9b 84bd 6bd4 793d 6011 9abd
00000380: 9435 0dbe 284e 993d 4938 db3d 6010 a63d
00000390: 5599 0fbe 802f 23bd 926a 213e 4d4e 95bd
000003a0: 3ed1 acbb 3c76 b43d b0be 1fbe 5bcc 17be
000003b0: 6051 0d3e 0185 063e b465 0abe 95cd 433c
000003c0: 3534 82bd 0028 df3d bee7 91bc a0b5 abbd
000003d0: f4da bebd 9823 1fbd 15bb 35be 3921 bb3d
000003e0: ffbe 96bd 50da 4a3e 006d 703d f20e 243e
000003f0: 139f 743e 6031 1d3e 5b41 883b f181 5fbc

model2.0.bias f4 [512]
0.08690438 0.11636268 -0.11649387 0.002419027 -0.15143389 -0.1338893 0.16388388 0.03955768
0.1524679 -0.20507076 -0.017905245 -0.005823273 0.13856713 0.09574327 -0.20375794 -0.17839125
-0.21504445 0.18077858 -0.14840554 -0.12650152 0.14138357 -0.039546236 -0.16734062 -0.14428644
0.13837813 0.008938158 0.01095712 -0.012286519 0.0778102 -0.14929238 0.15281802 0.12068172
0.09467536 -0.1999905 0.05622832 -0.0753962 0.02952393 -0.023284802 0.11970798 0.17339872
-0.08775988 0.14974213 0.15132035 -0.14276691 -0.15613408 0.03735902 0.044486724 -0.10459708
-0.0009811559 0.114111185 -0.22378187 0.059454124 -0.13660601 -0.033553537 0.11986299 0.085223176
-0.11995259 0.15068127 0.022238392 -0.17981428 0.1412628 -0.0512881 -0.13162312 -0.07923551
0.06454818 -0.13103993 -0.04313146 0.07795799 -0.008146938 -0.10200694 -0.12296122 -0.15201437
0.0042358288 -0.22556625 -0.19721867 -0.015269224 0.14760919 -0.074950226 0.0017690404 -0.1541095
0.0005145345 0.06605914 0.016109072 -0.19448836 0.005806773 -0.028319452 0.121097445 -0.14805327
-0.13744012 -0.09473746 -0.07826177 -0.005180491 -0.09258156 -0.13881007 0.10689579 -0.14509764
0.14206704 -0.1310332 0.09347472 -0.09918397 -0.11219418 0.09747933 0.100290395 0.00923021
0.0029775237 0.19330166 -0.011100797 0.1434643 -0.09883281 0.18425842 0.01368307 -0.07863348
0.014895863 -0.02525406 0.05518736 -0.2555225 0.052665416 -0.1717335 -0.051481713 -0.1622483
0.15562989 -0.1468742 -0.10712919 -0.010491904 0.14936763 -0.14452575 -0.063711755 0.06662951
-0.056563135 0.19290991 0.1563382 0.16173235 -0.061584566 -0.059171956 0.030122241 -0.17815211
0.063023 -0.010851961 0.09306003 0.04812732 0.016026061 -0.17548242 -0.1513114 -0.118013695
0.05941729 -0.058111493 -0.15031344 -0.12662637 0.13556682 -0.029593464 -0.033007346 -0.013831158
-0.11986379 -0.027740719 0.17351303 -0.0004884001 0.06805304 0.013408187 0.13931066 -0.15123731
-0.14134811 0.13312049 0.048321504 -0.044313144 -0.076270916 -0.09188296 0.1852266 -0.23869307
0.12907624 -0.05807532 0.16764045 0.13271819 -0.0027273397 -0.020588106 0.117873326 -0.1365087
0.13669541 0.019394575 0.074704714 0.112253584 -0.13153304 -0.057363186 0.081300795 0.056551766
0.16070543 0.07416777 0.09350524 -0.2228307 -0.11329841 0.06813149 -0.10164019 0.09351275
0.16241506 -0.09758818 -0.10049888 0.042498037 -0.041448735 -0.041656304 0.0060634287 -0.12768938
-0.07221048 -0.218328 -0.110413246 0.059659604 -0.08202423 -0.11049742 0.04275991 0.111235395
0.041381344 -0.088106886 -0.1293013 -0.18066113 0.014995058 -0.17822213 -0.12875098 -0.16823974
-0.15903491 0.04419884 0.14535528 -0.11953051 -0.12470912 -0.18147452 0.11660068 0.11409898
-0.11082265 0.17836958 -0.06491676 0.10390654 -0.2094941 -0.05261066 0.05259344 0.12971184
0.1385285 0.112791546 0.046677094 -0.19480444 0.05232561 0.12167979 -0.011112058 0.027296627
0.036442686 -0.10364986 -0.096140966 0.002683831 0.1963125 -0.18448006 -0.04002353 -0.047164332
0.020424044 -0.20338039 0.1872631 -0.2103356 0.14854096 0.039015803 0.17515294 -0.010481504
00000000: ecfa b13d 8f4f ee3d 5794 eebd 8a88 1e3b
00000010: 7c11 1bbe 471a 09be 2dd1 273e 3c07 223d
00000020: 8c20 1c3e 12fe 51be 05ae 92bc 28d1 bebb
00000030: 8be4 0d3e 0c15 c43d eca5 50be 32ac 36be
00000040: 9d34 5cbe 051e 393e 9ff7 17be 9d89 01be
00000050: dbc6 103e 3cfb 21bd 575b 2bbe d3bf 13be
00000060: ffb2 0d3e 5a71 123c 7e85 333c 654d 49bc
00000070: f45a 9f3d 1ae0 18be 547c 1c3e fa27 f73d
00000080: 28e5 c13d 4fca 4cbe ab4f 663d 5369 9abd
00000090: 2bdc f13c c5bf bebc 7529 f53d 6f8f 313e
000000a0: 74bb b3bd 0056 193e b9f3 1a3e 7d31 12be
000000b0: 9de1 1fbe c605 193d b637 363d fe36 d6bd
000000c0: 219a 80ba 20b3 e93d 1327 65be 2b86 733d
000000d0: 72e2 0bbe 6f6f 09bd ba7a f53d 7d89 ae3d
000000e0: b4a9 f5bd 314c 1a3e 4a2d b63c 3c21 38be
000000f0: 32a7 103e 7913 52bd 36c8 06be 3a46 a2bd
00000100: d631 843d 552f 06be 9daa 30bd 70a8 9f3d
00000110: bc7a 05bc 04e9 d0bd 18d3 fbbd a8a9 1bbe
00000120: b5cc 8a3b d7fa 66be b1f3 49be c42b 7abc
00000130: dd26 173e 817f 99bd 25df e73a e1ce 1dbe
00000140: d3e1 063a 044a 873d 2cf7 833c f527 47be
00000150: be46 be3b 32fe e7bc f001 f83d 479b 17be
00000160: 1abd 0cbe b705 c2bd b547 a0bd 1cc1 a9bb
00000170: 679b bdbd 3a24 0ebe 2eec da3d 7a94 14be
00000180: 067a 113e 912d 06be ad6f bf3d f720 cbbd
00000190: 10c6 e5bd 3ea3 c73d 0d65 cd3d 4f3a 173c
000001a0: 8f22 433b dff0 453e 1ee0 35bc 4ee8 123e
000001b0: db68 cabd 3dae 3c3e f52e 603c 970a a1bd
000001c0: c70d 743c 9ae1 cebc 240c 623d d8d3 82be
000001d0: b1b7 573d e8da 2fbe 7dde 52bd 6b24 26be
000001e0: 715d 1f3e 3166 16be 8c66 dbbd 3ce6 2bbc
000001f0: d4f3 183e 8ffe 13be 4f7b 82bd 0d75 883d
00000200: bfae 67bd 2d8a 453e 1f17 203e 2a9d 253e
00000210: 1940 7cbd 4b5e 72bd ebc2 f63c 826d 36be
00000220: 3412 813d 6ccc 31bc 4296 be3d 2721 453d
00000230: 1649 833c aab1 33be 60f1 1abe 2ab1 f1bd
00000240: 8b5f 733d 5106 6ebd c4eb 19be 58aa 01be
00000250: 07d2 0a3e fe6d f2bc b632 07bd 159c 62bc
00000260: 267b f5bd 8140 e3bc 66ad 313e fa07 00ba
00000270: 645f 8b3d 03ae 5b3c 74a7 0e3e f4dd 1abe
00000280: 8fbd 10be bd50 083e c5ec 453d b381 35bd
00000290: ed33 9cbd 222d bcbd 0bac 3d3e f56b 74be
000002a0: 902c 043e 63e0 6dbd f0a9 2b3e 47e7 073e
000002b0: 2bbd 32bb 63a8 a8bc 9267 f13d f0c8 0bbe
000002c0: e2f9 0b3e 5fe1 9e3c c9fe 983d 35e5 e53d
000002d0: 99b0 06be a9f5 6abd 0881 a63d d3a2 673d
000002e0: f78f 243e 46e5 973d ad7f bf3d bb2d 64be
000002f0: ff08 e8bd 8688 8b3d bb28 d0bd 9d83 bf3d
00000300: 2250 263e 50dc c7bd 5bd2 cdbd 6c12 2e3d
00000310: 26c6 29bd cd9f 2abd baaf c63b 01c1 02be
00000320: 17e3 93bd 6091 5fbe 5720 e2bd a15d 743d
00000330: 52fc a7bd 794c e2bd 0425 2f3d 62cf e33d
00000340: 7c7f 293d 6271 b4bd 8f67 04be 3bff 38be
00000350: d5ad 753c dd7f 36be 4cd7 03be 0a47 2cbe
00000360: 0cda 22be d809 353d 04d8 143e 69cc f4bd
00000370: 7f67 ffbd 75d4 39be 56cc ee3d baac e93d
00000380: fcf6 e2bd 84a6 363e 14f3 84bd f4cc d43d
00000390: 9f85 56be 477e 57bd 386c 573d 2ed3 043e
000003a0: 6ada 0d3e 41ff e63d 7b30 3f3d d17a 47be
000003b0: 6153 563d 4133 f93d 590f 36bc 2d9d df3c
000003c0: ed44 153d 6146 d4bd 8ee5 c4bd 36e3 2f3b
000003d0: 2506 493e 57e8 3cbe b7ef 23bd 632f 41bd
000003e0: 5350 a73c f342 50be e6c1 3f3e 3762 57be
000003f0: 1f1b 183e 09cf 1f3d 4b5b 333e 9dba 2bbc

model2.2.weight f4 [256, 512]
-0.0029496578 0.01849962 0.0380254 0.0064290166 0.044616085 -0.046107795 -0.08300922 -0.0007096354
-0.09986229 0.04062234 -0.024007972 -0.0587796 -0.078545265 -0.059516814 0.030570101 -0.080326825
0.005650454 0.0039129537 -0.00015935773 -0.048448633 0.06533691 0.025120579 -0.08175405 0.06576616
-0.13357262 -0.054259203 0.09743929 0.05864513 0.02726887 -0.0753955 -0.07526983 -0.047119807
-0.07668964 -0.0027635011 0.078282855 0.04934415 0.0068535195 -0.033147454 0.012577626 -0.030963674
-0.029968593 0.037349932 0.04857983 0.022319615 -0.033453025 0.053768888 0.023001522 -0.052213278
-0.021097407 -0.02933927 -0.022915004 -0.023725543 0.050714154 0.07266938 -0.03415995 0.023478026
0.0018394971 0.029502293 -0.09626816 -0.008099813 0.0033532628 0.0038286624 -0.0076867337 -0.041062646
0.009595715 -0.029900873 0.03060756 0.07668299 0.011868329 0.04772866 -0.07925936 0.011060764
0.0034709766 -0.029370815 0.0758102 0.028098075 0.09779754 0.087641224 -0.06864891 -0.014034429
-0.06878575 -0.029818045 -0.029819457 0.003554284 -0.07735248 -0.006272801 -0.009336881 0.020063406
0.060382918 -0.10586153 -0.03232792 -0.10596811 0.021891873 -0.05095812 0.035976157 0.07559455
0.10263186 0.037571926 0.0030956173 0.012926475 0.075327456 0.02595323 -0.0323376 -0.06131433
-0.025123926 0.039145056 -0.0043408573 0.07975344 0.04053139 -0.07222406 -0.110543914 0.0039832997
0.032653116 -0.018738722 0.12978265 -0.0074409284 -0.08754782 0.0626395 -0.010505464 -0.059011675
-0.00368187 -0.032002892 -0.056240186 -0.05628631 0.0057129036 0.037872784 -0.036543548 0.03151144
0.06804401 0.013551409 0.09087927 -0.022307103 0.03655832 -0.07991909 -0.09976169 -0.008831345
-0.0112304045 -0.067889534 -0.059454303 0.052666873 -0.029139195 -0.039595254 -0.0118243005 -0.036922812
-0.029677691 -0.02556645 0.009175633 -0.014545708 0.018529152 -0.0012969836 -0.022824898 0.0054479796
-0.072735965 -0.028791415 -0.021768786 0.06503037 -0.027012018 0.053357612 -0.0064521977 0.0014546937
0.013948582 0.0896493 0.073736295 -0.021252686 -0.02095749 0.032879088 -0.061713424 0.03613332
-0.027889172 -0.017495904 0.058970876 0.048732404 0.10414608 0.045146808 -0.022113256 0.05146108
-6.585016e-05 0.014788602 -0.06532746 0.066020034 -0.0384346 -0.02694228 0.054593615 0.015534926
0.01784236 0.007121778 0.053932715 -0.04117461 -0.04567782 -0.048616927 0.02419826 -0.1330898
-0.030292144 -0.02302195 -0.022470284 -0.0787459 0.019237554 -0.0630783 0.07901516 -0.028052732
-0.059081905 -0.029905662 0.048878673 0.012075197 0.0655204 0.00611028 -0.058583252 0.030831134
0.07163779 -0.047888942 0.013256971 -0.076646075 -0.017331343 0.043135457 -0.017870475 0.018616362
-0.057654057 -0.06359915 -0.014805526 -0.015171933 -0.004984728 -0.034309283 -0.06984969 -0.0674291
0.051460713 0.06619024 0.06607088 0.013568205 0.038043696 -0.042229444 -0.031905092 0.020550013
-0.06417952 -0.04818946 -0.049202304 0.029949047 0.00029414095 -0.049342822 -0.0013607388 -0.054996707
0.011819471 0.04552456 -0.036811244 -0.10138163 -0.05676101 -0.006667783 -0.05296654 0.04350672
-0.0024047696 -0.048223764 -0.03764238 0.027159275 -0.0041713184 -0.022791753 0.035822675 0.030684488
00000000: 0c4f 41bb 848c 973c 86c0 1b3d 80aa d23b
00000010: 5bbf 363d 87db 3cbd bd00 aabd d306 3aba
00000020: 9a84 ccbd 9c63 263d 5eac c4bc e1c2 70bd
00000030: 57dc a0bd e7c7 73bd 266e fa3c 6482 a4bd
00000040: 7227 b93b 3c38 803b 4419 27b9 1372 46bd
00000050: 5ccf 853d acc9 cd3c ab6e a7bd 69b0 863d
00000060: 43c7 08be e63e 5ebd 408e c73d e035 703d
00000070: f762 df3c f568 9abd 1227 9abd b300 41bd
00000080: 750f 9dbd db1b 35bb c352 a03d 171d 4a3d
00000090: 7d93 e03b a0c5 07bd 6312 4e3c 88a7 fdbc
000000a0: b280 f5bc 3efc 183d a5fb 463d a0d7 b63c
000000b0: 0a06 09bd c43c 5c3d b06d bc3c 97dd 55bd
000000c0: 78d4 acbc e958 f0bc 3fb8 bbbc 125c c2bc
000000d0: a5b9 4f3d afd3 943d 4eeb 0bbd fd54 c03c
000000e0: 481b f13a cbae f13c 3e28 c5bd 14b5 04bc
000000f0: 6ac2 5b3b 4cea 7a3b ffe0 fbbb 4e31 28bd
00000100: 5937 1d3c adf2 f4bc b5bc fa3c f90b 9d3d
00000110: 6173 423c 217f 433d bb52 a2bd 3538 353c
00000120: 5379 633b 109b f0bc 6142 9b3d ef2d e63c
00000130: 144a c83d 3e7d b33d cd97 8cbd a9f0 65bc
00000140: 8bdf 8cbd f944 f4bc ef47 f4bc feee 683b
00000150: fa6a 9ebd 128c cdbb b8f9 18bc 035c a43c
00000160: 1454 773d eecd d8bd 486a 04bd cf05 d9bd
00000170: 9656 b33c 76b9 50bd bc5b 133d 51d1 9a3d
00000180: a730 d23d 05e5 193d d7df 4a3b 91c9 533c
00000190: 4845 9a3d de9b d43c 6e74 04bd bc24 7bbd
000001a0: b1d0 cdbc 9156 203d c03d 8ebb c655 a33d
000001b0: 3e04 263d 35ea 93bd d964 e2bd 5786 823b
000001c0: 46bf 053d f381 99bc bee5 043e 08d3 f3bb
000001d0: 454c b3bd 2349 803d 1c1f 2cbc 3ab6 71bd
000001e0: 874b 71bb 7715 03bd 1c5c 66bd 798c 66bd
000001f0: 4f33 bb3b 7e20 1b3d b0ae 15bd 2412 013d
00000200: a85a 8b3d bb06 5e3c e91e ba3d 63bd b6bc
00000210: 2dbe 153d 9fac a3bd db4f ccbd 58b1 10bc
00000220: bbff 37bc ab09 8bbd 5b86 73bd 38b9 573d
00000230: 52b5 eebc a22e 22bd b6ba 41bc 603c 17bd
00000240: a11e f3bc bb70 d1bc 6555 163c 1f51 6ebc
00000250: 73ca 973c 8cff a9ba 48fb babc f784 b23b
00000260: 98f6 94bd f9db ebbc 7454 b2bc a52e 853d
00000270: 4f48 ddbc 838d 5a3d f56c d3bb 6cab be3a
00000280: 9888 643c 0d9a b73d 0e03 973d 1d1a aebc
00000290: 0baf abbc 39ac 063d 37c7 7cbd 8800 143d
000002a0: d577 e4bc 9253 8fbc 728b 713d a19b 473d
000002b0: 8a4a d53d dceb 383d dc26 b5bc dac8 523d
000002c0: 0919 8ab8 e44b 723c 67ca 85bd 8335 873d
000002d0: 996d 1dbd 0eb6 dcbc 8e9d 5f3d 3486 7e3c
000002e0: 242a 923c ce5d e93b 8de8 5c3d b5a6 28bd
000002f0: aa18 3bbd 8b22 47bd 6e3b c63c b148 08be
00000300: 3b27 f8bc 8798 bcbc 9a13 b8bc 8845 a1bd
00000310: 1398 9d3c 322f 81bd b3d2 a13d d8ce e5bc
00000320: deff 71bd b8fc f4bc 0135 483d 0cd7 453c
00000330: 8f2f 863d be38 c83b fef4 6fbd 9391 fc3c
00000340: d5b6 923d 3227 44bd c433 593c 9ef8 9cbd
00000350: 76fa 8dbc ceae 303d 1a65 92bc 5781 983c
00000360: a926 6cbd 4540 82bd e092 72bc b393 78bc
00000370: ee56 a3bb e487 0cbd 5b0d 8fbd 4518 8abd
00000380: 78c8 523d c08e 873d 2b50 873d 2d4d 5e3c
00000390: b5d3 1b3d c8f8 2cbd eaae 02bd 8058 a83c
000003a0: 8d70 83bd 5062 45bd 5b88 49bd b457 f53c
000003b0: ee36 9a39 b31b 4abd d15a b2ba 3a44 61bd
000003c0: 74a6 413c f677 3a3d 63c7 16bd 2ca1 cfbd
000003d0: 3c7e 68bd 6b7d dabb 71f3 58bd 1a34 323d
000003e0: 5799 1dbb 4886 45bd e52e 1abd 217d de3c
000003f0: 8eaf 88bb c5b5 babc ccba 123d 095e fb3c

model2.2.bias f4 [256]
-0.011397468 0.012497572 -0.0044614575 -0.06391304 0.027070975 -0.06072748 -0.03928761 -0.030330438
0.029552681 -0.045872975 -0.0313617 0.04541359 0.008690814 0.01681228 -0.04402479 0.020263376
-0.028726162 -0.028110126 -0.007119978 0.082117885 -0.013997518 0.04966108 -0.04130877 -0.0393357
-0.009351747 -0.030448133 0.007551664 0.03337978 0.025983442 -0.027143955 -0.033696774 -0.016829338
-0.02426705 0.02651824 -0.035438728 0.034770735 0.0012831918 0.021849046 0.056341246 -0.047957327
-0.010730444 0.009458106 0.034857567 0.008487665 0.0648505 0.00046686665 -0.018124437 -0.03503518
0.011644143 -0.0024080246 -0.06025913 -0.049309276 0.006585407 -0.04080455 0.01121985 0.009698204
-0.035739303 -0.037341982 0.008068224 -0.04750136 0.016797516 -0.021327434 -0.036520757 -0.026781064
-0.045408662 -0.049306832 -0.054265596 -0.020009657 -0.031298745 0.03163889 -0.010439096 0.00551401
-0.024235306 -0.0013718012 0.017320896 -0.067490436 0.016840613 -0.0010265319 0.019627828 -0.049651567
-0.033159398 -0.033031967 -0.050845943 -0.031899016 -0.0006867303 0.0051137717 0.01816926 -0.026331408
-0.032874174 -0.005846093 -0.03447089 0.056794714 0.007743116 -0.055150475 -0.020092158 -0.026707273
-0.014350121 -0.01665154 0.010356512 -0.009134221 0.012565965 0.03745603 -0.01057808 -0.021032149
-0.016264759 -0.013783489 -0.013779013 0.063972875 -0.002128803 -0.007181956 -0.0071725477 0.02363846
-0.02843634 0.04718837 -0.004208183 -0.024397984 0.027918389 -0.007878124 0.0019534742 0.05294133
0.020126559 -0.017633596 -0.057600778 0.030744942 -0.021511909 -0.008674745 0.012655419 -0.03766826
-0.0074628843 0.05569574 0.0029185181 -0.03851755 -0.009591207 -0.033909153 -0.037592527 -0.009528078
0.030975228 -0.042232733 -0.023498362 -0.04870176 -0.049182426 -0.047746703 0.044504303 0.04283695
0.013602861 0.002557256 -0.038038887 -0.04272361 0.00017926852 0.03555882 0.023826834 -0.043034464
-0.042069253 0.0005767658 0.0065069688 0.04973072 0.002865639 -0.04437434 0.013227857 -0.0044778017
0.023405788 0.0028688428 -0.05689262 0.023001364 -0.030698063 0.05619052 -0.05245404 -0.01153511
-0.0053747566 -0.004426487 0.03418237 0.02194232 0.03556312 0.0064003244 0.01090796 -0.00683528
-0.008817938 0.016027946 0.04560238 0.044815205 -0.04055249 -0.011685114 0.006224765 -0.013545089
-0.008072268 0.011753161 0.01395672 0.012498219 -0.043874476 0.07016931 -0.05157966 0.05099378
-0.031932153 0.008014872 -0.043617196 -0.011760921 0.02189928 0.01082258 0.03420144 -0.025252804
0.012455991 0.013696794 -0.010314154 -0.08315641 0.02055977 0.02098067 0.021479277 -0.03755792
-0.021854807 0.04994675 0.027953694 -0.08132176 -0.00065829617 0.008328597 -0.043232065 -0.05653111
-0.031167498 -0.035699952 -0.033883836 0.0027880806 0.005881028 0.055159796 -0.013937087 -0.028937455
-0.05859344 0.01976818 0.00673289 0.022782918 -0.0004827263 8.287044e-05 -0.055247333 -0.034053978
-0.024960794 -0.015948698 -0.048576534 -0.036542907 -0.012045915 -0.034430016 -0.017420247 -0.021849496
-0.05100406 0.023340663 0.017219808 -0.027026847 0.023153588 0.02055301 -0.010071928 -0.005424016
0.0060054013 0.0025328873 0.0041201166 -0.03838312 -0.039069675 -0.005189673 -0.051524285 -0.006588684
00000000: 72bc 3abc 9ec2 4c3c 6b31 92bb d7e4 82bd
00000010: f3c3 dd3c 61bd 78bd 0cec 20bd 8a77 f8bc
00000020: 7718 f23c 4de5 3bbd 2075 00bd 9a03 3a3d
00000030: ea63 0e3c e8b9 893c 5753 34bd 61ff a53c
00000040: 2153 ebbc 3547 e6bc b44e e9bb 6c2d a83d
00000050: d955 65bc 6b69 4b3d 6333 29bd 791e 21bd
00000060: 1238 19bc 5d6e f9bc f373 f73b 3cb9 083d
00000070: 3adb d43c 005d debc a105 0abd aedd 89bc
00000080: b1cb c6bc c83c d93c 3328 11bd c26b 0e3d
00000090: c630 a83a c5fc b23c 14c6 663d e76e 44bd
000000a0: bfce 2fbc 2cf6 1a3c cfc6 0e3d d90f 0b3c
000000b0: 57d0 843d c8c5 f439 b379 94bc 0d81 0fbd
000000c0: 13c7 3e3c f3cf 1dbb 47d2 76bd 86f8 49bd
000000d0: 66ca d73b ac22 27bd 76d3 373c 37e5 1e3c
000000e0: 6063 12bd e8f3 18bd 9630 043c c990 42bd
000000f0: f29a 893c dfb6 aebc ca96 15bd f663 dbbc
00000100: 6ffe 39bd f6f5 49bd 9a45 5ebd 4beb a3bc
00000110: 1d33 00bd c897 013d be08 2bbc deae b43b
00000120: 1f89 c6bc 03ce b3ba 8de4 8d3c 6d38 8abd
00000130: 53f5 893c b28c 86ba 8aca a03c 715f 4bbd
00000140: 26d2 07bd 874c 07bd d643 50bd 8ba8 02bd
00000150: b105 34ba 6d91 a73b b3d7 943c f7b4 d7bc
00000160: 12a7 06bd 9590 bfbb 5931 0dbd 93a1 683d
00000170: f7b9 fd3b 77e5 61bd 4f98 a4bc 36c9 dabc
00000180: c51c 6bbc cf68 88bc 5cae 293c b3a7 15bc
00000190: 7ae1 4d3c 7e6b 193d af4f 2dbc 9d4b acbc
000001a0: ac3d 85bc 25d4 61bc 5fc1 61bc 3604 833d
000001b0: 6383 0bbb 9d56 ebbb b107 ebbb 72a5 c13c
000001c0: 54f3 e8bc 9848 413d cce4 89bb 48de c7bc
000001d0: 1bb5 e43c 3f13 01bc dc05 003b 02d9 583d
000001e0: 74e0 a43c 5574 90bc cbee 6bbd d1dc fb3c
000001f0: be39 b0bc 8520 0ebc ad58 4f3c 094a 1abd
00000200: 368b f4bb 3721 643d 9c44 3f3b 94c4 1dbd
00000210: 7024 1dbc 53e4 0abd 9ffa 19bd a81b 1cbc
00000220: c3bf fd3c 3bfc 2cbd a37f c0bc 7f7b 47bd
00000230: 8373 49bd 0c92 43bd 254a 363d cc75 2f3d
00000240: 89de 5e3c a397 273b aace 1bbd f4fe 2ebd
00000250: 07fa 3b39 20a6 113d 7e30 c33c e844 30bd
00000260: cf50 2cbd 1932 173a 6938 d53b 71b2 4b3d
00000270: 72cd 3b3b dec1 35bd a7b9 583c 86ba 92bb
00000280: 7fbd bf3c 3203 3c3b 3c08 69bd 5b6d bc3c
00000290: 817a fbbc 0828 663d 0cda 56bd c2fd 3cbc
000002a0: ba1e b0bb 100c 91bb d002 0c3d 61c0 b33c
000002b0: a2aa 113d d0b9 d13b 4db7 323c 7cfa dfbb
000002c0: 1d79 10bc 0a4d 833c 90c9 3a3d 2690 373d
000002d0: 5e1a 26bd ec72 3fbc 1df9 cb3b 39ec 5dbc
000002e0: 8c41 04bc 5590 403c baaa 643c 54c5 4c3c
000002f0: b9b5 33bd edb4 8f3d 3245 53bd dbde 503d
00000300: 4acb 02bd cf50 033c f2a7 32bd e1b0 40bc
00000310: 1e66 b33c 3151 313c cf16 0c3d f8de cebc
00000320: 3614 4c3c 8568 603c b3fc 28bc e84d aabd
00000330: f66c a83c a7df ab3c 4ff5 af3c 55d6 19bd
00000340: da08 b3bc f794 4c3d 25ff e43c 068c a6bd
00000350: 8291 2cba ab74 083c 1b14 31bd 2a8d 67bd
00000360: fb52 ffbc 1d3a 12bd c7c9 0abd 3bb8 363b
00000370: a3b5 c03b 3def 613d 6158 64bc 3e0e edbc
00000380: adff 6fbd e1f0 a13c 939f dc3b 3ea3 ba3c
00000390: 6d16 fdb9 bbca ad38 074b 62bd 2f7c 0bbd
000003a0: 947a ccbc d8a6 82bc 30f8 46bd 04ae 15bd
000003b0: 3b5c 45bc 7d06 0dbd e8b4 8ebc b7fd b2bc
000003c0: a2e9 50bd eb34 bf3c 8e10 8d3c 6867 ddbc
000003d0: 98ac bd3c c95e a83c ba04 25bc f2bb b1bb
000003e0: f5c8 c43b ccfe 253b 0b02 873b 9e37 1dbd
000003f0: 8607 20bd 220e aabb 210b 53bd e3e5 d7bb

model2.4.weight f4 [64, 256]
0.003446226 0.0060408874 -0.0109784715 -0.05787331 0.03881632 -0.021855807 0.028496617 -0.05210498
-0.03731731 -0.008724725 -0.039283987 0.012127433 -0.066518426 0.05723491 0.024267823 0.0479265
-0.005635514 -0.05675091 -0.052461416 -0.08872885 -0.02816546 -0.042528056 0.06375935 0.055575293
-0.05520428 0.060858957 -0.01512991 -0.037908897 -0.05152304 -0.03297867 0.0054532536 -0.05181717
0.0017194919 0.0016516254 -0.019401554 -0.050022595 -0.05998891 0.03322056 0.029896181 -0.055547893
0.011292869 0.062159296 0.024651784 0.051213752 -0.011083319 0.053011626 0.06633056 -0.012221648
-0.03204493 -0.06273472 -0.0075164023 -0.061488938 -0.048395976 0.054478265 -0.004053968 -0.0058241975
-0.023571601 -0.020894473 -0.008812877 -0.024905547 -0.069369346 0.023951417 0.03632499 -0.04428938
0.048266776 -0.016648205 0.0225623 0.05643893 -0.03516447 0.022480948 -0.049424402 -0.052831236
-0.017118195 0.047005307 -0.063908175 0.0008696992 0.0019111293 0.037482683 -0.03440703 -0.058967367
-0.023524255 0.031158779 0.050983433 0.025947751 0.021265067 -0.028366327 -0.0022559026 -0.060438197
-0.04042826 -0.067776464 -0.038462397 0.05114288 0.009905025 0.03894364 0.013966158 0.017044129
-0.06265652 0.05085153 0.04684136 -0.05246049 -0.057608407 0.01508784 0.022555081 0.029342564
0.027722195 0.0066593937 -0.05544591 -0.009982905 0.038640045 0.028534612 0.02653804 -0.046992432
0.045370013 -0.062458456 -0.007783875 0.019858342 0.013295209 0.04904433 0.026237277 -0.042748135
0.019346958 -0.009324683 0.035059106 0.0051188474 -0.027103787 -0.014150934 -0.08288093 -0.021131698
0.03354763 -0.06521108 -0.0009581762 -0.016299756 -0.048768617 -0.01813076 0.00547259 0.011563338
-0.013875057 -0.009620434 0.052021034 -0.038442936 0.054012492 -0.04734306 0.047316775 -0.066895574
-0.047430195 0.04162693 0.0495322 -0.05602926 0.056340147 0.008661793 -0.1150422 -0.020581461
-0.024380885 -0.021244818 0.012058851 -0.09226185 0.036562044 -0.03298667 -0.040652882 -0.110416725
-0.0222418 -0.09233161 -0.07007005 0.04563613 -0.02807153 -0.004558617 -0.04570663 -0.030547628
-0.0179338 -0.045605734 0.030457504 -0.037878398 0.018182509 0.002202762 -0.03716319 0.022825908
-0.051812015 0.04954892 -0.06720692 -0.07539658 -0.0050555207 0.035687167 0.06346366 -0.015642324
0.019294113 -0.05990062 0.038386904 0.056084942 0.016677763 -0.028323654 -0.017724356 0.03659477
0.009549344 0.01677228 -0.08265687 -0.02813151 0.021261804 0.004232258 0.0012265492 -0.0074187345
0.030645475 0.023756854 0.05983156 -0.037384007 -0.108164944 -0.018198736 -0.01933012 0.0045539523
0.030783596 0.023363212 0.054736424 -0.028201202 0.001069257 -0.000388144 -0.012066356 0.01525196
0.021095855 -0.010540783 -0.08078223 -0.010814324 0.017874725 0.023486273 -0.02929814 0.012204159
0.06512623 0.01914785 0.013742959 0.0061936756 0.037384845 -0.043930985 -0.00067231606 -0.06363186
0.017273957 -0.04313666 -0.053140845 -0.06575811 -0.041334946 0.07564503 0.05586341 -0.044859145
0.008165126 0.00669508 -0.009512577 -0.07174666 0.055458006 0.010250526 0.03711849 0.037873294
-0.007760314 -0.05457922 0.020127192 -0.0024994526 0.06063417 -0.04865501 0.025594696 -0.00647167
00000000: 14da 613b a3f2 c53b 0cdf 33bc 900c 6dbd
00000010: ddfd 1e3d f30a b3bc bd71 e93c 086c 55bd
00000020: 09da 18bd 26f2 0ebc 3fe8 20bd 24b2 463c
00000030: d03a 88bd 276f 6a3d 50cd c63c 944e 443d
00000040: 1eaa b8bb a473 68bd c8e1 56bd 79b7 b5bd
00000050: 40bb e6bc e631 2ebd 4394 823d eba2 633d
00000060: e21d 62bd 3e47 793d 71e3 77bc 5c46 1bbd
00000070: d309 53bd a414 07bd 35b1 b23b 3e3e 54bd
00000080: 9360 e13a 5a7b d83a 02f0 9ebc 7ee4 4cbd
00000090: eeb6 75bd 4812 083d d6e8 f43c 3086 63bd
000000a0: ba05 393c bf9a 7e3d 8af2 c93c 83c5 513d
000000b0: cf96 35bc b822 593d 51d8 873d 4f3d 48bc
000000c0: 8b41 03bd 107b 80bd 274c f6bb d3db 7bbd
000000d0: dc3a 46bd 9a24 5f3d 26d7 84bb e9d8 bebb
000000e0: 3b19 c1bc e32a abbc e363 10bc b806 ccbc
000000f0: 8411 8ebd c335 c43c 83c9 143d c868 35bd
00000100: 62b3 453d d161 88bc 93d4 b83c 822c 673d
00000110: 9f08 10bd f729 b83c 3e71 4abd 9165 58bd
00000120: 753b 8cbc a388 403d 4ae2 82bd 86fc 633a
00000130: dc7e fa3a 7187 193d 63ee 0cbd c487 71bd
00000140: f0b5 c0bc b240 ff3c 01d4 503d 6190 d43c
00000150: 1434 ae3c 8060 e8bc c4d7 13bb 0b8e 77bd
00000160: 1a98 25bd 63ce 8abd bf8a 1dbd 327b 513d
00000170: b048 223c 5e83 1f3d 50d2 643c 21a0 8b3c
00000180: 1052 80bd b249 503d badc 3f3d d0e0 56bd
00000190: cbf6 6bbd fd32 773c 6fc5 b83c d15f f03c
000001a0: a819 e33c 0b37 da3b 401b 63bd 578f 23bc
000001b0: 0645 1e3d 6bc1 e93c 4e66 d93c 237b 40bd
000001c0: e8d5 393d 70d4 7fbd e00f ffbb f6ad a23c
000001d0: 26d4 593c b5e2 483d 8fef d63c ab18 2fbd
000001e0: 837d 9e3c 8ec6 18bc 239a 0f3d 01bc a73b
000001f0: c308 debc 52d9 67bc 7abd a9bd 621c adbc
00000200: 3d69 093d 638d 85bd 1e2e 7bba 1187 85bc
00000210: 9ac1 47bd f686 94bc 6a53 b33b 2874 3d3c
00000220: 3554 63bc 069f 1dbc 0214 553d 5776 1dbd
00000230: 343c 5d3d ccea 41bd 3ccf 413d 8c00 89bd
00000240: 2a46 42bd 0081 2a3d 47e2 4a3d f07e 65bd
00000250: edc4 663d 31ea 0d3c 3f9b ebbd 749a a8bc
00000260: 6cba c7bc 9d09 aebc 7d92 453c c8f3 bcbd
00000270: 15c2 153d 081d 07bd a383 26bd 2a22 e2bd
00000280: 6f34 b6bc 5b18 bdbd e380 8fbd f3ec 3a3d
00000290: 44f6 e5bc 7360 95bb e036 3bbd 053f fabc
000002a0: e8e9 92bc 14cd 3abd 0482 f93c 6126 1bbd
000002b0: 7cf3 943c 375c 103b 6e38 18bd 66fd ba3c
000002c0: d638 54bd cff3 4a3d c8a3 89bd 8669 9abd
000002d0: c8a8 a5bb b52c 123d 3cf9 813d 5524 80bc
000002e0: b00e 9e3c 5a5a 75bd 963b 1d3d 53b9 653d
000002f0: ce9f 883c 0207 e8bc ab32 91bc 66e4 153d
00000300: da74 1c3c 0566 893c 0148 a9bd 0d74 e6bc
00000310: 3c2d ae3c c1ae 8a3b 29c4 a03a db18 f3bb
00000320: 380c fb3c bc9d c23c f011 753d f91f 19bd
00000330: 9585 ddbd 8415 95bc 335a 9ebc 5239 953b
00000340: e12d fc3c 3564 bf3c 4d33 603d 3506 e7bc
00000350: 5026 8c3a ce7f cbb9 f7b1 45bc 5be3 793c
00000360: 37d1 ac3c 40b3 2cbc 2771 a5bd 902e 31bc
00000370: 046e 923c 4966 c03c a702 f0bc f4f3 473c
00000380: e760 853d f4db 9c3c 262a 613c 51f4 ca3b
00000390: da20 193d faf0 33bd 5e3e 30ba 6c51 82bd
000003a0: 1d82 8d3c 11b0 30bd 37aa 59bd 30ac 86bd
000003b0: d54e 29bd c8eb 9a3d 08d1 643d 39be 37bd
000003c0: 05c7 053c 6762 db3b a4da 1bbc eaef 92bd
000003d0: ef27 633d d2f1 273c 8f09 183d 0721 1b3d
000003e0: 3b4a febb 768e 5fbd c8e1 a43c dbcd 23bb
000003f0: 895b 783d 7a4a 47bd f8ab d13c 4e10 d4bb

model2.4.bias f4 [64]
0.017194372 -0.004508578 -0.04260213 -0.023916095 -0.046693966 -0.00805184 -0.078413814 0.047707655
0.028241117 0.044619165 -0.047507327 -0.012617581 0.019751865 -0.0079256175 -0.014797664 0.052272808
-0.008583903 0.013647694 -0.039803825 0.035875376 0.031619474 -0.06632147 0.03976083 0.053501476
-0.013658566 0.030953778 -0.009624337 -0.032306682 -0.06475387 -0.028142119 0.10653693 0.071252584
0.012942939 -0.0080089 -0.014348058 -0.013411894 0.0071997927 -0.03054662 -0.046794564 -0.0106826825
-0.026740223 -0.034222938 -0.08866314 0.034132797 0.027078055 -0.00021999766 -0.04456572 0.024887664
0.049542118 -0.06559993 0.034481365 -0.017707802 -0.08070733 0.032441642 -0.05842987 -0.0565824
-0.03231812 -0.015827665 0.02864065 0.046972916 -0.049070466 -0.048969436 0.058979016 0.010287134
00000000: 36db 8c3c b2bc 93bb 927f 2ebd b0eb c3bc
00000010: 2c42 3fbd ddeb 03bc 6c97 a0bd 1a69 433d
00000020: ea59 e73c 96c2 363d 0b97 42bd f8b9 4ebc
00000030: aace a13c 73da 01bc e771 72bc 031c 563d
00000040: 80a3 0cbc 949a 5f3c 5609 23bd 0ff2 123d
00000050: 6c83 013d 8dd3 87bd 41dc 223d 5d24 5b3d
00000060: 2ec8 5fbc c792 fd3c 65af 1dbc 0354 04bd
00000070: ad9d 84bd 4d8a e6bc 0930 da3d e0ec 913d
00000080: 9f0e 543c c337 03bc 1e14 6bbc 90bd 5bbc
00000090: 3dec eb3b e83c fabc a8ab 3fbd 6b06 2fbc
000000a0: 500e dbbc 5a2d 0cbd 0595 b5bd d5ce 0b3d
000000b0: ccd2 dd3c 2caf 66b9 8b8a 36bd 37e1 cb3c
000000c0: adec 4a3d 4259 86bd 553c 0d3d f40f 91bc
000000d0: e249 a5bd 87e1 043d 2954 6fbd f2c2 67bd
000000e0: 0160 04bd 05a9 81bc cc9f ea3c ac66 403d
000000f0: 1dfe 48bd 2d94 48bd fb93 713d 5e8b 283c

model2.6.weight f4 [4, 64]
0.04568193 -0.094268285 0.098033026 -0.008811684 -0.0008717696 -0.12894297 0.045365144 -0.08150779
0.116147175 -0.069305286 -0.04727793 0.010280518 -0.03971153 0.1291834 -0.079330415 -0.16763937
0.14221902 -0.078494415 -0.076462284 -0.018821273 -0.0405867 -0.008789822 -0.1373778 0.07320515
0.055349667 -0.18826196 -0.09929726 0.1360454 -0.06697415 -0.12548198 -0.11357078 -0.039009478
0.120678864 0.069787025 -0.009790137 0.03408279 -0.042717747 0.108084135 -0.00840647 0.06853272
-0.024324661 -0.03844597 0.072103634 -0.016661858 0.05476689 -0.13120364 0.024503635 0.016159534
-0.022970159 -0.029799368 -0.1481157 -0.0144376345 -0.051360134 0.041998215 0.00091093034 -0.002767432
-0.07699066 -0.04725194 -0.07429382 -0.061331563 0.014633263 -0.10511336 0.05783586 -0.09234813
-0.026585061 -0.05597538 0.024563223 -0.12001418 -0.031162117 -0.10483128 0.018547518 -0.0039610974
-0.061746974 0.14712295 0.10626266 -0.115829185 0.039978556 -0.020833796 -0.13767283 -0.035691142
0.00256321 -0.11068021 -0.068225145 -0.02254117 -0.04384559 -0.009477048 0.026604218 -0.115996785
-0.070075594 0.0667071 0.14107357 0.03483626 -0.075420335 -0.008867529 -0.102759846 -0.09382995
0.022576103 -0.108860426 0.040330585 0.116259135 -0.103276476 -0.08818919 0.02800113 0.07587897
0.058686618 -0.09977055 0.20627458 -0.0071328515 0.2090551 -0.07746064 0.045769516 -0.13290642
-0.12341479 0.11227398 -0.017971292 -0.027334983 -0.017273407 0.077410854 -0.0557426 -0.048668224
-0.05446725 0.03582078 0.0051395316 -0.081607625 0.023319868 -0.036908604 0.012173766 -0.0107145505
-0.06407389 0.059506796 -0.005981445 -0.07143494 -0.08078993 -0.13106948 -0.054498237 0.07335763
-0.028058516 0.0045552044 -0.016479792 -0.020058328 -0.014911752 0.04458453 0.08775673 0.106240265
-0.05599718 -0.046433013 0.07088924 0.008712025 -0.031105405 0.0047140946 0.030358525 -0.031130733
0.042095546 0.07630704 0.05855811 0.12598825 0.08971977 -0.08911729 0.030050898 0.009760162
-0.06547664 -0.06728042 -0.017765192 0.03798393 -0.007947904 -0.015765375 -0.0993165 0.08600794
0.03232802 0.022404045 0.062462527 -0.033599194 -0.041343473 0.00040010017 -0.0985951 -0.12229609
-0.12141352 0.07541882 -0.0064700027 -0.05219344 -0.008580492 -0.11061472 -0.020698473 0.016976334
0.08514714 0.02710764 0.100393996 0.07292772 -0.031575304 -0.10394408 -0.13471766 0.027205847
-0.03623481 0.03444552 0.02904596 -0.022433601 0.016912077 -0.07460421 0.018987607 -0.11155198
0.011640166 0.11521375 0.11047339 -0.09725942 -0.07513217 -0.016197376 0.055156056 -0.06336857
-0.006852103 0.035213638 -0.009674606 0.00045135032 0.0898177 -0.049320757 -0.13271499 0.0700108
0.066723116 -0.09677183 0.023613982 -0.011170662 0.099030346 -0.052537758 -0.1016712 -0.0387595
-0.11639503 -0.0507185 -0.024749462 0.03008695 -0.03136962 0.090329304 0.12638903 0.19536166
0.013893966 -0.080569364 0.030641222 -0.065910175 0.0409663 0.016524853 -0.12318589 0.03302483
0.096312925 -0.037730154 -0.07255127 0.15708047 -0.033321146 0.05999783 -0.049835276 0.2033855
-0.052226823 -0.035178896 0.177261 -0.0074379514 -0.016492045 0.052030027 0.109381005 0.09765952
00000000: fa1c 3b3d bb0f c1bd 8ac5 c83d e25e 10bc
00000010: 7887 64ba a009 04be cdd0 393d 8eed a6bd
00000020: 92de ed3d eeef 8dbd 81a6 41bd 9e6f 283c
00000030: 8fa8 22bd a748 043e fc77 a2bd a8a9 2bbe
00000040: dda1 113e aec1 a0bd 4298 9cbd 122f 9abc
00000050: 3d3e 26bd 3003 10bc c4ac 0cbe 95ec 953d
00000060: 55b6 623d bec7 40be 5d5c cbbd 7c4f 0b3e
00000070: be29 89bd 597e 00be cc97 e8bd 67c8 1fbd
00000080: 7b26 f73d 80ec 8e3d d066 20bc 659a 0b3d
00000090: cef8 2ebd 375b dd3d 4abb 09bc e25a 8c3d
000000a0: 8344 c7bc 8579 1dbd 12ab 933d 737e 88bc
000000b0: 3f53 603d 3f5a 06be d9bb c83c 0061 843c
000000c0: ea2b bcbc ce1d f4bc a4ab 17be d48b 6cbc
000000d0: 015f 52bd 5206 2c3d 80cb 6e3a ce5d 35bb
000000e0: 47ad 9dbd 408b 41bd 5c27 98bd ce36 7bbd
000000f0: 5bc0 6f3c ac45 d7bd 4be5 6c3d 0421 bdbd
00000100: eac8 d9bc 7146 65bd d038 c93c ffc9 f5bd
00000110: b247 ffbc c8b1 d6bd f7f0 973c 18cc 81bb
00000120: 65ea 7cbd 66a7 163e 3da0 d93d da37 edbd
00000130: 8ec0 233d a3ab aabc 1bfa 0cbe e030 12bd
00000140: 87fb 273b 4eac e2bd a0b9 8bbd 42a8 b8bc
00000150: 6f97 33bd 9f45 1bbc 17f1 d93c b98f edbd
00000160: cb83 8fbd bb9d 883d 9775 103e 77b0 0e3d
00000170: fa75 9abd 1d49 11bc c173 d2bd eb29 c0bd
00000180: 85f1 b83c 37f2 debd af31 253d 4519 ee3d
00000190: 9e82 d3bd 899c b4bd a062 e53c 6f66 9b3d
000001a0: 6161 703d 8154 ccbd a539 533e b2ba e9bb
000001b0: 8a12 563e afa3 9ebd d178 3b3d 9f18 08be
000001c0: e5c0 fcbd e7ef e53d 8838 93bc 9ded dfbc
000001d0: f680 8dbc 9589 9e3d 5a52 64bd 5558 47bd
000001e0: 0d19 5fbd cfb8 123d 8469 a83b e621 a7bd
000001f0: 4f09 bf3c 7a2d 17bd 7a74 473c 158c 2fbc
00000200: 2c39 83bd 66bd 733d ffff c3bb 7b4c 92bd
00000210: 3175 a5bd 1437 06be 8b39 5fbd 863c 963d
00000220: f9da e5bc d343 953b a100 87bc 5d51 a4bc
00000230: 6c50 74bc 459e 363d cdb9 b33d 7f94 d93d
00000240: 4d5d 65bd 8b30 3ebd 612e 913d e2bc 0e3c
00000250: c3d0 febc b178 9a3b 71b2 f83c e105 ffbc
00000260: 616c 2c3d de46 9c3d a1da 6f3d 1003 013e
00000270: 00bf b73d 2083 b6bd 4d2d f63c 16e9 1f3c
00000280: 9e18 86bd 51ca 89bd 4f88 91bc 0a95 1b3d
00000290: ed37 02bc 6326 81bc 7366 cbbd ee24 b03d
000002a0: 636a 043d b088 b73c b5d8 7f3d 4f9f 09bd
000002b0: c657 29bd 89c4 d139 3aec c9bd 5f76 fabd
000002c0: a7a7 f8bd 2f75 9a3d 5102 d4bb cac8 55bd
000002d0: 3195 0cbc f889 e2bd d88f a9bc f411 8b3c
000002e0: a061 ae3d d710 de3c 5e9b cd3d 215b 953d
000002f0: 1b55 01bd a2e0 d4bd 6df3 09be ccde de3c
00000300: f46a 14bd bf16 0d3d cbf1 ed3c acc6 b7bc
00000310: 328b 8a3c 18ca 98bd e68b 9b3c 5d75 e4bd
00000320: 65b6 3e3c 30f5 eb3d df3f e23d f22f c7bd
00000330: e5de 99bd 5cb0 84bc 51eb 613d 61c7 81bd
00000340: 9b87 e0bb 2d3c 103d 3d82 1ebc 37a3 ec39
00000350: 58f2 b73d 9004 4abd 70e6 07be d361 8f3d
00000360: 21a6 883d 4f30 c6bd 1c72 c13c 2705 37bc
00000370: 6cd0 ca3d d531 57bd fd38 d0bd 48c2 1ebd
00000380: 8460 eebd 34be 4fbd 62bf cabc e878 f63c
00000390: 6e7d 00bd 92fe b83d 206c 013e e30c 483e
000003a0: 84a3 633c 8d01 a5bd 4d03 fb3c eafb 86bd
000003b0: 47cc 273d 215f 873c e248 fcbd 0b45 073d
000003c0: b63f c53d ef8a 1abd c395 94bd b4d9 203e
000003d0: c17b 08bd 49c0 753d 1320 4cbd 4a44 503e
000003e0: cbeb 55bd bf17 10bd e883 353e 0fba f3bb
000003f0: 531a 87bc 701d 553d 2603 e03d b701 c83d

model2.6.bias f4 [4]
-0.00749383 0.065926895 0.040102106 -0.06354131
00000000: cd8e f5bb ae04 873d 1b42 243d f221 82bd
