model_weight/actor/13_13 13:50:06 std 0.5 lr_actor_4e-05- gamma_0.7 memory100 actor_weight.pth (torch, 646091 bytes, 9 tensors)

std f4 [4]
000000 3e 20 5f 3e ae 70 9e 3e 4e 07 3b 3e 3b 5a 63 3e
       0.21789643 0.30945343 0.18264505 0.22202389

model2.0.weight f4 [512, 24]
000000 87 8c 50 3e 59 47 42 be 54 1b 2c 3e 3f 02 74 bc
       0.20366107 -0.1897253 0.168073 -0.014893114
000010 fc 92 78 be a3 aa a0 bd f3 85 fc 3d 44 1a 06 3e
       -0.2427482 -0.07845046 0.12330236 0.13095957
000020 a6 e1 f4 bc a5 ac e0 bd b1 3f 84 3d 94 7e 2b 3e
       -0.029892754 -0.10970429 0.06457461 0.16747504
000030 79 6b ac 3d 61 ca 85 be 93 f4 fb 3c 88 9c 3b be
       0.08418936 -0.26130965 0.03075627 -0.1832143
000040 b1 e3 d8 3a 1e cb 3f bd 5b c6 ef 3c 43 4b a4 3d
       0.001654735 -0.046824567 0.029269388 0.080221675
000050 17 e2 f4 bd 3b 14 3f 3e 0c 7a 06 be 02 a2 00 be
       -0.11957186 0.18660061 -0.13132495 -0.12561801
000060 85 e3 48 be 99 97 0e be 9b 56 cf 3d b3 7d 4f bd
       -0.19618042 -0.13925017 0.101239406 -0.050656985
000070 1e 7b 65 bb f0 4e 16 bc 5d 57 a2 bd 70 f3 02 3e
       -0.003501601 -0.009174094 -0.079268195 0.12788177
000080 a8 b7 e6 bd c7 42 61 bd 88 10 61 bd a9 db be 3d
       -0.112654984 -0.054995324 -0.054947406 0.093192406
000090 d6 f3 a3 3d 23 b6 13 be eb 86 a3 3c 07 46 34 3d
       0.080054924 -0.14424948 0.019961795 0.044012096
0000a0 f6 64 ed 3d a5 15 bb 3d 8e bf ef 3d 7e cf 45 bd
       0.115915224 0.09134988 0.11706458 -0.048293583
0000b0 c2 10 f0 3b 26 eb 31 3d a7 ed 32 be eb 28 59 be
       0.0073262164 0.043437146 -0.1747347 -0.21207015
0000c0 67 61 02 3e fd 1e 8b 3d 3d 93 b3 bd cc 4d 50 be
       0.12732469 0.0679302 -0.08768318 -0.20342177
0000d0 b1 6a 02 3e 1c 85 60 bd 20 2c cc 3d 2b e1 bd bd
       0.12736012 -0.054814443 0.09969354 -0.09271463
0000e0 10 54 3b 3e 8a bb 8d 3e a9 70 ae 3d d1 a6 3a 3d
       0.18293786 0.27682143 0.08517582 0.045569245
0000f0 46 32 53 bd 80 5e f5 bd 9b e0 27 be cd ec 0d be
       -0.051561616 -0.11980915 -0.16394274 -0.13859864
000100 29 52 85 3c f7 97 84 3a 31 af b7 bd d4 ac ae 3c
       0.016274529 0.001011609 -0.08968962 0.021322645
000110 06 92 2a 3e e9 8d 76 3d 28 c3 02 3e 49 8b 45 bd
       0.16657266 0.06019393 0.12769759 -0.048228536
000120 2a 38 b5 3d ef 6f 0d be c5 ef 32 3e 0d 8c 17 3e
       0.08848603 -0.1381223 0.17474277 0.14799519
000130 e6 b0 9b be 61 09 6a be ab 8d 86 be df 3f 36 3d
       -0.304084 -0.2285514 -0.2627996 0.044494506
000140 0b 7b e2 3d 94 c0 c1 bd c9 30 14 be 16 12 cd 3c
       0.11058625 -0.094605595 -0.14471735 0.025033038
000150 fc 83 24 3d 82 28 40 be ea fd 7d bd 9e 9c d9 3d
       0.040164933 -0.18765453 -0.06200973 0.106255755
000160 f9 16 8e 3b fb 69 44 3e 56 58 52 3e 13 82 73 3d
       0.0043362346 0.19181053 0.2054151 0.05945022
000170 36 e0 dd bd d3 cc dc 3d 04 8a 1a bd b6 8c fb bd
       -0.108337805 0.107812546 -0.03772928 -0.12282698
000180 6f fc 18 be ff e9 5a 3e f9 aa 45 bd 94 41 43 3d
       -0.14940046 0.21378325 -0.048258755 0.047669962
000190 2f e1 2d 3e ca 5e 09 3e 12 08 f7 bd 7e 2c 20 bd
       0.16980432 0.13415065 -0.12062086 -0.03910493
0001a0 9c 46 e8 bd 98 e7 2b be 4f f9 c1 3c b6 f1 70 be
       -0.11341593 -0.16787565 0.02367845 -0.23529705
0001b0 99 3e ff 3d d8 ad 02 3e 99 75 cf bd 35 b6 7b 3c
       0.124631114 0.12761629 -0.10129852 0.015363266
0001c0 a6 72 47 be 55 2a 7f 3c 28 61 bb 3d 2b e4 19 3e
       -0.19477329 0.015574058 0.091493905 0.15028445
0001d0 94 49 22 bd 0f 40 0f 3e 70 fe 18 3e 29 11 f7 3d
       -0.03962095 0.1398928 0.1494081 0.1206382
0001e0 4d ee 37 be 92 86 47 be f0 e1 6b 3e 25 b5 ee 3d
       -0.17961998 -0.19484928 0.23035407 0.11655644
0001f0 35 0f 52 be e9 f1 61 bd fb 8d 54 3d d5 29 ed bd
       -0.20513614 -0.055162344 0.051893216 -0.115802445
000200 35 61 76 be 14 33 dd bd 69 10 80 be 22 93 d3 3c
       -0.24060519 -0.10800758 -0.2501252 0.025826994
000210 c2 71 1d 3d 2e 64 ad bc 92 9c 00 be a3 ef 10 bd
       0.038438566 -0.021165933 -0.12559727 -0.035384785
000220 1b d8 61 bd 10 25 07 3e 04 d7 90 bd a1 62 07 be
       -0.055137735 0.13197732 -0.07072261 -0.13221218
000230 f5 30 8a 3d 2e b4 0b be 92 29 59 be 3b 9f 2c 3e
       0.06747619 -0.13642952 -0.21207264 0.16857617
000240 5f 10 82 3e 5e 4b 0a be f3 22 0d bd c3 bd 5e 3d
       0.25403115 -0.13505313 -0.03445716 0.05438019
000250 55 5f 48 be 14 75 a9 3d 41 e2 26 be 39 f3 1a 3e
       -0.19567616 0.08274284 -0.16297247 0.15131845
000260 93 2a 23 3c 78 93 1c be a9 45 5e bc 8a 61 13 3e
       0.009958881 -0.1529063 -0.013566413 0.14392677
000270 fe 3f 74 be d7 49 e8 3d 53 fe f9 bc 9c 10 f5 bc
       -0.23852536 0.11342209 -0.030516779 -0.029915147
000280 78 46 86 3d b4 00 03 3d fe 08 5f bd 7d 9c 41 3e
       0.065564096 0.031983092 -0.054451935 0.18907352
000290 60 a9 6f bd 41 3b 53 3d 79 ed cf bd d1 4b da bd
       -0.058511138 0.05157018 -0.10152716 -0.10658992
0002a0 1e 3f 39 3e 80 6b 50 3e 5b 4b fa bd 14 bd 99 3d
       0.18090484 0.20353508 -0.12221404 0.07506767
0002b0 42 7c 25 3e b9 b0 48 bd 4b 91 73 3c 2d 25 44 3c
       0.16160682 -0.04899666 0.0148661835 0.011971754
0002c0 f6 82 2d be 0b e7 98 be 95 cf 75 bc 77 11 a1 be
       -0.16944489 -0.29863772 -0.015003105 -0.31458637
0002d0 20 f0 ba bd 54 8e 22 bd 14 41 65 bb 46 8d 11 3d
       -0.091278315 -0.039686516 -0.0034981417 0.03553512
0002e0 1e a5 64 3d a7 40 20 3e 2f 12 20 bc d9 3b 13 3d
       0.05582153 0.15649663 -0.00976996 0.035945747
0002f0 d7 7d 3d 3e e6 89 e9 bd 12 38 22 be 5d 99 c3 bd
       0.18505035 -0.11403255 -0.15841702 -0.09550736
000300 cf 0b 01 be be c0 ff 3d 2c e3 56 be 8e 3b 1c be
       -0.12602161 0.124879345 -0.20985097 -0.15257093
000310 72 49 97 bc 29 85 9f 3d 8e 7e 05 bd b5 c0 e2 bd
       -0.018467639 0.0778907 -0.032591395 -0.11071912
000320 6c 66 5c 3e af f6 0e 3e 2f 5c af bd 6d 94 db 3d
       0.21523446 0.1396129 -0.085625045 0.10721669
000330 f8 2d 62 bd f7 62 7a bc 3d 41 02 3e 4c 9c 71 bd
       -0.05521962 -0.015282384 0.12720199 -0.058986947
000340 5e bf 59 3d 6b 80 b3 bd f5 90 af 3c 83 d3 45 be
       0.053161018 -0.08764728 0.021431426 -0.19318967
000350 fd ee 88 bc e0 29 49 be 95 66 90 bd 05 1b 45 be
       -0.016715521 -0.1964488 -0.07050816 -0.19248588
000360 e6 7a 3b 3d 3d 7c fa bd 40 b1 e6 bd 54 22 27 3e
       0.045771502 -0.12230728 -0.112642765 0.16321689
000370 66 00 9c be 23 da 86 3c db 9f 7b be 13 81 a4 3d
       -0.30469054 0.016461438 -0.24572699 0.080324315
000380 e3 0e 18 be 6b 96 ba 3d 90 2c d5 bd 07 0d 8d 3c
       -0.14849429 0.09110721 -0.1040889 0.017218126
000390 7c 26 f1 bc 72 ef 4f 3c e2 38 00 bc 0a 44 16 3e
       -0.029437296 0.012691366 -0.007826062 0.14674392
0003a0 d4 05 15 3e 7c 87 88 3d 7d 33 06 3d 90 1a 19 3e
       0.14553005 0.066664666 0.032763947 0.14951539
0003b0 87 62 5f 3b 92 91 8f bd 2f e4 6c 3d d3 44 06 3e
       0.0034085826 -0.07010187 0.0578348 0.13112192
0003c0 55 ef c2 bd 79 4d 86 bd 64 41 8e bd 17 ac f4 3d
       -0.09518305 -0.065577455 -0.06946066 0.11946886
0003d0 b7 66 83 3d 88 8e 41 be c1 52 16 be c7 36 78 bd
       0.06416076 -0.18902028 -0.14680006 -0.060599115
0003e0 0e 53 32 bd 00 37 0a 3e 68 1d 61 3e 3a a1 31 3e
       -0.04353624 0.13497543 0.21983874 0.1734666
0003f0 ab 63 f3 bd 0a 66 b7 bd 8f de fe 3c d1 e3 7d 3d
       -0.118842445 -0.08955009 0.031111984 0.06198484

model2.0.bias f4 [512]
000000 cb be a8 bd fe 57 f6 3d 9a df 23 3e ba c7 ef 3d
       -0.08239516 0.12028502 0.16003266 0.11708017
000010 15 31 2b be df 15 1a 3e 3e 64 e7 bc b9 64 59 3d
       -0.16717942 0.15047406 -0.028246041 0.053074572
000020 29 90 59 be 24 da cc 3d 19 69 ca 3d d8 eb 5d 3d
       -0.21246399 0.100025445 0.09883327 0.054179996
000030 5c 8e d2 bd ae fe 0e 3e fd e8 13 be 51 06 12 be
       -0.10281059 0.1396434 -0.14444347 -0.14260222
000040 e1 d5 1a be 63 a9 5d 3d 86 0b 0d 3c 37 78 01 be
       -0.15120651 0.054116618 0.008608704 -0.12643515
000050 76 ab 42 bd 2d 80 0d 3e c6 0a 88 3d 03 d4 51 bc
       -0.0475268 0.13818426 0.0664268 -0.012806895
000060 2e 06 3c 3d 74 09 6a be e2 1f 56 3d b7 f6 85 bd
       0.04590433 -0.22855169 0.0522765 -0.06541198
000070 82 1f 05 3d ee d4 48 bd 87 5b 49 be 35 3a 21 3c
       0.03250075 -0.04903119 -0.19663821 0.009840538
000080 f6 ab 14 be 1d a4 ef bd 12 06 88 bd f8 bc aa 3d
       -0.14518723 -0.11701224 -0.06641783 0.08336824
000090 59 49 d0 3c 70 a7 0a be 82 6a 19 bd 23 a9 11 3e
       0.0254256 -0.13540435 -0.03745509 0.14224677
0000a0 27 52 96 3d f7 74 96 3d 8e e0 17 3d 92 d8 48 be
       0.07339888 0.07346528 0.037079386 -0.19613865
0000b0 48 71 b4 3d 32 98 aa bd e8 09 6e bd 09 5b 9c 3d
       0.08810669 -0.0832981 -0.058114916 0.07634551
0000c0 b2 fd e6 bd af 7d 49 be 16 88 a2 3d a1 29 00 3e
       -0.11278857 -0.1967685 0.079361126 0.1251588
0000d0 00 bb 83 3d 15 9f ea 3a c8 08 c0 bd a4 5a ca bd
       0.06432152 0.0017900193 -0.09376675 -0.098805696
0000e0 23 be a6 3d fd 6d b9 bd 1b dc 48 bd 6a 64 9c 3c
       0.081417345 -0.09054182 -0.049038034 0.01909085
0000f0 4a 56 d9 bd ec b8 3d be 5f b4 88 3c 5d 3a 49 3e
       -0.106121615 -0.18527573 0.01668757 0.1965117
000100 3a e4 a4 3c e8 ff 9e 3d da 48 66 be b8 4a 91 3c
       0.020128358 0.07763654 -0.22488728 0.017735824
000110 85 c4 6b 39 e7 19 15 be f1 c1 18 bc c6 d2 5a 3d
       0.00022484556 -0.14560662 -0.009323583 0.053423665
000120 ec 72 66 3d 9d 42 0d be cd 05 b6 3d 37 74 01 3e
       0.05626194 -0.13794942 0.08887825 0.12641989
000130 57 8f d0 3d fb 00 b8 bb c2 34 c1 bd 69 fe ff bc
       0.1018359 -0.0056153513 -0.09433891 -0.031249242
000140 8c 1c c5 bd bd 09 ce bd a4 6d ac 3b 3b 84 fe 3d
       -0.096245855 -0.10060451 0.0052620936 0.12427565
000150 56 4c 55 3d 40 14 86 bd 69 88 16 3e 64 4b ee 3d
       0.052074753 -0.06546831 0.14700474 0.11635473
000160 17 74 dd bd f0 a6 30 bd 6c 66 b1 bd 72 97 bf 3d
       -0.10813158 -0.043127954 -0.086621135 0.09355058
000170 96 83 c3 3d 2e 73 d9 3c ad fa 03 be bf 0b a7 3d
       0.095465824 0.02654418 -0.12888594 0.08156537
000180 8f c2 31 bd 50 93 c2 3d 33 03 8d bd 27 cf 26 3e
       -0.043398436 0.09500754 -0.06885376 0.1628996
000190 f7 c3 14 be 94 44 95 bc 56 0f 32 3e 9c 71 37 be
       -0.1452788 -0.018221177 0.17388663 -0.17914432
0001a0 5e 48 31 be 7d a4 6a be 30 77 07 3e fc 0c f1 bd
       -0.17312762 -0.2291431 0.1322906 -0.11770055
0001b0 a8 00 37 3e c9 92 32 be 61 ca c9 bd fd 86 25 3c
       0.17871344 -0.17438807 -0.09853054 0.0101029845
0001c0 ad 8b a4 bd 31 b3 2e be 51 02 1b be 98 d3 0c be
       -0.080344535 -0.17060544 -0.15137602 -0.13752592
0001d0 a7 89 f6 bd e7 e4 59 be 55 d6 15 be e1 f3 13 3d
       -0.12037974 -0.21278726 -0.14632542 0.036121253
0001e0 98 dd 8d bd f6 a8 1d be 8b 76 76 3c 5e e0 7f 3c
       -0.06927031 -0.15396485 0.015042911 0.015617458
0001f0 6e 98 60 bd ab 15 35 3d 73 33 d3 3d c1 c3 c3 3d
       -0.05483287 0.044210117 0.103125475 0.095588215
000200 79 f0 45 3e a0 cf d4 bb c5 c1 68 be 80 c3 15 3d
       0.19330014 -0.0064944774 -0.22730167 0.036563396
000210 79 a0 2b 3e 2e ac 10 be 8e 17 0a be a5 f1 71 be
       0.16760434 -0.14128181 -0.13485548 -0.23627336
000220 1c 7b 12 3d 31 8b 3d 3d fb b1 a0 3d fb fa 08 be
       0.035761937 0.04627532 0.07846447 -0.13376991
000230 b7 ef 14 3e 37 97 d5 bd 3c 51 d5 bd 26 1c 39 be
       0.14544569 -0.104292326 -0.10415885 -0.18077144
000240 b3 4e 4f be c1 ff 25 3d 6c 45 ac 3d 16 48 22 3e
       -0.20244865 0.04052711 0.08411679 0.15847811
000250 71 14 86 3d 19 4f 30 3d 59 48 1c 3e b8 1c 18 3e
       0.06546868 0.043044183 0.15261973 0.14854705
000260 3b 51 97 3d a0 fc 90 bc 1b 7f 0c be 65 40 57 bc
       0.0738854 -0.017698586 -0.13720362 -0.013137911
000270 c0 c9 1a 3e 99 03 b5 3d 01 5e 64 be 60 05 cf bd
       0.15116024 0.08838577 -0.22301485 -0.10108447
000280 7b 89 97 bd 17 08 5e bc 9f b2 4b 3d 61 73 73 3d
       -0.07399269 -0.013551733 0.049730893 0.059436206
000290 4a 15 09 3e d5 6a 07 3e 89 cd 8f bd e2 f7 da 3d
       0.13387027 0.13224347 -0.070216246 0.10691811
0002a0 c8 c9 85 bd 87 1f 1f be 00 ad af 3d 75 ad 1b bd
       -0.06532627 -0.1553937 0.08577919 -0.03800722
0002b0 ee 9a cb 3d e0 44 fb 3c 32 13 91 be 84 d5 08 be
       0.0994166 0.03067249 -0.28334957 -0.133627
0002c0 70 4c 0e 3d c4 a1 83 3d e3 74 b4 3d 32 4c da 3d
       0.034740865 0.06427339 0.08811357 0.10659064
0002d0 33 de 0f be 8c 2d 16 be ff 78 db 3d 26 20 f4 3d
       -0.14049606 -0.14665812 0.107164375 0.11920194
0002e0 23 a9 bd 3b e7 43 75 be b9 51 e2 bd 54 7d 1d 3e
       0.005787985 -0.23951684 -0.110507436 0.1537984
0002f0 dd 50 3c be ff 00 e0 bd ed a5 86 bd f5 a4 2f be
       -0.18390222 -0.1093769 -0.065746166 -0.1715277
000300 23 04 d9 3d d2 cb 71 3d eb fd 6c 3d a4 f1 17 3e
       0.10596492 0.05903227 0.057859343 0.14838272
000310 55 85 25 be 9a 59 c8 3d c4 24 8c bd 25 26 7f 3d
       -0.16164143 0.09782715 -0.0684295 0.062292237
000320 d1 f6 1f bd fd d4 8e bc 55 5e be 3d 5a 39 4f 3d
       -0.03905374 -0.017435545 0.09295336 0.050591804
000330 b8 d4 1f be c1 1e b8 3d 3d af 85 3d 92 b7 18 be
       -0.1560849 0.08990241 0.06527565 -0.14913777
000340 12 a8 2e be 35 ef 55 3e 23 95 11 be 07 a1 3d be
       -0.17056301 0.20892031 -0.14217047 -0.18518458
000350 be 30 47 be 88 a7 49 be 64 37 07 be a3 80 fc bd
       -0.19452187 -0.19692814 -0.13204724 -0.12329223
000360 f2 98 6e 3d b5 55 30 be 99 de 43 bd 20 99 1f 3b
       0.05825133 -0.17220195 -0.047819708 0.0024352744
000370 0b e8 53 be 6b f2 e8 bd 62 3a c6 3d 22 9e 0c be
       -0.20693986 -0.113743626 0.096791044 -0.13732198
000380 b9 6f d3 3c 8d b8 9c 3d 92 28 ba bd 4a ff 09 3d
       0.02581011 0.07652388 -0.090897694 0.03369073
000390 ee 98 c1 bc d1 bf e4 bd d7 84 42 be ca 34 0f 3c
       -0.023632493 -0.111693986 -0.18995987 0.008740613
0003a0 f9 e1 29 3d 3a 1a 3b be 3b 25 1b 3e ec ac 28 3d
       0.04147527 -0.18271723 0.15150921 0.041180536
0003b0 27 78 d8 bd 21 ad ec 3d c5 f0 86 3d d5 9e 4d bd
       -0.10569792 0.11556459 0.06588892 -0.050200302
0003c0 57 07 1b 3d 5e b2 02 be d6 bf 3e 3d ef 9e 2a bd
       0.037848797 -0.12763354 0.046569668 -0.041655477
0003d0 1e 9b 07 be 64 75 84 3d fe d1 30 be bc dd ec bd
       -0.13242766 0.06467703 -0.17267606 -0.1156573
0003e0 e6 ed 2a 3e 11 3b 16 bb 12 80 68 be a2 7f 95 3d
       0.16692314 -0.002292339 -0.22705105 0.07299735
0003f0 fa 74 36 be 06 59 bf bd c6 59 27 3d 43 f9 0e 3c
       -0.1781806 -0.09343152 0.0408571 0.008726421

model2.2.weight f4 [256, 512]
000000 0f 1f 32 bd d4 c0 3f bd fc 69 11 bc 4a 49 bd bc
       -0.04348665 -0.046814755 -0.008875366 -0.023106236
000010 fc b7 d5 bb 48 dc 45 bd 74 e4 08 3d fe 92 1e bd
       -0.006522177 -0.04830578 0.033420995 -0.0387144
000020 56 60 14 bd ec d6 8b bc ca 4c 55 bd 21 a0 0f bc
       -0.036224686 -0.017070256 -0.052075185 -0.008766205
000030 0e 74 89 bc 51 d9 66 bc 5a e2 b1 bc 71 71 d7 3c
       -0.016778972 -0.014089898 -0.021714378 0.02629921
000040 9f b6 3f 3d ea f2 75 bd be c9 22 bc 02 9e b3 bc
       0.04680502 -0.060046114 -0.009935794 -0.02192593
000050 ff c8 86 3d ca 2c 06 bd ec b5 34 3c 81 ea 38 3d
       0.06581306 -0.032757558 0.011029702 0.045145515
000060 00 9f 24 bd ff 34 71 bd 4a 1a f9 3c d9 96 9c 3c
       -0.040190697 -0.05888843 0.030408043 0.019114899
000070 96 c7 ae bc 0d 4a 60 bd 9e 9c 97 bc e3 17 92 bc
       -0.021335404 -0.05475812 -0.018507298 -0.017833656
000080 be 96 fc 3c a1 09 27 bd da 7a ef 3c 8d f9 5e bb
       0.030833598 -0.040780667 0.029233385 -0.0034023256
000090 38 9f ef 3c 45 7b 0d 3d 66 9a d5 3c b2 d0 78 3c
       0.029250726 0.034541387 0.0260746 0.015186476
0000a0 3c b2 0b bd eb 92 86 3c 60 a4 19 ba 77 65 7f bc
       -0.034105524 0.016427478 -0.00058609806 -0.015588156
0000b0 bd bf 32 bd 09 24 3b bc 29 00 3c bd 23 c1 65 bc
       -0.043639887 -0.011422166 -0.04589859 -0.014023098
0000c0 bf ed 2a bc 05 c3 15 3d 60 d8 68 3c 2a b6 0c 3c
       -0.01043266 0.03656294 0.014211744 0.008588353
0000d0 17 a9 26 3d ac 35 2c ba a1 c5 42 bd 09 00 78 3c
       0.0406886 -0.0006569277 -0.047551755 0.015136727
0000e0 c6 8d 08 3d b3 05 9a 3b 00 25 f3 bc 03 75 1d 3c
       0.03333833 0.0047003864 -0.029680729 0.009610417
0000f0 82 68 13 3d 35 7d f0 bb be 54 19 bd 00 5d 79 bb
       0.03598834 -0.0073391446 -0.037434332 -0.0038049817
000100 a8 16 c6 3c 5b 3e 4f bb dc e4 57 bd d5 1a 02 3c
       0.024180725 -0.003162286 -0.05270849 0.007940968
000110 f6 3a 82 b9 7c 50 56 bd 9c 47 96 39 cc 77 81 3c
       -0.00024839462 -0.05232285 0.00028663583 0.015804194
000120 81 7a df bc 1c 33 e4 bb 8e 37 41 bb 69 75 79 3c
       -0.027280094 -0.0069641005 -0.0029482576 0.015225747
000130 c0 5a 14 3c d2 cc 8f bc 59 74 a1 bc b5 2e 1b bd
       0.00905484 -0.01755372 -0.0197088 -0.03788634
000140 ad ab e8 bc dc 41 7f bd 57 3e 91 3c c2 26 2d 3d
       -0.028402174 -0.062318668 0.017729921 0.04227329
000150 82 be 1e 3d db 94 91 3a 5e f0 3a bd 75 93 1d 3b
       0.0387559 0.0011106984 -0.04563939 0.002404419
000160 53 0c 2e bd a1 5e b7 bc ac 89 0b 3d a9 e7 da 3c
       -0.042492222 -0.02238399 0.03406684 0.026721792
000170 b5 cf cb ba 2f 8b 03 3d 69 0b 10 bd 04 e7 0b bd
       -0.0015549572 0.032115158 -0.03516713 -0.03415586
000180 f4 c9 08 3d 71 c4 d3 3c 31 89 22 3a c1 0f a2 bc
       0.033395723 0.025850506 0.00062002527 -0.019782903
000190 60 b3 1d bd 00 58 36 bd 33 ad 08 bd 26 38 b3 3c
       -0.038501143 -0.044517517 -0.0333683 0.02187736
0001a0 4e 7c ba 3c 13 0e ad bc 60 28 2f bd 46 13 b5 3c
       0.022764351 -0.021124875 -0.042763114 0.022103917
0001b0 aa 31 07 3d 7a fb 8a 3c fa 1a b9 3c 7d 54 56 3b
       0.033006348 0.016965616 0.022595871 0.0032704168
0001c0 4f 48 71 bc 50 17 ac 3c 8f 55 dc bb c6 3d 06 3d
       -0.014726712 0.02100721 -0.0067240666 0.032773755
0001d0 db 85 8e 3c cc af 07 3d 93 2c 64 bd 3b 0a eb ba
       0.017397812 0.033126637 -0.05570657 -0.0017932126
0001e0 0f 0f 4a bc 26 20 9e 3c 71 a5 8a 3c ad ec bc bc
       -0.012332692 0.019302439 0.016924592 -0.023062075
0001f0 5d 8c 20 3d 4c 00 8f bb b9 62 3f bd bd ed 7f 3c
       0.03919636 -0.004364049 -0.04672501 0.015620646
000200 51 55 dd bc 33 ac 11 bb 16 58 c1 3c 8a 19 b2 3b
       -0.027018221 -0.0022227883 0.023601573 0.0054351734
000210 a2 7e 62 3c d9 c9 b0 bc f6 68 00 bd d8 f6 c4 bc
       0.013824137 -0.021580623 -0.0313501 -0.024043486
000220 a4 5d 78 bd 84 82 13 bd a1 82 37 bd 3d a2 0c 3d
       -0.060636178 -0.03601314 -0.04480231 0.03433441
000230 67 11 65 bd fb e9 20 bd 40 a5 30 bb 8c 27 0d bd
       -0.0559248 -0.03928564 -0.0026953965 -0.034461543
000240 13 b1 30 3d 29 ec 49 3c 85 e6 48 bd 49 c5 23 3b
       0.04313762 0.012324371 -0.049047966 0.0024989417
000250 46 95 0d bd 09 1c d8 bb d3 dc 37 3c 09 ef 11 3d
       -0.034566186 -0.006595139 0.011222082 0.035628352
000260 27 3a d5 3c 96 a3 1a 3d ad 5d 13 3c f6 e4 40 bd
       0.026028706 0.037753664 0.008994502 -0.047093354
000270 08 30 27 3c cd 94 d6 bc 6e 83 27 bd 13 60 0d 3c
       0.010204323 -0.026194 -0.040896825 0.008628863
000280 d0 db df 3c b6 cf 58 3c 51 0f 62 bc 3c cc f5 3c
       0.027326494 0.013233116 -0.013797597 0.030004613
000290 ad 36 b4 bc 12 a4 36 bd b7 01 4d 3d f1 f4 b4 bb
       -0.021998728 -0.044590063 0.050050464 -0.0055223634
0002a0 5a d6 4a bd 81 1b a9 bc 1f c0 dc bc 1d c6 02 bd
       -0.049520828 -0.020642998 -0.02694708 -0.031927217
0002b0 a8 a2 dc bc ad 56 c4 ba fc cb 38 3c da d4 f9 3b
       -0.02693303 -0.0014979445 0.011279102 0.007624251
0002c0 6f f4 e4 bb 59 fe b8 3c 99 74 16 bd d7 4e b5 bc
       -0.0069871466 0.02258222 -0.03673229 -0.02213232
0002d0 ef 8e 8f 3a 02 c8 1e bd 55 80 4f bc ee ec 8f bb
       0.0010952632 -0.03876496 -0.012664874 -0.004392258
0002e0 8e 94 c7 bc e1 d1 35 3d 53 56 72 3c 9a 37 21 3d
       -0.024362829 0.04438961 0.014791089 0.039359666
0002f0 b8 3a f2 bb c1 b4 3f bd 7d 97 59 bd e9 d2 1a 3d
       -0.0073922537 -0.04680324 -0.053122986 0.037798796
000300 48 0b 50 bd 1b a3 94 bc a0 61 ad 3b 21 a0 73 3b
       -0.05079201 -0.018144181 0.005291179 0.0037174302
000310 4a 34 c7 3b 83 a2 64 3c 2d 8b 7d 3c 00 2e 77 3c
       0.0060792314 0.013954761 0.015475077 0.015086651
000320 d3 46 d0 3c e1 cd 4e 3c 93 d6 64 bd 27 b4 33 bd
       0.025424397 0.012622328 -0.055868696 -0.04387298
000330 a1 36 d1 3c 6b d7 6b bc 93 a7 da bc 45 45 1a bd
       0.025538744 -0.014394621 -0.026691234 -0.037663717
000340 bf 7e d8 3c 38 54 55 bc a2 b2 8d bc 96 43 96 3c
       0.026427625 -0.013020568 -0.017297093 0.018342774
000350 08 6e ac 3c bf 86 9a bc de 72 43 bc 10 cb 96 bc
       0.02104856 -0.01886308 -0.011929242 -0.018407375
000360 c1 4c c9 3c 3e 4b ed bc 74 e2 74 bd 63 04 c5 3c
       0.024572732 -0.028966542 -0.059786275 0.024049943
000370 da b9 69 ba 34 70 5b b8 25 96 b1 bc d5 35 b0 3c
       -0.00089159387 -5.2318166e-05 -0.02167804 0.021510044
000380 95 23 1b bb dc 6b 40 bc 2e 32 27 3c bc 44 c1 3c
       -0.0023672332 -0.011744466 0.010204835 0.023592345
000390 d4 88 04 3c d0 63 34 bd 21 d0 c9 bc c6 0e 95 bc
       0.008089263 -0.0440405 -0.024635376 -0.018195521
0003a0 1e 73 36 3a 40 59 2c bd 0b 63 0e 3c 57 7d f9 bc
       0.0006959903 -0.042077303 0.008690606 -0.030455275
0003b0 2d f7 16 3d 77 12 de bc 17 9d 8c bc 1d 75 42 bd
       0.03685682 -0.027108414 -0.01716475 -0.04747497
0003c0 1c 85 e9 bc 53 b1 11 3b cb 0a a9 3c be 3b ab 3b
       -0.028505854 0.0022230938 0.02063503 0.0052256277
0003d0 ad 5c ba bb aa a7 02 3c 97 df 82 3c f0 b1 99 3c
       -0.0056873173 0.007974545 0.015975757 0.018761605
0003e0 d2 f3 54 bd 23 95 3a bc 01 b3 2a 3d cf 57 28 bc
       -0.051990338 -0.011388096 0.041674618 -0.010274841
0003f0 7a 34 56 3a 56 e7 2a bd 7d ce 53 bd 4c 3b d3 3b
       0.0008171272 -0.041724525 -0.051710594 0.0064462777

model2.2.bias f4 [256]
000000 27 c5 0c 3c 42 75 43 bc 7b c2 23 bd 73 b1 8b bc
       0.008591927 -0.011929812 -0.039980393 -0.017052388
000010 3d aa 06 3d 70 86 44 bd 31 93 1d bc 06 87 a1 bc
       0.032877196 -0.047979772 -0.009617613 -0.019717705
000020 98 1d 13 bc c8 97 8b 3c ef 83 4d bd cc e1 68 bd
       -0.008979224 0.017040148 -0.05017465 -0.05685596
000030 e9 a7 5f bc 12 9f 49 bd 16 f3 75 bd 62 c5 d5 bc
       -0.013650873 -0.049223967 -0.060046278 -0.026095096
000040 8e d4 c0 3b 9b e0 a9 bc f6 93 03 bb e9 9d 23 bd
       0.0058847135 -0.020736983 -0.0020077205 -0.039945517
000050 a4 d5 23 3c 09 55 69 3a c0 f0 90 3d d4 3d 47 bc
       0.009999666 0.0008900916 0.070771694 -0.012160737
000060 d3 90 50 bb 86 68 17 3b df c8 b0 3c d2 8d 91 bc
       -0.0031824603 0.0023103072 0.021580158 -0.01776782
000070 5d 9f 80 bd fa f7 2f bb 8c 1c 50 bd 9b 3f a9 3c
       -0.06280396 -0.0026850686 -0.050808474 0.020660212
000080 41 a4 53 bd c2 e1 95 bb 11 f8 59 3d 28 b3 b8 3c
       -0.051670317 -0.0045740316 0.05321509 0.022546366
000090 fa d5 e7 bb 1b 2f 0f bd 93 ac 00 3d f8 e3 8d 3c
       -0.0070750685 -0.034957033 0.03141458 0.017320618
0000a0 3e 6d 5e bd f5 0b 89 3a b1 40 5f 3d 92 d7 35 bd
       -0.0543034 0.0010455834 0.054505054 -0.044395037
0000b0 61 90 bb bc f6 94 42 bd 18 a8 c3 bc 6d 2b 8d 3c
       -0.022895994 -0.04750534 -0.023883864 0.017232621
0000c0 b3 74 98 3c 49 9a f3 39 61 97 0e 3d 17 2f 56 bd
       0.018610334 0.00046463523 0.034812335 -0.052291002
0000d0 5b 97 84 bd ee 3b 4d 3d ec fa f0 3c ee 33 9f 3b
       -0.06474181 0.05010598 0.029416524 0.0048584854
0000e0 33 ac 91 3c 34 a1 09 bc 6a e0 25 bd 45 aa 5e 3c
       0.017782306 -0.00840025 -0.04049722 0.0135904
0000f0 cd 50 12 3d 5b 07 35 3c 2a 53 d2 bc e3 b9 74 bd
       0.03572159 0.011049117 -0.025674421 -0.059747588
000100 78 b4 d6 3c b3 03 ec bc 5d 3d 11 bd 7e c3 12 bd
       0.026209101 -0.028810358 -0.03545891 -0.035830967
000110 43 db d0 3c 3d 14 af bd d0 ff a8 bc cf 06 a5 3d
       0.025495177 -0.08548782 -0.020629793 0.08057939
000120 87 97 df bc bb 3d 79 3c bd 0e ea bb 70 16 b6 bc
       -0.027293934 0.015212472 -0.00714287 -0.022227496
000130 07 b9 3e bb 68 1a 58 3c e8 9b 33 bc 17 77 f4 bc
       -0.0029101984 0.0131898895 -0.010962464 -0.029841943
000140 c5 45 04 bd b0 7c 03 3b 03 fd b4 3c a5 67 cf 3c
       -0.0322931 0.0020063333 0.022093302 0.025317976
000150 13 51 cf 3c c4 71 5f bd 54 3a 86 bc bf eb a3 bc
       0.025307214 -0.054551855 -0.016385235 -0.020009873
000160 95 69 f5 bb 15 f3 8a bd 4c 9e 47 bc 59 e6 d6 bc
       -0.007489393 -0.067846455 -0.012183737 -0.026232885
000170 51 36 34 3d 63 b1 3d bd 6b 05 61 bd 3e 4b b2 3c
       0.043997113 -0.046311747 -0.054936808 0.021764394
000180 d6 f8 86 3d ee cb e8 bc 72 82 ea 3b 23 7c 31 bd
       0.065904304 -0.028417554 0.0071566636 -0.043331277
000190 42 31 8d 3d d9 63 b9 bc b7 e3 5e 3d 5d e0 65 bd
       0.06894161 -0.022630619 0.054416385 -0.056122173
0001a0 5f 77 df 3b 61 0e 63 bd 2b 63 97 bc 54 c3 0e 3d
       0.00681965 -0.055433635 -0.018479904 0.03485425
0001b0 0c 92 9f 3c c1 15 1f bc c8 08 d0 bb 01 90 a8 3c
       0.01947882 -0.009709776 -0.006348703 0.020576479
0001c0 ee 29 2a bd 21 15 62 bc 21 6a 91 3b 9c 1a 11 bd
       -0.041543894 -0.013798983 0.0044377004 -0.035425767
0001d0 a6 53 99 bc 16 b6 10 3c 68 6c 04 bd a0 de 0f bd
       -0.018716644 0.008832475 -0.032329947 -0.03512442
0001e0 d2 76 31 3c 06 df d5 3c ae d7 91 bc 7d 8c 19 bb
       0.010831552 0.026107322 -0.01780304 -0.0023429685
0001f0 d0 98 cc 3c 5c 08 09 bd 94 25 5f bd b3 22 cf bc
       0.02497521 -0.033455238 -0.054479197 -0.0252851
000200 8d 77 11 bd 01 ad 63 3b 40 cb de 3b 43 23 6d bd
       -0.035514403 0.003474057 0.0067991316 -0.057894956
000210 bf ee 02 bd 26 7a 0f 3c 1f 3f 3a 3c b0 d8 16 3d
       -0.031965967 0.00875715 0.011367588 0.036827743
000220 c0 6f 81 bd 8e 51 00 bd 54 92 cf bc c6 7f a3 3a
       -0.06320143 -0.031327777 -0.02533833 0.0012473993
000230 0c d1 ad 3c b0 04 0d bc 8b ba 8a 3c b4 60 85 3d
       0.021217845 -0.008607075 0.016934654 0.06512585
000240 12 fc 3b bd 24 96 d7 bc 96 8d 5a bd 9d df 3a bd
       -0.04589469 -0.02631671 -0.053357683 -0.04562341
000250 af 7d e8 bc cd b8 87 3c 51 c1 ea 3c c2 48 fe bb
       -0.028380243 0.016567612 0.028656634 -0.0077601383
000260 a1 da d5 bc ca 30 1f 3d d3 c2 8d bd 7d 78 17 bd
       -0.026105227 0.03886489 -0.069219254 -0.03698014
000270 9a 9d 87 bd 60 e5 82 3c 76 73 65 3c c8 b1 9d bc
       -0.06621857 0.015978515 0.014004579 -0.019249812
000280 a8 e4 07 3b c8 7f b8 b9 80 df c7 bc b9 a0 b2 bc
       0.0020735655 -0.0003519042 -0.024398565 -0.021805154
000290 3e b6 d8 bc 7f ef 02 3a 3c 15 63 bc 3e ce 4f bd
       -0.026454087 0.0004994794 -0.013860043 -0.050733797
0002a0 f7 e9 ec bb 94 cf ed bc bb 0f 31 bd f7 f1 d7 3b
       -0.007230039 -0.029029645 -0.043227892 0.0065901238
0002b0 6c 34 23 bc 36 58 8c 3c be 3c 56 3d 8b 09 17 bd
       -0.009961229 0.017131906 0.052304022 -0.036874335
0002c0 58 94 ee bb 35 85 20 bb e3 40 23 bd 4a 25 30 bd
       -0.0072808675 -0.002449346 -0.039856803 -0.04300431
0002d0 d1 30 83 bd 02 ba 6c bd 2a 6e 32 bd 12 d9 4b 3c
       -0.06405795 -0.05779458 -0.043562092 0.01244189
0002e0 22 2f 77 3b 6a ba 08 bd c9 ec cf 3b e0 07 10 ba
       0.0037717302 -0.033380903 0.0063453657 -0.00054943375
0002f0 52 d1 08 3c d4 37 0f bd 8a 85 ed 3c ef 32 76 bd
       0.008350687 -0.03496535 0.02899434 -0.060107168
000300 b3 54 19 bc f0 71 08 bd f8 ee 34 bd 34 ad c3 bc
       -0.009358573 -0.033311784 -0.04417321 -0.0238863
000310 e9 db 29 bd 07 b9 2e 3d ec 9f 95 3b f0 0b b6 3c
       -0.04146949 0.042656925 0.0045661833 0.02222249
000320 ef fa 53 bc 5b f0 35 bd 0d ee b6 3c 78 53 41 3d
       -0.012938245 -0.044418674 0.022330308 0.047198743
000330 b1 11 ec 3b a4 99 df bc 76 e2 c9 3c e3 30 80 bd
       0.0072042574 -0.027294941 0.024644118 -0.062593244
000340 d4 77 e0 3c fb e5 1b bd a4 65 ec bb 5b 76 b4 3c
       0.027400889 -0.038061123 -0.007214265 0.022029093
000350 8a 13 65 bc 98 29 07 3d 47 8b a0 bc 1f c8 11 bc
       -0.013981709 0.03299865 -0.019597663 -0.00889781
000360 bf da 71 bd d2 e6 36 bd 76 6e d9 bc 69 22 17 bd
       -0.059046503 -0.04465372 -0.02654193 -0.03689805
000370 73 fc 2c 3d ce 85 68 bd 03 a7 2f bc 4b b1 a9 bc
       0.04223294 -0.05676823 -0.010720971 -0.020714423
000380 c0 f2 e9 3c f4 65 8c bd 64 26 ec bc 3d cf cd 3c
       0.028558135 -0.068553835 -0.0288269 0.025123233
000390 2b 20 a4 3c 3a 80 2e bd 2c b0 41 bd a1 47 ca 3b
       0.02003487 -0.042602755 -0.04728715 0.0061730896
0003a0 cb 2b d8 3c df 30 10 bd 30 f7 d6 3c cb dd 48 bd
       0.02638807 -0.035202857 0.026240915 -0.049039643
0003b0 17 2e 2c 3c 69 2b 87 3c 58 04 8d 3c 6f d6 87 bc
       0.010509036 0.016500192 0.017213985 -0.016581742
0003c0 fe be f6 3c b2 78 1a 3c 24 25 05 3d a3 b6 f7 bc
       0.030120369 0.00942819 0.032506123 -0.030238455
0003d0 e4 5a cd bb 8c bd ad 3c 6b 83 25 bd b5 5c 98 bc
       -0.0062669385 0.021208547 -0.040408533 -0.018598894
0003e0 40 a3 48 3c 29 9e be bc 76 ba 7c 3c 2a da 88 3b
       0.012245953 -0.023268776 0.015425315 0.004176398
0003f0 04 b9 35 bd 8f e7 10 bd b3 0a 62 3c 05 c4 79 3c
       -0.044365898 -0.03537708 0.013796496 0.015244489

model2.4.weight f4 [64, 256]
000000 0f ed 63 3d f7 b4 60 bd 6e 41 b2 bc 30 e2 9e bb
       0.055646 -0.05486008 -0.021759715 -0.004848741
000010 6b 4c c1 3c d2 d8 85 bd 80 ad be bb b5 42 d7 bc
       0.02359601 -0.06535496 -0.0058190227 -0.026276926
000020 80 47 e6 bd 8d 26 1e 3d 9d af 54 bd 12 78 3e 3d
       -0.11244106 0.038610984 -0.05192529 0.046501227
000030 3c a3 c9 3c 08 57 a9 3b 23 e2 df 3c b5 2e 55 bc
       0.024613969 0.0051678456 0.02732951 -0.013011624
000040 64 98 30 bd 9d 0a 53 3d 32 55 a0 3c c5 86 51 3d
       -0.04311408 0.051523793 0.019571874 0.051153917
000050 c6 15 fb 3c 9e 1f 0d 3c 63 8a f0 bc 53 77 85 bd
       0.03065003 0.008613495 -0.029362863 -0.065169
000060 69 4a 91 bc f1 ad cf bc 58 90 54 bd 13 69 e8 bc
       -0.017735677 -0.025351496 -0.05189547 -0.028370416
000070 57 f6 9d bd 69 92 59 bd 66 ef 3d bd 6f 52 db bc
       -0.07713001 -0.053118143 -0.046370886 -0.026772706
000080 02 da cf bb 88 d1 0e bd a8 8b 01 3c c7 09 25 3d
       -0.006343127 -0.034867793 0.007906832 0.040292528
000090 92 6d 7c bd f7 50 ca bc 41 63 7d bd c1 bf f5 bc
       -0.061627932 -0.02469681 -0.061862234 -0.029998662
0000a0 0b a3 12 bd 96 a4 7f 3d 29 31 95 bb 62 e5 0e 3c
       -0.03580002 0.06241282 -0.0045529795 0.008721681
0000b0 50 09 2a bd 97 d9 b6 3b 8a f0 51 bd e1 2b 13 3d
       -0.041512787 0.005580138 -0.051254787 0.035930518
0000c0 39 ca dc 3b 6e ee d7 bb f3 66 59 b9 37 b0 f5 3b
       0.006737974 -0.0065897023 -0.00020733084 0.007497813
0000d0 1d e6 c7 bb 71 a2 00 bd 04 93 35 bc 75 8f b7 3c
       -0.0061004297 -0.031404916 -0.011082415 0.022407273
0000e0 3d c8 09 3d a4 1a b8 3c f8 d6 22 3c d3 b7 f6 bc
       0.033638228 0.02247364 0.009938948 -0.030116951
0000f0 4f 5f 38 3d 6a 3c 54 3d 41 3b f5 bc c0 91 a7 bd
       0.04501277 0.051815428 -0.029935481 -0.081820965
000100 4f 6b 47 3c fa a8 91 bc 3b a9 bc bc 50 cc a9 bd
       0.01217158 -0.01778077 -0.023029914 -0.08290923
000110 9e 5b 48 bd 18 d3 9b bd f4 ef a2 3a 81 78 d7 bb
       -0.048915498 -0.07608622 0.0012431131 -0.0065756445
000120 84 3b a8 3c bd 91 7b bc 5c f0 b9 3c 20 96 8f bc
       0.020536192 -0.015354571 0.02269762 -0.01752764
000130 4f e5 27 bd 23 6d 21 3c 05 91 57 3d 48 6d 22 3d
       -0.04099017 0.00985268 0.052628536 0.039655
000140 79 9b 0a 3d 54 b2 83 bd d0 96 90 bd e9 9e 1d bd
       0.033839677 -0.06430498 -0.07060015 -0.038481627
000150 20 1e 0d bd 6e 96 5c 3d 6e f8 c1 3c f1 be 70 bd
       -0.034452558 0.0538544 0.02367803 -0.058775846
000160 3a 80 7b bb 82 c4 7d 3c 71 78 a4 bd 62 f9 41 3b
       -0.003837599 0.015488746 -0.08030785 0.0029598107
000170 5c bd 5c bc a3 d7 a2 bc d5 01 eb 3b 70 f1 4e bd
       -0.013472881 -0.019878214 0.0071718493 -0.05052322
000180 02 09 26 bc db 38 78 bd 9e 89 dc bc 53 26 13 3d
       -0.010133984 -0.060601097 -0.02692109 0.03592522
000190 cd 4e 2e bd 74 1b af bb 8c 61 cf bb 6e ab c2 bb
       -0.04255562 -0.005343849 -0.006328767 -0.005940846
0001a0 06 fb 58 bc 38 fa a5 bd 3c e5 9b 3b 34 dd 14 b9
       -0.013243442 -0.08104366 0.0047575515 -0.00014196784
0001b0 4b 84 6f bd 24 fa 5d bd f1 fb 6f bc 71 9c bd 3b
       -0.058475774 -0.05419363 -0.01464747 0.0057864715
0001c0 09 e8 1b 3d 81 70 e2 bc 5d 96 90 bd e9 87 16 3d
       0.038063083 -0.027641537 -0.070599295 0.036750708
0001d0 37 8d 21 bc 35 50 57 bd 39 0d 1c 3d 48 23 22 bc
       -0.009860328 -0.052566726 0.038098548 -0.009896107
0001e0 2e 3c fd 3c d5 86 58 bc 94 32 e1 3c f7 0e 86 bb
       0.030912485 -0.01321574 0.027489938 -0.0040911394
0001f0 a7 25 b6 bc a9 d2 7f 3c f6 ab 9c 3c b1 f4 5d 3d
       -0.02223475 0.01561419 0.019124966 0.054188434
000200 7c 96 5f bc 6e 29 61 3d a4 46 cb bc 13 cb 38 3c
       -0.013646718 0.05497115 -0.024813958 0.011278885
000210 00 c5 25 3d cc 68 13 bd 13 67 6a bd c2 2b 09 3c
       0.040471077 -0.035988614 -0.057227205 0.008372249
000220 5c 38 46 bd 4c 54 56 bd 16 37 46 bb 9b b3 43 bd
       -0.048393592 -0.052326486 -0.0030245236 -0.047778707
000230 00 3c 55 bd 0b 0c 0d 3d b3 2e e6 3c 05 48 91 bb
       -0.052059174 0.034435313 0.02809844 -0.004433634
000240 cf e9 5a 3d a1 34 71 3b 99 62 f9 bc 38 68 38 bd
       0.053445634 0.003680505 -0.030442523 -0.045021266
000250 41 35 27 3d 5a f1 73 3c fa a5 8d bd 6e 2e 0a bd
       0.04082227 0.014889086 -0.06916423 -0.033735685
000260 ce 67 de bc 5c 1f 21 3d 5a 78 df 3a 43 21 04 bd
       -0.027149107 0.039336547 0.0017049417 -0.032258283
000270 62 b2 16 3c ca 4d 33 bd 43 1a 35 3c 58 e2 72 3d
       0.009197803 -0.043775357 0.011053625 0.05929789
000280 0a 7d 1e 3d 59 82 93 bd 0f 0b 12 bc 40 6c 45 bd
       0.038693465 -0.07202596 -0.008913769 -0.04819894
000290 2c 25 d6 3c 5c 87 95 bd cc e4 12 3d 48 a2 d2 bc
       0.026140772 -0.073012084 0.03586273 -0.025712147
0002a0 5a 77 d1 ba a0 b7 1a bc 29 1b 76 bc 49 27 d7 3c
       -0.0015981004 -0.009443194 -0.015021124 0.02626385
0002b0 ed 83 9c bb 87 c1 71 bd 0d 65 0d bc ab 6f cb bd
       -0.004776469 -0.059022453 -0.008630049 -0.09933408
0002c0 80 c7 60 bd 01 69 f6 bc 83 86 9f bc 7c 88 50 3d
       -0.054877758 -0.030079367 -0.01947332 0.05091141
0002d0 b7 cf 0c 3d 12 1b 79 3d 77 00 2c bd 55 b7 53 3d
       0.03437778 0.060816832 -0.04199263 0.05168851
0002e0 a1 4c 58 3d 78 01 b8 bc 9d 5a 19 3d 0f ee 23 3d
       0.052807454 -0.022461638 0.03743993 0.040021952
0002f0 10 67 a4 bd e5 39 d4 3c 00 57 9d bc 81 d3 7a 3c
       -0.0802747 0.025906513 -0.019206524 0.0153092155
000300 63 28 6e 3c 22 56 59 3d 54 82 85 3c 50 dd ee bc
       0.014535996 0.05306066 0.016297497 -0.029158264
000310 ea 2b ce 3c f0 93 11 bd 05 b6 96 bd 58 21 39 bd
       0.025167424 -0.035541475 -0.07358936 -0.045197815
000320 74 9f a3 bc 64 bb 88 bd 38 86 2e 3d 55 82 8a 3b
       -0.019973494 -0.06676367 0.04260847 0.0042269626
000330 d0 ce 86 3c 08 c6 34 bd 45 f0 d5 3c 42 4a 1a 3d
       0.016456038 -0.04413417 0.026115546 0.037668474
000340 fd 93 2d 3c 7a 79 7c bd db 37 dd 3b 15 63 80 bd
       0.010594365 -0.061639287 0.0067510433 -0.062688984
000350 3f 2d 3a 3d c5 99 89 bc 0a 94 ea 3c 34 75 95 3c
       0.045453306 -0.016796956 0.028635044 0.018244363
000360 e3 f0 33 3d a2 c6 80 bd 1b de 4b 3c 7a 68 53 bd
       0.0439309 -0.06287886 0.012443091 -0.05161331
000370 ff 7d 0a 3d 65 e5 04 be 3d 75 1e 3d f6 18 fa bb
       0.033811565 -0.12978132 0.038686026 -0.00763237
000380 1e 16 67 bc 5a 82 8b bd 0e b3 ed bc 7e 73 bf 3c
       -0.014104394 -0.06811972 -0.029016044 0.0233705
000390 91 e7 22 bd a7 54 65 bc d6 0f 26 bd b3 8f ba bb
       -0.03977162 -0.0139972335 -0.040542446 -0.0056934
0003a0 31 fb e2 bc 8e ae c9 3b 83 57 65 bc eb 70 7b bd
       -0.027707668 0.0061548417 -0.013997915 -0.061386984
0003b0 06 e2 14 bd 06 b6 03 bc de 79 89 bd 0e c3 e2 3a
       -0.036348365 -0.008039003 -0.067126974 0.0017300562
0003c0 46 3e 6f bd ed e9 71 bd 1d bf 85 bd c0 9d 51 bd
       -0.058408998 -0.05906098 -0.065305926 -0.051175833
0003d0 8f 78 6f bd f7 d4 ac bc 00 d6 ee bb 89 bd 70 3d
       -0.058464583 -0.021097643 -0.0072886944 0.058774505
0003e0 5d 6d b3 bd 96 d9 1b 3d 9b 80 5e 3d 33 35 88 bc
       -0.08761094 0.038049303 0.054321866 -0.01662693
0003f0 09 27 bb bd c6 58 83 bd 5d a0 1a bd 16 14 bc 39
       -0.09138305 -0.064134166 -0.03775059 0.0003587312

model2.4.bias f4 [64]
000000 52 53 0b 3d c9 e1 eb 3c 81 be 33 bd ef 11 06 bc
       0.034015007 0.028794186 -0.04388285 -0.008182987
000010 f7 58 10 3d 70 ff 59 3c d1 e5 d4 3c f3 aa 59 bd
       0.035241093 0.01330553 0.025988491 -0.053141546
000020 d4 09 76 bb e3 93 02 3d 23 b5 44 3b d0 a2 88 bd
       -0.003754248 0.031879317 0.0030015192 -0.06671679
000030 ae 87 5f bd 74 7a 96 bb 52 3e 92 bd 7a e9 98 bc
       -0.054572754 -0.0045922343 -0.07140793 -0.018666018
000040 e0 56 41 3c fb 90 64 3b 6d b3 28 ba 9d 1b 91 bd
       0.011800498 0.0034876454 -0.0006435428 -0.07085345
000050 65 12 a2 bc 36 12 8a 3b f8 71 71 3d 2a ce e3 bc
       -0.019784162 0.0042135967 0.05894658 -0.027808268
000060 00 8c 0b bd 21 ac 69 bd 61 73 97 bd ef 40 4d 3d
       -0.03406906 -0.05704892 -0.07395054 0.050110754
000070 75 4e 1c bd f2 64 27 bd 9b 0d ec ba b4 b4 00 3c
       -0.03816076 -0.040867753 -0.0018009426 0.007855583
000080 b3 05 52 3d 70 fc a2 ba 51 d1 08 bd c1 e9 91 bd
       0.051274966 -0.0012434851 -0.033402745 -0.07124663
000090 e4 86 95 3d 24 dd 48 bd f3 24 6e 3c 9e 32 0a 3c
       0.07301119 -0.04903902 0.014535177 0.00843492
0000a0 3d 53 37 3c 40 97 82 bd 4f 7c 43 3d 38 2e ac bd
       0.011189279 -0.06376505 0.04772597 -0.08407253
0000b0 11 08 82 3d 6b a3 89 bd ec 13 0b bc b3 33 00 bd
       0.06349195 -0.06720623 -0.008488636 -0.031299304
0000c0 42 ac 16 bc 03 97 4b bd 3f b8 19 3d 55 26 63 3d
       -0.009196343 -0.049704563 0.037529226 0.05545648
0000d0 d3 97 4f bc e7 f7 8e bd 90 00 fe 3b df 7f 4d bc
       -0.012670475 -0.06980877 0.007751532 -0.012542694
0000e0 1a 77 ba 3c 5d e5 46 bd f1 fe 05 bd 94 ae 25 bd
       0.02276187 -0.04855858 -0.032713834 -0.040449694
0000f0 a6 b2 fb 3c d9 31 82 bc 5d 31 89 3c 71 75 ea 3d
       0.030724835 -0.01589291 0.016747171 0.114481814

model2.6.weight f4 [4, 64]
000000 9c bf fd bd 3c 76 8b 3c 75 7f b8 bd 71 10 94 3d
       -0.12390062 0.017024152 -0.090086855 0.072296984
000010 b6 45 93 3d 84 fb c0 3d b9 14 98 bd e6 57 8b 3d
       0.07191031 0.09422973 -0.074258275 0.06803875
000020 1b dc fc bd 91 a8 8c 3d 7a e0 81 bd db de 27 3c
       -0.12346669 0.06868089 -0.06341644 0.010246004
000030 b0 57 c9 bd af 7c 07 3e bc bb fb 3d 3d 75 e6 3d
       -0.09831178 0.13231157 0.12291667 0.1125283
000040 80 8a a8 bd 38 ae 31 bc 8a 4b 53 3d 39 5e b5 3c
       -0.08229542 -0.01084476 0.05158571 0.022139655
000050 0d db b7 3d d4 5e bf bc 2a d8 66 bb 38 8f ab 3c
       0.089773275 -0.023360647 -0.0035224059 0.020942315
000060 da c3 7d bd 49 65 d9 3d dd 91 39 3c 32 e8 54 bd
       -0.061954357 0.10615022 0.01132628 -0.05197925
000070 e4 a2 20 3d 51 69 13 bd 1d 99 15 be a7 1c ae bd
       0.039217845 -0.03598911 -0.1460919 -0.08501559
000080 b5 72 b3 bd f8 e3 90 bc ba c7 7b 3d 69 61 d5 bd
       -0.08762113 -0.017686829 0.06146977 -0.1041897
000090 8b 6b 59 bd 18 41 2f 3c 76 6e 16 3d 3a 4f dd bd
       -0.053081077 0.010696672 0.036726438 -0.10806127
0000a0 0e d0 95 3d d6 d4 09 bb 62 7d e1 bc e4 4d 6e 3c
       0.07315074 -0.00210314 -0.027525607 0.014544938
0000b0 76 76 12 3e 12 d7 49 3c f2 98 95 3d ce f2 2b 3e
       0.14303002 0.012319343 0.07304563 0.16791841
0000c0 89 3f ed bc b6 ab 95 3d 13 11 00 3e 85 a8 ef b8
       -0.02896096 0.07308142 0.12506513 -0.00011427797
0000d0 a3 6f e7 3d e5 c7 7f bd d6 8b d4 bc 38 27 5e 3a
       0.1130059 -0.062446494 -0.025945585 0.0008474472
0000e0 92 a8 e9 bc b0 24 a3 bc 30 5c 0f bd de ec b1 bd
       -0.028522763 -0.019914955 -0.035000026 -0.08687757
0000f0 45 c2 1e 3e 0d 24 2a bd d3 88 7e 3d 0b 20 f4 bb
       0.15503795 -0.041538287 0.062142204 -0.007450109
000100 7f f8 79 bd f7 06 b1 3d c6 ab c7 bd 8e a5 b4 bd
       -0.061028 0.086439066 -0.0974956 -0.088206396
000110 5e e7 62 bd e3 db ea 3d 68 f9 7e 3b 07 51 3e 3e
       -0.05539643 0.11467721 0.0038905982 0.18585597
000120 0f ef b0 3d 7d dd 63 bd 02 47 97 3d 56 82 df bd
       0.08639347 -0.05563115 0.073865905 -0.109135315
000130 5e 32 c3 3d 68 e9 f7 3a 49 d0 8b bd 20 3f a0 bd
       0.09531091 0.0018914165 -0.068268366 -0.0782454
000140 f4 84 1f 3d 02 9b e5 bd 54 41 ad bb 0d 6e d3 3d
       0.038945153 -0.11211206 -0.0052873287 0.10323725
000150 f5 aa 64 3b f1 bf 20 bd 10 b1 2d be a4 f9 5d bd
       0.0034891937 -0.03924555 -0.16962075 -0.054193154
000160 af 33 e9 bc 6a b0 9f 3d 16 f1 51 3e c9 96 02 be
       -0.028467027 0.0779732 0.20502123 -0.12752832
000170 39 80 00 be 50 2a 78 3d 94 89 35 bd 1b 17 5f 3d
       -0.12548913 0.060587227 -0.044320658 0.054465394
000180 8b 11 64 bd c0 6b d8 3d c5 3e 92 bd 04 e5 c2 3d
       -0.055680793 0.10567427 -0.071408786 0.095163375
000190 35 b7 e3 bd bd 72 d8 3d d4 9c dc bd 75 90 db 3b
       -0.11118928 0.105687596 -0.107721 0.00670057
0001a0 98 82 17 be 14 ba a7 bd bc 7c 18 be b8 9e ae 3c
       -0.14795911 -0.081897885 -0.14891332 0.021315917
0001b0 35 32 84 bd c2 6a df 3d e1 29 6a bd e8 ca 61 bd
       -0.06454889 0.10909034 -0.057168845 -0.055125147
0001c0 0f d1 b8 bd dd e4 c2 3d 87 03 cc bc 7d 4d 1c 3c
       -0.0902425 0.095163085 -0.024904026 0.009539959
0001d0 f0 89 bb bd 17 fd 2c 3e fe 57 20 be e1 7f f0 3c
       -0.09157169 0.16893421 -0.15658566 0.029357852
0001e0 02 8f aa bd 3d 21 2c 3c ba 25 75 bb 18 23 6a 3d
       -0.08328058 0.0105059715 -0.003740652 0.057162374
0001f0 b1 15 1f 3e 04 43 ae bd 85 39 8c bd 7c 0f 57 be
       0.15535618 -0.08508876 -0.068469085 -0.21002
000200 dc 3b d8 bd 7f c0 83 3d 60 97 b3 bd cc e1 78 3d
       -0.10558292 0.064332 -0.08769107 0.06076221
000210 61 94 97 bc 93 76 59 3d e3 63 17 be 68 46 8d 3d
       -0.01850337 0.053091597 -0.14784198 0.068981946
000220 96 79 85 bd 6d 28 ae 3d c1 79 c4 3d 0d 4d e7 bc
       -0.06517331 0.08503804 0.09593535 -0.028234983
000230 de 53 e3 3d d9 8f 87 3d ed 12 af 3d d4 6a db bd
       0.11099981 0.06619234 0.08548532 -0.10713735
000240 bd 78 e0 bc 37 f2 56 bd 40 2e b4 bd 88 df 8c bd
       -0.027401322 -0.052477088 -0.08797884 -0.06878573
000250 4f 38 5c bd 27 d7 09 3e 38 cc 64 3d 90 ee c2 bd
       -0.053764638 0.1346098 0.05585882 -0.095181584
000260 4d e0 d3 bd 30 00 ce 3d 6f 46 06 3d d5 20 c3 3c
       -0.10345516 0.100586295 0.032782014 0.023819366
000270 9c 64 3b bc 83 68 98 3d 78 7d 82 3d 37 9c c7 3c
       -0.011437561 0.07441809 0.063715875 0.024366481
000280 3f e0 f3 bd 8b a5 56 3d 3e d2 ea bd d6 90 35 3d
       -0.11908006 0.052403968 -0.11465882 0.04432758
000290 8f d3 17 3e 3a 8d a2 bb 69 b1 02 3e e9 2c f1 3c
       0.14826797 -0.004960683 0.12762989 0.02944036
0002a0 0c 56 04 be 85 fd 25 3e ee 43 2a bd 8d 63 5d 3c
       -0.1292345 0.16209991 -0.04156869 0.013512504
0002b0 8d 04 1c 3b 6c 68 4b bd a8 61 74 bc 24 29 e4 3c
       0.0023806423 -0.04966013 -0.014915861 0.027851649
0002c0 2a 7d fc 3d 26 4c a7 bd 0d e2 02 3e 84 37 6c 3d
       0.12328561 -0.08168821 0.12781544 0.05767013
0002d0 8e 5b 14 3d 6a 14 c8 3d 4b e3 26 3e 69 7d 03 be
       0.036220126 0.09769519 0.16297643 -0.12840809
0002e0 23 c3 b8 bd ed ae 6b bd fc 13 eb bc 81 2b 4a 3c
       -0.090215944 -0.05753987 -0.028696053 0.012339474
0002f0 7b a2 1f bd 32 86 83 bc 96 da 68 3c 2a 62 ed bb
       -0.038973313 -0.0160552 0.014212271 -0.007244368
000300 29 d7 f1 3d d5 be c1 3d d3 71 d6 bd c2 c4 e9 3d
       0.11808617 0.094602264 -0.10470929 0.11414482
000310 3e 3e 15 3e aa 7c ee 3c f0 a0 e7 bc 62 dd 2e bd
       0.14574525 0.029112179 -0.028274983 -0.042691596
000320 a6 08 fc bd 7c 17 2b 3d b2 4a cd 3a 46 7a f3 3d
       -0.12306337 0.041770443 0.001566252 0.11888556
000330 38 86 40 3e e4 6e dc 3d bc 5a e1 3d 64 e7 6c 3d
       0.188012 0.10763338 0.11003634 0.05783786
000340 49 69 88 3d 96 6f 2b bd ff 9e d0 bd c2 6b f1 3d
       0.066607065 -0.041854464 -0.10186576 0.11788131
000350 8e 1e 7e bd 3d fd f7 3d d5 c4 68 bb 22 bf 28 bd
       -0.062040858 0.12108848 -0.0035517712 -0.041197903
000360 0b 0d 08 bd 09 11 8a bd d0 74 21 3d 08 ef d4 bc
       -0.033215564 -0.067415304 0.03941804 -0.025992885
000370 02 6b ca 3d 3c b4 39 3a 23 e8 0b 3e f0 6d f5 3d
       0.09883691 0.0007084047 0.13662772 0.119838595
000380 96 ef 9f bb b6 d6 1f be 8a ba 03 bc fc 08 bb 3d
       -0.004880856 -0.1560925 -0.00804008 0.09132573
000390 6a 9b 0d 3e 75 68 bb 3d d3 dc dd 3d 70 dc 91 bd
       0.13828817 0.09150783 0.108331345 -0.07122123
0003a0 85 fa 88 3c 61 aa b4 3b b4 b1 33 bd 86 36 08 3e
       0.01672102 0.005513475 -0.043870643 0.13302049
0003b0 48 bc 50 3e 54 ee 8b 3c 58 6e 04 bd a3 46 b0 3d
       0.20384324 0.017081417 -0.032331795 0.08607223
0003c0 46 5d b5 bd cd 76 25 3b ba 93 8b 3d 0e 93 08 3e
       -0.08855681 0.0025247813 0.06815286 0.13337347
0003d0 20 1b c2 bd 0a 1a eb bd 71 a0 24 be ba 43 0c bd
       -0.0947783 -0.11479576 -0.16076829 -0.034244277
0003e0 6d 42 88 3b ec 65 6f bc 99 6b e1 bb df c6 04 bd
       0.004158309 -0.014611702 -0.0068792817 -0.03241622
0003f0 36 f0 a1 bd fb d2 74 bd 8a 04 ae bd 1a d4 d2 bc
       -0.07907145 -0.05977152 -0.084969595 -0.025735904

model2.6.bias f4 [4]
000000 16 42 5d 3d 9f ac 7a bb 7f ca cf bd 4b 53 ad bd
       0.054018103 -0.0038249863 -0.10146045 -0.084631525
