model_weight/actor/13_13 18:37:52 std 0.2 lr_actor_0.0004- gamma_0.7 memory100 actor_weight.pth (torch, 646091 bytes, 9 tensors)

std f4 [4]
0	0xbd6fba53	-0.058527302
1	0xbd1df46d	-0.03856318
2	0xbda45923	-0.08024814
3	0xbd25ebff	-0.040508267

model2.0.weight f4 [512, 24]
0	0xbbc26155	-0.005932013
1	0x3d792288	0.060823947
2	0xbcb6da9c	-0.022321038
3	0xbe1d9aff	-0.15391158
4	0xbe214d18	-0.15752065
5	0xbe445024	-0.19171196
6	0xbe2c4fd4	-0.16827327
7	0xbe1ad64f	-0.15120815
8	0x3de3e4cf	0.11127626
9	0xbd202c3c	-0.039104685
10	0x3bbeb38d	0.005819744
11	0xbe6cda7e	-0.23130223
12	0x3dd33da3	0.10314491
13	0x3df8f038	0.12155193
14	0xbe5dfd8d	-0.21678753
15	0xbe30c943	-0.17264275
16	0x3dc17c6a	0.09447558
17	0xbd2f1e23	-0.04275335
18	0x3d93305d	0.07186959
19	0xbe5f492c	-0.21805257
20	0x3e0af730	0.13570857
21	0x3da260fb	0.07928654
22	0xbdb963a3	-0.09052207
23	0xbe19666d	-0.14980479
24	0x3e19df0f	0.15026496
25	0x3d68f514	0.05687435
26	0xbe2521c4	-0.16126162
27	0xbe30b229	-0.17255463
28	0x3e0073e8	0.12544215
29	0xbdc7c734	-0.09754792
30	0xbc939482	-0.01801515
31	0x3da3142d	0.079628326
32	0xbe0ccf3d	-0.1375093
33	0x3e029e0b	0.12755601
34	0xbd8cfd99	-0.068843074
35	0xbe2f8b36	-0.17142949
36	0xbcc6edcf	-0.024283318
37	0xbd383d55	-0.044980366
38	0x3ba39595	0.004992197
39	0xbe16dffd	-0.14733882
40	0xbe2ce8cd	-0.16885681
41	0xbc4427f9	-0.011972421
42	0x3dda6015	0.106628574
43	0xbdd1d0ee	-0.10244928
44	0xbdb48ff7	-0.088165216
45	0xbdae7539	-0.08518452
46	0xbc8ec7fe	-0.017429348
47	0xbd5d4d37	-0.054028716
48	0x3c92166e	0.017832961
49	0xbd621c9c	-0.055203065
50	0x3e12e448	0.14344895
51	0xbde52810	-0.11189282
52	0x3e26d0f4	0.16290647
53	0x3e09c15f	0.13452671
54	0xbe35dce9	-0.17760052
55	0x3dc0679f	0.09394764
56	0xbd010927	-0.03150287
57	0x3de489c4	0.11159089
58	0x3e70730f	0.23481391
59	0xbe532984	-0.20621306
60	0x3d1d033b	0.03833316
61	0xbd1a5dbe	-0.037687056
62	0xbdb0a8c7	-0.08625942
63	0xbe5ca854	-0.21548587
64	0xbce1e4bd	-0.027574891
65	0xbe338030	-0.17529368
66	0xbd94fe7b	-0.07275101
67	0x3e352da2	0.17693189
68	0xbda35c75	-0.07976619
69	0xbd73da52	-0.05953438
70	0xbd99e82b	-0.07514986
71	0x3e331192	0.17487171
72	0xbe426bf0	-0.18986487
73	0xbe4a14ab	-0.19734447
74	0xbdb47357	-0.08811062
75	0xbd88cb4f	-0.06679403
76	0x3dbe4ebf	0.092923634
77	0x3e6efeb4	0.23339349
78	0xbd347088	-0.04405263
79	0x3e3a5c5a	0.18199292
80	0xbe30e735	-0.17275698
81	0xbcdaadcf	-0.026694207
82	0x3d41aeee	0.047285967
83	0x3e695d9c	0.22789615
84	0xbe1243b2	-0.14283636
85	0x3de0d853	0.109787606
86	0x3d60216b	0.05471937
87	0xbe1bb72c	-0.15206593
88	0xbd5503e1	-0.052005652
89	0x3e4264ac	0.18983716
90	0xbd475321	-0.048663262
91	0x3dae360f	0.085064046
92	0x3d3db164	0.04631175
93	0x3e4b5da5	0.19859941
94	0x3c78d8b0	0.015188381
95	0xbd1a3a0c	-0.037653014
96	0x3c8504c2	0.01623762
97	0xbd3d8cf8	-0.046277016
98	0xbcd00f85	-0.025398025
99	0x3dee4cb9	0.116357274
100	0xbdd95fd5	-0.10613982
101	0xbd69a760	-0.057044387
102	0x3da0c812	0.078506604
103	0x3ca0dc2b	0.019636234
104	0x3e28711b	0.16449396
105	0xbe66a2c1	-0.22523023
106	0x3ce9a8d3	0.028522884
107	0xbeb0ff6f	-0.3456988
108	0xbd4e391b	-0.05034743
109	0x3e34b600	0.17647552
110	0x3e2f86c1	0.17141248
111	0xbd562d8a	-0.052289523
112	0x3bd26376	0.006420548
113	0x3daa990c	0.083299726
114	0xbe11b9c8	-0.14231026
115	0x3d532de5	0.05155744
116	0xbc72139a	-0.014775181
117	0xbda61b28	-0.081106484
118	0xbe2aefa8	-0.16692984
119	0x3df18cb4	0.11794415
120	0x3da08edb	0.078397475
121	0xbe236ec5	-0.15960224
122	0xbd96537d	-0.07340143
123	0xbde6e174	-0.112734705
124	0x3e16a7e7	0.14712487
125	0xbe5a9e3c	-0.21349424
126	0xbc0df277	-0.008663765
127	0xbe5a3630	-0.21309733
128	0xbe0c31cf	-0.13690875
129	0x3b8aef62	0.0042399624
130	0x3e1c6050	0.15271115
131	0xbe19a2f7	-0.15003572
132	0x3dca25af	0.09870469
133	0xbe06e3b9	-0.13172807
134	0xbe65e1a9	-0.22449364
135	0xbd07d6a7	-0.033163693
136	0xbe0cbe66	-0.13744506
137	0x3dc6a05f	0.09698557
138	0xbe4c833f	-0.19971941
139	0xbe300009	-0.17187513
140	0x3dd3ad25	0.10335759
141	0xbe132f1f	-0.14373444
142	0x3d916324	0.07098988
143	0xbe21ab43	-0.15787987
144	0xbe98d690	-0.29851198
145	0xbce6c868	-0.028171733
146	0xbd70e75c	-0.05881439
147	0x3de277de	0.11058019
148	0xbd71ce38	-0.059034556
149	0xbc8fd34e	-0.017556813
150	0x3e0fb29b	0.14032976
151	0xbd9dc383	-0.077033065
152	0xbb8c9bfd	-0.004291056
153	0xbd8deb6f	-0.06929671
154	0xbd77993f	-0.06044888
155	0x3ea86df3	0.32896385
156	0xbd0db478	-0.034595937
157	0xbdbe9de8	-0.09307462
158	0xbdaaa2ee	-0.083318576
159	0x3e23641c	0.15956157
160	0x3da60b44	0.081076175
161	0x3d75266e	0.059851103
162	0xbc364706	-0.011125332
163	0x3ca590c3	0.02021063
164	0xbe015ac2	-0.12632278
165	0x3e3e4979	0.18582715
166	0x3e0493db	0.12947027
167	0xbe157d20	-0.14598513
168	0x3d77d632	0.060507007
169	0xbe15bdc4	-0.14623171
170	0x3e5f6961	0.21817543
171	0x3e05b2dc	0.1305651
172	0xbe32a570	-0.17445922
173	0xbe1f78d8	-0.15573442
174	0xbe66d098	-0.2254051
175	0xbe1b04db	-0.15138571
176	0x3ced58cf	0.028973011
177	0x3dddfa64	0.10838774
178	0xbd96794c	-0.07347354
179	0x3b66fa7c	0.0035244515
180	0xbd702c67	-0.058636095
181	0xbcad158b	-0.021128437
182	0xbe4b7937	-0.19870459
183	0xbd1f4bf5	-0.038890798
184	0xbe54923e	-0.20758912
185	0x3df2b932	0.118517295
186	0x3df9b742	0.12193157
187	0x3de3bca7	0.11119967
188	0xbe323343	-0.17402367
189	0x3df82498	0.12116355
190	0xbddc2086	-0.10748391
191	0x3d23c81c	0.03998576
192	0xbd2a9101	-0.041642193
193	0xbe0b89cf	-0.13626789
194	0xbdcc539c	-0.09976885
195	0xbd6839b1	-0.056695644
196	0xbd44d786	-0.0480571
197	0xbc8b208f	-0.016983299
198	0x3e082bde	0.13297984
199	0x3bb0277b	0.0053758
200	0xbddeafa1	-0.10873342
201	0x3dd53d08	0.104120314
202	0xbd1b072a	-0.03784863
203	0xbe02fd52	-0.12791947
204	0xbd973e91	-0.073849805
205	0x3b386f7f	0.0028142629
206	0xbe5ec014	-0.2175296
207	0x3dc98712	0.09840216
208	0x3ca57cb0	0.020201057
209	0xbe5e111e	-0.21686217
210	0xbd36b855	-0.044609386
211	0x3d0007f2	0.031257577
212	0xbd223906	-0.039605163
213	0xbe18e152	-0.14929703
214	0xbe07167e	-0.13192174
215	0xbe265d6a	-0.16246572
216	0x3c771a4c	0.015081953
217	0x3e2ebc0a	0.17063919
218	0xbdeedc8f	-0.11663162
219	0xbd991d3a	-0.07476278
220	0x3ce4d987	0.027935756
221	0xbd948a7e	-0.07252978
222	0xbe81ad41	-0.25327495
223	0x3e1084f9	0.14113225
224	0xbe95176a	-0.29119426
225	0x3d82e0cc	0.06390533
226	0x3e074a42	0.13211921
227	0xbd11f9af	-0.035638507
228	0xbdb1574a	-0.08659227
229	0xbe232a34	-0.15934068
230	0xbe58fd2d	-0.21190329
231	0xbe9a40dc	-0.3012761
232	0xbde0bcf9	-0.10973544
233	0xbdbe4433	-0.09290352
234	0x3d832a0c	0.06404504
235	0x3d8c4273	0.06848612
236	0xbd8a139b	-0.06742021
237	0x3c157c49	0.00912387
238	0xbc7ad5f6	-0.015309801
239	0x3e1a141d	0.15046735
240	0x3d700259	0.05859599
241	0x3ca78d4b	0.020453116
242	0xbe1ceaf3	-0.15324001
243	0x3df7ece8	0.12105733
244	0xbab11e83	-0.0013513122
245	0xbe3f842a	-0.1870276
246	0x3dc3d2e5	0.09561709
247	0xbc8cc180	-0.017182112
248	0xbda80dfa	-0.08205791
249	0xbe4aef90	-0.19817948
250	0x3e0294ef	0.12752126
251	0xbe8830ef	-0.26599833
252	0x3e09c2eb	0.13453262
253	0xbe1c40b6	-0.1525906
254	0x3e1f1eee	0.15539142
255	0x3e24e8a1	0.16104366

model2.0.bias f4 [512]
0	0x3d4024d3	0.04691012
1	0xbe31b4c3	-0.17354111
2	0x3d931767	0.07182198
3	0x3dace2f7	0.084417276
4	0x3db39d62	0.08770253
5	0xbbb86c2b	-0.005628129
6	0x3dad8038	0.084717214
7	0x3d9cfcab	0.0766538
8	0x3abd8e2e	0.0014461929
9	0x3dceb3d0	0.1009289
10	0x3dfcf19f	0.12350773
11	0xbd84754a	-0.064676836
12	0xbd3666f8	-0.044531792
13	0xbdc2d246	-0.09512763
14	0xbccb2ee0	-0.024802625
15	0xbe54c0aa	-0.2077662
16	0xbdc8ca36	-0.09804194
17	0x3d315c31	0.04330081
18	0xbd247da9	-0.0401589
19	0xbe23e800	-0.1600647
20	0xbc976ec6	-0.018485438
21	0xbe190f02	-0.14947131
22	0xbe4705ad	-0.19435759
23	0xbda90a27	-0.082538895
24	0x3b1557f7	0.0022788027
25	0x3d832934	0.06404343
26	0x3d65918e	0.056047015
27	0x3a69b299	0.0008914858
28	0xbe23c650	-0.15993619
29	0x3d91e3c2	0.071235195
30	0x3e1e3a51	0.15451933
31	0x3d4a2c40	0.049358606
32	0xbe25e1ad	-0.1619937
33	0x3d622f84	0.055221096
34	0xbac7d69c	-0.0015246454
35	0xbcb68a92	-0.022282872
36	0x3d597ccd	0.053097535
37	0x3bd33b89	0.006446306
38	0x3dc2e620	0.09516549
39	0xbe40c26e	-0.18824169
40	0xbe0da28b	-0.13831536
41	0x3d960943	0.07325985
42	0xbd92b5c9	-0.07163579
43	0x3db4d155	0.088289894
44	0xbe06e078	-0.13171566
45	0x3dd7de0d	0.105404
46	0x3d4d33ea	0.050098337
47	0xbd872142	-0.0659814
48	0xbe656499	-0.22401656
49	0xbe277515	-0.16353257
50	0xbe24111e	-0.16022155
51	0xbba7934f	-0.005113996
52	0xbc594aef	-0.0132624945
53	0xbe148aa3	-0.1450601
54	0x3e118e8d	0.14214535
55	0xbdc23ac8	-0.09483868
56	0x3e0f2ff2	0.13983133
57	0xbe14784e	-0.14499018
58	0xbc0735cd	-0.008252573
59	0x3d0b128e	0.033953242
60	0x3d468b9a	0.04847298
61	0xbe44a6c3	-0.1920424
62	0xbe00aca3	-0.12565856
63	0x3dfb4beb	0.122703396
64	0x3e0518d6	0.12997755
65	0xbc8aec8d	-0.0169585
66	0xbd6b2926	-0.05741229
67	0x3e26066a	0.16213384
68	0x3dbc803a	0.09204145
69	0x3da86876	0.08223049
70	0xbd9b4305	-0.07581142
71	0x3dbcad7d	0.09212778
72	0xbe37ebc7	-0.17961036
73	0x3cc86db4	0.024466373
74	0xbdce377b	-0.10069176
75	0xbe2c7ea0	-0.16845179
76	0xbe2e13d5	-0.16999753
77	0x3e127427	0.14302121
78	0x3e59ea4c	0.21280783
79	0xbe44ee6c	-0.19231576
80	0xbe4573c2	-0.1928244
81	0xbdbdadfc	-0.092617005
82	0x3de21f2b	0.11041101
83	0xbe10bee6	-0.14135322
84	0x3daf73f3	0.085670374
85	0xbe8003e8	-0.2500298
86	0xbe2a78e0	-0.16647673
87	0x3d8a3e9a	0.067502216
88	0x3d6911bb	0.056901675
89	0x3d49cbae	0.04926651
90	0xbc583c41	-0.013197959
91	0x3dec76e1	0.11546112
92	0xbd5aa6e2	-0.053381808
93	0xbdc51b79	-0.096243806
94	0x3dcd429b	0.100224696
95	0xbe1204bf	-0.14259623
96	0xbd11b200	-0.035570145
97	0xbe4e3bfe	-0.20140073
98	0x3c8b5aa7	0.017011
99	0x3d9eaab4	0.07747403
100	0xbd4dbac9	-0.05022696
101	0xbd7d56bb	-0.06185029
102	0xbe49ad0c	-0.19694918
103	0x3cbaf33e	0.022821065
104	0xbe576439	-0.21034326
105	0xbcc71763	-0.024303144
106	0x3db25589	0.08707721
107	0x3d6b1cca	0.057400502
108	0x3d04007a	0.032227017
109	0xbdf1b325	-0.11801747
110	0x3dbce2a4	0.09222916
111	0x3d1e9cbb	0.03872369
112	0x3df5543a	0.119789556
113	0xbe674452	-0.22584656
114	0x3e0d0e8c	0.1377508
115	0x3e26888e	0.16263029
116	0x3d0c20b4	0.034210876
117	0x3e0867b5	0.13320811
118	0x3cddc0fa	0.027069557
119	0x3de7f7cd	0.11326561
120	0x3d9e4ec5	0.07729868
121	0x3cccfcab	0.025022825
122	0xbdf0e8bf	-0.11763143
123	0x3d9a8156	0.075442
124	0xbd77a6b5	-0.06046172
125	0xbe43deb7	-0.19127928
126	0xbcdd6b94	-0.027028836
127	0xbdd5f6a2	-0.10447432
128	0x3d26a61a	0.04068575
129	0xbde7dcb6	-0.11321394
130	0x3d9acb34	0.07558289
131	0xbe1867a2	-0.14883283
132	0xbd6f5884	-0.058434024
133	0xbdb67444	-0.08908895
134	0x3d857aa1	0.0651753
135	0xbe287b64	-0.1645332
136	0x3cb19373	0.021676755
137	0x3c431285	0.011906271
138	0xbe087c31	-0.13328625
139	0xbe0dc2d9	-0.1384386
140	0xbe325927	-0.17416821
141	0x3e446101	0.19177629
142	0xbdff8567	-0.12476616
143	0xbe306702	-0.17226794
144	0xbdda42f0	-0.106572986
145	0xbc338672	-0.010957347
146	0x3de88763	0.11353948
147	0xbdc36caa	-0.095422104
148	0x3dcce620	0.1000483
149	0x3dcbe909	0.09956557
150	0xbe741e2d	-0.23839636
151	0xbcbb9a37	-0.022900684
152	0xbe3b3eeb	-0.1828572
153	0x39fbb0f2	0.00048006285
154	0x3ccd94cb	0.025095364
155	0xbe2d43c2	-0.16920379
156	0x3d003e59	0.03130946
157	0xbdab92a2	-0.08377577
158	0xbe3691cc	-0.17829055
159	0x3d5d2764	0.053992644
160	0x3ddd9623	0.10819652
161	0x3ce9c039	0.028534042
162	0xbe064eb0	-0.13115954
163	0xbda1b6bb	-0.07896181
164	0xbdf900a5	-0.12158326
165	0x3dae5d79	0.08513922
166	0xbe2c2ef9	-0.16814794
167	0xbcf6de79	-0.03013538
168	0x3e1ba5b5	0.15199931
169	0xbe18e42f	-0.14930795
170	0xbe3cfe42	-0.18456367
171	0xbdc82a28	-0.09773666
172	0xbdcdb7c2	-0.10044815
173	0xbe038949	-0.12845339
174	0xbd13b280	-0.036058903
175	0xbd899a25	-0.06718854
176	0xbe2f50fe	-0.1712074
177	0xbc929213	-0.01789192
178	0xbe64545d	-0.22297807
179	0x3b4b3df0	0.003101226
180	0x3dc79a6c	0.097462505
181	0x3d733bcb	0.059383195
182	0x3dc9bc86	0.09850411
183	0x3da48a70	0.08034217
184	0xbdc1658c	-0.09443197
185	0x3d6cceb0	0.0578143
186	0xbe6d5a05	-0.23178871
187	0x3dbb9844	0.09159902
188	0xbdd12f9e	-0.102141604
189	0x3d2ffe0a	0.04296688
190	0x3cfda36d	0.030961717
191	0xbc496767	-0.012292719
192	0xbb84a8af	-0.004048429
193	0x3e216f76	0.15765175
194	0x3e032b28	0.12809432
195	0xbd9272f4	-0.07150832
196	0xbdff942b	-0.12479433
197	0x3db6148c	0.08890638
198	0x3e15f41d	0.14643903
199	0xbde879f8	-0.11351389
200	0xba8e0fe0	-0.0010838471
201	0x3dc1ec9d	0.094689585
202	0x3d8ab364	0.06772497
203	0xbe00f2cd	-0.12592621
204	0x3dc9bf3d	0.09850929
205	0xbe24276d	-0.16030665
206	0xbdb8fe88	-0.09032923
207	0xbe29d7ba	-0.165862
208	0x3dd1cead	0.102444984
209	0xbe27392a	-0.163304
210	0x3d52cbb1	0.051463787
211	0xbdeb0b18	-0.11476725
212	0xbdf2a478	-0.11847776
213	0x3d1f3b46	0.038874887
214	0x3deb99e2	0.1150396
215	0x3c25efc6	0.010127967
216	0xbd769b92	-0.060206957
217	0xbd95e882	-0.07319738
218	0x3dd19bdd	0.10234807
219	0xbc0da24d	-0.008644653
220	0x3df40b3b	0.119162045
221	0x3daad022	0.083404794
222	0xbdfb10b2	-0.12259044
223	0xbcaabc25	-0.020841667
224	0xbc963b01	-0.018338682
225	0xbdcbf85a	-0.09959479
226	0x3c6089a1	0.013704688
227	0x3da2676a	0.07929881
228	0x3ded7a22	0.115955606
229	0xbd829f29	-0.06378014
230	0x3e3cb92f	0.18430017
231	0x3dd7842c	0.10523257
232	0xbde631d7	-0.11239975
233	0x3df536d6	0.1197335
234	0xbdff5bc6	-0.12468676
235	0x3d86f4f8	0.06589693
236	0x3cd61c42	0.026136521
237	0x3dbedf51	0.09319938
238	0xbdce00d6	-0.10058753
239	0x3bdc1fbd	0.0067176507
240	0x3e2c5814	0.16830474
241	0xbe4d01af	-0.20020173
242	0x3d93a46e	0.07209097
243	0xbe40a92c	-0.18814534
244	0xbd88b95d	-0.0667598
245	0x3c804a18	0.01566033
246	0x3d9e7f02	0.077390686
247	0xbd78de98	-0.060759157
248	0xbe443d57	-0.19164024
249	0x3df03300	0.117284775
250	0xbe1c2597	-0.15248714
251	0xbd9137c4	-0.070907146
252	0x3df6ba10	0.12047207
253	0xbe0a65e3	-0.13515429
254	0xbdd81a5a	-0.10551901
255	0xbd4caa40	-0.04996705

model2.2.weight f4 [256, 512]
0	0xbb916e6a	-0.004438211
1	0xbd4c5df3	-0.049894284
2	0x3d4f4b1b	0.050608736
3	0x3d95bc9a	0.073113635
4	0xbca22937	-0.019795043
5	0xbcc84bb0	-0.024450153
6	0x3d83f04d	0.06442318
7	0xbd121154	-0.035661057
8	0x3b8885e5	0.004166352
9	0x3d7ebd21	0.062192086
10	0xbd8d3f1e	-0.06896804
11	0x3d2ed923	0.042687546
12	0xbda57768	-0.080794156
13	0x3c20adb3	0.009807038
14	0xbc1c0eb8	-0.009524994
15	0xbc3c7323	-0.01150206
16	0xbcbce510	-0.023058444
17	0x3d3ed66b	0.046591204
18	0x3c307140	0.010769188
19	0x3cb72b05	0.02235938
20	0xbcd47680	-0.025935411
21	0x3d74e82a	0.05979172
22	0xbad193c0	-0.0015989468
23	0xbca8532a	-0.020547468
24	0x3dad89b8	0.084735334
25	0xbbb64aef	-0.005563132
26	0x3d2bd6df	0.041952964
27	0x3d25d6a0	0.040487885
28	0xbcb8e44b	-0.022569796
29	0x3cf30afa	0.02966832
30	0x3dd0b65c	0.10191032
31	0x3af89c78	0.001896753
32	0xbd15a772	-0.03653664
33	0xba51c3d6	-0.0008001899
34	0xb9477fc2	-0.00019025712
35	0xbdc38952	-0.09547676
36	0x3ba65283	0.005075754
37	0x3d387cd3	0.045040917
38	0xbd0fb8bb	-0.035088282
39	0xbd3f2a38	-0.046671122
40	0x3b82e234	0.0039942507
41	0x3ce9e574	0.028551795
42	0x39b8173c	0.00035112526
43	0xbd45cf32	-0.0482933
44	0xbc937bd3	-0.01800338
45	0x3cbe1671	0.02320406
46	0x3d218c04	0.03944017
47	0xbc8c043c	-0.017091863
48	0xbd2e6071	-0.042572442
49	0xbc090021	-0.008361847
50	0xbc450242	-0.012024464
51	0xbd1d1e9a	-0.038359262
52	0xbcdd3d70	-0.027006835
53	0x3dc4fdad	0.09618697
54	0xbd21787b	-0.03942154
55	0xbc355263	-0.011067006
56	0x3c434901	0.011919261
57	0xbce472bc	-0.02788674
58	0x3d08b9a1	0.033380155
59	0xbbd38664	-0.0064552296
60	0x3d42e574	0.047582105
61	0x3d0548c3	0.032540094
62	0xbb8de618	-0.004330408
63	0xbc53b02a	-0.012920419
64	0x3c5c9dc7	0.013465351
65	0xbc9ff7f9	-0.019527422
66	0x3b8bb704	0.0042637605
67	0x3d2432bd	0.04008745
68	0x3d95012c	0.07275614
69	0x3d166d36	0.036725245
70	0x3cf06cd6	0.029348772
71	0xbc040bd8	-0.008059464
72	0xbcbf4354	-0.023347534
73	0xbcbdcd79	-0.023169266
74	0x3dd4d8ea	0.103929356
75	0xbda634f0	-0.08115566
76	0xbc9ca839	-0.019123184
77	0xbae9372a	-0.001779293
78	0x3cd6d2a6	0.026223492
79	0xbb42f475	-0.0029747759
80	0x39d1b13b	0.00039995633
81	0x3ca5a4df	0.020220218
82	0xbce2f1eb	-0.027703246
83	0xbd0947f3	-0.03351588
84	0xbd28ee78	-0.041243047
85	0xbcac5618	-0.021037146
86	0xbdaec31a	-0.085333064
87	0x3d6fba18	0.058527082
88	0x3d4d620f	0.050142344
89	0xbc0d5dfe	-0.0086283665
90	0x3bc818ee	0.0061064875
91	0xbc2be858	-0.010492407
92	0xbd64c466	-0.055851363
93	0x3d44e377	0.04806849
94	0xbb90918d	-0.0044118823
95	0xbd5037f9	-0.05083463
96	0x3cacb25d	0.021081144
97	0x3cc87d5c	0.024473839
98	0x3d9142f6	0.0709285
99	0x3ba3c81f	0.0049982215
100	0xbdb0355d	-0.08603928
101	0xbd02f660	-0.031973243
102	0x3caeb8d6	0.021328371
103	0x3c2d8b28	0.0105922595
104	0x3d412bf7	0.04716107
105	0x3c62095c	0.013796177
106	0x3d07a808	0.03311923
107	0xbd3c9f32	-0.046050258
108	0xbc002ff5	-0.007823934
109	0x3dff56c3	0.1246772
110	0x3cdaefda	0.026725698
111	0xbd571ad2	-0.052515812
112	0x3c680141	0.014160455
113	0x3df2f591	0.11863244
114	0x3ce7414c	0.028229378
115	0x3b85f5e0	0.0040881485
116	0x3d3079e8	0.04308501
117	0xbd1a1f65	-0.037627596
118	0xbbcf5c7a	-0.0063281627
119	0x3d189ec0	0.03726077
120	0xbd0a713a	-0.033799388
121	0xbbc21f6e	-0.005924157
122	0xbd4508f9	-0.04810426
123	0xbcabc168	-0.020966247
124	0x3dde0839	0.10841412
125	0x3d2ebc47	0.042660024
126	0xbd688860	-0.056770682
127	0x3bb5c81a	0.0055475356
128	0x3cbe3fc2	0.023223761
129	0x3d250ab1	0.0402934
130	0xbd068499	-0.0328413
131	0xbcea9e9d	-0.028640086
132	0x3d811190	0.06302178
133	0x3dd5e444	0.10443929
134	0x3c17dba5	0.009268676
135	0xbc6782ef	-0.014130338
136	0x3c55e9ee	0.013056261
137	0x3c99389e	0.018703755
138	0xbc58741f	-0.013211279
139	0xbd171954	-0.03688939
140	0xbd9feeb4	-0.07809201
141	0xbd5d8789	-0.054084335
142	0x3d253d92	0.04034192
143	0x3bfc70c1	0.007703871
144	0xbce0e46e	-0.027452674
145	0x3dc5b655	0.09653918
146	0xbcdcde8d	-0.02696159
147	0x3d4cc601	0.04999352
148	0xbd197846	-0.037468217
149	0xbce26fb6	-0.027641159
150	0xbc5e9209	-0.013584622
151	0x3d889ad6	0.066701576
152	0x3d9caefa	0.07650562
153	0xbc9e46fc	-0.019320957
154	0xbd44cb6b	-0.048045557
155	0x3d1b37aa	0.037894882
156	0xbd38e0bb	-0.045136195
157	0xbd6a4824	-0.057197705
158	0x3db45210	0.08804715
159	0x3c6cfdaa	0.014464775
160	0x3c234983	0.009966257
161	0x3d042539	0.03226206
162	0xbc5384e6	-0.012910103
163	0xbc63f116	-0.01391246
164	0x3d1c3ba2	0.038142808
165	0x3cc2aaf8	0.023763165
166	0xb7c23eec	-2.3155902e-05
167	0x3d77313a	0.06034968
168	0x3cd28c64	0.02570171
169	0xbafb3f89	-0.0019168715
170	0x3d0819e6	0.033227824
171	0x3d8c8012	0.06860365
172	0x3d97a682	0.07404806
173	0x3c057e32	0.008147763
174	0x3d9d51d0	0.0768162
175	0x3bc73499	0.006079268
176	0x3d7e449e	0.062077157
177	0x3cb64664	0.022250362
178	0x3d1d3c4e	0.03838759
179	0xbb93afae	-0.0045070266
180	0xbd0c521e	-0.034258
181	0x3c189e2c	0.009315055
182	0xbceadbc7	-0.028669251
183	0xbc00f022	-0.007869752
184	0x3d7f54e5	0.06233682
185	0x3c2a8a82	0.010408999
186	0x3d9e0381	0.07715512
187	0xbd13a816	-0.03604897
188	0xbc03c560	-0.008042663
189	0x3d6e88e5	0.05823602
190	0x3d0a30cc	0.033737943
191	0xbcba0f7d	-0.022712464
192	0xbac5183d	-0.0015037131
193	0xbd30539f	-0.043048497
194	0x3cc241a1	0.023712935
195	0x3d0e9e1d	0.034818757
196	0xbd90180c	-0.070358366
197	0xbba45268	-0.0050147064
198	0xbce7cc61	-0.028295698
199	0x3d2f6831	0.042823974
200	0x3d8f9fda	0.07012911
201	0x3c15c3f4	0.009140957
202	0xba2f4814	-0.00066864607
203	0x3bf1396c	0.0073615815
204	0x3d2ffc76	0.042965375
205	0x3d21db4a	0.03951577
206	0x3d105f3c	0.035247073
207	0xbb0c9b02	-0.0021454697
208	0x3cc8f174	0.024529196
209	0xbd8810c9	-0.066438265
210	0x3d4e9dab	0.050443333
211	0x3d483062	0.048874266
212	0x3da60c19	0.08107776
213	0xbd3f4de6	-0.04670515
214	0x3d2ec5db	0.04266916
215	0xb98d63c9	-0.00026967961
216	0x3d5f42ac	0.054506943
217	0xbc954154	-0.018219627
218	0x3da6d429	0.08145935
219	0xbd51cf4f	-0.051223096
220	0xbcf64c17	-0.03006558
221	0xbbaccdbd	-0.0052735494
222	0x3ddc882b	0.107681595
223	0xbd3227ea	-0.043495096
224	0x3def0f4a	0.11672838
225	0x3e0d8d5a	0.13823453
226	0xbc8505c3	-0.016238099
227	0xbc13a319	-0.0090110535
228	0x3cfed5ce	0.03110781
229	0x3bc2abe1	0.0059408997
230	0x3d4ab417	0.049488153
231	0x3d0af225	0.033922333
232	0xbc794e5c	-0.015216436
233	0x3d0214aa	0.031757988
234	0x3c32737f	0.010891794
235	0x3cf1ed95	0.029532233
236	0x3d7ccacc	0.06171684
237	0x3d222413	0.039585184
238	0x3a784c50	0.00094718207
239	0xbc6fc097	-0.014633319
240	0x3cc7fb2e	0.024411764
241	0x3dcc233c	0.09967658
242	0x3c8f5c94	0.0175002
243	0x3ccb763c	0.024836652
244	0x3bc304e9	0.005951513
245	0x3d81fd95	0.06347195
246	0x3cdc567b	0.026896706
247	0xbd35851c	-0.044316396
248	0x3cb150c3	0.021644956
249	0x3d3210ec	0.04347317
250	0xbc5617e4	-0.013067219
251	0x3d872095	0.065980114
252	0x3d154793	0.03644521
253	0x3dc43fb2	0.095824614
254	0xbd77567d	-0.060385216
255	0x3bebeb19	0.0071996567

model2.2.bias f4 [256]
0	0xbbf15f0d	-0.0073660673
1	0x39c6ca33	0.00037916153
2	0xbca572e9	-0.020196395
3	0x3cb16daf	0.021658747
4	0xbd2b93eb	-0.041889112
5	0xbd0755f9	-0.033040974
6	0x3b9233e9	0.0044617546
7	0xba5ca642	-0.00084171083
8	0xbcd7b1b3	-0.02632985
9	0xbc4b645e	-0.012414066
10	0xbd29955f	-0.041402217
11	0xbc40d174	-0.0117686875
12	0x3c373733	0.011182594
13	0xbc3c1247	-0.011478967
14	0x3ca3a141	0.019974353
15	0xbcb9a101	-0.02265978
16	0xbd21fe5b	-0.039549213
17	0x3c252c78	0.010081403
18	0x3d41f2ee	0.047350816
19	0xbd3f3e78	-0.046690434
20	0xbcc7953d	-0.024363155
21	0xbb9b20dd	-0.004734142
22	0x3ce2d0a6	0.027687382
23	0xbd11e5be	-0.03561949
24	0xbd29fa97	-0.041498747
25	0xbd10e065	-0.03537025
26	0x3c673d99	0.014113807
27	0x3bb2fc7a	0.0054622265
28	0x3d3623d7	0.044467773
29	0xbd71832c	-0.058962986
30	0xbd83b078	-0.06430143
31	0x3ccb85c4	0.024844058
32	0xbbea6b90	-0.0071539357
33	0x3c5d24f4	0.01349758
34	0x3c9341c2	0.017975692
35	0xbb3a84f5	-0.0028460596
36	0xbca3df73	-0.02000401
37	0xbd8709cf	-0.06593668
38	0x3c57827e	0.01315367
39	0xb90966b3	-0.00013103597
40	0x3b83a1d3	0.0040170937
41	0xbd372a5e	-0.04471814
42	0xbb49d64e	-0.0030797902
43	0x3c5490a3	0.012973937
44	0xbd10db8c	-0.035365626
45	0x3c578796	0.013154885
46	0x3cb565ba	0.022143234
47	0xbd4ac894	-0.049507692
48	0xbd6721bf	-0.056428667
49	0xbd126ad2	-0.035746403
50	0xbd3c3557	-0.045949306
51	0xbd3481e5	-0.04406919
52	0xbc2d3442	-0.010571541
53	0xbd2edf54	-0.04269345
54	0x3c1018b4	0.008794952
55	0xbd42fb01	-0.047602657
56	0xbc94aa74	-0.018147685
57	0x3cdcc3d2	0.026948843
58	0xbcd91f34	-0.026504137
59	0x3b607e6f	0.0034255048
60	0xbd40a5b1	-0.047033016
61	0xbcb2aafd	-0.02181005
62	0x37c2a450	2.3203116e-05
63	0xbb920966	-0.004456687
64	0x3c512b83	0.012766722
65	0x3b8be25a	0.0042689266
66	0xbcc53cd9	-0.024076866
67	0xbd45181f	-0.048118707
68	0x3cfe2488	0.031023279
69	0xbd371249	-0.044695172
70	0x3c80ffac	0.015746914
71	0xbbe8ec88	-0.007108275
72	0x3c0b431c	0.008499887
73	0x3cd1c11a	0.025604773
74	0xbce55d06	-0.027998459
75	0xbd261a70	-0.040552557
76	0xbc9ec53d	-0.01938116
77	0xbc47c942	-0.01219398
78	0xbd058c08	-0.032604247
79	0xbd22a3ed	-0.039707113
80	0xbd2cbc83	-0.042171966
81	0x3a3558d8	0.0006917841
82	0xbca21e04	-0.019789703
83	0x3b55cc9f	0.0032623184
84	0x3b3e917c	0.0029078415
85	0xbcde6904	-0.027149685
86	0x3b9d45d0	0.004799582
87	0xbca7cfa6	-0.020484757
88	0xbb808b34	-0.0039228443
89	0xbc6027a1	-0.013681323
90	0x3bff0826	0.007782954
91	0xbcc02f1f	-0.02345997
92	0xbd45e40d	-0.04831319
93	0xba10bf09	-0.00055216305
94	0x3d18e618	0.03732881
95	0x3cd7bc31	0.026334854
96	0x3c292ce7	0.010325647
97	0xbd2fce28	-0.042921215
98	0xb9cd909f	-0.00039208398
99	0x3c5b044e	0.013367726
100	0x3cf9c66e	0.030490126
101	0xbc9c71a1	-0.019097151
102	0xbd249c13	-0.040187906
103	0xbc3bc11e	-0.011459617
104	0xbc81baa3	-0.015836066
105	0xbd318443	-0.043339025
106	0xbd420f71	-0.047378007
107	0xbd3c4634	-0.04596539
108	0xbd14ee01	-0.03635979
109	0xbd2b9c7a	-0.041897275
110	0xbcce2b42	-0.025167111
111	0x3c4b5642	0.012410702
112	0xbc4880dc	-0.012237754
113	0x3cc13897	0.023586554
114	0x3c042d2d	0.008067411
115	0x3c5da18f	0.013527288
116	0xb9ff472f	-0.00048690426
117	0xbd7b8703	-0.061408054
118	0x3d2a83bd	0.04162954
119	0x3c801cc3	0.015638715
120	0x3c4c4176	0.012466779
121	0x3cafd6f7	0.021464808
122	0xbcdfa2cc	-0.027299307
123	0xbcc1f9aa	-0.02367862
124	0xbd3ce381	-0.046115402
125	0xbb94e82a	-0.0045442777
126	0xbd49ea9f	-0.049296018
127	0x3ca52a47	0.020161761
128	0x3d1c1ca3	0.038113248
129	0x3b4bf1da	0.0031119497
130	0xbd2ffc55	-0.042965252
131	0xbb992abf	-0.004674285
132	0xbce49217	-0.027901692
133	0x3b554dcf	0.0032547598
134	0xbcd7d0f8	-0.026344761
135	0x3bcdb256	0.006277363
136	0xbcac2baf	-0.021016924
137	0xbd44c982	-0.048043735
138	0xbc8ed23b	-0.01743423
139	0x3c2e16b6	0.010625532
140	0xbbf0263d	-0.007328777
141	0x3c37734a	0.011196921
142	0x3ce395b3	0.027781343
143	0x3d8d033a	0.06885381
144	0x3cfb25aa	0.030657608
145	0x3cb3a319	0.021928357
146	0x3d05ef75	0.032699067
147	0xbcc42dff	-0.023947714
148	0x3cb749a3	0.02237398
149	0xbd381bce	-0.04494839
150	0x3bd21601	0.0064113145
151	0xbd3dcc68	-0.046337515
152	0xbbd7e616	-0.0065887077
153	0x3cdf05a3	0.027224367
154	0x3c3083b8	0.010773592
155	0x3c333a19	0.0109391445
156	0xbc258d08	-0.010104425
157	0x3bf74c07	0.007546905
158	0x3c774114	0.015091199
159	0x3d3f9507	0.046772983
160	0x3d6abab4	0.05730696
161	0xbd562143	-0.052277815
162	0x3c9854c7	0.018595112
163	0xbc991f10	-0.01869157
164	0x3c4c3a41	0.012465061
165	0xbcfbf3a3	-0.030755823
166	0x3c0d5ee6	0.008628583
167	0x3c940b91	0.018071922
168	0x3bdd0cef	0.0067459266
169	0xbd5c2339	-0.05374453
170	0xbd4cf679	-0.050039742
171	0x3c8a1601	0.016856195
172	0x3c6e1f5b	0.014533843
173	0x3c5adaa4	0.013357792
174	0x3ca33502	0.019922737
175	0x3c6d4403	0.014481547
176	0x3cbbfefc	0.022948734
177	0xbda8cd1f	-0.08242249
178	0xbc3eeae5	-0.011652683
179	0x3d13a7ea	0.036048807
180	0xbd20e6fc	-0.039282784
181	0x3b2f2ed4	0.0026730793
182	0x3ca5ee82	0.020255331
183	0xbd5d038e	-0.05395847
184	0xbc4b45dc	-0.0124067925
185	0xbd1cf02f	-0.038314994
186	0x3b5f43cd	0.0034067512
187	0x3c6029b3	0.013681817
188	0xbb098116	-0.0020981482
189	0xbc8bdfd1	-0.017074497
190	0x3c9361ed	0.01799103
191	0x3c1244e1	0.008927555
192	0x3d631b82	0.055446155
193	0x3d6331f6	0.05546757
194	0xbcf68599	-0.030093001
195	0x3bada049	0.0052986485
196	0xbc874e11	-0.016516717
197	0xbd2335c1	-0.039846186
198	0xbca9f81f	-0.020748196
199	0x3bbc760f	0.0057513784
200	0xbab5d449	-0.001387247
201	0x3c2fd611	0.01073219
202	0xbd208e8b	-0.03919844
203	0x3ccf828e	0.025330808
204	0x3914f77b	0.00014206574
205	0x3cb7d9f3	0.022442793
206	0xbc410ce7	-0.011782861
207	0x3bfb0fc8	0.0076617934
208	0x3caa1136	0.02076016
209	0x3c0b9855	0.0085202055
210	0xbce5978f	-0.02802637
211	0xbd09faf4	-0.033686593
212	0xba09bd1c	-0.0005254315
213	0x3c7d9dc9	0.015479513
214	0xbd0bf603	-0.034170162
215	0xbc36e531	-0.011163042
216	0xbbce2ca3	-0.006291942
217	0x3bccf5f1	0.0062549044
218	0x3c9186cf	0.017764477
219	0x3c3d036f	0.011536463
220	0x3cd6deda	0.02622931
221	0x3d084a9d	0.03327428
222	0x3cb6c747	0.02231182
223	0xbcbbf730	-0.022945017
224	0xbd243983	-0.04009391
225	0x3c4d0633	0.012513685
226	0x3c7e8a1c	0.0155358575
227	0xbd2b39db	-0.041803222
228	0x3cc3054a	0.023806233
229	0xbba75910	-0.0051070526
230	0xbb66044c	-0.0035097776
231	0x3d1b828a	0.03796629
232	0xbcdd6c18	-0.027029082
233	0x3d2ce224	0.042207852
234	0xbd1bfede	-0.038084857
235	0xbd338f77	-0.04383799
236	0xbd033c3b	-0.032039862
237	0xbb08936d	-0.0020839826
238	0xbd15e05b	-0.036590915
239	0xbd27c6b9	-0.040961
240	0x3b4d6cd0	0.0031345375
241	0x3cb2410c	0.021759532
242	0xbc590acf	-0.013247206
243	0x3c3d129f	0.011540084
244	0xbd39dbff	-0.04537582
245	0xbc58443c	-0.013199862
246	0x3cb3c9c4	0.021946795
247	0xbccfdb20	-0.025373042
248	0xbc3bf80b	-0.011472712
249	0x3d3c52d8	0.045977443
250	0xbc4224d9	-0.0118496055
251	0xbb95d0dc	-0.004572017
252	0xbd35a145	-0.04434325
253	0x3d0b9eb3	0.034086894
254	0xbd658c3a	-0.056041934
255	0x3c6bfcaa	0.0144035015

model2.4.weight f4 [64, 256]
0	0xbca253ad	-0.01981529
1	0x3d0563fc	0.032566056
2	0x3ce7f5a9	0.028315382
3	0x3d61f83b	0.05516837
4	0xbd11ad74	-0.03556581
5	0xbcf7ff06	-0.030272972
6	0xbc90b4e7	-0.017664386
7	0xbd467ddc	-0.048459873
8	0x3d5f0c72	0.05445523
9	0xbd88bc4e	-0.06676541
10	0xbcd76ed8	-0.026297972
11	0xbd2929c8	-0.04129961
12	0xbd475589	-0.048665557
13	0xbd84c34f	-0.06482565
14	0x3bd050f5	0.006357307
15	0xbcc5ed5f	-0.024161039
16	0xbbad5e09	-0.005290751
17	0x3ce08e5c	0.027411632
18	0x3ca80350	0.020509392
19	0xbbaaba92	-0.005210229
20	0xbdcd2e42	-0.100185886
21	0x3d33a3c6	0.04385736
22	0xbca63f1c	-0.020293765
23	0x3d77d32a	0.060504116
24	0x3bd4d350	0.006494917
25	0xbcd211fc	-0.025643341
26	0xbc3ee0d9	-0.011650288
27	0x3d6021a8	0.054719597
28	0xbd8c9051	-0.06863464
29	0x3d26bad7	0.040705528
30	0x3c7413bc	0.014897283
31	0x3d02e71e	0.03195869
32	0xbb666b7e	-0.0035159285
33	0xbd1abdf1	-0.0377788
34	0xbd183de6	-0.037168406
35	0x3c7e9d78	0.015540473
36	0xbd15222d	-0.036409546
37	0xbd83c876	-0.06434719
38	0x3d46630c	0.048434302
39	0xbca4c785	-0.02011467
40	0x3c938181	0.018006088
41	0xbd7be144	-0.061494127
42	0xbda343ca	-0.07971914
43	0xbc686d1f	-0.014186173
44	0x3cc2d0c1	0.023781182
45	0xbcb43c0d	-0.02200129
46	0x3c7c5ea5	0.015403424
47	0x3c4ba824	0.012430225
48	0xbcef1a6f	-0.02918741
49	0xbd00a1f4	-0.03140445
50	0x3ce71ca1	0.028211894
51	0xbd835027	-0.06411772
52	0x3cfed033	0.031105136
53	0xbd0c0645	-0.034185667
54	0xbd76038f	-0.060061987
55	0x3c21d99e	0.009878544
56	0xbb41f140	-0.002959326
57	0x3c295d10	0.010337129
58	0xbd113c46	-0.03545787
59	0xbd31ae39	-0.043379042
60	0xbbe242d3	-0.0069049387
61	0x3bcc9117	0.006242882
62	0xbd387c41	-0.045040373
63	0x3c8533cb	0.016260048
64	0xbc22f9b0	-0.009947225
65	0xbcc8e362	-0.024522487
66	0xbc9cf825	-0.019161293
67	0x3d5297e5	0.05141439
68	0x3d29f328	0.041491657
69	0x3d2fe375	0.04294153
70	0x3c8dc044	0.017303593
71	0xbd5b8ce3	-0.053601157
72	0xbd996b31	-0.07491148
73	0xbcfa877e	-0.030582186
74	0x3d2d01d7	0.042238083
75	0x3a04b624	0.00050625415
76	0xbce6fa14	-0.028195418
77	0xbcc8be21	-0.024504723
78	0x3d401899	0.04689846
79	0xbd790677	-0.06079718
80	0xbcd7b69a	-0.026332188
81	0x3d2872e2	0.041125186
82	0x3ae9fce5	0.0017851858
83	0xbca6dcd0	-0.020368963
84	0x3b1d54de	0.0024006884
85	0xbbee5318	-0.007273089
86	0x3d757af7	0.05993172
87	0xbd5feda4	-0.05466999
88	0xbc9f63f9	-0.01945685
89	0xbc9ea65a	-0.019366432
90	0x3d77b6a0	0.0604769
91	0xbc876f8e	-0.016532686
92	0xbd3997ab	-0.045310657
93	0x3ca71102	0.020393852
94	0xbd2539de	-0.04033839
95	0xb92cfb73	-0.0001649687
96	0xbd0efa95	-0.034906942
97	0x3cf293b3	0.029611444
98	0xbd31fb62	-0.043452628
99	0xbbfecdac	-0.007775983
100	0xbd72bad4	-0.059260204
101	0xbceb7e5a	-0.028746773
102	0xbd5a4b7f	-0.053294655
103	0xbcff4de4	-0.03116507
104	0x3d09bfc5	0.03363015
105	0xbda32d52	-0.079676285
106	0xbd3d38ce	-0.04619675
107	0x3cd0d64a	0.025492806
108	0x3d318139	0.043336127
109	0x3d22ae72	0.039717145
110	0xbb7ea3eb	-0.0038855027
111	0x3c33b5bc	0.010968622
112	0xbcab0539	-0.020876514
113	0x3d090b16	0.033457838
114	0xbd44ab1a	-0.048014738
115	0xbd4683ff	-0.048465725
116	0xbd0c53e7	-0.034259703
117	0x3c0f0f2c	0.008731645
118	0xbd5a19c4	-0.05324723
119	0xbcadcbcc	-0.021215342
120	0xbd765bd8	-0.060146183
121	0xbd87d1b5	-0.06631795
122	0xbd74c8d2	-0.05976183
123	0xbd81b2d9	-0.063329406
124	0xbc7d40cb	-0.015457342
125	0x3b0ff8ed	0.002196844
126	0xbd199504	-0.037495628
127	0xbd12f1e2	-0.03587521
128	0xbdcb2676	-0.09919445
129	0x3bfcbaa4	0.007712679
130	0xbd9c47c6	-0.07630877
131	0xbaf60e4a	-0.0018772569
132	0xbcbaa5e9	-0.02278419
133	0xbdb944e2	-0.090463415
134	0xbd221211	-0.03956801
135	0xbc929b89	-0.01789643
136	0x3c7ec32f	0.015549465
137	0xbd0a26a9	-0.033728275
138	0xbbc103a2	-0.0058903256
139	0xbc52a147	-0.012855834
140	0x3d4415b5	0.047872264
141	0xbd0cedaa	-0.03440634
142	0xbce5f6cf	-0.02807179
143	0xbd45c27d	-0.04828118
144	0x3bdcbe83	0.006736578
145	0xbce45d29	-0.027876453
146	0xbcf486eb	-0.02984949
147	0xbd18fbad	-0.03734939
148	0xbc15da5a	-0.009146297
149	0x3ca6df8b	0.020370265
150	0xbd8607aa	-0.065444306
151	0x3d22c724	0.039740697
152	0x3d447721	0.047965173
153	0x3c94af78	0.018150076
154	0x3d3226df	0.0434941
155	0x3c870adc	0.01648467
156	0x3c1dec44	0.00963885
157	0x3d033c92	0.032040186
158	0xbbd93c30	-0.0066294894
159	0xbd93f404	-0.07224277
160	0xbc269d46	-0.010169333
161	0xbd053392	-0.032519884
162	0xbd17a96d	-0.03702681
163	0xbd2e588b	-0.04256491
164	0x3d22fd12	0.039792128
165	0x3d3fabf6	0.046794854
166	0xbd342e97	-0.043989744
167	0x3cbe8f9e	0.023261841
168	0x3cfc40e7	0.030792667
169	0xbcd559b3	-0.026043748
170	0x3d6e08ec	0.058113977
171	0xbcabda2e	-0.02097806
172	0x3d4d0e6f	0.050062593
173	0x3c9eb3bb	0.019372812
174	0xbd2cc64e	-0.042181306
175	0xbc93c7b6	-0.018039566
176	0xbc819344	-0.015817292
177	0x3b3cc06b	0.0028801213
178	0x3bc7c165	0.0060960525
179	0xbd35c268	-0.044374853
180	0xbd93524e	-0.07193433
181	0xbcf7ebf1	-0.030263873
182	0x3d63d968	0.055627257
183	0xbc1b2be5	-0.0094709145
184	0xbcbb36e1	-0.022853317
185	0x3b174055	0.0023079116
186	0xbd7b32c8	-0.061327726
187	0x3d5bbbfe	0.05364608
188	0x3d14ae09	0.036298785
189	0x3d05dc4e	0.032680802
190	0xbd54db77	-0.05196711
191	0xbd24e9ab	-0.040261906
192	0x3cb3d481	0.021951916
193	0x3bd60e1a	0.0065324428
194	0x3c8e4804	0.017368324
195	0x3c4089be	0.01175159
196	0xbd467fa2	-0.048461564
197	0xbd75542d	-0.05989473
198	0x3c11e83f	0.008905469
199	0xbd745c50	-0.05965835
200	0x3ccff289	0.025384204
201	0x3d67e74e	0.056617074
202	0x3bafc0eb	0.005363574
203	0xbd54125c	-0.05177532
204	0xbccc8755	-0.024966875
205	0x3d1fd0b8	0.03901741
206	0xbd80520f	-0.062656514
207	0x3c31a28b	0.010841976
208	0x3c47fc5f	0.012206166
209	0xbd8a68e3	-0.06758287
210	0xbb404343	-0.0029336966
211	0x3cffebe5	0.031240413
212	0x3d767218	0.060167402
213	0x3bf81597	0.007570933
214	0x3d2984d3	0.041386437
215	0x3cca339e	0.024682816
216	0xbd672bf9	-0.05643842
217	0xbb1787af	-0.0023121645
218	0xbcb63f1d	-0.022246892
219	0x3d5a1157	0.053239193
220	0x3cf59e58	0.02998273
221	0x3b1cba70	0.0023914836
222	0x3d32948b	0.043598693
223	0xbd6bfa1c	-0.05761157
224	0xbd5c2ff4	-0.05375667
225	0xbd392e19	-0.045209978
226	0xbce40d5f	-0.027838407
227	0xbd482d14	-0.048871115
228	0x3bee6a8a	0.007275884
229	0x3a740170	0.00093080755
230	0xbcfc8cb1	-0.030828806
231	0x3cca532a	0.024697859
232	0x3d43c0ae	0.047791176
233	0xbb5fba4e	-0.0034138146
234	0x3c0980f8	0.008392565
235	0xbd4693dd	-0.048480857
236	0xbd180814	-0.03711708
237	0x3d17a1b4	0.037019446
238	0xbd236e35	-0.039900023
239	0x3d016400	0.031589508
240	0x3c98f5ec	0.018671952
241	0xbd92af98	-0.07162398
242	0xbcc0c568	-0.02353163
243	0x3cd63264	0.026147075
244	0xbd3d523a	-0.046220995
245	0xbd3eaef8	-0.046553582
246	0x3cbb33da	0.022851873
247	0xbb333c67	-0.0027349235
248	0xbd06b862	-0.032890685
249	0xbd51e457	-0.051243152
250	0xbc13e935	-0.009027769
251	0x3c8d38b2	0.017238948
252	0x3c777325	0.015103136
253	0xbcfba070	-0.030716151
254	0x3d746bf7	0.059673276
255	0x3bc15423	0.0058999225

model2.4.bias f4 [64]
0	0xb9ab0fdb	-0.00032627475
1	0xbca4c477	-0.020113213
2	0x3c83b6f5	0.016078452
3	0x39f58ce1	0.00046835004
4	0xbc52c613	-0.012864607
5	0xbc3cb7b6	-0.0115184095
6	0xbd507a6e	-0.050898008
7	0xbcad6361	-0.021165552
8	0x3c467ed7	0.012115202
9	0x3d96a6b0	0.07356012
10	0xbbffc0cb	-0.007804965
11	0xbbe95ee6	-0.0071219085
12	0xbbadad79	-0.0053002206
13	0x3dc440bc	0.095826596
14	0x3bca2b88	0.00616974
15	0x3da55709	0.08073241
16	0x3d72d09c	0.059280977
17	0xbc830580	-0.015993834
18	0x3dfdce67	0.12392884
19	0xbd8b8747	-0.068129115
20	0xbd897954	-0.06712595
21	0x3d4cd4a0	0.050007463
22	0xbd05a630	-0.032629192
23	0x3bcc67d0	0.0062379614
24	0xbc7abc53	-0.015303689
25	0xbc7055a9	-0.0146688605
26	0x3c8eb364	0.017419524
27	0xbd7e7ede	-0.06213271
28	0xbd22e4ce	-0.039768986
29	0x3c8df1aa	0.017327148
30	0xbd9beca0	-0.07613492
31	0xbd82a3d3	-0.06378903
32	0xbc3c74d9	-0.011502468
33	0x3c0a59dc	0.008444276
34	0x3b7cb36e	0.0038559097
35	0x3bf94543	0.0076071336
36	0xbd7a963c	-0.06117843
37	0xbb8bd0a8	-0.004266817
38	0xbdbb8e5c	-0.09158012
39	0x3bfd9dde	0.0077397665
40	0x39a14d72	0.00030766014
41	0xbd34dcf9	-0.04415605
42	0x3bae5041	0.0053196256
43	0xbceffe2a	-0.029296
44	0xbb39252f	-0.0028250923
45	0xbd56831f	-0.05237114
46	0xbbe3db9a	-0.006953669
47	0xbd6214c5	-0.05519559
48	0xbba76ebe	-0.005109637
49	0xbb977e19	-0.0046231863
50	0x3d81da9c	0.063405246
51	0xbd93f3fa	-0.07224269
52	0x3cae9687	0.021312011
53	0x3d45d4ea	0.048298754
54	0xbd3c0399	-0.04590187
55	0x3c8f1d04	0.01746989
56	0xbb481ad3	-0.0030533567
57	0x3d8246c8	0.06361157
58	0x3d2900b7	0.041260447
59	0x3c86a5b3	0.016436433
60	0xbdb4977b	-0.08817955
61	0xbc7672f8	-0.015042059
62	0x389a3918	7.353927e-05
63	0xbd039596	-0.03212508

model2.6.weight f4 [4, 64]
0	0xbd0af2c2	-0.03392292
1	0xbdd753ca	-0.10514028
2	0x3d107ca4	0.035275117
3	0x3d9b34d5	0.07578436
4	0x3dde7731	0.10862578
5	0xbddf44e6	-0.10901813
6	0x3d2052b4	0.03914137
7	0x3d321be4	0.04348363
8	0x3ddfaf25	0.10922078
9	0xbdaee481	-0.085396774
10	0xbd4ff8cf	-0.05077439
11	0x3dc7ceb4	0.09756222
12	0x3e025df2	0.1273115
13	0x3da08cc9	0.07839353
14	0xbdc62eaa	-0.09676869
15	0xbe2cd987	-0.16879855
16	0x3d2463db	0.040134292
17	0x3d3443df	0.04401004
18	0xbd5a496c	-0.053292677
19	0xbc0ce79e	-0.008600144
20	0x3d2d7918	0.042351812
21	0xbda519a9	-0.08061535
22	0x3bcdbd5a	0.006278676
23	0xbe02d9a5	-0.12778337
24	0x3d438830	0.0477373
25	0x3d14802d	0.03625505
26	0xbdf1b3ff	-0.1180191
27	0xbd0f2b81	-0.034953598
28	0xbce4230c	-0.027848743
29	0x3d8033b9	0.06259865
30	0xb9c2cce6	-0.00037155225
31	0xbc05edcb	-0.00817437
32	0x3d9b0886	0.07569985
33	0x3bb8a9d4	0.0056354795
34	0xbd8332a0	-0.0640614
35	0x3db6bf51	0.089232095
36	0xba5e882d	-0.00084889197
37	0x3d17f4fe	0.037098877
38	0x3d0c73d8	0.034290165
39	0x3db80731	0.08985747
40	0xbe3215b4	-0.17391092
41	0x3cffef50	0.031242043
42	0xbd390608	-0.045171767
43	0xbd3f0fbb	-0.04664586
44	0x3d262896	0.04056605
45	0xbdb6184d	-0.08891354
46	0xbdc0b64f	-0.094097726
47	0x3c497ae4	0.012297366
48	0x3c448cee	0.011996491
49	0xbda30254	-0.079594284
50	0x3e28d520	0.1648755
51	0x3d129d47	0.035794523
52	0x3d2b4059	0.041809414
53	0x3db6cf41	0.08926249
54	0xbd185f9d	-0.03720056
55	0x3d639ed5	0.055571396
56	0x3c9437ca	0.018093009
57	0x3c18ffb9	0.009338313
58	0x3d430844	0.047615305
59	0x3d3d1d65	0.04617061
60	0x3d1063fa	0.035251595
61	0xbd3379cf	-0.043817338
62	0x3d28ae7e	0.041182034
63	0x3d066866	0.032814406
64	0xbcedb921	-0.02901894
65	0x3de460f2	0.11151303
66	0xbdd68c01	-0.104759224
67	0xbd17894e	-0.03699618
68	0xbcf507c3	-0.029910928
69	0xbd98bfe1	-0.07458473
70	0x3e013170	0.12616515
71	0x3e1ffd95	0.15624078
72	0x3d948979	0.07252783
73	0xbdc06864	-0.09394911
74	0xbd861f43	-0.065489314
75	0xbdb608d1	-0.088884
76	0x3e04aea9	0.12957253
77	0xbdafb8b2	-0.0858015
78	0xbd6fda78	-0.058557957
79	0x3ce6796b	0.028134068
80	0xbdde3d83	-0.10851576
81	0x3d716145	0.058930654
82	0x3c888f40	0.01666987
83	0xbdb9483c	-0.09046981
84	0xbae51d55	-0.0017480055
85	0xbe16a25d	-0.14710374
86	0xbda2c2ac	-0.07947287
87	0xbda92917	-0.082597904
88	0xbda3db96	-0.08000867
89	0x3d934358	0.07190579
90	0xbd7ad26e	-0.061235838
91	0x3d4556d7	0.04817852
92	0x3d9ba26d	0.0759934
93	0x3cc9644f	0.024583964
94	0xbdac6509	-0.084177084
95	0xbb8c6326	-0.0042842804
96	0x3df4154e	0.11918126
97	0xbdb8aaf7	-0.09016984
98	0xbcf7705e	-0.030204948
99	0x3e19dd4f	0.15025829
100	0xbdfdb252	-0.123875275
101	0x3c28d1bc	0.010303911
102	0xbd9a84ef	-0.07544886
103	0x3c4d9367	0.0125473505
104	0xbd147690	-0.036245883
105	0x3dcf566f	0.10123908
106	0xbdb4fcb2	-0.0883726
107	0x3d89a0bd	0.067201115
108	0x3e0e9881	0.13925363
109	0xbd84788a	-0.064683035
110	0x3d400fd2	0.046890087
111	0x3cf6fdbd	0.030150289
112	0xbd9fc1a4	-0.07800606
113	0x3d81cd45	0.0633798
114	0xbe1623e5	-0.1466213
115	0x3dede1e8	0.11615354
116	0x3c6e106a	0.014530281
117	0xbd84c530	-0.06482923
118	0xbd13ab11	-0.036051814
119	0x3d984cf5	0.074365534
120	0xbb432e8f	-0.002978239
121	0x3dd1a44b	0.102364145
122	0x3d18a935	0.037270743
123	0x3d04aec4	0.032393232
124	0xbd573944	-0.052544847
125	0x3d0f1e0e	0.03494077
126	0xbca9d5c4	-0.020731814
127	0xbc2279c4	-0.0099167265
128	0xbdc8a3ef	-0.09796893
129	0x3d5eab93	0.054362845
130	0x3dda0039	0.10644574
131	0xbdafe1cd	-0.0858799
132	0xbd6c0c9c	-0.057629213
133	0xbdaef3b2	-0.08542575
134	0xbdf80a6a	-0.12111361
135	0x3d12d083	0.035843384
136	0xbd479313	-0.048724245
137	0xbcb511da	-0.022103239
138	0x3e0117b8	0.12606704
139	0xbbf23a05	-0.0073921704
140	0xbd3f8e95	-0.046766836
141	0xbe000519	-0.12501945
142	0xbd9d4946	-0.076799914
143	0x3d1702d9	0.03686795
144	0xbcb2e426	-0.021837305
145	0x3d8b940e	0.068153486
146	0x3deb80df	0.114991896
147	0xbdcb2aff	-0.0992031
148	0xbe224e13	-0.15850095
149	0x3de5c9ee	0.11220156
150	0x3dc00314	0.09375587
151	0x3dd0c5ab	0.10193952
152	0x3d2e2d7e	0.042523853
153	0x3d1e0f41	0.038588766
154	0x3d9408de	0.07228254
155	0xbd1460f7	-0.036225285
156	0xbda4a9c6	-0.08040194
157	0xbd93c1cf	-0.072147004
158	0xbd39ebc5	-0.045390863
159	0xbd6ff071	-0.058578912
160	0x398f17ee	0.00027292914
161	0x3da19f85	0.07891754
162	0x3d15bead	0.036558796
163	0x3dc081dc	0.09399769
164	0x3d564cdb	0.05231939
165	0x3ce04cf6	0.027380448
166	0xbd83f69c	-0.064435214
167	0xbd786f41	-0.060652975
168	0xbe15edbc	-0.1464147
169	0x3c89c6e6	0.016818475
170	0x3e028328	0.12745345
171	0xbd0adfe9	-0.033904944
172	0x3d8aefe5	0.067840375
173	0xbd397c60	-0.04528463
174	0xbde7ef34	-0.11324921
175	0x3d6e4e49	0.058180127
176	0xbcfcbea0	-0.030852616
177	0xbd6958c9	-0.056969438
178	0xbe188b4a	-0.14896885
179	0xbbad3f64	-0.0052870978
180	0x3db00543	0.085947536
181	0x3d9609e6	0.07326107
182	0xbddbc7ec	-0.107314914
183	0x3db7f243	0.08981755
184	0x3e0a654d	0.13515206
185	0x3d4980ea	0.049195208
186	0x3d64b435	0.05583592
187	0xbe1aeeb8	-0.15130126
188	0xbdb733a9	-0.089454
189	0xbc6e6f67	-0.014552928
190	0x3c13bb86	0.009016877
191	0x3d211ca1	0.039333943
192	0xbce010ef	-0.027351825
193	0xbc77bd6e	-0.015120847
194	0x3c5dee1e	0.013545541
195	0xbd4d008c	-0.05004935
196	0x3d9c9b72	0.07646836
197	0xbd843359	-0.06455106
198	0xbda7f043	-0.08200123
199	0x3d9a1c1d	0.075248934
200	0xbd44b528	-0.048024327
201	0xbd1cee19	-0.038313005
202	0x3e1ed5e0	0.15511274
203	0xbda23d3b	-0.07921835
204	0xbd828680	-0.0637331
205	0xbe59d074	-0.21270925
206	0xbbed7f67	-0.0072478536
207	0xbe19d482	-0.15022472
208	0xbce49f4c	-0.02790799
209	0x3e441d43	0.19151787
210	0xbd851777	-0.06498616
211	0x3ce4d709	0.027934568
212	0x3da9dd6c	0.08294186
213	0xbb9ac8ca	-0.004723643
214	0xbd996c2a	-0.07491334
215	0xbd7ebcdc	-0.06219183
216	0xbd3fac74	-0.046795323
217	0xbba65c10	-0.0050768927
218	0xbd24621c	-0.040132627
219	0x3db9fd66	0.09081535
220	0xbd597f05	-0.05309965
221	0x3df91160	0.12161517
222	0x3d6bf85f	0.057609912
223	0xbd474881	-0.04865313
224	0x3d925d5e	0.07146715
225	0xbe17b916	-0.14816698
226	0xbd75e32e	-0.06003111
227	0x3c213597	0.009839437
228	0xbd94d68e	-0.072674856
229	0x3d00719f	0.031358358
230	0x3dcbc86e	0.09950338
231	0xbb3c94b3	-0.0028775155
232	0xbde9f8b1	-0.11424387
233	0x3da96842	0.08271839
234	0x3d898684	0.0671511
235	0x3d031e41	0.032011274
236	0xbd97d8b1	-0.074143775
237	0xbd0ccafe	-0.034373276
238	0x3d2ed82b	0.042686623
239	0xbd56e57e	-0.052464955
240	0xbdab6d2f	-0.083704345
241	0xbd12d497	-0.035847273
242	0xbd6c2572	-0.057652898
243	0xbd1c34a9	-0.03813616
244	0xbd66a1ad	-0.05630653
245	0xbdc2c4ca	-0.09510191
246	0xbd50504d	-0.05085783
247	0x3de1b718	0.110212505
248	0x3c82ec98	0.015981957
249	0xbd1956b5	-0.037436206
250	0xbd73e11f	-0.059540864
251	0xbe106b82	-0.14103511
252	0x3d17c97a	0.037057377
253	0x3d785441	0.060627226
254	0x3e1a06cb	0.15041654
255	0xbe1bbdd5	-0.15209134

model2.6.bias f4 [4]
0	0x3d08cc80	0.03339815
1	0x3d33a4f2	0.043858476
2	0xbda9c461	-0.082894094
3	0x3c82178e	0.015880372
