model_weight/actor/13_13 21:43:09 std 0.5 lr_actor_0.004- gamma_0.8 memory500 actor_weight.pth (torch, 646091 bytes, 9 tensors)

std f4 [4]
0	0x3dfd82cc	0.12378463
1	0x3e77813b	0.24170391
2	0x3e382f2c	0.17986745
3	0x3e154af7	0.14579378

model2.0.weight f4 [512, 24]
0	0xbe30d644	-0.17269236
1	0xbda414e7	-0.08011799
2	0x3b17e150	0.0023175068
3	0x3dca6e3e	0.09884308
4	0xbcd49add	-0.02595275
5	0xbe33dae5	-0.1756397
6	0x3e571824	0.21005303
7	0xbe45e782	-0.19326594
8	0xbda5f90f	-0.08104145
9	0x3d2b6c59	0.041851375
10	0x3e07b911	0.13254191
11	0xbd653a20	-0.055963635
12	0xbe0e1df8	-0.1387862
13	0xbd5deab7	-0.05417892
14	0x3e1cf147	0.15326415
15	0x3df43a4b	0.11925181
16	0xbc115062	-0.008869262
17	0x3dba6ce5	0.09102801
18	0xbd1ccfa7	-0.03828397
19	0x3df7ac88	0.120934546
20	0x3db995c2	0.09061767
21	0xbced2458	-0.028947994
22	0x3dd1041a	0.102058604
23	0xb99166b5	-0.00027733078
24	0x3e0c1270	0.13678908
25	0x3e408e63	0.18804316
26	0xbe449821	-0.19198658
27	0xbe2ab57f	-0.16670798
28	0x3e771542	0.24129203
29	0x3d93d094	0.072175175
30	0x3e0481ba	0.12940112
31	0x3dc79b11	0.097463734
32	0x3d2e1e2d	0.042509247
33	0xbd9fe216	-0.07806794
34	0xbdc75ebb	-0.09734865
35	0xbdebc12e	-0.115114555
36	0x3dee7345	0.1164308
37	0xbdf9402b	-0.12170442
38	0x3e4070d7	0.18793045
39	0x3dbe892f	0.093035094
40	0x3e2db8e7	0.16965066
41	0xbd818040	-0.0632329
42	0x3dcb2766	0.09919624
43	0xbda6d569	-0.081461735
44	0xbb2e4107	-0.0026589052
45	0x3db5ecd4	0.08883062
46	0x3c4c57e1	0.012472124
47	0x3dd4211a	0.10357876
48	0x3c778ab9	0.015108758
49	0xbde3d0b6	-0.11123793
50	0xbd5757b7	-0.052573886
51	0x3e3732c8	0.17890465
52	0x3d978b36	0.07399599
53	0xbdf0623e	-0.11737488
54	0x3e03ead3	0.12882547
55	0x3d6f6cef	0.058453497
56	0xbddbd739	-0.1073441
57	0x3e465bb1	0.19370915
58	0x3d9033e8	0.0704115
59	0xbe1c404c	-0.15258902
60	0x3e32f059	0.17474498
61	0x3db48df4	0.08816138
62	0xbe51fd5a	-0.20506802
63	0x3e03de0e	0.12877676
64	0x3dd6b172	0.10483064
65	0xbe34da27	-0.17661344
66	0x3c98907e	0.018623587
67	0x3e24b845	0.16085918
68	0xbe55ab49	-0.20866121
69	0x3e3ab2e3	0.18232302
70	0xbe3a460b	-0.18190782
71	0xbd95adc4	-0.07308534
72	0xbe6a514d	-0.22882576
73	0xbdccd2e5	-0.100011624
74	0xbc31ced6	-0.010852536
75	0x3e4f0116	0.20215258
76	0x3d8a8efd	0.06765554
77	0x3e219f0d	0.1578333
78	0x3ded2241	0.11578799
79	0x3e0b29ea	0.13590208
80	0x3e20ea1d	0.15714307
81	0xbc86aa3e	-0.0164386
82	0xbe38bffa	-0.18041983
83	0x3e0ca61a	0.13735238
84	0x3dc3a8c1	0.09553672
85	0xbe118aba	-0.14213076
86	0xbe36303c	-0.17791837
87	0xbe08791e	-0.13327453
88	0x3de8d70d	0.11369143
89	0x3e0c3b01	0.13694383
90	0xbddba037	-0.10723918
91	0x3d28d9dc	0.041223392
92	0xbcbc3246	-0.022973191
93	0x3dd294db	0.10282298
94	0x3e00deef	0.12585042
95	0xbdb039ee	-0.08604799
96	0xbdb8ac67	-0.09017258
97	0xbe3f9cbf	-0.18712138
98	0x3e72d9b2	0.23715857
99	0xbe17f76f	-0.14840482
100	0xbdab6406	-0.08368687
101	0xbd89ca23	-0.06728008
102	0x3e28e67c	0.16494173
103	0xbd9763d4	-0.073920876
104	0xbe138e9a	-0.14409867
105	0x3dfb9766	0.12284736
106	0xbe566b0f	-0.20939277
107	0x3be33cdf	0.0069347466
108	0xbe7a956a	-0.2447106
109	0x3e00c67e	0.12575719
110	0x3d0c9dff	0.034330364
111	0x3d679def	0.0565471
112	0x3d1cacf4	0.03825088
113	0xbe05ff19	-0.13085593
114	0xbe0a6865	-0.13516386
115	0xbda08eaa	-0.07839711
116	0xbd6fdf05	-0.058562297
117	0x3e060c65	0.13090666
118	0xbdd7891b	-0.10524198
119	0xbdfbbb50	-0.122915864
120	0x3d0c0778	0.03418681
121	0xbe199691	-0.14998843
122	0xbe81fd77	-0.2538869
123	0xbe1478df	-0.14499234
124	0x3e25ff1a	0.16210595
125	0x3d762dee	0.060102396
126	0xbe08beab	-0.13353984
127	0xbdfd93bf	-0.12381696
128	0xbd041449	-0.032245908
129	0xbc6ecd62	-0.014575334
130	0x3dedc59f	0.11609959
131	0xbd690f7e	-0.05689954
132	0x3dc368e0	0.09541488
133	0xbe829e88	-0.25511575
134	0xbe314a40	-0.1731348
135	0x3e001444	0.1250773
136	0x3cb8ecfd	0.022573942
137	0xbe217579	-0.15767469
138	0xbdd0ea84	-0.1020098
139	0xbdb354fd	-0.087564446
140	0x3b815cc2	0.003947825
141	0xbe848702	-0.25884253
142	0xbe51ed2c	-0.2050063
143	0x3e0c29c4	0.13687807
144	0x3e0f8f4b	0.14019506
145	0x3e4817e0	0.19540358
146	0xbe48ac8c	-0.19597071
147	0xbd1dc7dc	-0.03852068
148	0xbe93453b	-0.28763756
149	0x3de1714c	0.11007938
150	0xbe836d4c	-0.25669324
151	0x3d9e7a6f	0.07738196
152	0x3e7309b6	0.23734173
153	0x3e8f2daf	0.2796454
154	0xbc2c857f	-0.010529875
155	0x3d8c4cd8	0.06850594
156	0xbe26458c	-0.16237468
157	0x3de5f57a	0.112284616
158	0xbcacc428	-0.021089628
159	0xbd38c7a5	-0.04511227
160	0xbdf7255d	-0.12067673
161	0x3c002848	0.007822104
162	0x3cc46c97	0.02397756
163	0x3b3bf2bb	0.0028678614
164	0xbd304d41	-0.043042425
165	0x3d8cc982	0.06874372
166	0x3ccf5c5f	0.0253126
167	0xbdaa3b01	-0.08312035
168	0xbdd2b1d9	-0.10287828
169	0x3db9e574	0.09076968
170	0xbdf95cd6	-0.1217591
171	0x3e5d6ffe	0.21624753
172	0x3de3aaa2	0.1111653
173	0xbd999721	-0.07499529
174	0xbdf22466	-0.11823349
175	0x3dddfc19	0.108390994
176	0xbe3ea43e	-0.18617341
177	0xbd0283d3	-0.031864
178	0xbd04bbda	-0.03240571
179	0xbd018ffa	-0.031631447
180	0x3d9f3539	0.07773823
181	0xbdad7f25	-0.084715165
182	0x3d906352	0.07050194
183	0xbe4d6bc8	-0.20060647
184	0xbc44ecf8	-0.012019388
185	0xbe1c425e	-0.15259692
186	0xbe78bc48	-0.24290574
187	0xbcac6043	-0.021041995
188	0xbe00997a	-0.12558547
189	0xbe2fa1bb	-0.17151539
190	0x3cc4ec0b	0.024038335
191	0xbe0abc2b	-0.13548343
192	0xbd7fe9d3	-0.06247885
193	0xbd5a4ce3	-0.05329598
194	0xbe080dac	-0.13286465
195	0x3ca9611a	0.020676184
196	0x3e87e22e	0.2653975
197	0x3e086e08	0.13323224
198	0x3d01f1e8	0.03172484
199	0xbd408054	-0.046997383
200	0x3c9bfc5a	0.019041229
201	0x3db773c3	0.08957627
202	0xbe5086dc	-0.20363945
203	0x3dd1c226	0.10242109
204	0xbdbb9597	-0.091593914
205	0x3d3c298f	0.04593807
206	0xbdc748e8	-0.09730703
207	0x3d993db4	0.07482472
208	0xbd56e182	-0.052461155
209	0x3d012a64	0.031534567
210	0xbdcd447f	-0.1002283
211	0x3c7fec0e	0.015620245
212	0x3e3b58a4	0.18295532
213	0x3e00755e	0.12544772
214	0xbdee0f84	-0.11624053
215	0x3d946fd3	0.07247891
216	0x3dc9f83f	0.09861802
217	0x3e68cb6e	0.22733852
218	0x3e1fa96d	0.15591975
219	0x3e5064f1	0.20351006
220	0xbe0b4b16	-0.13602862
221	0x3dcf4654	0.10120836
222	0xbe7fcb07	-0.24979793
223	0x3c4c5d9c	0.01247349
224	0x3d50ac82	0.050945766
225	0x3daf0c35	0.0854725
226	0x3d72442a	0.059147038
227	0x3deb2630	0.11481893
228	0xbc5cc132	-0.013473796
229	0x3ca5678a	0.020190973
230	0x3e0c3fdb	0.13696234
231	0xbd4cf013	-0.05003364
232	0xbe22e2fe	-0.15906903
233	0xbe021891	-0.12704684
234	0xbe2cb7d5	-0.16867001
235	0x3e1633d0	0.14668202
236	0xbd1c7c01	-0.038204197
237	0xbe0d7f67	-0.13818131
238	0xbdd3425e	-0.10315393
239	0x3e53a204	0.20667273
240	0xbd80907a	-0.06277557
241	0x3e17ea13	0.14835386
242	0x3d80a474	0.06281367
243	0x3e615edd	0.22008844
244	0xbdca1eaa	-0.0986913
245	0xbe0189eb	-0.12650268
246	0xbd42c7a4	-0.047553673
247	0xbe04e35f	-0.1297736
248	0x3e4c8a8b	0.19974725
249	0x3e676901	0.2259865
250	0x3d9209dd	0.071307875
251	0x3e1d97be	0.15389916
252	0xbc8da8b7	-0.017292364
253	0x3dc22d02	0.09481241
254	0xbd8efe06	-0.06982045
255	0x3d81c20a	0.06335838

model2.0.bias f4 [512]
0	0xbdb101c0	-0.08642912
1	0xbe3f4377	-0.1867808
2	0xbe3c6e44	-0.18401438
3	0x3e1e476d	0.15456934
4	0xbb50d3a1	-0.0031864422
5	0x3c5295d2	0.012853103
6	0xbdbc3a82	-0.09190847
7	0x3dcbffd8	0.09960908
8	0xbe10df0b	-0.14147584
9	0x3db05753	0.08610406
10	0x3d97968c	0.074017614
11	0xbdd78d3d	-0.10524986
12	0xbe1be46a	-0.15223852
13	0xbe2875da	-0.16451207
14	0x3e2ff0e2	0.17181733
15	0x3d99bd54	0.075068146
16	0x3d94db7d	0.072684266
17	0xbd370b59	-0.044688556
18	0xbe1f10ea	-0.15533796
19	0xbe4a9ddc	-0.19786781
20	0x3d4098d8	0.047020763
21	0x3ceffcd5	0.029295364
22	0x3cacc858	0.021091625
23	0xbe277921	-0.16354801
24	0xbe205149	-0.15656008
25	0x3dff5d01	0.12468911
26	0x3dd82627	0.10554152
27	0xbc50351c	-0.012707975
28	0xbd595d33	-0.053067397
29	0xbd061c73	-0.032741975
30	0xbdceeba7	-0.10103541
31	0x3db38489	0.087655134
32	0xbe5cba83	-0.21555524
33	0x3dcc0cfd	0.09963415
34	0xbe22f660	-0.15914297
35	0x3d776d4e	0.060406975
36	0x3db25b1d	0.08708785
37	0xbd62f278	-0.055407017
38	0xbcc64d8c	-0.0242069
39	0x3d8a79dd	0.06761525
40	0x3e1de911	0.15420939
41	0x3d39e6e0	0.045386195
42	0x3e3e8afc	0.18607706
43	0xbe4466e4	-0.19179875
44	0xbdbf252e	-0.09333263
45	0xbda5cd71	-0.080958255
46	0xbb7c5497	-0.0038502568
47	0x3e15ff84	0.14648253
48	0x3d497b2a	0.049189724
49	0xbcda3101	-0.026634695
50	0xbb27a6a1	-0.0025581496
51	0x3d8ea41c	0.06964895
52	0xbe15cf66	-0.14629897
53	0xbd4f2926	-0.05057635
54	0x3cfee31d	0.031114155
55	0xbe4e0bba	-0.20121661
56	0x3e20097d	0.1562862
57	0xbd0ebf3d	-0.034850348
58	0xbdff38b8	-0.1246199
59	0x3e3999fb	0.18125145
60	0xbe481bcf	-0.19541858
61	0xbd0acd2e	-0.03388708
62	0x3e3a0e38	0.18169487
63	0xbda1ef93	-0.07907023
64	0x3d89e205	0.06732563
65	0xbe1742e3	-0.14771609
66	0x3b93fc39	0.0045161513
67	0xbe2c458c	-0.16823405
68	0x3bdcebff	0.006742
69	0x3dcb5021	0.09927393
70	0x3c2f4d12	0.010699527
71	0x3db9530a	0.090490416
72	0x3d1ffc07	0.03905871
73	0xbdb02168	-0.08600122
74	0x3e23e271	0.1600435
75	0xbe68117d	-0.22662921
76	0xbe20ca00	-0.15702057
77	0x3e6177d7	0.22018372
78	0xb9eda8a5	-0.00045329813
79	0x3e448fa0	0.19195414
80	0x3ddabb51	0.10680259
81	0xbe062479	-0.1309985
82	0x3e3a9e5f	0.18224476
83	0xbdd237ee	-0.10264574
84	0xbd3b7acc	-0.045771405
85	0xbda2a7ff	-0.07942199
86	0x3e37546d	0.179033
87	0xbd21ab8f	-0.03947025
88	0xbd4de3f6	-0.05026623
89	0xbdbfa09d	-0.093568064
90	0x3e085555	0.13313802
91	0xbe09de4b	-0.13463704
92	0x3d548058	0.05188021
93	0x3ccb0223	0.024781292
94	0xbdadd459	-0.08487768
95	0xbd965ca7	-0.07341891
96	0xbddbb8ea	-0.10728629
97	0xbd0a9fbe	-0.03384375
98	0xbe137dab	-0.14403407
99	0x3e19a7a5	0.15005358
100	0xbe2db063	-0.16961817
101	0xbd2f5bf5	-0.042812306
102	0x3de814fb	0.11332127
103	0x3cc9fe25	0.024657318
104	0x3e3dd4da	0.18538228
105	0x3da1c082	0.07898046
106	0xbe0a0b38	-0.13480842
107	0x3d35a438	0.044346064
108	0xbc1b1d58	-0.009467445
109	0xbe421bc5	-0.18955906
110	0x3d52de41	0.05148149
111	0xbe0d4918	-0.13797414
112	0xbda5ceb0	-0.08096063
113	0xbe41961b	-0.18904917
114	0x3e178b41	0.14799215
115	0x3e11d1d2	0.14240196
116	0xba0f4c45	-0.0005466382
117	0xbd8cb8b7	-0.06871169
118	0xbc8ff62c	-0.017573439
119	0x3d6b7b15	0.057490427
120	0xbddefdae	-0.10888229
121	0xbdd7995e	-0.10527299
122	0xbe3ffc90	-0.18748689
123	0xbe48fad1	-0.19626929
124	0x3e0a9433	0.13533096
125	0xbe1d748b	-0.15376489
126	0x3e38afa7	0.18035756
127	0xbe298cab	-0.16557567
128	0xbd81da00	-0.06340408
129	0x3ca3810d	0.019958997
130	0xbd80ed6c	-0.06295285
131	0x3cb61527	0.022226883
132	0x3e1137e2	0.14181474
133	0x3e59b786	0.21261415
134	0xbd06aba7	-0.032878544
135	0x3d8423fc	0.06452176
136	0xbe5b859d	-0.21437688
137	0x3d364e46	0.04450824
138	0xb93457c3	-0.00017198831
139	0x3e152575	0.1456507
140	0x3a19a288	0.0005860706
141	0xbe2609d6	-0.1621469
142	0x3e305e6b	0.17223518
143	0xbd5bbaa1	-0.05364478
144	0xbe235d64	-0.15953594
145	0xbe643801	-0.22286989
146	0x3ccbc9e2	0.024876539
147	0xbdd142e9	-0.1021784
148	0x3d85d1c2	0.06534149
149	0x3c635e09	0.0138774
150	0xbe2f1092	-0.17096165
151	0xbe1183f5	-0.14210494
152	0x3a7f2cad	0.0009734135
153	0xbd368fa4	-0.04457058
154	0x3dfb1ff1	0.12261952
155	0x3c05cbce	0.008166267
156	0x3c91a50b	0.017778894
157	0x3e016a5f	0.12638234
158	0x3e05b73f	0.13058184
159	0xbd79e43d	-0.06100868
160	0x3d7a8771	0.061164323
161	0xbd00e5f5	-0.031469304
162	0xbe016a0f	-0.12638114
163	0xbd5895a9	-0.052877102
164	0xbe06060c	-0.13088244
165	0xbc7bd8dc	-0.0153715275
166	0x3bfc4b0f	0.0076993774
167	0xbbd93c47	-0.0066295
168	0xbc275567	-0.010213233
169	0x3e1bef70	0.15228057
170	0xbe1241fb	-0.14282982
171	0x3dbd18f9	0.09233279
172	0x3e136c03	0.14396672
173	0xbe359953	-0.1773427
174	0x3db04815	0.086074986
175	0xbe244308	-0.16041195
176	0xbda1802a	-0.078857735
177	0xbdee1c5a	-0.116265014
178	0x3e110bf1	0.14164712
179	0x3b91e869	0.0044527543
180	0xbe4c0632	-0.19924238
181	0xbda0138f	-0.078162305
182	0x3d926ae2	0.071492925
183	0xbde42fb3	-0.111419104
184	0x3d9b17a1	0.07572866
185	0xbe3391be	-0.17536065
186	0xbae44ac8	-0.0017417306
187	0xbe47c19b	-0.19507448
188	0x3e1426d9	0.14467944
189	0xbbb8453c	-0.0056234878
190	0x3df2230b	0.1182309
191	0x3cf20f62	0.02954835
192	0xbc452217	-0.012032053
193	0xbd0a5a33	-0.033777427
194	0xbdabcddd	-0.08388875
195	0xbdfb67ba	-0.12275644
196	0x3dadc8be	0.08485554
197	0xbe5e3200	-0.21698761
198	0xbd2e3f78	-0.042540997
199	0x3e4c77d1	0.19967581
200	0x3e1eee90	0.15520692
201	0xbc8b7067	-0.017021371
202	0x3dbacc3a	0.091209844
203	0x3e0e39a2	0.13889173
204	0xbe1934c4	-0.14961535
205	0xbe27eddb	-0.16399328
206	0xbdbbbc2c	-0.0916675
207	0x3deeadae	0.116542205
208	0xbdfb936a	-0.122839764
209	0x3c0d93ac	0.008641165
210	0xbe3c24a8	-0.18373358
211	0xbd7e7f5d	-0.06213318
212	0xbd981df9	-0.07427592
213	0xbe683b7a	-0.22678939
214	0x3e283fa3	0.16430525
215	0xbd17c70f	-0.03705507
216	0x3c1c0c8f	0.009524479
217	0xbd771443	-0.060322057
218	0xbcb67e36	-0.022276979
219	0x3e08af66	0.13348159
220	0xbe267ec9	-0.16259302
221	0x3e22c180	0.15894127
222	0xbe20bf4d	-0.15697975
223	0xbd7642ff	-0.060122486
224	0xbcb4acd5	-0.022055069
225	0x3e1b824f	0.15186428
226	0xbdf46331	-0.11932982
227	0x3da88628	0.08228713
228	0x3dcc7fb5	0.09985296
229	0xbc508e25	-0.012729202
230	0x3d086bc3	0.033305895
231	0xbd0cd9b2	-0.034387298
232	0x3e1a1f2b	0.15050952
233	0x3e338080	0.17529488
234	0xbe2e8a19	-0.17044868
235	0x3dd72391	0.10504831
236	0x3d61a827	0.055092003
237	0x3d8b7207	0.06808858
238	0x3d6daa75	0.05802389
239	0x3db8eada	0.090291694
240	0xbd790353	-0.060794186
241	0x3e0330c0	0.12811565
242	0x3df743dd	0.12073491
243	0xbd5e9bd1	-0.054347817
244	0xbe4c5487	-0.1995412
245	0xbdce297b	-0.100665055
246	0xbe4f620a	-0.20252243
247	0x3c69fb0d	0.014281047
248	0xbe30c597	-0.17262875
249	0xbdfe02c3	-0.124028705
250	0xbe130c15	-0.14360078
251	0xbddd9125	-0.108187
252	0x3b6e87d1	0.003639687
253	0xbe26338a	-0.16230598
254	0xbdb229c4	-0.086993724
255	0x3e0572e7	0.13032113

model2.2.weight f4 [256, 512]
0	0x3b2fdddf	0.0026835126
1	0x3b0e87cd	0.0021748424
2	0xbb9114b4	-0.004427517
3	0x3d6c30a3	0.05766357
4	0x3c1d9da7	0.009620107
5	0x3d11addf	0.035566207
6	0x3c1c53d4	0.009541471
7	0xbc3a6459	-0.011376464
8	0x3d9b49fe	0.07582472
9	0xbc5ee7b0	-0.013605043
10	0x3cb41c05	0.021986017
11	0x3d8c670e	0.068555936
12	0xbc7035dc	-0.014661279
13	0x3d833caa	0.06408055
14	0xbce9e1ba	-0.028550018
15	0xbd202f29	-0.039107475
16	0x3d1deea9	0.038557682
17	0x3dbc8a50	0.092060685
18	0xbd32598f	-0.04354244
19	0x3d957a31	0.07298697
20	0x3dc2ccd4	0.09511724
21	0xbcf0456b	-0.029329976
22	0x3d97576d	0.07389722
23	0x3d569324	0.052386418
24	0x3c7b3425	0.015332256
25	0x3b037824	0.0020060623
26	0xbd3fc3c5	-0.04681756
27	0x3da80e32	0.082058325
28	0x3d9d15db	0.07670184
29	0x3da12dce	0.07870065
30	0xbd08b3b1	-0.033374492
31	0x3d9f5eca	0.077817515
32	0x3bcf14e9	0.0063196314
33	0x3b82f405	0.0039963746
34	0x3c29a9bd	0.01035541
35	0x3baf1835	0.005343462
36	0x3d9b0447	0.07569175
37	0x3c70c95f	0.014696448
38	0x3c741acc	0.014898967
39	0xbc756dc0	-0.01497978
40	0xbbf243e4	-0.007393347
41	0x3ab7cb28	0.0014022337
42	0x3da44303	0.08020594
43	0x3d9f974b	0.07792529
44	0x3d0fa683	0.035070907
45	0x3da3026b	0.079594456
46	0x3cd5ca86	0.026097547
47	0xbc376347	-0.011193103
48	0x3d828153	0.06372323
49	0xbc0b2816	-0.008493444
50	0x3d9c307d	0.07626436
51	0xbd2711fa	-0.04078863
52	0x3a9963c8	0.0011702711
53	0x3ce5e38d	0.028062606
54	0x3a1d1f1d	0.0005993711
55	0xbcdbcbe7	-0.026830627
56	0xbd4f488d	-0.0506063
57	0x3d247bf0	0.04015726
58	0xbc5362bd	-0.012901959
59	0x3cba0b63	0.022710508
60	0x3c1e7996	0.009672543
61	0xbac63b69	-0.0015123907
62	0xbcab8d6c	-0.020941459
63	0x3d0cd674	0.034384206
64	0x3cf1010a	0.02941944
65	0x3c88bd02	0.016691688
66	0x3d7e96d8	0.062155575
67	0xbcd789f8	-0.026310906
68	0x3d44127f	0.0478692
69	0xbbe89ecb	-0.0070990077
70	0xbc027e75	-0.00796472
71	0xbd42728d	-0.047472525
72	0x3da9c663	0.082897924
73	0xbbed66a3	-0.0072449013
74	0xbb0f3cb5	-0.0021856253
75	0x3d0f56a1	0.034994725
76	0x3d9af757	0.075667076
77	0x3d32b4e1	0.04362953
78	0x3d715ce8	0.058926493
79	0x3d03bb19	0.032160852
80	0x3de38cbc	0.11110827
81	0x3e0dcbe7	0.13847314
82	0x3d91bb26	0.07115774
83	0xbccb7848	-0.024837628
84	0xbd243a23	-0.040094506
85	0x3bdf0498	0.0068059675
86	0xbdae48b9	-0.085099645
87	0x3dd1e2ae	0.10248314
88	0x3c6359b2	0.0138763655
89	0x3d9797f0	0.07402027
90	0x3e030a0f	0.12796806
91	0xbca98751	-0.020694407
92	0xbc62553f	-0.01381427
93	0xbcebf7ef	-0.028804747
94	0x3d62952f	0.055318054
95	0x3d3e94e7	0.046528723
96	0x3c7e968f	0.015538826
97	0xbb804363	-0.003914283
98	0xbd35f475	-0.044422586
99	0x3db79b0b	0.08965119
100	0x3d850dac	0.06496748
101	0x3c0b473c	0.00850087
102	0x3d06ba67	0.03289261
103	0x3d8d27f9	0.0689239
104	0x3db3a99e	0.08772586
105	0x3e01dbb2	0.12681463
106	0x3dbcd65f	0.092205755
107	0xbcd92d75	-0.026510933
108	0x3dafdcc0	0.085870266
109	0x3d8373be	0.064185604
110	0x3d032c24	0.032024518
111	0x3da4fa62	0.08055569
112	0xbb872d73	-0.004125291
113	0xbd86b274	-0.06577006
114	0x3ce68011	0.028137239
115	0x3daa2517	0.083078556
116	0x3df20cff	0.11818885
117	0x3d36a652	0.04459221
118	0xbcfda2ba	-0.030961383
119	0x3d0eac98	0.034832567
120	0x3d484da5	0.048902173
121	0xbd1747b4	-0.036933616
122	0xbbdcf447	-0.0067429873
123	0xbc9d7e13	-0.019225156
124	0x3dd5ee3a	0.10445829
125	0xbc5d72f9	-0.013516181
126	0x3e128804	0.14309698
127	0xbc98c15f	-0.018646894
128	0xbd0f1c81	-0.034939293
129	0x3dbfbcaa	0.09362157
130	0x3c8324ec	0.016008817
131	0x3d46a50f	0.048497256
132	0xbced7e3b	-0.028990855
133	0x3d9e6f25	0.07736043
134	0x3d4dce33	0.050245475
135	0x3ca5ce11	0.020239862
136	0x3d58a1c9	0.052888665
137	0x3ce76e74	0.02825091
138	0xbd4522a2	-0.04812873
139	0x3cb20b81	0.021734001
140	0x3d45d03b	0.048294287
141	0x3d54dd00	0.051968575
142	0x3cfbd667	0.030741883
143	0xbd74ed7b	-0.05979679
144	0x3d1c7941	0.038201574
145	0x3d074f34	0.03303452
146	0x3ce68df2	0.028143857
147	0x3cae8f99	0.021308707
148	0x3afc0592	0.0019227734
149	0x3c83393a	0.016018499
150	0x3c904426	0.01761062
151	0x3da4745f	0.080300085
152	0x3da799e5	0.0818365
153	0x3d1ed0a1	0.038773183
154	0x3c01a4a4	0.007912789
155	0x3d2e9ae9	0.042628203
156	0x3d37958d	0.044820357
157	0xbd237a8f	-0.039911803
158	0x3dc8b19b	0.097995006
159	0x3db5fa13	0.088855885
160	0x3d809f4d	0.06280384
161	0x3d2dcfc7	0.04243448
162	0xbd99d921	-0.07512117
163	0xbce6b3b9	-0.02816187
164	0x3cd67388	0.026178136
165	0x3d423009	0.04740909
166	0x3db3fc0b	0.08788308
167	0xbce2c613	-0.02768234
168	0x3b3e6d66	0.0029056906
169	0x3d7e978f	0.062156256
170	0xbd900712	-0.070325986
171	0x3ca4c8f0	0.020115346
172	0x3d80f127	0.06295996
173	0xbc927c82	-0.017881636
174	0x3d308417	0.04309472
175	0x3bf9b9a8	0.007621009
176	0x3dcb155d	0.09916184
177	0x3da48b17	0.08034342
178	0xbd1cc08f	-0.038269576
179	0xbd15ac05	-0.036541004
180	0x3cc670d0	0.024223715
181	0x3d24f006	0.040267967
182	0x3c6b3ed8	0.014358245
183	0x3b9be5ee	0.0047576344
184	0x3c455b9d	0.012045768
185	0x3cddef9f	0.0270918
186	0x3dc2a5e5	0.09504298
187	0x3d5d656d	0.054051805
188	0x3df3ca46	0.11903815
189	0x3c2cead8	0.010554038
190	0x3d3ddf71	0.04635567
191	0x3cf5040d	0.029909158
192	0x3d2b085d	0.041756023
193	0x3df7218c	0.120669454
194	0x3d6cd320	0.057818532
195	0x3ceb1bd2	0.02869979
196	0x3cd4e8ac	0.025989853
197	0x3dc2fd06	0.09520917
198	0xbd5aa98e	-0.053384356
199	0x3cc57440	0.024103284
200	0xbba62dd8	-0.005071383
201	0x3d23bce2	0.039975055
202	0xbcbdea22	-0.023182932
203	0x3c508115	0.012726088
204	0x3d298415	0.04138573
205	0xbd2735ed	-0.040822912
206	0xbd21b82b	-0.039482277
207	0xbd8641ef	-0.065555446
208	0xbc9171bb	-0.017754426
209	0x3d1c0c68	0.03809777
210	0x3d269516	0.040669523
211	0xbd3969da	-0.045266964
212	0xbccc201e	-0.024917658
213	0x3c342891	0.010996
214	0x3d052788	0.032508403
215	0x3cf2a5a8	0.029620007
216	0xbd3704c5	-0.044682283
217	0xbcbe88a2	-0.023258511
218	0x3c655ea2	0.013999613
219	0x3d7993b3	0.060931873
220	0x3c750e76	0.014957061
221	0x3c7e15f6	0.015508166
222	0x3d252db6	0.040326796
223	0x3dabca4a	0.08388193
224	0x3cb1479e	0.021640595
225	0xbd3c97c7	-0.046043184
226	0x3d07de5c	0.033171043
227	0x3cc0b8a9	0.023525553
228	0x3c43926a	0.011936763
229	0xbcbc5cbd	-0.02299344
230	0x3db18b8c	0.086691946
231	0x3cb9caf9	0.022679793
232	0xbd74e4ca	-0.059788503
233	0x3ce7e84f	0.028309016
234	0x3d02fa25	0.031976838
235	0x3bb890e8	0.0056325085
236	0x3d37c176	0.044862233
237	0x3cd79efa	0.026320923
238	0xbb04317d	-0.00201711
239	0x3d9878d8	0.07444924
240	0x3d65f759	0.056144092
241	0x3d0a3c62	0.03374899
242	0x3d626e9a	0.05528126
243	0x3d6304e3	0.055424582
244	0x3d4983b5	0.04919787
245	0xbbcb3a58	-0.0062020235
246	0x3c9e5b70	0.01933071
247	0x3d0e4265	0.034731288
248	0x3d350f3b	0.044203978
249	0x3cc14267	0.023591233
250	0x3da7494a	0.08168276
251	0xbd030748	-0.031989366
252	0x3c8a2fa5	0.016868422
253	0x3d3a9a03	0.045557033
254	0x3c592524	0.013253484
255	0x3daac5f0	0.08338535

model2.2.bias f4 [256]
0	0x3cd2ce55	0.025733152
1	0x3d1f876a	0.0389475
2	0x3d95c1ca	0.07312353
3	0x3c091b45	0.008368318
4	0x3c29f9d2	0.010374503
5	0x3d44172e	0.04787367
6	0x3ca12ac7	0.019673718
7	0xbd1e5e2b	-0.038664024
8	0x3cd62341	0.026139857
9	0x3b721741	0.003694013
10	0xbd57d5a6	-0.052693985
11	0x3d3f81d9	0.04675469
12	0x3d1b043d	0.03784584
13	0xbb465059	-0.0030260293
14	0xbd31641f	-0.043308374
15	0xbc992483	-0.018694168
16	0x3b783f9f	0.0037879718
17	0xbd1b4ff7	-0.037918057
18	0xbd45d274	-0.048296407
19	0xbc8a1896	-0.016857427
20	0x3ad09566	0.0015913665
21	0x3d95842f	0.07300603
22	0x3cfc20a5	0.030777285
23	0xbc1d70e4	-0.009609435
24	0x3cdeab35	0.027181247
25	0x3cf72d8d	0.030173087
26	0x3bc28c1e	0.0059371134
27	0xbd4806cb	-0.048834603
28	0xbd4ae469	-0.049534235
29	0xbd1ce362	-0.038302787
30	0xbb31c8e3	-0.0027127794
31	0x3cfa3789	0.03054406
32	0x3d660c5b	0.056164127
33	0x3bed5c5d	0.0072436766
34	0xbc1c3c03	-0.009535792
35	0xbc585415	-0.0132036405
36	0xbcf98201	-0.030457499
37	0xbd3c77d9	-0.046012733
38	0xbd574db4	-0.052564338
39	0xbcfc7c47	-0.030820979
40	0xbd428180	-0.047486782
41	0x3b7a2f48	0.0038175154
42	0xbcaf7530	-0.021418184
43	0xbc5049d4	-0.0127129145
44	0xbd1ad8e8	-0.037804514
45	0xbd0815ef	-0.033224043
46	0xbd938284	-0.07202628
47	0x3d2ad709	0.04170898
48	0x3bf8c748	0.0075921156
49	0x3c26c4a7	0.0101787215
50	0x3c2b4f10	0.010455862
51	0xbb7ce3b1	-0.0038587863
52	0xbd2ab297	-0.041674223
53	0xbc97bb65	-0.018521974
54	0xbc6afaa1	-0.014341981
55	0x3d12c39b	0.035831075
56	0x3c8249be	0.015904304
57	0xbc95de7d	-0.018294567
58	0x3ccc9ada	0.024976183
59	0x3d19fd6e	0.037595205
60	0xbc956b0d	-0.018239522
61	0x3cf048a6	0.029331516
62	0x3cbde975	0.02318261
63	0xbc046983	-0.008081797
64	0xba5c594c	-0.000840564
65	0xbce08992	-0.027409349
66	0xbbc50b3d	-0.0060133026
67	0x3c1826c5	0.009286587
68	0x3d4b26b1	0.049597446
69	0x3d3a2a51	0.045450512
70	0x3c71c893	0.014757293
71	0x3b4d01ce	0.0031281593
72	0x3cd97058	0.026542827
73	0xbcc98c18	-0.024602935
74	0xbbaa86c2	-0.0052040527
75	0xbd00b149	-0.031419072
76	0x3d13333b	0.03593753
77	0x3d1ca420	0.03824246
78	0xbd17d3ac	-0.0370671
79	0x3cf291ba	0.029610503
80	0x3d5f4586	0.054509662
81	0xbbe6264d	-0.007023609
82	0x3c473aa2	0.012159975
83	0x3c9008af	0.017582266
84	0x3c3a76ad	0.011380834
85	0x3be28471	0.006912761
86	0xbb56e014	-0.003278737
87	0x3d04ff33	0.03246994
88	0x3cbe8d5d	0.023260767
89	0xbc745684	-0.014913205
90	0x3c5dc84a	0.013536522
91	0xbd3d2286	-0.046175502
92	0xbcbbabba	-0.022909034
93	0x3cfdea84	0.030995615
94	0xbd363c81	-0.044491295
95	0xbbe844ef	-0.0070882956
96	0x3cf9ea61	0.030507268
97	0xbd75b19b	-0.05998383
98	0xbb2bea0e	-0.0026232037
99	0x3c05fe3e	0.008178292
100	0xbd3d40e2	-0.046204455
101	0x3c827741	0.015926005
102	0xbc8d3d6b	-0.0172412
103	0xbd80a50f	-0.062814824
104	0xbaa5af09	-0.0012640666
105	0xbc30d38e	-0.010792626
106	0xbc4f9b7f	-0.0126713505
107	0x39edee6e	0.00045381807
108	0xbc4294e6	-0.0118763205
109	0xbd2bd496	-0.041950785
110	0x3d0f4e70	0.034986913
111	0x3c5b27e3	0.013376209
112	0x3d733671	0.05937809
113	0xbc239c12	-0.0099859405
114	0x3c4ffcda	0.012694562
115	0x3d0c1e6d	0.034208704
116	0x3c78dd48	0.015189476
117	0x3d0686a1	0.032843236
118	0xbce0c576	-0.027437907
119	0xbc9bcf5f	-0.01901978
120	0x3b2655a8	0.0025380645
121	0xbcaee793	-0.021350658
122	0xbd436bab	-0.047710102
123	0xbc9f919b	-0.01947861
124	0xbc6c5c92	-0.014426367
125	0x3cc9ccb3	0.024633741
126	0x39f3a078	0.0004646813
127	0x3d00ecc2	0.03147579
128	0xbc174994	-0.009233851
129	0x3badae76	0.0053003384
130	0x3d0b5cb9	0.034023974
131	0xbd875a9f	-0.066090815
132	0xbd3734a6	-0.044727944
133	0xbc3822bd	-0.011238751
134	0x3ade444f	0.0016957613
135	0x3c70f093	0.014705795
136	0xba749389	-0.0009329846
137	0xbb6ec521	-0.0036433416
138	0x3cab674e	0.020923283
139	0xbd052a9b	-0.032511335
140	0xbcd693a5	-0.02619345
141	0xbcce650d	-0.02519467
142	0x3c912496	0.01771764
143	0x3d3299f9	0.04360387
144	0xbd1a4a92	-0.037668772
145	0xbc8897fe	-0.016674038
146	0x3cd1eee7	0.025626613
147	0xbcf88aba	-0.030339587
148	0xbc2e2138	-0.010628037
149	0x3cd17bd8	0.025571749
150	0xbb2d8e55	-0.0026482542
151	0xbd5a02c6	-0.0532253
152	0x3c430b44	0.011904541
153	0xbd3939f7	-0.045221295
154	0xbc0aa092	-0.0084611345
155	0xbd82dfbf	-0.063903324
156	0xbcdb7bfe	-0.026792523
157	0x3aa600c9	0.0012665029
158	0xbcda19ca	-0.026623625
159	0x3c66f2fc	0.014096018
160	0xbccda6e6	-0.025103997
161	0xbce62eac	-0.028098427
162	0xbd3c21dc	-0.04593073
163	0x3a081e35	0.00051924895
164	0x3cd15789	0.025554435
165	0xbd124710	-0.0357123
166	0xbd22181d	-0.039573777
167	0xbb28ea7a	-0.0025774525
168	0xbcc7ac74	-0.024374224
169	0x3bfea8ca	0.007771586
170	0x3d45453f	0.04816174
171	0x3cb66a90	0.02226761
172	0xbd1e02a9	-0.038576756
173	0x3c320f22	0.010867866
174	0xbd3c9e16	-0.0460492
175	0x3c90b36e	0.017663684
176	0xbd679893	-0.05654199
177	0x3c863f3b	0.016387573
178	0xbd1260ec	-0.035736963
179	0xbc6a1abd	-0.014288601
180	0xbcbfd3af	-0.023416368
181	0x3d5560fe	0.052094452
182	0x3d03977e	0.032126896
183	0xbc43c25c	-0.011948194
184	0x3c977b82	0.01849151
185	0x3d4a5f7b	0.049407464
186	0xbc52ff5d	-0.012878266
187	0xbc7a3dd9	-0.015273535
188	0xbb1da4ed	-0.0024054602
189	0x3baa297e	0.0051929345
190	0x3c8a1b23	0.016858643
191	0xbbd86be8	-0.0066046603
192	0x3a54299c	0.00080933585
193	0xbd0d4313	-0.034487795
194	0x3d5c5671	0.053793374
195	0xbd28bc6b	-0.041195314
196	0xbd5210b4	-0.05128546
197	0x3c35ba3b	0.011091764
198	0x3c7026df	0.014657705
199	0x3a8cf7e5	0.0010755031
200	0xbd37919b	-0.044816595
201	0xbcd43f3f	-0.025909064
202	0xbd10ce3f	-0.03535294
203	0xbd3c1017	-0.045913782
204	0xbd0193ef	-0.03163522
205	0x3c0d8a77	0.00863897
206	0xbd344ac5	-0.04401662
207	0x3d3b1f68	0.04568425
208	0x3d77e8a0	0.060524583
209	0xbd647f34	-0.055785373
210	0x3beb70d2	0.00718508
211	0x3d56f36e	0.052478246
212	0xbc2d268a	-0.01056827
213	0x3cb224c0	0.02174604
214	0xbd450a20	-0.04810536
215	0xbb132635	-0.0022453193
216	0x3c2d7f07	0.010589368
217	0xbc0cf73e	-0.008603869
218	0xbd0d8752	-0.03455288
219	0xbc84fec2	-0.01623476
220	0x3d00ab5e	0.03141343
221	0xbc52ce4e	-0.01286657
222	0xbce60c1d	-0.028081948
223	0x3b5087a4	0.003181913
224	0xbc53169f	-0.012883811
225	0xbd2c29b5	-0.042031962
226	0xbc19e9f4	-0.009394158
227	0xbd105eb8	-0.03524658
228	0xbc93b05c	-0.01802843
229	0x3cb352b5	0.021890024
230	0x3a2af85d	0.00065219944
231	0x3c832837	0.016010387
232	0xbc817770	-0.015804023
233	0xbd31f558	-0.04344687
234	0x3d03ed66	0.032208823
235	0xbc2198a7	-0.009863055
236	0x3c631e84	0.013862256
237	0xbcb23db4	-0.021757938
238	0xbc8db1db	-0.017296722
239	0xbcbd1c9a	-0.023084927
240	0x3d3d7a68	0.046259314
241	0x3bfdf811	0.007750519
242	0xbd2efe37	-0.042722907
243	0xbb3b306d	-0.00285628
244	0xbc61a964	-0.013773296
245	0x3b8020a5	0.0039101415
246	0x3bdae1a6	0.0066797314
247	0xbcb954f4	-0.022623517
248	0xbc8a4474	-0.016878344
249	0xbd6d1c05	-0.05788805
250	0x3cd5c009	0.026092546
251	0x3c8ff000	0.017570496
252	0x3ce4d6d8	0.027934477
253	0xbb9728b4	-0.0046130065
254	0x3c914420	0.01773268
255	0x3c166ee1	0.009181709

model2.4.weight f4 [64, 256]
0	0x3c2ac393	0.010422605
1	0x3be73b07	0.007056597
2	0x3bc08d60	0.005876228
3	0xbb923da1	-0.004462913
4	0x3c77b231	0.015118168
5	0xbd14b572	-0.036305852
6	0x3cacb80f	0.02108386
7	0xbd015c52	-0.031582184
8	0xbcc91e18	-0.024550483
9	0xbd310716	-0.04321965
10	0x3d385cb8	0.0450103
11	0xbc1b2ccf	-0.009471132
12	0x3a31593e	0.0006765312
13	0x3d6c4035	0.05767842
14	0xbd420e33	-0.047376823
15	0x3cb667f9	0.022266375
16	0xbd795422	-0.06087125
17	0xbd637a96	-0.05553683
18	0x3d0dacb8	0.034588546
19	0xbd2d0afa	-0.042246796
20	0x3b11dd28	0.0022257064
21	0x3a5ad442	0.0008347669
22	0x3b8c440e	0.0042805737
23	0xbce2bfe5	-0.027679393
24	0x3cb588af	0.022159902
25	0x3c89a5c5	0.016802678
26	0x3d678822	0.05652631
27	0xbd35fc9b	-0.044430356
28	0xbd02c6e9	-0.031927977
29	0xbc7d9359	-0.015477025
30	0x3d1a0c67	0.037609484
31	0x3c840e9f	0.016120253
32	0x3c94ed0b	0.018179437
33	0x3c84a58e	0.016192224
34	0xbd18735a	-0.037219383
35	0xbd0cc7a1	-0.03437007
36	0x3b0e4dad	0.002171378
37	0xb88efb4a	-6.817894e-05
38	0xbc8a5a82	-0.01688886
39	0xbd5d3913	-0.05400951
40	0xbd53cf5e	-0.051711433
41	0xbcb22595	-0.021746436
42	0x3c8be5e8	0.017077401
43	0x3d34981f	0.044090386
44	0xbcda48b0	-0.026645988
45	0xbcc620b6	-0.02418552
46	0x3ce29259	0.027657675
47	0xbd0b8e56	-0.03407129
48	0xbd7b3e8d	-0.06133895
49	0x3d5c6fc7	0.053817537
50	0xbb00797e	-0.0019603665
51	0xbb32902b	-0.0027246575
52	0xbb2d6ca3	-0.0026462458
53	0x3d25695c	0.04038368
54	0xbcfcb1cc	-0.030846499
55	0x3d0aaec3	0.033858072
56	0xbd3f2efa	-0.04667566
57	0x3ba67a2f	0.0050804834
58	0x3c898772	0.016788218
59	0xbd051e47	-0.032499578
60	0xbd6791c3	-0.056535494
61	0x3ba1aecc	0.0049341675
62	0xbc803911	-0.015652211
63	0xbd727c6e	-0.059200697
64	0x3cb22bfb	0.021749487
65	0xbd8f8f34	-0.07009736
66	0x3d10dec3	0.035368692
67	0x3d5a34b2	0.05327291
68	0x3d38f15f	0.045152064
69	0x3d306f93	0.043075155
70	0xbc781d47	-0.015143699
71	0xbd231262	-0.039812453
72	0x3ce0311f	0.027367173
73	0x3be6948a	0.00703675
74	0x3d07928c	0.033098742
75	0x3cde0030	0.027099699
76	0xbd06e49b	-0.03293286
77	0x3d7132e4	0.058886424
78	0x39aae548	0.00032595755
79	0xbd6f8533	-0.058476638
80	0x3c864754	0.016391434
81	0x3d1a95ae	0.037740402
82	0xbce0f892	-0.027462278
83	0xbd5a0359	-0.05322585
84	0xbd78dc9b	-0.06075726
85	0x3cb953df	0.022623
86	0xbbc001ae	-0.0058595752
87	0x3ab3ade0	0.0013708435
88	0x3ca0d569	0.019633012
89	0xbc7e2652	-0.015512066
90	0xbd552178	-0.05203387
91	0xbca7fbc9	-0.020505803
92	0x3ca1ce23	0.019751614
93	0xbd78ab27	-0.0607101
94	0x3d2b23bc	0.041782126
95	0xbb8ddf33	-0.004329586
96	0xbd6a09af	-0.05713814
97	0xbd70b8c3	-0.058769953
98	0xbd43db26	-0.047816418
99	0x3cc2dc28	0.02378662
100	0x3a24ab65	0.0006281643
101	0xbd705d97	-0.058683004
102	0x3cb6cf7e	0.022315737
103	0xbd3b93fa	-0.04579542
104	0x3bcbaf77	0.0062159854
105	0x3d0ee637	0.03488752
106	0xbc9e4bac	-0.019323193
107	0xbcbf1bba	-0.02332865
108	0xbcdb728c	-0.026788019
109	0xbd64b492	-0.055836268
110	0x3d4431a4	0.047898903
111	0x3c31e518	0.010857843
112	0x3cd80e3d	0.026373977
113	0xbd7918a9	-0.060814533
114	0xbd478c3a	-0.048717715
115	0x3d18fcf6	0.037350617
116	0x3d1a72a2	0.03770698
117	0xbd6b993c	-0.057519183
118	0xbd1d9456	-0.038471542
119	0xbc6ffddb	-0.014647926
120	0xbcf6c455	-0.030122915
121	0x3c2884ee	0.010285599
122	0xbcadd962	-0.02122182
123	0xba982100	-0.0011606514
124	0x392f9c91	0.00016747626
125	0x3d47fe52	0.048826523
126	0xbd0904ab	-0.033451717
127	0xbd3843dd	-0.044986594
128	0xbd7ea915	-0.062172968
129	0x3c3ff20d	0.011715424
130	0xbd3ce097	-0.046112623
131	0xbd4cc2b7	-0.049990382
132	0x3d58f811	0.05297095
133	0xbccbffaf	-0.024902193
134	0xbcea861d	-0.028628403
135	0xbcb1e85e	-0.021717247
136	0xbc44998b	-0.011999498
137	0xbcd82b98	-0.026387975
138	0x3be4a9d3	0.0069782524
139	0xbd91331d	-0.07089827
140	0xbcf6b218	-0.030114219
141	0x3d1ecdc4	0.038770452
142	0xbced4fdc	-0.028968744
143	0xbc85625d	-0.016282255
144	0x3cd3d3de	0.025857862
145	0x3c4a54ca	0.012349317
146	0xbd1da852	-0.0384906
147	0xbb6aa65d	-0.0035804727
148	0xbccf43c8	-0.025300875
149	0xbcff1b03	-0.03114081
150	0xbd86c8f1	-0.06581295
151	0x3d5d6f99	0.054061506
152	0xbcafef68	-0.021476462
153	0xbd732cac	-0.059368774
154	0x3cafbbfa	0.021451939
155	0x3d116019	0.035492036
156	0x3c3bedc0	0.011470258
157	0xbd21c0ae	-0.039490394
158	0x3d61803a	0.055053927
159	0xbd6ce83b	-0.05783866
160	0x3d6424d3	0.05569918
161	0xbd754f70	-0.05989021
162	0xbd587dd3	-0.05285437
163	0x3c80953b	0.015696159
164	0x3a86b8c8	0.0010278458
165	0xbc4a44bd	-0.01234549
166	0xbca195d8	-0.019724771
167	0xbd3de74b	-0.046363156
168	0x3b3ef1d8	0.002913585
169	0x3d27f9bb	0.041009646
170	0x3c92b2e0	0.01790756
171	0xbd2995cc	-0.041402623
172	0xbc864c33	-0.016393756
173	0x3d7fcf3f	0.062453505
174	0xbc09a978	-0.008402221
175	0x3c0ec2bf	0.008713423
176	0xbc38a10a	-0.011268863
177	0x3d2d6ee1	0.04234207
178	0x3d3fa195	0.046784956
179	0x3d31ab4a	0.043376245
180	0xbce1ef54	-0.02757994
181	0x3d045ef8	0.03231713
182	0xbd5968cf	-0.05307847
183	0x3bbf0921	0.0058299457
184	0x3ce027d5	0.027362743
185	0x3cd9ed40	0.026602387
186	0xbd46c646	-0.048528932
187	0x3d5bc522	0.053654797
188	0x3d684c14	0.05671318
189	0x3c82971b	0.015941193
190	0xbd536f36	-0.05161973
191	0x3cd86fde	0.02642053
192	0x3c27eb61	0.01024899
193	0xbd6f80b3	-0.058472347
194	0xbc956c9b	-0.018240264
195	0x3afc9d27	0.0019272909
196	0x3c9ed8ea	0.019390542
197	0x3c708c7b	0.014681931
198	0x3cd647ac	0.026157223
199	0xbc2c64b9	-0.010522061
200	0x3d359b76	0.044337712
201	0x3d57a3f0	0.052646577
202	0xbc8b6ba1	-0.017019095
203	0x3d0ec02b	0.034851234
204	0x3c1c7546	0.009549445
205	0xbd11f575	-0.035634477
206	0xbd5e16b1	-0.05422086
207	0xbce63b3c	-0.028104417
208	0x3c9091e8	0.017647699
209	0x3c9ead01	0.019369604
210	0x3c758574	0.014985431
211	0x3cabea8d	0.020985866
212	0x3d67edca	0.056623258
213	0x3c6b5983	0.014364603
214	0xbcb91078	-0.02259086
215	0xbcfd1a3e	-0.030896302
216	0xbd2ba7f4	-0.04190822
217	0x3d62c933	0.05536766
218	0x3cc42ec1	0.023948075
219	0x3d0a272f	0.033728775
220	0xbd8708bf	-0.06593465
221	0x3d19ba5e	0.03753125
222	0xbd729585	-0.059224624
223	0xbcbcb649	-0.02303614
224	0xbcc1957b	-0.023630848
225	0xbd0cf23e	-0.034410708
226	0x3cdda361	0.027055444
227	0x3c38e632	0.011285352
228	0xbcfff100	-0.031242847
229	0xbd849f99	-0.06475753
230	0x3cf5df47	0.030013693
231	0xbc947967	-0.018124295
232	0x3af5c20f	0.001874985
233	0xbd41b71c	-0.047293767
234	0xbc1ee0bf	-0.009697138
235	0x3be8d222	0.007105128
236	0xbc3a9c22	-0.011389764
237	0xbd8dd445	-0.06925253
238	0x3d3f0c8d	0.04664283
239	0xbd37719d	-0.044786084
240	0x3b34e4b5	0.002760214
241	0x3d67dcb8	0.05660698
242	0x3c036448	0.008019514
243	0xbd65c898	-0.056099504
244	0xbd5f3ed0	-0.054503262
245	0xbd53f623	-0.051748406
246	0x3bc48c0b	0.0059981397
247	0x3d69c3b9	0.05707142
248	0xbd6ff073	-0.05857892
249	0x3b247ff2	0.0025100675
250	0x3d41ab97	0.04728278
251	0x3cd2531c	0.025674395
252	0x3c9b5f56	0.018966358
253	0x3d1d422d	0.03839319
254	0xbcc76510	-0.024340183
255	0x3ccf1ecb	0.025283238

model2.4.bias f4 [64]
0	0xbd474b08	-0.04865554
1	0x3d43b5c7	0.04778078
2	0xbc8fa332	-0.017533872
3	0x3c21960c	0.009862434
4	0xbcbb21c6	-0.022843253
5	0x3b96638a	0.0045895027
6	0xbd5051e5	-0.05085935
7	0x3d354723	0.044257294
8	0xbd63db2b	-0.055628937
9	0xbd8148ec	-0.06312737
10	0xba145653	-0.0005658615
11	0x3d7944f9	0.060856793
12	0x3d1637bb	0.036674242
13	0x3d1ecec1	0.038771395
14	0x3d15234d	0.03641062
15	0x3cc17ba1	0.023618521
16	0xbd636d61	-0.055524234
17	0x3c1fec11	0.009760872
18	0xbb0ceed7	-0.0021504664
19	0x3c5deb87	0.013544924
20	0x3d88f8b4	0.06688061
21	0x3cf87298	0.03032808
22	0xbc8cfdf0	-0.01721093
23	0x3c5059ff	0.012716769
24	0x3c030ce8	0.007998683
25	0xbd977e57	-0.07397144
26	0xbcbc8397	-0.023011966
27	0xbc945bd8	-0.0181102
28	0xbd0ccab4	-0.034373
29	0x3db60c6d	0.08889089
30	0xbd7903f9	-0.060794804
31	0x3c87af2c	0.01656302
32	0xbcde1c48	-0.027113095
33	0x3bb7afb5	0.0056056627
34	0x3d8ab72a	0.06773217
35	0xbda1e96e	-0.07905851
36	0xbae9bab9	-0.0017832137
37	0xbcd66d54	-0.026175179
38	0x3d2322f6	0.039828263
39	0xbd840248	-0.064457476
40	0x3d5c90f4	0.053849176
41	0xbd172c4c	-0.03690748
42	0xbd2053d7	-0.039142456
43	0x3db47068	0.08810502
44	0x3dabe43a	0.0839314
45	0xbaa68915	-0.0012705649
46	0xbb531d07	-0.0032213347
47	0x3c56be6f	0.013106926
48	0xbd268b94	-0.040660456
49	0xbd02fe24	-0.03198065
50	0xbbabf688	-0.0052478947
51	0xbc12fb3e	-0.008971034
52	0xbccfb35c	-0.02535408
53	0xbc726f3b	-0.014797027
54	0xbd823680	-0.06358051
55	0xbda71c25	-0.08159665
56	0x3c41bb40	0.011824429
57	0xbd836c90	-0.06417191
58	0x3cda24bd	0.026628846
59	0x3dae281f	0.08503746
60	0xbd3775ab	-0.04478995
61	0x3cdb9369	0.02680369
62	0xbb9eac04	-0.004842283
63	0xbd3c34a2	-0.045948632

model2.6.weight f4 [4, 64]
0	0x3dfaaddc	0.12240192
1	0xbceaa32e	-0.028642263
2	0x3cf73214	0.030175246
3	0x3b9b5acb	0.004741048
4	0xbddef7ea	-0.108871296
5	0x3d9cf5a8	0.07664043
6	0xbc0fb613	-0.008771437
7	0x3df2eacb	0.118611895
8	0xbce256bf	-0.027629254
9	0xbe4b296d	-0.19840021
10	0xbcaa954c	-0.020823143
11	0xbd815d3e	-0.06316613
12	0xbd93965e	-0.07206415
13	0xbdde50ee	-0.1085528
14	0x3d972f3f	0.07382058
15	0x3bf52f44	0.007482441
16	0x3d2cf4d9	0.042225692
17	0x3d85c088	0.06530863
18	0x3bae07ef	0.0053110044
19	0x3d4887df	0.0489577
20	0xbd28f548	-0.041249543
21	0x3dd12db5	0.10213796
22	0xbe06982b	-0.13143985
23	0xbdd839ac	-0.10557875
24	0xbc10ce13	-0.008838194
25	0x3db22230	0.08697927
26	0xbd9b9f64	-0.07598761
27	0x3d08f135	0.033433158
28	0xbda1ae7a	-0.07894607
29	0xbd281a4a	-0.041040696
30	0x3d9b4595	0.07581631
31	0xbdca495a	-0.09877272
32	0xbd86955c	-0.06571457
33	0x3c170c0c	0.009219181
34	0xbe2d7f06	-0.16942987
35	0x3d695f31	0.056975547
36	0xbc5de7a7	-0.013544
37	0xbc08ac86	-0.008341914
38	0x3d9b4a2e	0.07582508
39	0xbd2a4690	-0.0415712
40	0xbd05cd67	-0.03266659
41	0xbdbe96be	-0.093060955
42	0x3db7db4e	0.08977376
43	0xbd8f6593	-0.070017956
44	0xbdb2267d	-0.08698747
45	0x3d0b50e7	0.0340127
46	0x3e03680d	0.12832661
47	0x3c12c9a5	0.008959209
48	0x3cc4de45	0.024031768
49	0x3da581b4	0.080813795
50	0x3c4cf336	0.012509158
51	0xbdc3ca04	-0.09560016
52	0x3d6f25ac	0.058385536
53	0x3b9b27de	0.004734977
54	0xbc3239db	-0.010878052
55	0x3d4eda26	0.05050101
56	0xbd965680	-0.07340717
57	0xbcddf097	-0.027092261
58	0x3da62445	0.081123866
59	0xbe0faa2a	-0.14029756
60	0xbdb3a198	-0.08771056
61	0x3d8a6f11	0.067594655
62	0x3d75999a	0.05996094
63	0xbd656ace	-0.05601006
64	0xbcf3fd2a	-0.029783804
65	0x39e18900	0.00043017417
66	0x3dd5cff4	0.104400545
67	0x3c961256	0.01831929
68	0xbd98446a	-0.07434924
69	0x3d95f370	0.07321823
70	0xbd9c1760	-0.07621646
71	0xbdcf7064	-0.10128859
72	0x3d9f4c65	0.07778243
73	0x3c37bb47	0.011214084
74	0xbdbbeaf8	-0.09175676
75	0x3b99eebc	0.004697649
76	0xbd07a357	-0.033114757
77	0xbe2054a3	-0.15657286
78	0xbc9bfac5	-0.019040475
79	0x3d3cdbfd	0.046108235
80	0x3c3648e2	0.011125775
81	0xbd038ea1	-0.032118443
82	0xbdff7bf4	-0.12474814
83	0xbde70ad3	-0.112813614
84	0x3c6909e1	0.014223547
85	0x3e426519	0.18983878
86	0x3d912f24	0.070890695
87	0x3e0ae5a5	0.13564165
88	0xbc4e3b29	-0.012587347
89	0x3cb7cdcf	0.022437004
90	0x3bae8b1b	0.0053266413
91	0x3dc5e50d	0.096628286
92	0x3d42d735	0.04756852
93	0xbd487a4c	-0.048944756
94	0x3df54c6f	0.11977469
95	0x3c34086f	0.010988339
96	0x3de8196a	0.11332972
97	0x3d83a831	0.06428564
98	0xbce986e3	-0.028506702
99	0x3d883c25	0.06652097
100	0x3d98311b	0.07431241
101	0xbdae5e70	-0.08514106
102	0x3d6c8f15	0.05775364
103	0x3d4756f8	0.048666924
104	0xbde3b6d1	-0.11118854
105	0xbdffb929	-0.12486488
106	0x3d4fddbe	0.05074858
107	0xbe1cfbe1	-0.15330459
108	0xbd1599b2	-0.03652353
109	0x3df50b6d	0.1196507
110	0xbdd6a296	-0.104802296
111	0x3d13b32b	0.03605954
112	0xbc82546a	-0.015909392
113	0x3ca030f8	0.0195546
114	0xbd967c17	-0.07347887
115	0xbd4822e2	-0.04886139
116	0x3d8d247e	0.06891726
117	0xbdc692fe	-0.09696005
118	0xbcccd443	-0.025003558
119	0x3e4e5a5e	0.2015166
120	0xbcb548b0	-0.022129387
121	0x3cfe8ddf	0.031073509
122	0x3df03090	0.117280126
123	0xbd91fd79	-0.07128424
124	0xbdc896d8	-0.09794396
125	0x3d3748ce	0.044747166
126	0xbc992160	-0.018692672
127	0x3cd3f3f9	0.025873171
128	0xbdb674d8	-0.08909005
129	0x3d91ab0e	0.07112704
130	0xbb0ceabf	-0.0021502224
131	0x3d1ae7f8	0.03781888
132	0x3c91e46b	0.017809113
133	0xbd8bbf66	-0.06823616
134	0xbd8c92ca	-0.06863935
135	0x3c44641f	0.011986761
136	0xbe1525a6	-0.14565143
137	0xbdbec8d8	-0.09315652
138	0x3dddd4ce	0.10831605
139	0x3d8cbd63	0.0687206
140	0x3d98ec7c	0.07466981
141	0x3e1b748b	0.15181176
142	0xbd63e79b	-0.055640798
143	0x3d732e28	0.05937019
144	0x3d8ad3b3	0.0677866
145	0x3d2e5adf	0.04256713
146	0x3cd39969	0.025829988
147	0xbdf14bbd	-0.11782024
148	0xbc06d6d1	-0.008229927
149	0xbb369aba	-0.002786322
150	0x3d919b86	0.07109742
151	0xbde66aa1	-0.112508066
152	0x3dfdea64	0.12398222
153	0xbca4d609	-0.020121591
154	0xbcbb14d1	-0.022837074
155	0x3e05f532	0.13081816
156	0xbd62f814	-0.055412367
157	0x3e0d622f	0.13806985
158	0xbdb2571a	-0.087080196
159	0xbd39d749	-0.045371328
160	0x3da44f66	0.080229566
161	0x3db64c0f	0.08901226
162	0xbd6ac982	-0.05732108
163	0x3d86bd7a	0.065791085
164	0xbd79b165	-0.060960192
165	0x3e0cc857	0.13748299
166	0x3dbe0412	0.0927812
167	0x3b69b367	0.003565991
168	0x3ddfcaba	0.10927339
169	0xbcbbdf00	-0.022933483
170	0xbd0139d1	-0.03154928
171	0x3e039bde	0.12852427
172	0xbce1b25c	-0.027550869
173	0x3d0ae1b4	0.033906654
174	0x3dd4be0d	0.10387812
175	0x3d94872f	0.07252347
176	0xbde455d7	-0.11149185
177	0x3c3f8c12	0.01169111
178	0xbd31b0c2	-0.04338146
179	0xbb743dc4	-0.003726826
180	0x3dec086d	0.115250446
181	0xbbea5261	-0.0071509336
182	0xbd97be87	-0.07409387
183	0x3e1884a1	0.14894344
184	0x3d1e528d	0.038652945
185	0x3e00e702	0.12588122
186	0xbdac57c1	-0.08415175
187	0x3d3b4822	0.045723088
188	0xbe11c950	-0.14236951
189	0xbd433629	-0.047659073
190	0xbc1a1a4d	-0.009405685
191	0xbda001e6	-0.07812862
192	0xbd1dc7fb	-0.038520794
193	0x3d80aa8a	0.06282528
194	0x3de5da91	0.11223329
195	0xbcb26ea4	-0.021781273
196	0xbdc036cf	-0.09385454
197	0x3d0e4aca	0.034739293
198	0xbc1ec788	-0.009691127
199	0xbcdd3425	-0.027002404
200	0xbce59fd3	-0.028030312
201	0xbd703e40	-0.058653116
202	0xba557294	-0.00081423786
203	0x3b0438de	0.0020175497
204	0x3dfac9db	0.12245532
205	0x3db95614	0.09049621
206	0xbdc76c97	-0.09737509
207	0x3dea114f	0.114290826
208	0xbcdf7e7f	-0.027281998
209	0x3b92b589	0.004477207
210	0x3d54f052	0.051987
211	0xbd8a731e	-0.06760238
212	0xbcc1625b	-0.02360647
213	0x3da41e17	0.08013552
214	0xbdeb58d5	-0.11491553
215	0xbd810a0d	-0.06300745
216	0xbdbe7cae	-0.093011245
217	0x3e13e4b8	0.14442718
218	0xbd42997a	-0.047509648
219	0x3dc85dbd	0.09783504
220	0x3dc54238	0.09631771
221	0xbd8c45ea	-0.068492725
222	0x3dc49e5f	0.096005194
223	0xbda54ae7	-0.08070927
224	0x3c80b6b6	0.015712123
225	0x3d86fc05	0.06591038
226	0x3dfc036a	0.12305339
227	0x3e11de3d	0.14244933
228	0xbd4e811c	-0.050416097
229	0xbd10e3c7	-0.035373475
230	0xbd804042	-0.06262256
231	0xbe1c8f3d	-0.15289016
232	0x3c33def6	0.010978451
233	0xbce85f96	-0.028365891
234	0xbc6aa30c	-0.0143211
235	0x3d23ccfb	0.039990406
236	0xbe18ab70	-0.14909148
237	0xbd95ae78	-0.07308668
238	0xbd82dc47	-0.06389671
239	0xbd524802	-0.051338203
240	0xbdb1faa3	-0.08690383
241	0xbd503fff	-0.05084228
242	0xbd9386ca	-0.07203443
243	0x3e043d59	0.12914027
244	0x3d4e17cf	0.050315674
245	0x3d9dabbc	0.07698771
246	0x3ba9d7a0	0.005183175
247	0x3dbee604	0.09321216
248	0xbc40cb79	-0.011767262
249	0xbd8baed0	-0.06820452
250	0xbcd87f7e	-0.02642798
251	0xbdb6fefc	-0.08935353
252	0xbd32a4e5	-0.043614287
253	0x3d9b6e33	0.07589378
254	0x3d5fe8f5	0.054665525
255	0xbd19f61c	-0.037588224

model2.6.bias f4 [4]
0	0x3d4375fc	0.04771994
1	0x3c9b4c94	0.018957414
2	0x3bb62a54	0.005559245
3	0xbdf1df3a	-0.11810155
