model_weight/actor/13_13 13:21:51 std 0.5 lr_actor_4e-05- gamma_0.9 memory100 actor_weight.pth (torch, 646091 bytes, 9 tensors)

std f4 [4]
0	0x3e5f9636	0.21834645
1	0x3e801c7b	0.2502173
2	0x3e52d6ac	0.20589703
3	0x3e5d265e	0.21596667

model2.0.weight f4 [512, 24]
0	0x3e43d7a0	0.19125223
1	0xbde528ad	-0.11189399
2	0xbbb1c04f	-0.0054245363
3	0x3dfab241	0.122410305
4	0xbb42d876	-0.0029731072
5	0x3dfe8ddc	0.12429401
6	0xbe8b5dc8	-0.27219987
7	0x3c9f1570	0.019419402
8	0xbbc954f5	-0.006144161
9	0x3e25a176	0.16174874
10	0x3de04323	0.10950305
11	0x3d30d499	0.0431715
12	0x3e1673f2	0.14692667
13	0xbdb2279a	-0.0869896
14	0xbe12ef1a	-0.14349023
15	0xbd3cdf1a	-0.046111204
16	0xbbedfefb	-0.007263062
17	0xbdbb5e39	-0.09148831
18	0x3db90121	0.090334184
19	0x399ba255	0.0002968485
20	0xbd1b6823	-0.03794111
21	0xbab1dac0	-0.0013569221
22	0x3e3cda13	0.18442564
23	0x3d2d751d	0.042348016
24	0x3e2c3d89	0.16820349
25	0xbccb9be2	-0.024854604
26	0xbe7b44af	-0.2453792
27	0x3de958d1	0.113938935
28	0x3e304970	0.17215514
29	0x3df540a4	0.1197522
30	0x3df4acb0	0.11947
31	0x3dd9e373	0.106390856
32	0xbd9aff0a	-0.07568176
33	0xbd89f50f	-0.06736194
34	0xbd08705d	-0.033310283
35	0xbdd021e9	-0.10162718
36	0xbd8e3bdb	-0.0694501
37	0x3c6379ce	0.013884021
38	0xbc2c0769	-0.010499814
39	0xbd100138	-0.035157412
40	0xbd1b88b3	-0.037972163
41	0x3e0efc05	0.13963325
42	0xbdcd47ae	-0.100234374
43	0xbd2d3121	-0.04228318
44	0x3d575c35	0.05257817
45	0xbe0e2a4d	-0.13883324
46	0xbe686d20	-0.22697878
47	0x3cd28313	0.025697267
48	0xbd1e6079	-0.038666222
49	0x3d99e047	0.07513481
50	0x3ced25b4	0.028948642
51	0x3c249c41	0.010047019
52	0xbe874d1a	-0.2642601
53	0xbe2eb027	-0.17059384
54	0xbe6a8b58	-0.22904718
55	0x3d1625ca	0.036657132
56	0x3e0291ef	0.12750982
57	0x3a7c31c3	0.0009620452
58	0xbca91909	-0.02064182
59	0x3d91f5d2	0.07126965
60	0xbd124491	-0.03570992
61	0xbd2ff021	-0.042953614
62	0x3db589b7	0.08864158
63	0xbe237c28	-0.1596533
64	0x3d06c138	0.03289911
65	0xbe409985	-0.18808563
66	0xbc8ca669	-0.017169194
67	0xbdec0754	-0.11524835
68	0x3cdc3492	0.026880536
69	0xbe35d3fb	-0.17756645
70	0xbe43ec75	-0.1913317
71	0xbc0af0ce	-0.008480264
72	0xbe610322	-0.21973851
73	0xbe241f36	-0.16027531
74	0xbdee432a	-0.11633904
75	0x3dca1f0e	0.098692045
76	0xbdb801c0	-0.08984709
77	0xbe6a0085	-0.2285176
78	0x3dc29dfc	0.095027894
79	0xbe2252e9	-0.1585194
80	0x3c1dabc8	0.009623475
81	0xbe46d008	-0.19415295
82	0xbc15c7db	-0.009141888
83	0xbdd3bd14	-0.10338798
84	0x3d433826	0.04766097
85	0xbda4abdc	-0.08040592
86	0x3dd2683a	0.10273786
87	0xbe6420bd	-0.22278114
88	0x3d3141f1	0.043275777
89	0x3a34c5bc	0.000689592
90	0xbe4d4301	-0.20045091
91	0xbdbad738	-0.09123081
92	0x3ddd87cc	0.10816917
93	0xbb7a9149	-0.003823357
94	0xbc8c19c9	-0.01710214
95	0x3c3016c2	0.010747613
96	0x3cee4837	0.02908717
97	0x3e325c7d	0.17418094
98	0x3e2213fa	0.15827933
99	0x3d651a4e	0.05593329
100	0x3d8ddfbd	0.0692744
101	0xbe4f796d	-0.20261164
102	0x3ddc13e2	0.1074598
103	0x3d447dda	0.047971584
104	0x3cd97142	0.026543263
105	0xbdc6825d	-0.096928336
106	0xbdf9521f	-0.121738665
107	0xbe846afc	-0.25862873
108	0x3c3eab2b	0.011637489
109	0x3e25b822	0.16183522
110	0x3cd7dd76	0.026350718
111	0xbdc799a5	-0.09746102
112	0xbe2dcef9	-0.16973485
113	0xbe0e60f6	-0.13904175
114	0xbde753c4	-0.11295274
115	0x3d1421c2	0.036165006
116	0xbe2bc9bf	-0.16776179
117	0xbb02e451	-0.0019972513
118	0x3cb4e022	0.022079531
119	0xbde66965	-0.11250571
120	0x3c4fcc41	0.012682975
121	0x3d7e9da0	0.06216204
122	0x3e06c31a	0.13160363
123	0xbe362a38	-0.17789543
124	0x3dc83fa6	0.09777765
125	0xbdd39d2b	-0.10332712
126	0xbd1da016	-0.038482748
127	0xbe3e5136	-0.18585667
128	0xbe9eabbd	-0.309904
129	0x3da638f4	0.08116332
130	0xbc57c927	-0.013170517
131	0xbd7635e0	-0.060109973
132	0xbd858949	-0.06520326
133	0xbe27cb19	-0.1638607
134	0x3da6763e	0.08128022
135	0xbd00e9ef	-0.031473096
136	0xbd54f1d9	-0.051988456
137	0xbdaa488d	-0.08314619
138	0x3d719307	0.058978107
139	0xbd0e7fb9	-0.034789775
140	0xbe88b3b7	-0.26699612
141	0xbb918a9a	-0.0044415714
142	0xbd224a5e	-0.039621703
143	0x3d51ff2e	0.05126875
144	0xbe40593d	-0.18784042
145	0x3de9f42b	0.114235245
146	0xbe373468	-0.17891085
147	0xbe48c464	-0.19606167
148	0x3c1df894	0.009641785
149	0x3dd973c9	0.106177874
150	0x3e1da570	0.1539514
151	0x3e15288f	0.14566253
152	0xbd40488f	-0.046944197
153	0x3e4b9a2b	0.19883029
154	0x3e0c3fed	0.13696261
155	0xbe63138c	-0.22175425
156	0x3d1a3316	0.037646376
157	0xbe22159f	-0.1582856
158	0x3db16a01	0.08662797
159	0xbd980de7	-0.07424527
160	0x3dc28638	0.094982564
161	0xbdb616ab	-0.08891042
162	0x3e166e1e	0.14690444
163	0xbe6c2764	-0.23061901
164	0xbd501e96	-0.05081042
165	0x3e0daba2	0.13835004
166	0x3de5682e	0.11201511
167	0xbde592ef	-0.11209666
168	0xbd66d0e6	-0.056351565
169	0xbdf48fc1	-0.119414814
170	0x3d0e5d6d	0.034757067
171	0xbd020611	-0.031744067
172	0x3bb26fa2	0.0054454366
173	0xbd3f6019	-0.046722505
174	0x3d9bbd10	0.0760442
175	0x3d265c72	0.040615506
176	0xbdabf198	-0.0839569
177	0x3db7f8f2	0.089830294
178	0xbd363ac3	-0.044489633
179	0x3d2145b3	0.03937311
180	0x3e120e5d	0.14263292
181	0xbe43fd18	-0.19139516
182	0xbd52ed6a	-0.051495947
183	0xbe87b0c7	-0.26502058
184	0x3d05774a	0.032584466
185	0xbe2c3280	-0.16816139
186	0x3dbb4069	0.09143145
187	0xbdc9afe0	-0.098479986
188	0xbe3b3a00	-0.18283844
189	0xbe577bd5	-0.21043332
190	0xbe09695d	-0.13419099
191	0x3dd279f3	0.10277166
192	0x3b563026	0.0032682507
193	0x3e5b7c8e	0.21434233
194	0x3e285503	0.1643868
195	0xbdb41eb8	-0.08794922
196	0x3e0df16d	0.13861628
197	0x3c89369d	0.016749674
198	0xbde6e60e	-0.11274348
199	0x3e20e70b	0.15713136
200	0xbc4b3c21	-0.012404473
201	0x3c8d09c6	0.017216574
202	0xbda1b873	-0.07896509
203	0xbe28639c	-0.16444248
204	0x3e09f2d0	0.13471532
205	0xbd75367f	-0.059866425
206	0x3e19e0dc	0.15027183
207	0x3e1724fc	0.14760202
208	0xbe40c120	-0.18823671
209	0xbe1f14ca	-0.15535274
210	0xbd153003	-0.03642274
211	0xbcd5b41f	-0.026086865
212	0xbe5039bf	-0.20334528
213	0xbe3d6efe	-0.18499371
214	0x3e1ec94e	0.15506479
215	0x3e1a3542	0.15059379
216	0x3cf34f55	0.029700914
217	0xbdf0c1c6	-0.11755709
218	0xbd0f5054	-0.034988716
219	0x3e37c16e	0.17944881
220	0x3dcc86ed	0.099866726
221	0xbd29e1c4	-0.041475073
222	0xbc01d764	-0.007924888
223	0x3d51c96f	0.051217493
224	0xbe7553d9	-0.23957767
225	0x3d90ae41	0.07064486
226	0xbdc7cf98	-0.09756392
227	0x3df0a8f0	0.11750972
228	0xbdcca59b	-0.09992524
229	0xbe185b2c	-0.1487853
230	0xbcbd46fd	-0.023105139
231	0xbc445a9e	-0.011984495
232	0xbe250df6	-0.16118607
233	0x3d58b804	0.052909866
234	0x3d8ee75c	0.06977722
235	0xbd091477	-0.033466782
236	0xbdbbef09	-0.09176452
237	0xbe7c6799	-0.24648894
238	0xbe33006a	-0.17480627
239	0xbe26c095	-0.16284402
240	0x3d972601	0.073802955
241	0x3cc90539	0.024538623
242	0xbd1f4d5d	-0.03889214
243	0xbe330217	-0.17481266
244	0x3ce9e717	0.028552575
245	0x3e3c8517	0.18410145
246	0xbd9af3de	-0.07566045
247	0xbe3017bd	-0.17196555
248	0x3e3519b2	0.17685583
249	0x3e624587	0.22096835
250	0xbd376775	-0.0447764
251	0xbd1b1962	-0.037866004
252	0x3e379892	0.17929295
253	0xbdafa06b	-0.08575519
254	0x3d4d851d	0.050175775
255	0x3c193bb9	0.009352618

model2.0.bias f4 [512]
0	0xbd38d836	-0.04512807
1	0x3e0c7324	0.13715798
2	0xbc2cf68d	-0.010556829
3	0xbe1edcba	-0.15513888
4	0x3e4498e9	0.19198956
5	0xbda36f4b	-0.07980212
6	0x3e2e73be	0.1703634
7	0xbe7902c7	-0.24317466
8	0xbda2866c	-0.07935795
9	0x3da1f8fb	0.079088174
10	0xbdf41364	-0.11917761
11	0xbb5520cb	-0.0032520767
12	0xbd9ffe90	-0.07812226
13	0x3e17d636	0.14827809
14	0x3e0e9cab	0.13926952
15	0xbdd88848	-0.105728686
16	0x3cfca6b1	0.030841203
17	0xbd1ca147	-0.038239744
18	0xbc884659	-0.016635107
19	0x3dafaeed	0.08578286
20	0x3e32ae2d	0.17449255
21	0xbdec8ee6	-0.11550693
22	0x3d8994d1	0.067178376
23	0x3e07a46c	0.13246316
24	0xbe0b218e	-0.13587019
25	0xbd9c251a	-0.07624264
26	0xbe1dfeb0	-0.15429187
27	0xbe03a4ea	-0.12855878
28	0x3dc136b7	0.09434264
29	0x3dfc9be1	0.12334419
30	0xbe1ec768	-0.15505755
31	0x3d04b7e1	0.032401923
32	0xbd376621	-0.044775132
33	0xbe35d5b8	-0.17757308
34	0x3d704851	0.058662716
35	0xbd169858	-0.03676638
36	0xbd40fb4f	-0.047114667
37	0xbda029d3	-0.07820477
38	0xbd53776a	-0.051627554
39	0x3ce6e513	0.028185403
40	0xbc2bd926	-0.010488784
41	0x3ddcdd06	0.107843444
42	0xbe3b4b5e	-0.18290469
43	0xbc60a1c2	-0.013710441
44	0x3dcc666c	0.09980473
45	0x3ce10de3	0.027472442
46	0x3d11680f	0.03549963
47	0xbe12e03b	-0.1434335
48	0xbde025e1	-0.10944725
49	0x3bc6b984	0.0060645957
50	0x3dab59d4	0.08366743
51	0x3d920f33	0.07131805
52	0xbd263576	-0.040578328
53	0xbcc85d0d	-0.024458433
54	0xbdd2e113	-0.10296836
55	0xbdff45a9	-0.124644585
56	0xbe2a6009	-0.16638197
57	0xbd8e638d	-0.069525816
58	0xbdf83f23	-0.121214174
59	0x3e05376b	0.13009422
60	0xbe216b25	-0.15763529
61	0xbe13b5c7	-0.14424811
62	0x3df7b916	0.12095849
63	0xbd587a31	-0.052850906
64	0xbd82ae89	-0.06380946
65	0x3d04fadd	0.032465804
66	0x3e2de094	0.16980201
67	0xbc5b745b	-0.0133944405
68	0xbd210ddd	-0.03931986
69	0xbde14110	-0.10998738
70	0xbd8a1e0c	-0.06744012
71	0x3dc45d01	0.095880516
72	0x3c88990b	0.01667454
73	0xbd7aa980	-0.061196804
74	0xbdf717d8	-0.12065095
75	0xbdcf320e	-0.10116969
76	0xbdf9d0ac	-0.12198004
77	0x3de6c49b	0.11267968
78	0xbd39ff7a	-0.045409657
79	0xbe570e8d	-0.21001644
80	0xbe17c15e	-0.14819857
81	0x3d09a8b9	0.033608172
82	0x3e118d8f	0.14214157
83	0x3d42903f	0.047500845
84	0xbdad4c2f	-0.084617965
85	0xbdf58f61	-0.11990238
86	0xbd853261	-0.0650375
87	0xbdf21872	-0.11821069
88	0xbcd94353	-0.02652136
89	0x3e26df2c	0.16296071
90	0x3d969346	0.07352309
91	0xbe17627f	-0.14783667
92	0x3ca57e83	0.020201927
93	0xbd62f632	-0.05541057
94	0x3c26f47e	0.010190127
95	0x3dba2bf1	0.090904124
96	0xbc117303	-0.008877519
97	0x3dd5663e	0.10419892
98	0x3d505768	0.050864607
99	0x3ddf3ee9	0.10900671
100	0x3bd2800a	0.006423955
101	0xbd5a9ac4	-0.053370252
102	0xbdb90cdd	-0.090356566
103	0xbe39c433	-0.1814125
104	0xbe01e527	-0.12685071
105	0x3cba24ca	0.02272262
106	0x3e35a324	0.17738014
107	0xbe03595e	-0.1282706
108	0x3e0146af	0.1262462
109	0x3c3c6506	0.011498695
110	0xbdc1002b	-0.0942386
111	0xbd8218ac	-0.06352362
112	0x3e0a9c0d	0.13536091
113	0xbe1d3375	-0.1535166
114	0x3cdc7d66	0.026915263
115	0x3cc98ddf	0.024603782
116	0xbe1ba2af	-0.15198778
117	0xbe21e3d6	-0.15809569
118	0xbdb0070f	-0.08595096
119	0xbe5ffc0e	-0.21873495
120	0xbdcf4890	-0.10121262
121	0x3d9f78cb	0.07786711
122	0x3ded21eb	0.11578735
123	0xbe312f6b	-0.17303245
124	0xbd2a62c1	-0.041598085
125	0xbe145c22	-0.14488271
126	0xbdd4bebe	-0.10387944
127	0x3e0a725b	0.13520186
128	0x3d8ee654	0.06977525
129	0x3e116108	0.1419717
130	0xbe356115	-0.17712815
131	0x3c7d6eb5	0.015468289
132	0xbe588c27	-0.21147214
133	0x3e3de4e9	0.18544354
134	0x3dca8185	0.09887985
135	0xbe37e956	-0.17960104
136	0xbd6e9660	-0.058248878
137	0x3da5bcf3	0.0809268
138	0xbe0984f5	-0.13429625
139	0xbe3e1489	-0.18562521
140	0xbe0c2e18	-0.13689458
141	0xbe606aba	-0.21915713
142	0x3d8c2b0b	0.06844147
143	0x3cadf0c3	0.021232968
144	0xbe09d2d0	-0.13459325
145	0xbe01d98f	-0.12680648
146	0x3d8df569	0.06931574
147	0x3e12dcb4	0.14342004
148	0xbb0c435c	-0.0021402454
149	0x3d115c42	0.035488375
150	0xbc988e3c	-0.01862251
151	0x3dfa0880	0.122086525
152	0x3e1d5060	0.15362692
153	0xbd38afdd	-0.04508959
154	0x3e47864c	0.19484824
155	0x3da7656c	0.081736416
156	0xbdbffe42	-0.09374668
157	0xbd26f94c	-0.04076509
158	0x3d931ac9	0.07182843
159	0xbc08ffbe	-0.008361755
160	0xbe44affe	-0.1920776
161	0xbe3347e2	-0.1750789
162	0xbe01fe76	-0.12694725
163	0xbe0afcab	-0.13572948
164	0xbe84f68e	-0.25969356
165	0xbe0bf7bb	-0.1366872
166	0xbe3a5bcc	-0.1819908
167	0x3c188a19	0.009310269
168	0xbd0545e6	-0.032537363
169	0x3d90fbbd	0.07079265
170	0xbe2a0cb0	-0.16606402
171	0xbdf00208	-0.117191374
172	0xbe44b97a	-0.19211379
173	0x3cfb21f8	0.030655846
174	0xbc8f3dda	-0.017485548
175	0xbca190e6	-0.019722413
176	0x3d22b21e	0.039720647
177	0xbd3308f5	-0.043709714
178	0x3d0c55e4	0.0342616
179	0xbe65a378	-0.2242564
180	0x3ce7a137	0.028275115
181	0x3dafee3e	0.08590363
182	0xbdd16f8e	-0.102263555
183	0xbde2dcbb	-0.11077257
184	0xbdea814d	-0.114504434
185	0x3e0589d0	0.13040853
186	0x3ba93f22	0.0051649967
187	0x3e18addb	0.1491007
188	0xbd7910ab	-0.06080691
189	0x3d7ad816	0.06124123
190	0x3c178821	0.009248764
191	0xbd9bb742	-0.07603313
192	0x3aa6f73c	0.0012738477
193	0xbd9e8267	-0.07739716
194	0xbc1c73ba	-0.009549076
195	0x3b967273	0.00459128
196	0x3db4695a	0.08809157
197	0x3cc8cfbb	0.024513116
198	0x3e13b2a1	0.1442361
199	0xbdaa58f3	-0.08317747
200	0xbe74a2eb	-0.23890273
201	0x3d9d81d4	0.076907784
202	0x3e1a328a	0.15058342
203	0xbe1b53e6	-0.15168723
204	0xbe17651c	-0.14784664
205	0xbd303d65	-0.0430273
206	0xbe1ee5e5	-0.15517385
207	0xbe058ade	-0.13041255
208	0x3cb085af	0.02154812
209	0x3dbbd976	0.09172337
210	0x3d0ade03	0.033903133
211	0xbaad61ae	-0.0013227963
212	0xbd0d07ab	-0.03443114
213	0xbdb79ee7	-0.08965855
214	0xbdebf505	-0.11521343
215	0xbd514d64	-0.051099196
216	0x3ca0f914	0.01965002
217	0xbe5308ae	-0.2060878
218	0xbdca5fc5	-0.09881548
219	0x3dd87d95	0.10570828
220	0x3d8d9fd7	0.06915253
221	0xbcdedd8b	-0.02720525
222	0x3dd9efcf	0.10641443
223	0x3dc88dc0	0.09792662
224	0xbe169b5d	-0.14707704
225	0xbdea8ef6	-0.11453049
226	0x3dd8a18e	0.10577689
227	0xbcb573bb	-0.022149911
228	0x3e1415d4	0.14461452
229	0x3d7cd8ec	0.06173031
230	0x3b7d8a02	0.0038686995
231	0x3dcc5da8	0.09978801
232	0xbd995bb3	-0.07488193
233	0x3d5e26c8	0.054236203
234	0xbe2b5346	-0.16730985
235	0xbe0e0a8e	-0.13871214
236	0xbdae1caa	-0.08501561
237	0xbdaf6826	-0.085647866
238	0x3d86f19e	0.065890536
239	0xbd4093d7	-0.04701599
240	0x3e105616	0.14095339
241	0x3dd84611	0.10560239
242	0x3d07cce6	0.03315439
243	0xbd020813	-0.03174598
244	0x3d8a9c47	0.06768089
245	0x3d250e2e	0.040296726
246	0xbe3e5eeb	-0.18590896
247	0xbd569e58	-0.052397102
248	0x3b8b1833	0.004244828
249	0xbdf61da3	-0.120173715
250	0xbe61b3fb	-0.22041313
251	0xbdfc1125	-0.123079576
252	0x3c43debf	0.011954962
253	0x3de0f9fd	0.109851815
254	0xbe2cbecd	-0.1686966
255	0xbddb7807	-0.10716253

model2.2.weight f4 [256, 512]
0	0xbdfaf693	-0.122540615
1	0xbd8c02b6	-0.068364546
2	0x3d0d3b96	0.034480654
3	0x3cf54912	0.02994207
4	0xbd1b06bf	-0.03784823
5	0x3b8131d4	0.0039427076
6	0xbd389c0b	-0.04507069
7	0xbd698619	-0.05701265
8	0xbbc99eec	-0.006152978
9	0x3cfe1cf7	0.03101967
10	0xbd9789af	-0.07399308
11	0xbdc4933e	-0.09598397
12	0x3c9521db	0.01820462
13	0x3ca2feb8	0.01989685
14	0x3d7cb2b1	0.06169385
15	0x3c59b260	0.013287157
16	0x3d56c6fd	0.052435864
17	0xbcf45417	-0.029825253
18	0xbd17e22d	-0.037080932
19	0x3d802d4e	0.06258641
20	0xbd0ee7a3	-0.034888875
21	0x3d795c67	0.060879137
22	0xbcac22c0	-0.021012664
23	0xbc74757b	-0.014920588
24	0x3c3cbc98	0.011519574
25	0x3b782dce	0.0037869099
26	0xbdb50974	-0.08839694
27	0xbd6c09e3	-0.057626616
28	0x3d8aedca	0.06783636
29	0x3bc7c348	0.0060962774
30	0xbc323714	-0.010877389
31	0xbd09874a	-0.033576287
32	0xbd3f8aa7	-0.04676309
33	0x3d2f5629	0.042806778
34	0x3bb1a0bd	0.005420773
35	0x3d8828e7	0.066484265
36	0xbd70d18e	-0.058793597
37	0xbd81a509	-0.06330306
38	0xbd9ca108	-0.07647902
39	0xbdb1ac32	-0.08675422
40	0x3cff9c41	0.031202437
41	0xbd476301	-0.0486784
42	0x3cfcc69b	0.030856421
43	0xbbd1cf8c	-0.0064029153
44	0x3d3b2837	0.04569265
45	0x3cc0251e	0.023455199
46	0x3bee0249	0.007263456
47	0xbd396eda	-0.045271732
48	0xbc286a27	-0.010279215
49	0xbe010922	-0.1260114
50	0xbbe399a9	-0.006945808
51	0x3d09817f	0.033570763
52	0x3d508c7c	0.050915226
53	0xbdc7129a	-0.09720345
54	0x3bcb6a6d	0.0062077553
55	0xbd38bcfd	-0.04510211
56	0x3d9451cc	0.07242164
57	0xbd40e49b	-0.047093015
58	0x3cbd2140	0.023087144
59	0xbd0d1e1b	-0.03445254
60	0x3c7641cf	0.015030338
61	0x3c19161e	0.009343652
62	0x3c9f44d4	0.019442
63	0xbd20e828	-0.0392839
64	0xbdd21804	-0.10258487
65	0x3bfc7904	0.007704856
66	0x3c22ed7f	0.009944319
67	0xbc7d13a2	-0.015446575
68	0x3d1d45a7	0.038396504
69	0x3d276b73	0.040873956
70	0xbd8332ab	-0.064061485
71	0xbd3babd7	-0.045818176
72	0x3ca673b5	0.020318845
73	0xbdd85b98	-0.10564345
74	0x3bd56bac	0.0065130796
75	0xbba79df1	-0.0051152636
76	0xbd04d2f5	-0.032427747
77	0x3cb7b00b	0.022422811
78	0x3c9a93f5	0.01886938
79	0xbd90f3ce	-0.07077752
80	0x3c9ef10a	0.019402046
81	0x3b61a19d	0.0034428604
82	0xbd010c19	-0.031505678
83	0xbda36763	-0.07978704
84	0x3cb3872a	0.021915037
85	0xbcb9b761	-0.02267045
86	0x3c5e5e08	0.0135722235
87	0xbcadea2c	-0.021229826
88	0x3d83d2c7	0.06436687
89	0xbdb76061	-0.0895393
90	0xbd750538	-0.05981943
91	0xbd803c6a	-0.06261523
92	0xbd2c7642	-0.042104967
93	0xbd0a3a0c	-0.033746764
94	0x3c9d7abc	0.019223563
95	0xbb6a40c0	-0.003574416
96	0xbceb7f13	-0.028747117
97	0xbc9feddc	-0.0195226
98	0xbbd8554b	-0.0066019646
99	0xbaa30b63	-0.0012439307
100	0xbdde6ba8	-0.108603776
101	0xbc3a78c0	-0.011381328
102	0xbdc0c48b	-0.094124876
103	0x3bcd264f	0.0062606703
104	0x3d5f5fa4	0.05453457
105	0x3c8f78f9	0.017513739
106	0x3ba68124	0.0050813127
107	0x3c497587	0.012296087
108	0xbcdd89e6	-0.027043294
109	0xb9fad6e4	-0.00047843822
110	0xbd65fa78	-0.05614707
111	0xbdd554d6	-0.10416572
112	0xbd1aba58	-0.037775367
113	0x3d37e5a7	0.044896748
114	0xb9871ac5	-0.0002576915
115	0xbd8e61dc	-0.06952259
116	0xbce5a255	-0.028031508
117	0x3b3ac064	0.0028496021
118	0xbdedc1bd	-0.11609218
119	0x3cdbf778	0.0268514
120	0xbc82ff39	-0.01599084
121	0xbc6e74a9	-0.014554181
122	0x3b3df632	0.0028985855
123	0xbd0aaef9	-0.033858273
124	0x3cd5ea93	0.02611283
125	0xbce1088d	-0.027469898
126	0xbd701c0b	-0.058620494
127	0x3cdb6062	0.026779357
128	0xbb25b526	-0.0025284975
129	0x3c8c6d65	0.017142007
130	0x3ce80876	0.028324347
131	0xbbbb3da5	-0.0057141357
132	0x3c38edbd	0.01128715
133	0x3bf3b9dc	0.0074379276
134	0x3cd0ce40	0.025488973
135	0xbbe29dae	-0.0069157695
136	0x3b02f2e0	0.001998119
137	0xbcbf2443	-0.02333272
138	0xbc8fd0b8	-0.01755558
139	0x3bc831ec	0.006109467
140	0xbce75c4a	-0.028242249
141	0x3becef7b	0.0072306967
142	0x3d24026b	0.04004137
143	0xbdbc2983	-0.09187605
144	0x3d607477	0.05479857
145	0xbd24ea59	-0.040262554
146	0xbc0eea02	-0.008722784
147	0x3c3883b9	0.011261874
148	0xbd2e22c3	-0.04251362
149	0x3bf85410	0.0075783804
150	0xbd09cf08	-0.033644706
151	0xbc5eb673	-0.013593304
152	0xbc5ba50e	-0.013406051
153	0xbd46c9fc	-0.04853247
154	0x3bcfb1c5	0.0063383305
155	0xbc61cc0d	-0.01378156
156	0xbd89ca10	-0.067279935
157	0xbda75805	-0.08171085
158	0x3d029dc8	0.031888753
159	0xbc3799da	-0.011206115
160	0x3bae2dd3	0.0053155213
161	0xbd9a6b3e	-0.07539986
162	0x3b9e809d	0.0048371092
163	0x3d42f718	0.04759893
164	0x3d051629	0.032491837
165	0x3c2f75bb	0.0107092215
166	0x39b4dedd	0.00034498321
167	0xbb1b3501	-0.0023682716
168	0xbc9b43b5	-0.018953184
169	0xbd47278c	-0.0486217
170	0xbd7dd953	-0.061974835
171	0x3cd88e2d	0.026434982
172	0x3d062809	0.032753024
173	0xbc6742f4	-0.014115084
174	0xbd10929e	-0.035296075
175	0x3ca159bf	0.019696115
176	0xbca50d9f	-0.020148097
177	0xbd25abab	-0.04044692
178	0xbd6d4b85	-0.05793335
179	0xbc9435bc	-0.018092029
180	0x3c0ba550	0.0085233
181	0x3d64fa5a	0.055902816
182	0xbddf0202	-0.10889055
183	0x3d0b1203	0.033952724
184	0x3d093113	0.033494066
185	0xbd3cbb74	-0.046077207
186	0x3d328909	0.04358772
187	0xbd5b7892	-0.05358178
188	0xbc2cc194	-0.0105441995
189	0x3ce11caa	0.027479488
190	0xbd32728a	-0.043566264
191	0xbcdf9ae4	-0.027295537
192	0xbca836d6	-0.02053396
193	0xbc9ed4fe	-0.019388672
194	0xbd480f89	-0.04884294
195	0x3db7a8e5	0.08967761
196	0xbd991a9c	-0.074757785
197	0xbda0269b	-0.078198634
198	0x3b0a3ee6	0.002109462
199	0x3d2b545c	0.0418285
200	0x3ca88af3	0.020574069
201	0x3c4c5f27	0.012473858
202	0xbd0a7473	-0.03380246
203	0xbbf3213c	-0.0074197333
204	0x3d3739b8	0.04473278
205	0xbd2fa166	-0.04287853
206	0x3d7640ed	0.06012051
207	0xbc505899	-0.012716436
208	0x3ba30911	0.004975446
209	0xbc05f45f	-0.008175938
210	0x3d9fdb41	0.07805491
211	0xbd5315b9	-0.05153439
212	0x3d4db71d	0.05022346
213	0x3cbb7652	0.022883568
214	0x3d8e3f45	0.069456615
215	0x3bc30227	0.0059511843
216	0xbcac4e89	-0.021033542
217	0xbce4a7d3	-0.027912056
218	0xbd937ee1	-0.072019346
219	0xbd33bcb6	-0.04388114
220	0xbc8ff0c7	-0.017570866
221	0xbd8a4b4a	-0.067526415
222	0xbcabc9e8	-0.0209703
223	0x3c56035e	0.013062326
224	0xbd8b921f	-0.0681498
225	0x3cfbbad9	0.030728744
226	0xbc8bc6a6	-0.017062496
227	0x3dc496f1	0.09599102
228	0x3c994824	0.018711157
229	0x3d1a3e7e	0.037657253
230	0xbcc892cf	-0.024484066
231	0xbd1015d9	-0.035177086
232	0x3dba19dd	0.09086964
233	0xbd2e533d	-0.04255985
234	0x3c31ffc9	0.010864207
235	0x3c55c3e0	0.0130471885
236	0x3b96cd08	0.0046020783
237	0x3d28fa54	0.041254357
238	0xbd3edb42	-0.04659582
239	0x3c6f84e2	0.014619084
240	0xbd8ac214	-0.06775299
241	0xbcc12243	-0.023575908
242	0xbdc7294a	-0.09724672
243	0xbd924051	-0.07141174
244	0x3cd1f14e	0.025627758
245	0xbdb5d437	-0.088783674
246	0xbcdace70	-0.026709765
247	0xbd053029	-0.032516632
248	0xbd09e158	-0.03366217
249	0x3d1e79cc	0.038690373
250	0x3cb1525b	0.021645715
251	0x3bca2f8f	0.00617022
252	0x3be1d742	0.006892116
253	0xbda2e3ab	-0.079535805
254	0xbcb32c5a	-0.021871734
255	0x3c3f48e2	0.011675091

model2.2.bias f4 [256]
0	0xbd212689	-0.03934339
1	0x3c85dbb9	0.016340123
2	0xbd806136	-0.062685415
3	0x3b0fb45c	0.002192757
4	0xbcb14522	-0.02163941
5	0xbd83c964	-0.064348966
6	0x3bd6bd41	0.0065533225
7	0x3cfe0edb	0.031012943
8	0xbc90a5e0	-0.01765722
9	0x3c988dc0	0.01862228
10	0xbd7d150c	-0.06178765
11	0xbd779141	-0.06044126
12	0x3d0d2af5	0.034464795
13	0x3c23b413	0.0099916635
14	0xbd1356d1	-0.035971466
15	0x3c032a9a	0.0080057625
16	0xb92b51eb	-0.00016338348
17	0xbd51271d	-0.051062692
18	0x3ac97852	0.0015370941
19	0xbd66b613	-0.056325983
20	0x3d1e131e	0.03859245
21	0x3cc527d9	0.024066852
22	0xbd2d1a79	-0.042261574
23	0xbd762401	-0.06009293
24	0x3b8d75c0	0.0043170154
25	0x3dd49882	0.10380651
26	0xbc10cb87	-0.008837587
27	0xbd5b0be1	-0.053478125
28	0xbda3b669	-0.07993776
29	0xbd17eed8	-0.037093014
30	0x3c24f16f	0.010067328
31	0xbd4bdb6f	-0.049769815
32	0x3a9acbcd	0.0011810005
33	0xbbdb0320	-0.006683722
34	0xbd100f35	-0.035170753
35	0x3d35aa68	0.044351965
36	0xbcef05cd	-0.02917757
37	0xbc5f0ba1	-0.013613612
38	0x3d3084e0	0.04309547
39	0xbcd97796	-0.02654628
40	0x3b32eb4f	0.00273009
41	0xbd046c3c	-0.032329783
42	0x3b8cc44a	0.0042958604
43	0xbd51dae0	-0.051234126
44	0xbca48e6e	-0.020087447
45	0xbd1c3eed	-0.03814595
46	0xbd3e9389	-0.04652742
47	0x3ca6106d	0.020271504
48	0x3d63306d	0.055466104
49	0xbc92547b	-0.017862549
50	0xbceb177c	-0.028697722
51	0xbd069ca7	-0.03286424
52	0x3d589870	0.05287975
53	0xbc9e76ee	-0.01934382
54	0xbcb57e90	-0.022155076
55	0xbb618853	-0.003441353
56	0xbc83979d	-0.016063506
57	0x3c2ce22a	0.010551969
58	0xbaec244f	-0.0018016192
59	0x3a31bca2	0.00067801226
60	0xbd2e4f18	-0.0425559
61	0xbd091415	-0.033466417
62	0xbd57a7c2	-0.05265022
63	0xbcfb31b6	-0.030663352
64	0x3c9d05f4	0.019167878
65	0xbd05a6f7	-0.032629933
66	0xbd11655d	-0.03549706
67	0xbb73e491	-0.0037215094
68	0x3d2201a6	0.039552353
69	0xbd0e8622	-0.034795888
70	0xbccb9b58	-0.024854347
71	0xbd4d1ab2	-0.050074287
72	0xbabae86e	-0.0014259943
73	0xbcba7c8c	-0.022764467
74	0xbc87460f	-0.016512899
75	0xbc27a88f	-0.010233059
76	0xba1cd292	-0.0005982305
77	0xbcc1cbcd	-0.02365675
78	0xbc84498d	-0.016148353
79	0x3c7bd778	0.015371196
80	0xbc962abd	-0.018330926
81	0xbc0a6f02	-0.008449318
82	0xbd69855f	-0.05701196
83	0xbd830734	-0.06397858
84	0xbc0b7727	-0.008512295
85	0x3b21a38f	0.002466414
86	0xbc236a39	-0.009974056
87	0xbd9538a6	-0.072861955
88	0x3d31d11f	0.043412324
89	0xbd571d7d	-0.052518357
90	0xbcd4e201	-0.025986673
91	0xbd92ad82	-0.07162
92	0xbd1a11fd	-0.03761481
93	0xb9e6d293	-0.0004402591
94	0xbaefee4e	-0.0018305273
95	0x3c140d5d	0.009036389
96	0xbc7e9ea2	-0.015540751
97	0x3ce9c42b	0.028535923
98	0xbb5729c4	-0.003283129
99	0x3c00aff6	0.007854452
100	0x3af15f8b	0.0018415315
101	0xbd8c7d69	-0.068598576
102	0x3cf48d88	0.029852644
103	0xbcb62bae	-0.022237625
104	0xbce67b70	-0.028135031
105	0xbc7aca56	-0.01530703
106	0xbcb5b9f7	-0.022183402
107	0x3c8ae210	0.016953498
108	0x3c598379	0.013275974
109	0xbd418e67	-0.047254946
110	0xbcbcd79d	-0.023052031
111	0x3c451084	0.012027863
112	0x3cdce782	0.02696586
113	0x3d926b00	0.07149315
114	0x3c7d8bd5	0.015475233
115	0x3cb89f6e	0.02253696
116	0x3b9b61b9	0.004741874
117	0xbcfc3d3a	-0.030790914
118	0xbd4acb73	-0.04951043
119	0xbcf179cf	-0.029477028
120	0xbc892bc9	-0.016744511
121	0xbce3e7de	-0.027820524
122	0x3bb21750	0.005434908
123	0xbd2d6b06	-0.042338394
124	0xbd29ce34	-0.041456416
125	0x3db463f6	0.088081285
126	0x3d2aa643	0.041662466
127	0xbc95e052	-0.01829544
128	0xbd2c6ed1	-0.04209787
129	0x3cbac7b5	0.022800306
130	0x3c3b5dc8	0.011435933
131	0xbd946d96	-0.07247464
132	0x3cfe16e7	0.03101678
133	0x3c839fde	0.016067442
134	0x3c10396d	0.008802754
135	0xbcccfbb8	-0.025022373
136	0xbcae179f	-0.021251498
137	0xbd5b440c	-0.05353169
138	0xbcb5265f	-0.022113023
139	0xbc18bdaa	-0.009322563
140	0xbbb48dec	-0.0055100825
141	0x3c68af5a	0.014201963
142	0xbd0fcc9b	-0.035107236
143	0xbc526248	-0.012840815
144	0xbc83ed2f	-0.016104309
145	0x3cc51b9a	0.024061013
146	0xbd3c7faa	-0.046020187
147	0xbc565adf	-0.013083189
148	0x3d2d1758	0.04225859
149	0xbd5dc93f	-0.054147
150	0xbca4c7c0	-0.02011478
151	0xbcd48e07	-0.02594663
152	0xba39d7b8	-0.00070893345
153	0xbccccfb5	-0.025001386
154	0xbd501338	-0.05079958
155	0x3d8911ec	0.066928715
156	0xbce9d55e	-0.028544124
157	0xbd8e6565	-0.06952933
158	0xbd5dcf20	-0.054152608
159	0xbd4f8e6d	-0.050672937
160	0xbb49fdb5	-0.0030821387
161	0x3b874ec8	0.0041292645
162	0xbc49a4b3	-0.012307334
163	0x3c96dfed	0.018417323
164	0xbd23734d	-0.03990488
165	0x3b44b199	0.0030013083
166	0xbd2b8642	-0.041876085
167	0xbc70c1ed	-0.014694673
168	0xbce9c2c8	-0.028535262
169	0x3d0b6a52	0.03403694
170	0xbccd87b2	-0.025089119
171	0xbd8a33d8	-0.0674817
172	0xbd49f939	-0.049309943
173	0xbcf259cc	-0.029583834
174	0x3d39d23d	0.045366514
175	0x3d480a51	0.048837963
176	0x3c6090bc	0.013706382
177	0xbd42c629	-0.04755226
178	0xbc7b668e	-0.015344275
179	0xbd17c017	-0.037048426
180	0x3c00299e	0.007822422
181	0xbc5bd719	-0.0134179825
182	0xbd2cccd2	-0.04218752
183	0xbc1667cd	-0.0091800215
184	0x3d018826	0.031623982
185	0xbc59c327	-0.013291157
186	0x3bd066e8	0.0063599236
187	0x3c10fac3	0.008848849
188	0x3cc67547	0.024225844
189	0xbc9bfc6d	-0.019041264
190	0xbd8f9b7e	-0.0701208
191	0xbcf64a6a	-0.03006478
192	0x3c35444b	0.011063646
193	0x3c1cc970	0.009569511
194	0xbcac2be1	-0.021017017
195	0x3d06b61b	0.032888513
196	0x3bf8354a	0.007574712
197	0xbb4d70f3	-0.003134784
198	0xbd547a1a	-0.051874258
199	0x3c02ff5f	0.0079954555
200	0x3c6384a8	0.013886608
201	0xbc801474	-0.015634753
202	0xbd54be5a	-0.051939346
203	0xbb353944	-0.0027652541
204	0xbd051bc5	-0.032497186
205	0x3c68d2fb	0.014210458
206	0x3c4fd67a	0.012685413
207	0xbb748e4e	-0.0037316266
208	0x3d097ff1	0.03356928
209	0x3c8db56d	0.017298425
210	0xbd1e5205	-0.03865244
211	0xbd30a83f	-0.043129202
212	0xbd4c40e0	-0.049866557
213	0xbd28d2df	-0.041216727
214	0x3c4e6980	0.012598395
215	0xbb5b3eab	-0.00334541
216	0xbc1f22fe	-0.009712933
217	0xbcbba6d5	-0.0229067
218	0x3d082b30	0.03324431
219	0x3cb651ea	0.022255857
220	0xbd872bb1	-0.0660013
221	0x3b9706f8	0.004608985
222	0xbcef6523	-0.02922303
223	0xbd5d0427	-0.053959038
224	0xbd4f9267	-0.05067673
225	0x3c58935d	0.013218728
226	0xbc24986b	-0.010046105
227	0xbc930266	-0.01794548
228	0xbd90b263	-0.070652746
229	0xbbe1d7b4	-0.006892169
230	0x3be0702f	0.006849311
231	0x3c8b0b5e	0.016973194
232	0x3bece5ee	0.007229558
233	0x3c268999	0.010164642
234	0xbd49b328	-0.049243122
235	0xbcc4d727	-0.024028374
236	0xbd72283c	-0.0591204
237	0xbd9e1e72	-0.07720651
238	0xbda5eb97	-0.08101576
239	0xbd657aa0	-0.056025147
240	0xbd18181a	-0.03713236
241	0x384f50b4	4.9427807e-05
242	0xbcaed49d	-0.021341616
243	0x3bb45b9b	0.0055040843
244	0xbd05ad6b	-0.032636087
245	0x3c8dff31	0.017333599
246	0xb948ba99	-0.00019143
247	0xbd0572f2	-0.032580324
248	0x3b38cb34	0.002819729
249	0x3c88eba6	0.016713928
250	0xbc8a8f8b	-0.01691415
251	0xbd1695eb	-0.036764067
252	0xbd41108f	-0.047134932
253	0xbcc30471	-0.023805829
254	0xbd8bb28d	-0.06821165
255	0xbc21d0f1	-0.009876476

model2.4.weight f4 [64, 256]
0	0xbc941617	-0.01807694
1	0x3d577c2d	0.052608658
2	0xbd12f451	-0.03587753
3	0x3d403e76	0.046934567
4	0x3c555d7a	0.013022775
5	0x3d218491	0.039433066
6	0xbcc8c567	-0.024508191
7	0x3cc0e01d	0.023544366
8	0xbcaba936	-0.02095471
9	0x3c6fa500	0.014626741
10	0x3c5f1b9f	0.013617425
11	0x3cf2537a	0.02958082
12	0xbcc3ed21	-0.023916783
13	0x3cfcef6c	0.030875884
14	0x3da3c193	0.07995906
15	0x3d2fa61c	0.042883024
16	0xb9735275	-0.00023205004
17	0x3bfe36e2	0.0077580074
18	0x39fe2053	0.0004847074
19	0xbd6e88e5	-0.05823602
20	0x3c8379e5	0.016049335
21	0xbd913c90	-0.070916295
22	0x3d4aa7a5	0.049476285
23	0x3b95502e	0.0045566773
24	0xbd9f6923	-0.07783725
25	0xbc41dc3c	-0.011832293
26	0xbd3a6e15	-0.04551514
27	0x3d8b841e	0.06812309
28	0x3d3f8c5b	0.046764713
29	0x3d3d1595	0.04616316
30	0x3c7345e8	0.01484821
31	0x3d7f441c	0.062320814
32	0xbba0ce7d	-0.004907428
33	0x3c25a46e	0.010110004
34	0x3a61b2bb	0.0008609702
35	0xbce706a1	-0.028201403
36	0x3d5eb582	0.054372318
37	0x3d5655f9	0.052328084
38	0xbd103742	-0.035208948
39	0xbc371935	-0.011175443
40	0xbd2a2e86	-0.041548274
41	0xbb5eaf4e	-0.0033979001
42	0x3c62359c	0.013806727
43	0xbbb1acaf	-0.005422197
44	0xbce375ea	-0.027766187
45	0x3d4951cb	0.04915027
46	0x3d31887e	0.04334306
47	0xbd3005a5	-0.042974133
48	0xbc52ab1b	-0.012858178
49	0xbd5e3766	-0.05425205
50	0x3d29f5f6	0.041494332
51	0x3d81dfa6	0.06341486
52	0xbd34dbf9	-0.044155095
53	0xbdbd4c52	-0.092430726
54	0xbc88cf45	-0.016700396
55	0xbd42bf5d	-0.04754578
56	0x3d023493	0.03178842
57	0xbd7bfdd3	-0.061521363
58	0x3bbec12f	0.005821369
59	0xbd374e85	-0.044752616
60	0xbc700c88	-0.014651425
61	0x3c799451	0.015233115
62	0x3cb8e67a	0.022570837
63	0x3d2ae92f	0.041726287
64	0x3c25ad68	0.010112144
65	0x3d6cdca2	0.0578276
66	0xbd01128a	-0.03151182
67	0xbdad8446	-0.08472495
68	0x3cabfd89	0.020994918
69	0xbcf0f9a9	-0.029415922
70	0x3d00fb45	0.03148963
71	0x3cbc54b5	0.02298961
72	0xbc82adc9	-0.015952008
73	0x3c3ae844	0.0114079155
74	0xbda8f310	-0.082494855
75	0xbd53f7c8	-0.051749974
76	0x3daf3755	0.085554756
77	0x3d564021	0.05230725
78	0xbc9d226b	-0.01918145
79	0xbd7827eb	-0.060584944
80	0x3d5314b8	0.05153343
81	0xbd44c6b9	-0.04804108
82	0x3d274bdd	0.040843833
83	0xbaf940db	-0.0019016521
84	0x3d236722	0.039893277
85	0xbbaf7221	-0.0053541814
86	0x3d374a76	0.044748746
87	0xbce8fa41	-0.028439643
88	0xbd34079b	-0.043952566
89	0xbb6b83fa	-0.0035936818
90	0x3c75c35a	0.015000189
91	0x3dabfb68	0.08397561
92	0x3d5b358a	0.053517856
93	0xbd4ad682	-0.049520977
94	0x3b20f699	0.0024561046
95	0x3a86d6cb	0.0010287402
96	0x3df89444	0.121376544
97	0x3d816fd5	0.063201584
98	0x3c6817ec	0.01416586
99	0xbd5b4b0e	-0.053538375
100	0xbcf9edb1	-0.030508848
101	0xbcb650fd	-0.022255415
102	0xbc794b96	-0.015215775
103	0x3c9d1bb8	0.019178256
104	0x3d308a6a	0.043100752
105	0xbcfbd4ab	-0.030741056
106	0xbd5a76c8	-0.053335935
107	0x3ab3a843	0.0013706762
108	0xbd8ab349	-0.06772477
109	0xbd507ea5	-0.050902028
110	0x3ca55655	0.020182768
111	0xbdaf8188	-0.08569628
112	0x3cc9bf85	0.024627456
113	0xbd048ae1	-0.032359008
114	0xbccf96b7	-0.025340421
115	0xbc000105	-0.007812743
116	0xbd2f2d86	-0.042768024
117	0x3cc9d106	0.024635803
118	0x3cb8a540	0.022539735
119	0xbd333552	-0.043752022
120	0x3c04ce1f	0.008105784
121	0x3d220faf	0.03956574
122	0xbdbba527	-0.0916236
123	0xbcef5a78	-0.029217944
124	0xba4a3cba	-0.00077147374
125	0xbd073bb6	-0.03301593
126	0xbc40abc2	-0.0117597
127	0x3c9cd9c2	0.019146804
128	0x3cd58bf5	0.026067713
129	0xbe0a75dc	-0.13521522
130	0xbd3f64c0	-0.046726942
131	0x3ce328b8	0.027729377
132	0xbd03b660	-0.03215635
133	0x3ca341cd	0.019928837
134	0xbdf9e079	-0.12201018
135	0xbd6f841a	-0.05847559
136	0x3d121e87	0.035673644
137	0xbd6bf409	-0.057605777
138	0x3da86790	0.08222878
139	0x3cdd6739	0.02702676
140	0xbcb259cd	-0.021771336
141	0x3d25a882	0.040443905
142	0x3d005258	0.03132853
143	0x3cdc4a3b	0.026890865
144	0xbd531011	-0.051528994
145	0xba238d2c	-0.0006238993
146	0xbd3f6355	-0.04672559
147	0x3c37568e	0.01119007
148	0xbc8c18c1	-0.017101647
149	0xbb496b75	-0.0030734215
150	0x3d9dc7af	0.07704102
151	0xbd38e812	-0.045143194
152	0x3d3624f4	0.044468835
153	0xbbd1bfef	-0.006401054
154	0xbc7d3aff	-0.01545596
155	0xbd850176	-0.06494419
156	0xbd685873	-0.056724977
157	0x3d019643	0.03163744
158	0xbd1c4ff1	-0.038162176
159	0x3c76f89d	0.015073922
160	0xbc8ebd67	-0.017424298
161	0x3d47b371	0.048755113
162	0x3d70654d	0.058690358
163	0xbcb5efeb	-0.022209128
164	0x3d6fc9e1	0.058542136
165	0x3c31005a	0.0108033065
166	0xbc80acc5	-0.015707383
167	0x3c841ceb	0.01612707
168	0xbcb7d87f	-0.0224421
169	0x3cc5e730	0.02415809
170	0x3d7f599b	0.062341314
171	0x3cc65c45	0.02421392
172	0x3c4eb847	0.012617177
173	0x3c9fcc2d	0.019506538
174	0xbbaf2194	-0.005344579
175	0x3d271844	0.040794626
176	0x3ce1232d	0.027482593
177	0xbc9cb435	-0.019128898
178	0xbc190f9f	-0.009342103
179	0x3d0a8a29	0.033823166
180	0x3c88246d	0.016618932
181	0x3d12d225	0.03584494
182	0x3ce7acbe	0.028280612
183	0x398af9e3	0.0002650759
184	0x3d56e666	0.05246582
185	0x3bc9aa8c	0.006154364
186	0xbcd5b4bb	-0.026087156
187	0x3d4f00e9	0.050537977
188	0x3c9c4b0a	0.01907875
189	0x3d18485d	0.037178386
190	0x3d896429	0.06708557
191	0x3c264162	0.010147424
192	0x3ad67f5e	0.0016364863
193	0x3d1f1495	0.038837988
194	0xbbfbe39f	-0.0076870467
195	0xbc5b0cd5	-0.013369759
196	0x3d88f04e	0.066864595
197	0xbc37c8df	-0.011217325
198	0x3d197f2a	0.03747479
199	0xbd342717	-0.04398259
200	0xbcc2caf4	-0.023778416
201	0x3d737a9b	0.059443098
202	0xbcea725a	-0.02861898
203	0x3c19922d	0.00937323
204	0xbbc8aa0e	-0.0061237877
205	0x3d306392	0.043063708
206	0x3d814b5d	0.063132025
207	0x3d2a44d4	0.041569546
208	0x3d865d7e	0.06560801
209	0x3d8d8f2e	0.06912075
210	0xbd4aab16	-0.049479567
211	0x3d494ac9	0.049143586
212	0xbd56d7dc	-0.052451953
213	0x3d115295	0.035479147
214	0x3d87cff2	0.06631459
215	0xb9061211	-0.00012785966
216	0x3d08d137	0.033402648
217	0xbd0a2a7c	-0.033731923
218	0x3d4605e9	0.04834548
219	0xbcf729c9	-0.030171292
220	0xbdb673c4	-0.08908799
221	0xbcf6008b	-0.030029556
222	0x3d32795a	0.04357276
223	0x3cde4152	0.027130757
224	0xbd2fd90e	-0.04293161
225	0xbcee029d	-0.02905398
226	0xbd33128e	-0.043718867
227	0xbda70a19	-0.08156223
228	0xbca66d00	-0.020315647
229	0xbcc0f9a8	-0.023556545
230	0x3cc1e137	0.023666961
231	0xbd8936c5	-0.066998996
232	0x3cb30be7	0.021856261
233	0xbd67b85e	-0.05657231
234	0xbcd90014	-0.026489295
235	0x3c1a91e1	0.009434194
236	0xbd05ae16	-0.032636724
237	0x3d58689f	0.05283415
238	0xbd8a564f	-0.06754743
239	0xbd8e5b49	-0.06951005
240	0x3d4cea22	0.050027974
241	0xbd136672	-0.03598637
242	0x3d4bb525	0.0497333
243	0x3bb697a5	0.0055722767
244	0x3d34b7c7	0.044120576
245	0x3d0d6815	0.03452309
246	0xbda64cf7	-0.08120149
247	0x3b84fbd8	0.0040583424
248	0xbd33b80c	-0.043876693
249	0xbdab7006	-0.08370976
250	0xbd187630	-0.037222087
251	0xbd2d6563	-0.042333018
252	0x3d4a8800	0.049446106
253	0xbba94f20	-0.005166903
254	0x3ca6937a	0.020333994
255	0x3d55fa72	0.052240796

model2.4.bias f4 [64]
0	0xbd57b9e3	-0.05266751
1	0xbd9d96b6	-0.076947615
2	0x3bb792e6	0.0056022285
3	0x3d0a32ce	0.033739857
4	0xbbb6b042	-0.005575211
5	0xbd2b4f79	-0.041823838
6	0xbc58f2e6	-0.013241505
7	0xbd13d0a0	-0.036087632
8	0xbcd1dd51	-0.025618227
9	0x3d1370a3	0.03599609
10	0xbd561bd7	-0.052272644
11	0xbc3ce54c	-0.011529278
12	0xbd568092	-0.052368708
13	0xbc2b02ff	-0.010437726
14	0xbd438c4d	-0.047741223
15	0xbd7b4bcf	-0.061351594
16	0x3d6c6423	0.057712685
17	0x3ddb90ae	0.10720955
18	0xbd967742	-0.073469654
19	0x3d9058ce	0.07048188
20	0xbd3d2a63	-0.046183
21	0x3cb9af84	0.0226667
22	0xbaeadee3	-0.0017919209
23	0xbce12413	-0.027483022
24	0x3cce11c4	0.025154956
25	0xbbf33311	-0.007421859
26	0xbd003ab7	-0.031305995
27	0x3cebb842	0.028774384
28	0xbd81bf6a	-0.063353375
29	0x3c347530	0.011014268
30	0xbd61a9bb	-0.05509351
31	0x3d3cbaa6	0.04607644
32	0xbcbbce30	-0.022925466
33	0x3cb4e070	0.022079676
34	0x3c11d05c	0.008899774
35	0x3d465aa7	0.048426297
36	0xbd210479	-0.039310906
37	0x3af8b979	0.0018976174
38	0xbbd276a1	-0.006422833
39	0xbc850c18	-0.016241118
40	0x3d8a05a5	0.06739358
41	0xbc296076	-0.0103379395
42	0x3d85a4a2	0.06525542
43	0xbbbf61f0	-0.0058405325
44	0xbd75902c	-0.059951946
45	0xbc3bd5a9	-0.011464515
46	0xbcdfb46b	-0.02730771
47	0x3ccc3ccf	0.02493134
48	0xbd2829e7	-0.041055586
49	0x3d06a663	0.032873522
50	0xbccdbf9e	-0.025115784
51	0x3d39ae29	0.045332108
52	0x3cb49993	0.022045886
53	0x3d6b7d36	0.057492457
54	0x3d6d796e	0.057977132
55	0xbcca744e	-0.024713662
56	0x3b1c13c7	0.00238155
57	0xbd293242	-0.041307695
58	0x3cb3c8d2	0.021946345
59	0x3d8aff69	0.06786997
60	0x3ccba9bf	0.024861215
61	0xbc71d40d	-0.0147600295
62	0x3cf642c3	0.030061131
63	0xbd116a16	-0.035501562

model2.6.weight f4 [4, 64]
0	0xbd1f62ee	-0.038912706
1	0xbc4b5f41	-0.012412847
2	0xbdd8a9b6	-0.10579245
3	0x3d56b43f	0.05241799
4	0xbd5cd44b	-0.053913396
5	0xbd024d76	-0.031812154
6	0xbd855b61	-0.0651157
7	0x3daf6072	0.08563317
8	0xbce33f21	-0.027740063
9	0xbd67b5ea	-0.05656997
10	0x3ceaa73f	0.028644202
11	0x3daa7596	0.08323209
12	0x3c64facc	0.01397581
13	0x3d52fac1	0.05150867
14	0xbd8ab569	-0.067728825
15	0x3e21c355	0.1579717
16	0xbdc3f600	-0.09568405
17	0x3db9d78d	0.09074316
18	0xbc95ed17	-0.01830153
19	0xbdcc2132	-0.09967269
20	0xbc6a6718	-0.014306806
21	0x3e0449d3	0.12918787
22	0x3dfa652d	0.12226329
23	0x3def0ac2	0.11671974
24	0xbcd9b1fb	-0.026574126
25	0xbcc1c125	-0.023651669
26	0x3d6c2aca	0.057657994
27	0xbd3e462e	-0.046453647
28	0x3d322b41	0.04349828
29	0x3de20c50	0.11037505
30	0x3bc2b405	0.00594187
31	0xbd9e5e56	-0.07732837
32	0xbcaf1ae3	-0.021375125
33	0x3e15d3da	0.14631596
34	0xbe0eb452	-0.13935974
35	0xbe035bd5	-0.12828
36	0x3db759b4	0.089526564
37	0xbda8f96c	-0.082506984
38	0xbc0365d9	-0.008019888
39	0x3dd9edea	0.10641082
40	0x3e3ce609	0.18447126
41	0xbdeda6bb	-0.11604067
42	0xbe082f9d	-0.13299413
43	0x3be26a10	0.0069096163
44	0x3d7793a1	0.060443524
45	0xbd85c060	-0.06530833
46	0xbde66766	-0.112501904
47	0x3d44141c	0.04787074
48	0xbc67a11d	-0.0141375335
49	0xbd31889b	-0.043343168
50	0xbb668422	-0.0035173972
51	0xbdec6423	-0.11542537
52	0xbca3e329	-0.02000578
53	0x3e0ddc83	0.1385365
54	0x3e05b2cd	0.13056488
55	0x3def718d	0.1169158
56	0x3db9ed99	0.09078521
57	0x3e005a93	0.12534551
58	0x3dd7ee46	0.10543494
59	0xbc47468a	-0.012162814
60	0xbd9b9b88	-0.075980246
61	0xbdc3922b	-0.09549364
62	0xbe295ce2	-0.16539338
63	0xbb1deedb	-0.0024098668
64	0x3dcd6e51	0.10030807
65	0x3d78bef1	0.06072897
66	0x3d1d59c5	0.03841569
67	0xbc3661ab	-0.011131684
68	0x3d4f9edd	0.050688613
69	0x3da06301	0.078313835
70	0x3def7cfd	0.116937615
71	0x3df3cccc	0.11904296
72	0x3e030845	0.12796123
73	0xbcafd80d	-0.021465326
74	0x3d99f3d1	0.075172074
75	0xbd4fc1de	-0.050721996
76	0xbd6f2356	-0.05838331
77	0xbdafc4a8	-0.08582431
78	0x3d2959e2	0.041345485
79	0x3d6a12fa	0.057147004
80	0x3d9a2950	0.07527411
81	0x3de232eb	0.11044868
82	0x3d9f8815	0.077896275
83	0xbcb089d8	-0.021550104
84	0xbdc03b8b	-0.09386357
85	0xbd6fbc0b	-0.05852894
86	0xbd711495	-0.05885752
87	0xbd80d67e	-0.06290911
88	0xbcbfbe24	-0.023406096
89	0xbbbe1d33	-0.0058018207
90	0xbd0eb541	-0.034840826
91	0x3e0284fe	0.12746045
92	0xbd79177c	-0.060813412
93	0x3d01920e	0.03163343
94	0xbca9850a	-0.02069332
95	0xbccdd258	-0.025124714
96	0x3dd6486d	0.10463033
97	0x3d095a30	0.033533275
98	0xbe22856f	-0.15871213
99	0xbdd32155	-0.10309092
100	0x39dd7dff	0.0004224628
101	0xbe18d22c	-0.14923924
102	0x3df9a73c	0.121901006
103	0x3d66f7ef	0.05638879
104	0xbd543708	-0.051810294
105	0xbda9674a	-0.08271654
106	0xbe2b5678	-0.16732204
107	0xbd120f28	-0.035658985
108	0x3d5c1bd0	0.05373746
109	0xbd37d8db	-0.044884544
110	0xbe1a1bef	-0.15049718
111	0x3d942276	0.072331354
112	0xbce42c8c	-0.027853273
113	0xbd9db1a1	-0.07699896
114	0x3d8137ba	0.06309457
115	0xbd92941b	-0.07157155
116	0x3e040039	0.1289071
117	0xbd40cb4f	-0.04706889
118	0xbdacf25b	-0.08444663
119	0x3d5d7081	0.05406237
120	0xbd7d8cf5	-0.061902005
121	0x3e08b821	0.1335149
122	0x3c1bcc94	0.009509224
123	0xbe232446	-0.15931806
124	0x3dc7a166	0.09747581
125	0xbda774a2	-0.08176543
126	0x3dbb73a0	0.09152913
127	0x3dadb86a	0.0848244
128	0x3d156e5d	0.036482204
129	0x3e3cca60	0.18436575
130	0x3dce4dd1	0.10073436
131	0x3d375f9f	0.044768926
132	0x3cda92fb	0.026681414
133	0xbd25800b	-0.040405314
134	0x3dcc154a	0.09964998
135	0xbd4ffe2b	-0.050779503
136	0xbe14b989	-0.14523901
137	0xbd3e2e11	-0.04643065
138	0xbcd80b94	-0.026372708
139	0x3d1edbf1	0.03878397
140	0x3c107278	0.008816354
141	0x3d87829f	0.06616711
142	0xbdbc5038	-0.09194988
143	0x3d2b4745	0.041816015
144	0x3db1b9c4	0.0867801
145	0xbde24b68	-0.11049539
146	0x3cbc605a	0.022995163
147	0xbcb230a0	-0.021751702
148	0x3ca79a37	0.020459278
149	0xbc5e96f7	-0.0135857975
150	0xbd91244c	-0.07087001
151	0x3c431d25	0.011908804
152	0xbdd9cfb2	-0.10635318
153	0xbcac24c9	-0.021013634
154	0xbd9704b9	-0.07373948
155	0xbd42b80d	-0.047538806
156	0xbcff2b0f	-0.031148462
157	0x3aff7eae	0.001949271
158	0xbd5902fe	-0.05298137
159	0xbdca5930	-0.098802924
160	0x3d8ff04f	0.07028257
161	0xbd98e5b8	-0.074656904
162	0x3cf032c5	0.029321084
163	0x3e04a3c3	0.12953095
164	0xbcbd1080	-0.023079157
165	0x3da07211	0.078342564
166	0xbcc1a16d	-0.023636544
167	0x3e138300	0.14405441
168	0xbdab0b9b	-0.08351823
169	0x3dee0ae8	0.11623174
170	0xbd030c0b	-0.031993907
171	0xbc8f847d	-0.01751923
172	0x3e107f07	0.14110957
173	0xbdb71b46	-0.08940749
174	0x3cc38ee2	0.023871843
175	0xbd0f0d3f	-0.03492474
176	0x3d85a704	0.06525996
177	0xbc529b7c	-0.012854453
178	0x3c3da36f	0.01157461
179	0x3d75fa76	0.06005331
180	0x3e042e6c	0.12908334
181	0x3d6a9432	0.057270236
182	0x3d4a364a	0.04936818
183	0xbd18d924	-0.037316456
184	0xbd3af29b	-0.045641523
185	0x3dc5ea64	0.09663847
186	0x3e095bb0	0.13413882
187	0xbd80466f	-0.06263434
188	0xbc42cdfd	-0.011889932
189	0xbde5b6d5	-0.11216513
190	0x3d595ada	0.05306516
191	0x3e0c61c1	0.13709165
192	0xbd8dbf27	-0.06921225
193	0xbd17976d	-0.037009645
194	0xbd39c1cd	-0.04535084
195	0x3cfe4014	0.031036414
196	0xbd923705	-0.071394004
197	0x3dd0e899	0.102006145
198	0xbc5992af	-0.013279601
199	0x3d6e9494	0.058247164
200	0x3d9d3ce0	0.076776266
201	0x3db39648	0.08768898
202	0xbd3f6b88	-0.04673341
203	0x3ddc2066	0.10748367
204	0x3d8458b5	0.06462232
205	0x3d29768a	0.041372813
206	0x3d68c2cb	0.056826394
207	0xbde73cf3	-0.11290922
208	0x3de7a047	0.11309867
209	0x3e2fe0e1	0.17175628
210	0xbd71ad8d	-0.0590034
211	0x3a608566	0.00085648
212	0xbdab8371	-0.0837468
213	0xbdb089cd	-0.086200334
214	0x3df68292	0.12036623
215	0xbcfdf28a	-0.03099944
216	0x3d6529e1	0.055948142
217	0xbdcf56e6	-0.101239964
218	0xbd708ca5	-0.05872788
219	0x3dca277c	0.09870812
220	0x3d4e2237	0.0503256
221	0xbc1493e2	-0.009068461
222	0x3d9fb37e	0.07797907
223	0x3db57fdc	0.08862278
224	0xbd1b343d	-0.037891615
225	0x3d5e6778	0.054297894
226	0x3c4b0990	0.012392417
227	0x3d24d784	0.040244594
228	0xbe107e9d	-0.14110799
229	0xba70ba25	-0.0009183011
230	0x3d0d7f62	0.03454531
231	0x3de43bca	0.11144216
232	0x3ceff06e	0.02928945
233	0xbcd60644	-0.026126035
234	0xbc279359	-0.0102280015
235	0xbdd925e4	-0.1060293
236	0x3dcd347e	0.10019778
237	0xbcc8ad25	-0.024496624
238	0xbd75f744	-0.060050264
239	0x3e0e0f08	0.13872921
240	0x3d036a72	0.032083936
241	0xbd3e0d98	-0.046399683
242	0x3d879906	0.06620984
243	0x3df074f8	0.1174106
244	0x3dde0c77	0.10842221
245	0x3cb22a78	0.021748766
246	0x3deecbfc	0.11660001
247	0xbd8f6d66	-0.07003288
248	0xbd3d9634	-0.046285823
249	0x3cad3f01	0.021148207
250	0x3c05493c	0.008135136
251	0x3ba34bc1	0.004983396
252	0xbd223c03	-0.039608013
253	0xbd80a97d	-0.06282327
254	0x3cbe0a22	0.023198191
255	0xbce0025e	-0.027344879

model2.6.bias f4 [4]
0	0x3d2837eb	0.041068953
1	0xbdef2f04	-0.116788894
2	0x3d6eab5f	0.0582689
3	0x3db96bd4	0.0905377
