model_weight/actor/13_13 20:10:02 std 0.5 lr_actor_0.0004- gamma_0.8 memory500 actor_weight.pth (torch, 646091 bytes, 9 tensors)

std f4 [4]
00000000: ab44 4f3e b8e0 9f3e 8e50 143e 8146 3f3e
0.20241039 0.31226134 0.14483854 0.18679239

model2.0.weight f4 [512, 24]
00000000: 9c62 6bbe 8641 62be fc5a 3e3e 21ba a0bd
00000010: eb66 e4bd 1983 413e bdf7 7a3e 3335 153e
00000020: b4b2 7a3d 6dc9 00be 3d76 febc 5c3c e93b
00000030: f3d8 013e 57a0 4a3e 8bf1 20be f517 4d3e
00000040: f2b2 2abe e7fa e43b d413 37be 6681 79bd
00000050: 5e2f 573e 55de 04be 2b67 0ebe 185d 0abd
00000060: 3c84 8abd be99 453d 6ee6 1b3e b6af 04be
00000070: 1a57 3aba 7328 4dbe 5ed3 0fbe 1771 05bd
00000080: 1e67 1f3e 79fc 8cbd e296 a1bb 53e4 40be
00000090: 53ad bbbd 7366 b3bd 63fa 7f3d 6a77 2f3e
000000a0: 02c5 11be 0e4a 92bd b89f 1ebe b79a caba
000000b0: a262 10bd c736 443d 3b31 2a3e 6d91 f73d
000000c0: 0a85 503e 1c29 37be bb3f b1bd 8bf7 e7bd
000000d0: 2028 7739 eca6 c33d f5c0 e93d b7c9 05bc
000000e0: 1197 13bb 36b2 343e 6d62 b73d 2cb1 153e
000000f0: dd60 c2bd 2367 20bd 8a7c dabc b8f8 e73d
00000100: a42b 9ebd 2285 32be 96dc 99bd 63c7 d13d
00000110: 829b 8c3d 4788 143e 7d66 193d 7919 3b3e
00000120: a0e7 373e 18e2 843d e91a 50be ed76 60be
00000130: 605d 843e d0d0 f73d 3a35 21bd 299a de3d
00000140: 7100 babb b8c2 813e 55c0 17bd 201a 38be
00000150: 130f ca3d 1bef a1bd 7485 15be c2fe 96bd
00000160: 903d 8f3d ae5c 14be 4a26 883d caa1 1dbe
00000170: 577b 3c3e 5653 bd3d 40d4 a43d 62d8 e93d
00000180: f8dd 273e 01a6 c3bd 3c5d d33d ef32 d4bb
00000190: e555 4c3e 3a98 26be acdf 9b3d 6e72 a53d
000001a0: 374e d1bd 28e2 49be a8aa 0dbd 0b57 083e
000001b0: 198e 133d 1899 9f3d 71c5 323e 12ea 08be
000001c0: ba49 17be a157 903d 366e dcbb 4eaf 2c3e
000001d0: 9cc6 e2bd 0c77 24be 5331 633e 881e 763b
000001e0: bc46 0dbd 60c0 833c 8117 4dbe e36e 343e
000001f0: 5f67 de3c 2f02 e9bd 5d42 333e eea4 22be
00000200: a810 e4bd f1b6 a3bd 839b 913d 6cad c73d
00000210: 386f 43bc b8c7 cebd a1e0 cfbd 4e4b 2ebe
00000220: 1dcc 013e f062 f53d 9585 03be 4412 bfbd
00000230: e4f3 1abe 368c 3a3d 8c60 a8bc 638d 30be
00000240: 89fc d5bd c55c f43c 9776 b03b cc02 18be
00000250: b2b7 50be 2252 993d 444b 27bd 4ed8 9b3d
00000260: 6598 073d 2694 2a3e 475f 773d 7762 303e
00000270: 9bba 95bd 4964 d43d 0a8c d23d 11fb 13bd
00000280: 4e89 2f3d ffa7 10be 7b63 023e 3632 203e
00000290: 4fb2 76be 3f3d 65be 6067 263d a522 f0bd
000002a0: 89ac 5b3d 0c7c dfbd 8844 0b3e 94c1 5c3b
000002b0: c421 edbd 7b4c b9bc 6953 0cbe 13a2 e73d
000002c0: f6ce 36be 74fe cd3d 3148 b13d 7bb1 013e
000002d0: 6d34 6b3d e92d 513e 552d 743d 93c5 1cbe
000002e0: b010 3abd 42d9 b23d 1852 b3bd 758c eabd
000002f0: 59af be3c 90c6 673d a047 a83b 52ce bcbc
00000300: 2368 3f3e 7aa2 b6bc 73b3 15be 9dfb 033e
00000310: 1999 b23d 0d93 fabd b04f ec3d e4a5 c13c
00000320: 2523 4ebe 7b9c d63c 3099 523e b28b ca3b
00000330: 6281 383d 902d 34be ead8 863d e7af 2c3e
00000340: 42de 273d 1e80 57bd 0851 0d3e a628 25be
00000350: 9afe d53d 6669 313e b6fa d23d 730b 0ebe
00000360: 8ab5 11be a207 f13d b3ea 29be 571f babd
00000370: b6e6 503e 15a8 873c 697f e4b9 b59e d83d
00000380: 7158 383d 3d66 4439 47d4 a7ba afd8 423d
00000390: 54f2 283e 6a86 b4bd 22d3 19be 2a36 193e
000003a0: b6c9 0d3d 59df 6fbd bfe0 0d3e 9b86 e8bc
000003b0: 94cf 17be fcb6 afbd 1edc 2b3d ed50 18be
000003c0: 9ccf 32be 44aa fa3d f9c7 4ebc deda aa3d
000003d0: 7923 0ebe 1b2d eabc 9308 15bd 692c 99bc
000003e0: 6264 0abd a32b d23c 69c9 753c 7469 03bc
000003f0: 7bf1 42bd 103d d33d 6286 673d 132c bc3d
-0.22986835 -0.22095308 0.18589395 -0.07848001 -0.111524425 0.18897666 0.24508567 0.14571075
0.06120558 -0.12576838 -0.03106224 0.007117791 0.12680416 0.19787727 -0.15717141 0.2002867
-0.16669825 0.0069879177 -0.17878658 -0.06091442 0.21014163 -0.12975438 -0.13906543 -0.033780187
-0.06763503 0.048242323 0.1522462 -0.12957653 -0.0007108316 -0.20034961 -0.14045474 -0.032578554
0.1556668 -0.06884093 -0.0049313167 -0.18837099 -0.09163918 -0.08759775 0.062494647 0.17135397
-0.14235309 -0.07143031 -0.15490615 -0.0015457486 -0.035250314 0.047903802 0.16620342 0.12088285
0.2036325 -0.17886776 -0.08654734 -0.11326512 0.00023570703 0.09553322 0.11413757 -0.008165768
-0.0022520463 0.17646107 0.0895432 0.14618367 -0.094911315 -0.03916086 -0.026670713 0.11326736
-0.077231675 -0.17433599 -0.075127766 0.10243108 0.06865598 0.1450511 0.037451256 0.18271436
0.17959452 0.064884365 -0.20322765 -0.21920367 0.2585249 0.12100375 -0.0393574 0.108692475
-0.005676322 0.2534387 -0.037048656 -0.17978716 0.098661564 -0.07906934 -0.1460169 -0.0737281
0.06994164 -0.1448848 0.06647928 -0.15393749 0.18406425 0.09244411 0.08048296 0.11418225
0.16393268 -0.09553147 0.103205174 -0.0064757983 0.19954641 -0.16269007 0.076110214 0.08078466
-0.102199964 -0.19715178 -0.03458658 0.13314454 0.036024187 0.07792872 0.1745813 -0.1337054
-0.14774218 0.07047964 -0.0067270054 0.16863748 -0.11073038 -0.16061038 0.22186784 0.003755482
-0.034491286 0.016082942 -0.20028497 0.17620425 0.0271489 -0.113773696 0.17505784 -0.15883228
-0.111359894 -0.07993878 0.0710974 0.097498745 -0.011928372 -0.10096687 -0.101502664 -0.17020914
0.1267552 0.119817615 -0.12843926 -0.09329656 -0.151321 0.04554387 -0.02055385 -0.17241435
-0.10448558 0.029829392 0.0053852308 -0.14844817 -0.20382574 0.07486369 -0.040843263 0.07609616
0.03310432 0.16658077 0.060393598 0.17225061 -0.07310983 0.103706904 0.102806166 -0.036128107
0.042855553 -0.14126585 0.12733261 0.15644154 -0.24091457 -0.22386645 0.04062593 -0.11725358
0.05363134 -0.10912332 0.13600361 0.0033684717 -0.11578706 -0.022619477 -0.13703693 0.1131021
-0.17852387 0.10058299 0.086563475 0.1266536 0.057423044 0.2042767 0.059613544 -0.15309744
-0.04542607 0.08732845 -0.087558925 -0.11452571 0.023276972 0.05658585 0.0051354915 -0.0230476
0.18692069 -0.022294272 -0.14619236 0.12888952 0.08720607 -0.12235079 0.11538637 0.023638673
-0.20130594 0.026197663 0.20566249 0.0061812038 0.045045264 -0.17595506 0.06584342 0.16863976
0.040983446 -0.052612416 0.13800442 -0.16128787 0.10448952 0.17325363 0.103017256 -0.13871555
-0.14229408 0.11769034 -0.16593437 -0.09088009 0.20400509 0.01655964 -0.00043582477 0.10577146
0.04500622 0.00018730103 -0.0012804352 0.047569927 0.16498691 -0.088147 -0.15021947 0.14962068
0.034616195 -0.05856261 0.13855265 -0.028384497 -0.14825279 -0.085798234 0.041957967 -0.1487462
-0.17462009 0.12239507 -0.012620919 0.08342527 -0.13880719 -0.028585961 -0.03638513 -0.018697934
-0.03378714 0.025655573 0.015001633 -0.008020747 -0.047593575 0.10314381 0.05652464 0.09188094

model2.0.bias f4 [512]
00000000: 2b79 91bd abe6 16be da51 47be 06b8 f7bd
00000010: 181e 21bd 1aff 38be 9035 b9bd d181 2ebe
00000020: 5c77 353e 8f6c 4b3d a444 d43d 36c1 263d
00000030: 20cc 163c 5957 443e 8d63 353e 2c70 0a3e
00000040: dc40 073d c186 103e 8f3f 053e 36f0 24be
00000050: dbd8 24be b305 9bbc 7182 c23d 8bae 98bc
00000060: 501a e8bd 14da 1f3e 5600 da3d de28 ae3d
00000070: 5e7d d43d 5e4a 67bd 5fbf 59bd 426a 91bd
00000080: 84d8 55be 003f fdbd 80ff eabc 55f3 1abe
00000090: fba0 0bbe ba1a bbbc 7292 c23c 2b91 8abd
000000a0: 0f9e ae3d 1ebe a73c 8f1d 713c dc2e f2bc
000000b0: 3dc3 953d 150e 5d3e ce6a f9bc fdd0 2abe
000000c0: cfb0 693d 5676 353c 1113 36be 5048 223e
000000d0: e7d7 0fbe f6cb c6bd f890 d2bd 22b0 a6bc
000000e0: d194 a63d 0243 8d3c 4f32 dd3b 9f5c cf3c
000000f0: 4ae3 aebc f41c b43d 5300 343e c462 adbd
00000100: f7ed 043e 5db9 ae3d ce4c 44be 4586 e5bd
00000110: 54a4 0d3d b5ef 41be 2c24 39be 2619 7fbd
00000120: 947e 7c3d e462 11bd 6f58 0ebe 8965 513c
00000130: bca5 03be 85e0 393e be0c ad3d d09e 103e
00000140: 6ba3 093e 66a8 cc3d 9982 1ebe 7030 7a3d
00000150: 21c3 8c3d 945c 74be 0d19 16be ca9a fe3d
00000160: e418 95ba 90bb 0dbc 19fe bb3c d9cf ebbc
00000170: 36b4 383d 2e4f 19bc a395 3fbc 9d9c 54bd
00000180: 972f a33d c74c 133e 8813 a0bd b263 c13c
00000190: f629 0bbe 7ec3 903d b09c 603e f283 b8bc
000001a0: 6693 84bd e68b 32be 0461 8cbd 2ccd f0bd
000001b0: 8c5e 3d3e 6619 f0bd 9c89 9f3d e15f 3b3d
000001c0: b03d 093e 8821 353d b807 4b3d 9e3b b8bd
000001d0: 9d2f 49be 3272 67bd d4ce 24bc 29c0 29be
000001e0: 6261 bb3c 24dd 4abe 795e d43d f7cc 293e
000001f0: 4e21 02bc d3e8 09bd dc88 a43d d664 443e
00000200: ab86 f63d d322 d7bd 494d d73d 2149 133e
00000210: bb9a f0bd 8ae6 20be 863d 963d 8745 21be
00000220: f0de 47be 737d 5b3d 39bd b13d 73d7 03be
00000230: 270f d4bd 142b f7bd 0e6d 023e 8743 5e3e
00000240: 789b 243e bf3a 2ebd 0d1c 213e d3ff 09bd
00000250: 4ea9 7cbd 06fa a03d b4a0 0f3e 59f8 3abe
00000260: bb90 0cbe dc91 e6bc c0e5 18be 4420 68be
00000270: 27b1 00be 8ace 5abe 105e 093e ba2e f33d
00000280: 2cd3 153e dc69 573c debb 0dbd ad97 16be
00000290: ac14 abbd 823c 8ebd 5dec 513d 55c9 8cbc
000002a0: 0903 0d3e f418 223e 2045 143e a27d 49be
000002b0: 67e3 fb3c e804 6abd cdf4 4fbe 7645 a03c
000002c0: 9e39 4d3d bfa2 0dbe f61f f43d f581 0dbe
000002d0: bc19 b1bd c176 f7bd 6fe0 b93c 0686 543d
000002e0: ab7f 9b3d 987b d93d ffc5 b63d 8d7d 24bd
000002f0: 8296 f2bc 7114 01be 3c23 833c 962c 5cbe
00000300: 657d 14bd 9dfb 4abe fb8e 8abd 6404 e2ba
00000310: 81a1 b23d 4931 68bd 9230 18bb f793 3a3d
00000320: 71cd 193e db97 41bd 5a05 0b3e 14bf 193e
00000330: ab4f f43d 28b7 8cba 1f47 3fbe 47cf 913d
00000340: 614f 1abe 8294 fa3c 6f2a 72bd e794 bbbd
00000350: 0d10 a63d 5fe4 023d 1b2f cd3c 6b81 cd3d
00000360: 60dc fb3d 5039 80bd df90 253e e4e5 08be
00000370: 3e39 1d3e 0f45 d4bd 3ebc 553d 7a53 883d
00000380: 420e 583e de6e 13be 3e6c 773d d3e9 70bd
00000390: a708 6bbc dd7c acbc c81a ca3d f88c 033c
000003a0: f430 be3d 2ee8 433e ebab 163d df1c ccbc
000003b0: a7b0 a63d ff37 a43d ffcd 54bd 562f bfbd
000003c0: 2aa5 59be 2efb 1cbe 1dc2 f73d 1411 2fbe
000003d0: ddac e93c d20c 173e 3759 0b3d 3ec9 6f3d
000003e0: b337 d7bd e51d 083e 2747 103e d507 61bd
000003f0: ca26 2a3e 59a4 d9bd aafc 373d 4ec9 48be
-0.07103189 -0.1473643 -0.19464818 -0.120956466 -0.03933534 -0.18066064 -0.09043419 -0.17041709
0.17721313 0.049664076 0.10364655 0.040711604 0.009203941 0.19173945 0.17713757 0.13519353
0.03302084 0.14113905 0.13012527 -0.16107258 -0.16098349 -0.018923616 0.09497536 -0.018637916
-0.11333144 0.15610534 0.10644595 0.085038885 0.103754744 -0.056467406 -0.05316102 -0.07100345
-0.20883375 -0.12365532 -0.028686285 -0.15131886 -0.13635628 -0.022839893 0.023751471 -0.0676597
0.08526241 0.020476397 0.01471652 -0.02956336 0.07312629 0.21587403 -0.030446436 -0.16681285
0.057053383 0.011075577 -0.17780711 0.15847898 -0.14047204 -0.09706871 -0.10281557 -0.020347659
0.08133853 0.017243866 0.006750382 0.02531272 -0.021348614 0.08794585 0.17578249 -0.08466104
0.12981401 0.08531449 -0.19169924 -0.112072505 0.034580544 -0.18939097 -0.18080205 -0.062279843
0.06164415 -0.0354947 -0.13900922 0.0127805555 -0.12856191 0.18152054 0.08449696 0.14123082
0.13441245 0.09993057 -0.15479507 0.06108135 0.068731554 -0.23863441 -0.14657994 0.124318674
-0.0011375216 -0.008650675 0.022948312 -0.028785633 0.045093738 -0.009357257 -0.011693391 -0.05190717
0.079680614 0.14384757 -0.07816225 0.023607109 -0.13590226 0.07068537 0.21934772 -0.022523854
-0.064734265 -0.1743618 -0.06854442 -0.117578834 0.18493098 -0.11723594 0.07789919 0.045745734
0.13402438 0.04422143 0.049567908 -0.08995746 -0.1964707 -0.05650539 -0.010059077 -0.1657721
0.022873584 -0.19810921 0.10369582 0.16582094 -0.007942511 -0.033669304 0.08033916 0.19179091
0.120374046 -0.10504689 0.10512788 0.14383365 -0.117482625 -0.15712944 0.073359534 -0.15749179
-0.19518638 0.053586435 0.086786695 -0.12875156 -0.103544526 -0.120687634 0.12736914 0.21705447
0.16074932 -0.042536493 0.15733357 -0.03369124 -0.0616849 0.07860188 0.14026147 -0.182588
-0.13727085 -0.028145723 -0.14931393 -0.22668558 -0.12567578 -0.21367851 0.13414788 0.11874147
0.14631337 0.013147797 -0.034602992 -0.14706297 -0.08353552 -0.06945135 0.051250804 -0.017185846
0.13770689 0.15829831 0.14479494 -0.19676831 0.030748082 -0.057133585 -0.20308228 0.019564372
0.050103776 -0.13831614 0.119201586 -0.13819106 -0.086474866 -0.120831974 0.022690026 0.051885627
0.0759271 0.10619277 0.089244835 -0.040158797 -0.029612783 -0.12605454 0.016008012 -0.21501383
-0.036252398 -0.19822545 -0.067655526 -0.001724374 0.08722211 -0.056687627 -0.002322231 0.045551267
0.15019776 -0.04726396 0.1357626 0.15014297 0.11929258 -0.0010735737 -0.18679474 0.07119613
-0.15069343 0.030588392 -0.0591225 -0.0915926 0.0810853 0.031956073 0.025046876 0.1003445
0.122978926 -0.062609315 0.16168545 -0.13368946 0.15353867 -0.103647344 0.052181475 0.06656547
0.21099189 -0.14397761 0.060405962 -0.058816742 -0.014345325 -0.021055633 0.09868389 0.008029215
0.09286681 0.19131538 0.036785048 -0.02491611 0.081391625 0.08018493 -0.051954266 -0.093352005
-0.21254411 -0.15330192 0.12097571 -0.17096359 0.02852481 0.14750984 0.03402063 0.05854153
-0.10508671 0.13292654 0.14089642 -0.05493911 0.1661636 -0.1062705 0.044918694 -0.19608042

model2.2.weight f4 [256, 512]
00000000: db5e 08bd b8ab 08bc 181b 09bd 01a4 5abd
00000010: 8c6c 54bc 3a8c c83c 0880 0c3c 9226 dc3c
00000020: caf4 55bd 927c 8abd ac83 613c c9c3 2c3d
00000030: ae6b a93c 8f1f 47bd fdbd 52bd f73c d5ba
00000040: 109d 403c b3c6 92bc 3d0b 5bbd 155d 39bd
00000050: d7a2 38bd ae4b 06bd 3298 a93c 3c13 b43a
00000060: fa6a a7bc b8db 07bd 37af 0ebd c2f2 ebbc
00000070: beb0 cebc c9e2 62bd b140 7abd cc3c 96bd
00000080: dd49 733d 6f7d a63c 73d8 1f3d 7be3 b63c
00000090: ab03 8dbb 3bf8 a43c 1d7c c9bb a4bb 353c
000000a0: 6677 1dbd c751 5ebc 7027 52bd 0cbc 24bd
000000b0: ccde 53bd 8127 1bbd 5b04 5f3c 447f 743c
000000c0: a8cb 21bd 175f 8ebc 24c8 62bc 0b03 0cbc
000000d0: 8d19 bbbc b46f b13c 1d2b 0c3c d532 41bc
000000e0: 834e 973c 3905 193d 6000 58bc 0aa9 71bd
000000f0: d266 c13c ce12 efbc 9acb 68bc 70e2 403d
00000100: 1606 823c 3810 afbc 2da5 48bc 5b27 69bd
00000110: ac6a 50bd e4d1 d93c 2736 803c 7911 3a3d
00000120: 7f42 1ebd d9b4 e03b 0375 bb3c 13d0 0e3d
00000130: c224 16bc 8e5b 08bc a0f1 bc3b 4d88 2ebd
00000140: ac25 963c d5eb d0bc 5ad0 593b 4e21 9c3d
00000150: 7fbf 7dbc 087f 123c f97c 86bd 0721 37bd
00000160: fcb4 63bc 499e 75bc 633b 6eb9 4a6a 423c
00000170: 914d 3f3d 3442 4f3b 686b b83c 8083 323d
00000180: 5ada 33bd 54ab 89bd 422e 6fbb 1250 843b
00000190: 2364 50bd 9951 3abd 6ec7 04bd ec4c e73c
000001a0: 16dd 3e3c 2406 a2bc 8e3d 9cbd 1a08 b5bb
000001b0: d446 b03d 2e74 ec3d c1db 033c 5baa 163c
000001c0: 14cf 8fbc b1c2 7f3a bab0 9c3b 4419 aebc
000001d0: ea1a 563d 1b1a f1bb 0baf 803d cac1 763c
000001e0: f37e 06bd 7cc1 5f3c 0c81 16bc 63af 3cbb
000001f0: e2c0 a8ba 9ba9 753c ee99 97bc 2474 11bd
00000200: 9c1c 5bbd 461e ab3c 0ccf cfbc adff f53c
00000210: 10bd 23bd 0ea1 6fbd 257e b63b 0e38 3cbc
00000220: 261d b7bc 21c4 353d 8b09 08bc 1c31 933c
00000230: b276 863b a99a 7ebc 83a2 b93c db2b 30bd
00000240: f5de e4bc 07a4 edbd 6d1f 8ebd fb95 903c
00000250: d19f 6dbd 0b69 813c daae 2bbd b36e 65bd
00000260: 3bec 2cbd 8aba 0dbd ea3b 96bc f3f1 c93c
00000270: 199b 40bc ac19 283d aa9a 253b 5719 babc
00000280: 3b16 cabb 69a2 6d3b 9905 18bd 00d2 8ebb
00000290: c1a7 de3c e197 0dbd 41b7 393b a933 03bb
000002a0: 0a82 86bd 6a07 44bd 6b14 443d 133b e4bc
000002b0: dff6 b53c 4d52 4d3d 8817 39bd cb62 64ba
000002c0: 5713 40bc b6c8 b5ba b05d 71bd 8717 a8bd
000002d0: 4e3d e0bc cc8e a3bc a716 29bd 35ef c6b9
000002e0: b50a 0f3c 4f24 c13c 3ef4 32bd d3e2 c33b
000002f0: 4b37 fbbc 0acb e8bc fd92 84bc bef3 0ebc
00000300: 6daf 97bd 3f8b 1e3d b392 b8bc b22f 99bc
00000310: 7107 003d ef7a c0bb 7e09 303d 70ce 50bb
00000320: dc1d e43b 2474 12bd cc47 623c a148 62ba
00000330: e9c1 a7bc 8bef 3fbd 1619 41bd 2c06 7cbd
00000340: 5ba2 0ebd a022 5bbb a8f3 fdbc 94f2 30bd
00000350: f9bc d0bc 5425 91bc 0241 86bc 34a9 bc3b
00000360: 63d4 b3bc 6e86 a13b 0a9e 2b3c d602 403d
00000370: 0292 433b f011 5b3d 4e5f 803d e552 533d
00000380: b793 bb3c 0d2c 5e3b f6a5 073d 40fc 383c
00000390: 4a8c 30bd a875 b0bd 2c42 6bbd a0f0 01bd
000003a0: 4129 d2bc 33e2 db3c a003 3f3c 5667 923b
000003b0: 1e9d 023b e026 0dbd 22ef c43b b56e e8bc
000003c0: 11a5 523d f1af ab3c df06 86bc 2136 1ebc
000003d0: fbfb 01bd 9c4a 11bd 5cd6 ba3a 247e 66bd
000003e0: 2bac 463d 63f7 fdbb 4d1f 253c 5c3d 603b
000003f0: f034 31bc adbc 6ebd 471a ef3c 5213 31bd
-0.033293586 -0.008341722 -0.033473104 -0.053379063 -0.012965333 0.024480928 0.008575447 0.02687386
-0.052235402 -0.06762041 0.013764303 0.042178903 0.020681228 -0.04861408 -0.05145072 -0.0016268779
0.011756197 -0.017917013 -0.053477515 -0.045254786 -0.04507717 -0.032787018 0.020702455 0.0013738642
-0.020436753 -0.033168525 -0.034835067 -0.02880228 -0.025230762 -0.05539206 -0.06109685 -0.07335815
0.059396613 0.020323483 0.03902478 0.022325268 -0.004303416 0.020137897 -0.0061488287 0.0110921
-0.038443945 -0.013569302 -0.05130714 -0.040218398 -0.051726148 -0.03787947 0.013611878 0.014922921
-0.039500862 -0.017379327 -0.013841663 -0.008545647 -0.022839332 0.02165971 0.008555201 -0.011791904
0.018470054 0.037358496 -0.013183683 -0.0589991 0.023608599 -0.029183771 -0.014208699 0.047090948
0.015872043 -0.021370038 -0.012246412 -0.056922298 -0.05088298 0.026589341 0.015650822 0.04542682
-0.038637634 0.006857496 0.022882944 0.034866404 -0.009164037 -0.00832261 0.0057661086 -0.042610455
0.01832851 -0.025503078 0.003323576 0.0762354 -0.015487551 0.008941419 -0.065668054 -0.04470923
-0.0138981305 -0.014991351 -0.00022719572 0.011866162 0.046704832 0.0031625153 0.022512153 0.04358244
-0.04390941 -0.06722131 -0.0036496078 0.0040378654 -0.050876748 -0.045487974 -0.032416753 0.028234921
0.011649391 -0.019778319 -0.07628928 -0.0055246474 0.086072594 0.11545597 0.008047999 0.009195889
-0.017554797 0.00097564893 0.0047818096 -0.021252282 0.05227176 -0.0073578483 0.06283387 0.015060851
-0.032835912 0.01365697 -0.009186041 -0.0028791062 -0.0012874866 0.01499405 -0.018506017 -0.03551115
-0.05349408 0.020888459 -0.025367282 0.030029142 -0.039975226 -0.058503203 0.005569237 -0.011487974
-0.022352766 0.044376496 -0.0083030565 0.017967753 0.004103505 -0.015539804 0.0226605 -0.043010574
-0.027938345 -0.11603551 -0.06939588 0.017649641 -0.05801374 0.015797159 -0.0419148 -0.056013774
-0.042217474 -0.034601726 -0.018339116 0.024651503 -0.011755728 0.041040108 0.002526919 -0.022717161
-0.006167201 0.0036260134 -0.037114713 -0.00435853 0.0271796 -0.03456867 0.0028337988 -0.0020019806
-0.06567772 -0.047858633 0.047871035 -0.0278602 0.022212444 0.050127316 -0.045188457 -0.0008712231
-0.011723361 -0.0013869021 -0.058927238 -0.082076125 -0.027372982 -0.019965552 -0.04128137 -0.00037943726
0.00873058 0.023576884 -0.04368996 0.0059779673 -0.030666014 -0.02841713 -0.01618337 -0.008725105
-0.07406507 0.038707014 -0.02253089 -0.0186995 0.031257097 -0.00587403 0.042977802 -0.0031861328
0.0069615673 -0.03575529 0.013811063 -0.00086320384 -0.020478206 -0.046859305 -0.047143064 -0.061529323
-0.034822803 -0.0033437386 -0.030999973 -0.04320009 -0.025480734 -0.017717995 -0.01638842 0.0057574753
-0.02195186 0.0049293553 0.010474691 0.046877705 0.0029841666 0.053483903 0.06268178 0.051592726
0.022897584 0.0033900768 0.033117257 0.01129061 -0.04310254 -0.08616191 -0.057436153 -0.03172362
-0.025654437 0.026841259 0.011658579 0.004467885 0.0019930075 -0.034460902 0.006009952 -0.028373102
0.05142695 0.020957919 -0.016360698 -0.00965646 -0.031734448 -0.035471544 0.0014254558 -0.05627264
0.048504036 -0.007750438 0.0100782635 0.003421626 -0.010815844 -0.058285404 0.029187335 -0.043231316

model2.2.bias f4 [256]
00000000: 986d ca3b 3eed 80ba 2730 f63c 6b78 f53c
00000010: 0667 533b 651d a33b 769e 34bd 3414 45bc
00000020: 714c 103d e0e0 473b a8d6 4d3c c29d d6bc
00000030: 1b50 c33b 5af6 94bc acfc f9ba 0d79 353d
00000040: ca28 c8bb 9885 0fbc 8160 dfbc 2d12 fe3b
00000050: 7aaf 0b3d 3d37 05bd 405e 1fbd 1031 9cbc
00000060: 1eda 873c 3426 4d3d 1d54 423c 6622 6ebd
00000070: d375 de3b 5a3b 943c 37e2 993c d822 cf3b
00000080: 834c 0c3d b6e7 953c 2d00 17bd ba00 c4bb
00000090: 7c57 d83c ab5f 803c af0e 34bd 9f29 433c
000000a0: 9b03 2cbc 7502 c7ba 1e20 fabc 1426 263d
000000b0: 7d2b 3ebd e00d 103d 84e0 25bd 0b66 17ba
000000c0: 9fdd 3d3b dd08 743c 88fb b6bc 072e 74bc
000000d0: 1397 773c 4f9e 373d 2714 dc3c 2bca d0bc
000000e0: 66dc 6d3c 7ad5 08bd b506 bb3b 6d0e 9d3c
000000f0: 534b 0b3c b341 613c 126e 86bc 30a5 fdbc
00000100: 9673 0dbd 4c59 70bc d5b6 43bd bef7 5b3c
00000110: d414 7b3d 8164 98bc a3d9 f0bb 36e8 673d
00000120: a536 b9bc ec52 afbb 5d8f 28bd 03a0 21bc
00000130: 39c9 8b3b 856f 3cbd eb4a a43b c4ea 3abc
00000140: 2c16 803d 3070 17bc 1f3e 013d bfe5 783c
00000150: 95bf a0bc f72e 8c3b 2e70 b3bb 1d06 6f3c
00000160: d5a5 5fbc 3429 83bc 48e6 24bd aca5 c5bc
00000170: e0c8 d73c ee67 97bc 8f5d 1dbd 5432 7fbc
00000180: 71ef 8d3b 5870 f2bb df31 45bd 15e4 b6ba
00000190: 131d bebc 667e c83c a330 1a3d 2abe a93c
000001a0: 46e0 1d3b c1dc c2b8 b4f5 343c 4644 a53b
000001b0: e244 e03c 3a37 f6ba 5558 273c 2be8 ac3c
000001c0: b8ac cfbc 84bc 24bc d806 213d 537b 953c
000001d0: 59cb 6bbc 5050 fd3c 0849 09bc 10b7 703c
000001e0: c989 21bd 3812 423b 408f f83c 13c9 d4bc
000001f0: 7b57 f53c 97c7 293c 25d7 56bb fea0 1dbd
00000200: 923a 67b9 9b31 55bc 2070 bcbc bc03 813c
00000210: e64e d6bc e584 cb3b c1d2 64bc 5093 bc3c
00000220: eb31 04bc adac 453c 5754 debb 497e 5dbd
00000230: 74ef a9bc 5660 d5bc 0c3b 60bc 2372 083c
00000240: 8c3e b7bc 1b43 7f3c a5dc 1fbc b0cb e4bb
00000250: d63a f6bc 82c2 d3bb a84a eebc 4566 56bc
00000260: 3904 1fbd ccc9 16bd 71e2 e6bc f9aa 40bc
00000270: 25f1 153d 71d7 46bd 34ad 42bd cfb3 403c
00000280: 1f15 233d 9ea7 c8bc c631 203d 617c 2abc
00000290: 0ee0 ef3c 8262 7bbc 0157 d6bb d624 3abd
000002a0: 92e2 2dbd 1ca0 5b3c e26c adbc 9538 8cbc
000002b0: eba9 643a 1671 5fbd 9311 e23c 3147 e1bc
000002c0: 0ef0 cfbc f88d 89bc 28c4 3c3c c679 323d
000002d0: b6ee 06bd f128 35bc ecee b63c 4ea2 3abc
000002e0: d3f2 bfbc 3848 483d 2958 353d 6b2a 89bc
000002f0: 824c f03c a1ad 3fbd 264e 5e3d 7f1a 013d
00000300: 30e8 1e3d 9c4b 38bd cdd9 ea3b da97 713c
00000310: 6712 42bd 4c71 f13c 0fb1 24bd 6469 b33d
00000320: dbbf 9cbc 7aaa 44bc a005 5cbc 90e7 3cbd
00000330: cb1d f43c 9e11 12bd 33df 8d3b 5c6b 21bd
00000340: 1c8e 103d e2af 293d 75b3 b83c 63e5 973c
00000350: deae 183c 0df5 0bbd 6edf 0f3d 1318 fa3b
00000360: 8276 f7bc 997c 4e3c 0c0f 80bc f28c 9abc
00000370: 20ad c13c eb42 21bc c7ea 23bc 6e8e 40bd
00000380: 9eb9 2a3c 0f45 4d3c 7112 16bc 5843 ee3c
00000390: 7556 113c 8fea 16bd 90d0 8d3a 3827 cdbb
000003a0: d29a a13a 9a04 2dbd 9fe2 3d3c 7709 af3c
000003b0: 6c18 a43c 7a9a 033d cc88 c2bc 3da2 2abc
000003c0: 4bd9 4cbd 84e7 24bd 8b1e eebc 67bb 093c
000003d0: 899f 163a 40f6 b2bc e8c8 3ebd 7c4d f63c
000003e0: 1070 d23c 624a b9bc 6341 17bd 1275 2b3c
000003f0: a22e ed3c f699 5cb8 b209 8dbb 8c01 683b
0.0061776154 -0.0009836329 0.030052258 0.029964646 0.0032257452 0.0049778693 -0.044096433 -0.012028743
0.03522915 0.0030499026 0.012563385 -0.026198272 0.005960477 -0.018183876 -0.0019072494 0.044304896
-0.006108378 -0.008759879 -0.027267696 0.0077536316 0.034102894 -0.032523382 -0.038908243 -0.019066364
0.016583499 0.05008526 0.0118608745 -0.058138274 0.006788948 0.018094707 0.018784625 0.0063212924
0.034252655 0.018298965 -0.036865402 -0.005981532 0.026408903 0.015670618 -0.043959316 0.011911779
-0.0104989065 -0.0015183227 -0.030532893 0.040563658 -0.046428192 0.035169482 -0.040497318 -0.00057753985
0.0028971208 0.014894691 -0.022336736 -0.014903552 0.0151117025 0.04482871 0.026865078 -0.025487026
0.014517879 -0.033406712 0.0057075866 0.019171918 0.008501845 0.013748574 -0.016409907 -0.030962557
-0.03453406 -0.0146697275 -0.047781784 0.013425766 0.06129916 -0.018602611 -0.007350163 0.056617938
-0.022609064 -0.005350461 -0.041152347 -0.00986481 0.004265931 -0.04600479 0.0050138137 -0.011408512
0.06254229 -0.009243056 0.031553384 0.0151914945 -0.019622603 0.0042780596 -0.0054760193 0.01458886
-0.013650377 -0.016010858 -0.040258676 -0.02412685 0.026340902 -0.018482175 -0.038419303 -0.015575964
0.004331522 -0.0073986463 -0.048143264 -0.0013953472 -0.023207223 0.024474334 0.03764404 0.02072056
0.0024089976 -9.2917595e-05 0.011044908 0.005043539 0.027376596 -0.0018784769 0.010213931 0.0211068
-0.025350913 -0.010054711 0.039313167 0.018247282 -0.014391744 0.030922085 -0.008379228 0.014692083
-0.039438043 0.002961291 0.030341744 -0.025974786 0.02994894 0.010362527 -0.0032782045 -0.038483612
-0.00022051696 -0.013012315 -0.023002684 0.015748851 -0.026160669 0.0062109106 -0.013966263 0.023019463
-0.008068542 0.012065095 -0.0067849564 -0.054075513 -0.020744063 -0.026046913 -0.013685953 0.008327994
-0.022368692 0.015579964 -0.009757196 -0.0069822893 -0.030057352 -0.006462396 -0.029088333 -0.013085906
-0.038822386 -0.036813542 -0.028184148 -0.011759513 0.036606926 -0.048545305 -0.04752846 0.01176162
0.039815065 -0.024493989 0.039109968 -0.010405631 0.029281642 -0.01534331 -0.0065411334 -0.045445286
-0.042452402 0.013404872 -0.021170083 -0.017116824 0.00087228295 -0.054551207 0.02759627 -0.027499767
-0.025383022 -0.016791329 0.011521377 0.043573163 -0.032942496 -0.0110571245 0.022330724 -0.0113912355
-0.023431217 0.048897 0.04427353 -0.01674386 0.029333357 -0.046796445 0.054273747 0.03151941
0.03879565 -0.04499398 0.007167077 0.014745677 -0.04738083 0.02947297 -0.04020792 0.08760336
-0.019134453 -0.012003535 -0.0134290755 -0.046119273 0.029799363 -0.035661332 0.004329586 -0.039409027
0.035291776 0.0414275 0.02254651 0.018541997 0.009319035 -0.034169246 0.03512519 0.0076322644
-0.030207876 0.012602949 -0.015632175 -0.018866036 0.023642123 -0.009842615 -0.010004706 -0.04701083
0.010420231 0.012528672 -0.00915967 0.029084846 0.008870711 -0.036844786 0.0010819603 -0.0062607788
0.0012329465 -0.042240717 0.011589675 0.021366818 0.020031177 0.032129742 -0.02374687 -0.010414657
-0.050011914 -0.040259853 -0.029067298 0.008406497 0.00057458185 -0.021845937 -0.046578318 0.030066244
0.025688201 -0.022618476 -0.036927592 0.010464923 0.0289529 -5.2595475e-05 -0.0043041343 0.0035401313

model2.4.weight f4 [64, 256]
00000000: da09 643d 5a6e 8ebc 05f1 573d 319a 613d
00000010: 7bf1 44bd b5a7 3abd a514 653d 6413 123c
00000020: 3a1f d13c 551d da3c 64eb c43c 6d9d 3fbd
00000030: 2338 f6bc 8026 fabc d814 a7bd dbc3 ec3b
00000040: 46bb 20bd be23 0a3b 8d45 ab38 fdfd b33d
00000050: 8de6 713d ad31 2dbc 0e73 613d 89cd 833b
00000060: e1d1 3e3c 3f02 dc3d 740d a33d 3c6d 81bc
00000070: 65a8 9d3d 5a8c 5cbd 8d87 4f3d b1dc 3e3c
00000080: 0bdd b2bd f5b2 6f3a 0e8a 253d aec4 9aba
00000090: 4b33 e43d 5641 3dbc 69be 313d ef53 563d
000000a0: 27a7 71bc 6274 a03d 3c0a 80bc 7324 f3bc
000000b0: b524 19bd 75a4 073d 1230 1c3d e574 c0bc
000000c0: 2ecf fcbc 008f a13d a3f9 6c3d 72d0 fdbb
000000d0: 7218 d6bb 37a4 373c 5f30 603d 14d6 743d
000000e0: 6b9b dbbc a675 e2bc a0bf 7abb ab73 fb3c
000000f0: 0b6e 813d b9f6 10bd 24cf b5bc ac27 613d
00000100: 5468 39bd b4b8 3f3d 2bf9 373c 7988 433d
00000110: 33d2 1e3d c46f 253c 2b1b 2abc b1fe 76bc
00000120: 5eac b03d fc95 a6bb 0dc6 d738 6e14 313c
00000130: d88d 3e3c 0635 efbc c623 a23c e56b 9c3c
00000140: b61b 793c a5a3 143a 02c6 46bd c608 3abd
00000150: 1ca0 a93c d55e bbbc d57a 4fbb 7dfd b63d
00000160: 01b4 26bd c517 ff3b 9a62 1abd a7af 2bbb
00000170: 0e68 bc3d 4f4d af3d 2a4f 263c e333 303d
00000180: 4c7c 4e3a 24ff e33d f741 edbc 9fdb d43b
00000190: c28f fcbc 178d c2bc b646 3b3c acaf 483d
000001a0: 6c40 6c3d ad4c fc3c 61e2 103d c9fa 6fbc
000001b0: 7219 233d a4b9 d0bc 2c5b 6fbc e4de 63bc
000001c0: d10a 043d 496f 79bc 4b84 ba3d b9f6 413d
000001d0: 9fc1 35bd c540 d6bc 54a7 03bd 2df4 72bd
000001e0: 2948 1c3d fe6b 0b3d 516d 733b 271c 893b
000001f0: f087 583d 564b bb3b 3b0b 25bd 6be6 213d
00000200: 47b2 943a a130 463c 5019 89bb 5627 993d
00000210: 2ae8 623b 86cc e3bb 3e26 283d 5ac1 89bc
00000220: a31c bd3d 5c35 173c 155c 0dbd 0e93 3fbd
00000230: 9d04 753d 7a87 e2bd f502 1a3d a617 dabc
00000240: 55b7 2b3d cf4b 6b3d bd98 f53c 3b96 8c3d
00000250: 5d56 b7bc 548a 4cbc 3901 1fbd 319e 23bc
00000260: c971 40bc 7dec 36bc adb3 b73c 6185 193d
00000270: d427 08bc ca87 c53c ba71 7d3c 71bf 093c
00000280: 0bbc 5ebc 5b1a b13d 2e66 673d bcf6 8f3c
00000290: d6ad 46bc 4b6d 7f3d 0d0b 8d3c 41c4 71bd
000002a0: 84ec b23d 7019 5c3c 5f7a 04bc ab20 97bc
000002b0: 0f98 4cbd 198f 42bd 8f19 70bd 72c8 493d
000002c0: 8386 f7bc 967f 64bc 0f67 923c 0760 133d
000002d0: 9920 093d 18d8 673b 41b1 e73d 91ae f83c
000002e0: 6f57 8f3d ab9c 8a3d 1d4e 0b3d 49ce 173d
000002f0: 60a8 2a3b 1df9 db39 2963 af3d 8d80 74bd
00000300: 870d 073c e435 a0bc 3028 823d 6c9c 44bc
00000310: 27cd fbbb 4012 983c 51c5 173c 9fbf 853d
00000320: 89fa 293c c2cc 7b3b 4c3e c8bb c6cd 013d
00000330: fcc0 08bd 235b 6f3d e2d9 d63c aad8 3fbd
00000340: 934a d03c 675f 433d e542 6fbc 49d9 2b3d
00000350: 2fe5 06bd 83d2 963b b71f 4f3c 6c09 cc3c
00000360: 9052 253d d185 e83b 09a2 6fbc dca7 853c
00000370: 550d 3a3d 241c 84bc 9b50 26bd 188b 603d
00000380: f88e b3bc 7708 813d c20a cd3c 6d4d a43c
00000390: 1ff3 813d c71c b7bc 70ff ea3b ce7a f33b
000003a0: 14f7 4a3d 63ab 60bd f137 97bd 8da7 2d3b
000003b0: 9edd 043d 2555 2f3d 676f 2cbd d112 e53d
000003c0: fe82 4f3d 6f5d a93c 94d5 d3bc 4d17 383e
000003d0: fd5a ad3d b94d bc3b 325e 053d 61a1 433d
000003e0: 84a3 c23c c606 593d fe45 1ebc a87a c4bc
000003f0: 213d 023d 8d7a f1bc c67b 783d a4a6 833d
0.055673458 -0.017386604 0.05272009 0.05507869 -0.048081856 -0.045570094 0.05592789 0.008915756
0.025527585 0.026625315 0.024038024 -0.046780992 -0.030056065 -0.030535936 -0.081582725 0.007225496
-0.039241098 0.0021078433 8.16687e-05 0.08788679 0.05905776 -0.010570926 0.055041365 0.0040223044
0.011646719 0.10742616 0.0796155 -0.015799157 0.07698134 -0.053844787 0.05066638 0.011649297
-0.08733567 0.0009143793 0.040414862 -0.0011807883 0.11142596 -0.011551222 0.04339448 0.05232614
-0.014749325 0.07834698 -0.01562988 -0.029680466 -0.037388522 0.033115823 0.03813178 -0.02349324
-0.03086051 0.07888603 0.05785526 -0.007745796 -0.006533676 0.011208585 0.05473363 0.059774473
-0.026807508 -0.02764399 -0.003826119 0.030694803 0.06319817 -0.035391543 -0.022193499 0.054969475
-0.04526551 0.046807006 0.01122884 0.047737572 0.03877468 0.010097448 -0.010382454 -0.015075372
0.086266264 -0.0050837975 0.00010288889 0.0108080935 0.011630498 -0.029200088 0.019792449 0.019094417
0.015204361 0.0005670137 -0.04852868 -0.045418523 0.020706229 -0.022872368 -0.0031658907 0.08935068
-0.04069901 0.007784816 -0.03769169 -0.0026197226 0.09199534 0.08559667 0.01015071 0.043018233
0.0007876798 0.111326486 -0.028962119 0.0064959074 -0.030830268 -0.023748918 0.011430433 0.04899566
0.057678625 0.03079828 0.03537214 -0.014647194 0.03981919 -0.025479145 -0.014609139 -0.013908122
0.032236878 -0.015224286 0.09107264 0.047354434 -0.044374105 -0.026153931 -0.032142 -0.059314895
0.038154755 0.034038536 0.0037144015 0.004184264 0.052864015 0.005715768 -0.040293913 0.039526384
0.0011344635 0.012096555 -0.0041839257 0.07478206 0.0034623244 -0.0069518713 0.041052096 -0.01681583
0.09233978 0.00922903 -0.034511644 -0.0467711 0.059818853 -0.11060996 0.037600476 -0.026622605
0.041922886 0.057445344 0.029980058 0.06864592 -0.022380048 -0.012484152 -0.038819525 -0.009986446
-0.0117458785 -0.011164782 0.022424543 0.037480716 -0.008310277 0.0241126 0.015469009 0.00840746
-0.013594638 0.08647605 0.05649393 0.017573707 -0.012126407 0.06236009 0.017217183 -0.059025053
0.08736518 0.013433799 -0.008085816 -0.018448194 -0.049949702 -0.04749975 -0.058618125 0.049263425
-0.030215507 -0.0139464345 0.017871408 0.03598025 0.033478353 0.0035376605 0.113131054 0.030356677
0.069990985 0.06768163 0.03401004 0.037061963 0.00260403 0.0004195654 0.08563835 -0.059692908
0.008242971 -0.019556947 0.063553214 -0.0120001845 -0.007684368 0.01856339 0.0092633525 0.065306894
0.010374674 0.0038421606 -0.006110942 0.03169038 -0.03338717 0.058436524 0.026226941 -0.046837486
0.025426185 0.047698405 -0.014603351 0.041955266 -0.03293341 0.0046027317 0.012641839 0.024906836
0.04036194 0.0070960303 -0.014626035 0.016315393 0.04542287 -0.0161267 -0.040604215 0.05482015
-0.021918759 0.06300443 0.025029544 0.02005645 0.063452 -0.02235259 0.007171564 0.007430411
0.04955204 -0.054850947 -0.07383717 0.0026497573 0.032437913 0.04280581 -0.04209843 0.111852296
0.050662033 0.020674435 -0.025858678 0.17977639 0.0846462 0.00574657 0.032560535 0.047761325
0.023759611 0.052984975 -0.009660242 -0.023984268 0.03179658 -0.029477382 0.060664915 0.064282686

model2.4.bias f4 [64]
00000000: 7bc9 ae3c 808c a1bc 4933 513d f07f 583c
00000010: e158 a1bc 079e 89bd d4d2 553c a23f 5dbc
00000020: 953b c63c f111 6e3d 68d4 54bd 3fb9 aa3d
00000030: 147b 103c dfd5 63bc 5472 02bd 8daa 10bc
00000040: 873e 203d 3b8a aa3c c630 1d3d 26ec d7bb
00000050: 0ba9 663d 38c6 6bbb c1e5 3c3d badd 073c
00000060: dbb5 073c 29a7 593d fc79 98bd 4b1e f0ba
00000070: 3253 333d 4557 afba 7ee5 f43c f318 8abb
00000080: 6547 13bd c2b9 ffbc 4d35 a43c ba3a 6dbd
00000090: 5281 2d3d b89e 123d b76a c7bc c4a2 073d
000000a0: 9adf b33c ae73 11bd 2abd 07bc cb8d eabc
000000b0: fa31 403d c837 b53c 160e 1ebd b345 09bc
000000c0: 3ede 3e3d e891 25bd 7160 2cbc eec6 a53c
000000d0: 80fc 87bd 36a6 9cbc 4745 9a3d 696e 40bd
000000e0: b390 9d3c 6c8d bfbc a3b8 5abd a067 5ebd
000000f0: b7d6 2fbc fbde dabb 3a3f 70bc 894f 07bd
0.021336308 -0.019720316 0.0510743 0.013214096 -0.019695701 -0.067195944 0.013050754 -0.013503941
0.024198333 0.05812258 -0.05196038 0.08336114 0.008818407 -0.013905971 -0.031847313 -0.008829725
0.03912213 0.020817867 0.038376592 -0.0065894304 0.056313556 -0.0035976302 0.046117548 0.00829261
0.008283104 0.053137932 -0.07445142 -0.0018319575 0.043780513 -0.0013377449 0.029894587 -0.0042144
-0.03595676 -0.031216506 0.020044947 -0.057917334 0.042359658 0.035795897 -0.024342878 0.03311421
0.021957207 -0.03551071 -0.008284846 -0.028632065 0.04692266 0.022121325 -0.038587652 -0.008378434
0.046598665 -0.04042235 -0.01052104 0.020236459 -0.066399574 -0.019122224 0.07532745 -0.046980295
0.019234037 -0.023382865 -0.05339874 -0.054298043 -0.010732344 -0.0066794134 -0.014663512 -0.033034835

model2.6.weight f4 [4, 64]
00000000: 7252 f6bd 1467 c43d 767b 31bd 6db3 adbd
00000010: ee55 d03d 7d98 32bd 694e 863d 79df c43d
00000020: 60fe f9bc 70e5 01be e4fe 713d a983 d0bd
00000030: 2461 053b bfcd 0a3e 0db3 bb3d 9011 f7bc
00000040: 74f7 1e3d 1a63 7c3c 9f12 013a 1300 313d
00000050: d603 a2bd 3a18 98bd 50a7 2cbe ed75 babc
00000060: bbc8 f3bd 6741 acbd f654 f53d 3ef0 30bd
00000070: f540 173c 1285 dc3c fd57 20bd e718 d23d
00000080: 44c5 053e 0deb 55bd 8f52 61bd 8461 dabd
00000090: c6de 703d d86e 03be b912 9e3d 48b1 0bbd
000000a0: d4ee d33d 9081 28bc 14fc b7bb 8f4f ce3d
000000b0: b6f2 dfba 25e7 9a3d 5b33 e43d d59b 343d
000000c0: cde6 91bc 01ce b33d 5290 fe3b d726 053d
000000d0: 20a9 c8bc aea5 fe3c 85bb 78bd 08ac 5f3d
000000e0: cef3 2dbd 401f ebbd d2b5 a23d 8752 693d
000000f0: 8477 6a3b a6e9 ddb9 2720 b1bd 0749 d4bd
00000100: d652 513d 3bd7 1d3d b4ac e23c 0107 3b3e
00000110: eb22 b2bd 4bdc d5bd e3d7 b0bd cca1 cbbd
00000120: 61fe a4bd dcbd dabd 6aba 11bd 4787 823d
00000130: a222 d8bd 4d3c 7c3d 09e0 17bd 5137 28be
00000140: 078d b83d 1a51 4bbd e58f 6fbd 2f5e f9bd
00000150: 36c2 8a3b 0ad0 d6bd a2ab e3bd 2528 ad3d
00000160: b34b 1dbe 1bc7 943d 8d3a f2bc 1c14 2d3e
00000170: 39bd 343d bef7 80bc a24f 863d 3760 0c3e
00000180: 42c0 fdbd 2b83 39bb ecf9 b83d 7668 d0bd
00000190: 7c25 c63c bcf3 9a3d c4b0 aabd 474e e03c
000001a0: 9a13 e13a 9853 05be 612f 93bd 00eb 243b
000001b0: 46b3 3f3e e7bb 2abd a71e da3d 1f1c cb3d
000001c0: 3396 98bd b0d5 a33d 9661 a2bd db51 173d
000001d0: c06a a43c bdbb dc3d f679 053e ad79 3dbd
000001e0: 5135 dd3d afbc 23bd 56fc 0c3e 826b d93d
000001f0: b921 f13d 84aa e0bd faa1 913c b89f b1bd
00000200: 30e6 093e fdaa 2ebd b9da 32bd 8c27 1a3d
00000210: cf0c eabc 4782 e9bd 4c00 d5bd 421f afbd
00000220: 9a77 adbc 8100 f33c 188c 45bd 0d04 efbc
00000230: a641 a73c 93d8 183d 1d83 7c3d 7a5c ffbd
00000240: 6314 043e c587 f0bd 3bf7 833d 3404 453c
00000250: 8b33 003d 7db1 a73c ccd2 c23d 81f1 0a3d
00000260: e010 8a3c db36 ea3d 4f55 5f3c 0312 82bb
00000270: 07fa d03d a8c3 183d 4a2c 9fbb efcd 4cbd
00000280: dae4 cb3d 4b10 a43d 379c 18bd cfd3 e2bd
00000290: dcc6 fe3b 75ae 703d b949 e53c 85db 8ebd
000002a0: 6cac f7bd 6ba5 a03d 9440 a8bc 3efc 693c
000002b0: 0865 e23d 86a9 603d a7be 003e 5f2e b7bd
000002c0: 0da0 e33d f8ea 75b9 4115 e43d 2c60 81bd
000002d0: 7067 b6bd 0086 283d 9fce 743d bdad 03be
000002e0: a26e b5ba 7f03 cc3d 5297 06bd 76a2 9bbd
000002f0: 60e3 833d 2bd4 dabc 09d5 073e 7fd5 acbc
00000300: 9bdc c1bb 087d f33d bda1 babc 6701 003e
00000310: 7996 b0bd a20c 9ebc 4c11 cc3d ebae 3bbd
00000320: 4919 00bd 8c4e 02be c5ba e5bd 0cfe 6ebd
00000330: d308 b0bd cf8a b5bc f52f 4d3d 7f5d ecbd
00000340: 6c67 a03d 978e 203d e25a c3bd a0e6 82bd
00000350: cbdc c8bc 61f5 e8bd b3e8 c2bc 4765 ccbd
00000360: 52be dabd 1faf dabd 78d4 213b 7830 ddbc
00000370: 0c99 763d 0218 993d 4779 6bbd 3a3b 853d
00000380: 7b1b b6bd 410a f63d 007c 513d a5fc 103d
00000390: 8ca7 533d 3219 423d 0075 92bd 8d00 d3bd
000003a0: 6900 cbbb cb4f 91bc 38b0 6cbd 7e63 683d
000003b0: 7730 0a3e d1e4 3ebc 9de5 5b3d d52b 393b
000003c0: 064d 023d 8cb9 bb3c dcbf d93d 88a4 023d
000003d0: f18c 523c 1f74 babd 5392 3c3c 0b87 ca39
000003e0: 3825 ad3d e496 b2bd 4a75 0cbe 76d4 573d
000003f0: 6c1e b23d fde4 3c3d 43d4 85bc c1c2 a63d
-0.12027444 0.09589973 -0.043330632 -0.084814884 0.1017264 -0.043602455 0.06557924 0.096129365
-0.030516803 -0.1268518 0.059080973 -0.10181362 0.002035209 0.13555048 0.091650106 -0.030159742
0.03881021 0.015404487 0.0004923734 0.04321296 -0.07910888 -0.07426496 -0.168607 -0.02276131
-0.11903521 -0.08410912 0.11979096 -0.043197863 0.009231796 0.026918922 -0.039146412 0.10258656
0.13063532 -0.052226115 -0.055010375 -0.10663131 0.058806203 -0.12835252 0.07718415 -0.034104615
0.10348287 -0.010284796 -0.005614767 0.10073768 -0.0017085883 0.075636186 0.11142608 0.044093926
-0.01781025 0.087795265 0.007768669 0.032507744 -0.024494708 0.031084862 -0.060725708 0.05460742
-0.04246884 -0.1148057 0.07944836 0.05696347 0.0035776803 -0.00042326486 -0.08648711 -0.10365491
0.05110439 0.038535338 0.027670242 0.1826439 -0.08698066 -0.10442408 -0.08634927 -0.0994297
-0.080563314 -0.10680744 -0.03557817 0.06373458 -0.10553481 0.061580945 -0.03707889 -0.16427352
0.09011274 -0.04963789 -0.058486838 -0.12176167 0.0042345775 -0.10488899 -0.11116721 0.084549226
-0.15360908 0.07264539 -0.029568935 0.16902202 0.04412577 -0.015743133 0.065581575 0.13708578
-0.12390186 -0.0028306942 0.09032044 -0.10176174 0.024187796 0.0756602 -0.083344966 0.027381076
0.0017171979 -0.1302017 -0.07186771 0.0025164485 0.18720731 -0.041683104 0.10650378 0.09917473
-0.07450523 0.07999742 -0.07928769 0.036943298 0.020070434 0.10777996 0.13034806 -0.046258617
0.10801185 -0.039974865 0.13768134 0.106162086 0.1177401 -0.10970023 0.017777432 -0.08673042
0.13466716 -0.042643536 -0.04366562 0.03763537 -0.02857056 -0.114018016 -0.10400447 -0.08550884
-0.021175195 0.029663326 -0.048229307 -0.029176736 0.020417046 0.037315916 0.061648477 -0.124688104
0.12898402 -0.11744646 0.0644364 0.012024928 0.031299155 0.020470375 0.095128626 0.033921722
0.01685375 0.11436244 0.013631179 -0.0039694323 0.10203939 0.037295967 -0.0048575746 -0.05000108
0.09955759 0.0801092 -0.037258353 -0.110755555 0.0077751707 0.058760125 0.027989255 -0.06975464
-0.12093434 0.07844051 -0.020538606 0.014281331 0.110544264 0.05484917 0.12572728 -0.089443915
0.11114512 -0.00023452553 0.11136866 -0.063171715 -0.08906448 0.041143417 0.05976736 -0.12859245
-0.0013842175 0.09961604 -0.032859154 -0.07599346 0.06439853 -0.026712498 0.1326486 -0.021097897
-0.005916191 0.11889082 -0.022782201 0.12500535 -0.086224504 -0.019293133 0.099642366 -0.04582111
-0.031274114 -0.12725276 -0.11217264 -0.058347747 -0.08595433 -0.022160916 0.050094564 -0.115412705
0.07832226 0.039198484 -0.09538819 -0.063916445 -0.024519345 -0.11374927 -0.0237926 -0.099802546
-0.10680832 -0.10677933 0.0024693292 -0.02700065 0.06020455 0.07475282 -0.057488706 0.06505437
-0.0889196 0.120136745 0.051143646 0.03539719 0.051673457 0.04738731 -0.07151222 -0.103028394
-0.0061951173 -0.017738244 -0.057785243 0.05673551 0.1349505 -0.011651234 0.053685773 0.0028254886
0.031811737 0.022915624 0.106322974 0.03189519 0.012850986 -0.091041796 0.011509496 0.00038629057
0.084543645 -0.08720186 -0.13716617 0.052692853 0.08697209 0.046116818 -0.016336566 0.08142615

model2.6.bias f4 [4]
00000000: 59dc ddbc a171 a03d d9fe 013e c6e5 0ebe
-0.027082609 0.07834173 0.12694873 -0.13954839
