model_weight/actor/14_14 07:34:36 std 0.4 lr_actor_0.004- gamma_0.7 memory300 actor_weight.pth (torch, 646091 bytes, 9 tensors)

std f4 [4]
000000 7a 2f 50 be f2 86 9e bc d8 28 cb bd 82 1e 13 be
       -0.20330611 -0.019351456 -0.099199 -0.14367107

model2.0.weight f4 [512, 24]
000000 f9 02 c9 3d 3a 0e c9 3d c4 55 d4 bd 9a ec 05 be
       0.0981502 0.098171666 -0.10367921 -0.13078538
000010 b3 f2 6f 3d 9e 2c bc bb 73 2d 59 3e dc 3a b8 3d
       0.058581065 -0.0057426235 0.21208744 0.089956015
000020 3a f1 9c be ea 7b dd 3d 70 87 3d 3e 07 e6 07 3e
       -0.3065279 0.1081465 0.18508697 0.13271342
000030 1d 0e df 3d e7 6a 85 3e 90 7a 0a 3e ba 8e 47 be
       0.10891364 0.26058123 0.13523316 -0.1948804
000040 9d 11 07 3e 08 45 f8 3c 6f c2 f3 3d fc bb 35 3e
       0.13190313 0.030306354 0.1190232 0.17747492
000050 a6 56 67 3c 88 01 91 3d 58 72 40 3e 48 6a ae bc
       0.01411978 0.0708037 0.18793619 -0.021290913
000060 43 02 06 be 7e 35 2a 3e 32 12 d1 bd 66 13 ed bd
       -0.130868 0.16621968 -0.102085486 -0.115759656
000070 91 b7 69 3e 42 94 12 bb 4d f6 83 bd f1 df 73 bd
       0.22823931 -0.00223662 -0.064434625 -0.05953974
000080 01 9c 26 be 78 ed b1 3d 9c 4d 1a be be c0 6a 3d
       -0.16270448 0.08687872 -0.15068668 0.05731272
000090 6a 8e 32 3e 2b 02 50 be be 73 c7 bd 23 7c b9 3d
       0.17437139 -0.20313327 -0.09738873 0.0905688
0000a0 34 d4 1f 3e 6e 3f 19 3e f3 1c 37 be 56 cf 28 be
       0.15608293 0.14965603 -0.17882137 -0.16485342
0000b0 d1 d0 19 be 24 a9 de bd 21 81 9f bd 4e 35 c0 bd
       -0.15021063 -0.10872105 -0.07788301 -0.09385167
0000c0 b3 e6 5d bd 4a a1 d4 bc 42 40 a1 3d 97 d7 e4 bd
       -0.05417509 -0.025955815 0.07873584 -0.11173933
0000d0 ad b1 8a 3e 92 20 1e be 14 97 6f bc 54 de 17 3e
       0.2708868 -0.15442112 -0.014623422 0.14830905
0000e0 61 ff fe bd c9 5e 00 3e 84 c0 eb bd f5 47 fa 3d
       -0.124510534 0.12536158 -0.11511329 0.12220756
0000f0 44 68 79 bc 96 ce 8d be e6 7e 5a be 27 e6 9c bc
       -0.015222613 -0.27696675 -0.2133747 -0.019152714
000100 ca 51 cf 3d 5e 52 b0 3d d0 c9 f3 bb df 9e 35 be
       0.10123022 0.0860946 -0.0074398294 -0.17736386
000110 61 9c fa 3d b3 2b 10 be 08 6b 3e bd 28 c3 e8 bd
       0.12236858 -0.1407917 -0.04648879 -0.11365348
000120 d9 d0 f3 3c ef fe cc bb 36 09 49 be 16 95 fd 3d
       0.029762672 -0.0062559764 -0.1963242 0.123819515
000130 51 9e 2c be 05 9b 41 be f9 e1 42 be 09 d8 b0 bd
       -0.16857268 -0.18906792 -0.19031514 -0.086349554
000140 e3 db 7a bd 9a d9 66 bc 34 b1 21 be 8c f4 9f bc
       -0.061244857 -0.014089966 -0.15790254 -0.019525789
000150 5e c7 be 3d 91 65 60 bc 8a 3f a6 bd 7f 66 32 3e
       0.0931537 -0.01369609 -0.08117588 0.17421912
000160 e2 2b 6d 3d 19 c3 bb 3c c7 4d 45 be 5f 83 61 be
       0.057903178 0.022920178 -0.19267951 -0.2202277
000170 4f 49 94 3d 77 46 4b 3d 2d c2 ee bc 09 9f 48 be
       0.07240545 0.049627747 -0.029145325 -0.19591917
000180 dc 03 40 be b3 03 e3 bd f5 26 ae 3d 25 2f 62 bc
       -0.18751472 -0.1108469 0.08503524 -0.013805185
000190 ad 38 78 bd f0 3f 0a bd 46 52 6b be 76 1f 0f bc
       -0.060600925 -0.03375238 -0.22980604 -0.008735528
0001a0 12 1d 39 be fa b1 01 be 28 f1 d1 3d f9 62 68 bd
       -0.18077496 -0.12665549 0.10251075 -0.056735013
0001b0 c8 e8 e7 bd f3 59 58 be f6 00 f3 3c d5 0a d5 3c
       -0.113236964 -0.21128063 0.029663544 0.026006142
0001c0 15 3a 37 be 16 56 ff 3d cd 48 de bd de f7 99 bd
       -0.1789325 0.124675915 -0.108537294 -0.0751798
0001d0 4c c8 9c 3d db ee 97 3c 08 9f c4 3d 4a 34 38 be
       0.07655391 0.018546512 0.09600645 -0.17988697
0001e0 77 91 2f bc f4 c8 1d 3e 1e ee 30 be ab b7 b6 3c
       -0.010715834 0.15408689 -0.17278334 0.022304377
0001f0 38 c2 ae bd 2d 70 a6 bc 91 32 ad 3d c6 48 85 bd
       -0.08533138 -0.020317161 0.084569104 -0.06508021
000200 61 28 0c be 61 a4 20 be 77 98 ac 3d c6 91 ef 3c
       -0.13687278 -0.15687706 0.08427518 0.029244315
000210 8e 56 a0 bd ed 45 d6 bd d6 58 c5 bd 31 7b 56 bd
       -0.07829009 -0.10462556 -0.09636085 -0.05236358
000220 0c a2 21 be 24 a8 18 be b6 24 62 bc 4c 7c 33 3e
       -0.15784472 -0.1490789 -0.013802698 0.17527884
000230 3e f8 1b 3d b9 07 36 be af 72 41 be a3 57 e3 3d
       0.03807854 -0.17776383 -0.18891405 0.111007
000240 c4 b7 34 3e ab d9 7e 3e aa ac fa 3d 30 ca 4f be
       0.17648226 0.24887721 0.12239964 -0.20291972
000250 45 76 7a be 8d 53 ed 3d 26 13 8d be 4f 49 6d 3d
       -0.24459179 0.11588202 -0.27553672 0.05793124
000260 a9 bd 5c bc 4f f7 e8 bd 05 89 c1 3d cd 6f 23 3c
       -0.013472953 -0.11375295 0.094499625 0.009975386
000270 7a 9f 0b bd 2c 9e f4 bc d5 4a 2a 3e 5c c8 82 3d
       -0.034087636 -0.029860578 0.16630109 0.06385872
000280 c9 75 30 3d 6e 43 16 be b4 16 53 3e 61 d2 10 be
       0.04308108 -0.1467416 0.2061413 -0.14142753
000290 1f d8 2b 3e 6c d1 c1 3d 15 21 40 3e 89 ab c2 bd
       0.16781662 0.09463772 0.1876262 -0.09505374
0002a0 8e 00 15 be 8e 15 a7 3c 58 64 9e bc 9a f7 57 3e
       -0.14550993 0.02039602 -0.019334957 0.21090546
0002b0 48 a7 ff bd 3d a9 bc bc 51 1f 23 3e 21 1e bd bd
       -0.12483078 -0.023029918 0.15929915 -0.09234262
0002c0 6c 79 fd 3c 50 27 c9 3d c6 4c a4 3c 1b 66 8e bd
       0.030941688 0.098219514 0.02005614 -0.06953069
0002d0 cf 0c b4 3d c5 55 4b 3d e6 23 61 be d9 58 25 be
       0.087915055 0.049642343 -0.2198635 -0.16147174
0002e0 44 8d 1f be a0 06 cc bc 7e 44 ee 3d ba cc 1a 3e
       -0.15581232 -0.024905503 0.116341576 0.1511716
0002f0 ac 08 93 bc d6 b8 9d bd 27 bd 07 be 82 8a a9 3d
       -0.017948471 -0.0770127 -0.1325575 0.082783714
000300 dd 25 30 3e aa 91 41 3d a6 0f a6 bd b7 e4 03 3e
       0.17201944 0.047258057 -0.081084535 0.12880217
000310 9e 5d c3 bc ed ba 29 3d 9c ec 86 bc 3e 67 f4 bc
       -0.023848351 0.041438032 -0.016470246 -0.029834386
000320 35 26 84 3b 11 40 17 be c1 6f 2b 3e 08 96 08 be
       0.004032875 -0.14770533 0.1674185 -0.13338482
000330 84 38 4e be 95 ec 9a bd ad 73 65 be 3a 93 31 be
       -0.20138747 -0.07564656 -0.22407408 -0.17341319
000340 c2 37 05 3d de 87 55 be 22 1f 4a bc 7d ae 49 be
       0.032523878 -0.2085261 -0.012336524 -0.19695468
000350 b6 0c 9d 3c fa fe 01 3e 6a ec c4 bb 8a c2 ef 3d
       0.0191711 0.12694922 -0.006009628 0.11707027
000360 82 e6 25 3d 41 d2 3c 3e 20 df 21 be f7 05 cf 3d
       0.040503033 0.1843958 -0.15807772 0.101085596
000370 ae ba 0f 3e 8d 92 27 be de 4b 2f be ae df d2 bd
       0.14036056 -0.16364498 -0.17118785 -0.1029657
000380 c1 b3 3b be 2b 15 63 be a0 1f 1a bd d5 f0 28 3d
       -0.1833029 -0.22176044 -0.037627816 0.0412453
000390 95 7b 66 bd b1 87 f4 bd 24 f5 e1 3d 84 94 57 be
       -0.0562702 -0.119399436 0.11033085 -0.21052748
0003a0 7c c0 62 3d 8c 40 62 be ee f1 9c bd 35 93 a4 3d
       0.05535935 -0.22094935 -0.07663332 0.0803589
0003b0 3d 77 17 be 30 60 00 be b8 3c ef 3d 79 11 2c be
       -0.1479158 -0.12536693 0.11681503 -0.1680354
0003c0 1c b7 10 be c7 d9 79 bd 1a 71 47 bd 07 74 8f 3d
       -0.1413235 -0.060998704 -0.048691846 0.07004552
0003d0 20 aa b0 bd 1f 93 37 be 17 90 3c be 2c e1 92 3d
       -0.08626199 -0.17927216 -0.18414341 0.071718544
0003e0 59 c9 88 bd 6d e4 b9 3c c0 24 2e 3d 39 4b 35 3e
       -0.06679029 0.02269193 0.042515516 0.17704476
0003f0 fd 51 40 3d 31 38 bc 3d be 00 37 bd 63 35 41 be
       0.04695319 0.09190405 -0.044678442 -0.18868022

model2.0.bias f4 [512]
000000 f8 d4 ed bd df 41 1a be b7 59 74 3d b3 55 21 3e
       -0.11612886 -0.1506419 0.05965587 0.15755348
000010 a8 3e 5e bd 9a d0 9c 3d 25 1d d4 bc f0 43 f5 3d
       -0.054258972 0.07656975 -0.025892803 0.11975849
000020 5a ec 8a 3c fe da f3 3d 5a 55 18 3e b3 5a 86 3d
       0.016958404 0.11907004 0.14876309 0.06560268
000030 d6 e7 28 3b 6e 31 3d be b3 e3 a9 3d c2 fe 59 3d
       0.002577295 -0.18475887 0.08295383 0.05322147
000040 42 4a 83 bd d2 39 11 bd f8 e4 18 be 96 c3 0a be
       -0.06410648 -0.035455532 -0.14931095 -0.13551173
000050 65 cf 17 be 27 bc 1a 3e bc e1 0e bc b1 26 eb bd
       -0.14825208 0.15110837 -0.008720811 -0.11481989
000060 96 bb d5 3d dd 7a e5 3d 56 12 ec bd 5c 2f 98 3a
       0.1043617 0.11205075 -0.11526935 0.0011610794
000070 0f c3 86 bd 58 96 69 3b c7 af 0f 3c 1a 58 e8 3d
       -0.06580173 0.003564259 0.008769936 0.11344929
000080 de 85 8d 3d 46 69 dd bc 89 9d a5 3b 1a 7b 69 be
       0.06910299 -0.027027737 0.00505418 -0.22800866
000090 8b 0b a6 bd 8c 9e c1 3d ff da 17 be 8b 18 9f bd
       -0.081076704 0.094540685 -0.14829634 -0.07768353
0000a0 76 1c 99 bd 49 87 b4 3d e3 10 f0 bd 5c 96 8a 3d
       -0.074761316 0.08814866 -0.11721971 0.0676696
0000b0 25 36 e4 bd 44 90 bf bd 44 63 04 3e 20 d6 31 be
       -0.1114314 -0.09353688 0.12928492 -0.17366838
0000c0 81 de 20 be d1 fd e0 bc b5 2c 73 be 51 d0 0c 3c
       -0.15709879 -0.02746478 -0.23747523 0.008594588
0000d0 b1 42 19 be 65 94 08 be 2c 45 15 bd e9 67 5f be
       -0.14966847 -0.13337858 -0.03644292 -0.21816982
0000e0 3d f4 ed bd 30 ec 9a bc ba 04 44 3e 8c 36 af 3c
       -0.116188504 -0.018911451 0.19142428 0.021388315
0000f0 ce b4 5d be c1 a0 45 be cc 17 29 3d 5c 13 a9 3d
       -0.21651003 -0.19299604 0.04128246 0.08255646
000100 3a 79 03 be 6a 95 03 3e 4c bc 74 3d 8f 7f 65 bc
       -0.12839213 0.12849966 0.059749886 -0.014007463
000110 27 8c f3 3d 4b 4c ad bc 7a 07 fd 3d d7 da 0f 3e
       0.11891966 -0.021154543 0.12354942 0.14048325
000120 75 99 40 3e 5c 8b 54 be 08 32 da 3c 7c 06 0b 3d
       0.18808539 -0.20756286 0.026635185 0.03394173
000130 91 b2 8e 3b a7 12 fa bc b3 4c 4b be fb 7a 87 3d
       0.004354783 -0.030526472 -0.19853477 0.066152535
000140 8d b2 81 bd 8a ea df bd 63 38 de 3d f1 9a e8 3d
       -0.06332884 -0.10933407 0.10850599 0.11357678
000150 cf b2 08 be b9 9e 29 3d fa f7 c5 bd 37 65 41 be
       -0.1334946 0.041411135 -0.096664384 -0.18886267
000160 d5 38 4d be d8 b5 05 be 67 99 e8 bd 91 11 a6 bc
       -0.20041211 -0.13057649 -0.11357384 -0.020272048
000170 f9 2b 27 3e 35 4b ed bc ff 96 ad bd 51 f9 07 bd
       0.16325368 -0.028966526 -0.08476066 -0.03319675
000180 33 7d 08 3e 96 86 f1 bd e2 35 1d 3e 51 73 6e 3d
       0.1332901 -0.11793248 0.15352586 0.058215443
000190 1f 85 4e 3d 7c b0 b3 bc 58 bb 10 3c 63 f0 13 3e
       0.050419923 -0.02193474 0.008833729 0.14447169
0001a0 d1 5f 09 bd ee 54 40 3c a0 a7 b2 bb b6 07 94 bd
       -0.033538643 0.011738999 -0.0054521114 -0.07228033
0001b0 bc 18 30 be f3 11 03 3e 31 ce b0 3d 6b c4 df bd
       -0.17196935 0.12799816 0.08633078 -0.10926136
0001c0 1b 39 7c 3d 09 52 4d 3e da cc bc bb 70 29 00 be
       0.061577898 0.20050825 -0.005761725 -0.12515807
0001d0 75 14 0a 3e 50 d5 15 3e d0 33 16 3e ab ad 01 3e
       0.13484366 0.14632154 0.14668202 0.12663905
0001e0 88 10 fe bd a3 76 d9 bb 9e 17 1b bc e1 b4 27 3e
       -0.12405497 -0.006636457 -0.00946608 0.16377594
0001f0 33 f6 21 3e 69 26 e1 3b 3d 1e 6a bd a4 da aa bd
       0.15816574 0.006871034 -0.057157744 -0.08342484
000200 6c a6 c9 bd f8 a7 3e be 13 cd 23 3e 3d e4 96 bd
       -0.098461956 -0.18618762 0.15996198 -0.07367752
000210 05 9f 43 be d7 0d 01 be e0 1f 2c be 83 39 97 bb
       -0.1910363 -0.12602936 -0.16809034 -0.00461501
000220 20 97 b9 bd 98 01 f6 bd 64 79 b3 3c 0a a9 1e 3d
       -0.09062028 -0.12012023 0.02190847 0.038735427
000230 e0 f5 33 be 63 dd c0 bd 0e c8 9b ba 72 78 08 bd
       -0.17574263 -0.09417226 -0.0011885182 -0.03331799
000240 63 a1 af bd d6 d3 05 be d1 02 57 be 45 96 d5 bd
       -0.08575704 -0.1306909 -0.20997168 -0.10429052
000250 eb 5d 04 3e f6 8a 23 be 83 e4 20 3e 8a 25 53 3d
       0.12926452 -0.15970978 0.1571217 0.051549472
000260 9c cc 34 be 16 9b 0d 3d 10 0c 46 be 24 5e af 3d
       -0.17656177 0.03457173 -0.19340539 0.08562878
000270 da 4b db 3d 12 6a 3b bd 20 20 8c 3d 2e ca dc 3d
       0.10707827 -0.045755453 0.06842065 0.1078075
000280 98 10 bc 3d a3 02 47 3e bc 3e a9 3d 9e 66 1b be
       0.091828525 0.194346 0.08263919 -0.15175864
000290 23 d9 d0 3d 97 28 50 3d db c9 cb bd 18 09 4b 3e
       0.101976655 0.05081996 -0.0995061 0.19827688
0002a0 8e fe 11 be f2 d3 89 3d f5 94 d8 3d a1 0c 29 be
       -0.14257261 0.067298785 0.10575286 -0.16508724
0002b0 88 db ad bc 18 71 00 3e 55 b4 37 3e 82 14 e0 bd
       -0.021222845 0.12543142 0.17939885 -0.109414116
0002c0 76 86 ad 3d ea b9 e5 bd 97 26 16 3e 45 23 61 3c
       0.08472912 -0.11217101 0.14663158 0.013741319
0002d0 66 e3 7e 3d 16 85 1d be 13 c0 0d bc e5 9e bd 3d
       0.062228583 -0.153828 -0.008651751 0.09258822
0002e0 d7 c8 8c bd 17 93 da bd 2f 22 49 3e 87 f2 ab 3d
       -0.06874245 -0.106725864 0.19641946 0.08395868
0002f0 af 8e fc bd 4e 86 46 3c 5e 9d a7 bd c5 a9 50 3d
       -0.12331902 0.012116982 -0.08184312 0.050943155
000300 a4 ff c1 bc 6a 11 9f 3d 45 65 b4 bb 1e db 1e 3e
       -0.02368147 0.07766993 -0.0055052363 0.15513274
000310 cc 32 a1 3d 08 54 42 be 6d 81 cd bd d8 e1 a2 bd
       0.07871017 -0.18977368 -0.10034452 -0.079532325
000320 8c f0 b9 bd e2 02 86 3d 66 c4 27 be cf ae 9c 3d
       -0.09079084 0.065435186 -0.16383514 0.076505296
000330 1b cc 0d 3e 53 1c e7 3d 11 bd 15 be 4c b1 2c be
       0.13847391 0.11284699 -0.14622904 -0.16864508
000340 a0 5c b0 3d 9b a8 4d be b8 dd 11 3e a0 b5 65 3d
       0.08611417 -0.20083849 0.14244735 0.056081414
000350 a1 5a 78 bc 33 2d 31 be 0d be 69 bd 3d 62 64 3d
       -0.015158326 -0.17302398 -0.057066012 0.05575775
000360 38 0f af bd 11 d4 02 3d 2b 53 98 bb 88 e1 86 bb
       -0.085478246 0.031940524 -0.0046485863 -0.004116241
000370 5e b4 d2 3d ed 17 56 3c 62 f5 18 3e e4 6c af 3d
       0.102883086 0.013067228 0.14937356 0.08565691
000380 86 72 21 3e 6e e3 44 be 3a e5 11 be 6c 03 29 3a
       0.15766343 -0.19227383 -0.14247599 0.0006447348
000390 12 72 61 be 66 23 a8 bd 27 c0 23 be b0 ec 9d 3d
       -0.2201617 -0.08209877 -0.15991269 0.0771116
0003a0 27 77 05 3e 46 cb aa 3c ee 6a ec bd 20 44 96 3d
       0.13033734 0.020848881 -0.11543833 0.073372126
0003b0 8d 27 01 be a0 7f 3e be 01 7b 32 3e 39 ce 2f be
       -0.12612744 -0.18603373 0.17429735 -0.17168511
0003c0 5c e5 22 be 70 31 18 3e aa c5 77 bd e5 9c 7e bd
       -0.15907806 0.14862609 -0.06049124 -0.062161345
0003d0 4f 5d 98 bd c4 69 12 be d7 9d e2 bd 6c 72 aa bd
       -0.07439672 -0.14298159 -0.11065262 -0.083226055
0003e0 e0 ce 37 be 8e 7d 2d 3c 25 08 fd bd 62 e9 64 3d
       -0.1795001 0.010589017 -0.12355069 0.055886634
0003f0 61 1c 5e be 03 6c 35 bd 66 4b d4 bd fd 1c e7 bd
       -0.21690513 -0.04429246 -0.103659436 -0.11284826

model2.2.weight f4 [256, 512]
000000 c0 40 22 bd 67 12 55 3c 3f cb c2 3c f2 5f 8e bc
       -0.03961253 0.013004876 0.023778556 -0.017379735
000010 6f 36 a9 bc 72 23 74 3c 41 79 07 3d 0d 29 8a bc
       -0.020655839 0.014901029 0.03307462 -0.016865278
000020 10 2b 17 bd 14 71 0e bd 71 be b5 3c 10 ca 22 bc
       -0.036906302 -0.03477581 0.022185536 -0.009935871
000030 9a 77 e5 bc ef 73 d0 39 1f 25 14 bd 5e bd 6a bc
       -0.028011132 0.0003975923 -0.036168214 -0.014327375
000040 0f ed ca 3c 96 01 9f bc f9 24 06 3d 18 1e 5f 3c
       0.024771241 -0.019409936 0.032750104 0.013618015
000050 4b f6 f7 3c bf 53 3b bd 28 53 6f bc f1 a7 58 3c
       0.030268809 -0.045734163 -0.014607228 0.013223634
000060 cb 86 23 3d 44 fe 7e 3a e6 d7 20 3d 8e b5 c5 3c
       0.03992347 0.00097272196 0.039268397 0.024134424
000070 7c fe c7 3c 61 7f 25 bd a6 a5 30 bd 89 1e 66 3c
       0.02441334 -0.04040468 -0.043126725 0.014045366
000080 b6 5e 93 3c 32 8d 28 bd 70 37 ed bb e5 b8 1d 3d
       0.017989498 -0.04115028 -0.0072392747 0.038506407
000090 07 b2 d3 3c 70 c9 68 3c 55 f7 25 bd df 30 4c 3b
       0.025841726 0.014208183 -0.040519077 0.003115706
0000a0 0c 1a 29 3c 9d 16 a5 3c bc 12 26 3c e6 96 f7 3c
       0.010321151 0.020152384 0.010136303 0.030223321
0000b0 ea 43 b3 bc 05 19 b7 bb 76 1a c8 3c c4 c3 26 bd
       -0.02188297 -0.0055876994 0.02442668 -0.04071404
0000c0 76 f4 dc 3c ce 59 ae 3c a7 59 be bb 2f 9a 16 3d
       0.026972037 0.021283057 -0.0058090272 0.036768135
0000d0 59 49 2a 3d ae 7f 0a 3d b4 65 c3 bc 16 30 09 bd
       0.041573856 0.03381317 -0.023852207 -0.033493124
0000e0 2e 68 b2 bc 18 d5 24 bc cd f7 1c 3d 34 e9 51 3c
       -0.021778192 -0.010060571 0.03832226 0.012811948
0000f0 a7 74 ea 3c 91 bb f3 3c 72 92 97 ba 4c 8b 98 3c
       0.028620077 0.029752525 -0.001156403 0.01862111
000100 40 bb 02 bd 65 a8 4d bc d9 15 45 3c 26 67 e5 bc
       -0.031916857 -0.012552355 0.012029135 -0.028003287
000110 c8 26 0b 3c de 4d 03 bc d3 0f 9e bc f1 62 35 bd
       0.008493133 -0.00801417 -0.019294655 -0.04428381
000120 f6 9a 7a bb 33 f5 1e bd 0a f4 38 bd 84 82 0f 3d
       -0.0038239337 -0.03880806 -0.04515461 0.03503658
000130 d8 a1 13 3d 38 5e ff 3c fe 16 2e bd 01 2f fb bc
       0.036043018 0.031172857 -0.042502396 -0.030662062
000140 37 76 36 bd 07 2b 20 bc 5f 57 2f 3c 9b be 86 bc
       -0.044546332 -0.0097758835 0.010701983 -0.01644831
000150 16 7c f1 bc fb 8e 6b bc c4 47 38 bd 7d 78 03 bd
       -0.029478114 -0.014377351 -0.044990316 -0.03209733
000160 e0 0d b5 bc 01 01 69 3a 4b 8b 2b bc 27 60 12 3d
       -0.022101343 0.0008888394 -0.010470222 0.03573623
000170 cb 1d 1a bb 2f 5e cf bc eb a9 4e 3b 05 ba 3e 3c
       -0.0023516293 -0.025313465 0.0031534384 0.01164103
000180 2a b1 95 3c 23 d9 85 ba 5e ba ea bc 39 27 1a bd
       0.018272955 -0.0010211807 -0.02865332 -0.037635062
000190 33 a9 1e bd 0e 93 6a bc 3f 63 bd ba 6c 1e 1a bc
       -0.03873558 -0.014317287 -0.0014449133 -0.009406667
0001a0 b5 3a 20 bd 7b 75 f5 bc 0d 6e 2e bd 1a 7e 51 bc
       -0.039118487 -0.029963246 -0.04258542 -0.012786413
0001b0 6b bc bf bc 95 5a 13 3d 2f 8f 37 bc d1 63 d1 3a
       -0.023405274 0.035975058 -0.011203571 0.0015975182
0001c0 92 4e 49 ba 4e c2 f3 bc a7 ae e6 bc 74 cc 14 bd
       -0.00076792494 -0.029755738 -0.028159453 -0.036327794
0001d0 c1 9e 0d bd a2 84 a2 bb 08 db 05 3d e2 d3 94 3c
       -0.034575228 -0.0049596587 0.032679588 0.01816744
0001e0 4b 11 f9 bb 5a 68 47 3c c4 58 87 bc 38 e4 12 bd
       -0.0076009384 0.012170875 -0.016521819 -0.035862178
0001f0 07 a2 a0 bc 09 04 86 bc c5 15 41 bb 72 05 14 3d
       -0.01960851 -0.016359346 -0.0029462439 0.036138006
000200 3d a7 66 3c 1e fa 10 bd 05 01 1a bd 39 ea c9 bc
       0.014077959 -0.03539478 -0.03759863 -0.024647819
000210 f7 38 d7 bc d5 3c 31 bc 12 be 08 bd 96 c7 24 bd
       -0.02627228 -0.010817726 -0.03338439 -0.040229402
000220 69 be d4 bc f5 a3 26 bd fe fb 27 bc 97 79 ae bc
       -0.0259697 -0.040683705 -0.010252951 -0.021298213
000230 2c aa 21 bc 55 f7 c3 bc 17 44 fb 39 96 21 b5 3c
       -0.009867232 -0.023921648 0.00047925182 0.022110742
000240 0b 74 ac bc 69 21 e8 3c 2a 18 7d bc 6e f5 92 bc
       -0.021051427 0.028336244 -0.015447656 -0.017939296
000250 bd 38 e8 3c 03 d0 ae bb 81 9f e2 3b b6 77 00 bd
       0.028347367 -0.0053348555 0.006915987 -0.031364165
000260 9a 7c 30 bc bb de 9c 3c 7f ad 18 bd b2 25 96 3b
       -0.010771895 0.019149175 -0.037274834 0.0045821304
000270 13 f1 79 3c bb e9 35 bd f4 34 1d 3d bd 0e 01 3d
       0.0152552305 -0.044412356 0.03838058 0.031508196
000280 39 f9 cd bc f6 9e 26 3d 0d 2e 2a b8 31 f2 2b 3c
       -0.025143253 0.04067894 -4.0574047e-05 0.010494755
000290 1d 6f 9c ba f7 81 06 bd c6 48 2a bc a1 c7 19 bd
       -0.001193497 -0.032838788 -0.010393327 -0.037543897
0002a0 a3 b8 38 3c fa b6 d7 bb 1f e5 d2 3c 80 dc bd 3c
       0.01127449 -0.006583092 0.02574402 0.023176432
0002b0 d6 a0 a4 3c 1c 7c 10 bd 8e 48 38 bd 2f 27 30 bc
       0.020096224 -0.03527461 -0.04499107 -0.01075153
0002c0 6a 48 6a bc b0 6b a7 bc 84 5b b2 bc 3e d1 67 3c
       -0.014299491 -0.020437092 -0.021772154 0.014149008
0002d0 cb 0e 8d 3a 08 27 44 3c cd ca cd bc 62 db 9a bc
       0.0010761855 0.011972196 -0.025121117 -0.018903438
0002e0 93 13 01 bc b2 78 29 3d 1a 9d 90 3c e0 cd 99 3c
       -0.007878202 0.04137487 0.017653037 0.018774927
0002f0 a2 6c 6f bc 65 55 48 ba 04 e4 cf 3c 37 08 2e bd
       -0.014613302 -0.00076421193 0.025377281 -0.042488303
000300 d3 f1 9f 3c 26 d9 21 bd 8a 65 d1 bc 8f c5 f8 3c
       0.01952449 -0.03951373 -0.025561113 0.03036764
000310 6f b7 e7 3c 24 9e 11 bd 8c 78 e1 3c 48 35 13 3a
       0.02828571 -0.035551205 0.027523302 0.00056155445
000320 dc 4d 3f bb 54 93 92 3c 28 09 39 bd 52 e6 a8 b9
       -0.0029190695 0.017892517 -0.045174748 -0.0003221506
000330 36 36 b5 3b a7 65 c3 bb 70 f7 e1 3c 7b 9f 15 bd
       0.005530144 -0.0059630456 0.027583808 -0.036529046
000340 d1 31 e8 bc cc 15 c8 3c b8 a1 19 bd bd ee 00 bd
       -0.028344067 0.024424456 -0.037507743 -0.03147768
000350 e1 68 19 3d 3e 78 2a bb 4d 7c fb bc 49 29 ce bc
       0.037453536 -0.0026011611 -0.03069892 -0.02516617
000360 7a f2 de 3c 9d ac 61 bc 3d bb 07 bd 60 20 1a bb
       0.027215231 -0.013774064 -0.03313755 -0.0023517832
000370 4e 48 27 bc f8 72 49 3c 6e d9 7d 3c a6 5b 4b 3c
       -0.01021011 0.012295477 0.015493734 0.012411987
000380 60 d8 18 bd 49 fa a8 3c f9 83 0d bd 9a 18 b8 bb
       -0.037315726 0.020627158 -0.034549687 -0.005618167
000390 6d 8f 08 bc 44 e5 05 bd 98 28 74 3c 5f 4b 81 bc
       -0.008334977 -0.032689348 0.014902256 -0.01578301
0003a0 51 0c 52 bc 33 5b 38 bd 4e 21 58 bc 95 47 a0 bc
       -0.012820319 -0.04500885 -0.013191534 -0.019565383
0003b0 ec ab 26 bd 57 a1 6e 3c 20 15 36 bd fd b7 b1 3c
       -0.0406913 0.014564834 -0.04445374 0.021694178
0003c0 c4 59 81 3c 60 de cc ba ea 4a 22 bd a9 81 f9 3c
       0.015789874 -0.0015630238 -0.039622225 0.030457335
0003d0 5f e2 01 bd b7 9a 14 bd b3 e0 2e bd f2 0a 03 bc
       -0.031710025 -0.03628036 -0.04269476 -0.007998215
0003e0 3a 1e 31 bd 5b f5 76 3c 97 07 01 bd 41 fc 92 3c
       -0.043241717 0.015073146 -0.03150138 0.01794255
0003f0 73 25 85 bc 4b f8 20 3d f0 9a ed bc 6e 5d a5 bc
       -0.016253209 0.03929929 -0.029004544 -0.020186152

model2.2.bias f4 [256]
000000 a5 8b 38 bd d9 93 c7 3c 5c 48 2a 3c 46 a4 af bb
       -0.04505505 0.024362491 0.010393228 -0.005360159
000010 64 87 fc bc b5 d2 02 3c 4c 91 c1 3c 11 38 3a bd
       -0.030826278 0.007984807 0.023628853 -0.045463625
000020 81 43 34 bd 81 6a 1b bc 74 e7 26 bb aa 68 41 bc
       -0.04400969 -0.009485842 -0.0025467547 -0.011804739
000030 d4 22 01 3d 11 be a6 3c 85 e4 ab 3c 93 2f 04 3d
       0.031527355 0.020354303 0.02098299 0.032271933
000040 4c 3a 91 3c f7 b6 60 3d 26 7c b3 3c 16 05 b5 3b
       0.017727993 0.05486199 0.021909785 0.005524288
000050 26 59 8b bc b5 b7 de bb a5 d4 ba 3c 42 81 f4 3b
       -0.017010283 -0.006796802 0.022806475 0.007461698
000060 41 b0 58 bd d2 25 08 bd 2f 7d 21 3c cd d9 58 bd
       -0.052902464 -0.033239193 0.009856506 -0.052942086
000070 b7 43 91 3c d3 74 2e 3c ac 05 28 3d d9 2f 95 bc
       0.017732484 0.01064797 0.041021034 -0.018211292
000080 19 20 90 3c 41 d5 ac bb 97 6d e9 bc 5a e3 fc bc
       0.01759343 -0.0052744453 -0.02849464 -0.030870128
000090 19 c0 70 3c 1e c7 f9 3c ac 6c 05 3d cc 30 0b 3d
       0.014694237 0.030490454 0.03257434 0.033982083
0000a0 c8 70 85 bc 01 41 a0 bc fb d6 11 bc 5b b2 32 bc
       -0.01628913 -0.019562246 -0.008901353 -0.010906781
0000b0 c4 2e 8d bc ba fe 81 3c 7d 77 39 bd 94 33 32 3d
       -0.017234214 0.015868533 -0.04527997 0.04350622
0000c0 84 72 95 bb e7 13 d2 3c be 58 21 bc 7c 00 a9 bc
       -0.0045607705 0.025644256 -0.009847818 -0.020630114
0000d0 d1 2c 73 3c 40 7a 08 bd b4 53 7b 3d bd c9 91 3c
       0.014842228 -0.03331971 0.061359122 0.017796392
0000e0 88 50 6f bc 55 35 2f bd a0 a2 61 bb 54 3b 25 3c
       -0.0146066025 -0.04277547 -0.0034429207 0.010084946
0000f0 48 e2 39 bd c4 4a 55 bd 79 6e 5d 3c b2 5c 46 bd
       -0.045381814 -0.052073255 0.013515108 -0.048428245
000100 a0 77 f5 3c 99 a8 6e bc 5b ac 23 bd 31 d4 af b9
       0.029964268 -0.014566564 -0.039959293 -0.00033536696
000110 1e b6 ec bc a2 bb 2f bb 6f 23 37 3d f2 35 f7 3c
       -0.028895434 -0.0026814719 0.044711526 0.03017709
000120 df 92 16 bd dd ce 21 bc 10 d2 a4 bc c4 64 1e 3c
       -0.03676116 -0.00987598 -0.020119697 0.009667579
000130 b2 17 09 bd 73 d6 f4 bc 20 5c 12 3b b2 ae 56 3c
       -0.033469863 -0.029887414 0.0022332743 0.013103174
000140 61 27 85 bd 32 82 ab bc 1f 91 ae bb c4 7a 00 bd
       -0.065016516 -0.020936105 -0.0053273584 -0.03136708
000150 38 28 b8 3c 04 e8 21 bd 00 ca dd bb 94 fb 84 bc
       0.022480115 -0.039527908 -0.006768465 -0.016233243
000160 4f 9b f4 bc 84 d7 e2 bc 64 3f b1 bc 99 c7 80 bc
       -0.029859213 -0.027690656 -0.021636672 -0.015720176
000170 3c 18 a1 ba ef c4 4a bc 4d 92 88 bc 65 dc b9 3b
       -0.0012290548 -0.012376054 -0.016671324 0.005672025
000180 02 c3 ac 3b 62 da 58 3d 39 f0 6d 3d e8 62 23 3d
       0.00527227 0.05294264 0.058090422 0.039889246
000190 c6 5b 11 3c 2a e1 97 bc a8 4b d1 3c ff ad 3e 3c
       0.008871978 -0.018539984 0.025548771 0.011638164
0001a0 a5 74 02 ba 5f 21 0c 3d 57 b2 f0 bc 45 88 a9 bc
       -0.0004976488 0.034211513 -0.029381914 -0.020694861
0001b0 30 d7 be ba af f6 cc 3c 00 c9 2a bd f8 94 c0 bc
       -0.001455998 0.025019972 -0.041695595 -0.023508534
0001c0 ee 71 04 bb bd 1c 1e bc f0 2f 57 bc fa 97 4b bd
       -0.002020951 -0.009650406 -0.013133988 -0.049705483
0001d0 bf e2 7e bc 1d 4a df 3b dd 8b 59 3c 1d e2 57 bd
       -0.01555699 0.006814255 0.013277975 -0.052705873
0001e0 06 80 7b bd 32 2b b9 bb 0f 8d 8e 3c b2 48 dc 3c
       -0.06140139 -0.0056509012 0.017401246 0.026890133
0001f0 3a b0 65 39 b8 e1 04 bd a9 c4 1b bb d6 d1 72 bc
       0.00021904791 -0.032441825 -0.0023768342 -0.014820537
000200 f3 3a 2e bd 28 6f f5 bc 84 6f 1d bc 0e b6 71 3b
       -0.042536687 -0.02996023 -0.009609107 0.0036882195
000210 3c 85 c6 3b 22 05 4c bc b6 28 c9 3c 4c f5 3b bd
       0.0060583632 -0.012452396 0.024555545 -0.04588823
000220 3f 3e d5 3c f5 88 b8 bc 90 74 8b 3c cf c3 17 bd
       0.026030658 -0.022526244 0.017023355 -0.037051972
000230 3d a1 f5 3b 26 71 35 3c 56 c2 74 3b 2a 5b 6c 3c
       0.0074960277 0.01107434 0.0037347279 0.014426032
000240 34 1b 3f bd ce 47 b2 39 ca 04 34 3c 94 0f 73 bd
       -0.046656802 0.00034004304 0.01098747 -0.05934103
000250 cd 1f 82 3c 87 6e 8b 3c ec 18 86 bd ef f2 af 3c
       0.015884304 0.017020477 -0.06547722 0.021478144
000260 03 10 9b bc f3 f4 ee 3b 42 2e de 3c 67 06 58 bc
       -0.018928533 0.007292384 0.027121667 -0.01318512
000270 1f dc 4b bc fa 2b 5e ba 86 0c 4f bd 26 e0 b2 3c
       -0.012442618 -0.0008475181 -0.050549053 0.021835398
000280 58 24 ec bc c3 ec 14 3c 7a e0 33 3d 5d 27 38 3d
       -0.028825924 0.0090896515 0.04391525 0.044959415
000290 4f 69 b1 bc 89 de 3a 3b e3 97 f5 bc 0c 19 29 bd
       -0.02165666 0.002851399 -0.029979652 -0.041283652
0002a0 9c c2 92 bd f4 5b c3 bc 1d b9 c8 3c 0e 62 09 bc
       -0.07166025 -0.023847558 0.024502331 -0.008385194
0002b0 c9 08 4a bd 5f be 8b bd 02 e9 ee 3c 20 68 91 3c
       -0.049324784 -0.0682342 0.029163841 0.017749846
0002c0 f6 e8 63 bc 35 f6 92 bc 23 bc 85 bc da 70 84 3c
       -0.013910523 -0.017939666 -0.016325062 0.016167093
0002d0 c1 17 14 3b ec 24 e1 3c 1a b1 4b bd 98 a3 48 bc
       0.0022597166 0.027483426 -0.049729444 -0.012246035
0002e0 bc 25 07 bd c7 0e 48 bc d2 8b 10 bd 91 76 e3 bc
       -0.03299497 -0.012210554 -0.035289593 -0.027766498
0002f0 cd 62 81 3c 77 16 d0 3c c7 78 80 b9 87 55 43 3c
       0.015794182 0.025401337 -0.0002450405 0.011922247
000300 e9 58 1a bd 87 95 7c ba e1 22 06 bd 60 35 5d bd
       -0.037682448 -0.00096353184 -0.032748107 -0.05400598
000310 1d a3 00 3d ac 3b e9 bc a7 a0 17 bd ef 48 89 3c
       0.031405557 -0.028470837 -0.037018444 0.01675841
000320 1a c3 13 bd 29 ee 1f bc f6 0a 2b bd c8 b3 0e 3c
       -0.036074735 -0.009761372 -0.0417585 0.008709855
000330 33 0f 80 bc b0 96 07 bd ea be db bc 04 41 16 bd
       -0.015632248 -0.03310269 -0.026824433 -0.036683097
000340 a9 6e ce bb 99 eb 88 3c 05 3d 8e bc 70 31 14 bc
       -0.006299813 0.016713904 -0.01736308 -0.00904499
000350 22 20 3f bc ea 2c 36 bd cc 0a 93 3c 97 c7 d4 3c
       -0.011665376 -0.044476427 0.017949484 0.025974078
000360 04 92 4f bd 23 86 44 bd 07 94 80 bd 7e b6 95 3c
       -0.05067636 -0.047979485 -0.06278234 0.018275496
000370 31 f2 80 3c 57 a1 64 3c ea 28 0e bd 57 f0 20 bd
       0.015740486 0.013954482 -0.034706987 -0.039291706
000380 b6 54 10 3c bc 02 04 3c e3 49 01 bc d2 c3 bc bc
       0.008809259 0.008057293 -0.007891151 -0.023042593
000390 e9 c3 14 bd 05 1e 7c bc 9a 96 11 bd 43 29 84 3c
       -0.036319647 -0.015388017 -0.035544015 0.016132956
0003a0 59 74 aa bc 93 76 41 bd ec 9a 0b bd 4a 46 be 3c
       -0.020807432 -0.04723222 -0.034083292 0.023226876
0003b0 d2 11 17 bd 9c 9d 8f bc 48 04 01 3d f0 bd 4e bd
       -0.03688223 -0.017531209 0.031498224 -0.050474107
0003c0 78 ad 84 bc 8e 57 80 bd de 10 38 bd 40 32 0d 3c
       -0.016195998 -0.062667 -0.04493796 0.008617938
0003d0 20 24 d4 3c 70 06 16 3d 01 27 ef bb 7a 2f 9e bb
       0.025896132 0.036627233 -0.007298351 -0.004827437
0003e0 e8 cf 30 3b c9 62 36 bd 90 2e 88 3c c8 4b dc 3a
       0.002697939 -0.044527803 0.016623765 0.0016807253
0003f0 27 a3 c5 3c 38 b2 c0 bb d2 9f 7b 3b c2 ae fc bc
       0.024125649 -0.0058806203 0.003839482 -0.03084505

model2.4.weight f4 [64, 256]
000000 4d da 79 3d 56 12 80 3d 36 b2 d4 bd 8e 76 3e bd
       0.060999203 0.06253497 -0.103855535 -0.04649978
000010 22 82 08 bd f9 73 65 3d 04 6d 4c bc 17 89 42 3d
       -0.03332723 0.056018803 -0.012477163 0.04749402
000020 71 4f 2e bd dc 2c af 3c 3b 7e 75 bc 85 16 a7 bb
       -0.04255623 0.021383695 -0.014983709 -0.00509912
000030 fa 90 9d bc 5f 92 4d bd 1d 42 5c bc 61 7a ad 3c
       -0.01923417 -0.05018842 -0.013443497 0.021176519
000040 78 71 9a 3b af c0 cd 3c 23 f3 47 bb 71 b3 00 bd
       0.0047132336 0.025116293 -0.003050991 -0.03142113
000050 c1 7b 0f bd 39 c0 30 bd 45 4a 77 3d f2 ec e3 3c
       -0.03503013 -0.043152068 0.060373563 0.027822945
000060 41 54 ff bb 00 cd 98 bd a2 83 03 bd b9 5f 92 bc
       -0.0077920263 -0.07460976 -0.032107957 -0.01786791
000070 14 c1 6a bc c6 85 e7 bc f1 f7 d4 bc c8 29 e2 3b
       -0.01432826 -0.02826203 -0.025997134 0.0069019534
000080 8c 60 04 bc 92 80 ad 3b c6 87 00 3c 01 67 07 bd
       -0.008079659 0.005294868 0.007844871 -0.033057217
000090 9d 67 3d bd 16 b7 3b bd 35 47 c5 bc 0e bb 49 3b
       -0.04624139 -0.0458289 -0.024081806 0.003078166
0000a0 0f 76 88 bc db a9 a6 bd 66 8c 3b 3d ee 7e dc 3c
       -0.016657857 -0.08137866 0.04578819 0.026915994
0000b0 ec 6e 25 bd dd aa c9 bd f8 80 76 bc 8b a0 10 bd
       -0.040388986 -0.09847043 -0.015045397 -0.035309356
0000c0 71 84 67 3d 7d ca 73 3a 54 c4 4f bd 73 7c 77 bd
       0.05652279 0.00092998875 -0.050724342 -0.06042142
0000d0 21 ec 91 bd 28 2e 5c bd bc 4a 06 3d 9b 7a 6c bc
       -0.07125116 -0.053754956 0.032786116 -0.014433528
0000e0 33 84 28 3d ae 91 33 bd 7e 11 72 3d ed 5e 3a 3d
       0.0411417 -0.043840103 0.059098713 0.045500685
0000f0 b0 e9 f0 3c 42 3d ac bc a4 11 8a bd e1 ed 04 bd
       0.029408306 -0.021025304 -0.06741646 -0.03245342
000100 81 fe 07 bc 93 31 80 bd 23 c6 60 3d c8 21 fe 3b
       -0.008300425 -0.062594555 0.054876458 0.007755492
000110 6e 09 29 3d 51 d1 39 bd 81 7e ca bc b2 7a 01 3d
       0.04126876 -0.045365635 -0.024718525 0.031611152
000120 d0 5c 5a 3c 1f b3 ca bb 79 8b 22 bd ec 4e 48 bd
       0.013327792 -0.0061859037 -0.039683793 -0.04890339
000130 cc d8 22 3d 7c 47 63 bd cd 86 0b 3d 4e e8 3b bd
       0.039757535 -0.055488095 0.034064103 -0.04587584
000140 d3 ef cd bc d8 db 04 bd e8 20 af 3c dc c9 d8 bc
       -0.025138771 -0.03243622 0.021377996 -0.026463442
000150 14 0e 19 bd 9c c0 08 3d 8f d5 71 3d 91 85 36 bd
       -0.03736694 0.03338681 0.059041556 -0.044560973
000160 9c 7c e3 bc 50 6b 39 bd c1 2c 0f 3d 9d 10 1c 3d
       -0.02776938 -0.045268357 0.03495479 0.03810178
000170 2d 35 0e bc 2e a4 7f 3d 24 3c 4b bd f6 35 d2 bb
       -0.00867967 0.062412433 -0.0496179 -0.006415124
000180 bb 43 2a bd 4e c3 ac bd 87 ff 9b bd 0e 80 0a bc
       -0.0415685 -0.08435689 -0.07617097 -0.008453382
000190 e0 33 23 bc e9 30 f0 3c f0 23 83 bc c6 54 bd bc
       -0.009961098 0.029320197 -0.016008347 -0.023111712
0001a0 20 ea 8e bd 24 a5 19 3d 41 22 71 bc 2b f4 4f bc
       -0.069782495 0.037511006 -0.014717639 -0.0126924915
0001b0 37 2b 67 3a f3 0f 11 bd af 79 0d bd af a2 a0 3c
       0.000881839 -0.0354156 -0.034539875 0.019608824
0001c0 b6 de 16 3d ca 39 2d bd 25 c8 11 bc cd e2 48 bd
       0.036833487 -0.04229144 -0.008897816 -0.04904442
0001d0 a9 5f 1b 3c 63 8e d7 3b 64 4b 43 3c 8e 3c 34 bd
       0.009483256 0.006578253 0.01191983 -0.044003062
0001e0 73 ab 24 bd df ab a4 bd 11 66 55 bd 26 06 56 bd
       -0.04020257 -0.08040594 -0.05209929 -0.052251957
0001f0 05 fa 07 bd 05 13 4a 3d d8 0c af bb bb 16 37 bb
       -0.03319742 0.049334545 -0.0053421073 -0.0027937132
000200 f8 80 74 bd 30 d0 bb 3c 08 29 24 3c a4 8c 31 bd
       -0.059693307 0.02292642 0.010019548 -0.043347016
000210 5e d4 da bc 5a 73 11 bd d5 b2 40 3d 16 b1 92 bc
       -0.026712593 -0.0355104 0.047045548 -0.017906707
000220 f9 7e 2b bd f0 8b e1 bc 70 69 d8 bb c0 0e ad bb
       -0.041869137 -0.027532548 -0.006604366 -0.0052812994
000230 e1 98 5f bd 23 27 b9 bd 8c 7c 81 bd d0 10 9f bd
       -0.054589156 -0.09040668 -0.063225836 -0.077668786
000240 c9 18 bb 3c 6c 85 44 3d 40 b2 cf bc 8c 60 02 bd
       0.022838967 0.047978804 -0.02535355 -0.031830356
000250 33 df 35 ba b7 98 96 ba ff ac fd 3c 41 43 15 3d
       -0.00069378613 -0.0011489604 0.03096628 0.03644109
000260 5f 20 0e 3d a5 65 bb 3c 2e 1f bf bc a9 1e 99 bc
       0.03469884 0.022875616 -0.023330297 -0.018691378
000270 36 b3 dc 3c f6 8a 86 3b b9 01 33 3d f5 26 86 bd
       0.026940923 0.004105921 0.043702815 -0.06550399
000280 06 b5 28 bd c4 8d f6 bc b3 3c 7c bb 83 ef b9 bb
       -0.041188262 -0.030096896 -0.0038488328 -0.005674304
000290 e1 7b 66 bc 3d b5 cc bb 74 91 b8 bd 4b 48 93 bd
       -0.014067621 -0.006247191 -0.09012118 -0.07191523
0002a0 98 86 ac bb 82 de 11 bd 43 44 96 bd d9 85 76 bd
       -0.0052650683 -0.03561259 -0.07337239 -0.06018624
0002b0 ab 36 66 3d 8b 89 44 bd be 7b cd 3a ba d4 86 bc
       0.05620448 -0.047982734 0.0015677137 -0.016458858
0002c0 b1 8a 09 3d ca 22 a2 3c 9f 28 5f bd 47 72 30 bd
       0.033579532 0.01979198 -0.0544821 -0.043077733
0002d0 9b 37 60 ba 9a e0 63 bd e0 3f 1e bd 45 ab 14 3c
       -0.0008553208 -0.05563412 -0.038635135 0.009074037
0002e0 a9 89 8b 3b 55 0f e5 3b bf 6d 18 bd 41 2b c8 3b
       0.0042583537 0.006990353 -0.037214037 0.006108672
0002f0 d4 46 35 bd 8c 8a 33 3d 65 ab 06 bc 40 64 80 bc
       -0.044257 0.0438333 -0.008219575 -0.015672803
000300 bf 42 80 bd 74 20 08 3d a2 df 5c bc 51 8d 3e 3d
       -0.06262731 0.033234075 -0.013481053 0.04652149
000310 6d 70 82 bd b8 e5 88 bd 5c 10 34 bd 39 e8 da 3a
       -0.063691 -0.066844404 -0.043960914 0.0016701288
000320 15 be cc bc 31 f4 ae bc 5c c3 04 bd 30 30 1f bc
       -0.024992982 -0.021356674 -0.03241287 -0.009716079
000330 21 f9 91 3c 05 c4 03 bd a0 5c c5 bc e3 aa 5a 3d
       0.01781899 -0.03216936 -0.024092019 0.053385627
000340 58 d8 fe 3c 64 d4 09 3d d9 ae 80 bc 80 dc 67 3a
       0.03110902 0.033649817 -0.015708374 0.0008844808
000350 9d cc c6 bc 48 c1 aa bd dd 4a 65 bd 55 43 06 bd
       -0.02426749 -0.08337647 -0.0559796 -0.032779057
000360 66 fc be 3a 65 c4 af bd 8f 18 8f 3b eb da 7c 3b
       0.001457107 -0.08582381 0.0043669413 0.0038582634
000370 93 52 55 3d 14 56 16 3d 73 b2 62 bd 12 5a 11 bd
       0.052080702 0.036703184 -0.055345964 -0.03548629
000380 ae 3b 5a bb 9f 72 3a 3d 5d c9 35 3b df 78 83 3b
       -0.0033299732 0.045519467 0.002773843 0.0040122117
000390 9a db be bc 79 27 a0 3b f0 60 72 3c 55 dd e9 3c
       -0.023298074 0.004887518 0.0147936195 0.028547922
0003a0 1a 33 a3 bc 38 d4 d1 3a 52 9b 14 bd 4a 19 31 3d
       -0.019921828 0.0016008681 -0.036280937 0.04323701
0003b0 67 c6 bc bc e0 ea 0e 3d b2 1f 12 3c fe b8 dc bb
       -0.023043824 0.034891963 0.00891869 -0.00673592
0003c0 ad f6 b4 bd b5 c0 6f bd 8b 88 9f 3b 38 5e 12 bd
       -0.08836112 -0.05853339 0.004868572 -0.035734385
0003d0 2b 87 86 bc 79 6b a6 bc 0a 82 d3 ba 42 bc f9 bb
       -0.016421875 -0.020314919 -0.0016136777 -0.007621319
0003e0 f9 e5 ce bd 3b b9 e9 bc 9c 21 a0 3c a3 66 ea 3b
       -0.101024576 -0.028530708 0.019547276 0.0071533485
0003f0 cd 13 68 bc 91 5e 15 bd e9 2d a6 3c 90 7a 84 bd
       -0.014164877 -0.03646714 0.020285564 -0.064686894

model2.4.bias f4 [64]
000000 ec ff 8c bb 6f 97 e2 3d b5 66 3d bd fb 2c 06 bc
       -0.004302969 0.1106404 -0.046240527 -0.008189435
000010 ad 21 c9 3c 55 c7 33 b9 1c d3 b0 bc 9e 99 77 bd
       0.02455219 -0.00017145027 -0.02158504 -0.060449235
000020 11 f7 ad ba c1 5f fc 3c 76 b7 18 3d 72 da 2c 3d
       -0.0013272484 0.030807378 0.037284337 0.042200513
000030 8d 0b 95 bd c5 18 14 bc a4 04 90 bd 12 d4 1b bd
       -0.07277594 -0.009039109 -0.07032135 -0.038044043
000040 68 e5 ef bb 88 2a b2 3c 29 dd 8f bd 0a 81 5e bd
       -0.0073210485 0.021748796 -0.07024605 -0.05432228
000050 13 59 ec 3c aa 2f 9d 3c 6a 49 18 3c ae 04 e1 3c
       0.028851068 0.019187767 0.009294847 0.027468052
000060 9a 28 e6 bc 3c c1 65 bd 58 d8 10 bc 8d 7f b4 bd
       -0.028095532 -0.056092486 -0.008840643 -0.08813391
000070 46 5d 9d 3c 13 0e 2e bd cc 38 10 bd f5 ce 39 bd
       0.019209515 -0.04249389 -0.035210416 -0.045363385
000080 6e 9a 20 bd bb b0 1d bd 65 8a 30 bd 59 0a b8 bc
       -0.039209776 -0.03849862 -0.043100733 -0.022465872
000090 e6 e8 2d bb 68 c6 cf 3c 0f 0e f5 3c e3 f6 8c bd
       -0.0026536523 0.025363162 0.02991393 -0.068830274
0000a0 9f 82 7b bc 02 82 29 3d 5c 14 48 3c 59 82 b3 3d
       -0.015350967 0.04138375 0.012211885 0.08765096
0000b0 16 d4 9b bc 91 6b 76 3d 7d 1b a3 bc 5e fa 99 3b
       -0.019022029 0.060161177 -0.019910568 0.0046990355
0000c0 f9 70 6a 3d cd de 26 bd 19 0e d1 bc 7c 7e 81 bd
       0.057236645 -0.040739823 -0.025519418 -0.06322953
0000d0 af ee 02 bd 0c 96 fa 3c f0 5e a0 3c 30 e0 74 bd
       -0.031965908 0.030589126 0.01957652 -0.059784114
0000e0 46 1d 6f bd d0 6a dd 3c 64 22 15 bc cc b4 8e 3d
       -0.058377527 0.027028471 -0.009102438 0.06968078
0000f0 6f 57 18 3c 72 19 9f 3d 43 7e 63 bd 93 59 55 3d
       0.00929819 0.07768525 -0.055540334 0.052087378

model2.6.weight f4 [4, 64]
000000 e0 c4 c4 bd cf 5b 20 be ad 55 db 3c 8d b9 3b ba
       -0.096078634 -0.15660022 0.026774252 -0.0007161133
000010 4e 10 2f 3d be b6 a8 3c 6b 27 15 3d d3 cb 8b 3c
       0.04274016 0.02059495 0.036414545 0.017064964
000020 24 2a 6d bd 64 73 43 3d 23 ab 6f bd 07 49 4f bd
       -0.057901517 0.047717467 -0.058512818 -0.050606754
000030 60 4c e7 bc 8a f6 b8 ba 49 4b 25 bd 1f ff e0 bd
       -0.02823466 -0.001411156 -0.040355 -0.109861605
000040 d7 4d 35 3d 68 1f 1b 3c 37 18 19 bd 29 81 6c 3d
       0.044263687 0.009467937 -0.03737661 0.057740364
000050 4e 3e 18 be 57 45 cd 3b 1f f7 8d 3d 49 b8 e4 bd
       -0.14867517 0.0062643695 0.069319 -0.11167962
000060 78 0e 9f bb 17 69 e0 3c 5c 22 aa bd bc 36 5e bc
       -0.0048540197 0.02739386 -0.08307335 -0.013562854
000070 e6 b9 15 be 41 87 f4 3c ba cd 9c bd 0d 14 59 bd
       -0.14621696 0.02984965 -0.07656427 -0.052997638
000080 0b f7 36 3d b5 06 3f bc 29 49 cb 3c da bd 99 3d
       0.044669192 -0.011659314 0.024815159 0.075069144
000090 63 d3 73 bd e8 74 bc bd ae 20 33 3d 57 fe 97 bc
       -0.059527766 -0.092019856 0.043732338 -0.018553896
0000a0 26 7d 85 3d d5 8e 9b 3d c2 19 b7 bc 20 5e c4 bd
       0.06518011 0.075956024 -0.02235115 -0.095882654
0000b0 8a 06 73 3d db 8d eb bd f1 5e 97 bc 7a ee 06 bd
       0.059332408 -0.11501666 -0.018477889 -0.032942273
0000c0 c6 5c 13 be 2b 6a b1 bc 25 44 cd bd 11 c4 21 3d
       -0.14390859 -0.02165707 -0.10022763 0.039493624
0000d0 6c 8f 2f 3d ed 15 17 3d de d9 b8 3d 79 70 e1 bd
       0.042861387 0.036886144 0.0902593 -0.110077806
0000e0 41 e1 bb 3d 7d b2 97 3d 43 e1 7f 3c 95 34 fc bd
       0.09173823 0.07407091 0.015617671 -0.12314717
0000f0 ef 92 c1 bd b9 ad 87 bd 37 b0 fc bd d6 30 3f bd
       -0.094518535 -0.06624932 -0.12338298 -0.046677433
000100 06 67 11 bd 0b 41 df bd 6e 79 49 3d 25 b9 89 bd
       -0.03549864 -0.10901078 0.04918807 -0.06724767
000110 d9 c6 bb bd 1b 22 b3 3d 56 c0 a2 3b 8a 0b b1 3d
       -0.091687866 0.087467395 0.004966776 0.08644779
000120 a5 ff da 3d b5 f3 da bd c6 51 89 3c fd 4f c9 3c
       0.106932916 -0.10691015 0.016762625 0.024574274
000130 68 4d c5 bc 29 5c 14 bd 7c c3 44 3d f2 11 8e bd
       -0.024084762 -0.036220703 0.04803799 -0.069370165
000140 02 22 11 bd 83 c7 8a bd 69 68 f1 3c 7a 90 b7 3d
       -0.035432823 -0.06776335 0.029468732 0.089631036
000150 33 e9 49 bc 5d 53 04 3e 24 31 cb 3d c9 48 af 3d
       -0.012323665 0.12922426 0.09921482 0.085588045
000160 03 47 f6 3c f7 44 3b bc d2 d6 b7 3d d4 30 64 bc
       0.030063158 -0.011430017 0.089765206 -0.013927657
000170 c6 22 37 bd ef a9 4d bd e8 8f b2 bd cb 9d 2c 3e
       -0.044710897 -0.05021089 -0.08718854 0.16857068
000180 60 b5 ea 3b 6e ce ab bd 59 5d a6 bd 91 c4 51 bd
       0.007162735 -0.08388983 -0.081232734 -0.05121285
000190 10 52 39 be f3 d3 b7 3d 52 88 4d 3e 69 a7 c2 3d
       -0.1809771 0.08975973 0.20071533 0.09504587
0001a0 04 52 3c bc 56 b1 2e 3e 40 14 bb 3d 4b a9 0f be
       -0.011494163 0.17059836 0.09134722 -0.14029424
0001b0 95 11 d6 bd f7 9e 8e 3d ba b4 0a 3d 46 96 ee 3d
       -0.10452572 0.06963914 0.03386376 0.11649756
0001c0 a6 da d1 bd 31 50 c2 bd 6f 42 bb 3d ae be 6f 3e
       -0.10246782 -0.094879515 0.091435306 0.23412582
0001d0 f8 fe 89 3d ce 39 ca bd 3a cd 61 3e 23 1e 76 3c
       0.067380846 -0.098743066 0.22050944 0.015021834
0001e0 cb 25 08 3e d7 02 d0 bd 1e 7b ed bd 6a f1 ff 3d
       0.13295667 -0.10156792 -0.11595748 0.12497218
0001f0 cf 70 de 3a b5 5e b4 bd 06 6d d5 bd 98 3e 9e bd
       0.0016970875 -0.088071264 -0.10421185 -0.077267826
000200 65 75 c5 bc c1 6d 4b 3d d4 92 c7 3d e3 6a d5 3d
       -0.02410383 0.049665216 0.09744802 0.10420778
000210 8a f6 9c 3d 16 18 db 3d c9 37 db 3d db db 3b bd
       0.07664211 0.106979534 0.107039995 -0.045863967
000220 48 14 17 bd c7 c6 5e bd 56 df b0 bd e5 f1 34 bd
       -0.036884576 -0.054388788 -0.08636348 -0.044176
000230 a1 07 04 bd 13 05 d4 3d 10 23 1d 3c 1b 34 c4 3d
       -0.032233838 0.1035253 0.009590879 0.09580251
000240 59 33 8c 3c 6f c9 1e bd 8d 8f af bd 81 1d f0 bd
       0.017114328 -0.03876632 -0.08572302 -0.117243774
000250 8f 9e d5 bc d2 c4 ac 3d b0 27 ba 3d 57 f4 1b bd
       -0.026076583 0.08435978 0.09089601 -0.038074818
000260 5e fd 0e bc 94 3e 3a b9 50 43 a0 bd 79 4e b6 3d
       -0.0087274 -0.00017761654 -0.07825339 0.08901686
000270 8e 46 9b bd 6b c5 9a bd 7f 68 69 bd 27 39 ce 3c
       -0.075818166 -0.07557186 -0.05698442 0.025173737
000280 6b b9 1c 3e 89 8d 7c 3c 43 24 d4 3b db 76 b7 bc
       0.15305106 0.015414604 0.0064740493 -0.022395542
000290 28 5c 0d bd d4 7b f8 bd 3d 5c e9 3c 5b 0a 6c bd
       -0.034511715 -0.12132993 0.028486365 -0.057627063
0002a0 83 b9 25 bd c5 63 bd 3c 28 62 24 bd 2c 31 4b 3e
       -0.04046012 0.023118863 -0.04013267 0.19842976
0002b0 6a 69 cf 3d 5e ee 83 bd 72 04 a8 bd da 72 df 3d
       0.10127528 -0.06441949 -0.08203973 0.10910578
0002c0 ee 89 e6 3c 3f 23 0c bd da 20 1b 3d 37 4e 0c be
       0.028141942 -0.0342133 0.037873127 -0.13701712
0002d0 9b 51 1b 3e 03 74 cc bd 34 67 88 bd c0 15 63 3d
       0.15167849 -0.09983065 -0.066603094 0.055440664
0002e0 9a fc d3 3d 1e c0 9f 3d aa fd c8 bd 1c 29 eb 3d
       0.10350914 0.07800315 -0.098140076 0.1148245
0002f0 a2 80 09 3d 16 55 c6 3d 82 b5 40 3b 1c 1a e6 3d
       0.03356994 0.096841976 0.0029405062 0.11235449
000300 18 85 96 3c 8d 58 72 3d ea fe 31 3c 51 f7 70 3d
       0.01837401 0.05916648 0.010863999 0.05882961
000310 2e e5 f2 3c 2d af 8d bd 92 d3 5b bd 3b b0 c4 3d
       0.029650297 -0.06918178 -0.053668566 0.09603926
000320 b2 f2 bf bd f0 2c 78 3d 65 9b c1 bd 7f 72 8f bc
       -0.09372462 0.06058973 -0.09453467 -0.01751065
000330 21 52 ac bd 13 e5 ee bd 72 87 92 bd e6 8a 00 bd
       -0.08414102 -0.11664786 -0.071547404 -0.031382464
000340 01 37 91 bd 47 53 85 bd 60 13 80 bc d4 4c 63 3b
       -0.07090569 -0.065100245 -0.015634239 0.0034683244
000350 31 cf 9b bd 21 f7 e6 3d 00 3c bf 3d fb f9 3a 3d
       -0.07607878 0.11277605 0.09337616 0.045648556
000360 8e 87 b6 39 16 df fd bc 41 b1 76 3d 31 68 86 ba
       0.0003481474 -0.030990165 0.060227636 -0.001025444
000370 28 48 12 3d 31 02 3f bd f3 14 b4 bd d8 9b c1 3d
       0.035713345 -0.04663295 -0.08793058 0.09453553
000380 33 9f dc 3d 7a 5b bc bd b8 89 c8 bd 09 d2 10 3c
       0.10772552 -0.09197135 -0.09791893 0.008839139
000390 48 75 a3 3d b9 8c bd bd f0 01 46 3d cf 3f b3 3d
       0.07981354 -0.09255356 0.04834169 0.08752405
0003a0 64 bf 88 3d 93 6d 1d be aa f1 18 3d bc 0c fe 3c
       0.0667713 -0.1537383 0.037339844 0.031011932
0003b0 5a 0a aa 3d 12 7b 80 3d 38 7d 00 bc 5d e3 1a bd
       0.08302756 0.06273474 -0.0078423545 -0.037814487
0003c0 6d 38 9a bd 35 7f 98 3d f9 cf 0a 3d 8a 3b da bc
       -0.075302936 0.07446138 0.033889744 -0.026639719
0003d0 cb 9f 97 3d 80 69 05 be 0f 1f f0 bb 9f 76 68 bd
       0.07403525 -0.13028526 -0.007327921 -0.05675375
0003e0 aa dd bd 3d 94 21 dc bc 4c 35 ff bb 3e f1 c3 3d
       0.09270795 -0.02687148 -0.007788336 0.09567498
0003f0 8a 5a 82 bc a9 bc 1d bd 00 1e e5 3d ab a4 3e 3d
       -0.015912313 -0.03851 0.11187363 0.04654376

model2.6.bias f4 [4]
000000 83 b9 02 be dd 56 20 be c3 5c 5e 3c 97 9e 8a 3d
       -0.1276608 -0.15658136 0.013571921 0.0676853
