model_weight/actor/14_14 04:27:14 std 0.5 lr_actor_0.004- gamma_0.7 memory300 actor_weight.pth (torch, 646091 bytes, 9 tensors)

std f4 [4]
0	0x3e31cce8	0.17363322
1	0x3e05774c	0.1303379
2	0x3e2cd3ba	0.16877642
3	0x3e39601d	0.1810307

model2.0.weight f4 [512, 24]
0	0xbd7ea51e	-0.062169187
1	0xbe0f9e7a	-0.14025298
2	0xbe681e16	-0.22667727
3	0x3e42ed90	0.19035935
4	0xbdd55313	-0.10416236
5	0xbe146d84	-0.14494902
6	0xbe7843a3	-0.24244551
7	0xbd00255a	-0.03128562
8	0xbd42e798	-0.047584146
9	0x3de36911	0.11104024
10	0xbdf49621	-0.11942697
11	0x3d14f713	0.03636844
12	0x3df2ebbe	0.118613705
13	0xbd0065e2	-0.031347163
14	0x3b142471	0.0022604729
15	0xbc934e8c	-0.01798179
16	0x3b02f507	0.0019982473
17	0xbdf2a8e5	-0.1184862
18	0xbe353238	-0.17694938
19	0xbcf0fc0c	-0.02941706
20	0xbe3fa28d	-0.18714352
21	0x3da644ed	0.08118615
22	0xbe7fde9d	-0.24987264
23	0x3c068d04	0.008212332
24	0xbd449452	-0.04799301
25	0x3e1a3b17	0.15061603
26	0x3dea340c	0.114357084
27	0x3e3381ab	0.17529933
28	0xbd025c71	-0.03182644
29	0xbe537543	-0.206502
30	0xbe3fcf48	-0.18731415
31	0xbde5e2e0	-0.112249136
32	0x3e1cc5f5	0.1530989
33	0xbe3540ca	-0.17700496
34	0xbd15c6c8	-0.036566526
35	0x3dddbd96	0.10827176
36	0xbc654a3a	-0.013994748
37	0xbd0af42e	-0.033924274
38	0xbe1e58a7	-0.15463506
39	0xbe6dcf76	-0.23223671
40	0x3de7fe28	0.11327773
41	0x3cb9f28b	0.022698661
42	0xbe07b191	-0.1325133
43	0xbe0a3293	-0.13495855
44	0x3c93779a	0.018001366
45	0xbdc03ecf	-0.0938698
46	0xbdc7343f	-0.09726762
47	0x3d48b24a	0.048998155
48	0x3ce20a0b	0.02759268
49	0xbd8012df	-0.062535994
50	0x3d26e321	0.04074395
51	0x3e0fb09b	0.14032213
52	0x3e866f11	0.26256612
53	0x3e609af7	0.21934114
54	0x3e68e49d	0.22743459
55	0xbdf89f91	-0.1213981
56	0x3d51ce9b	0.051222425
57	0xbe83df70	-0.25756407
58	0x3df66c64	0.120323926
59	0xbe13ff23	-0.14452796
60	0x3d53ddfd	0.051725376
61	0xbd3fc425	-0.046817917
62	0xbe109262	-0.1411834
63	0x3e5bb61b	0.21456186
64	0xbd82e425	-0.06391171
65	0xbe12f073	-0.14349537
66	0x3e116c12	0.14201382
67	0xbd708771	-0.058722917
68	0x3e2143f0	0.15748572
69	0xbde4b402	-0.11167146
70	0xbe2168ec	-0.15762681
71	0xbe18d3a1	-0.1492448
72	0xbcc3b831	-0.02389154
73	0xbe033dd8	-0.1281656
74	0xbcadf5e4	-0.021235414
75	0x3de7fbde	0.11327337
76	0x3dba16fe	0.09086417
77	0x3df2d770	0.11857498
78	0x3d36443d	0.04449867
79	0xbd3c3795	-0.045951445
80	0xbe33be0b	-0.17552964
81	0xbcc82de6	-0.024435949
82	0x3d501cb1	0.050808612
83	0x3e9a78bb	0.30170235
84	0xbda0b67d	-0.07847307
85	0xbcd60db8	-0.026129588
86	0xbd6db0f6	-0.05803009
87	0x3d52b327	0.051440384
88	0x3deacb9d	0.114646174
89	0x3dcf0c6d	0.10109792
90	0xbdeda6a4	-0.1160405
91	0xbdd78678	-0.10523695
92	0xbdae7ff6	-0.085205
93	0x3e352126	0.17688426
94	0xbdebeb09	-0.11519439
95	0x3d549763	0.051902186
96	0x3e80a95d	0.25129214
97	0xbd1d4b3b	-0.038401823
98	0xbdf1b8e9	-0.11802847
99	0xbe505a53	-0.20346956
100	0x3e800dd7	0.2501056
101	0xbd060f92	-0.032729693
102	0xbe17b112	-0.1481364
103	0xbd5038c6	-0.050835393
104	0xbe06cc58	-0.13163888
105	0x3e0ad69e	0.13558432
106	0xbe03cfb7	-0.12872206
107	0x3ccc5d66	0.02494688
108	0xbe1b256d	-0.15150996
109	0xbdf0e5fd	-0.11762617
110	0xbd770e3b	-0.060316306
111	0xbd8414b8	-0.06449264
112	0xbcba8226	-0.022767138
113	0x3d6aeb4f	0.057353314
114	0x3d711e68	0.05886689
115	0x3dcdd891	0.100510724
116	0xbe17b13b	-0.14813702
117	0xbe733978	-0.23752391
118	0xbc2ac1b2	-0.010422157
119	0xbd049ba2	-0.032374986
120	0xbe6089b8	-0.21927536
121	0x3dceb3fb	0.10092922
122	0x3d0ac669	0.033880625
123	0xbdf0d65a	-0.11759634
124	0xbd4a0e27	-0.049329903
125	0x3d316a19	0.043314073
126	0x3e8fbfc7	0.28076002
127	0x3d3eb761	0.046561603
128	0x3d6bba91	0.05755097
129	0x3d71d95c	0.05904518
130	0x3db520f3	0.08844175
131	0x3e9871d3	0.2977434
132	0x3e0e12f0	0.13874412
133	0x3bda75ee	0.0066668903
134	0xbd3059ee	-0.043054514
135	0x3cccf63c	0.025019757
136	0x3e073b3b	0.13206188
137	0x3e396d18	0.18108022
138	0x3de538ac	0.1119245
139	0xbe29e7a9	-0.16592278
140	0xbe3397b5	-0.1753834
141	0x3e1a5fff	0.15075682
142	0x3cd0892d	0.025456036
143	0x3d73e22d	0.05954187
144	0xbc42abab	-0.011881749
145	0xbd02baf1	-0.031916562
146	0x3d240104	0.04004003
147	0xbdc514f1	-0.09623135
148	0x3d46baa6	0.048517846
149	0xbe138712	-0.14406994
150	0xbe25ce9d	-0.16192098
151	0x3d0a4782	0.0337596
152	0x3e1606e4	0.14651066
153	0xbcdc9162	-0.026924793
154	0xbddb3607	-0.10703664
155	0x3e0d0737	0.13772283
156	0x3dd92dfe	0.106044754
157	0xbd52d0cd	-0.05146866
158	0x3d1ef3ed	0.038806845
159	0xbd7bef41	-0.061507467
160	0xbdc07456	-0.09397189
161	0xbdfc4571	-0.123179324
162	0xbe06f750	-0.1318028
163	0xbdd03098	-0.101655185
164	0xbdd3a685	-0.103344955
165	0xbe00b023	-0.12567191
166	0xbe4a603f	-0.19763277
167	0xbd4ebe5b	-0.050474506
168	0xbce15a73	-0.02750895
169	0x3e074250	0.1320889
170	0xbe3e15d8	-0.1856302
171	0xbd9d2c3b	-0.07674452
172	0xbe50fe82	-0.20409587
173	0xbd793c6f	-0.06084865
174	0xbe41f32b	-0.18940417
175	0xbdcb4840	-0.0992589
176	0x3d431a95	0.047632772
177	0xbb061db9	-0.0020464493
178	0x3d2af525	0.041737694
179	0xbe0ca6e8	-0.13735545
180	0xbe31d3d9	-0.1736597
181	0xbe06227b	-0.13099091
182	0xbe5bb13b	-0.21454327
183	0x3d4fe6f9	0.050757382
184	0x3dc196a2	0.09452559
185	0xbe316831	-0.17324902
186	0xbdccadb8	-0.09994072
187	0x3d34a9f6	0.0441074
188	0x3de8fb7f	0.11376094
189	0xbc04b49d	-0.008099702
190	0x3d9e372b	0.07725366
191	0xbe6bec16	-0.23039278
192	0x3d80eebb	0.06295534
193	0xbdecb523	-0.115579866
194	0x3e05b40d	0.13056965
195	0xbd95ab4c	-0.07308063
196	0xbe4a21da	-0.19739476
197	0x3d0d3907	0.034478214
198	0xbe83f388	-0.25771737
199	0xbdbcf85a	-0.09227057
200	0x3d96b463	0.07358625
201	0xbe13ac69	-0.14421238
202	0x3db09f1b	0.08624097
203	0xbd7030f4	-0.058640435
204	0xbc319a88	-0.010840066
205	0x3e0fb7f9	0.14035024
206	0xbe0e0c9e	-0.13872
207	0xbe2eac80	-0.17057991
208	0xbcb15014	-0.02164463
209	0xbe577cc9	-0.21043696
210	0xbd929f53	-0.07159295
211	0xbdb361ef	-0.08758914
212	0x3dff3b5f	0.12462496
213	0xbcd51a6f	-0.026013581
214	0xbd9653af	-0.0734018
215	0x3d38b3fb	0.045093518
216	0xbc113d42	-0.008864703
217	0x3dc7c073	0.09753504
218	0xbb11876f	-0.002220597
219	0x3e790a23	0.24320273
220	0x3ea20b0e	0.3164906
221	0x3e3cc856	0.18435797
222	0x3e2eceb6	0.17071041
223	0xbdc22eec	-0.09481606
224	0x3e1f0d17	0.15532337
225	0xbeb41dd1	-0.35178998
226	0xbdb418a8	-0.08793765
227	0xbecd49ba	-0.4009531
228	0xbdc615b1	-0.09672106
229	0x3e54101b	0.20709269
230	0xbdfc6b6f	-0.12325179
231	0xbe1f849c	-0.1557793
232	0xbe0957db	-0.1341242
233	0xbdeee0ba	-0.11663957
234	0x3d507763	0.050895106
235	0xbe2be6ce	-0.16787264
236	0xbd9dfb9e	-0.07714008
237	0x3dea4b7f	0.11440181
238	0xbd5bafa9	-0.05363432
239	0x3be183fe	0.00688219
240	0xbd0531e6	-0.03251829
241	0x3e58d14f	0.21173595
242	0xbbc142b0	-0.0058978423
243	0xbe504952	-0.2034047
244	0x3e36f7fd	0.17868038
245	0x3cda188a	0.02662303
246	0xbe83041c	-0.25589073
247	0x3de48a99	0.11159248
248	0x3d5a0f19	0.053237054
249	0x3d848814	0.06471267
250	0x3da0621e	0.07831214
251	0x3c32de26	0.010917222
252	0x3dd16f49	0.10226304
253	0xbe521772	-0.20516756
254	0xbe86af45	-0.26305595
255	0xbe83d636	-0.25749367

model2.0.bias f4 [512]
0	0xbd5c0566	-0.053716086
1	0x3ce6f78e	0.028194215
2	0x3e295782	0.16537288
3	0xbd8a12d3	-0.06741872
4	0x3c72ac1a	0.01481154
5	0xbe3d946a	-0.18513647
6	0xbc0a99f5	-0.008459558
7	0x3d878234	0.06616631
8	0x3dc9804b	0.09838923
9	0xbdd860c6	-0.10565333
10	0x3dde72f3	0.108617686
11	0xbc74dc7b	-0.014945145
12	0xbe3d4240	-0.18482304
13	0x3d3ceed1	0.04612619
14	0x3c96c832	0.018406007
15	0xbd1034da	-0.035206653
16	0xbda3b712	-0.07993902
17	0xbd68966a	-0.05678407
18	0xbe214d94	-0.1575225
19	0xbd954794	-0.07289043
20	0x3ce1b5ba	0.027552474
21	0x3db746ec	0.08949074
22	0x3df2ad4a	0.118494585
23	0x3c304d81	0.010760666
24	0xbdeda273	-0.1160325
25	0x3cdb1bba	0.02674662
26	0xbd80e353	-0.06293359
27	0x3d103bde	0.035213344
28	0xbcecff59	-0.028930353
29	0xbdc731a3	-0.09726264
30	0xbd59e399	-0.05319557
31	0x3d73a182	0.059480198
32	0x3df91c2f	0.12163579
33	0xbe118937	-0.142125
34	0x3de1c752	0.110243455
35	0xbcfe826f	-0.031068055
36	0x3e2411ab	0.16022365
37	0xbdab4037	-0.083618574
38	0x3d5b7cb7	0.053585734
39	0x3d928f94	0.071562916
40	0xbe181206	-0.14850625
41	0xbe1adadb	-0.15122549
42	0xbda73e5f	-0.08166193
43	0xbdcf9237	-0.1013531
44	0xbcfe4b81	-0.031041862
45	0x3e069561	0.13142921
46	0x3def7849	0.116928644
47	0x3cba7643	0.02276147
48	0x3db2ca96	0.087300465
49	0xbe6e1c13	-0.23252897
50	0xbe0b6227	-0.13611661
51	0xbbd57a21	-0.006514803
52	0xbd0714d3	-0.032978844
53	0x3e0ca42c	0.13734502
54	0xbdbe50cf	-0.09292757
55	0x3de726ac	0.11286673
56	0x3e52cc16	0.20585665
57	0x3e141bf4	0.14463788
58	0x3db98001	0.09057618
59	0xbd075c9f	-0.033047315
60	0x3d720877	0.059090104
61	0xbd9a7da7	-0.075434975
62	0xbe138096	-0.1440452
63	0x3e40bec7	0.18822776
64	0x3e2dbc3a	0.16966334
65	0x3c9f4a82	0.019444708
66	0xbc526a59	-0.012842738
67	0xbe54d5e3	-0.20784716
68	0x3ad6e5c3	0.0016395379
69	0x3e3c8873	0.18411426
70	0x3e15d143	0.14630608
71	0x3cf19aab	0.029492697
72	0x3da222aa	0.07916768
73	0xbdd81d4b	-0.10552462
74	0xbe3d4f7c	-0.18487352
75	0x3d018271	0.03161854
76	0xbdfe1508	-0.12406355
77	0x3da2ea2f	0.07954823
78	0x3e05a4a9	0.13051094
79	0xbde1ba62	-0.11021878
80	0xbc5ac765	-0.013353203
81	0x3bfe9a74	0.007769877
82	0xbe270498	-0.16310346
83	0x3c945419	0.018106507
84	0xbdb859b3	-0.09001484
85	0x3d8dd1d3	0.069247864
86	0xbe3a8149	-0.18213381
87	0xbdd897e0	-0.10575843
88	0xbd764899	-0.06012783
89	0x3dfe668d	0.12421904
90	0xbd9db5d6	-0.07700698
91	0x3caab63f	0.020838855
92	0xbe41c825	-0.18924005
93	0x3d89a738	0.067213476
94	0xbdb3fd4e	-0.087885484
95	0x3cec2c1c	0.028829627
96	0x3e06c6a9	0.1316172
97	0xbd669cd0	-0.05630189
98	0xb9f2eb7a	-0.0004633328
99	0xbdbce7c7	-0.092238955
100	0x3e1b1109	0.15143217
101	0xbe5e7736	-0.21725163
102	0xbd068da7	-0.032849934
103	0xbd53105b	-0.05152927
104	0x3d19c3cf	0.037540253
105	0x3e1ebb70	0.15501189
106	0x3c42e9bc	0.011896547
107	0xbe30dfba	-0.17272845
108	0x3e43539b	0.19074862
109	0x3e2a788e	0.1664755
110	0xbdeb8019	-0.11499042
111	0xbe1c97b1	-0.1529224
112	0xbe1522ba	-0.14564028
113	0xbe02cd19	-0.12773551
114	0xbe41d4f9	-0.18928899
115	0x3d156dce	0.03648167
116	0xbc10a92a	-0.008829394
117	0x3b426fef	0.0029668768
118	0xbb05b7ce	-0.0020403746
119	0xbda4c44a	-0.08045252
120	0xbcad8295	-0.02118043
121	0xbde98d62	-0.1140392
122	0x3e193463	0.1496139
123	0x3d46afef	0.048507627
124	0x3d02a5a9	0.031896267
125	0xbe5ad317	-0.21369587
126	0x3e170e7a	0.14751616
127	0x3ce26e06	0.027640354
128	0xbe1d4141	-0.15356924
129	0xbe18d5b4	-0.14925271
130	0x3e1430da	0.1447176
131	0x3c667fb5	0.014068534
132	0xbda306b4	-0.07960263
133	0x3e143f6a	0.14477316
134	0xbe042c6c	-0.1290757
135	0xbd2fce87	-0.04292157
136	0xbdddb2c5	-0.10825113
137	0x3d037761	0.03209627
138	0xbce8c78e	-0.028415468
139	0xbe56a87a	-0.20962706
140	0xbdf3fc40	-0.11913347
141	0x3dd77eb3	0.10522213
142	0xbe3c4313	-0.18384962
143	0xbe4b3200	-0.19843292
144	0x3d22dcef	0.03976148
145	0xbe608c16	-0.21928439
146	0xbe5711fa	-0.21002951
147	0xbd9ccf86	-0.076567695
148	0x3e500905	0.2031594
149	0x3e123d26	0.14281139
150	0x3c8364a8	0.016039208
151	0x3e01e8ad	0.12686415
152	0x3e07ef5a	0.13274899
153	0x3d4049a2	0.04694522
154	0xbe813bc0	-0.25240898
155	0xbd3e6ef7	-0.046492543
156	0xbe0cee97	-0.1376289
157	0xbdeefed9	-0.11669702
158	0xbd3a8771	-0.045539323
159	0x3decb0b0	0.11557138
160	0x3da7aa8e	0.081868276
161	0xbdc677ad	-0.09690795
162	0xbcb1a2e8	-0.021684125
163	0xbe1f99d0	-0.15586019
164	0x3e17b44d	0.14814873
165	0xbdeb474f	-0.114882104
166	0xbe541ee7	-0.20714913
167	0xbd41ad75	-0.047284562
168	0xbd8ca969	-0.0686825
169	0x3e01c5f7	0.12673174
170	0xbdf2f69b	-0.118634425
171	0x3e5f8353	0.2182744
172	0xbd8eff1b	-0.06982251
173	0xbd9324a4	-0.07184723
174	0xbe2600ac	-0.16211194
175	0x3df21f6f	0.11822402
176	0xbe0964e2	-0.1341739
177	0xbe02d3f7	-0.1277617
178	0xbdc3ccda	-0.09560557
179	0x3b2e388c	0.0026583998
180	0x3d11462e	0.03546732
181	0x3dc24847	0.09486442
182	0xbde50f1d	-0.11184523
183	0xbe144502	-0.1447945
184	0x3dd5cfe4	0.104400426
185	0x3d9c0b88	0.07619387
186	0x3dfcd331	0.12344969
187	0x3cfcf688	0.030879274
188	0x3d9785a7	0.07398539
189	0xbce2fff3	-0.027709937
190	0xbe046701	-0.12929918
191	0x3e1197b9	0.14218034
192	0xbe422812	-0.18960598
193	0x3daf2f33	0.085539244
194	0x3e2350b6	0.15948758
195	0x3ded03dd	0.115730025
196	0x3dbb77f5	0.09153739
197	0xbd277f74	-0.040893033
198	0xbc671ea0	-0.014106423
199	0x3dbc2f39	0.091886945
200	0xbdfc56c2	-0.12321235
201	0x3dbbcf46	0.09170394
202	0x3da64479	0.08118529
203	0x3e431fa2	0.19055036
204	0x3c7c166c	0.015386205
205	0x3ccccfea	0.025001485
206	0xbd6aa779	-0.05728862
207	0x3e0fc0e6	0.14038429
208	0x3dd3602f	0.1032108
209	0x3dae8ef9	0.085233636
210	0x3dba4075	0.090943255
211	0x3e133bb0	0.14378238
212	0xbdcdcb46	-0.10048537
213	0xbe33ce6c	-0.17559212
214	0x3d8d0ae6	0.06886844
215	0x3d119933	0.035546493
216	0xbda65fdf	-0.08123755
217	0x3db45120	0.08804536
218	0x3e430c41	0.19047643
219	0x3d9106a6	0.07081346
220	0xbb644d84	-0.0034836242
221	0x3d80ca80	0.06288624
222	0x3b787a16	0.0037914566
223	0xbd9f9910	-0.07792866
224	0xbe1a6635	-0.15078051
225	0x3cdd1eb1	0.026992174
226	0x3bb12747	0.0054062936
227	0x3e18d326	0.14924297
228	0xbd0d159e	-0.034444444
229	0xbb7c7a52	-0.0038525057
230	0x3e04a998	0.1295532
231	0xbe399fbb	-0.18127339
232	0x3da0c2fd	0.07849691
233	0xbe074480	-0.13209724
234	0x3dc49ee0	0.096006155
235	0x3e20a3be	0.15687463
236	0x3c962dd9	0.018332409
237	0x3e465f59	0.1937231
238	0x3dee0561	0.1162212
239	0xbd18d387	-0.037311103
240	0x3ddfe8ff	0.10933112
241	0xbd9b4aac	-0.07582602
242	0x3dafd640	0.08585787
243	0xbe24c274	-0.16089803
244	0xbd952f7a	-0.07284446
245	0x3dd96d01	0.10616494
246	0xbd604cf4	-0.05476089
247	0x3e2123b7	0.1573628
248	0xbcb809b8	-0.022465572
249	0xbd617b5b	-0.05504928
250	0x3d7d4a40	0.06183839
251	0x3dd196b3	0.10233822
252	0xbdf784d5	-0.120858826
253	0x3da07214	0.07834259
254	0x3cfeb47f	0.031091927
255	0x3d906a65	0.07051543

model2.2.weight f4 [256, 512]
0	0x3c7e9952	0.015539484
1	0xbcc2bce2	-0.023771707
2	0xbc40eff4	-0.011775959
3	0x3c8e5546	0.017374646
4	0xbd0c0630	-0.03418559
5	0x3ca76eb8	0.020438537
6	0xbc8036ab	-0.015651068
7	0x3d2928eb	0.041298788
8	0xbd4a04ce	-0.04932099
9	0x3d3d52ea	0.04622165
10	0x3d02fdd4	0.03198035
11	0x3d6ec5ba	0.058294035
12	0x3dcd7a7f	0.1003313
13	0x3cd0c5f3	0.025485015
14	0x3b89a784	0.0042008776
15	0xbb4fbfcd	-0.0031700016
16	0x3d7bf03c	0.061508402
17	0xbd00f4e9	-0.031483565
18	0x3d35436f	0.044253763
19	0xbc30b694	-0.0107857175
20	0x3d8028ff	0.062578194
21	0x3d010743	0.031501066
22	0xbdd47ff6	-0.10375969
23	0x3d64d8b7	0.055870738
24	0xbce009e7	-0.027348472
25	0xbce8ab86	-0.028402101
26	0x3d64584f	0.05574828
27	0x3cc64507	0.024202837
28	0xbd080a60	-0.03321302
29	0xbe1f21a6	-0.1554018
30	0xbd5c21db	-0.053743225
31	0xbd8b49c9	-0.06801183
32	0x3be57675	0.0070026466
33	0xbcde1c8c	-0.027113222
34	0xbd12e7ac	-0.03586547
35	0x3de9681e	0.11396812
36	0xbd3e77b8	-0.04650089
37	0x3d663818	0.05620584
38	0x3c16fd68	0.00921569
39	0xbc86d859	-0.016460584
40	0xbd410748	-0.047126085
41	0x3d1cb94e	0.038262658
42	0xbd0011af	-0.031266864
43	0x3cad4fab	0.021156153
44	0xbc9812fd	-0.018563742
45	0xbdb39979	-0.08769507
46	0x3d490c7d	0.049084175
47	0xbd1c36fc	-0.038138375
48	0x3d03ea3a	0.032205798
49	0x3c2515c3	0.010075989
50	0x3d3b5b23	0.04574121
51	0x3cfe8a37	0.031071765
52	0x3d32eaeb	0.043681066
53	0xbcaa9d3b	-0.020826926
54	0xbd2e89d4	-0.042611912
55	0xbc419ab4	-0.011816669
56	0xbcf78fd3	-0.030219948
57	0x3d80c05e	0.06286691
58	0x3d08a0ab	0.03335635
59	0xba3fe396	-0.0007319985
60	0xbc8ef598	-0.017451093
61	0x3da59293	0.080845974
62	0x3d8b43ee	0.06800066
63	0xbda53a59	-0.080677696
64	0xbd5cd08d	-0.053909827
65	0xbbfc1396	-0.0076927645
66	0x3ac2d917	0.0014865723
67	0xbd12395b	-0.03569923
68	0x3c1ed687	0.009694702
69	0xbc12bbb6	-0.008955887
70	0xbd776bbe	-0.060405485
71	0xbc9cba8f	-0.019131927
72	0x3c304ac4	0.010760013
73	0xbd4089a2	-0.047006257
74	0x3cfeee95	0.031119624
75	0xbc436ae1	-0.011927337
76	0xbd930069	-0.071778126
77	0x3d1984f3	0.037480306
78	0x3bf3d219	0.007440817
79	0x3d68f5ea	0.056875147
80	0xbcfce1e1	-0.030869426
81	0xbcd95d83	-0.026533848
82	0x3c95d2b3	0.018288946
83	0xbd45cae2	-0.048289187
84	0x3d895407	0.0670548
85	0xbdf03701	-0.11729241
86	0xbd48acd3	-0.048992943
87	0x3d06847f	0.032841202
88	0x3cda9e92	0.02668694
89	0xbd78a3a8	-0.06070295
90	0xbd52c545	-0.051457662
91	0x37d6b4a7	2.559491e-05
92	0xbc8c576d	-0.017131532
93	0xbc2b7192	-0.010464089
94	0x3c070478	0.0082408115
95	0x3ca9b05b	0.020713976
96	0x3ca5c9c3	0.020237809
97	0x3c340b04	0.010988954
98	0xba42d86b	-0.00074327615
99	0xbd7ab066	-0.061203383
100	0x3b5d3d30	0.0033758394
101	0xbcded5c0	-0.027201533
102	0x3d8ee4f5	0.06977264
103	0xbd3c26c5	-0.04593541
104	0xbd080486	-0.03320744
105	0x3cf4cabe	0.029881831
106	0xbdcd1187	-0.10013109
107	0xbd35d0fa	-0.04438875
108	0x3c83346f	0.016016213
109	0xbda30d2d	-0.079614975
110	0xbcd69d7a	-0.026198138
111	0x3b873da2	0.0041272203
112	0x3d721d93	0.059110235
113	0x3c885a1e	0.016644534
114	0x3c0ab12f	0.008465095
115	0x3c1522f0	0.009102568
116	0xbd37defb	-0.044890385
117	0x3d5f439e	0.054507844
118	0xbc4cd027	-0.012500799
119	0x3d0e4abe	0.03473925
120	0xbd842d4d	-0.06453953
121	0x3d8f3b21	0.069937
122	0x3d75a361	0.059970263
123	0xbd090fd6	-0.033462368
124	0x3cfa5dd8	0.030562326
125	0xbd31bec7	-0.04339483
126	0xbd0a2fb8	-0.033736914
127	0x3c83df27	0.016097618
128	0xbddafa1f	-0.10692238
129	0x3d3bd137	0.04585382
130	0xbd5bdc08	-0.053676635
131	0xbd302b79	-0.04301021
132	0x3cbf4d3a	0.023352254
133	0x3d0bdadd	0.03414427
134	0x3d28e11b	0.041230302
135	0xbd6b9cfe	-0.057522766
136	0xbd0fa6b1	-0.03507108
137	0xba89255a	-0.0010463402
138	0x3c4f3ab7	0.012648276
139	0x3d1fef6e	0.039046697
140	0xbc82fcf9	-0.015989767
141	0xbd637818	-0.055534452
142	0x3cc868c9	0.024464028
143	0x3cdf69c9	0.027272122
144	0x3d5b507b	0.05354355
145	0x3d0b7ea3	0.034056317
146	0x3caa2124	0.020767756
147	0x3d8a0ffc	0.0674133
148	0xbd18926f	-0.037249025
149	0x3d0fcc48	0.035106927
150	0x3cdb4246	0.026765
151	0xbc1e3327	-0.00965575
152	0x3b75162e	0.0037397253
153	0x3cdf7ff8	0.0272827
154	0x3bf04929	0.00733294
155	0xbcf8f44e	-0.030389931
156	0xbd90a92a	-0.070635155
157	0x3ccec50d	0.025240446
158	0x3d71d0b6	0.059036933
159	0x3d0ed21a	0.034868337
160	0x3ce55629	0.027995186
161	0xbbd12a4d	-0.0063832165
162	0x3d5ffffb	0.05468748
163	0x3c73fd58	0.014891945
164	0xbcc310c4	-0.023811705
165	0xbc3fc353	-0.011704284
166	0xbd07cc43	-0.033153784
167	0x3cc3ae50	0.02388683
168	0x3d3d3ed3	0.046202492
169	0xbd55aa43	-0.052164327
170	0xbd0da60c	-0.034582183
171	0x3cad1ce4	0.02113194
172	0xbdaed7b8	-0.08537239
173	0xbc95b7bc	-0.018276088
174	0x3d8291bb	0.06375452
175	0xbd6f4c2e	-0.05842226
176	0xbcd84c34	-0.026403524
177	0xbc867716	-0.016414206
178	0xbd8ff034	-0.07028237
179	0xbb8c72c8	-0.004286144
180	0x3a913f82	0.0011081549
181	0xbd40d0f5	-0.047074277
182	0xbd02cab1	-0.031931583
183	0x3d7b6bd2	0.061382122
184	0x3d1b2610	0.037878096
185	0xbd83180d	-0.06401072
186	0xbcdc85b8	-0.02691923
187	0xbd03b0dc	-0.032151088
188	0xbbc89d44	-0.006122263
189	0xbba9cdfd	-0.0051820264
190	0x3ccda4b8	0.025102958
191	0x3d514dff	0.051099773
192	0x3d06afe0	0.03288257
193	0x3d453186	0.048142932
194	0xbb2f4177	-0.00267419
195	0x3d272892	0.040810175
196	0xbb241559	-0.0025037138
197	0xbd0298ef	-0.03188413
198	0x3cac703f	0.021049617
199	0xbd7d7304	-0.061877266
200	0x3d273b6d	0.040828157
201	0xbd178c62	-0.036999114
202	0xba827e3f	-0.0009955837
203	0x3c5a4e30	0.013324305
204	0xbd1cef5e	-0.038314216
205	0x3d02608e	0.031830363
206	0xbcbfd25e	-0.02341574
207	0xbd4cbed7	-0.049986687
208	0xbd5aac50	-0.053386986
209	0xbd8bc64e	-0.06824933
210	0xbd0cef2a	-0.034407772
211	0x3d04945e	0.032368056
212	0x3bc03f00	0.005866885
213	0x3c54f3b7	0.012997559
214	0x3c5e4d0c	0.013568174
215	0x3d89389e	0.06700252
216	0x3c974d29	0.01846941
217	0x3cb25ea1	0.021773638
218	0xbd3d6be6	-0.046245478
219	0x3bc06854	0.005871812
220	0x3c9cc690	0.01913765
221	0xbdbc5493	-0.09195819
222	0x3da15429	0.078773804
223	0xbca161ec	-0.019700013
224	0xbddd9757	-0.108198814
225	0xbe0fb1a7	-0.14032613
226	0x3d59dce0	0.05318916
227	0xbd5d05f6	-0.053960763
228	0xbac14ee5	-0.0014748244
229	0x3cef46e8	0.029208615
230	0xbd436268	-0.04770127
231	0x3d1bb6b7	0.038016047
232	0x3d765820	0.060142636
233	0x3d031789	0.032004867
234	0xbbe329c4	-0.006932469
235	0x3cda178d	0.026622558
236	0xbdec3ad1	-0.11534656
237	0xbdcd15a0	-0.1001389
238	0x3d6b33ce	0.05742245
239	0xbcc8a8d0	-0.024494559
240	0xbd739124	-0.05946459
241	0xbd6f67f0	-0.058448732
242	0x3d55485a	0.052070953
243	0x3c7df807	0.015501029
244	0xbc99ae3c	-0.01875984
245	0xbbdd5c03	-0.0067553534
246	0x3dd52df2	0.10409154
247	0xbc4f0f34	-0.012637902
248	0xbdd5d77d	-0.10441492
249	0x3c86d3ff	0.01645851
250	0x3d26f0a8	0.04075685
251	0x3ce8a41b	0.028398564
252	0x3d250e5b	0.040296894
253	0x3d17f5ab	0.03709952
254	0x3d36c7a6	0.044623993
255	0xbc1027c3	-0.008798542

model2.2.bias f4 [256]
0	0x3d0ccdc7	0.034375932
1	0x3cd5524c	0.026040219
2	0xbd23a7e5	-0.03995504
3	0xbce4a6aa	-0.027911503
4	0x3d4ed7d0	0.050498784
5	0x3d832c3e	0.06404923
6	0x3d66ed91	0.056378905
7	0xbd85a75e	-0.065260634
8	0x3d84f5f9	0.06492228
9	0xbcf72d0e	-0.030172851
10	0xbc211c01	-0.009833337
11	0x3c01ab97	0.007914445
12	0x3cb95dd9	0.022627758
13	0xbcc1a512	-0.023638282
14	0xbd2e51e3	-0.042558562
15	0xbd68a989	-0.056802306
16	0x3c9d55f7	0.01920603
17	0xbc291726	-0.01032046
18	0x3d11ee4f	0.03562766
19	0xbd1b4b53	-0.03791363
20	0xbc7d404a	-0.015457222
21	0x3c9a0b93	0.018804347
22	0xbc205842	-0.009786667
23	0x3d60bdaa	0.054868378
24	0x3cd56acb	0.0260519
25	0x3d110e6e	0.03541415
26	0x3c045dcf	0.008079006
27	0xbb64bec4	-0.0034903744
28	0x3d3706b1	0.044684116
29	0xbd2bc6b6	-0.041937552
30	0xbcb20c10	-0.021734267
31	0x3cc48017	0.02398686
32	0xbc322abd	-0.010874447
33	0x3cf889ee	0.030339208
34	0x3d909b32	0.07060851
35	0xbd26719a	-0.040635683
36	0xbc12043c	-0.008912142
37	0x3ad78513	0.0016442857
38	0xbd66229c	-0.05618535
39	0xbd25397b	-0.04033802
40	0xbc934165	-0.017975518
41	0x3c893e77	0.016753418
42	0x3c6baf48	0.014385052
43	0xbc333a71	-0.0109392265
44	0x3cc922be	0.0245527
45	0x3d083d4f	0.033261593
46	0xbd171115	-0.036881525
47	0xbcde7d0b	-0.027159235
48	0xbcac47f1	-0.021030398
49	0x3bd920c8	0.0066262223
50	0x3d5527b8	0.052039832
51	0xbc82064c	-0.015872143
52	0x3cd5372f	0.02602729
53	0x3c008ef0	0.007846579
54	0x3ca5479c	0.020175748
55	0xbce96194	-0.028488912
56	0x3d0d20e3	0.03445519
57	0xbb9bf806	-0.0047597913
58	0xbd85aa34	-0.06526604
59	0xbc6980b8	-0.01425188
60	0xbca94d8b	-0.020666858
61	0xbd69ae1a	-0.0570508
62	0xbd1e2c1f	-0.038616296
63	0x3cda33c6	0.026636016
64	0xbbc5ccb5	-0.006036366
65	0xbd850ecc	-0.06496963
66	0xbce1c2d4	-0.027558722
67	0xbcd1bd13	-0.025602853
68	0xbb426ef4	-0.0029668184
69	0xbb770b78	-0.0037696045
70	0xbc6c21ac	-0.014412325
71	0x3c732111	0.014839427
72	0x3bb570db	0.005537135
73	0x3ca43c95	0.020048419
74	0xbd54f74c	-0.051993653
75	0xbd224036	-0.039612018
76	0xbcfee44f	-0.031114725
77	0x3cc26c0f	0.023733167
78	0x3c7172c9	0.01473684
79	0x3ca49c2b	0.020093998
80	0x3b0d5fb3	0.0021571934
81	0xbd023caa	-0.031796135
82	0x3d5a78ba	0.05333779
83	0x3d057798	0.032584757
84	0xbd660827	-0.05616012
85	0xbd16697e	-0.0367217
86	0xbd40797b	-0.046990853
87	0xbb816950	-0.003949322
88	0x3c90257b	0.017595997
89	0xbd064bd5	-0.032787163
90	0x3cd65ed2	0.02616826
91	0x3baf1951	0.005343594
92	0xbc6fccb8	-0.014636211
93	0xbd07e66b	-0.033178728
94	0xbd301de4	-0.042997256
95	0xbd846b03	-0.06465723
96	0xbc91bbc7	-0.017789735
97	0x3bd9f703	0.0066517605
98	0x3cc5bb5d	0.024137193
99	0xbd10e933	-0.035378646
100	0x3c2eb783	0.01066387
101	0xbd8d89e9	-0.0691107
102	0x3cfaa0f6	0.03059433
103	0xbd34a166	-0.044099234
104	0x3d129306	0.035784744
105	0x3c4860e4	0.012230132
106	0x3d3fe586	0.04684975
107	0xbc5ed223	-0.013599905
108	0x3b957ca0	0.0045619756
109	0x3b9d396c	0.004798105
110	0x3c4702d5	0.012146671
111	0xbcb4a692	-0.022052083
112	0x3c6bf11f	0.0144007495
113	0xbd4067e4	-0.046974078
114	0xbd5aa59b	-0.05338059
115	0x3cbb4700	0.022861004
116	0x3d4c8ddc	0.049939975
117	0xbcfa6aee	-0.030568566
118	0xbd68116a	-0.056657232
119	0xbc5f5434	-0.013630915
120	0xbd4a42a7	-0.04937997
121	0xbd3834dc	-0.044972286
122	0x3b6e7bb5	0.0036389653
123	0xbcc0b14f	-0.023522047
124	0x3ccf64a1	0.025316538
125	0xbbe9bb62	-0.0071329335
126	0xbc961d83	-0.01832462
127	0x3c68fb98	0.014220141
128	0xbac91507	-0.001534135
129	0x3b8f231a	0.004368198
130	0xbc483430	-0.012219474
131	0x3a8dd1bb	0.0010819951
132	0x3d130675	0.03589483
133	0xbce9c1df	-0.028534828
134	0x3cd03f17	0.025420709
135	0xbb9cb4f8	-0.0047823153
136	0x3d06989f	0.032860395
137	0xbd4d3d65	-0.05010738
138	0xbc716da9	-0.014735618
139	0xbcb88010	-0.022522002
140	0xbd0cc005	-0.03436281
141	0xb97c54ff	-0.00024064256
142	0xbc91170b	-0.017711183
143	0x3d56c4ed	0.052433897
144	0xbd184fd0	-0.03718549
145	0x3d29b77e	0.041434757
146	0xbc4403e3	-0.011963817
147	0xbca8929b	-0.02057772
148	0x3d3dce78	0.046339482
149	0xbd1c5d8e	-0.03817516
150	0xbc0d09ea	-0.008608321
151	0xbca9c2bc	-0.02072274
152	0x3aaea63e	0.001332469
153	0xbbc2e27d	-0.0059474097
154	0x3c8c952c	0.017160974
155	0x3d2b74a4	0.041859284
156	0x3c3942aa	0.011307398
157	0xbd233fe5	-0.039855856
158	0xbd128832	-0.035774417
159	0xbb1411ea	-0.0022593685
160	0x3b75a635	0.00374831
161	0xbcfed35d	-0.031106645
162	0xbd22d37b	-0.039752465
163	0x3d30d133	0.043168258
164	0x3a7d9230	0.0009672968
165	0x3c6ffa0c	0.014647018
166	0xbd310cb6	-0.043225013
167	0xbd906524	-0.07050541
168	0xbd4ca320	-0.049960256
169	0xbc948f55	-0.018134752
170	0xbd50de87	-0.05099347
171	0xbcc3725c	-0.023858242
172	0xbc6b6735	-0.014367868
173	0xbc4cbe91	-0.012496606
174	0x3c5ee965	0.01360545
175	0x3d224e57	0.039625492
176	0x3b83c950	0.004021801
177	0x3cdd9c87	0.027052177
178	0x3c834266	0.016022872
179	0xbb7ae06c	-0.0038280739
180	0x3d04eed0	0.03245431
181	0xbd1e5e81	-0.038664345
182	0xbd09ab4f	-0.03361064
183	0xbcbca77b	-0.02302908
184	0x3bf89279	0.0075858203
185	0x3b70e955	0.003676017
186	0xbcff941c	-0.031198554
187	0xbd2f6b96	-0.04282721
188	0x3c17c625	0.00926355
189	0xbd1ad378	-0.03779933
190	0xbc43fcfd	-0.011962173
191	0xbcec2924	-0.028828211
192	0xbc9af274	-0.018914439
193	0x3d9a2eb8	0.07528442
194	0x3d516c33	0.051128577
195	0xbca63e22	-0.0202933
196	0xbd43efa5	-0.047835965
197	0x3c8476d1	0.016169937
198	0xbcfdc246	-0.030976426
199	0x3c939f25	0.018020222
200	0xbcb92d42	-0.022604588
201	0x3c77546e	0.015095813
202	0xbc8b13b3	-0.016977167
203	0xbd156a69	-0.036478434
204	0x3d13e71f	0.036109086
205	0xbd6e0ab7	-0.058115687
206	0x3d0ed689	0.034872565
207	0x3c14576f	0.009054049
208	0xbc4b4c54	-0.012408335
209	0x3d1a34de	0.037648074
210	0xbd448502	-0.04797841
211	0xbca133d0	-0.019678026
212	0xbd950573	-0.0727643
213	0x3c152b51	0.009104566
214	0xbd0ac4ba	-0.03387902
215	0xbd440b56	-0.047862373
216	0xbc153c7e	-0.009108661
217	0x3cfb4136	0.030670743
218	0xbd234d8f	-0.039868888
219	0xbd28c6e4	-0.041205302
220	0x3bfe34cb	0.0077577583
221	0x3cb339c5	0.021878133
222	0x3d758acf	0.05994683
223	0x3d974319	0.07385845
224	0x3cb4018f	0.0219734
225	0xbd41fa45	-0.047357816
226	0xbd3cee38	-0.04612562
227	0x3c9a16fe	0.018809792
228	0x3c8f41f0	0.017487496
229	0x3a4e2d0a	0.0007864988
230	0xbd5c5184	-0.053788677
231	0xbd5549b2	-0.052072234
232	0x3c507c91	0.012725011
233	0xbc04602d	-0.008079571
234	0xbccc7a61	-0.024960699
235	0xbc00b4e7	-0.0078556305
236	0xbcc5b05f	-0.024131952
237	0x3b69c4ef	0.003567036
238	0xbd33c0b2	-0.04388494
239	0xbd72c2b0	-0.0592677
240	0xbd45c760	-0.048285842
241	0xbc53c412	-0.012925165
242	0x3cb35711	0.021892102
243	0xbd8392c8	-0.06424481
244	0xbd3ae828	-0.045631558
245	0xbd0e87c5	-0.03479745
246	0xbaffccd4	-0.0019516
247	0xbda234a9	-0.079202004
248	0xbced526c	-0.028969966
249	0x3c88f530	0.016718477
250	0xbd688716	-0.056769453
251	0xbb2c6894	-0.002630745
252	0xbd85ec72	-0.06539239
253	0xbd49b65a	-0.04924617
254	0xbc7511d9	-0.0149578685
255	0xbce30f86	-0.027717363

model2.4.weight f4 [64, 256]
0	0x3bc8b38c	0.0061249193
1	0xbd32bfda	-0.043639995
2	0x3d1a0108	0.03759864
3	0xbd6cb0c2	-0.057785757
4	0xbd8b3399	-0.06796951
5	0xbca98f25	-0.02069814
6	0x3b7a556c	0.0038197888
7	0x3d3b035e	0.045657508
8	0xbd56cdb7	-0.05244228
9	0xbd8764d0	-0.06611025
10	0x3ce07e37	0.027403934
11	0x3c3b08a6	0.011415636
12	0xbccf6483	-0.025316482
13	0xbb887e0b	-0.004165416
14	0xbc06aad8	-0.008219443
15	0xbce487d0	-0.027896792
16	0xbdbc06fe	-0.09181021
17	0xbd8121b6	-0.06305258
18	0x3c24e311	0.0100639025
19	0xbd819fe2	-0.06329323
20	0xbd403df4	-0.046934083
21	0xbcb4bd2c	-0.02206286
22	0x3d23f3d8	0.04002747
23	0x3d37dd5e	0.044888847
24	0x3d0f6b62	0.035014518
25	0x3cddf593	0.027094638
26	0xbc051848	-0.008123465
27	0xbd92ba94	-0.07164493
28	0xbd76fe7b	-0.060301285
29	0xbca7e283	-0.020493751
30	0xbce41ba8	-0.027845219
31	0xbba43593	-0.0050112694
32	0x3ccdb638	0.025111303
33	0xbc1f6e88	-0.009730943
34	0xbaa4f5c0	-0.0012585446
35	0xbd374b9f	-0.044749852
36	0x3d37ac8b	0.044842284
37	0xbd953831	-0.07286108
38	0x3d4a7a43	0.049433004
39	0x3c8df7d6	0.017330091
40	0xbca075bb	-0.019587388
41	0x3d0c176c	0.034202024
42	0x3c0a7da8	0.00845281
43	0x3cc8b8d0	0.024502188
44	0xbac639cd	-0.0015123427
45	0x3d0a799a	0.033807375
46	0x3c20ac08	0.00980664
47	0x3c5bad84	0.013408069
48	0x3b00baa0	0.0019642487
49	0xbd1ec457	-0.038761463
50	0x3b95924f	0.0045645605
51	0x3d3158cb	0.04329757
52	0xbd857362	-0.06516148
53	0x3d01446b	0.03155939
54	0xbc7c99ea	-0.015417555
55	0xbd8335df	-0.064067595
56	0x3caa1f64	0.020766921
57	0xbd112e68	-0.035444647
58	0xbd500d6a	-0.050794043
59	0xbda0efd9	-0.07858247
60	0x3c6337a0	0.0138682425
61	0xbd647a94	-0.055780962
62	0xbd2df7fa	-0.042472817
63	0x3c42d2b6	0.011891058
64	0xbd778a58	-0.06043467
65	0x3d0beea9	0.03416315
66	0xbcec503c	-0.028846852
67	0x3cb372e2	0.021905366
68	0x3d15c1fc	0.03656195
69	0xbad3f6cb	-0.0016171572
70	0xbd89b5d7	-0.06724136
71	0xbd401f2d	-0.04690473
72	0x3aca7f48	0.001544931
73	0xbd119736	-0.035544597
74	0xbcabf5ca	-0.020991225
75	0x3bd83fc3	0.006599398
76	0x3c17d98a	0.009268174
77	0x3d0b8792	0.034064837
78	0xbcb53d01	-0.022123815
79	0x3c02c264	0.007980917
80	0x3cd39486	0.025827657
81	0x3c840686	0.016116392
82	0xbd69eafa	-0.057108857
83	0xbd85d6cf	-0.06535112
84	0xbd7f2bcc	-0.062297627
85	0xbcfdad97	-0.030966563
86	0xbc25bb68	-0.010115482
87	0x3c09ab06	0.008402592
88	0xbd3f0ff0	-0.04664606
89	0xbcfb303d	-0.03066265
90	0x3bb42740	0.005497843
91	0xbd011280	-0.031511784
92	0xbd328355	-0.04358228
93	0xbda778c3	-0.0817733
94	0xbbb2b360	-0.005453512
95	0xbbaa07e0	-0.005188927
96	0x3c8a1ad1	0.01685849
97	0x3cbc4a34	0.022984602
98	0x3c68b980	0.014204383
99	0xbd6d7328	-0.05797115
100	0xbd11c540	-0.035588503
101	0xbc64e7a9	-0.013971248
102	0x3c5515c3	0.013005677
103	0x3c1661c5	0.0091785835
104	0x3d3a3042	0.04545618
105	0x3cc08679	0.023501622
106	0xbd4b34fe	-0.049611084
107	0x3a1db2e5	0.0006015732
108	0xbd54b7f2	-0.051933236
109	0xbba02790	-0.0048875287
110	0xbc035a06	-0.008017069
111	0xbcecd714	-0.028911151
112	0x3c938f44	0.01801265
113	0xbd207f5b	-0.039183956
114	0x3c8c27d1	0.01710883
115	0xbaaa31b2	-0.0012984781
116	0x3c89c5d0	0.016817957
117	0x3cf4e1c9	0.029892819
118	0xbd87d28b	-0.06631955
119	0xbcc2486b	-0.023716172
120	0xbdaf03d6	-0.085456535
121	0xbd4ba73e	-0.04972004
122	0x3cde4290	0.027131349
123	0x3bc22870	0.0059252307
124	0xbd339624	-0.043844357
125	0xbd931c8d	-0.0718318
126	0xbc3c26da	-0.011483872
127	0xbd45c24e	-0.048281007
128	0x3d3e9183	0.04652549
129	0xbd8a866e	-0.06763922
130	0xbd52c8a6	-0.051460885
131	0xbd650fd6	-0.055923305
132	0xbd47d0c1	-0.048783068
133	0xbd937e6d	-0.07201848
134	0xbd5f538a	-0.05452303
135	0xbd7889ff	-0.06067848
136	0x3bd951b8	0.006632056
137	0xbd48418e	-0.048890643
138	0x3cbaf6c0	0.022822738
139	0x3b145480	0.0022633374
140	0xbc86d534	-0.016459085
141	0x3b385ba9	0.0028130806
142	0xbd24d45d	-0.040241588
143	0x3d442736	0.047888957
144	0xbd92b742	-0.0716386
145	0x3c331342	0.010929884
146	0x3c0af1e0	0.008480519
147	0xbd40ba74	-0.047052816
148	0xbd71a4bc	-0.058994994
149	0xbd39bb25	-0.04534449
150	0xbc9977ac	-0.018733822
151	0x3c7eaf77	0.015544764
152	0xbcd27934	-0.02569256
153	0xbd4887f8	-0.048957795
154	0x3d5f517c	0.05452107
155	0xbda0461c	-0.07825872
156	0xbd08890f	-0.033333834
157	0xbd20a89f	-0.03922331
158	0xbd682832	-0.05667896
159	0xbab6845b	-0.0013924943
160	0xbd371dbe	-0.0447061
161	0xbd614977	-0.055001702
162	0x3c486838	0.012231879
163	0xbc2efe05	-0.01068068
164	0xbda82997	-0.08211058
165	0x3c898548	0.016787186
166	0x3cd18101	0.02557421
167	0xbd133933	-0.03594322
168	0xba31cc80	-0.0006782487
169	0xbce7c906	-0.028294098
170	0xbd929bfb	-0.07158657
171	0xbcf94768	-0.030429557
172	0xbb65c2d1	-0.0035058747
173	0xbdae15d3	-0.085002564
174	0x3d0a1345	0.033709783
175	0xbd2ca7da	-0.042152263
176	0x3d45fc50	0.048336327
177	0x3d2d6d9f	0.04234087
178	0xbd0ef37e	-0.03490018
179	0xbd89ea71	-0.06734169
180	0x3cb35c38	0.02189456
181	0xbc9488d4	-0.018131651
182	0xbd2d01b8	-0.042237967
183	0xbd6e4d36	-0.058179103
184	0xbd7fe99c	-0.062478647
185	0x3cda5418	0.026651427
186	0x3b40d4e0	0.0029423758
187	0x3d6137f2	0.054984994
188	0xbca22884	-0.01979471
189	0x3ccb34f4	0.024805523
190	0x3d77948a	0.060444392
191	0xbcdc9caa	-0.026930172
192	0x3bfa49d0	0.0076381937
193	0x3d03431a	0.032046415
194	0xbd5bda27	-0.053674843
195	0xbd18f7f8	-0.037345856
196	0xbd839958	-0.064257324
197	0xbce8e870	-0.028431147
198	0xbce87341	-0.02837527
199	0xbcbacf5f	-0.02280396
200	0x3d01d45c	0.031696662
201	0x3ca4725a	0.020074058
202	0x3d2a3040	0.04154992
203	0x3c8c3a38	0.017117605
204	0x3ad66be5	0.0016359059
205	0xbb1d2191	-0.0023976306
206	0xbc9651c3	-0.018349534
207	0xbd073f90	-0.033019602
208	0xbc52f4fc	-0.012875792
209	0xbd8ca8e8	-0.06868154
210	0xbc7ddccb	-0.015494536
211	0xbd8cb261	-0.068699606
212	0x3d69a669	0.057043467
213	0xbb2b2e61	-0.0026120173
214	0xbbf12b76	-0.0073599173
215	0x3cc18050	0.023620754
216	0xbd95f4ee	-0.07322107
217	0x3d3618d8	0.044457287
218	0xbc80f8e4	-0.01574368
219	0x3d345cea	0.044033922
220	0xbd8fa3e2	-0.0701368
221	0xbd685ebe	-0.05673098
222	0xbcf4ef1f	-0.029899178
223	0xbd9e5bab	-0.07732328
224	0xbd3e78a6	-0.046501778
225	0xbd2531ca	-0.040330686
226	0xbd0f1eca	-0.034941472
227	0x3d01e7d1	0.031715218
228	0x3c405916	0.01173999
229	0x3c941a17	0.018078847
230	0xbd79911d	-0.060929406
231	0xbd9e7ad7	-0.077382736
232	0xbccadeb8	-0.024764404
233	0xbd7562c5	-0.059908647
234	0x3d7d7580	0.061879635
235	0x3c486d44	0.012233082
236	0x3cc9de4a	0.024642128
237	0xbd7fed7f	-0.062482353
238	0x3d65b704	0.05608274
239	0xbd685518	-0.056721777
240	0xbc64ce5b	-0.013965215
241	0xbd2a2d0e	-0.041546874
242	0xbd4d18a8	-0.050072342
243	0xbd7578dc	-0.059929714
244	0x3d36ac66	0.044598006
245	0x3cdd8ecc	0.02704563
246	0xbdc3e965	-0.09566001
247	0xbd82b89f	-0.0638287
248	0x3bf5f302	0.0075057754
249	0xbc98205e	-0.018570121
250	0x3cde7e16	0.027159732
251	0xbceea282	-0.029130224
252	0xbd5b4818	-0.05353555
253	0xbd303534	-0.04301949
254	0x3d70ef18	0.058821768
255	0x3aff9b10	0.0019501168

model2.4.bias f4 [64]
0	0xbc772597	-0.015084646
1	0xbc24961c	-0.0100455545
2	0x3b30c283	0.0026971407
3	0x3c8f566a	0.01749726
4	0xbd4b4fee	-0.049636774
5	0xbdbc1d9a	-0.091853335
6	0xbb966900	-0.0045901537
7	0x3d097052	0.033554383
8	0xbc909010	-0.01764682
9	0xbd73e0aa	-0.05954043
10	0x3c4c3960	0.012464851
11	0x3d11f2b2	0.035631843
12	0xbd252d15	-0.040326197
13	0x3bc86d92	0.0061165774
14	0xbc61ab01	-0.013773681
15	0x3b92c748	0.0044793226
16	0xbc4a3d1e	-0.012343673
17	0x3cad363a	0.021144021
18	0x3d2ed6ee	0.04268544
19	0x3cfbc6a7	0.030734373
20	0x3dc34205	0.095340766
21	0xbd15b241	-0.03654695
22	0x3d270b1e	0.040782087
23	0xbd54305a	-0.051803924
24	0xbcf5c7ba	-0.030002464
25	0xbc23097f	-0.0099509945
26	0x3d59536e	0.05305808
27	0xbd06a1d5	-0.03286918
28	0x3b91e43c	0.0044522565
29	0xbce7a27e	-0.028275725
30	0xbd020909	-0.031746898
31	0xbbeff881	-0.007323325
32	0xbd742e53	-0.05961449
33	0xbbee4db1	-0.007272445
34	0xbd85c7cf	-0.06532251
35	0x3d13e0cf	0.036103066
36	0x3d5a0e9d	0.053236593
37	0xbc86eb55	-0.016469637
38	0x3dc12ed0	0.09432757
39	0xbcea3fba	-0.02859484
40	0x3c3fe181	0.011711479
41	0x3ce02b80	0.027364492
42	0xbaf9bf00	-0.0019054115
43	0x3d043aac	0.032282516
44	0xbc55ebd8	-0.013056718
45	0x3cd576e6	0.026057672
46	0xbd1d4620	-0.038396955
47	0xbc81cfce	-0.01584616
48	0xbd0d0a4e	-0.034433655
49	0xbc76abf8	-0.015055649
50	0x3c76d661	0.01506576
51	0xbc8ccb11	-0.017186673
52	0x3ca252d2	0.019814882
53	0xbd0b11d2	-0.03395254
54	0x3cca6233	0.024705028
55	0x3d55c956	0.052193962
56	0xbceeec7f	-0.029165505
57	0xbcc34183	-0.02383495
58	0x3c849437	0.016183956
59	0x3c596ff2	0.013271319
60	0xbd31b735	-0.04338761
61	0xbba397ed	-0.004992476
62	0xbd209698	-0.039206117
63	0xbcdb2dbf	-0.026755212

model2.6.weight f4 [4, 64]
0	0xbbcc09de	-0.006226762
1	0x3e10b9f7	0.1413344
2	0x3be3258e	0.006931967
3	0x3ddc8d2f	0.10769116
4	0xbde07f04	-0.10961726
5	0xbbef291e	-0.0072986027
6	0x3db6f946	0.08934264
7	0xbc9571b5	-0.018242696
8	0xbd51aab5	-0.05118819
9	0x3c6626bc	0.014047321
10	0x3d6fb429	0.058521423
11	0xbd78eebb	-0.060774546
12	0xbdd90bbb	-0.105979405
13	0x3dd428a8	0.10359317
14	0xbe059b52	-0.13047531
15	0xbd677b9a	-0.05651436
16	0x3e0645ce	0.13112566
17	0x3d121cc6	0.03567197
18	0x3d9c28c2	0.076249614
19	0xbc83a58a	-0.016070146
20	0x3d1eb8b1	0.038750354
21	0xbdf5e3ed	-0.12006364
22	0xbe135bc7	-0.14390479
23	0x3d02f38e	0.031970553
24	0xbd49ae76	-0.049238645
25	0xbd67830a	-0.056521453
26	0x3db053c7	0.08609729
27	0xbdacfb6d	-0.08446393
28	0xbe0be930	-0.13663173
29	0xba6c18f4	-0.0009006404
30	0xbd133a3b	-0.035944205
31	0x3df78148	0.12085205
32	0x3dcccc2f	0.099998824
33	0xbc89f6b1	-0.016841264
34	0xbd627444	-0.05528666
35	0xbd36aa03	-0.04459573
36	0x3d5255b6	0.05135127
37	0x3d702bfc	0.058635697
38	0x3d9d60b4	0.0768446
39	0x3dadfe31	0.08495749
40	0xbdd78ec6	-0.10525279
41	0x3d8e7060	0.069550276
42	0x3d162598	0.036656946
43	0x3dec958b	0.115519606
44	0xbdb6e9d7	-0.0893132
45	0xbe01d631	-0.12679364
46	0xbdf7c54f	-0.120981805
47	0x3dd2bdc9	0.10290105
48	0xbe37d87d	-0.17953677
49	0x3db56e5c	0.0885894
50	0x3ddad64a	0.10685404
51	0x3de98015	0.11401383
52	0x3d5f0665	0.054449458
53	0xbc9a8c19	-0.018865632
54	0x3ddb84d1	0.10718692
55	0xbe299d54	-0.16563922
56	0x3d3155aa	0.043294586
57	0xbd1265f2	-0.035741754
58	0x3d854f4e	0.06509267
59	0x3dc02880	0.09382725
60	0xbd67b556	-0.05656942
61	0xbdc66706	-0.09687619
62	0x3d9add06	0.07561688
63	0x3db5317a	0.088473275
64	0xbcde5b35	-0.0271431
65	0x3dbc7f2e	0.09203945
66	0x3de7174f	0.11283743
67	0xbd84ceac	-0.06484732
68	0xbc55f293	-0.0130583225
69	0x3e3fe575	0.18739875
70	0x3d3a07c8	0.045417577
71	0xbd157915	-0.036492426
72	0xbdea8791	-0.114516385
73	0x3d8a1268	0.06741792
74	0xbb1bf410	-0.0023796596
75	0x3a8b9afd	0.0010651049
76	0xbd0542cd	-0.03253441
77	0xbe01fa14	-0.12693053
78	0x3dc07867	0.09397965
79	0xbd76a5df	-0.06021678
80	0x3d4dd131	0.05024833
81	0xbdc7ae5e	-0.09750055
82	0xbdf9dfa5	-0.1220086
83	0x3db8349f	0.08994412
84	0xbe0d22ee	-0.13782856
85	0x3e0e408d	0.13891812
86	0xbddea32c	-0.10870966
87	0x3e1ea6f2	0.15493372
88	0x3d90f0b2	0.07077159
89	0x3c9e737b	0.019342175
90	0xbcdd9629	-0.027049141
91	0xbcb9935c	-0.022653274
92	0xbde64c0b	-0.11244973
93	0x3d1d1db3	0.0383584
94	0xba61aeea	-0.0008609133
95	0x3d112553	0.035435986
96	0x3dda7707	0.10667234
97	0x3d82c6f3	0.06385603
98	0x3e5f84ef	0.21828054
99	0xbd8ab74e	-0.06773244
100	0x3c4f8ad6	0.012667378
101	0x3deceb34	0.11568299
102	0xbe053760	-0.13009405
103	0xbd973c61	-0.07384563
104	0xbd4e4b96	-0.050365053
105	0x3d391a67	0.045191195
106	0xbd9ba749	-0.076002665
107	0x3b80ffdf	0.003936752
108	0x3d19edff	0.037580486
109	0xbcfdf0ad	-0.030998552
110	0x3cde3f40	0.02712977
111	0xbdf063aa	-0.117377594
112	0x3d17fd71	0.037106935
113	0x3d6db3ba	0.05803273
114	0xbbd8fd57	-0.0066219973
115	0x3e2bea09	0.16788496
116	0xbd418b66	-0.04725208
117	0xbdd04799	-0.10169906
118	0xbd422fb5	-0.04740878
119	0xbd58cfd8	-0.05293259
120	0xbdabbc5c	-0.08385536
121	0x3df42d2b	0.119226776
122	0xbdaaa901	-0.08333016
123	0x3d9c91d6	0.076450035
124	0xbdaf8b02	-0.085714355
125	0x3dc9789a	0.09837456
126	0x3e316873	0.17325
127	0xbdc29822	-0.09501673
128	0x3c6efdcb	0.014586876
129	0xbe278abf	-0.16361521
130	0x3de07ec1	0.109616764
131	0xbdaaba99	-0.08336372
132	0x3e0160fa	0.1263465
133	0x3c0ec906	0.00871492
134	0x3dad340e	0.08457194
135	0x3dfd3305	0.12363247
136	0xbd154e51	-0.03645164
137	0xbd3f1e52	-0.046659775
138	0x3da444fa	0.08020969
139	0x3da1d2b5	0.07901517
140	0xbd77abb5	-0.060466487
141	0xbe1ae7da	-0.15127507
142	0xbb97d435	-0.0046334513
143	0xbdf8f343	-0.121557735
144	0x3bad0552	0.0052801752
145	0xbce8ad59	-0.028402971
146	0xbdc78827	-0.09742766
147	0x3e185903	0.14877705
148	0xbd463962	-0.04839457
149	0xbd3f989d	-0.046776403
150	0x3d8ce679	0.06879897
151	0x3c2b4007	0.010452277
152	0x3d9cbd11	0.07653249
153	0x3c02adc5	0.007976
154	0x3e063f59	0.13110103
155	0x3dd315f1	0.10306919
156	0x3d336186	0.043794177
157	0xbdf56186	-0.11981492
158	0x3d49760b	0.04918484
159	0x3d97e92d	0.074175216
160	0x3df68eb8	0.1203894
161	0xbd664540	-0.056218386
162	0xbc03fd30	-0.00805597
163	0xbc53c1c0	-0.012924612
164	0x3e09a756	0.1344274
165	0x3da16431	0.07880438
166	0xbd986550	-0.07441199
167	0x3dbc85f1	0.09205235
168	0xbd738177	-0.05944964
169	0x3dc556ee	0.09635721
170	0xbcfdd506	-0.030985367
171	0x3ddedaf5	0.108816065
172	0x3c888e61	0.016669454
173	0xbd98de68	-0.074642956
174	0xbe060b2c	-0.13090199
175	0x3cfda1e5	0.030960986
176	0x3be5ca1a	0.007012618
177	0xbdb6b575	-0.08921329
178	0x3c51e281	0.01281035
179	0xbc902a3b	-0.017598262
180	0xbb1634dd	-0.0022919693
181	0x3cb03d3b	0.021513572
182	0x3d862e48	0.06551796
183	0x3ce41067	0.027839852
184	0x3df542f0	0.11975658
185	0xbca248af	-0.019810049
186	0xbe18a96b	-0.14908378
187	0x3dceebb3	0.1010355
188	0xbdc60075	-0.09668056
189	0x3d1a76fa	0.03771112
190	0x3dad280e	0.084549055
191	0xbd048907	-0.032357242
192	0xbc25b821	-0.0101147005
193	0xbd81af4e	-0.06332265
194	0xbcc3b32a	-0.023889143
195	0xbe4e0a5d	-0.20121141
196	0xbd63d73a	-0.055625178
197	0x3e0d426a	0.13794866
198	0x3e2422d1	0.16028906
199	0x3c1e36b0	0.009656593
200	0x3d561f2f	0.052275833
201	0x3cf7afe9	0.030235248
202	0x3d1303bf	0.035892244
203	0x3e1e5ed0	0.15465856
204	0xbe0c3898	-0.13693464
205	0x3d8ce96d	0.0688046
206	0x3e27009f	0.1630883
207	0xbd1528fa	-0.03641603
208	0x3d1853da	0.037189342
209	0xbd38fd04	-0.04516317
210	0xbdb01a20	-0.08598733
211	0xbda34b86	-0.07973389
212	0x3dcdcd68	0.10048944
213	0xbd4e1a20	-0.050317883
214	0x3d90fa05	0.070789374
215	0x3e1b6166	0.15173873
216	0xbd865b99	-0.065604396
217	0x3da96092	0.082703725
218	0xbdf79f07	-0.12090879
219	0x3dac4a28	0.08412582
220	0x3d5198eb	0.051171225
221	0x3cc16c84	0.023611315
222	0x3cbc136b	0.022958478
223	0x3e327dc0	0.17430782
224	0x3e060e0c	0.13091296
225	0xbda45df9	-0.08025736
226	0xbe07aa63	-0.13248591
227	0x3d8536f6	0.065046236
228	0x3c3cc74c	0.011522125
229	0x3e0598bc	0.13046545
230	0x3e1bd330	0.1521728
231	0xbd9ab6da	-0.075544074
232	0xbb692a88	-0.003557833
233	0xbd8a6017	-0.06756609
234	0xbd1319a7	-0.035913136
235	0x3e0930d4	0.13397533
236	0xbd963c57	-0.07335728
237	0xbd7392d7	-0.05946621
238	0x3d80a761	0.06281925
239	0xbd88e98d	-0.06685171
240	0xbddd8483	-0.1081629
241	0xbd2045be	-0.03912901
242	0x3dfce154	0.123476654
243	0x3d983762	0.074324384
244	0x3e00d457	0.12581001
245	0xbc51fff9	-0.012817376
246	0xbdefafa2	-0.11703421
247	0xbd833486	-0.064065024
248	0xbcbabd6b	-0.0227954
249	0xbce453b6	-0.027871948
250	0xbdf8eb2f	-0.12154233
251	0x3d6196c6	0.05507543
252	0x3de47246	0.111546084
253	0x3e0ec66a	0.13942876
254	0xbd523d56	-0.051328026
255	0xbc3b1b57	-0.011420093

model2.6.bias f4 [4]
0	0xbd4647ac	-0.048408195
1	0xbe13ef5b	-0.14446776
2	0xbdab0697	-0.08350866
3	0x3d7dfd70	0.062009275
