model_weight/actor/14_14 02:53:43 std 0.5 lr_actor_0.0004- gamma_0.7 memory300 actor_weight.pth (torch, 646091 bytes, 9 tensors)

std f4 [4]
00000000: a2e1 f13d e072 013d 5cb7 1c3d f04f 213e
0.11810614 0.031603694 0.038260803 0.1575315

model2.0.weight f4 [512, 24]
00000000: 67e7 9dbd 5122 e7bd ab4e edbd f1c8 0b3e
00000010: 8ad1 e5bd dd0a d1bd 298d 1d3d 74fe 29be
00000020: 64c3 283e cdf6 3b3e a576 803d 911a 043e
00000030: bdbd 23bc 3002 53bd ac5a 5cbe ff44 3a3c
00000040: e132 d4bc 61ae 683d ec1a 69be 024f dd3d
00000050: 6e4e 7fbe ad6a 92be d8fc 003d 33e3 453d
00000060: 8b72 25bc 47b4 23be 55a1 263d b858 34be
00000070: a307 47be 847e d33d fc4f 1dbe b071 e1bd
00000080: 47d3 22bd 488f d53d 3013 273e 8551 8f3d
00000090: cb63 833d 8839 7e3d 08ab 82bc 5599 d2bd
000000a0: 10fa 473c ae56 57be ffa2 8cbd e9af 023e
000000b0: ac02 f5bd 5fa2 5fbd 039b 3e3e 885b 02be
000000c0: 98fa c93d 69e6 ecbd 5840 dc3b 53dd 0dbe
000000d0: 7b3f 8ebe c731 04ba 6edc 86be 8da2 1fbe
000000e0: 0f0e 9e3d b857 ae3d e2a3 00be 5522 eb3d
000000f0: 762d 183e 8811 7c3d 233c 653e 9e43 22be
00000100: bded eabd 379c 32be 0096 c43d fb59 473e
00000110: ec13 4a3d 744e c83b d60a 69bd e4a3 29bd
00000120: 6ed0 4fbc 251f 053d 6a78 41be 2850 74bd
00000130: 42f5 0bbe e015 b13d 3854 00be d730 f83d
00000140: 972f 67bd 4ce5 053d c787 b8bd f03a 9ebc
00000150: 7f9a 05bd 1f39 123e 88e5 453d 86ac 4fbe
00000160: 0f08 95bc 041d 53be 8480 863c 045a 65be
00000170: 6af5 913c 15e4 ae3d 521a 48be 2824 66bd
00000180: a4c5 303a 3823 a6bc 0c05 67be 8f42 21be
00000190: 8eb4 9fbd 802f f83d f3f6 a9bd 5cf5 19be
000001a0: 81a0 01be cb03 083d a3df 4f3e 9964 41be
000001b0: 63c3 d8bd 128d 1fbe 9d6f 88bd b704 b9bd
000001c0: 63e9 40be c07a b33d ba77 7dbd 7ff7 ab3d
000001d0: e5e9 073e 57a8 1e3e c1b3 253e 9d0f 17be
000001e0: a817 49bd 7339 b93b 0a0a 02be fdbf fa3d
000001f0: d666 2dbe a5fa 83bd ecea 483c c2d0 5abe
00000200: 56fb 7ebd cefa 4b3e 3b9d 15bd a759 cb3d
00000210: fcbb 2fbd 9e2e 0bbe 3b1b d9bd f115 2fbe
00000220: bc12 06bd e360 aa3c a8a7 0abe 1fb2 203e
00000230: 8d07 89bd 5fca 033c 2456 20be e807 3f3e
00000240: 36bc 15bd 837b 28be cc6f 1d3e 7b89 1ebe
00000250: 7a49 9dbd 532d 1bbe e276 15be d896 03be
00000260: 8c0a b5bd 1310 de3d 05bb 20be 7ba4 e63b
00000270: 57ce dabc 8d40 4cbe 7dd3 49be 2d9b cbbd
00000280: 9d77 803d 1e4c f8bd c884 adbd d804 cdbd
00000290: 3d69 20be 8f5d ecbd 0e76 50bd 70c7 4fbe
000002a0: 7d3e fa3d 363a 513e c444 c33d b516 603d
000002b0: 647f 13be 568e 17be d40f fa3c 8075 f83c
000002c0: 3ae3 393d a8c3 a4bd 2a75 4b3e 518f 72be
000002d0: 8035 433e f5cd d43c 1da5 0abe a634 a63d
000002e0: 47af 9c3d 9199 0c3e dc28 7a3d 8d3e 3ebe
000002f0: 167d de3d 73c6 0e3e 160b ffbd 4b31 fe3d
00000300: 0d25 223e 30ae 853e a709 813d 23d0 d5bd
00000310: f2d3 61be 6963 403e 8929 e53d 7ae1 2f3e
00000320: 8339 15be ce04 8bbe 9e61 8fbd 8b07 79be
00000330: c4d6 3abc e541 ee3d 844b 033c 4f3f b5bc
00000340: fe00 e7bd db81 143e 565d f8bd 5296 1fbe
00000350: c150 353e 7bb6 523d c73f 493e ec21 febd
00000360: 01e8 2e3e 340e a73d ca4f 4dbd 2b2d a4bd
00000370: a432 37be 92c7 cb3c e3b8 c73d d382 a6bd
00000380: 598b 77bd 83f2 4cbe 5fd8 3a3e 6202 e93d
00000390: 7ed6 773c a143 91bd 2600 ca3d e65d a2bd
000003a0: 2e1d 7fbe b62b 94be e219 babd 4891 913d
000003b0: 491f 4dbc 6214 60bc 8be2 42bc 69ae d2bc
000003c0: d087 d03d aa6d 39bd 1d01 2e3e 95a3 18be
000003d0: 9a38 12be 0670 843c a0db 10be 8dbf 77bd
000003e0: 92f5 bfbd f501 68bd d400 35be 8c1a d33d
000003f0: a43c 02be c3b4 e9bc 76c6 f1b8 8a71 b8bb
-0.07710152 -0.11285842 -0.1158727 0.13650872 -0.11221607 -0.1020715 0.0384647 -0.16600972
0.16480786 0.18355866 0.0627263 0.1290076 -0.009993968 -0.051515758 -0.21518964 0.011368989
-0.025903167 0.056806926 -0.22764176 0.10806085 -0.24932262 -0.28597012 0.03149113 0.048312377
-0.01009811 -0.15986739 0.040681202 -0.17611969 -0.19436507 0.10326865 -0.15362543 -0.11008012
-0.03975227 0.10427719 0.16315913 0.069979705 0.064155184 0.062066585 -0.015950695 -0.10283152
0.012205616 -0.2102916 -0.068670265 0.12762417 -0.119634 -0.05459821 0.1861382 -0.12730229
0.0986225 -0.11567385 0.0067215376 -0.1385396 -0.27782807 -0.0005042818 -0.2634005 -0.15589352
0.07717525 0.08512825 -0.12562516 0.11481158 0.14861092 0.061540157 0.22386222 -0.15846106
-0.11471126 -0.17442404 0.09598923 0.19467919 0.049335405 0.006112868 -0.0568951 -0.041416064
-0.012683971 0.032500405 -0.1889359 -0.059646755 -0.13667777 0.086467505 -0.12532127 0.121186905
-0.05644187 0.032689378 -0.090102725 -0.019315213 -0.032618042 0.14279602 0.0483146 -0.20280656
-0.01819232 -0.20616537 0.016418703 -0.2239762 0.017817218 0.08539597 -0.1954129 -0.056186825
0.0006743318 -0.020280465 -0.22560519 -0.15748046 -0.0779811 0.12118435 -0.08299055 -0.15035003
-0.12658884 0.033206742 0.20300154 -0.18886031 -0.10584142 -0.15581158 -0.066619135 -0.090341024
-0.1883903 0.08763647 -0.06188176 0.083968155 0.13272817 0.15493904 0.16181852 -0.1475205
-0.049094826 0.0056526004 -0.12699142 0.1224365 -0.1693376 -0.06444291 0.012263041 -0.21368697
-0.06225141 0.19919893 -0.0365269 0.09929209 -0.042903885 -0.13592002 -0.10600897 -0.17098214
-0.03273271 0.020798152 -0.13540518 0.15692948 -0.06690893 0.0080438545 -0.1565786 0.1865536
-0.036556445 -0.16453366 0.15374678 -0.15482132 -0.0768003 -0.15154009 -0.14596131 -0.12850511
-0.08839902 0.1084291 -0.15696342 0.0070386506 -0.026709719 -0.19946499 -0.19709583 -0.09941707
0.062728144 -0.12123893 -0.08472592 -0.100106895 -0.15665145 -0.115412824 -0.050893836 -0.20290923
0.1221895 0.20432362 0.095346004 0.054709155 -0.14404064 -0.1480039 0.030525126 0.030329466
0.045382716 -0.08045131 0.19868913 -0.23687483 0.19063377 0.025977114 -0.13539548 0.08115511
0.07650619 0.13730456 0.061074123 -0.18578549 0.10863702 0.1394289 -0.12453286 0.12411746
0.15834446 0.26109457 0.06300669 -0.104400896 -0.22053507 0.18787922 0.11189563 0.17175856
-0.1457272 -0.27152103 -0.07001041 -0.24319284 -0.011403743 0.11633662 0.00801361 -0.022124914
-0.11279486 0.14502661 -0.121271774 -0.15584686 0.17706586 0.05144356 0.19653235 -0.12408814
0.1708069 0.08157006 -0.05012492 -0.080164276 -0.17890412 0.024875436 0.09752061 -0.081304215
-0.060435627 -0.20014386 0.18246602 0.113774076 0.0151268225 -0.07092977 0.098633096 -0.07928066
-0.24913475 -0.289396 -0.09086968 0.07107788 -0.012519666 -0.013676735 -0.011894832 -0.02571793
0.10182154 -0.0452706 0.16992612 -0.14906152 -0.14279404 0.016166698 -0.1414628 -0.06048541
-0.09373011 -0.05664249 -0.17676097 0.10307798 -0.12718445 -0.028528577 -0.00011528742 -0.0056287693

model2.0.bias f4 [512]
00000000: ae24 05bd c45f 16bd b3f0 09be a2cf 0f3e
00000010: d0e5 603d ab62 1e3e adc2 eabc d2b5 3d3e
00000020: f7e5 1a3e 9904 77be 4156 2abe f41c 8f3d
00000030: 2ce3 7bbd 68c4 893d d58e 893d d7b1 ccbd
00000040: 4ea0 0b3e f742 64bd 42ca 4c3d 0497 9ebd
00000050: 1c3c b3bc 1459 553b 2511 61be 6294 18be
00000060: f52b 103e b572 9b3d 11ae 03be 7a53 1b3c
00000070: 5818 b3bd 6203 fe3d 702e 163e d2dd 51bb
00000080: 48d0 33be b645 b13b 9232 3bbc fbbc 1b3e
00000090: 4562 2cbe 009f 21be f54b 9f3d 12b9 edbc
000000a0: 2681 37bd d445 393d 3cee 2dbe 9aea f4bc
000000b0: d9ae cc3d 3ffe 2cbd 4d9a 3d3d 5c00 f43d
000000c0: 21d1 023e e02e 263c ea29 d9bc 58cf 33be
000000d0: cac4 08be 2d5c 213b e4a9 2cbe 20f9 263e
000000e0: 8a62 0b3e 9fb2 3e3e 9f45 e23d 920e efbd
000000f0: 3912 293d d1e9 33bd c8a8 c0bc 2826 0bbd
00000100: 488d dfbc 6b92 bd3d bab1 2c3d a906 a6bb
00000110: c12e dcbc e493 0c3e 3b93 d3bd a620 783d
00000120: 45e6 43be 7bd7 a6bd 4e3f bcbb b42f 5ebd
00000130: d914 46be e7a8 8d3c 6421 7c3d de45 3bbd
00000140: 19e8 10be 7330 d83d c4c5 64be f1e7 643e
00000150: 0302 8cbd 9147 5a3d 2456 6c3d 698c 53bd
00000160: 258f 253e 7a53 27bd 661c 58be b7df 6fbd
00000170: 267c 143e 6f5c 79ba 9ed6 91bd 357e 9f3d
00000180: fee3 c13d 429b ecbc 9063 46bb 1a55 bd3c
00000190: d836 cdbd 564e 8e3d 4bc7 37be c914 18be
000001a0: 5bd0 efbd 87ee 5f3d 41e8 293e 231f 8a3d
000001b0: a82e a8bd e314 52be 2929 24be af0d 6cbe
000001c0: 88cf fb3d 5923 47be 47f0 0a3e 7876 283e
000001d0: 273e d23d aaf9 00be 9c8e 29be 6cd4 a23a
000001e0: 2d92 053e a442 ec3d 77db 13bd b77b 36be
000001f0: 379e 0cbe 0df1 e13d 7c83 923d ae90 fdbc
00000200: a29d 633c 5f10 0a3e 0008 6dbd 6cdb db3d
00000210: 8cf3 fabb 1518 113e c4a9 9ebc 9fc5 e3bd
00000220: daaf 14be ab68 2d3e 4a01 74bd 57b7 883c
00000230: c2b8 4abe 27a7 6bbe fee7 50bd d997 48be
00000240: b028 1b3b 9e1f c5bd f2d1 0d3e 04d0 413d
00000250: bffa aebd 1f0e 543d 3ff9 30be d905 533d
00000260: 9b94 99bd 1aae 15be 79e6 a6bc a393 2c3d
00000270: 8d2e 3bbc ef33 d2bd 4635 883c 103c 243c
00000280: 1b6e f83d 8469 433e 4c7e 2dbe 662c 3dbe
00000290: c660 f2bd 6292 19be 034b df3c 5566 df3c
000002a0: efb6 cb3d 6d3e d7bd 915a a03d 8e13 3ebd
000002b0: d7d6 8dbd baaa 0bbd 8ec1 6abd 77af e4bc
000002c0: fd96 d3bd 0b10 40be b298 903d 3af8 3b3e
000002d0: 4cea 403d f413 ea3d 0bf6 57be 6338 3bbd
000002e0: 7818 02be 7c31 a5bd 7532 ab3d 30d8 31bd
000002f0: caa0 353c be75 1ebe f60d 073e e7df f8bd
00000300: a2fd 6cbe 53ff e43d 210a fa3d af3b 613d
00000310: 92eb 37be fbc5 6abe 14b3 fbbc e775 27be
00000320: 41a8 d1bd 5b0d 2c3d 81db 3cbe 061f 1d3e
00000330: 9423 fe3d 6a19 42be b72a 20be a682 5cbe
00000340: b39c 9dbd 3769 9ebc 84d4 f83d 0873 423e
00000350: 8dce 1bbe 0000 c83d 8d49 8f3b 635c 193a
00000360: e60e ed3d baa0 ad3d a11b c2bd 7065 d3bd
00000370: e99a 88bd 0cb4 243e b2db 473d fa0f a1bd
00000380: 34b0 0c3e 9aff 0fbe e78f 63be 6194 9e3c
00000390: 7f68 5dbd 3feb 693d 7276 343e 53f9 65be
000003a0: 8a91 aebd 10ab 213e 8563 0abe 501f ef3d
000003b0: db25 973d 7edb 283e 0d09 5b3b e30c 0bbe
000003c0: 2bc9 353e e7b9 9a3d d466 6d3d 722f 27be
000003d0: 00b8 e5bd 69af 21be 0d5b 3c3e 4c5c e5bc
000003e0: 32b8 a9bd fc52 37be e591 6e3d 5637 ad3d
000003f0: 7c1a 383e 5e68 023e 89a6 44bd 7d96 033e
-0.032505684 -0.036712423 -0.13470726 0.1404405 0.054906666 0.15467326 -0.028657282 0.1852639
0.15126787 -0.24122848 -0.16634466 0.06987944 -0.061495945 0.06726915 0.06716696 -0.09994858
0.1363537 -0.055727925 0.049997576 -0.07743648 -0.021879248 0.0032554315 -0.21979196 -0.14900354
0.14079268 0.07590238 -0.1285937 0.009480352 -0.087448776 0.12402989 0.14666152 -0.0032023084
-0.17559922 0.0054099215 -0.011425631 0.15208809 -0.16834362 -0.1578331 0.077781595 -0.029018912
-0.0448009 0.04523261 -0.1698541 -0.029897023 0.09994287 -0.042234655 0.04628973 0.11914131
0.12775089 0.010143012 -0.026509244 -0.17559564 -0.13356319 0.0024621591 -0.16861683 0.16305971
0.13611808 0.18622826 0.110484354 -0.11672701 0.041277144 -0.043924157 -0.023517981 -0.033971936
-0.027289048 0.09256443 0.04216168 -0.005066712 -0.026877763 0.13728291 -0.10330816 0.06057801
-0.1913081 -0.081465684 -0.005744851 -0.054244712 -0.1934389 0.017292453 0.06155528 -0.045720927
-0.14151038 0.10556116 -0.22341067 0.22354104 -0.06836321 0.053290907 0.057699338 -0.051647577
0.16167887 -0.040851094 -0.21104583 -0.05856296 0.14500484 -0.000951237 -0.07121013 0.07787744
0.09467314 -0.028882626 -0.0030271746 0.023111869 -0.10020226 0.06948535 -0.17947118 -0.14851679
-0.117096625 0.054670837 0.16592504 0.0674422 -0.08212024 -0.2051578 -0.16031326 -0.23052095
0.12295443 -0.19447078 0.13568221 0.16451442 0.10265761 -0.1259524 -0.16558307 0.0012422926
0.13044043 0.11536148 -0.03609797 -0.17820631 -0.13732229 0.11032305 0.07153985 -0.030952778
0.013892563 0.13482808 -0.057868958 0.10735211 -0.0076584276 0.14169343 -0.01936806 -0.111216776
-0.14520207 0.16934459 -0.05957154 0.016688986 -0.19797042 -0.23012982 -0.051002495 -0.19589175
0.0023675375 -0.09625171 0.13849619 0.04731752 -0.0854392 0.05177128 -0.1728258 0.05151925
-0.07499047 -0.14617196 -0.02037357 0.042132985 -0.011424673 -0.10263812 0.016626965 0.010024086
0.12130376 0.1908322 -0.1694271 -0.18473968 -0.11834864 -0.14997247 0.027257448 0.027270475
0.09947001 -0.10509954 0.07829774 -0.046405368 -0.06925743 -0.034098364 -0.057313494 -0.0279157
-0.10331533 -0.1875612 0.07060374 0.1835641 0.047098443 0.11429587 -0.21089952 -0.04570807
-0.12704647 -0.08066079 0.08359233 -0.043419063 0.011085698 -0.15474603 0.1318892 -0.12152081
-0.23143628 0.11181512 0.12208963 0.05498856 -0.17960957 -0.22927086 -0.03072504 -0.1635357
-0.1023717 0.042004924 -0.18443109 0.15343866 0.1240913 -0.18955007 -0.15641294 -0.21534213
-0.07695904 -0.01933728 0.12149909 0.18989193 -0.15215512 0.09765625 0.0043727816 0.00058502535
0.11575107 0.08477922 -0.09477926 -0.10322082 -0.06670172 0.16084307 0.048793502 -0.078643754
0.13739091 -0.14062348 -0.22222863 0.019357862 -0.054054733 0.057109114 0.17623308 -0.22458391
-0.08523853 0.15787911 -0.13514526 0.11675894 0.07380267 0.1648998 0.0033422143 -0.13579135
0.1775252 0.07554989 0.057959393 -0.16326693 -0.11216736 -0.1578957 0.18394108 -0.027998112
-0.082870856 -0.1790275 0.058244605 0.0845782 0.17978853 0.12735125 -0.048010383 0.12850375

model2.2.weight f4 [256, 512]
00000000: 3712 823c 237a c63a 8b3e 933d 70a6 8bbc
00000010: 62ea d13b 9ee3 203d 752e 8cbc b2ba 813d
00000020: e921 c73d 7a69 493d 93b7 303d d41e 453c
00000030: 4fe0 82bd 5a18 9d3c 914a 9e3c 5bda 863d
00000040: cdbe 77bd 515c 98bc d26c 73bc 3f40 0a3d
00000050: a3a0 143c 9c3f f5bb 6519 373c deed b3bc
00000060: e069 5bbd da8f 8cbb 116f 0bbc 2118 42bd
00000070: 40e8 f93c 7469 8c39 7b77 313d 61ff b63d
00000080: 3703 663d 056a 41bd 79a0 aebc 49f6 08bd
00000090: b0a3 f1bc 80c7 37bc 2b59 b2bc 51d4 91bd
000000a0: 2987 45bc f049 68bd f7f6 0c3b 93a4 9f3d
000000b0: 6bed 41bd c1ff ce3c 8f53 2cbc be87 e83d
000000c0: 9801 0bbd c822 083d e0a0 0d3b c0ee 46bd
000000d0: ce73 1abb 98d4 493b 120c b3bd 47aa eabc
000000e0: fd2f b7bb 3ce8 d33c b920 073d 2476 e63a
000000f0: db0c 9e3d 50e3 0dbd 126c cdbc 25d9 023d
00000100: 7da4 67bd 2f23 debd 422b ae3d acef 2cbd
00000110: 4558 873c 7af0 3cbd 4d16 3bbd 2cef 8c3a
00000120: ff7c 3e3d 045c 3d3c 18dc a7bd beb3 aa3c
00000130: a3c0 223d 92f1 69bd 5a75 123b 1338 7c3c
00000140: 0b24 77bb e240 22bd 02f6 cd3c b120 873d
00000150: ef43 9abc 2737 99bc 2b35 ddbc 137e 37bd
00000160: e62c 9f3d c17a 493d 50c4 88bd 2806 2abd
00000170: 8806 b83d 516e 993b 194d 4f3d c6d0 4dbd
00000180: 97b1 59bc d9ec 78bc 0920 283d 19e7 a6bc
00000190: 97de 22bd 9f4a f1bc 5d81 87bc 2a0e 02bd
000001a0: 4c4e 47bd 8812 543d 22d1 7ebd 1ee8 c33d
000001b0: 63e6 46bd b68f 563c bc74 45bc 6c90 51bd
000001c0: f0d1 2bbd ced0 973c c74f b7bb a238 cebc
000001d0: 3682 043e 0b40 99bd 348e c3bc 53af c73b
000001e0: 6266 f4bb 1203 6b3d 1be9 43bd 842b 87bd
000001f0: f1ac 07bd b4ad 2d38 7ad6 0a3d 57e0 403d
00000200: 3dd6 293e 928b 5e3b 3bfd 013e 014f ff3d
00000210: d6d7 98bc 7b24 1c3b 6175 05bd 4b9c c8bc
00000220: c89c abba c500 513d 0a2c 87bd 4a8f 9d3d
00000230: 4eea 2f3c b401 bf3c 3a25 8abd e463 21bd
00000240: 29b1 ecba 6dbf 0f3e 0246 e23b b1b5 7e3c
00000250: 4b1c e0ba 84df dd3c ca80 12bd 2d58 873c
00000260: 1f45 f23d 75f4 ebbc 607e 56bc 937a 953c
00000270: 30ce 413d c319 e23d e191 9b3d 1262 563d
00000280: 979b 19bd 017d 05bc bf11 3d3d aca9 503d
00000290: 81e8 b1bc eae6 013d 2311 7d3c 071b 183e
000002a0: 77f5 093d 4fa7 263c 3a7f 423d dad4 53bd
000002b0: cfb1 633d d68b edbc 27dd fa3c fb8e 8fbd
000002c0: d964 553c cb03 6d3d bd84 fc3d 4101 6c3d
000002d0: 2df7 433d 5ee4 1c3d 48a1 6c3d a9b2 cd3b
000002e0: f27f 493d 42c3 00bb 81cc d6bb c64c ad3d
000002f0: 07c6 afbb 3ab8 073d 8738 bfbd 2c27 f63a
00000300: a23b f63c 528e c3bd 130b 893d d823 9abc
00000310: 6c53 2d3d 70f2 703c 4b03 4abc 40e4 363c
00000320: 5056 fa3c c9bd 4f3c 87b0 c33b 2930 c33d
00000330: e530 5abd ddf9 833c 7438 97ba 4608 01bd
00000340: 7931 82bd 0d92 fb3b dad9 2a3d c97e f33d
00000350: 6546 65bc 0d60 ee3c 12d2 a03d fec1 273d
00000360: 21fa a43d e20f 9cbd fae9 e53d 2d1e e9bd
00000370: 64dd 5f3c 09d0 aebc fb00 d73c 2cc0 b1bc
00000380: fd22 b93b a8e5 91bc 892e 903d 26f8 0d3d
00000390: ed35 bfbc 0f93 a33d bef7 943d 2a5c 4fbd
000003a0: 6fc5 53bd 6eeb 6d3b 6cff f7bd 5a9f 9b3d
000003b0: d0c8 293d 2b25 103d 13b7 813d 4f88 febd
000003c0: ae71 fbbc c61e 123d 535a d43d 59f8 8fbc
000003d0: 2a70 20bc 13ea 57bd 4288 8e3d 52e0 623c
000003e0: 4fcc 783d 7a4a 79bd 593a c03d 266b 35bd
000003f0: eae9 e43d 78a7 273c 4169 373c 6acf 3c3e
0.015877826 0.0015142601 0.071896635 -0.017047137 0.0064061144 0.039279573 -0.017111996 0.063344374
0.09723265 0.049172856 0.04314382 0.012031276 -0.0639044 0.01917665 0.019322665 0.06584617
-0.060484696 -0.018598707 -0.014857488 0.033752676 0.009071502 -0.0074843895 0.011175488 -0.02196401
-0.053567767 -0.0042896094 -0.008510367 -0.047386292 0.030506253 0.0002678145 0.043326836 0.089354284
0.05615541 -0.04722025 -0.021316754 -0.033438 -0.029496998 -0.011216998 -0.021771034 -0.07120574
-0.0120561505 -0.056711137 0.0021509507 0.07795062 -0.04734556 0.025268437 -0.010517969 0.11354016
-0.033937067 0.033236295 0.0021610782 -0.048567533 -0.002356756 0.0030796882 -0.087425366 -0.028645648
-0.0055904374 0.025867574 0.03299019 0.0017582816 0.07717296 -0.03464061 -0.025075946 0.031945366
-0.056553353 -0.108465545 0.085043445 -0.042220756 0.016521582 -0.046127774 -0.045675565 0.0010752431
0.046505924 0.011557583 -0.081962764 0.02083766 0.039734494 -0.057115145 0.002234778 0.0153942285
-0.0037710692 -0.03961266 0.02514172 0.06598032 -0.018831221 -0.018703056 -0.027002892 -0.044797968
0.077722356 0.049189333 -0.06678069 -0.041509777 0.08985621 0.00468234 0.050610635 -0.05024793
-0.01328697 -0.015193188 0.041046176 -0.020373868 -0.03976306 -0.029454527 -0.016541177 -0.03175179
-0.048658654 0.051775485 -0.062211163 0.09565757 -0.048559558 0.013095787 -0.012051757 -0.051163122
-0.04194826 0.018532183 -0.005594227 -0.025173489 0.12940297 -0.07482918 -0.023871519 0.0060938983
-0.007458494 0.057375975 -0.04782973 -0.06600097 -0.033123914 4.1408188e-05 0.033895947 0.047088947
0.16585632 0.0033957702 0.12694256 0.12466241 -0.018657606 0.0023825455 -0.032582644 -0.024488589
-0.0013092989 0.051026125 -0.06600197 0.07693346 0.010737015 0.023316242 -0.06745382 -0.039401904
-0.0018058169 0.14037867 0.0069053182 0.015546248 -0.0017098276 0.02708412 -0.035767354 0.016521538
0.1182959 -0.02880309 -0.013091654 0.018246925 0.047315776 0.1104007 0.075961836 0.05233962
-0.037501898 -0.008147479 0.046159502 0.05094306 -0.021717312 0.031714357 0.01544598 0.1485406
0.03368136 0.010171725 0.047484614 -0.051716663 0.055589493 -0.028997343 0.030623032 -0.07009693
0.013024532 0.057864945 0.12330005 0.057618383 0.047843147 0.038303725 0.057770997 0.0062774015
0.049194284 -0.0019647633 -0.0065551405 0.08461909 -0.005364183 0.033134677 -0.093369536 0.0018779985
0.030057732 -0.0954863 0.06691565 -0.01881592 0.042315885 0.014706239 -0.012329887 0.0111628175
0.030558735 0.012679526 0.0059719714 0.0953067 -0.053269286 0.016110355 -0.001153721 -0.03150203
-0.063570924 0.0076773227 0.041711666 0.11889417 -0.013993834 0.029098535 0.07852568 0.04095649
0.08055521 -0.07620217 0.11226268 -0.11382709 0.0136636235 -0.021339433 0.026245585 -0.02169808
0.005649923 -0.017809704 0.07040126 0.03466048 -0.023341144 0.079870336 0.072738156 -0.050625004
-0.05170196 0.0036303657 -0.12109265 0.07598753 0.041451275 0.035191696 0.06333747 -0.124283426
-0.030693855 0.03567388 0.103687905 -0.017574476 -0.009792367 -0.052713465 0.06959583 0.013847427
0.06074172 -0.060862042 0.09386129 -0.044291638 0.11177428 0.010232799 0.011194528 0.18438497

model2.2.bias f4 [256]
00000000: 714e d13c a56f 48bd 8d1a 073d e02b 963c
00000010: d1c6 3a3c d0f2 0a3c 746b 95bc c028 33bd
00000020: 9f29 2e3b 55de ce3c 8e1b 0e3d 79c9 54bd
00000030: b75e 97bc 9f1a 10bc 081e 213c c43f 903c
00000040: 0294 25bc 7aa4 6cbb be96 39bd 7160 0d3c
00000050: 4ab0 1ebd dddb 10bd 69b3 873d f145 47bd
00000060: 0bf6 80bb 306f ad39 fa5c 61bd 1b0d 913c
00000070: 0abd 20bd 8e5f 2dbd e1e1 7b3b 4349 f3bb
00000080: 7d7f c93c ed42 cbbc 2678 4dbc 3a8a 163c
00000090: 608b 42bd c672 8cbb f943 263d 6a30 56bd
000000a0: 957c 883d fffe 42bd 7066 ee3c d365 ed3c
000000b0: 406e 883b cdbc 703c dae3 033d 1662 22bd
000000c0: bc4c 433c 95df 95bc 666a c43c 9c34 2bbd
000000d0: f962 deba fdd7 ffba 6c0b 09bd 08fd 2abd
000000e0: e206 203d de39 48bc 0dc1 02bd 5ae2 583c
000000f0: 6923 3cbd 6838 75bd 5350 77ba f8fd d5bc
00000100: e860 653d 412b 8ebc 2205 44bd a7bc e53b
00000110: c506 11bb d2aa 203d e14e cb3c 9749 053c
00000120: 405e 6cbb a2fd 17bc 1cff 56bd 8a2f 123d
00000130: 5f5a 58bd 5be4 863d 2bbd a2bc 68e3 863c
00000140: e642 a4bc ac58 b53c a585 113c e745 0fbd
00000150: 704a 1b3c 140f 1dbd db52 cfbc 4e2f b73b
00000160: 8c02 a7bc e3d7 053d 97ec a53c bc08 f9bb
00000170: 91ed c33c 97c5 18bd 5f49 d53c b93c 1ebd
00000180: d679 f8bc 3276 d0bc 78ea 013d a926 d33b
00000190: 0c20 243b 12e8 d5bc 70ed 3d3c efad a238
000001a0: 35e6 50bc e0aa 473d 8c3a 22bd e450 f4bb
000001b0: ff08 2c3d faaf c6bb 8d30 5cbd 79e8 873b
000001c0: a5bb 9cbc 1da6 393d 5bf6 fc3b 70c3 8fbc
000001d0: 1416 cc3c 177d 4fbd b6e1 cfbb 81f8 e7bc
000001e0: 2429 cf3b 8456 26bd 8cd1 79bc 9630 033c
000001f0: 43b6 3b3c 2e93 0dbb 7aec c8bc b1df 29bb
00000200: 128d 803b 8290 f43c 4efa 39bb 2fb3 3b3d
00000210: c041 ffbb 5e13 163d 1bd0 9f3c 763d 3bbd
00000220: 5f6e 58bd 2725 4abd 0a3e 603c 0184 edbc
00000230: c4ca 273c 88d2 493c 2fe4 acbc 09ff bfbc
00000240: 0110 ea3c 26a2 acbc 9d5e 29bd 1652 113d
00000250: 4a51 663b b998 28bd eb83 4b3d 6473 1f3d
00000260: 7ed3 c23c 5a94 b2bc d666 a63c 2bd3 5aba
00000270: 6a32 e53c b65e 6e3c bf26 933c bcb7 4dbd
00000280: 7251 da3c c58d b53c 6792 563c e600 673c
00000290: 1561 51bd 64e8 4a3c 56f7 18bd 50d2 193d
000002a0: d95b 933c e48b d6bb 5d29 c33c 4131 193d
000002b0: e2f3 41bd 540a fabb 0fe5 cfbc 35f7 d9bc
000002c0: ae15 3939 799d fe3b 25ef 39bd 00ef 323b
000002d0: 3722 21bd c161 243c 9393 d73c a937 3a3d
000002e0: e84a 82b9 53ae cbbc eaa4 1abd f44c 50bd
000002f0: a20a d3bc 54ea 703b 2fe8 173d 2979 31bc
00000300: 340c 6cbd 6692 03bc 95a0 1cba 945a 30bd
00000310: 7e7a aaba d91c 3abd c97c 9cbc ab1d 4a3d
00000320: 0705 123c 0a62 0f3d 5b3a aabc fffa 0d3c
00000330: e361 623b 03f4 1cbd b16f a9bc a01c 563b
00000340: 6f6e 09bd 8718 c2bc e45a 013c 7205 20bd
00000350: 38a6 4a3d 2191 033d df1c 19bd 7fc2 5d3c
00000360: b402 a3bc 38eb 16bd b4be 363d 3b1e 363c
00000370: dae2 0e3b 29e9 d13c 8b28 8d3d 8a8f f63c
00000380: d94d 3bbd c309 9d3d 04ee 87bc 7808 23bd
00000390: e840 20bd db33 60bc 78ae f53a ef4b a6bc
000003a0: a466 f0bc 8073 35b8 e7ba adbb 4202 8c3d
000003b0: ced3 a03c 7de6 41bd 62d6 cdbc 8eac 01bc
000003c0: 3f7b 17bd f109 333d 6f25 83bd 986a 43bd
000003d0: e862 89bc 0c5d 673b 74ac c93b 883e bcbc
000003e0: b138 8bbc dc87 1ebb 0ba9 543d dea9 9ebc
000003f0: 3f72 163c 5a9c 56bc 6d30 0a3d fe5e f5bc
0.0255501 -0.048934598 0.032984305 0.018331468 0.011399941 0.008480743 -0.018239714 -0.043740034
0.00265751 0.0252525 0.034694247 -0.05194995 -0.01847778 -0.008795409 0.00983382 0.01760853
-0.010106089 -0.0036108778 -0.045309775 0.00862895 -0.03874234 -0.035365928 0.06626017 -0.048650686
-0.0039355806 0.00033079972 -0.05502031 0.017706444 -0.03924278 -0.042327456 0.0038434195 -0.007424505
0.024596924 -0.024812186 -0.012540853 0.009188229 -0.0474962 -0.004286143 0.040592168 -0.052292265
0.06664387 -0.047606464 0.02910158 0.028979218 0.0041635334 0.014693451 0.032199718 -0.039644323
0.01192015 -0.018295089 0.023976516 -0.04179822 -0.0016966752 -0.0019519326 -0.03345816 -0.041745216
0.039069064 -0.012220828 -0.03192239 0.01323756 -0.045932207 -0.059868246 -0.00094342715 -0.026122078
0.05600062 -0.01735461 -0.047856458 0.0070110145 -0.002212928 0.039225407 0.024817886 0.008135221
-0.003606692 -0.009276779 -0.052489385 0.035689868 -0.05282056 0.06586524 -0.019865593 0.016465858
-0.02005143 0.022137009 0.008881961 -0.034978773 0.0094781965 -0.038344458 -0.025308063 0.005590356
-0.020386957 0.03267659 0.020254416 -0.007599918 0.023916991 -0.03729781 0.026035963 -0.03863213
-0.030331533 -0.025446985 0.031717747 0.0064438176 0.0025043515 -0.026111636 0.011592254 7.7571596e-05
-0.012750198 0.048746943 -0.039606616 -0.007455932 0.042000767 -0.0060634585 -0.05375724 0.004147586
-0.019132445 0.045324434 0.0077197975 -0.017549247 0.024912871 -0.050656404 -0.0063440455 -0.028316738
0.006322043 -0.04060985 -0.015247714 0.008007189 0.011457029 -0.0021602619 -0.024526823 -0.0025920684
0.003923067 0.029854063 -0.0028377953 0.04582518 -0.0077898204 0.036639564 0.019508412 -0.04571291
-0.052839633 -0.049351837 0.013686666 -0.028993608 0.010241214 0.012318261 -0.0211049 -0.02343704
0.028572084 -0.021073412 -0.041349996 0.035478674 0.0035143667 -0.041161273 0.049686354 0.038928404
0.023782488 -0.021799255 0.020312708 -0.00083475065 0.02797814 0.014548948 0.017962812 -0.05022405
0.026650164 0.022162328 0.0130964285 0.014099335 -0.051117975 0.012384508 -0.037345253 0.037554085
0.017988132 -0.006547438 0.023823434 0.037400488 -0.047351725 -0.0076306257 -0.025377778 -0.026607135
0.00017651051 0.007770237 -0.04539408 0.00273031 -0.03933927 0.010033072 0.026315486 0.045463238
-0.00024851342 -0.024863398 -0.03775493 -0.05085464 -0.025761906 0.0036760764 0.037086662 -0.0108321095
-0.057628825 -0.00803051 -0.00059748563 -0.043055132 -0.0013006476 -0.045437668 -0.019102471 0.0493447
0.008912331 0.035005607 -0.02077978 0.008665799 0.0034543208 -0.038318645 -0.020683141 0.003267087
-0.033552583 -0.023693336 0.007895205 -0.039067693 0.049474925 0.032120828 -0.03738105 0.013535141
-0.01989875 -0.036845416 0.044615462 0.011115606 0.0021802695 0.025623875 0.068924986 0.030097742
-0.04572854 0.076678775 -0.016592987 -0.039803 -0.0391244 -0.013684238 0.0018744012 -0.02029988
-0.029345818 -4.326133e-05 -0.0053018215 0.06836368 0.019632246 -0.04733895 -0.02512664 -0.007914675
-0.03698277 0.043710653 -0.06403624 -0.047709078 -0.016770795 0.0035303263 0.006154591 -0.022979036
-0.016994806 -0.0024189865 0.051919024 -0.019368108 0.009182512 -0.013098801 0.03373759 -0.029952522

model2.4.weight f4 [64, 256]
00000000: 56d2 1abe 025f 043d 7b32 8d3d 38cb 473d
00000010: b59b 213c b275 98bd abcf 61bd 1b0d 21bc
00000020: 624c e4bc df73 c1bc 5983 2f3d 219e 67bc
00000030: 12f4 1dbd 33cd 6f3d b6e1 403c 081a 893b
00000040: f743 ff3c d233 213c 6e6a 01be e705 2abc
00000050: 75d3 9e3c becc 5c3d e205 b7bd 4c2f 5c3d
00000060: 66fc 48bc 241a e03c 5987 febc 01f9 b33c
00000070: 50e4 f43a 1358 dcbb 07e2 b53d 6dfa 12bc
00000080: 71c4 40bd bd87 8fbc 982f d7bc cc2f 1abd
00000090: 4b38 49bd 2015 e73b f1b2 91bd 5632 40bd
000000a0: 11d1 35bd 0398 89bc 8456 92bc 26b2 983c
000000b0: 4139 c6bc 2d13 0dbe e742 9fbd 9863 673c
000000c0: a845 b2bb 7960 573d d278 98bd 9961 ac3b
000000d0: 4573 dc3b 414b 25bd 779a 78bc 7854 f13c
000000e0: 036f 2c3b e1fd cbbc bef3 2e3d feee 89bd
000000f0: 5295 563a ffad 9e3d c758 983c bc6e d03c
00000100: 7a4f a4bd c484 103c 7330 66bd 0110 2e3d
00000110: 5145 c7bd 9cbc 553d 5c78 98bc 389b 02bc
00000120: 8c77 7f3c d04c 293d 90e4 23bd 92ed 0ebd
00000130: 0e70 43bd 6e07 adbd b17b 113d a10f 993c
00000140: e7cd d1ba 7f91 433c a805 4cba b116 af3c
00000150: d285 31bd 4ecc 02bd d01e 73bb f67d 0f3e
00000160: 748f ffbc 99c4 14be 61bc 20bd 2908 96bd
00000170: aa85 103d 8eec e6bc d360 0fbe 1688 18bd
00000180: 6fcd 07bd bd5c 15bd c304 85bd d53a 82bd
00000190: 655d fb3c 597c 20bd 4c18 d6bc 08e1 b83d
000001a0: 3722 bbbc aca8 21be 29c8 35bd 8a05 5f3d
000001b0: 3726 4ebd db44 fc3c 0b48 af3c 6e2a 8bbc
000001c0: 5013 df3b 7a70 17bd c81d e8bc d6b7 bb3c
000001d0: 7e07 5ebc bad5 ab3b 086a 24bd ba14 273d
000001e0: 31aa a8bc cafd b8bd fe1b e3bd 5573 b73d
000001f0: 49dc bc3d b3ba 55bd 2daa 4abd 214a d1bd
00000200: 5899 1b3d cae3 e83c 974e 66bd 51ca b93c
00000210: 6316 af3d 0d32 f13c e490 be3b d3c5 403d
00000220: d73b 15bd 322e 63bd 8ae8 f63c 6a9e 6f3d
00000230: e317 67bd 36b7 e9bc 14c2 3c3c cb5f 653d
00000240: 343e 063d 3185 8a3d d782 f33c 3a34 72bc
00000250: ca95 6cbd c4b8 373d e737 18bc cfe5 c6bd
00000260: 76ec 84bd 8752 e63c 88fd 0cbd 1301 2c3b
00000270: a378 03bd a33b 24bd 431e 7bbc da06 933d
00000280: bbae ab3d 1dec 0a3d 60fb 333c 23f5 48bb
00000290: f427 583b 433e 5dbb 4437 22bd 4a70 6cb9
000002a0: 0cd9 13bd 8603 a53d c9f3 d7bd e08f 5bbd
000002b0: 60d2 893c 5f8f 163d 5e2b 16bd bf05 3a3d
000002c0: 1d69 333d b3de 31be 8f6b 173d 8d4c 41bc
000002d0: 3cf9 4d3d 94f1 80bc 7115 acbc f8af 86bc
000002e0: cffb 86bc d11a c33d 8870 e0bc 846e 283d
000002f0: cd91 843d 5f64 f0bd 6937 883d 4fc3 4c3d
00000300: 60e7 5cbd 3c32 52bd e626 00bd e4ef 8abc
00000310: b88b 4e3d 8dce 65bd bf52 0fba 85c1 0b3e
00000320: 53d4 82bd 00e9 27bd 0a9d afbb addf 82bc
00000330: a9fd 083d b372 84bc fcbb 3abd 2595 e5bd
00000340: 38c4 63bd 81f7 3abd be6b cabc 186d d5bc
00000350: 4810 0c3b 29d8 673c 7f8e 3c3b 7366 203d
00000360: ecda e23b f89f f3bc ed7d bd3d 3240 f4bd
00000370: 088e 1c3d 7545 e23d 8438 8c3c c1c7 073d
00000380: 0f26 5fbd cf72 a9bd 58c2 28bd c5d7 1a3d
00000390: db1e 04be 55fd ec3c e95b 40bd e776 08bd
000003a0: feb7 d13c 68a1 8dbd ac89 c5bd df67 8bbd
000003b0: 47c6 f7bc da7f 7a3c b141 9dbd ce95 2d3d
000003c0: 3732 4c3d 7d37 403b f479 073d 0871 553d
000003d0: c38c 043d 0a0d 5d3a 6eb1 46bd fcd7 3f3d
000003e0: 0ec8 a8bd 1842 f43c 7d8e 1fbd b8fc 4a3d
000003f0: e063 df3d 6a07 a33d 991d 32bd e418 80bd
-0.151193 0.03231717 0.06894394 0.04877779 0.009863784 -0.074443236 -0.05512969 -0.009829785
-0.027868453 -0.023614822 0.042849872 -0.014136822 -0.03856284 0.058545303 0.011772564 0.0041840114
0.031160338 0.009839015 -0.12638256 -0.010377384 0.01938794 0.053906195 -0.08936669 0.053756043
-0.012267208 0.027356215 -0.031070398 0.02196932 0.0018683765 -0.0067243665 0.08881002 -0.008970839
-0.04706234 -0.01752078 -0.026267812 -0.03764324 -0.04912595 0.007052079 -0.071142085 -0.046923004
-0.044388834 -0.016796118 -0.01786352 0.018639635 -0.024197223 -0.13776846 -0.077764325 0.014122866
-0.0054404326 0.052582238 -0.0744492 0.005260658 0.0067276084 -0.04035497 -0.015173546 0.029459223
0.0026311285 -0.024901332 0.04271292 -0.06735037 0.00081857026 0.07748031 0.01859702 0.025443427
-0.080229715 0.008820716 -0.05619855 0.04249573 -0.09730018 0.052181825 -0.01861208 -0.007971577
0.015592467 0.04133302 -0.040012896 -0.034894533 -0.047714286 -0.08448683 0.035518352 0.01868421
-0.0016006798 0.011936544 -0.0007782825 0.021373125 -0.04334051 -0.03193312 -0.0037097223 0.14012894
-0.031196333 -0.14528121 -0.039242152 -0.07325775 0.035283722 -0.02818897 -0.1400178 -0.037239157
-0.0331549 -0.036465395 -0.06495049 -0.063588776 0.030684182 -0.039181087 -0.026134633 0.09027296
-0.022843463 -0.15787 -0.04438034 0.05444864 -0.050329413 0.030794552 0.021396657 -0.016988005
0.006807722 -0.0369725 -0.028334513 0.022914808 -0.013551591 0.005243984 -0.04014018 0.04079125
-0.020588966 -0.090327814 -0.110893235 0.08957545 0.092217036 -0.052180003 -0.0494787 -0.10219217
0.037988037 0.02842893 -0.056227293 0.02267948 0.08549192 0.029442811 0.005815612 0.04706366
-0.03643402 -0.055463977 0.03014018 0.058500685 -0.056419265 -0.028529745 0.011520881 0.05599956
0.032774165 0.067636855 0.029725475 -0.01478296 -0.057760037 0.04485394 -0.009290672 -0.09711801
-0.06490414 0.028115524 -0.034421474 0.0026245757 -0.03209747 -0.040095937 -0.015327039 0.07179041
0.083829366 0.03391658 0.010985225 -0.003066369 0.0032982798 -0.0033759035 -0.039603487 -0.00022548545
-0.036095664 0.08057313 -0.10544545 -0.053604007 0.016823947 0.036757823 -0.036662452 0.045415636
0.043801416 -0.1737011 0.03696781 -0.011798036 0.050286517 -0.015740193 -0.021006318 -0.01644133
-0.016477494 0.09526599 -0.02739741 0.04112102 0.06473122 -0.11737894 0.06651194 0.04999095
-0.053931594 -0.05131744 -0.031287096 -0.016960092 0.050426215 -0.056105185 -0.0005467347 0.1364804
-0.06388154 -0.04099369 -0.0053592967 -0.015975798 0.033445034 -0.016167974 -0.045589432 -0.11210088
-0.05560705 -0.045646194 -0.024709579 -0.026052997 0.002137201 0.014150658 0.0028771458 0.039160203
0.00692307 -0.029739365 0.09252534 -0.11926307 0.03822139 0.11048404 0.017116793 0.033149485
-0.054479655 -0.08273851 -0.041200966 0.03780343 -0.12902395 0.028929392 -0.046962652 -0.03331652
0.02560043 -0.069155514 -0.096453995 -0.06806921 -0.030245913 0.015289271 -0.07678545 0.042379193
0.049852576 0.0029329949 0.033075288 0.052109748 0.032360803 0.0008432424 -0.048509054 0.046836838
-0.082412824 0.029816672 -0.038954247 0.049557418 0.109077215 0.079603985 -0.043485258 -0.062547475

model2.4.bias f4 [64]
00000000: 14f2 2abd 5e06 2f3d 9eec 23bd 9d93 60bd
00000010: 2826 b6bc de9c f9bc b832 acbc e389 823c
00000020: 27a6 313c 3e7a d4bb 43f8 afba 80a3 1fbc
00000030: 5722 02bd b1a3 c2bc 3065 16bd bd81 933c
00000040: 0181 ad3b 5d61 36bd e2f7 0dbd 1531 8f3d
00000050: 491c cc3d dc50 293d e75b a63d bd93 1cbd
00000060: b7df 58bc a39f 89bd 2792 863d 089c 3e3d
00000070: 8744 643d 7148 90bc 8547 c13c 1aa2 44bd
00000080: b703 9a3b bbc4 62bd 5047 4c3d 4ce4 703c
00000090: 684a 82b8 bc6c 35bd 1fbc 36bd c11f 7c3d
000000a0: 6788 2bbc 55a3 c2bc aee7 bbbc a6a5 663d
000000b0: bba6 4dbd 8c6d 113d 5ef7 683d 92dd 9f3d
000000c0: 8948 1dbd 1dc6 0b3d 353d 803c 81af a4bc
000000d0: bf72 90bc 4765 ca3c 2edb f9bc 8865 4bbb
000000e0: a378 8abc 3973 b63c 6a7b 283c b4ad 25bd
000000f0: 7560 88bd fccc adbd 2beb 6abc 0a6b 69bd
-0.04173477 0.04273068 -0.040020578 -0.054828275 -0.022234991 -0.030470308 -0.021020278 0.01593489
0.010842836 -0.006484299 -0.0013425428 -0.009743571 -0.03177103 -0.023759695 -0.036717594 0.0180062
0.0052949195 -0.044526447 -0.034660228 0.069917835 0.099663325 0.04133688 0.08122998 -0.03822683
-0.0132369315 -0.067199014 0.06570845 0.04653552 0.055729415 -0.017612668 0.023593673 -0.048006155
0.00470015 -0.055363398 0.049872696 0.014702868 -6.212742e-05 -0.04429315 -0.044613 0.06155372
-0.010469533 -0.023759523 -0.022937622 0.05631032 -0.050207835 0.035504863 0.056876533 0.07805933
-0.038399253 0.034124482 0.015654186 -0.020103218 -0.01763284 0.024706496 -0.03050002 -0.003103586
-0.016903227 0.02227174 0.01028333 -0.04044886 -0.06659023 -0.08486363 -0.014338295 -0.056986846

model2.6.weight f4 [4, 64]
00000000: 2f40 e03c eebb d2bb 014a 163d 6d3c 3e3c
00000010: 6fd1 c5bd 8170 58bd 438e ffbc fbd2 c13c
00000020: a062 01be 71db 873b 79cb d03d 3c57 ae3d
00000030: 31fe ad3d 677a f83d 6264 513d 904a a3bd
00000040: 10a2 cebd 9439 053c b335 643d b107 0b3e
00000050: 4072 c4bd 5e35 613d 85ff 763c f014 513d
00000060: 6727 8dbd c33d 6e3d f6b8 3f3c c6dd bebd
00000070: 439f 07bd f885 e8bc afa8 053e fdce af3c
00000080: a29b a53c 1304 d7bd b330 13be 6c00 6dbd
00000090: c02d 953d 4edb c53d 2358 2c3c 87e1 8f3d
000000a0: 702f 8abd b5da 673c b63e 08bd 32ed a53d
000000b0: c361 27bd a153 793d 85e7 a43c 8a8e ef3c
000000c0: 8f6b 1ebd 2151 c53c 8174 e43d d660 66bd
000000d0: bdb2 95bc 2874 84bd 2857 9cbc 178a 083e
000000e0: 915f 71bd 5b5f 8b3d f517 2ebc db58 013d
000000f0: 93b4 263d 290a c2bd f465 20bc 4a2d 00be
00000100: ebcb e1bd ff0f 193e c31f 72bc 1a8a 55bc
00000110: 533c 943c 7c14 06bd 4f74 6abd c39f d5bd
00000120: 126d 003e fa0a b6bb d5df 223e e097 e43d
00000130: 97c5 7c3d dd46 943d 7047 343d b3b9 c7bc
00000140: fe23 d43d 2d87 e5bd 01dc 6c3d 93e4 1b3e
00000150: f3b3 24be caba a73d 2d4a 04bc 0982 b03d
00000160: a4a0 883d 3c12 a43c c608 e63d 81ba 28be
00000170: 975f 6e3d d746 333c 4b97 053e 9b1b 84bb
00000180: 8dc3 d9bb 8f13 e23b 6d25 8e3b 12c4 a0bd
00000190: 0b75 023e aec1 4dbd c31d 4ebd c8a5 3abd
000001a0: a499 be3d b0ad 9f3d 6bb2 d63c fa06 1c3d
000001b0: bd42 0dbd 95ff 563d 972c 9ebd 818c 193e
000001c0: 521b ea3d 5d18 2ebd 91a2 583e 746d fc3d
000001d0: 16ec b6bd eb32 eabd 1a83 d5bc 325b 113e
000001e0: aa2e c13d 2696 d3bd 5d04 a7bd f360 2c3d
000001f0: bd4c 013d 0577 cb3b fe57 e63c 19a6 653d
00000200: e883 53bc 3d49 18be dab9 81bd 5510 adbb
00000210: fa13 9cbd dc36 88bd e6fc e73d 757f b13d
00000220: ef44 d7bc 1933 be3b aebb 6c3d 33a9 813d
00000230: 6d03 bcbc 9d7e 2b3c 645b 5b39 a4ac 63bd
00000240: f33f dfbd f84f ab3d 92c0 97bc 41ae 163c
00000250: adb9 01be 1b2b 7b3d 5658 f4bd 0b9a d8bd
00000260: b5f4 be3d 1254 19bd ff76 9fbd d3cb edbd
00000270: e817 cc3d 445f 3a3d 84c5 82bc 84ee 7ebd
00000280: 0715 a3bc f31a 29bd 48cf cb3c 30b2 99bd
00000290: 9ca8 b0bc 35ee 833d 606b 6e3d b817 53bd
000002a0: 86f1 db3d 2ae8 d3bd 1a2c 69bb eb06 2c3d
000002b0: 74eb c6bd 8070 a8bd 5589 ca3b 6c67 87bc
000002c0: 8279 873d b515 a23d b3bd 87bd b48a 003e
000002d0: 3195 2abd de3f bdbd 172b 93bd dafa 823d
000002e0: 2b3f d6bd ef17 a63d 7eff 4a3c e407 bd3c
000002f0: fc29 d3bd ac76 f6bd 6a9c c63d 559d 7c3d
00000300: fe98 64be de0a f9bd 175b 1abd 6af1 12bd
00000310: 0b84 2b3d 611b 26be 34bd cfbd e99c 9fbd
00000320: 34ba 19be 69a0 9f3c 9687 843d f7b6 163e
00000330: eba9 e1bd 64f4 823d 6808 e93d d587 21bd
00000340: a322 d2bc a209 b53d fcea 503d 7ebd 67bc
00000350: 9520 26be 3b34 71bd 1a31 d83c 96bc b3bd
00000360: d0bf 6b3c 9332 dbbc 1b3d fdbd f0a3 963d
00000370: c21f d53b 297e 363e 76a2 893d dd5b 4cbc
00000380: 2ffb f3bd 2d64 9bbc dd7e 743d 7e4c dd3d
00000390: 93df 69bd edf3 69bc 4a60 49bc 7c86 aabd
000003a0: d265 b2bd 86bb 0dbd 0d2e 8dbb 02b7 b13d
000003b0: 8641 653d 3587 743d fd74 0b3d 199a 8fbd
000003c0: f336 e3bc b77b 91bb 38e4 11be fc4a 3e3e
000003d0: 69a9 a8bb 84fc b83c 5e0b f9bd 5665 153e
000003e0: 59aa afbc 06a5 abbc a0bb 203e 4a15 5abd
000003f0: 5296 343c 8221 5f3c 2ea4 a1bd 997f debb
0.027374355 -0.0064310944 0.03669167 0.011611086 -0.09659087 -0.052841667 -0.031195765 0.023660174
-0.12635279 0.0041460325 0.10195059 0.085127324 0.08495749 0.121327214 0.051121123 -0.07973206
-0.10089505 0.0081314035 0.055715274 0.13577153 -0.09592104 0.054982536 0.015075569 0.05104536
-0.06892281 0.05816437 0.011701813 -0.09319644 -0.03311087 -0.028384194 0.13052629 0.021461004
0.020215813 -0.10498824 -0.14374046 -0.05786173 0.07284117 0.0966097 0.01051906 0.07025438
-0.06747329 0.014151265 -0.03326293 0.08101882 -0.040864717 0.06087077 0.020129928 0.029242773
-0.038676795 0.024086537 0.11155034 -0.056244694 -0.018273706 -0.064674675 -0.019084528 0.13333927
-0.05892903 0.06805297 -0.010625829 0.03157888 0.040699553 -0.09474594 -0.0097899325 -0.12517276
-0.110252224 0.14947508 -0.01477808 -0.013033414 0.018095171 -0.03273438 -0.057239827 -0.10430863
0.12541607 -0.0055555077 0.15905698 0.1116178 0.061711874 0.072400786 0.04401344 -0.02438054
0.103584275 -0.11207423 0.057827 0.15223913 -0.1608427 0.08189924 -0.0080743255 0.08618552
0.06671265 0.020028226 0.11232142 -0.16477396 0.05819663 0.0109421825 0.13045995 -0.004031611
-0.006645626 0.006899304 0.0043379576 -0.078498974 0.12739961 -0.050233535 -0.05032135 -0.045568258
0.093066484 0.077968 0.026208123 0.03809259 -0.034487475 0.052489836 -0.077233486 0.14995004
0.11430992 -0.042503703 0.21155764 0.12325564 -0.089317486 -0.11435493 -0.02606349 0.14194945
0.094327286 -0.10331373 -0.08155129 0.042084645 0.031567324 0.0062092566 0.02811813 0.056066606
-0.012909867 -0.14871688 -0.063342765 -0.005281488 -0.07620998 -0.066510886 0.113275334 0.086668886
-0.026277987 0.005804431 0.057796173 0.063311 -0.022950852 0.010467199 0.00020919513 -0.055584565
-0.10900869 0.08364862 -0.018524442 0.009196819 -0.12668486 0.061320405 -0.11930911 -0.10576256
0.09324018 -0.03743369 -0.077863686 -0.11611142 0.09965497 0.04550101 -0.015963323 -0.062239185
-0.019907488 -0.041285466 0.024879113 -0.0750469 -0.021564774 0.06441919 0.05820787 -0.05153629
0.10739426 -0.10347016 -0.0035579265 0.041998785 -0.09712878 -0.08224583 0.006180922 -0.016528808
0.06614973 0.079142965 -0.06627979 0.12552911 -0.041646186 -0.09240697 -0.07185953 0.063955024
-0.10461267 0.08110034 0.012390016 0.023075052 -0.10310742 -0.120343536 0.09697802 0.06167348
-0.22323987 -0.12160276 -0.037684526 -0.03587476 0.041873973 -0.16221382 -0.101435095 -0.077936
-0.15012437 0.01948567 0.064711735 0.14718233 -0.110187374 0.0639427 0.113785565 -0.03943618
-0.025651282 0.08839728 0.05100535 -0.0141443 -0.16223367 -0.0588877 0.026390601 -0.08776204
0.014388993 -0.026757514 -0.123651706 0.07355487 0.00650403 0.17821564 0.0672044 -0.012473074
-0.11913144 -0.018968666 0.0596913 0.10805605 -0.057097983 -0.014279348 -0.0122910235 -0.08326432
-0.08710827 -0.034602664 -0.004308468 0.08677484 0.05597069 0.059699256 0.034047116 -0.07011814
-0.027736163 -0.004439797 -0.14247215 0.18583292 -0.0051471484 0.022581346 -0.12160371 0.14589438
-0.021443533 -0.020952713 0.15696573 -0.05324296 0.011022167 0.013618829 -0.07892643 -0.006790113

model2.6.bias f4 [4]
00000000: ddf6 ddbc 2b96 b63d a2ec a93d 3751 7bbc
-0.027095253 0.08915361 0.08297087 -0.015339187
