model_weight/actor/14_14 03:25:00 std 0.5 lr_actor_0.004- gamma_0.9 memory300 actor_weight.pth (torch, 646091 bytes, 9 tensors)

std f4 [4]
0	0xbc422680	-0.011849999
1	0x3d5361fe	0.051607125
2	0x3ca33de4	0.019926973
3	0x3d6b628c	0.05746703

model2.0.weight f4 [512, 24]
0	0xbe42a10e	-0.1900675
1	0x3c395206	0.01131106
2	0x3dda61af	0.10663163
3	0x3d950b16	0.07277505
4	0x3d8117c1	0.06303359
5	0x3d9b7c69	0.07592089
6	0x3def15d3	0.116740845
7	0xbd22d1cc	-0.03975086
8	0x3dfe5f10	0.124204755
9	0x3e04e671	0.12978531
10	0xbbe766cc	-0.007061815
11	0xbd973e74	-0.07384959
12	0xba9fff02	-0.0012206736
13	0xbd996ffb	-0.07492062
14	0xbe723a8e	-0.2365515
15	0xbcc73674	-0.024317957
16	0x3e22a35c	0.15882629
17	0x3e18dbd4	0.14927608
18	0x3d59ad89	0.05314401
19	0x3d8acb8c	0.06777105
20	0xbd6153c6	-0.055011533
21	0xbd50d173	-0.050980996
22	0xbe217d7c	-0.15770525
23	0xbdc4c1f9	-0.0960731
24	0xbe50e433	-0.20399551
25	0xbd1452e0	-0.03621185
26	0xbded2a7d	-0.115803696
27	0xbdc54733	-0.09632721
28	0x3d516e3a	0.05113051
29	0xbb73bdc6	-0.0037191971
30	0x3e6581bc	0.22412771
31	0x3c108f8a	0.008823285
32	0xbe1985a2	-0.14992383
33	0xbc364e1f	-0.011127024
34	0x3dff04a7	0.12452059
35	0xbe6a496c	-0.2287957
36	0xbde41a02	-0.11137773
37	0xbd8ae0ca	-0.06781156
38	0xbe0d02fa	-0.13770667
39	0x3e05e49a	0.13075486
40	0xbb3c1313	-0.0028697893
41	0xbe030e02	-0.12798312
42	0xbda1f91b	-0.07908841
43	0xbe513ad8	-0.20432603
44	0xbbb30d66	-0.0054642437
45	0xbd4f769f	-0.050650235
46	0xbdafd9cf	-0.085864656
47	0x3e31e3e4	0.1737209
48	0x3df5f78b	0.12010106
49	0xbd8dceba	-0.069241956
50	0xbe8a6ab9	-0.27034548
51	0x3c073217	0.008251688
52	0x3e43b62c	0.19112462
53	0x3d05ab67	0.032634165
54	0xbe3a1bd5	-0.1817468
55	0xbe10ba9b	-0.14133684
56	0xbd32ea81	-0.04368067
57	0xbe569cd7	-0.20958267
58	0xbe0ce100	-0.13757706
59	0x3e05d37f	0.1306896
60	0xbdcaf434	-0.09909859
61	0x3d6a55ee	0.057210855
62	0x3e6f743f	0.23384188
63	0x3e6c1aaa	0.23057047
64	0xbd9d0856	-0.076676056
65	0x3d921bd8	0.07134217
66	0x3c6fe692	0.014642375
67	0xbde4786c	-0.11155781
68	0xbd412011	-0.04714972
69	0x3cd3f29b	0.02587252
70	0xbd0879e9	-0.033319388
71	0x3dd08606	0.10181813
72	0x3d964077	0.073365144
73	0x3e35d71d	0.1775784
74	0xbd341cbe	-0.043972723
75	0x3dc2fd26	0.095209405
76	0xbcc860b3	-0.024460172
77	0x3df0e9de	0.117633566
78	0x3dfc7cc4	0.12328485
79	0xbe2418ff	-0.1602516
80	0xbe3e60e0	-0.18591642
81	0x3df967d7	0.12178009
82	0xbcebbdac	-0.028776966
83	0xbde8b8e7	-0.11363392
84	0x3db0129e	0.08597301
85	0x3d2c4841	0.042061094
86	0xbc6c3f35	-0.014419367
87	0x3d38b87a	0.045097806
88	0xbe43dd84	-0.1912747
89	0x39c825ad	0.00038175043
90	0xbe6bfcca	-0.2304565
91	0xbdc222d6	-0.09479301
92	0xbe811fd9	-0.2521961
93	0x3d75af90	0.059981883
94	0xbe1f1b5b	-0.15537779
95	0xbdf2ad46	-0.118494555
96	0xbe23f499	-0.16011275
97	0xbe57b151	-0.21063735
98	0x3d161ce5	0.03664865
99	0xbe3be6f2	-0.18349817
100	0x3dc9fd30	0.09862745
101	0xbe1854ce	-0.148761
102	0x3e702eac	0.23455304
103	0x3dceecfb	0.10103794
104	0xbe87001e	-0.26367277
105	0x3e1c5337	0.15266119
106	0xbe18db06	-0.14927301
107	0xbe1ae953	-0.15128069
108	0xbde26c42	-0.11055805
109	0xbbe5bfc3	-0.007011385
110	0x3d9c1568	0.076212704
111	0x3e08c4b3	0.13356285
112	0x3daa75bf	0.083232395
113	0x3db43f73	0.088011645
114	0xbdb482a8	-0.08813983
115	0xbce331b5	-0.027733663
116	0xbd612181	-0.054963592
117	0x3b97d210	0.0046331957
118	0x3d1b92c6	0.03798177
119	0xbd4111b7	-0.047136035
120	0xbdcd4f28	-0.100248635
121	0xbe25da98	-0.16196668
122	0x3dd50069	0.10400469
123	0xbb7dbad6	-0.00387161
124	0x3e7af102	0.24506
125	0x3e2faa4c	0.17154807
126	0x3c0ac0fe	0.0084688645
127	0xbdbff7fa	-0.0937347
128	0x3e1bd899	0.15219344
129	0xbd91a81e	-0.07112144
130	0xbe257492	-0.1615775
131	0xbd296b6f	-0.041362222
132	0xbe3a6e28	-0.18206084
133	0x3d045126	0.03230395
134	0x3e04a622	0.12954
135	0xbe125a6f	-0.1429231
136	0x3ce9f3f4	0.028558709
137	0x3e65ba8f	0.22434448
138	0xbe0aa19a	-0.13538209
139	0x3e55252a	0.20814958
140	0x3db42e9f	0.08797955
141	0x3d4547af	0.048164066
142	0xbcfff143	-0.031242972
143	0x3e493895	0.1965049
144	0x3e01c1ca	0.12671581
145	0x3d8ea9d0	0.06965983
146	0x3e3a27dc	0.18179268
147	0xbe1824d0	-0.14857793
148	0x3e43e39f	0.191298
149	0x3d99101f	0.07473778
150	0xbd8ec232	-0.069706336
151	0xbe38007a	-0.17968932
152	0x3c77fb4f	0.0151356
153	0xbbd44874	-0.0064783636
154	0x3e2ba909	0.167637
155	0x3da68c56	0.08132236
156	0x3db268cc	0.08711395
157	0x3ccfa2fe	0.025346275
158	0xbe5d765d	-0.21627183
159	0xbd267fa3	-0.040649068
160	0xbe06131f	-0.13093232
161	0x3d806c69	0.062706776
162	0x3cf308cb	0.029667279
163	0xbd4fa476	-0.05069395
164	0x3de0f818	0.1098482
165	0xbba3145f	-0.0049767937
166	0xbe7a2728	-0.24429
167	0x3d8e1c9a	0.06939049
168	0x3de563ac	0.112006515
169	0xbe446e86	-0.19182786
170	0xbd6633a4	-0.056201592
171	0xbde6c08a	-0.11267193
172	0xbdb72ae3	-0.08943727
173	0x3e0dd696	0.1385139
174	0x3df63e1b	0.120235644
175	0xbde93531	-0.113870986
176	0xbe44270c	-0.1915552
177	0xbd8d27e2	-0.06892373
178	0xbe36c903	-0.17850117
179	0x3de6b503	0.11264994
180	0xbe751ecf	-0.23937534
181	0x3a2a9dd2	0.00065085024
182	0x3d845a76	0.064625666
183	0xbd5b2586	-0.053502582
184	0xbdff0984	-0.12452987
185	0x3dd317ac	0.103072494
186	0x3ddee93e	0.10884331
187	0xbd5ac1dd	-0.05340754
188	0xbe18262c	-0.14858311
189	0xbe101a98	-0.14072645
190	0xbe5ce883	-0.21573071
191	0xbe676e9e	-0.22600791
192	0xbe57aa4c	-0.21061057
193	0x3df60c61	0.1201408
194	0xbe45b457	-0.19307075
195	0xbdee7a90	-0.11644471
196	0xbc33fe13	-0.010985869
197	0xbe08168b	-0.1328985
198	0xbe1c79cb	-0.15280835
199	0xbe123ac7	-0.14280234
200	0x3d2f1290	0.042742312
201	0xbe729138	-0.23688209
202	0xbe16a3d8	-0.14710939
203	0xbe19ed30	-0.15031886
204	0x3ca4eab7	0.020131452
205	0xbe05405d	-0.13012834
206	0x3dc8e84c	0.09809932
207	0x3ba7309a	0.0051022293
208	0x3dd084bb	0.10181566
209	0x3d163c78	0.03667876
210	0xbe30d737	-0.17269598
211	0x3d8d26ee	0.06892191
212	0x3d96c707	0.0736218
213	0x3cc11260	0.023568332
214	0x3e1aa2c8	0.15101159
215	0xbe398805	-0.18118294
216	0x3e84bda1	0.25925925
217	0x3e460172	0.19336489
218	0xbd9ac685	-0.07557396
219	0x3dea5068	0.114411175
220	0xbe83defc	-0.2575606
221	0xbce44e3a	-0.027869333
222	0xbca4aa29	-0.02010067
223	0x3d67097c	0.05640553
224	0xbe0ab314	-0.13544875
225	0xbdfb1168	-0.12259179
226	0x3e5e09ce	0.21683428
227	0x3d8621f8	0.06549448
228	0x3e03d54c	0.12874335
229	0xbdc1ad0a	-0.09456833
230	0xbe14b576	-0.14522347
231	0xbcb149f5	-0.02164171
232	0xbdea42da	-0.11438532
233	0xbc8197c6	-0.015819442
234	0xbd4bff02	-0.04980374
235	0x3c2c733d	0.010525522
236	0xbe2a07d7	-0.16604553
237	0x3db58c7d	0.08864687
238	0x3daa646e	0.08319937
239	0x3df5e479	0.12006468
240	0x3e6a1679	0.22860135
241	0x3e618f64	0.22027355
242	0x3e04c0da	0.12964192
243	0x3d9f05c7	0.07764774
244	0xbe90ba0a	-0.28266937
245	0xbe036cbe	-0.1283445
246	0xbe7244f6	-0.23659119
247	0x3d9a20f6	0.07525818
248	0x3e18ca8b	0.14921014
249	0xbd44d996	-0.04805907
250	0xbe0fe55e	-0.1405234
251	0x3de40659	0.11134023
252	0xbd092531	-0.033482734
253	0xbe0e67e0	-0.13906813
254	0xbe1a2c3f	-0.15055941
255	0x3d8e92f7	0.06961625

model2.0.bias f4 [512]
0	0xbe4675d9	-0.19380893
1	0xbdeb55d4	-0.1149098
2	0xbdd84e29	-0.10561783
3	0x3e1665c0	0.14687252
4	0x3dae3ee2	0.08508088
5	0x3bf0e35a	0.007351321
6	0xbd4f7f4b	-0.050658505
7	0x3d9b5cb9	0.07586045
8	0x3cf6a273	0.030106759
9	0x3d7c22bb	0.06155656
10	0x3d8e0915	0.06935326
11	0xbda47280	-0.08029652
12	0xbe3a4ee4	-0.18194157
13	0xbd4445aa	-0.047918
14	0x3d01d6da	0.03169904
15	0x3b911ab0	0.00442823
16	0x3dbf3d39	0.09337849
17	0x3e162f5b	0.14666502
18	0x3e3954ff	0.1809883
19	0xbe4257e4	-0.1897884
20	0xbe5d5c0a	-0.21617141
21	0x3dcb0a13	0.09914031
22	0xbe2ce780	-0.16885185
23	0xbe1faba9	-0.15592827
24	0x3c9e08be	0.019291278
25	0x3d797d75	0.06091066
26	0xbe47061d	-0.19435926
27	0x3cd46063	0.025924867
28	0x3e4fe251	0.20301177
29	0xbdc74b6b	-0.09731182
30	0x3b64a83a	0.003489031
31	0x3ddba8ac	0.10725531
32	0x3d57ce83	0.05268718
33	0xbd023a32	-0.03179378
34	0x3cbd6bee	0.023122754
35	0xbe08e5ad	-0.13368864
36	0xbe16caf2	-0.14725855
37	0x3d17a9ee	0.037027292
38	0xbe079e18	-0.13243902
39	0x3d84e88e	0.06489669
40	0xbde1b717	-0.1102125
41	0x3e02970f	0.12752937
42	0xbce3ab19	-0.027791547
43	0xbdc3cd82	-0.09560682
44	0x3d82d457	0.06388157
45	0xbdb739b5	-0.089465536
46	0x3e47f659	0.19527568
47	0xbdbe4a45	-0.092915095
48	0xbcf6c08a	-0.030121107
49	0x3d09b9c4	0.033624426
50	0xbd8de688	-0.06928736
51	0xbd9b0d40	-0.075708866
52	0xbd9c329e	-0.07626842
53	0xbdfbe786	-0.12300019
54	0xbd40f34f	-0.047107037
55	0xbd497770	-0.04918617
56	0xbe6606f2	-0.22463587
57	0xbde874ea	-0.113504246
58	0x3dab777e	0.08372401
59	0x3d96d5db	0.073650084
60	0xbd8e66ca	-0.06953199
61	0x3c967b31	0.01836929
62	0x3df03087	0.11728006
63	0x3d9db737	0.07700961
64	0x3d0f5568	0.03499356
65	0x3d478cc2	0.04871822
66	0x3d059163	0.032609355
67	0x3dd6a104	0.1047993
68	0xbdf7331f	-0.120702974
69	0x3d104e78	0.035231084
70	0xbc33a062	-0.010963531
71	0xbdd10329	-0.10205681
72	0xbe0260a5	-0.1273218
73	0x3dcd5d00	0.10027504
74	0x3d55d9b0	0.052209556
75	0x3de71cca	0.11284788
76	0xbcf75e18	-0.030196235
77	0x3e1d429d	0.15357442
78	0xbdde5934	-0.10856858
79	0x3d36ee9c	0.04466115
80	0xbdfbeef7	-0.12301438
81	0xbc8d0f5d	-0.01721924
82	0x3d104c5b	0.03522907
83	0x3e52f6f3	0.20602016
84	0xbe1726da	-0.14760914
85	0x3d0be651	0.034155194
86	0xbd8be691	-0.068310864
87	0xbad17757	-0.0015981001
88	0x3e171a27	0.1475607
89	0xbcd6cf8c	-0.026222013
90	0x3e1cb630	0.15303874
91	0x3dc1701d	0.09445212
92	0xbc759a72	-0.014990436
93	0x3d801a98	0.06255072
94	0x3e078c27	0.13237058
95	0x3e0989f6	0.13431534
96	0xbd3b88fd	-0.04578494
97	0x3e4c90d4	0.19977123
98	0x3e4d46c4	0.20046526
99	0x3ca755ec	0.020426713
100	0xbe21af8e	-0.15789625
101	0x3e189a57	0.14902626
102	0xbdd22a8d	-0.10262022
103	0x3d09e2ed	0.03366368
104	0xbdbd1b21	-0.0923369
105	0xbe39d951	-0.18149306
106	0x3e1f99fb	0.15586083
107	0xbd06f98d	-0.032952834
108	0xbe365831	-0.1780708
109	0xbd4225f2	-0.04739947
110	0xbd90c561	-0.07068897
111	0xbdc9559f	-0.09830784
112	0x3deccb26	0.11562185
113	0xbdf60a17	-0.12013643
114	0xbd854ac9	-0.06508405
115	0xbcdbd258	-0.026833698
116	0x3e467258	0.19379556
117	0xbe02a891	-0.12759615
118	0x3dc458eb	0.09587272
119	0xbe01c7bb	-0.12673847
120	0x3dd94e2f	0.106106155
121	0x3d48faf5	0.049067456
122	0xbc150a0b	-0.009096633
123	0x3a8cb249	0.0010734285
124	0xbe2a307f	-0.16620062
125	0xbd9fccfd	-0.0780277
126	0xbcf7220c	-0.030167602
127	0x3e09e94b	0.134679
128	0xbe1d8e01	-0.15386201
129	0xbad9e709	-0.001662464
130	0x3e06ee1b	0.13176768
131	0x3e15581e	0.14584395
132	0xbd66e5d2	-0.056371517
133	0x3e149fe8	0.14514124
134	0x3daba91e	0.08381866
135	0xbc448a13	-0.01199581
136	0x39ade02c	0.00033164152
137	0x3e0f684a	0.14004627
138	0x3e334bd9	0.17509402
139	0xbdc0f9fc	-0.09422681
140	0xbdf7fd70	-0.12108886
141	0xbe179da6	-0.14806232
142	0x3e2a7256	0.16645178
143	0xbe2fdab7	-0.17173277
144	0xbbe5a82a	-0.007008572
145	0x3dabbace	0.083852395
146	0x3d8e7f94	0.06957927
147	0xbd8661de	-0.065616354
148	0xbd1bfe71	-0.03808445
149	0x3e7aef7b	0.24505417
150	0xbc3b7a00	-0.011442661
151	0xbd118188	-0.03552392
152	0xbd1ff852	-0.039055176
153	0x3e1b2476	0.15150627
154	0x3e05a8a8	0.13052619
155	0x3e014513	0.12624006
156	0x3db0f0b4	0.086396605
157	0x3dcf504d	0.10122738
158	0x3d57caef	0.052683767
159	0x3e54c488	0.20778096
160	0xbe42b2cb	-0.19013517
161	0x3d8849e0	0.066547155
162	0xbca8e30b	-0.020616075
163	0x3cdfa3bd	0.027299756
164	0xbd21c1a2	-0.039491303
165	0xbdc3cc76	-0.09560482
166	0x3e03df9d	0.1287827
167	0xbe30f83b	-0.17282192
168	0xbda9c15a	-0.08288832
169	0x3d0070b2	0.031357475
170	0x3c51cb3b	0.012804802
171	0x3e2b8c87	0.16752826
172	0x3dba4736	0.09095614
173	0x3d071ddb	0.032987457
174	0xbb1586be	-0.0022815908
175	0xbdf5b422	-0.11997248
176	0x3dab90df	0.08377241
177	0xbe2602e1	-0.16212036
178	0x3e11248a	0.14174095
179	0xbd80b167	-0.06283837
180	0x3e317d91	0.17333056
181	0x3e157011	0.14593531
182	0xbe1034a2	-0.14082578
183	0xbd668a78	-0.056284398
184	0xbe0296e0	-0.12752867
185	0xbe19c7b0	-0.15017581
186	0x3da8f643	0.08250096
187	0x3daaeae6	0.083455846
188	0x3d3253b1	0.043536846
189	0xbe559baf	-0.2086017
190	0x3d8a5278	0.06754011
191	0x3d4c506d	0.049881388
192	0x3d61d349	0.055133138
193	0x3cd07c7e	0.025449988
194	0xbd9b455e	-0.0758159
195	0x3d8fc4dd	0.070199706
196	0xbe1ca8d7	-0.15298782
197	0x3e1ebcfd	0.15501781
198	0x3e40604b	0.18786733
199	0x3e15b71e	0.14620635
200	0xbd912a75	-0.07088176
201	0x3d81a644	0.06330541
202	0x3d8dfa8f	0.06932556
203	0xbda48537	-0.08033221
204	0x3daedd5f	0.08538317
205	0xbd339a79	-0.04384849
206	0x3e0abbf2	0.13548258
207	0xbe09e7a5	-0.13467272
208	0x3da34e6d	0.07973943
209	0x3e08ba5b	0.13352339
210	0xbe05f3b8	-0.13081253
211	0x3d458485	0.048222084
212	0xbddd95aa	-0.10819562
213	0x3de412e6	0.11136417
214	0xbcd5892c	-0.026066385
215	0xbe122b7d	-0.14274402
216	0xbe2b8545	-0.16750057
217	0xbe13084e	-0.14358637
218	0x3df6a7ba	0.1204371
219	0xbd5959dc	-0.053064212
220	0xbdf8af28	-0.121427834
221	0x3d32994d	0.04360323
222	0xbe6d075f	-0.23147343
223	0x3e2a0c7f	0.1660633
224	0xbd0f5d1b	-0.0350009
225	0xbd5a4f19	-0.05329809
226	0xbd8add7d	-0.06780527
227	0xbd6c10ef	-0.057633337
228	0xbd9c0f2b	-0.076200806
229	0xbd05a1eb	-0.03262512
230	0xbd9cc233	-0.07654228
231	0x3d459691	0.048239294
232	0xbde3e5d8	-0.111278236
233	0x3da7a5c5	0.08185915
234	0xbe2cfa9d	-0.16892476
235	0x3df879a6	0.121325776
236	0x3cadc579	0.021212326
237	0xbe5048df	-0.20340298
238	0x3e20e285	0.1571141
239	0xbe3e09c7	-0.18558417
240	0xbe220c89	-0.15825094
241	0x3dfb1ca4	0.12261322
242	0xbe0380e3	-0.12842135
243	0x3e05bea2	0.13061002
244	0xbc4b2642	-0.012399258
245	0xbd46dc84	-0.048550144
246	0xbd537860	-0.05162847
247	0xbe02afde	-0.127624
248	0xbd358894	-0.044319704
249	0x3e08769f	0.133265
250	0x3dcac394	0.09900585
251	0xbd5d3b11	-0.05401141
252	0x3e41e72f	0.18935846
253	0xbd9cc5f8	-0.07654947
254	0x3e093eaa	0.1340281
255	0xbe03366c	-0.12813729

model2.2.weight f4 [256, 512]
0	0x3b93e4cb	0.004513358
1	0xbd512041	-0.05105615
2	0x3cc112f2	0.023568604
3	0xbd06c77a	-0.03290508
4	0x3c3e9f46	0.011634653
5	0x3c7f9b3d	0.0156009765
6	0xbc7c1fab	-0.01538841
7	0xbd06e3ce	-0.032932095
8	0xbc0eee43	-0.008723798
9	0x3d0925b3	0.03348322
10	0x3c27810a	0.010223636
11	0xbbe6c0d7	-0.0070420313
12	0xbc9bf1ee	-0.01903626
13	0xbc957002	-0.018241886
14	0xbd33a920	-0.043862462
15	0x3c414e06	0.011798387
16	0xbcbe3792	-0.023219857
17	0xbd418906	-0.047249816
18	0xbd621838	-0.055198878
19	0x3c30be13	0.010787505
20	0xbcf3a0cc	-0.02973976
21	0x3c895577	0.016764386
22	0xbaea2e1b	-0.0017866524
23	0x3d1a18b3	0.03762121
24	0xbce20464	-0.027589984
25	0xbccf3e1b	-0.025298169
26	0xbc9876d0	-0.018611342
27	0x3d01d521	0.031697396
28	0xbbee94b7	-0.007280912
29	0xb93253d1	-0.00017006627
30	0x3c4d5875	0.012533297
31	0xbd37397e	-0.044732563
32	0xbc0b4daf	-0.008502408
33	0xbcf42cec	-0.029806577
34	0xbcd175d1	-0.025568875
35	0x3d22b49f	0.039723035
36	0xbca3f80f	-0.020015744
37	0xbc7133d4	-0.014721829
38	0x3ce6cd8b	0.028174182
39	0xbcb4de3b	-0.022078624
40	0x3cc5e904	0.024158962
41	0x3c896560	0.016771972
42	0x3cafede8	0.021475747
43	0x3bb7f48a	0.005613868
44	0xbc93239b	-0.017961314
45	0xbd26a6bd	-0.040686358
46	0xbd065da9	-0.032804165
47	0xbc98f2dd	-0.018670494
48	0x3cd9ee06	0.026602756
49	0x3cdbdf1a	0.026839782
50	0x3c8a900c	0.01691439
51	0x3cd0bc36	0.025480371
52	0xbcad4a92	-0.021153722
53	0xbbfa68ca	-0.0076418864
54	0x3cb60be6	0.02222247
55	0xbd48b7fb	-0.049003582
56	0x3ceef609	0.029170053
57	0x3b9db2df	0.004812583
58	0xbd79b7b2	-0.0609662
59	0xbd6d4d90	-0.057935297
60	0xbcf927ac	-0.030414425
61	0x3a5d7c48	0.00084490003
62	0x3c33d64e	0.010976387
63	0xbcd7a8d6	-0.026325624
64	0xbd32a711	-0.04361636
65	0xba85a529	-0.0010196316
66	0x3cbf03cd	0.023317242
67	0xbc879630	-0.016551107
68	0xbd050d1b	-0.0324832
69	0xbd25f11b	-0.04051314
70	0xbc4e5fbf	-0.01259607
71	0x3abff286	0.0014644421
72	0xbb138b0e	-0.0022513303
73	0x3a747093	0.0009324636
74	0x3c6942ca	0.014237115
75	0xbd243bcb	-0.040096086
76	0xbcb3433f	-0.021882651
77	0xbcbd721b	-0.023125699
78	0xbcb1efcf	-0.021720795
79	0x3c366430	0.011132285
80	0xbd7bc6d1	-0.061468903
81	0xbcb72568	-0.022356704
82	0x3b9445d8	0.0045249276
83	0xbd1f8a8b	-0.038950484
84	0x3a69d02c	0.00089192647
85	0x3bb9b6c1	0.005667538
86	0xbd5180f8	-0.051148385
87	0xbcef1734	-0.029185869
88	0xbca58f30	-0.020209879
89	0xbcb247a8	-0.021762684
90	0xbcd543e1	-0.026033344
91	0xbbbb86a7	-0.005722839
92	0x3cecd0ce	0.02890816
93	0xb9794e34	-0.00023775623
94	0xbd4bae8e	-0.049727015
95	0x3c3a430b	0.011368523
96	0x3c112d00	0.0088608265
97	0xbb5c861e	-0.0033649276
98	0xbac9bd0e	-0.0015391426
99	0x3cbea320	0.023271143
100	0xbcb24471	-0.021761151
101	0xbd5e5302	-0.05427838
102	0xbb69ddb0	-0.0035685115
103	0xbd1ee9ee	-0.03879731
104	0xbadbe29e	-0.0016775911
105	0xbd252b15	-0.04032429
106	0xbc130299	-0.008972787
107	0x3c9ea139	0.019363986
108	0x3c3addb9	0.011405402
109	0xbc2ef1b6	-0.010677746
110	0x3ce3e511	0.027819188
111	0xbd0cf141	-0.034409765
112	0xbd36cead	-0.044630695
113	0x3cbeae3f	0.023276446
114	0xbd1ed2b8	-0.038775176
115	0x3c7b22df	0.015328138
116	0xbd45a212	-0.048250265
117	0xbccbc412	-0.024873767
118	0xbcb1685f	-0.021656213
119	0x3c62a24a	0.013832638
120	0xbc5e6459	-0.013573729
121	0xbd0b448d	-0.034000922
122	0xbc6f5795	-0.0146082835
123	0x393c0311	0.0001793022
124	0xbce9dcda	-0.028547693
125	0x3cc97c4f	0.024595408
126	0x3d044db6	0.032300673
127	0xbd3329ab	-0.04374091
128	0x3d022ba6	0.031779908
129	0xbc889930	-0.016674608
130	0xbceb1a13	-0.028698957
131	0xbcdf8a42	-0.027287606
132	0x3cc9756e	0.024592128
133	0xbc5524b7	-0.013009242
134	0x3c3e6d4a	0.011622736
135	0xbd0a99af	-0.03383797
136	0xbc8dd0e3	-0.017311519
137	0x3b8df3f9	0.0043320623
138	0x3c844e7f	0.016150711
139	0xbd2fb024	-0.04289259
140	0xbd3ee0ef	-0.046601232
141	0x3cc2bab5	0.02377067
142	0xbca11b82	-0.019666437
143	0x3ce80b9e	0.028325852
144	0xbc49f48a	-0.012326369
145	0xbd0c593c	-0.034264788
146	0x3be41e71	0.0069616367
147	0xbd31087c	-0.043220982
148	0x3cb0fdcc	0.021605395
149	0xbd4b95c4	-0.049703375
150	0xbca9a7e7	-0.020709945
151	0xbd24cf8d	-0.040237
152	0x3b4b9949	0.0031066707
153	0xbbc917ea	-0.006136884
154	0xbcb3a4c1	-0.021929147
155	0xbb0ac19d	-0.0021172531
156	0xbd1f15ed	-0.03883927
157	0x3d1c2c77	0.038128342
158	0xbbad07b0	-0.0052804574
159	0xbc96f780	-0.018428564
160	0x3cc41e5e	0.023940261
161	0x3cf44b0d	0.029820943
162	0xbd3eaad1	-0.046549622
163	0x3c81d51d	0.01584869
164	0xbcf37043	-0.029716616
165	0x3c93f35b	0.018060377
166	0xbd481569	-0.048848543
167	0xba9b6222	-0.0011854807
168	0x3cfcf302	0.030877594
169	0xbc21da9c	-0.009878781
170	0xbcd53978	-0.02602838
171	0xbcd5c99e	-0.026097115
172	0x3cbd2d5c	0.023092918
173	0xbcb59ca0	-0.022169411
174	0xbcaf1030	-0.021370023
175	0xbcf92db7	-0.030417306
176	0xbc5b2038	-0.013374381
177	0x3c48c156	0.012253126
178	0xbc1299d5	-0.008947809
179	0x3c9bdfbd	0.019027585
180	0xbc8a7fed	-0.016906703
181	0x3c9e0a7c	0.019292109
182	0xbbb70ea4	-0.005586462
183	0x3c59ea75	0.013300528
184	0xbcba38bd	-0.022732133
185	0x3c7107be	0.014711319
186	0xbcbcae28	-0.023032263
187	0xbcc2be0b	-0.02377226
188	0xbd36a965	-0.04459514
189	0xbc620dc7	-0.01379723
190	0xbd3b688a	-0.045753993
191	0xbc567a10	-0.013090625
192	0xbba62c09	-0.0050711674
193	0xbbd77ce4	-0.0065761674
194	0x3ccbec3a	0.024892915
195	0xbbd5bf56	-0.006523053
196	0xbb284e40	-0.0025681406
197	0xbd11692b	-0.035500687
198	0x3a16d1ff	0.0005753338
199	0xbc894881	-0.016758205
200	0x3cb054e7	0.02152486
201	0x3beebf87	0.0072860154
202	0xbd3e6881	-0.04648638
203	0xbcbbfdfc	-0.022948258
204	0xbc228ecc	-0.009921741
205	0xbd51aba1	-0.05118907
206	0x3c330720	0.010926992
207	0xbb9593be	-0.0045647314
208	0xbcec6521	-0.028856816
209	0xbc7db0b2	-0.015484022
210	0xbd20d1c2	-0.03926254
211	0x3cf92dc1	0.030417325
212	0x3d29af67	0.041427042
213	0xbc0f1b86	-0.008734589
214	0xbc1a846b	-0.009430985
215	0xbc356596	-0.011071583
216	0xbb0216a6	-0.0019849925
217	0xbcd67be0	-0.026182115
218	0x3ce5e1b0	0.028061718
219	0x3bb79d6e	0.005603484
220	0xbc973bc2	-0.018461112
221	0x3a8e90dd	0.0010876913
222	0xbad822fb	-0.0016489917
223	0x3d128a7b	0.035776597
224	0xbc8f80d0	-0.017517477
225	0xbcfc92c6	-0.030831706
226	0xbd03b90c	-0.032158896
227	0xbca241d1	-0.019806774
228	0x3b81c110	0.0039597824
229	0x3cd10a53	0.025517618
230	0xbd1dd77c	-0.03853558
231	0x3d090a2c	0.033456966
232	0x3c45406a	0.012039283
233	0xbd09c420	-0.033634305
234	0xbc5d3dab	-0.013503472
235	0xbcb025dd	-0.02150243
236	0xbc5cce8e	-0.013476981
237	0xbce3c4b3	-0.027803754
238	0xbd0d9a7b	-0.034571152
239	0xbc964888	-0.018345132
240	0x3c74bcb0	0.014937565
241	0xbc6876e0	-0.014188498
242	0x3d066931	0.032815162
243	0x3c6db2fa	0.014508003
244	0xbbe87e51	-0.007095136
245	0xbca5e303	-0.02024985
246	0x3d1ceecc	0.038313672
247	0x3c5333c2	0.012890758
248	0x3c8a214d	0.016861582
249	0xbbd728f5	-0.0065661618
250	0xbaa199a0	-0.0012329109
251	0xbd6b565d	-0.05745541
252	0xbcf449ac	-0.029820286
253	0xbc3dd5de	-0.011586634
254	0xbd2dfd50	-0.042477906
255	0xbcd1b0b2	-0.02559695

model2.2.bias f4 [256]
0	0xbcf514c5	-0.02991713
1	0xbcd96f12	-0.02654222
2	0xbcaca2c0	-0.021073699
3	0xbc737746	-0.01485998
4	0xbcf88750	-0.03033796
5	0xbd26dc12	-0.04073722
6	0xbcc7723d	-0.024346465
7	0xbd026c47	-0.031841543
8	0x3bb03b2b	0.005378147
9	0xbc081da5	-0.008307849
10	0xbcc1a96f	-0.023640363
11	0x3cce00bf	0.02514684
12	0xbc890109	-0.016724126
13	0x3baaccc8	0.0052124
14	0x3c0556ae	0.008138342
15	0x3d1c14c9	0.03810576
16	0x3d04cb59	0.03242049
17	0x3ca6d05b	0.020363024
18	0x3cfa0a1a	0.030522395
19	0xbcfe976d	-0.031078065
20	0x3ca1882b	0.01971825
21	0xbb043870	-0.002017524
22	0x3d3bf563	0.045888316
23	0xbceb51db	-0.028725555
24	0x3bf791de	0.0075552305
25	0x3d00cc22	0.031444676
26	0xbd6bc553	-0.05756123
27	0xbc979179	-0.018501984
28	0xbc02f45e	-0.007992832
29	0x3cb88e79	0.022528874
30	0xbd3cd9e4	-0.046106234
31	0x3d235656	0.03987726
32	0xbd10b446	-0.035328172
33	0xbce1818e	-0.027527597
34	0xbcc59c61	-0.024122419
35	0x3c9ea19f	0.019364176
36	0xbce4d239	-0.027932273
37	0xbca58fc7	-0.02021016
38	0x3d0213a2	0.031757005
39	0xbc4caa01	-0.012491704
40	0xbce4df98	-0.027938649
41	0xbc78f6a6	-0.015195524
42	0xbaa570dc	-0.0012622136
43	0xbc95139f	-0.018197833
44	0x3c80d2d5	0.015725533
45	0x3d2fa880	0.042885303
46	0x3d3e0ce5	0.046399016
47	0xbcad8bcb	-0.021184823
48	0x3c1c94e5	0.009556984
49	0x3c8ed04f	0.017433314
50	0x3c12da01	0.008963109
51	0xbc1e8573	-0.009675371
52	0xbb2d59f1	-0.0026451314
53	0xbd823094	-0.06356922
54	0xbaab8460	-0.0013085715
55	0xbd19676f	-0.037452158
56	0xbba37f44	-0.0049895365
57	0x3cd5bc26	0.026090693
58	0x3cac4cec	0.021032773
59	0x3c9bac6d	0.019003117
60	0xbd3322c5	-0.04373433
61	0xbc9538f6	-0.018215638
62	0xbd28bf87	-0.04119828
63	0xbc04b2f4	-0.008099306
64	0xbd7263e4	-0.059177294
65	0xbcb2ff12	-0.021850143
66	0x3b64fa79	0.0034939332
67	0x3cfd4397	0.030916018
68	0xbc7800ef	-0.015136941
69	0xbb925d33	-0.0044666766
70	0xbb36689c	-0.0027833348
71	0xbc296fae	-0.010341568
72	0xbcafde96	-0.021468442
73	0xbd0db26a	-0.034593977
74	0xbb53f7db	-0.0032343778
75	0x3bb1ee41	0.0054300134
76	0xba360b65	-0.0006944447
77	0x3d4392db	0.047747474
78	0xbbd7fd96	-0.006591509
79	0x3c07b9b5	0.008284022
80	0xbc652cf0	-0.013987765
81	0x3c3b51b6	0.011433056
82	0xbd13b94a	-0.036065377
83	0xbd1ab161	-0.037766818
84	0x3c68216b	0.014168124
85	0xbd301c6a	-0.042995848
86	0x3d25d40c	0.040485427
87	0xb8f35512	-0.000116029885
88	0x3d5aa806	0.053382896
89	0xbb9f556f	-0.0048624794
90	0xbcf12019	-0.02943425
91	0xbcb006c3	-0.0214876
92	0xbd38d551	-0.04512531
93	0xbd14bc77	-0.036312547
94	0x3d07ccd9	0.033154342
95	0xbcc1769e	-0.023616131
96	0xbca122bd	-0.019669885
97	0x3c05f175	0.008175244
98	0xbc90e122	-0.017685477
99	0x3c9d5f25	0.019210408
100	0xbc9c28d1	-0.019062432
101	0xbc1e048b	-0.009644638
102	0xbd5039a5	-0.050836224
103	0xbc2dfb00	-0.010618925
104	0x3c239411	0.009984032
105	0x3be73f9f	0.007057145
106	0xbc180e26	-0.009280717
107	0x39bb4964	0.000357221
108	0xbd7f994d	-0.06240206
109	0xbd40d75a	-0.047080375
110	0xbd0ece6e	-0.034864835
111	0x3cab1aa8	0.020886734
112	0x3c88ea59	0.016713308
113	0x3d08b49f	0.03337538
114	0x3cd8062c	0.02637013
115	0x3cf96bb0	0.030446857
116	0xbd080945	-0.033211965
117	0xbbb146d4	-0.0054100547
118	0xbc328536	-0.010896018
119	0xbc06fd70	-0.008239135
120	0x3d292496	0.041294657
121	0x3d5f76a1	0.054556493
122	0x3c91fdc4	0.0178212
123	0xbc9826fa	-0.018573273
124	0xbd1d4331	-0.038394157
125	0xbc6bf485	-0.01440156
126	0xbc4e3df6	-0.012588015
127	0x3c187d64	0.009307239
128	0x3ca724ec	0.020403348
129	0x3c425d34	0.011863042
130	0xbd2cd320	-0.042193532
131	0xbd3f260d	-0.046667147
132	0xbd065e5f	-0.032804843
133	0xbd3c0f52	-0.045913048
134	0x3ca56fef	0.020194976
135	0xbc23f86f	-0.010007962
136	0x3d076b28	0.033061177
137	0x3c3b2d3a	0.011424357
138	0x3ca3be92	0.019988332
139	0xbd3d4587	-0.046208885
140	0x3bf05523	0.007334368
141	0x3d0ded8d	0.034650374
142	0xbcd07c93	-0.025450027
143	0xbce8a7fb	-0.028400412
144	0xbc5866f4	-0.01320814
145	0xbc93d3c4	-0.018045314
146	0xbb74a6af	-0.0037330796
147	0xbd0a070a	-0.03369812
148	0xbd1530ca	-0.036423482
149	0xbc90aa60	-0.017659366
150	0x3cb286bf	0.021792768
151	0xbca8f1bb	-0.020623079
152	0xbc3b2304	-0.011421923
153	0x3cea0864	0.028568454
154	0x39e39b29	0.00043412417
155	0x3d1cdbf3	0.038295697
156	0x3d7b1a95	0.061304647
157	0xbc1393d6	-0.009007415
158	0xbd41b8eb	-0.047295492
159	0xbc270f85	-0.010196571
160	0xbd35d771	-0.044394914
161	0x3d35ce6d	0.044386316
162	0xbd0ede56	-0.034880005
163	0xbd1e1f78	-0.03860423
164	0xbbc2d87d	-0.0059462176
165	0x3c89a363	0.016801542
166	0x3d311003	0.04322816
167	0xbc6acabb	-0.014330561
168	0x3d58dccb	0.05294494
169	0x3c2763c5	0.010216658
170	0xbcc677d4	-0.02422706
171	0x3c9b5f58	0.018966362
172	0xbd9775d3	-0.0739552
173	0xbc2552b4	-0.010090519
174	0xbd0455ce	-0.032308392
175	0xbd8be330	-0.06830442
176	0x3c74a86a	0.014932731
177	0x3c17e7d8	0.009271584
178	0xbd068e6f	-0.03285068
179	0xbd479e06	-0.048734687
180	0xbd139a80	-0.036036015
181	0x3ceed6f2	0.029155228
182	0x3cdb5aad	0.026776636
183	0xbcbc5e25	-0.02299411
184	0xbcac0c37	-0.021001918
185	0x3cd0bf07	0.025481714
186	0xbca64c3d	-0.020300025
187	0xbcda23be	-0.026628371
188	0x3c98133d	0.018563861
189	0xbc080f2c	-0.0083043985
190	0x3c900931	0.017582508
191	0x3c4e8d30	0.012606904
192	0x3c956076	0.018234473
193	0xbcc9c1a9	-0.024628477
194	0xbd1b4460	-0.037907004
195	0x3d187158	0.037217468
196	0x3c6ef236	0.014584115
197	0xbc877fd2	-0.016540442
198	0x3d1964ad	0.037449528
199	0x3aad38de	0.00132158
200	0x3c129b5e	0.008948175
201	0x3c079163	0.008274409
202	0xbd56aba0	-0.052409768
203	0xbcd137d7	-0.025539322
204	0xbc54bcf4	-0.012984503
205	0xbccbcddc	-0.024878435
206	0xbc944130	-0.01809749
207	0xbd035042	-0.03205896
208	0x3d52f161	0.051499728
209	0x3b1c1cc8	0.0023820866
210	0xbbbff5e6	-0.005858171
211	0xbcb8ef42	-0.022575025
212	0xbc8aada8	-0.016928509
213	0x3d8056e1	0.06266571
214	0x3c9a5b58	0.018842384
215	0x3afa122e	0.0019078904
216	0xbc923b30	-0.017850488
217	0xbb1488cd	-0.0022664547
218	0xbbe7a6e7	-0.007069457
219	0x3d031445	0.032001752
220	0xbb6abefd	-0.0035819404
221	0x3d30b79f	0.043143865
222	0x3d35570f	0.04427248
223	0x3c39f7b9	0.011350566
224	0xbcfbe474	-0.030748583
225	0x3c73e971	0.0148872
226	0xbd4a8416	-0.049442373
227	0xbd40bcd4	-0.04705508
228	0xbab4c624	-0.0013791961
229	0x3bde0605	0.00677562
230	0x3d042aa8	0.032267243
231	0x3a065314	0.0005124074
232	0x3beed4cb	0.0072885505
233	0x3c59f7e0	0.013303727
234	0x3cc36de3	0.023856109
235	0x3c0178cd	0.007902336
236	0xbb90a0f6	-0.0044137193
237	0xbd59c048	-0.05316189
238	0xbcaf8c8e	-0.021429326
239	0xbd1fdd58	-0.03902945
240	0x3c45eee5	0.012080883
241	0x3d1763c3	0.036960375
242	0xbc84b408	-0.016199127
243	0x3c5fccc9	0.013659664
244	0xbb8fd66c	-0.0043895748
245	0x3d3cef7b	0.046126824
246	0x3bbd3233	0.0057738065
247	0x3ce241f0	0.027619332
248	0xbc41d83d	-0.01183134
249	0x3cc0e49b	0.023546508
250	0xbd54c472	-0.051945157
251	0x3c1ab38a	0.0094422195
252	0xbd339701	-0.04384518
253	0xbc6630d1	-0.014049725
254	0x3d2980b9	0.041382525
255	0x3b08cadb	0.0020872864

model2.4.weight f4 [64, 256]
0	0xbd43da23	-0.047815453
1	0x3d4d830a	0.050173797
2	0x3c037ae0	0.008024901
3	0xbd224bf0	-0.0396232
4	0xbd2824d2	-0.04105074
5	0x3d785f93	0.06063802
6	0xbd254358	-0.040347427
7	0xbd4b5639	-0.049642775
8	0xbd2f95f0	-0.0428676
9	0x3d33b754	0.043876007
10	0xbd83228e	-0.06403075
11	0x3bfd5797	0.007731389
12	0x3bd5cbb1	0.006524526
13	0xbca192a8	-0.019723251
14	0xbd0051b4	-0.03132792
15	0xbd28be83	-0.04119731
16	0xbd68f5c8	-0.05687502
17	0xbd098ba7	-0.03358045
18	0x3d024ce0	0.031811595
19	0x3c2a52b2	0.010395693
20	0xbca7df42	-0.0204922
21	0x3d157962	0.036492713
22	0xbd66faaa	-0.056391396
23	0xbd37720c	-0.044786498
24	0xbd838ef5	-0.06423751
25	0xbd502f00	-0.050826073
26	0xbba0a81b	-0.0049028522
27	0x3c8ac16a	0.01693793
28	0xbd01cadf	-0.031687614
29	0xbd10cec8	-0.035353452
30	0x3c70c934	0.014696408
31	0x3cb1eebe	0.021720286
32	0xbd32f385	-0.04368927
33	0xbd2b491d	-0.041817773
34	0xbd859095	-0.065217175
35	0xbc3cd750	-0.011525944
36	0x3c59128e	0.013249053
37	0x3cfb790b	0.030697366
38	0xbd1a7ffa	-0.037719704
39	0x3c5762c6	0.013146108
40	0xbd50b912	-0.050957747
41	0x3d61b810	0.055107176
42	0xbd2acbff	-0.041698452
43	0xbbb2a3bd	-0.005451648
44	0x3c850660	0.016238391
45	0x3c0824ac	0.0083095245
46	0x3bac3ba8	0.005256135
47	0xbd3297b2	-0.0436017
48	0xbd40005e	-0.04687535
49	0x3d78da29	0.06075493
50	0xbd5bc6eb	-0.0536565
51	0x3d59995a	0.053124763
52	0x3cc26e84	0.023734339
53	0x3d73cb50	0.059520066
54	0xbd09bc5b	-0.033626895
55	0xbc8efcd2	-0.017454538
56	0xbda34270	-0.07971656
57	0xbd885ac4	-0.06657937
58	0xbd5029c7	-0.050821092
59	0x3d22fed6	0.03979381
60	0x3d257261	0.040392283
61	0xbd05c690	-0.032660067
62	0xbd60331c	-0.05473624
63	0xbd15bfed	-0.036559988
64	0x3cb5f8b5	0.02221332
65	0xbc4087e3	-0.011751148
66	0xbd81baec	-0.06334481
67	0xbd206044	-0.039154306
68	0xbd5889ca	-0.05286578
69	0x3c953532	0.018213842
70	0x3b2d9bed	0.0026490644
71	0xbd7f3861	-0.062309626
72	0xbd0867c5	-0.033302087
73	0x3c1d882a	0.009614984
74	0xbd6f28bc	-0.058388457
75	0x3d5badd6	0.05363258
76	0xbd9bbb27	-0.07604056
77	0x3c3b126d	0.011417967
78	0x3d6ce1be	0.057832472
79	0x3d6059b5	0.05477305
80	0xbbc3560b	-0.005961185
81	0xbdb74fb2	-0.089507475
82	0x3d4344f1	0.04767317
83	0xbcbc8a5b	-0.023015192
84	0xbd839f22	-0.064268366
85	0x3d29f430	0.04149264
86	0xbd9168f4	-0.07100096
87	0xbd466baf	-0.04844254
88	0x3bcf147b	0.00631958
89	0xbcedc80b	-0.029026052
90	0xbc2d659d	-0.0105833085
91	0xbcc2c168	-0.023773864
92	0x3d5171e4	0.051134005
93	0xbd4ff2ae	-0.050768547
94	0x3d028c38	0.031872004
95	0xba7ff0c4	-0.0009763355
96	0xbd44f6a0	-0.048086762
97	0xbd0527da	-0.03250871
98	0x3d409449	0.047016416
99	0x3d31b5ff	0.043386456
100	0xbc916514	-0.017748393
101	0x3a9350b6	0.0011239264
102	0xbd57c44f	-0.05267745
103	0xbd591146	-0.05299499
104	0x3be266db	0.006909234
105	0xbc85ea0d	-0.016346956
106	0xbd7a0073	-0.061035585
107	0x3d165411	0.036701266
108	0xbd2b835f	-0.041873332
109	0xbbf670f0	-0.0075207874
110	0x3d31fe38	0.043455333
111	0x3ce7965c	0.02826994
112	0xbd61478f	-0.054999884
113	0xbcc32a90	-0.023824006
114	0xbcd8cf23	-0.026465958
115	0xbba10aab	-0.004914602
116	0xbc97f67e	-0.018550154
117	0xbca901c2	-0.020630721
118	0x3d24017f	0.04004049
119	0x3bfb166a	0.007662584
120	0xbdc4f55b	-0.0961711
121	0x3d312b2c	0.043254063
122	0x3c7f0951	0.015566186
123	0xbba7098e	-0.0050975746
124	0xbd013a55	-0.03154977
125	0x3d360869	0.044441614
126	0x3d14d7de	0.03633868
127	0x3c2cc18a	0.01054419
128	0xbd15440b	-0.036441844
129	0xbca3b8dc	-0.019985609
130	0xbcb66df0	-0.02226922
131	0xbd4903b2	-0.04907579
132	0x3c82c668	0.015963748
133	0xbcada75f	-0.021197973
134	0xbc61a2c2	-0.013771715
135	0xbccd1f64	-0.025039382
136	0x3d54202f	0.051788505
137	0xbc036fa7	-0.008022225
138	0xbce30a65	-0.027714917
139	0xbcc800e8	-0.024414495
140	0xbd829832	-0.06376685
141	0xbd42c068	-0.047546774
142	0xbc79bf92	-0.015243428
143	0xbd643cb9	-0.055721972
144	0xbc449f0e	-0.012000812
145	0x3d093729	0.03349987
146	0x3d545637	0.051840033
147	0xbd2acf51	-0.04170162
148	0xbc27eaea	-0.010248879
149	0x3d256dc2	0.040387876
150	0xbd5161a4	-0.051118508
151	0x3d54dc43	0.05196787
152	0x3d56a7f1	0.052406255
153	0xbd3d48bb	-0.04621194
154	0xbd8485d3	-0.064708374
155	0xbd6a6937	-0.057229247
156	0xbcd8fb14	-0.02648691
157	0x3cc11f8e	0.023574617
158	0x3b0d240c	0.0021536378
159	0xbd6d1d22	-0.05788911
160	0xbba52264	-0.0050395
161	0xbd8abf8d	-0.06774817
162	0x3bc379d9	0.005965453
163	0xbd17ca47	-0.03705814
164	0x3c59ab50	0.013285473
165	0xbd43dde0	-0.04781902
166	0xbc98b2bb	-0.018639913
167	0xbd63a12b	-0.055573624
168	0x3d2dca38	0.04242918
169	0xbcbc1d5a	-0.022963215
170	0xbc70b6d5	-0.014692028
171	0xbd954279	-0.07288069
172	0xbd11c9f1	-0.035592977
173	0x3d563ed1	0.052306
174	0x3d31cde8	0.043409258
175	0x3d404762	0.046943076
176	0x3bde33e4	0.006781088
177	0x3d79a006	0.060943626
178	0xbc0b0c36	-0.008486798
179	0xbc9b3ab7	-0.018948896
180	0xbcb1e0d7	-0.021713657
181	0xbc51154b	-0.012761424
182	0x3cefe383	0.02928329
183	0x3cd6d2fd	0.026223654
184	0xbbe9435c	-0.0071186256
185	0xbd486b07	-0.048930194
186	0xbd1da722	-0.03848947
187	0xbd98d5f5	-0.07462684
188	0xbd358bce	-0.04432278
189	0xbd260729	-0.040534172
190	0xbcc3f41c	-0.023920111
191	0x3c2762e1	0.010216446
192	0xbc7c44d1	-0.0153972665
193	0xbc86bc61	-0.016447248
194	0xbd1809a0	-0.037118554
195	0x3d593d94	0.05303724
196	0x3cbaf131	0.022820087
197	0x3d44caab	0.04804484
198	0xbca7bea7	-0.020476652
199	0xbce3603d	-0.02775585
200	0x3d3108d2	0.043221302
201	0x3cac26bd	0.021014566
202	0xbced4f66	-0.028968524
203	0x3cb648b8	0.022251472
204	0x3c878e48	0.016547337
205	0xbd2f6557	-0.042821255
206	0xbd3e79f7	-0.046503033
207	0xbca3a7c8	-0.019977465
208	0x3c93fd99	0.01806526
209	0x3ccaa39a	0.024736214
210	0x3c227397	0.009915254
211	0xbd21820d	-0.039430667
212	0x3ce80848	0.028324261
213	0xbd8810aa	-0.066438034
214	0x3d4665f7	0.048437085
215	0x3d024f14	0.031813696
216	0x3d28633e	0.04111027
217	0xbd4153f3	-0.0471992
218	0xbcd8775f	-0.026424108
219	0xbd9b8718	-0.075941265
220	0xbd29d9b5	-0.041467387
221	0x3c1a3e01	0.009414197
222	0x3d781e09	0.06057552
223	0x3cd977c4	0.026546367
224	0xbb62e4ed	-0.0034621314
225	0xbcf7109b	-0.030159285
226	0x3d7ddc34	0.06197758
227	0x3d7abd57	0.061215725
228	0xbc8bcd19	-0.017065572
229	0xbd530f79	-0.051528428
230	0xbccb1ac6	-0.02479304
231	0xbc82ff97	-0.015991015
232	0xbd038ba2	-0.032115586
233	0xbd07afb9	-0.033126567
234	0xbd66cad3	-0.056345772
235	0xbd3cf522	-0.046132214
236	0x3becf093	0.007230827
237	0xbcc75bed	-0.024335826
238	0x3c09c894	0.008409638
239	0xb9d7acdf	-0.00041136795
240	0xbd1f2308	-0.038851768
241	0xbcd5ca14	-0.026097335
242	0xbd5a2fd1	-0.053268258
243	0xbcb5f0ab	-0.022209486
244	0x3d7ab933	0.061211776
245	0x3d3cb7d9	0.04607377
246	0xbc7a0fee	-0.015262587
247	0x3d2c8cc0	0.042126417
248	0x3d2ca621	0.04215062
249	0x3d1609c8	0.036630422
250	0x3b6bf78e	0.0036005708
251	0xbd1c2fde	-0.038131587
252	0x3ca74aae	0.020421352
253	0x3cee7c4b	0.029112002
254	0xbd770cc0	-0.060314894
255	0x3c391ded	0.011298639

model2.4.bias f4 [64]
0	0x3d00a269	0.031404886
1	0x3c44bfd1	0.012008623
2	0xbc84b454	-0.016199268
3	0xbd397b54	-0.04528363
4	0x3c8a40fa	0.016876686
5	0xbc34c880	-0.011034131
6	0xbd10ed13	-0.03538234
7	0x3dac0286	0.08398919
8	0x3ccf6331	0.025315853
9	0x3c0dd69a	0.008657122
10	0x3ce97a7b	0.028500786
11	0xbd4b9e2b	-0.049711388
12	0xbd1cb895	-0.03826197
13	0xbbe9ef93	-0.007139155
14	0xbd4d7cf0	-0.050167978
15	0xbcdd69ce	-0.02702799
16	0xbca9c9bb	-0.020726075
17	0xbcc51a12	-0.024060283
18	0x3d698a7a	0.057016827
19	0x3d352fae	0.044234924
20	0xbd5a892e	-0.05335348
21	0xbd3ace05	-0.04560663
22	0xbd75933f	-0.059954878
23	0xbd76439e	-0.06012308
24	0x3c9f0265	0.019410321
25	0xbb93dd07	-0.0045124325
26	0xba048ed6	-0.00050566846
27	0xbd2f6030	-0.04281634
28	0x3caa1223	0.020760601
29	0xbd495b6f	-0.049159463
30	0xbc80463d	-0.015658492
31	0x3b9dd712	0.004816898
32	0x3cac3b42	0.02102435
33	0xbd6d0b44	-0.05787207
34	0x3ca1fbb5	0.019773344
35	0xbd7877b1	-0.06066102
36	0x3c251b1d	0.010077265
37	0xbd99a93a	-0.075029805
38	0x3c53992e	0.012914939
39	0xbcef0623	-0.02917773
40	0xbd342c9d	-0.04398786
41	0x3d26a718	0.040686697
42	0xbcf8ac55	-0.030355612
43	0xbd014723	-0.031561982
44	0x3c0f12b0	0.008732483
45	0x3dd9916e	0.10623442
46	0xbc9c3260	-0.01906699
47	0x3be91fc2	0.0071143815
48	0xbd457e16	-0.048215948
49	0x3d98f388	0.07468325
50	0xbd4c706d	-0.049911905
51	0xbd0c0f49	-0.034194265
52	0x3d6fa21f	0.05850422
53	0x3cafc421	0.021455826
54	0x3d6a04c7	0.057133462
55	0xbc832dda	-0.016013075
56	0xbcfe4fea	-0.031043965
57	0xbc9518af	-0.018200247
58	0xbd09f03c	-0.03367637
59	0x3d49a4e1	0.049229506
60	0x3d1a251b	0.037633043
61	0x3d8f5fb2	0.07000674
62	0xbc04de46	-0.008109635
63	0x3d898f66	0.06716804

model2.6.weight f4 [4, 64]
0	0x3db72330	0.08942258
1	0xbc74f608	-0.014951237
2	0xbd83c3d0	-0.06433833
3	0x3cfc4fd0	0.030799776
4	0xbd37ad55	-0.044843037
5	0x3d2cd3c4	0.042194143
6	0x3ddaa2d3	0.106755875
7	0x3d127030	0.03575152
8	0x3d92297f	0.07136821
9	0x3d2475e4	0.04015149
10	0xbc5ec060	-0.01359567
11	0xbda99b28	-0.08281547
12	0xbce84988	-0.028355375
13	0xbb24aca8	-0.0025127325
14	0xbdb56905	-0.088579215
15	0xbc22d49a	-0.0099383835
16	0x3d8e90ae	0.06961189
17	0xbdf5c9c8	-0.12001377
18	0xbd663fd2	-0.056213208
19	0xbca7ccc6	-0.020483386
20	0xbd845f34	-0.06463471
21	0x3da5cf26	0.08096151
22	0x3d24d2ea	0.040240206
23	0xbd923e60	-0.07140803
24	0xbb366836	-0.002783311
25	0x3d85b376	0.0652837
26	0x3d92e487	0.071724944
27	0x3dd372a4	0.103246
28	0xbdc78898	-0.0974285
29	0x3df0438c	0.117316335
30	0x3d51ee74	0.051252797
31	0x3da782c3	0.08179238
32	0xbcd832a1	-0.02639133
33	0x3d23bd20	0.039975286
34	0xbb763993	-0.0037570938
35	0x3bfaa6c0	0.0076492727
36	0xbde7b5ee	-0.11313997
37	0xbdab569e	-0.0836613
38	0xbdb2ae8b	-0.08724698
39	0xbdb55abc	-0.08855197
40	0xbdc68920	-0.09694123
41	0xbcfe449c	-0.031038575
42	0xbc9e8be7	-0.01935382
43	0x3dba5ba5	0.09099511
44	0xbd6802a0	-0.05664313
45	0xbe5cb228	-0.21552336
46	0xbd10dc98	-0.035366625
47	0xbd90be75	-0.07067577
48	0xbd53fd71	-0.051755372
49	0xbdb2a0a3	-0.08722045
50	0x3c4cd785	0.012502556
51	0x3da37e32	0.07983054
52	0xbdd8370e	-0.10557376
53	0x3db78d69	0.08962519
54	0xbe15a35c	-0.14613098
55	0x3d27bd9a	0.040952303
56	0xbdd0aeaf	-0.10189568
57	0x3e02c085	0.12768753
58	0x3db0dada	0.086354926
59	0x3dbb6c25	0.09151486
60	0xbd231303	-0.039813053
61	0xbe399621	-0.18123676
62	0x3d9ba0a6	0.07599001
63	0x3d206739	0.03916094
64	0xbd108482	-0.03528262
65	0x3da198f2	0.078905
66	0x3ddf7867	0.10911637
67	0x3dc87dc3	0.09789612
68	0x3e1388eb	0.14407699
69	0xbdc92eee	-0.09823404
70	0xbd7b918e	-0.06141811
71	0xbdd825a5	-0.10554055
72	0xbd47647c	-0.048679814
73	0x3da6da8f	0.081471555
74	0xbd6fafc9	-0.05851725
75	0xbcf3d7b6	-0.029765945
76	0xbd932ad1	-0.07185901
77	0xbda3aa45	-0.07991461
78	0x3de1d4d7	0.11026924
79	0xbc1cd386	-0.0095719155
80	0xbd1cb810	-0.038261473
81	0x3e01fea0	0.12694788
82	0x3df84847	0.12123161
83	0xbdc8c4f5	-0.098031916
84	0x3d0eda48	0.034876138
85	0xbdc023cf	-0.0938183
86	0x3dce1489	0.100625105
87	0xbd090d1a	-0.03345976
88	0xbcb9ee81	-0.022696735
89	0xbe801691	-0.25017217
90	0xbdbe4dde	-0.09292196
91	0xbcc1148d	-0.02356937
92	0x3d0581dc	0.032594547
93	0x3e18a00d	0.14904805
94	0x3d8ef30e	0.06979953
95	0x3dbfe20a	0.093692854
96	0xbdabcd27	-0.08388739
97	0x3d37a716	0.04483708
98	0x3e2b194d	0.1670887
99	0xbb67897c	-0.003532975
100	0xbdde4e00	-0.10854721
101	0x3d7c8b54	0.06165631
102	0xbdabb0c2	-0.08383323
103	0xbc4208b5	-0.011842896
104	0x3d33e6e5	0.04392137
105	0x3d299e45	0.041410703
106	0xbd86834a	-0.0656801
107	0xbca13985	-0.019680748
108	0xbdc692d1	-0.09695972
109	0xbc87a715	-0.016559163
110	0xbdc87f22	-0.09789874
111	0x3d61dd12	0.05514247
112	0x3ddf87d9	0.10914583
113	0xbcbb8bbb	-0.022893777
114	0x3aed269f	0.0018093175
115	0x3e0b5fa0	0.13610697
116	0xbdaf33f4	-0.08554831
117	0x3dd7bc23	0.10533931
118	0x3d04ac8c	0.032391116
119	0xbd134f09	-0.035964046
120	0xbd57b798	-0.052665323
121	0x3dff770d	0.12473879
122	0xbe0cbfa5	-0.13744982
123	0xbd9d9d0a	-0.076959684
124	0xbd929b23	-0.07158496
125	0xbe0e4783	-0.13894467
126	0x3d374bc7	0.04475
127	0x3d718960	0.0589689
128	0x3d6227ac	0.055213615
129	0xbde00d33	-0.109400176
130	0xbd9052ba	-0.07047029
131	0x3ceafa5b	0.028683832
132	0xbd320f78	-0.043471783
133	0xbb1691f8	-0.0022975188
134	0xbd2cbfb0	-0.042174995
135	0x3e25e336	0.16199955
136	0xbd1e5c85	-0.038662452
137	0x3cc6537b	0.024209728
138	0x3e1cf7db	0.15328924
139	0x3c9e9e4a	0.019362587
140	0x3cae0045	0.021240363
141	0xbda63595	-0.08115689
142	0xbd86f95b	-0.065905295
143	0x3d8cdf31	0.06878508
144	0xbcdb7167	-0.026787473
145	0xbdbcd31c	-0.092199534
146	0xbd5af3ab	-0.053455036
147	0xbdb52357	-0.08844631
148	0x3bdda40d	0.006763941
149	0x3c6922f8	0.014229529
150	0x3db14ff3	0.08657827
151	0x3db0e44b	0.086372934
152	0xbdb6150f	-0.08890735
153	0xbcaef0c8	-0.021355048
154	0x3e1902e1	0.14942504
155	0x3d961641	0.07328463
156	0xbd479929	-0.04873005
157	0x3cec135a	0.028817821
158	0x3c8ab694	0.016932763
159	0xbd809eb8	-0.06280273
160	0x3d500cbe	0.050793402
161	0x3da9646b	0.08271106
162	0x3c4d19d1	0.012518362
163	0xbd973591	-0.07383264
164	0xbd7292bf	-0.05922198
165	0x3d05c036	0.03265401
166	0xbdc8d534	-0.0980629
167	0xbdad1215	-0.084507145
168	0xbd508959	-0.050912235
169	0x3ddb7f37	0.10717624
170	0x3d5154f6	0.051106416
171	0x3d85b880	0.06529331
172	0xbe4baf9c	-0.19891208
173	0x3ce73cfa	0.028227318
174	0x3c3c5c0b	0.011496554
175	0xbdc44b76	-0.095847055
176	0x3db9e2a5	0.09076432
177	0x3dc8210d	0.09771929
178	0xbcb8fde8	-0.02258201
179	0xbd0d835b	-0.0345491
180	0xbbbe5e3c	-0.0058095735
181	0x3e1dddf1	0.15416695
182	0x3d49cb36	0.049266063
183	0x3b0a12a7	0.0021068247
184	0xbc4295e3	-0.011876556
185	0x3cd870c5	0.02642096
186	0xbbf8d158	-0.007593315
187	0x3ceab50a	0.02865078
188	0xbdc2b18f	-0.09506523
189	0x3d800bdb	0.06252261
190	0xbc924e2b	-0.017859539
191	0x3e04ccf7	0.12968813
192	0xbd0ec74b	-0.03485803
193	0xbd8f7756	-0.070051834
194	0xbd8c2285	-0.068425216
195	0x3c087283	0.008328083
196	0xbdc2144a	-0.09476526
197	0x3d253961	0.040337924
198	0xbda520ea	-0.080629185
199	0x3d0ba99a	0.03409729
200	0xbdc0c4fb	-0.09412571
201	0x3dbffe74	0.09374705
202	0x3e097a80	0.13425636
203	0xbd042261	-0.03225935
204	0x3da7efb6	0.08200018
205	0x3e012ff2	0.12615946
206	0x3d834831	0.06410254
207	0x3db693aa	0.089148834
208	0xbdccdc59	-0.100029655
209	0x3dcfbee1	0.10143829
210	0xbe154aaf	-0.14579271
211	0x3c85dfe6	0.016342115
212	0x3dbf56bf	0.093427174
213	0xbd909678	-0.0705995
214	0xbd878802	-0.06617738
215	0x3b5fc1f7	0.0034142712
216	0x3d897b20	0.06712937
217	0xbe6b5ab1	-0.22983815
218	0x3d6319c3	0.05544449
219	0x3d1cd0d0	0.038285077
220	0x3d80aadb	0.06282588
221	0x3d397367	0.045276072
222	0x3dd10c29	0.102073975
223	0x3d8d9783	0.06913664
224	0x3dbea184	0.093081504
225	0x3db45de3	0.0880697
226	0xbde2f0e2	-0.11081101
227	0x3ddeed70	0.10885131
228	0xbd821702	-0.06352045
229	0x3db70a6b	0.08937534
230	0x3d7ba4e3	0.061436545
231	0x3dee6775	0.116408266
232	0xbd9f4cba	-0.07778306
233	0x3d8f3676	0.069928095
234	0xbd59f1eb	-0.053209227
235	0x3da14db7	0.07876151
236	0xbc8e7937	-0.017391784
237	0xbe0f7c53	-0.1401227
238	0x3dcbaac7	0.099446826
239	0x3df240c5	0.1182876
240	0xbdd7681e	-0.10517906
241	0x3d1a1832	0.03762073
242	0x3e023a06	0.12717447
243	0x3d4fb479	0.05070922
244	0xbd1cfac1	-0.038325075
245	0xba037f7d	-0.00050162507
246	0x3dec090b	0.11525162
247	0xbd0731b5	-0.03300639
248	0x3cf393e6	0.02973361
249	0x3db20db5	0.08694021
250	0x3d3e4a75	0.046457727
251	0xbdee5d47	-0.11638885
252	0x3c52a8cd	0.012857628
253	0x3dfc359c	0.12314913
254	0x3d9216f0	0.07133281
255	0xbcd2dfa2	-0.025741402

model2.6.bias f4 [4]
0	0xbe22ff96	-0.15917811
1	0x3da97a16	0.08275239
2	0xbb95073a	-0.0045479806
3	0xbcfb6105	-0.030685911
