model_weight/actor/14_14 04:58:16 std 0.4 lr_actor_0.0004- gamma_0.9 memory300 actor_weight.pth (torch, 646091 bytes, 9 tensors)

std f4 [4]
00000000: 8cda 09be b612 903c 466f 04be 49ea cbbd
-0.13462275 0.017587047 -0.12933072 -0.09956796

model2.0.weight f4 [512, 24]
00000000: 20b3 52be f51b debd b37a 543d 429f a53d
00000010: 06ce 1a3e d46e efbd 1a73 3b3d fa5a 1fbd
00000020: 7295 ec3d 3115 6b3e 91c3 c03d 3c78 323d
00000030: 25b2 cc3c 232a a43d 8b82 153e 3f6d 17be
00000040: 95d5 6ebd f85a d8bd 40d0 de3d 52a3 15be
00000050: 3934 503e 8440 23be 6a45 1bbe 8d79 c83d
00000060: 130c 34be e31f 5e3e e68f 44be 9a89 67be
00000070: dc6e ee3d 9420 9a3c 0896 683c 287d 693e
00000080: 0413 1f3c 796d 263e 1140 b83d 6373 37bd
00000090: a873 bc3d a933 0dbe 3b2a 95bd b47a 92bd
000000a0: 33dc 7abc b4ce ccbd fd0e 34be 8e32 fe3d
000000b0: 2915 843d 569c 9dbc 9fc1 5abd 90c4 8a3d
000000c0: 7643 2dbe 3142 0dbe c09f e73d 4caf 4ebd
000000d0: d0a6 b73d a6ea 983c 7d27 efbd 6cd9 b9bc
000000e0: 6b7e 4cbe 38c7 a33d 64ff ae3c 2df1 823d
000000f0: 8e73 0fbe 55b1 a6bd da2d ec3d f865 0e3e
00000100: 7cd7 c6bb 5e7f cf3b 86a7 bdbc de7a 2abe
00000110: ecd7 34be 88e9 1b3e 94c3 27be 84d0 57bd
00000120: 068f c0bc a67b 813e 0c74 333d e184 653e
00000130: 7b98 62be e9b6 8abd a11c 9cbe 3918 70bd
00000140: 0b90 0a3e e4ae af3d f00c 05be 01df 15be
00000150: 2816 df3d 492b ac3d 1b9c dabb 29e6 35be
00000160: a411 37be 3385 343d 3627 8b3d 31d2 423d
00000170: 3061 18be 369a 02be 554d 723d 17dd 12be
00000180: 9d47 c03d 23e2 e4bd c2f7 6c3b e55b 44be
00000190: 76dd 383e 0120 c13d 8849 ab3d 37cd 74bc
000001a0: ada6 47be 4787 58be 8025 723d 6a0b 0c3b
000001b0: 514d 213d 1579 8bbd aefb 38be 1de1 c33d
000001c0: e248 8cbc 558e 733d 38fe 0b3e c458 8ebd
000001d0: f956 89be 391d 3cbe 2a09 573d 5d56 133e
000001e0: 9082 f3bd f4d6 3b3d 8f8f 8ebd 02e3 60bd
000001f0: 162a 42be f4bc 9b3d f366 54be 9119 003e
00000200: 04fc 41be ee1a 013e 670b 26bd 3641 1bbe
00000210: 3519 ce3c 355c fcbd 4db3 8b3d 4227 9bbe
00000220: fd66 e2bd d012 35bd b64e 12bc c897 8c3d
00000230: 4633 8fbe fa55 d2bd 116d a8bd 5fd1 4bbd
00000240: 363c 023e fb75 d83b 9c1a e2bd 8ac3 3ebe
00000250: 1f7a e9bd 74a1 f93d 4668 a53d 9e82 cf3b
00000260: 1b15 193e 7e46 8fbd 437c 023e aa1e 953d
00000270: 1a9f 5d3e 55f2 ab3d e138 2bbe 264d cb3d
00000280: 36b5 26be 05e9 4ebe ed1c 70be 8013 353d
00000290: 1c31 4abe 27e1 51be 31e8 e6ba ee90 83bd
000002a0: 1053 3abe 0acf 0fbd cd8c 1d3e f504 333e
000002b0: ce4c 22bd 4c6e 813d 945c a53d 45ab 173c
000002c0: 5dbc 1cbe 04a5 8ebd b069 b7bd 868f b93b
000002d0: 07d2 e8bd a46e afbd 2329 033c e6ce ad3d
000002e0: 6044 1e3e 5ec2 b83d 3164 47bc 0bda b33a
000002f0: 0330 893d 0b12 3cbe 1cf8 21be 9c46 b5bd
00000300: 2db6 f33d e434 823d daf1 1fbd c0ea b3bd
00000310: ecf3 1bbd e7a9 b3bd 7193 adbd c4bd d0bd
00000320: ec06 92bd fe58 1b3d 640b efbc 402f 0cbe
00000330: 46b8 ca3b 8213 b0bd 2898 bdbd 18b2 413d
00000340: fe5a 55be 49f3 d83d 3bfd 28be e49f edbd
00000350: 3da9 febd 5c5b 69be 6aaa 1a3e d817 0dbe
00000360: 62af 373e 1973 03be 942e 09be a444 9dbd
00000370: 0940 28bd c3b6 0b3e 32d7 d5bc e761 3b3d
00000380: 1441 5f3c d85b d63d a60a 27be 3536 b93d
00000390: 3f44 5c3d d2f9 0abe 9807 94bd dae8 913d
000003a0: 09fe 99bd 4bb3 a03d e312 463d 463a 6bbe
000003b0: fee6 06bd 3fa4 36bd fed2 3abe e023 95bc
000003c0: 03a3 933d 85e5 673e 224c d33b 1919 493e
000003d0: 4ef0 2abd 9663 7cbd 7ac1 50be f816 02be
000003e0: d912 523e 5837 36be 921b 45be 5d24 f9bd
000003f0: 2bd7 3a3e e1e9 1c3e 782f ef3c f866 f73d
-0.20576143 -0.10845176 0.051874828 0.08087017 0.15117654 -0.11691061 0.045764066 -0.03890512
0.11551942 0.22957303 0.09412301 0.043571696 0.02498729 0.080158494 0.1460058 -0.14787768
-0.058309156 -0.10564226 0.10879564 -0.14613083 0.20332421 -0.1594258 -0.15163198 0.09788809
-0.17582731 0.21691851 -0.19195518 -0.22611085 0.116422385 0.018814363 0.0141959265 0.2280165
0.0097091235 0.16252698 0.08996595 -0.044787776 0.09201747 -0.13789238 -0.072834454 -0.0715231
-0.015311289 -0.10000363 -0.17583843 0.12411986 0.064493485 -0.019239586 -0.053407308 0.067757726
-0.16920266 -0.13794781 0.11309767 -0.050460145 0.08967364 0.018666577 -0.11677454 -0.022686683
-0.199701 0.07996982 0.021362014 0.06393657 -0.14008924 -0.08139292 0.11532183 0.13906085
-0.006068168 0.006332322 -0.02315117 -0.16648433 -0.17660493 0.15225804 -0.16383201 -0.05268909
-0.023505699 0.2528965 0.043811843 0.2241397 -0.22128479 -0.067731686 -0.30490592 -0.05861685
0.1353151 0.085782796 -0.12993217 -0.1463585 0.10892898 0.084066935 -0.0066714413 -0.1776358
-0.17877823 0.04407234 0.06794588 0.047563735 -0.14880824 -0.1275414 0.05915578 -0.14342152
0.09388659 -0.11175945 0.0036158417 -0.1917568 0.1805323 0.094299324 0.08363634 -0.014941505
-0.19497176 -0.21145354 0.059117794 0.0021369108 0.039380375 -0.06810204 -0.18064758 0.09564421
-0.017124597 0.05946191 0.13671196 -0.069505244 -0.26824167 -0.18370523 0.052498974 0.14388414
-0.11890137 0.045859292 -0.069609754 -0.05490399 -0.18961367 0.07604399 -0.20742397 0.12509753
-0.18943793 0.12607929 -0.040538218 -0.15161595 0.025158504 -0.123222746 0.06821308 -0.3030339
-0.110548 -0.044207394 -0.008929899 0.068648875 -0.27968806 -0.10270305 -0.08223928 -0.04976022
0.12718281 0.0066058612 -0.110402316 -0.1862928 -0.11400246 0.12188998 0.08076529 0.0063327095
0.14949457 -0.06995867 0.12742715 0.07281239 0.21642724 0.083958305 -0.16720916 0.09926824
-0.16280064 -0.20206077 -0.23448534 0.04420805 -0.19745296 -0.20496045 -0.0017616806 -0.064241275
-0.18195748 -0.035109557 0.15385742 0.1748236 -0.039624028 0.063198656 0.080742985 0.009257142
-0.1530623 -0.06965068 -0.08955705 0.0056628613 -0.113681845 -0.08566025 0.008005413 0.08486728
0.1545577 0.090214476 -0.012169884 0.0013721598 0.06698611 -0.18366258 -0.15817302 -0.08851358
0.11899982 0.06357744 -0.039049007 -0.087850094 -0.03807442 -0.08772641 -0.08475388 -0.10192445
-0.071302265 0.037926666 -0.029180236 -0.136899 0.006186518 -0.08597471 -0.09257537 0.047288984
-0.20835492 0.10593278 -0.1650285 -0.11602762 -0.124346234 -0.22788757 0.1510407 -0.13778627
0.17937997 -0.12836875 -0.13396674 -0.07679108 -0.041076694 0.13643937 -0.02610359 0.045747664
0.013626356 0.104667366 -0.16312656 0.09043542 0.053776022 -0.13571861 -0.07228011 0.07124491
-0.075191565 0.078466974 0.048357856 -0.22971448 -0.032935135 -0.04459023 -0.1824455 -0.018205583
0.072088264 0.22646149 0.0064482847 0.1963848 -0.04173308 -0.06161841 -0.20386305 -0.12704074
0.20515002 -0.1779455 -0.19248798 -0.12165139 0.18246143 0.15323593 0.02919744 0.120801866

model2.0.bias f4 [512]
00000000: c6f5 7a3d 4c32 35be 05c1 e33d 065b cb3d
00000010: 6b4c de3d a12a ee3c ac4d f4bd 786b 153e
00000020: 8756 57be e46b 00be 9bb1 d83d 4c40 713d
00000030: dbd6 5b3d 3e1c 54bd c12e 21be 9740 fbbd
00000040: 0be0 1cbe 6dcb 8d3d 5afe e0bd 38f4 f0bb
00000050: 29cd 2f3d 2077 1b3e 5011 00be bfd2 163d
00000060: cb91 92bd 546d 7ebd 2b7b abbd a20c dfbd
00000070: 5127 60be 6bc2 59be 1cc9 3dbd 6ce1 51bd
00000080: 3090 84bc c6ab e33d 86ce b03d a107 963b
00000090: fde0 de3d b939 e83d 17f5 debd f844 10bc
000000a0: 8398 273e f528 20bd 2ac4 0c3d a7c9 f4bd
000000b0: 9ca3 31be ca2c 9cbd c9a0 873c cacb b33d
000000c0: 5acc 17be 48f8 34be 449f 7e3d 6ee9 be3b
000000d0: 0318 62bd befa 77bb d22c 4a3e 9bfc 193e
000000e0: aa57 c5bc 32ba de3c 8189 dd3d bfde 9abc
000000f0: ce14 0dbe e1c0 883d 3c87 083e 73f3 e8bd
00000100: 3255 00be 3ff4 c5bb 244c 5bbd 4d28 68be
00000110: 817c 26bd 5e8a 9e3d 9a91 ef3c 4509 063e
00000120: 1068 d9bd 33b6 7d3c 9124 1fbd 00c4 a73d
00000130: 31c4 ef3c eb54 52be ce11 15be 0bce 21be
00000140: 5b1c 3b3d 236b e73d b800 1abe 4cdd d73c
00000150: 696e e53c 755e 223e 1938 5dbd 068b f83d
00000160: 62af 3fbe b430 e73d faed 273e e6ee 8a3d
00000170: 174e 4abe 3339 1d3e c8a0 d5bd 4b7b 2abe
00000180: 9de6 a43d 4571 82bd 1f4b 24be 1c32 70bd
00000190: f0a3 2e3e dfcb 4bbe 42b1 1cbe 5c54 ebbd
000001a0: d473 72bd 9578 433d b649 ca3d 548e d53d
000001b0: c3f2 f6bc 9578 46be ed92 1cbe 53c5 a4bd
000001c0: 333d 993d 595f 3dbe 507b b63d 5f48 c9bd
000001d0: 625c 01be 4b7c 643d d186 28bd 8623 f83d
000001e0: e3a0 c23d f831 d6ba 788a b5bd eafc 34be
000001f0: 24e3 4ebd 8e96 263e 0bb3 e53d b0fe 75be
00000200: 44d4 a1bd c64d 6cbe f44f 16bd e846 113d
00000210: debb 24be 4d25 30be c4d5 2cbe 7901 06be
00000220: b6cb 903b cd90 573e 3415 093e 538b 133e
00000230: 1049 8f3d b1e5 d63c d13b 913d 5289 1abb
00000240: f00f d3bc 246a 5e3e 38e1 a6bd aa31 d6bd
00000250: 8aa6 4a3e 8862 dcbd 2818 0d3e adb1 bbbd
00000260: c6d2 32be 90c9 2c3c 0836 cc3d afa3 50be
00000270: e611 af3d 79a3 0a3c e6f6 3ebe bf81 4bbe
00000280: 7103 1f3e 53ed 06be 1004 c43d e5a5 bf3d
00000290: b59e 613d d2ee ec3d 720b 093e 0a1a 67be
000002a0: dbcb 01be d4b5 35be 53ed 47be d32b 6bbd
000002b0: 03a9 48bc f749 03bd 9a24 403e 9e06 aabd
000002c0: 49a4 2a3e c5d8 b0bd b65b c1bc 72fe 8fbd
000002d0: d43b 2fbd 5a94 d0bd 466b 153e 97d5 103e
000002e0: a0a3 dcbd d37c e93a 5af7 cdbc 9ed2 833c
000002f0: 7d6f 01be f304 223c c6cc 413d 1442 4ebe
00000300: bcfd 183e ff82 03be 172d 9a3d ff72 30be
00000310: 4944 0e3d 4302 303d e749 a13d 2a45 40bc
00000320: 4c59 283e c5ac 013e 15f9 d53d c96a d53d
00000330: c737 223c 2541 fe3d 5e45 dfbd 3a0e cdbd
00000340: 9e41 38bd 2d99 bd3b 2690 c2bd 077a e2bd
00000350: fa0f c8bd de67 33be ac39 fdbd 4182 07be
00000360: 15c5 703d de50 0fbe 62f4 51be 366c d23d
00000370: d533 823c fdef b33d 95b9 2ebe e179 0c3e
00000380: 29fe a33b 9bd3 3ebe 8480 b43d f5c9 1abe
00000390: bf05 5e3d 2161 3f3c f977 043e 64c7 0ebe
000003a0: 2052 80bc 3542 fdbd c19f debd 6049 f43d
000003b0: 167b 043e 5ed9 c13d 102d 02be f73e 55be
000003c0: c698 773d b080 9a3d fccc 0ebb 12c6 043e
000003d0: 0c0a 10be 0f2d 27bd 6ece 82bd 5f3f 49be
000003e0: 8a5a eb3d a41c efbd 1a06 54bd 6c6a c8bd
000003f0: 00c1 d3bd 2ae1 8f3d 6048 70bd b590 173e
0.061269544 -0.17694968 0.111208 0.09929471 0.10854419 0.029073061 -0.11928877 0.14591777
-0.21029101 -0.12541157 0.105807506 0.05889921 0.0536717 -0.051784746 -0.15740491 -0.12268179
-0.1531984 0.06923566 -0.10986014 -0.007353332 0.042920265 0.15182161 -0.12506604 0.036822077
-0.07156714 -0.062115982 -0.08373102 -0.108910814 -0.21889998 -0.21265571 -0.04633437 -0.05124037
-0.016182035 0.111167476 0.08633141 0.004578546 0.10882757 0.11339135 -0.10886591 -0.008805506
0.16366772 -0.03910156 0.034366764 -0.11952525 -0.17347568 -0.0762573 0.01655616 0.08779104
-0.14824048 -0.17672837 0.062163606 0.005826167 -0.05519868 -0.0037838663 0.1974366 0.15037768
-0.024089653 0.027188394 0.108172424 -0.018905042 -0.13777468 0.06677414 0.13332838 -0.11374559
-0.125325 -0.0060410793 -0.05353941 -0.22671624 -0.04064608 0.07741235 0.029244233 0.13089474
-0.106155515 0.015485334 -0.03885323 0.08191681 0.029268356 -0.20540206 -0.14557573 -0.15801255
0.04568134 0.112997316 -0.15039337 0.02635064 0.02800675 0.15856345 -0.054008577 0.121358916
-0.18719247 0.11288586 0.16399375 0.067838475 -0.19756351 0.15353851 -0.10431057 -0.16648595
0.080517985 -0.06369261 -0.16044281 -0.058641538 0.17054725 -0.1990199 -0.15301993 -0.114907
-0.059192494 0.047722418 0.098773405 0.104275376 -0.030145055 -0.19381936 -0.15290423 -0.08045449
0.07482376 -0.18493403 0.08910239 -0.09828257 -0.12632897 0.055782598 -0.041144196 0.121161506
0.09503343 -0.0016341796 -0.088643014 -0.17674604 -0.050509587 0.1626837 0.1121579 -0.24022937
-0.079018146 -0.23076543 -0.036697343 0.035468012 -0.1608729 -0.17201729 -0.1687842 -0.130865
0.0044188155 0.21051331 0.13386995 0.14408617 0.069963574 0.026232572 0.07091487 -0.0023580384
-0.025764436 0.21720177 -0.08148426 -0.104586914 0.19790092 -0.10760981 0.13778746 -0.09164748
-0.17463216 0.010546103 0.09971243 -0.2037494 0.08548336 0.0084618265 -0.18648872 -0.19873713
0.15528657 -0.1317647 0.09571087 0.09357814 0.055082995 0.11568989 0.13383272 -0.22568527
-0.12675421 -0.17745143 -0.19524126 -0.05741484 -0.012247327 -0.03205296 0.18763962 -0.083020434
0.16664232 -0.086350955 -0.023603301 -0.070309535 -0.042781666 -0.10184546 0.14591703 0.14143978
-0.107733965 0.001781369 -0.02514236 0.016091641 -0.12640186 0.009888875 0.047314428 -0.20142394
0.14940542 -0.1284294 0.075281315 -0.17231368 0.03473309 0.042970907 0.07875424 -0.01173524
0.16440314 0.12663563 0.10447899 0.10420758 0.009900994 0.12414769 -0.109019026 -0.10012479
-0.044984452 0.0057860822 -0.095001504 -0.11058431 -0.09768672 -0.17520091 -0.12364516 -0.13233282
0.058781702 -0.13995692 -0.20503381 0.10274546 0.015893856 0.087860085 -0.17062981 0.13718368
0.0050046635 -0.18635409 0.08813575 -0.15116103 0.0542047 0.011680872 0.12936391 -0.13943249
-0.01566416 -0.123661436 -0.108703144 0.11928058 0.12937579 0.094652876 -0.12712502 -0.208248
0.06044843 0.075440764 -0.002178966 0.12966183 -0.14066333 -0.040814456 -0.063870296 -0.1965308
0.11491878 -0.11675385 -0.05176363 -0.09785923 -0.10339546 0.070253685 -0.058662772 0.14801295

model2.2.weight f4 [256, 512]
00000000: 8aa8 8abc 8484 6fbd d5f3 7bbd c075 343d
00000010: de4c 9ebc fd5e a0bc 7235 d7bd 5310 d3bc
00000020: dc44 173b fa78 02bd aab8 2b3d ab41 d73c
00000030: 362c d03d 4bc4 963d 988f 85bd f23c 97bd
00000040: a6f1 813c 3a92 713d 60ed cc3d f96d 4cbc
00000050: 0ba4 3fbd bdfc 033e 35e0 a9bd 27f2 073d
00000060: 8806 85bc 7cb7 ac3c 4b57 823b 76fb 65bc
00000070: cc62 7a3c d58e 7dbc 6298 303d d387 eabb
00000080: ae34 883c faf1 3dbc 9e24 65bd 2986 813c
00000090: 02e2 8cbd dbdf 83bb 6eec 4dbd 9964 20bc
000000a0: a4b2 e93d 9e65 9b3c 27d3 91bd 4912 b2bc
000000b0: 1c3a a8bd c610 073d 17d6 c7bc 8ac6 db3c
000000c0: a241 8b3b 72f0 afbd 9169 9d3d 0acd bbbc
000000d0: 0b3d 97bd f4a3 bc3d b9d7 2dbc 1390 2ebd
000000e0: 5c96 8e3d bb79 42bd a47c 31bb 1c93 b2bc
000000f0: f684 e8bc 920a 263d c56c d3bc c298 7ebd
00000100: 814f d63c 11d7 c63c 0c9b c9bc 58e6 efbc
00000110: 550f 2abd e956 8abd 55b6 f43c d526 13bd
00000120: a74f a9bc a3d1 463d 12ff 0cbd 6c06 063d
00000130: 6f1b 98bc 0489 29bd f667 fa3b b203 f3ba
00000140: 91c6 933c 4dca 023e 3b02 2bbd 3142 52bd
00000150: ebfc 1c3d cabe bdbc 0862 0ebd 94ab 193d
00000160: 4626 08bd d92c 413d 06dc 833c 4ecb 403d
00000170: 6f81 cc3c ebb0 e1bc cc20 1abd aa0c 33bd
00000180: ef90 5b3b 2c80 32bc 58c3 893b 7d74 72bd
00000190: 27b7 93bd e126 2b3c 3d3f cabd 55db a83c
000001a0: 900c 36bd aef9 813d ba19 04bd 4da0 22bd
000001b0: 6b26 7ebd 1b32 bdbc f097 a9bc 23ca 3bbd
000001c0: b103 153b 7e16 edbc c06d 78bd 7c64 19bb
000001d0: dc8c 28bd 5216 003e f339 35bc af53 013d
000001e0: e8e5 cb3c aab0 423d ec10 8a3d 336d b6bd
000001f0: 1a90 8dbd 2c9f 4d3c a548 543b 1844 b9bc
00000200: 2c2b 83bd 999d f4bc 0f29 dd3c 1e4c 46bd
00000210: a565 0f3d 27a1 57bd e0d5 343d e273 4c3d
00000220: 1337 91bd a9ae 903c fc6a 113d b496 a4bc
00000230: 0a10 5ebc 9f90 f1bc 4991 c8bd ca12 aebc
00000240: 43cd c73c 5b11 6c3d 03c3 863d b592 803d
00000250: 945d a6bd 1aa4 2cbd 662d 49bc f1dc d9ba
00000260: 7b3b 0f3c ae63 10bd c2fd 0d3d 072b 7cbd
00000270: 49ac 0d3e b23c 103e 3631 30bb cd07 05bd
00000280: 7e2a 963b 2cc6 0dbd 012f ec3c 9e9a a63c
00000290: e7f5 e03c d428 a0bb 0592 e4bc 7680 6bbd
000002a0: 18dd f93c fcbd 1abd b64a 22bb 7b47 15bb
000002b0: 25b0 033e a5af 483e bd93 7dbc 51b8 a43d
000002c0: 2ae7 9ebb f698 debb 994f 1bbd df81 88bd
000002d0: 10a3 b53d 67c2 053d 40a9 ab3d 71f2 0f3d
000002e0: 1154 653d 2a6a 913c 2b79 793b 144f a53d
000002f0: 70aa d5bb 6bd1 89bc 01b4 283c fd39 efbb
00000300: b79d 763d c095 ecbc a05a 0d3b f4a2 353d
00000310: cca7 1abc 0315 9a3c 0155 26bd d153 e8bc
00000320: f3a1 943b 365e bf3c 9b5b 08bd 0f62 efbb
00000330: 40e4 10bd 73ef c03d bd39 ddbd a093 483b
00000340: 79c2 9fbc 244a 653c 28a8 1dbd d82b c4bc
00000350: 5ff2 0b3d a9bb cb3b 0f05 683d f4e6 72bd
00000360: 9ffb b33c 3dd9 92bc de65 27bd 4239 47bd
00000370: ae29 76bd 35f8 1c3c 37c7 43bc 8c50 3cbd
00000380: 8c5f 52bd f75b d23d d5f6 84bd cd4c ecbb
00000390: 2fdb 033d 79e1 d9bd 6638 053c 89d7 eb3d
000003a0: 6118 793c 273f 893d b2c3 03bd 6100 d0bc
000003b0: bd29 a73c 0dda a63c f663 0ebd 9631 1d3d
000003c0: 8f4f 893c c3f4 ebbc 4687 b63d 0776 a4bd
000003d0: c785 363d 9387 213d bbd6 45bd 577f 9cbc
000003e0: 6ec0 47b9 31e8 9abc 8a13 43bb eb12 4cbd
000003f0: beac 4ebd 535f 15bd ea28 2a3c 74c1 40bc
-0.016926069 -0.058475986 -0.061511833 0.044057608 -0.019323763 -0.019576544 -0.10508241 -0.02576462
0.0023081815 -0.031853653 0.041924156 0.02627643 0.101646826 0.07361659 -0.06521529 -0.07384671
0.015862297 0.058977343 0.10006213 -0.012477391 -0.046787303 0.12889381 -0.08294717 0.03318992
-0.016238466 0.021083586 0.0039776913 -0.014037004 0.015282344 -0.015475948 0.043114074 -0.007157305
0.016626682 -0.011593336 -0.055943124 0.015811043 -0.06879045 -0.0040244884 -0.050274305 -0.009789609
0.11411026 0.018969353 -0.07120352 -0.021737235 -0.082142085 0.03297498 -0.024394078 0.02682807
0.0042497674 -0.08590783 0.07686151 -0.022924919 -0.0738469 0.09210959 -0.010610514 -0.04261787
0.069622725 -0.047479372 -0.0027082348 -0.021798663 -0.028383713 0.040537424 -0.025808701 -0.0621574
0.026160957 0.024272474 -0.024610065 -0.029284641 -0.041518528 -0.06754858 0.029872099 -0.035925705
-0.020667864 0.04853977 -0.03442294 0.032720968 -0.018567769 -0.041390434 0.0076417876 -0.001854053
0.01803902 0.12772484 -0.041750174 -0.051332656 0.03832714 -0.023162264 -0.03476146 0.037517145
-0.033239625 0.04716191 0.016096126 0.047068886 0.024964062 -0.027550181 -0.037628934 -0.04371325
0.0033503135 -0.010894816 0.004204195 -0.059193123 -0.07212668 0.010446281 -0.09875343 0.020612398
-0.044445574 0.06346451 -0.032251097 -0.039703656 -0.062048357 -0.023095181 -0.020702332 -0.04584707
0.0022737796 -0.02894139 -0.06065154 -0.002340584 -0.04114996 0.12508515 -0.011061179 0.031573948
0.024889901 0.04753176 0.06741509 -0.08907547 -0.06912251 0.012550157 0.0032391932 -0.022615477
-0.06404719 -0.029860305 0.026997117 -0.048412435 0.035009045 -0.05264392 0.04414928 0.049915202
-0.07090583 0.01766141 0.03550242 -0.020091392 -0.013553629 -0.029487906 -0.09793336 -0.021249194
0.024389869 0.05763374 0.06580164 0.06277982 -0.08123317 -0.042148687 -0.01227889 -0.0016621632
0.008742209 -0.035251312 0.03466583 -0.06156447 0.13835253 0.14085653 -0.00268848 -0.032478143
0.004582702 -0.03461282 0.028831007 0.0203374 0.027461005 -0.0048876796 -0.027901659 -0.057495557
0.030500934 -0.03777884 -0.002476377 -0.0022778201 0.12860163 0.19598253 -0.015477118 0.08042968
-0.0048493342 -0.0067931367 -0.037917707 -0.06665396 0.08868992 0.0326561 0.08381891 0.03514332
0.055988375 0.017750818 0.0038066607 0.080717236 -0.006520562 -0.016823491 0.0102968225 -0.007300614
0.060209002 -0.02888 0.002156891 0.044344857 -0.00943942 0.018808847 -0.04060841 -0.02836028
0.0045359074 0.023360353 -0.033290487 -0.0073053907 -0.035373926 0.09420671 -0.10802028 0.003060557
-0.019501911 0.013994727 -0.038490444 -0.023946688 0.03416669 0.006217439 0.05664545 -0.059302285
0.021970568 -0.017925853 -0.040868632 -0.04863859 -0.060098343 0.009580662 -0.011949352 -0.045975253
-0.05136065 0.10271447 -0.06492392 -0.007211304 0.03219145 -0.106387086 0.008131122 0.115157194
0.015203566 0.067014985 -0.03216905 -0.025390806 0.020405645 0.020367647 -0.0347633 0.038377367
0.01676157 -0.028803235 0.0891252 -0.080303244 0.044561174 0.039435934 -0.048300486 -0.01910369
-0.00019049805 -0.018909546 -0.0029766285 -0.04982273 -0.05045771 -0.03646786 0.010385731 -0.011764873

model2.2.bias f4 [256]
00000000: cd56 45bc 77af dd3a 93f3 fabc aa3c 7a3c
00000010: d56e cd3c f6b8 483c fdcc 343d 0253 9bbc
00000020: 7882 37bd 6356 313d d0d7 1fbc 2635 41bd
00000030: 9f3a 4dbd f1cc 0abb d482 13bd cfaa d33b
00000040: 6c3a 80bd 7e74 65bd 16da 54bd 3737 843b
00000050: 2d83 c7bc ad11 57bd b228 e0bc 6a0f 40bc
00000060: 1222 ef3c fc6c 3fba 37e1 f3bb efd1 9fbc
00000070: 77d4 383c d4c9 a23c 5639 113d 906e 2fbd
00000080: bcb6 903c 2525 ccbc 70ed dfbc 4db1 70bd
00000090: e604 a03c a115 f13c 7608 19b9 66ff d7bc
000000a0: c963 21ba d4b3 52bd a5e1 45bd 70e3 553c
000000b0: 60ae 47bc 3466 53bb f9f8 c4b9 e91d 03bd
000000c0: a977 bfba dd83 663c e062 01bd 820d d3bc
000000d0: bd17 cbbc 6d46 d2bc 4d78 25bd fd99 cbbc
000000e0: 3b87 40bd 19a6 66bc 7d3d 16bd 31b2 1b3b
000000f0: df91 19bd 5657 ccbc 0dc2 12bc d5ff 163b
00000100: 8b73 50bd dca2 5cbc 0104 663c dc9a 00bd
00000110: 86f3 633c d314 67bc 742b 7ebd 284b 113d
00000120: 9ccd 3dbc 67e8 e13b 629e 39bd 568e 84bc
00000130: a86f c9bc 6cb1 3bbd 47e0 793c ecc3 85bd
00000140: 7dd3 44bc 677d 00bd 3e44 9abc 5b00 36bd
00000150: 7ee0 5cbc e1d4 0cbd 25cf 13bd ae0e 0d3c
00000160: 7b72 55bc 8074 26bd 11d0 3d39 3981 e13b
00000170: 451d 933a 90b6 07bd 947d 683c 26ba 13bd
00000180: 580a cfbb ddbf 9e3c 708a 4cbc 7b69 1bbd
00000190: 6316 f23c d378 d83c 1083 343d d11b db3c
000001a0: 998d 913c ee59 903b 117d 30bc a484 38bd
000001b0: 4710 b03c b242 b0bc 285d 80bc 02ae 013a
000001c0: e41c 043b be51 39bd 35ab 23bc c33c f23c
000001d0: ebe5 5fbd 2175 343d ce34 633c 4cba 603d
000001e0: 2545 833d bc42 c43d f479 3c3d ed10 e53b
000001f0: 0156 c0bb 4c61 ef3b b683 a6bc 8700 debc
00000200: 120c 9e3b 2b2c 09bd 882a 98bc b497 5bbd
00000210: d822 033b 6da3 16bd 5c80 79bb 426c 0b3d
00000220: f263 9bbc c191 64bd ce39 a1bc 685e 883c
00000230: ebb9 d53c 7034 4b3c eeb8 2fbc 273c e1bc
00000240: 7436 43bd 144e 6fbc 2cca 9d3b 4f1d cabc
00000250: d31c 25bd 1706 163d 7772 31bd 88bb 18bc
00000260: a912 59bd 8aa2 ddbc 1724 993b fc17 09bd
00000270: 79ba 39bd 6c6b cebc a2f5 bf3a 2f26 14bd
00000280: 9d23 3a3c 4741 90bc 0819 d9bc fc21 78bd
00000290: 6bfb 293b d0bb cf3a 82dc c53c 5c58 2ebd
000002a0: 332c a4bb 3ca0 4bbd bd49 5fbd 0845 60ba
000002b0: 13d1 34bd e721 a93c 2890 d2bc e192 ca3c
000002c0: 3e44 69bb a6ff 2a3a 5799 8c3b 6b10 783d
000002d0: 4f97 373c 8b15 7b3d 6b5a 8bbd ff45 033c
000002e0: 3def eabc de96 27bc f065 1a3c 28c7 1e3c
000002f0: 6fab 78bb f1b7 10bd 4786 16bd f940 bf3c
00000300: f354 ae3c d32c 37bd 5598 81bc 990c 273c
00000310: feb1 efbc 08cd 43bd b34d b13c 1a34 a5bc
00000320: cdfd 8f3c 2074 ab3c 10a7 6abd 8e5b 903b
00000330: 62e9 cc3b e42e 19bd cf83 6cba f790 7e3c
00000340: e15f 2abd 7fdd 20bb 56d4 febc 4053 5bbc
00000350: 4850 8bbc ad89 773b 5989 febc 41c4 dfbb
00000360: 0acc 26bd fd7d 243d 2764 ef3a 9ad6 bdbc
00000370: cea4 64bc 15ff 2fbc 12a3 6b3d 9723 82bd
00000380: 344d 333d 401e 5bbc 2793 853c eaaf 78bc
00000390: f8dd 8bbd 433c 123c 3aa0 c63c 4a26 363d
000003a0: 1f62 03bd 7277 0f3c cab6 37bd f4cb 803c
000003b0: 04ff 153d 4cd7 c6bc 0241 a4bb 10c2 213b
000003c0: 37e4 e9bc a09f dbbc f470 44bc e930 23bd
000003d0: 340b d3bc ceec 243c 1eec d23c cefe 183d
000003e0: 0d5e 22bd f7a9 27bd e153 8d3c 1099 17bd
000003f0: 0b6f 02bd 4915 bc3a 81e9 aa3c 3308 13bd
-0.012044621 0.0016913255 -0.030633723 0.0152732525 0.025077263 0.012251129 0.044140805 -0.01896048
-0.04480216 0.043295275 -0.009756044 -0.047169827 -0.050104734 -0.0021179284 -0.03601344 0.006459571
-0.06261143 -0.0560193 -0.051965795 0.0040349024 -0.024354542 -0.05250709 -0.027363155 -0.011722425
0.02919105 -0.0007302312 -0.007442619 -0.019509284 0.011281124 0.01987163 0.03545507 -0.04283005
0.01766526 -0.024920056 -0.027334899 -0.058762837 0.019533586 0.029429259 -0.00014594369 -0.0263669
-0.0006156532 -0.05144103 -0.048310895 0.013054714 -0.01218757 -0.0032256963 -0.00037569532 -0.032010946
-0.0014607805 0.014069525 -0.031588435 -0.025763277 -0.024791593 -0.025668347 -0.04039793 -0.0248537
-0.047003966 -0.014077687 -0.036679734 0.0023757333 -0.03749263 -0.024943989 -0.008957398 0.0023040671
-0.05089144 -0.013466563 0.014039041 -0.031397685 0.013913041 -0.014104086 -0.06205316 0.035472065
-0.011584666 0.0068941596 -0.04531706 -0.016181152 -0.024589375 -0.0458235 0.015251226 -0.0653151
-0.012013313 -0.031369593 -0.018831369 -0.044433933 -0.0134812575 -0.034382705 -0.03608622 0.008609457
-0.013027783 -0.040638447 0.00018101955 0.0068818596 0.0011223933 -0.03313309 0.014190096 -0.036066197
-0.0063183717 0.019378597 -0.012484178 -0.03794239 0.02955169 0.026424801 0.044070303 0.026746662
0.017767714 0.0044052517 -0.010772006 -0.04504837 0.021492137 -0.021516178 -0.01566942 0.00049468887
0.0020158822 -0.04524397 -0.009989549 0.02956999 -0.054662626 0.044057015 0.01386757 0.054865167
0.06409673 0.09583041 0.04601474 0.006990543 -0.0058696275 0.0073053 -0.020326477 -0.02709986
0.0048232162 -0.033489387 -0.018574968 -0.053611472 0.0020009782 -0.03677695 -0.0038070893 0.03403879
-0.018968556 -0.055803064 -0.019680884 0.016646579 0.02608963 0.012402639 -0.010725243 -0.027494503
-0.047659352 -0.014606018 0.0048153605 -0.024672179 -0.040310692 0.0366269 -0.043322053 -0.009322055
-0.05299631 -0.027055044 0.0046734917 -0.03347014 -0.04534385 -0.025197707 0.0014645348 -0.036169227
0.01136103 -0.017609252 -0.026501194 -0.060579285 0.002593721 0.0015848819 0.024152998 -0.042564735
-0.005010152 -0.04971336 -0.05451368 -0.00085552083 -0.0441447 0.020646049 -0.025703505 0.02472824
-0.0035593654 0.000652308 0.0042907405 0.060562532 0.011205508 0.06129984 -0.06804355 0.008012294
-0.02867853 -0.010228841 0.009423718 0.009691037 -0.003794398 -0.03533167 -0.03674915 0.023346411
0.021280741 -0.044720482 -0.015819708 0.010195875 -0.029259678 -0.047802955 0.021643495 -0.020166446
0.017577076 0.020929396 -0.05728823 0.0044054454 0.0062534073 -0.037398234 -0.00090223266 0.015537492
-0.041595344 -0.0024546084 -0.031107109 -0.013386548 -0.017006055 0.003777127 -0.031071352 -0.006828815
-0.04072193 0.040159214 0.0018264101 -0.023173619 -0.013955308 -0.010741969 0.057528563 -0.063544445
0.0437748 -0.013373911 0.01630552 -0.01517866 -0.068294466 0.0089255 0.024246324 0.04447011
-0.032075997 0.008756505 -0.044852056 0.015722252 0.036620155 -0.024272583 -0.0050126323 0.002468232
-0.028551204 -0.026809514 -0.011989821 -0.039841566 -0.025762178 0.010066224 0.025747355 0.037352376
-0.039640475 -0.040933575 0.01725191 -0.037011206 -0.03184418 0.0014349605 0.020863296 -0.03589649

model2.4.weight f4 [64, 256]
00000000: 14b2 66bc f0f8 0d3d 313b 2ebb 898f 303b
00000010: 8d78 7f3d 946c 3c3a 1190 0ebd e66c 183d
00000020: c8fb 773d 9c30 3b3b 6217 81bc 6dc1 a73c
00000030: 593f 46bd f6c9 8dbc 67d2 69bd b317 263d
00000040: 63d0 1c3c 49e5 f8bc fca7 5e3b 8c94 86bc
00000050: ad84 edbb bd53 963c a67f 213c 4828 02bb
00000060: 9c3f cd3c 1f72 47bd a2a1 303d 6925 533c
00000070: b43d 1b3d 6f5f e7bc 8fb6 e8ba 139b 01bd
00000080: a97a 3a3d 70e6 b43c f52b c8bc 31da 5cbd
00000090: 6060 a4bd 11aa 00bd a5f9 e1bc 90fa 82bc
000000a0: ced0 ecbd 35f7 72bd 2a49 35bd b52e 4c3d
000000b0: 4020 7fbd 92f5 823c d8c5 39bc d377 71bd
000000c0: 633b 46bd 31e7 30bd 20d7 89bd 9fdf d4bc
000000d0: 2793 01bd 9c68 7bbd cfa5 c13b 1a8c 583d
000000e0: 6695 983c ac11 7cbd 8b46 dbbd 2c71 5dbd
000000f0: 7b87 163d 1fcf 6bbd bb1a 2abd dd5b e0bc
00000100: 8c40 66bd 1dc8 c63c 013b e3bc 0338 0ebc
00000110: e301 e0bc 1ac0 64bd 4b4a 743c 7868 873b
00000120: 5dc3 bfbb 6ac9 01ba 59a6 243c 9dd5 33bd
00000130: e5bb 593c db5b fc3b 5438 e63b 8e5f 47bd
00000140: 4db8 013d 4f39 02bd e94f 713d 5eaf 97bd
00000150: ec3f 1a3c 2015 6ebd cc5e b03b 86bc 3e3d
00000160: 72c5 463c a51c cbbc 29ab 793c 8ac0 773d
00000170: 6894 44bd 3bb3 11bc 84a8 b83c aa8b a9bd
00000180: b968 debc 6f6d 9f3b aa54 343d 55d3 2d3d
00000190: d5a5 02bd d7c8 1d3d 906f 3ebd fd68 a73c
000001a0: 2988 38bd 6736 14bd 4a73 3cbb 212d 663c
000001b0: a86d 26bb f585 55bd 0bd3 a73c 20e2 123c
000001c0: 68a1 67bd 1369 e33c 9aa6 343d 504e d83c
000001d0: f01f b6bb 2d48 25bd 29e8 813b 3b32 93bd
000001e0: b471 59bd 4861 0b3d 9c1b 013c 2f7b e13c
000001f0: eb79 713d 4437 2fbc b1f1 a1bd 9823 823b
00000200: 2750 b4bd 42be 673c 5495 5dbd 8571 81bc
00000210: 801f f9bc 933b 463d b351 f2bc 45ac 65bd
00000220: ed52 173c cc1e 4bbd c0bc d53a 01f8 ffbc
00000230: 24dd d23a 4570 ae3c ca69 72bc 0bec 183d
00000240: cde7 963c beb9 43bd 14e5 7bbd 147f 57bd
00000250: 6bcc 0dbc 0971 9b3c 8a08 443c 68df f7bb
00000260: 648e 38bd 8da3 5cbd 5b28 8cbd ba3f 123d
00000270: 6c42 be3c 348f 873c dbb9 003c 099d 2d3c
00000280: 68bf b9bd 8eb2 2d3d c1be 45bd 5633 9e3a
00000290: 059d 9ebc 46cb 4c3d b53d 9b3b 2ddc 55bc
000002a0: 65f2 613d 4ff9 1f3c cb79 a6bd 987e b83c
000002b0: 00d0 29bd 6c0b 313d 8091 81bd 2a4a 99bd
000002c0: 6aa0 303b 27de 1b3d bc41 693c d65f f5bc
000002d0: bcc5 8dbb 3034 fb3c c9dd 0b3d d0cc 12bb
000002e0: 854c ab3c 394d 16bd 0726 50bc a8b2 3dbd
000002f0: cc4b c03c 40a4 66bc d504 7bbd 58e6 b9bc
00000300: 0772 66bd 0228 28bd a392 a3bd 9e44 0a3d
00000310: 449c 66bd 3eb7 243d f6d7 003d cc55 8fbc
00000320: c531 28bd b342 0f3c d1b8 9d3c 09b0 79ba
00000330: db22 17bc a12f 86bc 6433 8bbb cde7 d73c
00000340: 7410 033d 08ce 143b fb82 fc3b 9256 063c
00000350: 5dd3 343d 46f5 2cbd 9536 d2bc ff27 30b8
00000360: 2067 9abd 61fd 4abc 5a71 7cbd 1abd 49bc
00000370: b5b0 0e3c 0d11 bdbc 790f cdbc 22fe 90bc
00000380: b06e a1bd e35f edbc bd97 5c3d 3789 90bd
00000390: f732 493c 2a46 c83c 5f0a c9bc 2b9c 1cbd
000003a0: c4d5 183d 3221 4e3d 15ba d2bd 6c5f 0fbc
000003b0: 1607 253d 8131 c5bc e6ec 40bd 77c8 2fbc
000003c0: 98e0 6b3d a13a 1aba fa19 11bd 3a1c 5cbd
000003d0: 1e49 cebc e55b 273d 8d28 0b3d 8e99 6cbd
000003e0: e514 aa3c 6a54 dbbc 3a37 6e3d ed0b 91bb
000003f0: ed3b 5a3d 2f5d 843c db75 6b3d 5394 493d
-0.014080543 0.034661233 -0.0026585574 0.0026941022 0.062370826 0.000718781 -0.03480536 0.03721323
0.06054285 0.002856291 -0.01575822 0.020477975 -0.048400257 -0.017308217 -0.05708542 0.040549945
0.009571168 -0.03038277 0.0033974638 -0.016428255 -0.007248482 0.018350476 0.009857094 -0.0019860435
0.025054745 -0.04869282 0.043122895 0.012887337 0.03790064 -0.028243748 -0.0017754602 -0.03164203
0.045527134 0.022082537 -0.024435023 -0.05391902 -0.080261946 -0.031412188 -0.02758486 -0.015988618
-0.11563264 -0.059317786 -0.044259228 0.04984923 -0.062286615 0.015986238 -0.0113386735 -0.058952164
-0.04839648 -0.04318923 -0.06730485 -0.025985537 -0.031634476 -0.06137906 0.0059096585 0.052867986
0.018625926 -0.06154029 -0.107068144 -0.054063007 0.036750298 -0.057570573 -0.0415294 -0.027387554
-0.0562139 0.024265343 -0.027738096 -0.008680346 -0.02734465 -0.055847265 0.014910291 0.0041323267
-0.0058521465 -0.00049509725 0.010049426 -0.04390489 0.013289426 0.0077013797 0.007025758 -0.048675112
0.031669904 -0.031792935 0.0589141 -0.074064955 0.009414654 -0.058125615 0.0053823944 0.04656651
0.012132036 -0.024793932 0.015238562 0.060486354 -0.047993094 -0.0088928295 0.022541292 -0.08278592
-0.027149545 0.0048653404 0.044026054 0.04243787 -0.03189643 0.038521614 -0.046493113 0.020435805
-0.045051727 -0.036184695 -0.002875524 0.0140488455 -0.002539495 -0.052129705 0.020486375 0.008965045
-0.056550413 0.027760064 0.044104196 0.02640453 -0.0055580065 -0.040352035 0.003964443 -0.07187315
-0.05308695 0.03402832 0.007880118 0.027524559 0.05895416 -0.010694329 -0.07907427 0.0039715283
-0.0880435 0.014144482 -0.05409749 -0.0158012 -0.030410528 0.04839666 -0.029579973 -0.056072492
0.00923608 -0.049589917 0.0016306862 -0.031246187 0.0016087634 0.021293769 -0.01479573 0.037334483
0.018421078 -0.04778456 -0.061497763 -0.052611426 -0.008654694 0.018974798 0.0119649265 -0.007564474
-0.04505767 -0.05386691 -0.06843635 0.035705306 0.023225032 0.016547777 0.007856811 0.010596522
-0.09069711 0.04240661 -0.04827762 0.0012069743 -0.019361982 0.049998544 0.0047375807 -0.013052982
0.055162806 0.00976403 -0.08128699 0.022521302 -0.04145813 0.043223783 -0.0632658 -0.07484849
0.0026951083 0.038053658 0.014236864 -0.029952925 -0.0043265503 0.030664533 0.034147058 -0.002239991
0.02091051 -0.03669474 -0.012704379 -0.046312958 0.023473643 -0.014077246 -0.061283905 -0.022692844
-0.05626109 -0.04105378 -0.07986953 0.033756845 -0.05630137 0.040213816 0.031455956 -0.017496966
-0.04106309 0.00874393 0.019253166 -0.00095248275 -0.009224619 -0.016380133 -0.0042480696 0.026355648
0.031998113 0.0022705812 0.007706044 0.008199351 0.044146884 -0.0422261 -0.025660792 -4.199892e-05
-0.07539201 -0.012389512 -0.061631538 -0.012313152 0.008709122 -0.02307942 -0.025031792 -0.017699305
-0.0788244 -0.028976386 0.053855646 -0.07057422 0.012280217 0.02444752 -0.024541078 -0.03823487
0.037313238 0.050324626 -0.102893986 -0.008750778 0.04028996 -0.024071457 -0.047100924 -0.010728947
0.057587236 -0.000588337 -0.035425164 -0.053737856 -0.02518135 0.04085912 0.03397422 -0.05776363
0.020761916 -0.02677365 0.058158137 -0.0044264705 0.053279806 0.016157715 0.057485443 0.04921372

model2.4.bias f4 [64]
00000000: 2ea5 a6bc 68df 66bc 5d72 2c3d 975b 413c
00000010: 0e51 de3c d7e9 9a3d 96d3 bb3d fe62 60bc
00000020: 5b7b 823d 2582 f93a 79c0 8bbd eac3 1e3d
00000030: 0d84 6fbb 90cd 52bc a2c2 f539 466c e7bc
00000040: 4cfe f1bc 66c2 4a3b 1ff3 31bd 7218 f5bb
00000050: 682a ca3d 75a5 0fbc 0a17 8cbd 40a8 8abc
00000060: 765f 2ebc 03ca 60bd b113 18bd 9f9e e63b
00000070: eac8 443c fcd6 54bd 1523 51bd 66c7 fcbc
00000080: a581 023c 3514 92bb 7492 fdbc db9b 75bd
00000090: 53bf 59bd 583a 253c f324 73bd cb41 0c3d
000000a0: 5f0e a6bc 22b3 173d f786 ca3d a9f4 803d
000000b0: e6ee 10bd 395a 2abd afa8 af3c f5f7 74bd
000000c0: cd00 8dbd f240 81ba 9fac 0d3d 2ae7 e939
000000d0: d027 f63c 3f22 d3bc 7c23 e4bb a25a e73c
000000e0: 1d4e bbbd 7187 6dbd d7f2 9abc 8929 51bd
000000f0: 9f6d 54bd ced0 e2bb b7c6 f93d 9858 82bc
-0.020342436 -0.01409135 0.042101253 0.011801622 0.02713826 0.07564133 0.09171216 -0.013695477
0.063711844 0.0019035978 -0.068238206 0.038761057 -0.0036547214 -0.012866393 0.00046875054 -0.028249871
-0.029540204 0.0030938624 -0.04344475 -0.0074797207 0.098713696 -0.008767475 -0.06840332 -0.016925931
-0.010642877 -0.054880153 -0.037128154 0.007037952 0.012010792 -0.051962838 -0.051058847 -0.0308568
0.00796548 -0.0044579753 -0.030953623 -0.05996309 -0.053160977 0.010084711 -0.05936141 0.034242433
-0.020270525 0.03703607 0.09889024 0.06296665 -0.03538408 -0.04158995 0.02144274 -0.059806783
-0.06884918 -0.0009861274 0.034588452 0.00044613454 0.030048281 -0.025773166 -0.006962238 0.02824146
-0.09145758 -0.057990495 -0.018914623 -0.051065 -0.051862355 -0.006921864 0.12196105 -0.015911385

model2.6.weight f4 [4, 64]
00000000: 621d 403d 9efc 9e3d 5731 73bd a1ab 1f3d
00000010: 5229 433d 057c febd a3ba 11be 88a9 593c
00000020: 1bcf 64bd 3d28 87bc 812d 3abd b54a c8bb
00000030: 5d06 dd3d c613 89bd b1ba b33c ea74 ea3d
00000040: a68f d8bd 0976 16be 45a2 8c3d ce32 493c
00000050: 2a14 22be 31a0 a53d 899d 9b3d 8600 6a3d
00000060: 2c92 1ebe 22b0 04be 164a c5bd b5d6 e53d
00000070: fec7 d1bd 2a66 8b3c 0814 ea3c 8473 a93c
00000080: 003c fabd e69e d23d 2f3b 09bd f86d 2c3d
00000090: e185 4abc 85f6 fbbd cd7d 573d a29d 28bd
000000a0: d746 d0bd 17ff b93d 85ba b9bd f734 9ebd
000000b0: 5e55 a0bd fe45 b93d 1e74 303d 1dba 9ebd
000000c0: 7d84 cbbd 4955 6e3c a96f 8cbd 204c 893d
000000d0: 8734 673b 39cf bcbd 480a 8bbd e125 ee3d
000000e0: 84db ad3c 060a 1b3e aa6d 4ebd 0770 9bbc
000000f0: e89a 6b3c d723 803d 2197 2cbe 3be4 a93d
00000100: f0f0 2ebd 520c 8cbd 79f8 963c 1a47 edbd
00000110: e309 abbd f946 e23d b926 b3bd c945 db3d
00000120: 2c45 133e 3fd6 1dbd b31e 583d 9a29 233d
00000130: 0c96 d5bd 687b 1f3e a382 a2bd 2f5e c6bd
00000140: 1fb5 7a3d c495 a03d 5d48 54bd 5292 58bc
00000150: c502 45bd 55cd b3bd c468 aebd 6ae5 2b3e
00000160: 715a 15bd 8b9f b93d f76b 3abb af32 ee3d
00000170: 7f3e 70bd 99be 643e 18bf 2a3d d20e be3c
00000180: dae0 ba3d c97d 2a3c dd51 2c3d 14a1 3fbd
00000190: 260c 073e 4e8b bebd 890b a1bd 45e5 98bd
000001a0: 8433 7a3d c4a9 c2bd a693 62bd 679f 0f3c
000001b0: ad27 b23d f5b7 113e ea54 373b 107c 023c
000001c0: c564 a83c 66c7 f93d 450b c53c 3598 86bd
000001d0: b51b 863b 8d20 533d 4c2b 873d ecdb d1bc
000001e0: ee31 2dbd fffb 8fbd 570f bcbd 6f0d e6bd
000001f0: 1cab f2bd 6fe1 03bd 8452 e7bc e0b0 d33d
00000200: 0b62 b2bc 8401 8a3c 9fa9 96bd 81c2 b53d
00000210: a7da 05be c9f3 cb3d 2830 02be fcf1 c0bc
00000220: dc83 a33d a833 71bd 633d 223d 071d ab3d
00000230: 8131 053d d62e fa3d 8418 b83d 0442 db3d
00000240: b5ca 323b 760f b53d 743a c43d 7d2a a53d
00000250: 2022 e93d 4419 e8bd c6a1 c7bd 7442 07ba
00000260: d926 4d3d 9ce7 633d 7e0d d73d a94f 2bbd
00000270: 5b12 d33d 6d19 833d ebca 9c3d f7d3 003e
00000280: 60c9 af3d e0e3 ef3d 8bc2 053a f83c 92bd
00000290: 5912 af3c daa4 08be fbd1 cebc eabb 823d
000002a0: efb1 d13c 72a8 f3bd 082a 233d 0a3c 703c
000002b0: bb35 29ba 0fd0 7d3d dbda dabd 6f50 283d
000002c0: a62b 3cbd 4e86 9c3c 7126 95bd edaa eebd
000002d0: 20b8 8bbd c58c c43d 6c0d aabd aa21 813d
000002e0: 956d 68bd 24d1 3ebd d088 acbd 1690 c33d
000002f0: aa3b b7bd 350f a03b 6c63 3ebc 8fb3 363d
00000300: 0fca d0bd 62ea 7dbd 4ced b2bc 4dd8 a83d
00000310: ac54 9d3d b260 433d 71dd cdbd f63c d03d
00000320: 0091 913d 0947 6a3d 3cbb c23c 7041 4ebd
00000330: 1982 843d cfce e1ba 728b 21bd 4fd2 74bd
00000340: b7fd db3d 0569 49bd cb3c 8b3d 1f9e c53d
00000350: e745 923d 4f5e 9e3d 41fd 99bc a48b d23d
00000360: 062f 5f3d ab40 f4bb 677b adbd e250 98bd
00000370: 3d81 863d 3f4c fb3d 79e6 063e b283 f5bc
00000380: 1b3a c7bd d7f5 8ebd 4e3b dabb 6c01 eabd
00000390: e023 013e 8b7d 03bd 14c5 503d b2bf d43d
000003a0: 0a10 98bb cf4b b9bd 8efe 0b3e 855e bdbd
000003b0: 91a0 583d 152c 2e3d d3e8 a9bd d797 75bd
000003c0: 5ef1 12be 750e 9c3c 3509 e03d 279b 883d
000003d0: 4855 25bc e8cb 2fbd 29e9 28bd fac4 3ebd
000003e0: 248f 283d 395e b5bd 129b d13c 297b f6bc
000003f0: ad49 27bd a71f 80bd 1f1e 2abc 81c9 9ebc
0.04690302 0.07763027 -0.059373226 0.038982037 0.047646828 -0.124259986 -0.14231353 0.013285048
-0.055861574 -0.01649868 -0.045453552 -0.0061124214 0.10792229 -0.066932246 0.021939607 0.11448081
-0.10574274 -0.14693464 0.06866888 0.012280179 -0.15828004 0.08087195 0.07598407 0.057129405
-0.15485448 -0.12957814 -0.096332714 0.11222593 -0.102432236 0.017016489 0.028574005 0.020684965
-0.12218475 0.10284214 -0.033503707 0.042097062 -0.012361021 -0.12302879 0.052610207 -0.041165955
-0.10169762 0.09081858 -0.09068779 -0.07724946 -0.078287825 0.09046553 0.043079488 -0.07750342
-0.099373795 0.014546701 -0.06857235 0.06703973 0.0035279111 -0.09219212 -0.0678907 0.116283186
0.021222837 0.15140542 -0.050397553 -0.018974317 0.014380194 0.06256836 -0.16854526 0.08295485
-0.042710245 -0.068382874 0.018429028 -0.11585827 -0.08351495 0.11048693 -0.0874762 0.1070667
0.14381856 -0.0385344 0.052763652 0.039834596 -0.1042901 0.1557442 -0.07935073 -0.09685933
0.061207887 0.078410655 -0.051826824 -0.013218479 -0.048098344 -0.08779398 -0.08516076 0.16786733
-0.036463205 0.090636335 -0.00284457 0.11630761 -0.05865335 0.22338332 0.041686147 0.023200426
0.09124918 0.010405966 0.04207026 -0.046784475 0.13188228 -0.09303914 -0.07863528 -0.07465605
0.061084285 -0.095050365 -0.05531659 0.008766032 0.08698974 0.1423033 0.0027974197 0.007964149
0.020555863 0.12196235 0.024053225 -0.06572 0.0040926584 0.051544715 0.06600055 -0.025617562
-0.042283945 -0.07030486 -0.09182613 -0.11233031 -0.11849043 -0.032197412 -0.028237589 0.103364706
-0.021775266 0.016846426 -0.073565714 0.08874989 -0.1307169 0.09958608 -0.12713683 -0.023552887
0.079841346 -0.058887154 0.039609324 0.08355146 0.032517914 0.122159645 0.08989051 0.10705951
0.0027281467 0.088408396 0.095814615 0.080647446 0.11383462 -0.11332944 -0.09747653 -0.00051597436
0.050085876 0.0556408 0.1050062 -0.041824017 0.103062354 0.06401334 0.07655891 0.12580858
0.08583331 0.117133856 0.00051025365 -0.07140535 0.021371054 -0.13344136 -0.02524661 0.06383498
0.02559754 -0.11897363 0.039835006 0.014662752 -0.0006454845 0.061966 -0.106862746 0.041092332
-0.045940064 0.01910701 -0.07282723 -0.11653695 -0.068222284 0.09597162 -0.08303341 0.06305249
-0.05674513 -0.04658617 -0.084245324 0.095489666 -0.08946927 0.0048846253 -0.011620384 0.044604834
-0.101947896 -0.061991103 -0.021841668 0.08244381 0.076821655 0.047699638 -0.10052002 0.101678774
0.07107735 0.05719665 0.023770921 -0.050355375 0.06470127 -0.0017227771 -0.039439626 -0.05977088
0.10741752 -0.04917242 0.06798705 0.096493 0.07142239 0.07732832 -0.018797519 0.102805406
0.054488204 -0.007453998 -0.08470803 -0.07437302 0.06567619 0.12270402 0.13173856 -0.029970024
-0.097278796 -0.06980484 -0.0066599017 -0.114260525 0.12611341 -0.03210215 0.0509692 0.103881255
-0.004640584 -0.090476625 0.13671324 -0.09246544 0.052887503 0.04252251 -0.08296361 -0.05995926
-0.14349887 0.019049862 0.10939256 0.06670218 -0.010091133 -0.04291907 -0.041237984 -0.04657457
0.041152135 -0.08855862 0.025586639 -0.030088024 -0.040841747 -0.06256037 -0.010383158 -0.019383194

model2.6.bias f4 [4]
00000000: 0463 1ebe 0a67 00be eccd b5bc 2521 fb3b
-0.15467459 -0.12539306 -0.022192918 0.0076638632
