model_weight/temp_model/26664 critic.pth (torch, 645007 bytes, 7 tensors)

model.0.weight f4 [512, 24]
0	0x3d03b642	0.032156236
1	0xbccc3117	-0.024925752
2	0xbda59706	-0.08085446
3	0xbdde93ec	-0.108680576
4	0xbd873b8e	-0.06603156
5	0x3c3306cf	0.010926916
6	0xbbe2a491	-0.0069165905
7	0x3c5c9ac0	0.01346463
8	0x3de39d15	0.111139454
9	0xbe8ea55b	-0.2786053
10	0x3de088e7	0.10963612
11	0xbcf1d867	-0.029522134
12	0x3d8a293e	0.067461476
13	0xbbd08e7e	-0.0063646426
14	0xbe20d3f7	-0.15705858
15	0x3ae66fca	0.0017580923
16	0x3d62d0d3	0.05537493
17	0x3c9a1fd4	0.018814005
18	0xbd9b2f08	-0.0757733
19	0xbeaffcac	-0.3437246
20	0xbe1558e9	-0.14584698
21	0xbe2c70c5	-0.16839893
22	0xbe2710e3	-0.16315036
23	0xbe6933dd	-0.2277369
24	0x3d4a6ddc	0.049421176
25	0x3e507726	0.20357952
26	0xbcdf6db7	-0.027273996
27	0x3d806876	0.06269924
28	0x3dec4416	0.11536424
29	0xbc0b9df7	-0.0085215485
30	0xbd9145da	-0.07093401
31	0x3d5a13e5	0.05324163
32	0xbe5f34c5	-0.21797474
33	0xbe1e4964	-0.15457684
34	0xbd29396b	-0.041314524
35	0x3de34b41	0.11098338
36	0xbd227982	-0.03966666
37	0x3d5e05f9	0.054204915
38	0xbe0bbf23	-0.13647132
39	0x3dd52018	0.10406512
40	0x3d17dc6a	0.037075438
41	0x3d13d750	0.03609401
42	0xbe4fc531	-0.20290066
43	0xbe5e6c0c	-0.21720904
44	0xbd3d2c47	-0.046184804
45	0x3c8362b9	0.016038286
46	0xbd67ea65	-0.05662002
47	0xbdf0f73d	-0.11765907
48	0x3da75b41	0.08171702
49	0x3e0fe00f	0.14050315
50	0xbdb01921	-0.08598543
51	0xbcfc31e9	-0.030785518
52	0xbd1d6396	-0.03842505
53	0x3d6c3e3f	0.05767655
54	0xbd91c51b	-0.07117673
55	0x3dff71ce	0.124728784
56	0xbda89527	-0.082315736
57	0xbd8b9e10	-0.068172574
58	0xbd056be1	-0.032573584
59	0xbda2938d	-0.07938299
60	0xbde94d93	-0.11391749
61	0x3d60aae0	0.05485046
62	0xbd6ed3e8	-0.05830756
63	0x3d1e9350	0.038714707
64	0xbd19af72	-0.037520833
65	0xbe605d90	-0.21910691
66	0xbd84ef47	-0.06490951
67	0xbe684063	-0.22680812
68	0xbe117db6	-0.14208111
69	0xbe5388c8	-0.20657647
70	0xbe47c364	-0.1950813
71	0xbe860e90	-0.26182985
72	0xbe829e9d	-0.25511637
73	0xbf163b2d	-0.58684045
74	0x3f012b53	0.5045673
75	0x3e84dcef	0.2594981
76	0x3d8f0657	0.06983631
77	0x3ed68b42	0.4190312
78	0x3d4c93a8	0.049945503
79	0x3de7283d	0.11286972
80	0xbeef5619	-0.46745375
81	0xbf0e0548	-0.5547681
82	0x3f132e69	0.5749269
83	0xbd995f08	-0.07488829
84	0xbe1c5de9	-0.15270199
85	0xbe8d6cd7	-0.276221
86	0xbf252b28	-0.64518976
87	0xbf0aed56	-0.54268396
88	0xbf14bbff	-0.5809936
89	0xbf0e9a35	-0.5570405
90	0xbf166d7f	-0.5876083
91	0xbef6bd41	-0.48191264
92	0xbf41dc7e	-0.7572707
93	0xbf15c7a0	-0.5850773
94	0xbf38ebd7	-0.72234863
95	0xbeb392d9	-0.35072973
96	0x3ec9a248	0.39381623
97	0x3f033d5f	0.5126552
98	0xbf51d686	-0.8196796
99	0xbf1049a3	-0.5636236
100	0x3f1fea2a	0.6246668
101	0x3dbd6a32	0.09248771
102	0x3d70d738	0.058799
103	0x3df23d9c	0.11828157
104	0xbe5cd995	-0.21567376
105	0x3de7252b	0.11286386
106	0x3d9f1d42	0.07769252
107	0x3eae04c5	0.33988014
108	0x3d832bd0	0.06404841
109	0xbe9e2e6b	-0.3089479
110	0xbf379d9e	-0.7172488
111	0xbf60c591	-0.8780146
112	0xbf20cd00	-0.62812805
113	0xbf42f0e7	-0.7614884
114	0xbf4934b1	-0.78596026
115	0xbf6d11a9	-0.9260507
116	0xbf6bf0a2	-0.9216405
117	0xbf7d44ed	-0.989333
118	0xbf10307d	-0.5632399
119	0xbec4f3b3	-0.38467178
120	0x3ddb80c8	0.107179224
121	0x3e41276f	0.18862699
122	0xbc87d6b6	-0.016581874
123	0xbeb45fb6	-0.35229272
124	0xbdbb851c	-0.09156248
125	0xbcfcea04	-0.030873306
126	0x3d8d9be3	0.06914499
127	0xbddca8ba	-0.107743695
128	0x3d26ef17	0.040755358
129	0xbeab80d1	-0.33496717
130	0x3bc1ec43	0.005918057
131	0xbd2296ea	-0.039694704
132	0xbcaf3882	-0.02138925
133	0x3e3fd1a5	0.18732317
134	0xbed266ff	-0.41094205
135	0xbedd48f4	-0.4321972
136	0xbe9543c5	-0.29153267
137	0xbead61cf	-0.33863685
138	0xbea36c6c	-0.31918657
139	0xbf10e8ee	-0.5660542
140	0xbecdd3d4	-0.40200675
141	0xbe686418	-0.22694433
142	0xbf0fc445	-0.5615886
143	0xbe644a3d	-0.22293945
144	0xbeb8da0d	-0.3610386
145	0x3e2e907b	0.17047302
146	0xbe769324	-0.24079567
147	0xbd7b6420	-0.061374784
148	0x3d32618e	0.043550067
149	0xbe5a0f83	-0.2129498
150	0xbea605f6	-0.32426423
151	0xbd985e15	-0.0743982
152	0xbe8b7c97	-0.27243492
153	0xbe575246	-0.21027479
154	0x3eaff71c	0.34368217
155	0xbd5ada1a	-0.053430654
156	0x3e14d7ec	0.14535493
157	0xbe1f8c12	-0.15580776
158	0xbea77a52	-0.3271051
159	0xbf19a2ee	-0.60014236
160	0xbe93ca83	-0.28865442
161	0xbec97333	-0.39345703
162	0xbe9b1da0	-0.3029604
163	0xbf17b585	-0.5926135
164	0xbec7b56b	-0.39005598
165	0xbef8f4e6	-0.48624343
166	0xbed24508	-0.41068292
167	0xbe38cad6	-0.18046126
168	0x3d417047	0.047226217
169	0xbe1cf884	-0.15329176
170	0x3d1a29e2	0.0376376
171	0xbe16e22e	-0.14734718
172	0x3e698852	0.22805908
173	0x3c7972f4	0.015225161
174	0xbe0b5423	-0.13606314
175	0x3de95993	0.11394038
176	0x3db77f27	0.08959799
177	0xbebac3e3	-0.36477575
178	0xbe36ee72	-0.17864397
179	0xbeb8076b	-0.3594316
180	0xbcaa9fdd	-0.020828182
181	0x3de4904e	0.111603364
182	0xbefb3bdd	-0.4906911
183	0xbf1d081d	-0.61340505
184	0xbed8528b	-0.42250475
185	0xbf0c6fe0	-0.5485821
186	0xbefcec7e	-0.4939918
187	0xbf155a3b	-0.58340806
188	0xbe84b2c8	-0.2591765
189	0xbe826343	-0.25466356
190	0xbf1e2873	-0.6178047
191	0xbdbcd77c	-0.09220788
192	0xbda64ddc	-0.08120319
193	0xbda940a7	-0.082642846
194	0xbe77cb2d	-0.24198599
195	0xbe28ec0e	-0.16496298
196	0x3d744c23	0.059642922
197	0xbea73f78	-0.3266561
198	0xbbfbc5c1	-0.007683486
199	0xbe014e35	-0.1262749
200	0xbd52fb94	-0.051509455
201	0xbe267c90	-0.16258454
202	0xbd5e4bcd	-0.054271508
203	0xbe3a1957	-0.18173729
204	0xbc9d3ff8	-0.019195542
205	0xbdad9395	-0.08475415
206	0xbe6dd943	-0.2322741
207	0xbed66f7c	-0.4188193
208	0xbe0ae2d6	-0.13563094
209	0xbeac3b01	-0.33638766
210	0xbe4b3ce1	-0.19847442
211	0xbdfbb44d	-0.12290249
212	0xbe8a7ec8	-0.2704985
213	0xbe9e502a	-0.30920535
214	0xbc9d2db7	-0.019186838
215	0xbe6acf32	-0.22930601
216	0x3c83a6ca	0.016070742
217	0xbe58711f	-0.21136902
218	0xbd76fac6	-0.06029775
219	0x3c709441	0.014683784
220	0xbd0aedce	-0.033918194
221	0x3d14dda4	0.036344185
222	0x3d35fd6b	0.04443113
223	0xbc42a945	-0.011881177
224	0x3cb59c91	0.022169383
225	0xbe2f90e5	-0.17145117
226	0xbd8583ae	-0.065192565
227	0xbb947864	-0.0045309532
228	0x3db71d4a	0.08941133
229	0xbe1117b8	-0.14169204
230	0xbd93222f	-0.071842544
231	0xbe5d8735	-0.21633609
232	0xbe2ffeb9	-0.17187013
233	0x3d66522f	0.05623072
234	0xbe2b6e38	-0.16741264
235	0xbe2839e7	-0.16428338
236	0xbe70a91f	-0.23502015
237	0xbe1a73ee	-0.15083286
238	0xbd9ea096	-0.07745473
239	0xbe927939	-0.2860811
240	0x3de9f964	0.114245206
241	0x3e8d3cba	0.27585393
242	0x3e3aec7a	0.18254271
243	0xbede9690	-0.43474245
244	0x3e47b6e8	0.19503367
245	0x3bc67d98	0.0060574524
246	0x3d98a0ed	0.07452569
247	0x3da128d6	0.07869117
248	0xbd29e984	-0.041482463
249	0xbe6b1f56	-0.22961172
250	0xbc499233	-0.012302923
251	0xbe0a3806	-0.13497934
252	0x3e25e290	0.16199708
253	0x3b824c23	0.0039763614
254	0xbeaa7672	-0.33293492
255	0xbe9b7707	-0.30364248

model.0.bias f4 [512]
0	0xbdb61fa3	-0.08892753
1	0xbe8c5e08	-0.2741549
2	0xbd9ad5a9	-0.07560284
3	0xbdc5ade4	-0.09652308
4	0xbed2b093	-0.4115034
5	0x3d574557	0.052556362
6	0xbebabe3d	-0.36473265
7	0xbe942c89	-0.28940228
8	0xbe309b76	-0.17246804
9	0xbd900f81	-0.07034207
10	0x3d1a4ee9	0.03767291
11	0xbdb5291a	-0.0884573
12	0xbe9ffbb8	-0.31246734
13	0xbe31108c	-0.17291468
14	0xbeada81a	-0.33917314
15	0xbe0a2394	-0.13490134
16	0xbe5303e2	-0.2060695
17	0xbe585b9b	-0.21128695
18	0xbe61d341	-0.22053243
19	0xbd19653f	-0.03745007
20	0xbeace2ae	-0.33766693
21	0xbdd50ed9	-0.104032226
22	0x3f39c26d	0.72562295
23	0xbec3908e	-0.38196224
24	0xbe995faa	-0.29955798
25	0xbe5924fd	-0.21205516
26	0xbe16c6a3	-0.14724211
27	0xbd182475	-0.037144143
28	0xbedcc7c7	-0.43121168
29	0xbe42c0b2	-0.1901882
30	0xbdbbe85f	-0.09175181
31	0xbe8ac1cb	-0.27100977
32	0xbe4659ea	-0.19370237
33	0x3f237e59	0.63864666
34	0xbd0c0dbf	-0.034192797
35	0xbe6815a1	-0.22664501
36	0xbe9ad1a0	-0.30238056
37	0xbe2af550	-0.16695142
38	0x3eaeae20	0.34117222
39	0xbeac6877	-0.3367345
40	0xbe4718a0	-0.19442987
41	0xbd39c38a	-0.045352496
42	0xbe70b988	-0.23508275
43	0xbdad4acb	-0.08461531
44	0xbecc25c4	-0.39872563
45	0xbde1177f	-0.1099081
46	0xbd4fc56f	-0.050725397
47	0xbebfd48b	-0.37466845
48	0xbe1cf42b	-0.15327518
49	0xbea41cc5	-0.320532
50	0xbe86d020	-0.26330662
51	0xbf9c7c5c	-1.2225451
52	0xbe89d379	-0.26919153
53	0xbe57991b	-0.21054499
54	0xbe7a8efb	-0.24468605
55	0xbe4fff95	-0.2031234
56	0xbe04006f	-0.1289079
57	0xbe6e7af4	-0.2328909
58	0xbddb82cc	-0.10718307
59	0xbd82cf14	-0.06387153
60	0xbebd20d5	-0.3693911
61	0xbdf99fb5	-0.12188665
62	0xbedacf06	-0.4273607
63	0xbdc4a66f	-0.09602057
64	0xbe11c992	-0.14237049
65	0xbd4cd94e	-0.050011925
66	0xbecb6fef	-0.39733836
67	0xbe846efb	-0.2586592
68	0xbccf9dcf	-0.025343804
69	0xbde2ec47	-0.110802226
70	0xbe7b06af	-0.24514268
71	0x3dd93ba3	0.10607078
72	0xbed9210c	-0.42408025
73	0x3e0e8eaf	0.13921617
74	0xbe32f876	-0.17477593
75	0xbedd0605	-0.43168655
76	0xbe1adce3	-0.15123324
77	0x3d07ea45	0.0331824
78	0xbeb1b949	-0.34711674
79	0xbe2cfe5e	-0.16893908
80	0xbec301f0	-0.38087416
81	0xbe35f318	-0.17768514
82	0xbe9761b0	-0.29566717
83	0xbe57f23a	-0.21088496
84	0xbe8995ec	-0.26872194
85	0xbe7136e7	-0.235561
86	0x3d90ceb3	0.07070675
87	0xbd1541e2	-0.036439784
88	0x3db506c1	0.08839179
89	0xbe7928a0	-0.24331903
90	0x3cafa9f0	0.021443337
91	0xbe5d0a31	-0.21585919
92	0xbec8b347	-0.39199278
93	0xbd2a215d	-0.041535724
94	0xbd821378	-0.063513696
95	0xbe1ac16a	-0.15112844
96	0xbe370fc8	-0.17877114
97	0xbd4918fa	-0.049096085
98	0xbe4dae9d	-0.20086141
99	0xbd5a99b4	-0.05336924
100	0x39feae0c	0.0004857633
101	0xbead5de4	-0.33860695
102	0xbd400ab3	-0.046885204
103	0xbe86479b	-0.26226506
104	0x3eb0b2aa	0.3451131
105	0xbeac323c	-0.33632076
106	0xbe87e1ca	-0.2653945
107	0xbc86962e	-0.016429033
108	0x3e137049	0.14398302
109	0xbea3681c	-0.31915367
110	0xbe8899e1	-0.266799
111	0xbe824729	-0.25444916
112	0xbeb42329	-0.35183075
113	0xbe81e106	-0.25366992
114	0xbe4e460e	-0.20143911
115	0xbce27f0d	-0.027648473
116	0xbd9d8aaa	-0.07692464
117	0xbc03007e	-0.007995723
118	0xbe830f1f	-0.25597474
119	0xbdf95967	-0.12175255
120	0xbf0768dc	-0.5289438
121	0xbf681473	-0.90656203
122	0xbe591985	-0.21201141
123	0xbf70ea7e	-0.94107807
124	0xbba6ba04	-0.0050880928
125	0xbe745453	-0.23860292
126	0xbe84a72b	-0.2590879
127	0xbdc26f4c	-0.094938844
128	0xbebf2eda	-0.37340432
129	0xbe3331e9	-0.17499508
130	0xbdd5683c	-0.10420272
131	0xbe97678c	-0.29571187
132	0xbec3ded5	-0.38255945
133	0xbe80ec50	-0.25180292
134	0xbe829a4e	-0.2550835
135	0xbe95e159	-0.2927349
136	0xbe94038b	-0.28908953
137	0xbe1c2265	-0.15247495
138	0xbe882d52	-0.26597077
139	0xbe7095c2	-0.23494628
140	0xbe18e20a	-0.14929977
141	0xbe828ccb	-0.25498042
142	0x3f1cd529	0.61262757
143	0xbeb12d2a	-0.3460477
144	0xbe15d556	-0.14632162
145	0xbe3629cb	-0.1778938
146	0xbe0e12e5	-0.13874395
147	0xbed40fa9	-0.41418198
148	0x3da4f5f5	0.08054725
149	0xbe744072	-0.23852709
150	0xbd96d3df	-0.0736463
151	0xbe872f16	-0.2640311
152	0xbeaa89f5	-0.33308378
153	0xbee0c184	-0.4389764
154	0xbe8de67a	-0.27714902
155	0xbec9a7b9	-0.39385775
156	0xbe50a926	-0.20377025
157	0xbe9ada03	-0.30244455
158	0x3f389350	0.7209978
159	0xbee5e56e	-0.44901603
160	0xbc8db60f	-0.017298726
161	0xbe323f88	-0.17407048
162	0x3dd5139b	0.1040413
163	0xbeca45a5	-0.3950626
164	0xbedc2121	-0.42994025
165	0xbe7cf5db	-0.24703161
166	0xbd87b687	-0.06626611
167	0xbd4a49f9	-0.049386952
168	0xbf642009	-0.8911138
169	0xbf163ff6	-0.58691347
170	0xbdf8b028	-0.12142974
171	0xbdf80c03	-0.12111666
172	0xbf6b9ecb	-0.92039174
173	0xbebf4035	-0.37353674
174	0xbe56ae26	-0.2096487
175	0xbe892b65	-0.2679092
176	0xbe301d85	-0.17198761
177	0xbe4b9eeb	-0.19884841
178	0xbe1bf19d	-0.15228887
179	0xbe0776e7	-0.13228951
180	0xbe4887ce	-0.19583055
181	0x3d965f48	0.07342392
182	0x3f6f7220	0.93533516
183	0xbec119bc	-0.37714946
184	0xbea5cfcc	-0.323851
185	0xbe57a4ae	-0.21058914
186	0x3f90fb5c	1.1326709
187	0xbeb5e5b9	-0.35526827
188	0xbbc6fc81	-0.0060725813
189	0xbea9b7ed	-0.33148137
190	0xbe51a853	-0.20474367
191	0x3d4c0b00	0.049815178
192	0xbf7ad5a3	-0.97982234
193	0xbcd3ee84	-0.025870569
194	0xbe9a4b02	-0.3013535
195	0x3ee31ce2	0.44357973
196	0xbbe381c2	-0.0069429586
197	0xbe775d08	-0.24156582
198	0xbe4d68af	-0.20059465
199	0xbf4bc5eb	-0.79598874
200	0x3ea3cc22	0.31991678
201	0xbdf15b30	-0.11784971
202	0xbe6581d3	-0.22412805
203	0xbb205f7f	-0.0024470983
204	0xbe785144	-0.2424975
205	0xbe327ade	-0.17429683
206	0x3f7c63e6	0.9858993
207	0x3cbb87b9	0.022891866
208	0xbe640ec1	-0.22271253
209	0xbe9d65d7	-0.3074176
210	0xbf95abad	-1.1693016
211	0x3f9ef596	1.2418697
212	0xbe6ada55	-0.2293485
213	0xbe1077eb	-0.14108245
214	0xbe9aa532	-0.3020416
215	0xbe8f887b	-0.28033814
216	0xbdd1e943	-0.10249569
217	0xbe9063ee	-0.2820124
218	0xbe2c86c1	-0.1684828
219	0xbcabe230	-0.020981878
220	0x3e634e72	0.22197893
221	0xbdbf6142	-0.09344722
222	0xbbd3bd6a	-0.006461789
223	0x3eabb7cd	0.33538666
224	0xbdcfdde1	-0.10149742
225	0x3edb7c5f	0.42868325
226	0xbd7f2b73	-0.062297296
227	0xbee4d2ff	-0.44692227
228	0xbe85be83	-0.2612191
229	0xbd91d12a	-0.07119973
230	0xbf34cf28	-0.70628595
231	0xbd561565	-0.052266497
232	0xbe3d5441	-0.18489172
233	0x3e6b0296	0.22950205
234	0xbe310629	-0.17287506
235	0xbe9330a0	-0.28748035
236	0xbe1d29c5	-0.15347965
237	0xbcc5605c	-0.0240938
238	0xbe9204f0	-0.28519392
239	0xbe652035	-0.22375567
240	0xbe2ae1a4	-0.16687638
241	0xbe6504b3	-0.22365074
242	0xbe838398	-0.25686336
243	0xbd416c37	-0.047222342
244	0xbe486a17	-0.1957172
245	0xbe725e6f	-0.23668836
246	0xba998eb6	-0.0011715505
247	0xbebf4bc5	-0.37362495
248	0xbe0d43b6	-0.13795361
249	0x3f547e0f	0.8300485
250	0xbea50c77	-0.32236072
251	0xbea2403f	-0.3168964
252	0xbe6eadcd	-0.23308487
253	0xbcd7ac52	-0.026327286
254	0xbe43533f	-0.19074725
255	0xbe9dbfc4	-0.30810368

model.2.weight f4 [256, 512]
0	0x3c597fd2	0.013275104
1	0x3bbe258d	0.0058028162
2	0x3c83cab4	0.016087867
3	0xbd80be4d	-0.06286297
4	0x3b5b701a	0.0033483566
5	0xbb972c7e	-0.004613458
6	0xbce4ce8e	-0.027930524
7	0xbc1b8e9c	-0.00949445
8	0xbd79f2cc	-0.061022565
9	0xbd737cd1	-0.059445206
10	0xbc8a5ef0	-0.016890973
11	0xbc65473d	-0.013994035
12	0x3b4f1e49	0.0031603745
13	0x3bc186ea	0.0059059756
14	0x3ca34867	0.019931985
15	0xbd51a650	-0.051184
16	0xbd0ef834	-0.034904674
17	0xbc29c8a2	-0.010362776
18	0x3b8b5588	0.0042521395
19	0x3c332b60	0.010935634
20	0xbd0af70c	-0.03392701
21	0x39366e0f	0.00017397873
22	0x3a39565d	0.0007070059
23	0xbc6bfed3	-0.014404017
24	0xbd6556d0	-0.055990994
25	0xbd37be35	-0.04485913
26	0xbd27feaa	-0.04101435
27	0xbbc830a3	-0.0061093136
28	0xbd565dd5	-0.05233558
29	0xbbd79f89	-0.0065802974
30	0xbd89157e	-0.066935524
31	0xbcb14b9d	-0.0216425
32	0xbbc27ae1	-0.0059350585
33	0xbd691eaa	-0.05691401
34	0xbbfe680c	-0.007763868
35	0xbd7e59eb	-0.06209747
36	0x3c004d0b	0.0078308685
37	0x3c355196	0.011066815
38	0xbd5d9a15	-0.054102022
39	0xbd647b94	-0.055781916
40	0x3c9a1c14	0.018812217
41	0xbc01ffd3	-0.007934528
42	0xbc99801a	-0.018737841
43	0xbd841180	-0.0644865
44	0xbb17d49b	-0.0023167494
45	0xbd2a987b	-0.041649323
46	0xba414f39	-0.0007374171
47	0xbd034e92	-0.032057352
48	0xbb874e01	-0.004129172
49	0x3be8a8c2	0.0071001956
50	0xbd188d7f	-0.037244316
51	0xbc0cdc1d	-0.008597401
52	0xbd5b076a	-0.053473867
53	0xbcd14721	-0.025546612
54	0xbd111b10	-0.0354262
55	0x3c251f78	0.0100783035
56	0xbd45c2b3	-0.048281383
57	0xbd1aef5c	-0.037825927
58	0xbc8046e2	-0.0156588
59	0xbc14b178	-0.009075515
60	0xbc93e942	-0.018055562
61	0xbb5b1f83	-0.003343553
62	0x3b184e52	0.0023240042
63	0xbd3ea3a5	-0.046542782
64	0x3c543c29	0.012953796
65	0xbc94b3b6	-0.0181521
66	0xbd826853	-0.063675545
67	0xbccde6c1	-0.025134446
68	0xbd05667b	-0.032568436
69	0x3b52365b	0.0032075855
70	0x3c291c75	0.010321726
71	0xbba9f917	-0.0051871645
72	0x3c880770	0.016605109
73	0x3c56f9de	0.013121096
74	0xbc70af90	-0.014690295
75	0x39c48cdd	0.00037488985
76	0x3c9ab337	0.018884284
77	0xbc944948	-0.01810135
78	0xbad48080	-0.0016212612
79	0xbd149c8f	-0.03628212
80	0x3c46b640	0.012128413
81	0xbce67c0b	-0.02813532
82	0xbcf3dc1b	-0.02976804
83	0x3ccd021f	0.025025425
84	0xbd7870a3	-0.060654294
85	0x3c8e706d	0.017387593
86	0xbd8b2e3a	-0.067959264
87	0xbd3620a5	-0.044464726
88	0xbd54472a	-0.05182568
89	0xbd0ec8d5	-0.034859497
90	0xbb969813	-0.0045957654
91	0x3bd01e30	0.006351255
92	0x3c8cdda7	0.017195536
93	0x3cc73fab	0.024322351
94	0xbc933653	-0.01797024
95	0xbcc64aa7	-0.024205519
96	0xbc6f7e79	-0.014617556
97	0xbd0cd0e5	-0.034378905
98	0xbc8298a8	-0.015941933
99	0xbcb935f7	-0.02260874
100	0xbd8ac9fb	-0.06776806
101	0x3c6dc41e	0.01451209
102	0xbb9a19d9	-0.0047027883
103	0x3c8cded5	0.017196098
104	0xbcbe00b4	-0.023193695
105	0xbce6f5a7	-0.028193308
106	0x3d0f0b61	0.03492296
107	0xbcc1709f	-0.023613272
108	0x3c50648f	0.012719288
109	0xbcdf841d	-0.027284676
110	0xbd804339	-0.06262822
111	0xbd5c190e	-0.05373483
112	0x3c358ac5	0.0110804485
113	0xbd65bc22	-0.05608762
114	0xbd4f8aa1	-0.050669316
115	0x3c18dd28	0.0093300715
116	0x3c4ca3f3	0.01249026
117	0xbcf67a78	-0.030087695
118	0x3b9fa5d8	0.004872065
119	0xbd676b50	-0.056498826
120	0x3b65a22e	0.0035039294
121	0xbcd04d7c	-0.025427572
122	0x3c7a0835	0.015260746
123	0xbcbc5110	-0.022987872
124	0x3b8467f5	0.004040713
125	0xbd4bd446	-0.049762987
126	0xbc91911c	-0.017769389
127	0xbcb4fdcd	-0.022093678
128	0xbd13b835	-0.036064345
129	0xbbcb2cc3	-0.0062004044
130	0xbd225245	-0.03962924
131	0xbd849ae6	-0.06474857
132	0xbd37862b	-0.044805687
133	0x3c249569	0.010045388
134	0xbd52d6e6	-0.051474474
135	0xbbfef6e4	-0.0077808965
136	0xbc8d5526	-0.017252516
137	0xbd13607f	-0.035980698
138	0xba3f7ae2	-0.0007304383
139	0xbd6cfb6e	-0.05785697
140	0xbc87d849	-0.016582625
141	0xbafd7249	-0.0019336428
142	0xbb46e9e3	-0.003035181
143	0xbce93d4d	-0.028471613
144	0xbd1bd6e1	-0.03804672
145	0xbb4766d4	-0.003042628
146	0xbd46dc34	-0.048549846
147	0x3bd1e4df	0.0064054574
148	0xbd88b299	-0.0667469
149	0xbd44685f	-0.0479511
150	0xbd3e24cc	-0.04642181
151	0xbd862a06	-0.06550984
152	0x3d3b5622	0.04573644
153	0xbd809864	-0.06279066
154	0xbd34f7b0	-0.044181526
155	0xbd52b4a9	-0.051441822
156	0x3bc83bc1	0.006110639
157	0x3c91f7ce	0.017818358
158	0xbcd32777	-0.025775654
159	0x3d803258	0.06259602
160	0xbd15f83e	-0.036613695
161	0xbcb30222	-0.021851603
162	0xbc383eae	-0.011245413
163	0x3c01decc	0.007926654
164	0xbd47ddde	-0.048795573
165	0xbd6a1323	-0.057147156
166	0x3d3a1eb5	0.04543944
167	0xbd07f7c4	-0.033195272
168	0x3b456d0c	0.0030124811
169	0x3b7c4a5f	0.0038496477
170	0xbd5d9b9a	-0.05410347
171	0xbd7282cc	-0.05920677
172	0xbd2447a0	-0.04010737
173	0xbcf52ff7	-0.029930098
174	0xbbfd0103	-0.007721068
175	0xbbf39cf1	-0.0074344804
176	0xbd381086	-0.044937633
177	0x3c6fefca	0.0146445725
178	0xbc9f9136	-0.019478422
179	0xbd455af2	-0.048182435
180	0x3c59b6fc	0.013288256
181	0xbce602cd	-0.028077507
182	0x3ccdcddd	0.025122577
183	0xbcd9a345	-0.02656711
184	0x3d7dc6f4	0.061957315
185	0xbcb82743	-0.022479659
186	0xbd5c20c6	-0.053742193
187	0xbcb4086e	-0.021976676
188	0xbcebf616	-0.028803866
189	0xbd804b45	-0.062643565
190	0xbc703296	-0.014660498
191	0xbd3ee357	-0.046603527
192	0xbc79d6c9	-0.015248963
193	0x3ca4a943	0.020100242
194	0xbd1b2641	-0.03787828
195	0x3d477216	0.048692785
196	0xbd867d44	-0.06566861
197	0xbd346fb2	-0.044051833
198	0xbd067470	-0.032825887
199	0xbc7a8dbb	-0.01529258
200	0x3c88e573	0.016710972
201	0xbd3f06da	-0.046637394
202	0xbcb880c5	-0.02252234
203	0xbd2238e0	-0.03960502
204	0x3c00fd67	0.007872916
205	0xbd62126d	-0.055193353
206	0x3a968593	0.00114839
207	0xbd0c51a4	-0.034257546
208	0x3c876c97	0.016531272
209	0xbc4d3f53	-0.012527305
210	0xbd6958a6	-0.056969307
211	0xbd1f423e	-0.038881533
212	0xbd8af0fb	-0.067842446
213	0xbd22cab9	-0.039744113
214	0x3b3a3e0e	0.0028418335
215	0xbd782344	-0.060580507
216	0xbd2b8a66	-0.041880034
217	0xbd0201c2	-0.031739958
218	0xbd880843	-0.06642201
219	0xbc8d7b22	-0.017270628
220	0x3c9011a4	0.017586537
221	0xbd881648	-0.06644875
222	0x3c5d29ec	0.0134987645
223	0xbd4b4690	-0.04962784
224	0xbd2da111	-0.042389933
225	0x3c8786f5	0.016543845
226	0xbd32ac45	-0.04362132
227	0xbd2ed9e8	-0.04268828
228	0xbc3cec04	-0.01153088
229	0xbd1860c3	-0.037201654
230	0xbd87053d	-0.06592796
231	0xbcd015fc	-0.025401108
232	0x3c38616a	0.011253694
233	0xbd03d15d	-0.032182086
234	0xbd7a0678	-0.061041325
235	0xbc824121	-0.015900197
236	0xbd60369e	-0.054739587
237	0xbd3991be	-0.045305006
238	0xbd039c09	-0.03213123
239	0xbcdd59ad	-0.0270203
240	0x3cf72c44	0.030172475
241	0xbd1eb627	-0.038747933
242	0xbd6a9705	-0.05727293
243	0xbd2734d1	-0.040821854
244	0xbd4db58d	-0.05022197
245	0xbc9dac0a	-0.019247074
246	0x3c906413	0.017625844
247	0xbd244831	-0.04010791
248	0x3d77f1a3	0.060533177
249	0xbcf50479	-0.02990936
250	0xbcf8173f	-0.030284522
251	0x3d2d85d5	0.04236396
252	0xbd79befd	-0.060973156
253	0xbc2d0147	-0.010559387
254	0xbd63151a	-0.055440046
255	0xbbafb161	-0.0053617214

model.2.bias f4 [256]
0	0xbcb696f2	-0.022288773
1	0x3d068281	0.032839302
2	0x3ef6e656	0.48222607
3	0xbd9b8e13	-0.07595458
4	0xbd31f24f	-0.043443974
5	0xbed38f64	-0.41320336
6	0x3e3f1d56	0.18663535
7	0xbc70ef82	-0.014705541
8	0xbdb945ca	-0.09046514
9	0xbe6172d9	-0.22016467
10	0xbcdcb0f8	-0.026939854
11	0xbe81b1c6	-0.25330943
12	0xbd241fc0	-0.04006934
13	0xbd052c34	-0.03251286
14	0xbe5eab4b	-0.2174503
15	0xbd01b7cc	-0.031669423
16	0xbe2c17b5	-0.16805919
17	0xbd430355	-0.0476106
18	0xbe4813b1	-0.19538762
19	0xbe2614a9	-0.16218819
20	0xbe6ed922	-0.23325017
21	0x3d462765	0.048377413
22	0xbc5c4f27	-0.013446606
23	0xbdb85330	-0.09000242
24	0xbd0263e4	-0.031833544
25	0xbd27881e	-0.040901296
26	0xbc7bb6d4	-0.015363414
27	0xbd44f7ea	-0.04808799
28	0xbe450c85	-0.19243057
29	0x3ddf2007	0.108947806
30	0xbdcf8b78	-0.101340234
31	0xbe1645f4	-0.14675122
32	0xbc6555b6	-0.013997486
33	0xbe0e6aab	-0.13907878
34	0xbd7a8689	-0.06116346
35	0xbbfcc241	-0.0077135866
36	0x3c1eb7db	0.009687389
37	0xbec8fee0	-0.39256954
38	0x3ece3030	0.4027114
39	0xbd62a39a	-0.055331804
40	0x3d1d0aae	0.038340263
41	0xbc412c06	-0.011790281
42	0xbdb95aae	-0.09050499
43	0xbb4f0813	-0.0031590506
44	0xbd5a7610	-0.05333525
45	0x3c9be9fe	0.019032475
46	0xbe4558b5	-0.1927212
47	0xbe473a9b	-0.1945595
48	0xbe5678ed	-0.20944567
49	0xbe04f785	-0.12985046
50	0xbe0d0613	-0.13771848
51	0xbaf66976	-0.001879974
52	0x3c824a46	0.015904557
53	0xbe22f6aa	-0.15914407
54	0xbe043e99	-0.12914504
55	0x3f174443	0.59088534
56	0xbe3f5f16	-0.18688616
57	0xbd42a4b6	-0.04752036
58	0xbb57cddf	-0.0032929105
59	0xbc1f93d3	-0.009739834
60	0xbc1829dd	-0.009287325
61	0xbe439a73	-0.19101886
62	0xbe97cf65	-0.29650417
63	0xbcee4b19	-0.029088544
64	0xbd98161a	-0.074260905
65	0xbe1791c1	-0.14801694
66	0xbd7fb054	-0.06242402
67	0x3f07348a	0.52814543
68	0xbd042e42	-0.032270677
69	0xbecc7520	-0.3993311
70	0xbd1e22b2	-0.038607307
71	0xbd30b785	-0.043143768
72	0xbf1285b6	-0.57235277
73	0x3f2bc9a8	0.6710458
74	0x3c6ec998	0.014574431
75	0xbc9892f8	-0.018624768
76	0xbebe81e4	-0.37208474
77	0xbd2ca0fe	-0.04214572
78	0xbe658a89	-0.22416128
79	0xbe20e31b	-0.15711634
80	0xbdd163e3	-0.1022413
81	0xbdede512	-0.11615957
82	0xbd69b2aa	-0.057055153
83	0xbd3d0c08	-0.046154052
84	0xbe0557df	-0.13021801
85	0xbdf9d1d5	-0.121982254
86	0x3e63baf3	0.22239284
87	0x3f2e9e94	0.6821072
88	0xbc335579	-0.010945671
89	0x3c95d9cc	0.01829233
90	0xbe61f779	-0.2206706
91	0xbe088197	-0.13330685
92	0x3e003c71	0.12523057
93	0xbdbcf813	-0.09227004
94	0xbe4ab6ba	-0.19796267
95	0xbd582e74	-0.052778676
96	0x3e9bffce	0.304686
97	0xbdf0af88	-0.1175223
98	0xbe039705	-0.12850578
99	0xbd681acb	-0.056666177
100	0xbdeee47c	-0.11664674
101	0xbe09d643	-0.1346064
102	0xbd3b93fd	-0.04579543
103	0xbe0514bf	-0.12996195
104	0xbcddf728	-0.027095392
105	0xbd88fe94	-0.06689182
106	0xbd1c893c	-0.038216814
107	0xbd84bbe4	-0.0648115
108	0xbeedc2ee	-0.46437782
109	0xbdfe184e	-0.124069795
110	0xbd824db2	-0.063624755
111	0x3c3ee81d	0.01165202
112	0xbcfcd775	-0.030864457
113	0xbe134697	-0.14382397
114	0xbc090aab	-0.00836436
115	0xbc84f350	-0.016229302
116	0xbd20e8a3	-0.03928436
117	0xbdddbd28	-0.10827094
118	0xbdd5219d	-0.10406802
119	0xbce381ab	-0.027771791
120	0x3c0186c5	0.007905667
121	0x3e343a78	0.17600429
122	0xbdb9a94b	-0.09065493
123	0x3f58dc8c	0.8471153
124	0xba822be5	-0.0009931294
125	0xbc926b03	-0.017873293
126	0xbcf14684	-0.02945257
127	0x3bef78c5	0.007308098
128	0xbe6fbc4b	-0.23411672
129	0xbebe0a6d	-0.3711733
130	0xbc91593c	-0.017742746
131	0xbcbaaf8a	-0.022788782
132	0xbdce5178	-0.10074133
133	0xbcf47e9c	-0.029845528
134	0xbe1f82c3	-0.15577225
135	0xbd044f85	-0.0323024
136	0xbde46cc5	-0.11153559
137	0xbca4405a	-0.020050216
138	0xbe122fed	-0.14276095
139	0xbc61734d	-0.0137604
140	0xbcd50177	-0.026001675
141	0xbded7296	-0.11594121
142	0xba84cc1e	-0.0010131632
143	0xbe8c3a2a	-0.27388126
144	0xbd2e5ec5	-0.042570848
145	0x3f049e00	0.5180359
146	0xbc7cdabd	-0.015433011
147	0xbd66c962	-0.056344397
148	0xbe0fdf47	-0.14050017
149	0xbe03d35f	-0.128736
150	0xbcde8d8a	-0.0271671
151	0xbdb47ce1	-0.08812881
152	0x3e2c0f50	0.16802716
153	0xbe4b6852	-0.19864014
154	0xbe958f72	-0.29211003
155	0xbd00981b	-0.03139506
156	0xbcf1bd1b	-0.029509118
157	0xbb0fb909	-0.0021930358
158	0xbd68de39	-0.056852553
159	0xbd1dadf8	-0.038495988
160	0xbcc71d08	-0.024305835
161	0xbe0cfb46	-0.13767728
162	0xbe0d2bdb	-0.13786261
163	0xbd2ee3de	-0.04269778
164	0x3b22fab5	0.0024868671
165	0x3eb12853	0.34601077
166	0xbc5c801e	-0.01345828
167	0xbd655c83	-0.05599643
168	0xbe2f317a	-0.17108718
169	0xbe656418	-0.22401464
170	0xbe73654c	-0.2376911
171	0xbe8716ad	-0.26384488
172	0xbd259404	-0.04042436
173	0x3c291ed4	0.010322291
174	0xbc435f96	-0.011924645
175	0xbf19e9b0	-0.60122204
176	0xbf815f1a	-1.0107148
177	0xbe353680	-0.17696571
178	0xbe79604f	-0.24353145
179	0xbd99b21d	-0.075046755
180	0xbd55dc9f	-0.052212354
181	0xbcc542b6	-0.024079662
182	0xbcd2fb0c	-0.025754474
183	0xbdc8f69c	-0.09812662
184	0xbd6d4246	-0.05792453
185	0xbddcbb16	-0.10777871
186	0xbc9bf8c0	-0.019039512
187	0xbd2bf30b	-0.04197983
188	0xbd320335	-0.04346009
189	0xbd7c3c0c	-0.061580703
190	0x3e3cfd0e	0.18455908
191	0xbe9c7b30	-0.30562735
192	0xbe1ab404	-0.15107733
193	0xbd928de6	-0.07155971
194	0xbcaa6ad0	-0.020802885
195	0xbd0aac2c	-0.033855602
196	0xbe03483f	-0.12820528
197	0xbdfe4c9d	-0.124169566
198	0xbde9ef6b	-0.114226185
199	0x3fa7d6ba	1.3112404
200	0xbe4cccbf	-0.1999998
201	0xbe1f1e70	-0.15538955
202	0xbddbb1ab	-0.10727247
203	0x3e7c7367	0.24653398
204	0xbdb6af52	-0.089201584
205	0x3c8f5933	0.017498588
206	0xbef13909	-0.47113827
207	0xbdaad4d0	-0.08341372
208	0xbe67e7c8	-0.22647011
209	0xbd6b15d5	-0.057393868
210	0xbe135bb6	-0.14390454
211	0xbdc6e5ac	-0.09711775
212	0x3ca49567	0.020090772
213	0xbd73fd0d	-0.0595675
214	0xbe2d97c0	-0.1695242
215	0xbe496940	-0.19669056
216	0xbdc4abd8	-0.09603089
217	0xbcc8acfa	-0.024496544
218	0xbc498c1d	-0.012301472
219	0xbef387a8	-0.47564435
220	0xbe531c21	-0.20616199
221	0xbeafbac0	-0.34322166
222	0x3c53f55a	0.012936914
223	0xbe5ef38d	-0.21772595
224	0xbdfa81c8	-0.12231785
225	0xbcf49607	-0.029856695
226	0xbd688866	-0.056770705
227	0xbe05e707	-0.13076411
228	0xbcb1e757	-0.021716757
229	0xbdd90a64	-0.10597685
230	0xbd7091d5	-0.058732826
231	0xbe040ab5	-0.1289471
232	0xbd6a8e5a	-0.057264663
233	0xbe1d0e33	-0.15337448
234	0xbe193154	-0.14960223
235	0xbc09062f	-0.008363291
236	0xbd6e0ff2	-0.058120675
237	0xbc88c70d	-0.016696477
238	0xbd9a64e1	-0.075387724
239	0xbd884ac4	-0.066548854
240	0xbdfe64e1	-0.12421585
241	0xbe3007e8	-0.17190516
242	0xbcf598e8	-0.029980138
243	0xbb98c806	-0.0046625165
244	0xbe1ab556	-0.15108237
245	0xbc416110	-0.011802927
246	0xbdd5e616	-0.10444276
247	0x3c348866	0.011018848
248	0xbdc1e5a1	-0.09467626
249	0x38ca28c3	9.639703e-05
250	0xbdf696aa	-0.12040456
251	0xbd1fa118	-0.03897199
252	0xbd2eeb07	-0.04270461
253	0xbe0f6d15	-0.14006455
254	0xbe0eb9bd	-0.13938041
255	0xbd988082	-0.07446386

model.4.weight f4 [64, 256]
0	0x3bd06f2c	0.006360909
1	0xbc41a05c	-0.011818018
2	0xbe3aee6a	-0.1825501
3	0xbd983635	-0.07432214
4	0x3d46f646	0.04857471
5	0x3d6f7217	0.058458414
6	0xbe8205dc	-0.25395095
7	0xbcae7c38	-0.021299466
8	0xbd1d5c27	-0.03841796
9	0xbdeb88e3	-0.115007184
10	0x3c8648dd	0.016392166
11	0x3d318a79	0.04334495
12	0x3d28282b	0.041053932
13	0x3d9f8248	0.07788521
14	0xbd27762d	-0.040884186
15	0x3ea88dc2	0.32920653
16	0x3d11fecd	0.035643388
17	0xbd60b2cf	-0.054858025
18	0xbde78303	-0.113042854
19	0x3c3dfa76	0.011595359
20	0x3e9bb7da	0.30413705
21	0xbe414087	-0.18872271
22	0x3d2e35ac	0.042531654
23	0x3d5e0c7e	0.054211132
24	0xbc8a49b0	-0.01688084
25	0xbd48dbba	-0.049037673
26	0xbd314d2c	-0.043286487
27	0x3cc8e01c	0.024520926
28	0x3e2ab1ef	0.16669439
29	0xbe5173a2	-0.20454267
30	0xbe8cc6d4	-0.27495444
31	0xbdc6fa00	-0.097156525
32	0xbdadf458	-0.084938705
33	0xbba4dfc0	-0.005031556
34	0x3b04bec8	0.0020255316
35	0xba1ffb61	-0.0006102827
36	0x3bb9ac5e	0.0056662997
37	0xbab5165a	-0.0013815865
38	0xbe7db0df	-0.24774502
39	0x3c972d2d	0.018454159
40	0xbea66b08	-0.32503533
41	0x3d60e0cb	0.05490188
42	0xbbd046c0	-0.0063560903
43	0xbceed546	-0.029154431
44	0x3e3f0466	0.18654022
45	0xbca53517	-0.020166917
46	0xbdde5426	-0.10855894
47	0xbcc27900	-0.023739338
48	0xbe5129c4	-0.20426089
49	0xbeb1c65d	-0.34721652
50	0x3d058ddf	0.032606002
51	0xbd4a6838	-0.049415797
52	0xbc4c2278	-0.01245939
53	0xbd7d205e	-0.061798446
54	0x3e642c4f	0.22282527
55	0x3db2185c	0.086960524
56	0xbc337ea4	-0.010955486
57	0x3d1aa155	0.037751514
58	0x3d93aa08	0.07210165
59	0xbb489d0b	-0.0030611183
60	0xbd9e6756	-0.077345535
61	0xbcfe5366	-0.031045627
62	0xbc348a7d	-0.011019346
63	0x3d429313	0.047503542
64	0x3cd96932	0.026539419
65	0xbda173ca	-0.07883413
66	0xbce20b4a	-0.027593274
67	0x3da30082	0.07959081
68	0xbda116a8	-0.078656495
69	0xbe2e2caa	-0.17009225
70	0xbd8c7218	-0.06857699
71	0xbc3b1319	-0.011418127
72	0xbd5a60fc	-0.053315148
73	0xbd4f7085	-0.050644416
74	0x3d21d127	0.039506104
75	0xbcc04d41	-0.023474338
76	0xbdfb3ac8	-0.12267071
77	0xbd566577	-0.05234286
78	0x3d5cf9c8	0.053949147
79	0x3d21f6ea	0.039542116
80	0xbd44ea30	-0.0480749
81	0xbd7ff386	-0.0624881
82	0x3d133c65	0.03594627
83	0xbc1c8334	-0.009552766
84	0x3d2dbf5b	0.04241882
85	0xbe4aa6ab	-0.19790141
86	0xbe88644e	-0.26639026
87	0xbda15736	-0.07877962
88	0x3d413f9e	0.04717981
89	0xbd56c62c	-0.052435085
90	0xbdd5e4f8	-0.10444063
91	0x3ca7c4b2	0.020479534
92	0x3e8746a8	0.26421094
93	0x3d6c8ba2	0.05775035
94	0xbe88f256	-0.26747388
95	0x3bf6169a	0.0075100185
96	0xbd1e6b54	-0.038676575
97	0xbe5cb92d	-0.21555014
98	0xbe7215b4	-0.23641092
99	0xbd018c0b	-0.031627696
100	0x3d61e7e1	0.055152778
101	0xbc2640dd	-0.010147301
102	0x3d0f1a13	0.034936976
103	0x3e797aaa	0.24363199
104	0x3b1d9dbe	0.002405032
105	0xbce2e317	-0.027696176
106	0x3ca99dc1	0.020705106
107	0x3cb071f2	0.021538708
108	0xbe845509	-0.25846127
109	0xbe89158b	-0.26774248
110	0x3d03dd2b	0.032193344
111	0xbcb02690	-0.021502763
112	0xbe0b7b99	-0.13621368
113	0xbe030b21	-0.12797214
114	0x3d91db4e	0.07121907
115	0x3d975a9c	0.07390329
116	0x3cda6c32	0.02666292
117	0x3d18c4b1	0.037296955
118	0x3ea51d21	0.32248786
119	0xbc7976d0	-0.015226081
120	0x3cfca601	0.030840876
121	0xbe434ac0	-0.19071484
122	0xbc29f6c0	-0.010373771
123	0xbebe7a71	-0.3720279
124	0x3d2972d3	0.04136927
125	0xbd254226	-0.040346287
126	0xbe5000d8	-0.20312822
127	0xbe2575f9	-0.16158284
128	0xbe0ca78b	-0.13735788
129	0xbd130164	-0.035889998
130	0x3e167f37	0.14696966
131	0x3d55a53c	0.052159533
132	0x3c3eb920	0.011640817
133	0x3e88a4c1	0.26688197
134	0x3cd5e77c	0.026111357
135	0xbd72ec1e	-0.05930721
136	0xbdc16a3f	-0.09444093
137	0xbd801be5	-0.062553205
138	0xbc978d3f	-0.018499969
139	0xbd0ab661	-0.033865336
140	0xbcd5ab04	-0.026082523
141	0x3cf5b2c6	0.029992472
142	0xbcc2316e	-0.02370521
143	0xbc30373f	-0.010755359
144	0xbe574668	-0.21022952
145	0xbe023334	-0.12714845
146	0x3d00ce08	0.031446487
147	0xbd11e512	-0.03561885
148	0x3c517157	0.01278337
149	0xbd443dda	-0.04791055
150	0x3c93308d	0.017967487
151	0xbe3dbc61	-0.18528892
152	0xbe12e730	-0.14346004
153	0xbd48975f	-0.048972484
154	0x3d51b0a2	0.05119384
155	0xbcc8f876	-0.024532538
156	0xbd85d56c	-0.065348476
157	0xbba1ea9b	-0.004941297
158	0xbc896b50	-0.016774803
159	0x392a8ba7	0.00016264488
160	0xbd9f2fb5	-0.07772771
161	0xbd48fb65	-0.049067874
162	0x3e944d0e	0.28965038
163	0x3cb96a44	0.02263368
164	0xbb6a6715	-0.0035767008
165	0x3e1a3d62	0.15062478
166	0xbc315627	-0.010823763
167	0xbd82efd7	-0.06393402
168	0xbe035d50	-0.12828565
169	0xbddfca06	-0.10927205
170	0x3e69d88c	0.22836512
171	0xbd13fdff	-0.0361309
172	0x3c370968	0.011171676
173	0x3d965ce4	0.07341936
174	0xbd161d42	-0.036648996
175	0xbe65d410	-0.22444177
176	0xbe654a5c	-0.22391647
177	0x3e061b9e	0.13096473
178	0xbe1a63b7	-0.150771
179	0x3c3df403	0.011593821
180	0xbda0712a	-0.07834084
181	0xbc86a056	-0.016433876
182	0xbd269213	-0.04066665
183	0xbc10c135	-0.008835127
184	0xbd3361f4	-0.043794587
185	0xbcef7230	-0.029229254
186	0xbce94c2d	-0.028478706
187	0xbd6a1a89	-0.057154212
188	0xbd34de1f	-0.044157144
189	0xbd867db4	-0.06566945
190	0xbc492a8b	-0.012278209
191	0xbea8e4bf	-0.3298702
192	0x3d361f36	0.04446336
193	0x3ca254d4	0.01981584
194	0x3cebdcc4	0.028791793
195	0x3cedab3e	0.029012319
196	0xbd8a9d00	-0.067682266
197	0xbd6d6e56	-0.057966553
198	0xbcb6ab41	-0.022298457
199	0xbe36505c	-0.17804092
200	0x3bdfe12e	0.0068322634
201	0xbe36ae00	-0.17839813
202	0x3e437313	0.19086866
203	0xbea19d85	-0.3156549
204	0x3cbfc716	0.023410361
205	0xbd120ea0	-0.03565848
206	0xbdf6a140	-0.12042475
207	0xbdad0560	-0.08448291
208	0x3ea0f7dc	0.31439102
209	0xbd944cb2	-0.07241191
210	0x3d58c4d0	0.05292207
211	0xbd7f134d	-0.062274266
212	0xbdaf56cb	-0.08561476
213	0xbc923ce8	-0.017851308
214	0x3d3bdf87	0.04586747
215	0x3d5d01d8	0.053956836
216	0xbce40592	-0.027834687
217	0xbda2e91a	-0.07954617
218	0xbe4996a3	-0.1968637
219	0xbd964f9a	-0.073394015
220	0xbd491c8d	-0.049099494
221	0xbe247bef	-0.16062902
222	0xbd22b3a0	-0.039722085
223	0xbe31e55c	-0.1737265
224	0xb910fba1	-0.00013826649
225	0xbca859f5	-0.020550707
226	0xbd34e3e2	-0.04416264
227	0xbe009a45	-0.12558849
228	0xbd0c1eff	-0.034209248
229	0xbb9c5f84	-0.0047721285
230	0xbd38fc5e	-0.04516255
231	0xbd55b919	-0.052178476
232	0x3d66e283	0.056368362
233	0xbaa7d140	-0.001280345
234	0x3da3aeac	0.079923004
235	0xbe4ec105	-0.20190819
236	0x3d1791c7	0.03700426
237	0xbd6ed8bf	-0.058312174
238	0xbd5956bb	-0.05306123
239	0xbc5f2561	-0.013619752
240	0xbc92f160	-0.017937362
241	0xbdcafe01	-0.09911729
242	0xbc18eb1d	-0.009333399
243	0x3eabd53f	0.3356113
244	0x3e22b7d3	0.15890436
245	0xbc702d5d	-0.014659253
246	0xbbc2bb90	-0.0059427693
247	0x3d2e24ff	0.04251575
248	0x3e0ff014	0.14056426
249	0xbd001e91	-0.03127915
250	0xbc7f31d6	-0.015575847
251	0x3d93d391	0.072180875
252	0xbc7170a0	-0.014736325
253	0x3a686ae5	0.0008866026
254	0xbd139140	-0.036027193
255	0x3d538bb6	0.05164691

model.4.bias f4 [64]
0	0xbeba1456	-0.3634364
1	0xbe7696f7	-0.24081026
2	0xbe3da6d8	-0.18520677
3	0xbe017120	-0.1264081
4	0xbdb42a3f	-0.0879712
5	0xbeb7c0a6	-0.35889167
6	0x3f2bb567	0.67073673
7	0xbf9192b5	-1.1372896
8	0xbda525c0	-0.08063841
9	0xbea07030	-0.31335592
10	0xbe2055ce	-0.15657732
11	0xbef3bba1	-0.47604087
12	0xbe136d30	-0.1439712
13	0xbef66ab6	-0.4812829
14	0xbe1dcaec	-0.1540944
15	0x3d499f39	0.049224112
16	0xbd31c1fb	-0.043397885
17	0x3eb65853	0.3561426
18	0xbe8f3109	-0.27967098
19	0x3d2ffe34	0.042967036
20	0xbe301624	-0.17195946
21	0xbf4d4eed	-0.80198556
22	0xbe164892	-0.14676121
23	0xbdad94b5	-0.08475629
24	0xbe1b3681	-0.1515751
25	0xbdfaf3cf	-0.12253534
26	0xbda0b562	-0.07847096
27	0xbd37808b	-0.044800323
28	0xbe291e4f	-0.16515468
29	0xbe581f74	-0.21105748
30	0xbf0d1847	-0.5511517
31	0xbe3ac4e3	-0.18239169
32	0xbe3c65aa	-0.18398157
33	0xbe8107f6	-0.25201386
34	0xbe3f81f9	-0.18701924
35	0xbe63b9df	-0.22238873
36	0xbe40e58a	-0.18837562
37	0xbf1c1475	-0.60968715
38	0xbc9eed24	-0.019400187
39	0xbe0e8a66	-0.13919982
40	0xbe4b095e	-0.19827792
41	0xbe416f3b	-0.18890087
42	0xbe351649	-0.17684282
43	0xbe8e132c	-0.27749002
44	0xbd9a7aef	-0.07542979
45	0xbf2968b7	-0.6617541
46	0xbe0930c3	-0.13397507
47	0xbea08256	-0.31349438
48	0xbe768cf9	-0.24077214
49	0xbeadf6c3	-0.33977327
50	0x3e3e11a3	0.18561415
51	0xbebc2d6e	-0.3675341
52	0xbebae11d	-0.36499873
53	0xbdc35f44	-0.09539655
54	0xbe654729	-0.22390427
55	0xbe7108b0	-0.2353847
56	0xbe53df1c	-0.20690578
57	0x3dccd344	0.10001233
58	0xbea2edf3	-0.31822166
59	0xbd64bff6	-0.05584713
60	0xbde98364	-0.11402014
61	0xbf4db0d7	-0.8034796
62	0xbd604e75	-0.054762322
63	0xbe99e847	-0.30060026

model.6.weight f4 [1, 64]
0	0xbe7d5b7c	-0.2474193
1	0x3dd81844	0.10551503
2	0xbd8c3cc2	-0.06847526
3	0xbbfa3aa8	-0.007636387
4	0x3dca4dd8	0.09878129
5	0xbd21ce7b	-0.039503556
6	0xbec94144	-0.39307606
7	0x3e0790a5	0.13238771
8	0x3dc15eda	0.094419196
9	0xbc98ca51	-0.01865116
10	0xbd9b96d6	-0.07597129
11	0x3d4d9459	0.050190303
12	0x3b32f062	0.0027303924
13	0xbca08412	-0.019594226
14	0xbdd6b81e	-0.10484336
15	0xbd209cb4	-0.039211944
16	0xbe667a16	-0.2250751
17	0xbec7e00c	-0.39038122
18	0xbd65ef66	-0.05613651
19	0xbcaf5af1	-0.021405669
20	0x3c83ba4b	0.016080042
21	0x3da21bda	0.079154685
22	0xbd8928ea	-0.06697257
23	0x3d79fea3	0.061033856
24	0x3ce87ee7	0.028380824
25	0x3d8190cb	0.06326445
26	0x3d07c8d5	0.033150513
27	0xbe2891a3	-0.16461806
28	0xbd2b2591	-0.041783873
29	0x3c3af648	0.011411257
30	0xbd5043ac	-0.050845787
31	0xbe865a3e	-0.26240724
32	0x3b4e986d	0.0031523958
33	0x3d4c07ee	0.04981225
34	0x3dadacee	0.08480249
35	0x3db7406d	0.08947835
36	0x3d19f2f1	0.037585203
37	0x3e73843b	0.2378091
38	0x3b7bba38	0.0038410556
39	0xbdd5d253	-0.10440507
40	0x3cd60b0c	0.026128314
41	0x3bf0b193	0.0073453872
42	0xbda8bb71	-0.082388766
43	0xbd096c3a	-0.03355048
44	0xbda79d51	-0.081843026
45	0xbdf02048	-0.11724907
46	0xbca35925	-0.019939968
47	0xbca3ad77	-0.019980175
48	0xbe86076e	-0.26177543
49	0xbd8578c7	-0.06517177
50	0x3d05b975	0.03264757
51	0x3dc9f3b2	0.09860934
52	0xbd21f80c	-0.039543197
53	0xbc703c09	-0.014662751
54	0xbdde5daf	-0.108577125
55	0x3de609ae	0.11232315
56	0x3dd81939	0.10551686
57	0xbd3251ad	-0.043534923
58	0x3d31f7e2	0.04344929
59	0x3d620d94	0.05518873
60	0xbd7535f5	-0.05986591
61	0xbe0ec107	-0.13940822
62	0xbc95b517	-0.018274827
63	0x3ca0068c	0.019534372
