model_weight/temp_model/26664 actor.pth (torch, 646091 bytes, 9 tensors)

std f4 [4]
-2.4520712 -2.1890981 -2.4455638 -1.6927904
00000000: bcee 1cc0 2f1a 0cc0 1e84 1cc0 5bad d8bf

model2.0.weight f4 [512, 24]
0.20419607 0.121900305 -0.123244636 0.21008825 0.18103997 0.20130655 -0.11613056 0.0069143227
-0.070390925 -0.3237993 0.18239592 -0.13820022 0.020032875 0.29875526 0.2744824 -0.10985668
0.08098728 0.16313438 -0.018769842 0.04753725 0.24918757 0.25032127 0.057489708 -0.1280143
0.22042485 0.13085552 0.11976096 -0.03848028 -0.19655052 -0.02786707 -0.013780128 -0.06290136
0.06703865 -0.17120555 0.042479098 -0.2769507 -0.012130968 -0.05477637 -0.12481401 0.26601765
0.12895693 0.06067201 0.18288192 -0.14735042 -0.018529797 0.11421357 0.041368037 0.1099577
0.11500266 -0.022150304 0.22341135 0.11886867 -0.14199741 0.18876322 -0.18640025 -0.026985994
-0.050690502 -0.10952776 0.045574103 -0.40440276 -0.12687485 -0.18737599 -0.08315451 -0.027124582
-0.08886013 -0.22202162 0.0767824 0.042578302 -0.05083954 -0.16386001 -0.082941435 -0.13597482
0.18094075 -0.024767982 -0.1957802 -0.10643547 0.14841881 0.027715553 -0.20899041 -0.07849747
0.06539274 0.10322297 -0.2598581 -0.08339972 -0.018230109 -0.09666916 0.14450878 0.13312888
-0.05702998 0.059205297 0.13214512 -0.09184459 0.10628424 -0.087090224 0.05174869 -0.17236425
-0.10205101 0.0068097706 0.035733875 -0.089096665 0.075188726 0.02841942 0.11461397 -0.039770123
-0.23520318 -0.0038636865 -0.07554861 -0.2788742 0.0026923665 -0.049563114 -0.2975065 -0.34993505
-0.33498815 -0.16622955 -0.12685664 0.012508427 0.03716056 0.009927864 -0.06681088 -0.20847487
-0.047297016 -0.031899635 -0.25092787 -0.16831213 0.10976715 -0.026036838 0.07335105 -0.0457971
-0.17622656 0.21724541 0.21334374 0.32697597 0.22616984 0.11315351 0.091936976 -0.15232079
-0.19290057 0.090993606 0.052035563 0.016606815 -0.14017326 0.15840024 -0.13243054 0.16566661
0.056601048 0.09975807 -0.12580784 -0.07494833 -0.06461521 -0.00052326283 -0.16129561 -0.14888261
-0.14497423 -0.19396904 -0.1061527 -0.10741273 -0.03336221 -0.18732262 0.15460634 -0.21297827
0.09059115 -0.20537525 -0.08656515 -0.0897708 -0.085575595 -0.12057676 -0.1928041 0.07512932
-0.24092798 -0.30268735 -0.036699347 0.0949685 0.15690051 -0.08819267 0.20117371 -0.032832924
0.051070403 0.11410692 -0.0038585742 0.3255309 -0.04577799 0.038240362 0.14389779 0.2957828
0.13769636 0.122739024 0.02032036 0.3482712 0.36286524 0.078385144 0.22841363 0.0006936288
-0.14559041 -0.16674514 0.18306501 0.1056659 -0.045742765 -0.1246287 0.14111146 0.090846136
-0.20458262 0.2451067 0.15429156 0.20751266 0.14354378 0.07552278 0.19037604 0.06768862
-0.014838832 0.0889113 -0.0009500689 0.09485934 0.114399634 -0.02903287 0.22219016 0.20132382
-0.17374213 0.0746418 -0.10869453 0.12866089 0.08042606 0.06803532 0.02974065 -0.13911824
-0.24485782 -0.2069904 -0.08186263 0.111777194 0.015227095 -0.24165143 -0.35134572 -0.146273
-0.2099237 0.03257644 -0.07110579 -0.12027469 -0.15057145 -0.056144197 -0.29965577 0.074052885
-0.24153392 -0.12650679 0.30074987 0.18139121 0.040727403 0.08472472 0.33150813 -0.1824541
0.05309814 -0.006213111 -0.11651696 0.14571196 -0.091211274 -0.028747026 -0.24406897 -0.08774608
00000000: c618 513e dea6 f93d af67 fcbd 6021 573e
00000010: 8b62 393e 4e23 4e3e dcd5 edbd 8b91 e23b
00000020: 1e29 90bd 06c9 a5be ffc5 3a3e 5c84 0dbe
00000030: fc1b a43c 73f6 983e f588 8c3e 8afc e0bd
00000040: a9dc a53d b30c 273e 36c3 99bc 6bb6 423d
00000050: 072b 7f3e 1c2a 803e 547a 6b3d 2e16 03be
00000060: 0db7 613e fdfe 053e 3c45 f53d 809d 1dbd
00000070: 8a44 49be 7b49 e4bc 0cc6 61bc 6ed2 80bd
00000080: 8f4b 893d 8250 2fbe 90fe 2d3d 7bcc 8dbe
00000090: f8c0 46bc 305d 60bd 7d9e ffbd 7733 883e
000000a0: 490d 043e 3783 783d 6645 3b3e 07e3 16be
000000b0: cdcb 97bc cee8 e93d 8871 293d 8131 e13d
000000c0: 8486 eb3d 8e74 b5bc f2c5 643e 6b71 f33d
000000d0: c567 11be 254b 413e b5df 3ebe bb11 ddbc
000000e0: d8a0 4fbd 1750 e0bd e9ab 3a3d e10d cfbe
000000f0: 7beb 01be 7edf 3fbe e94c aabd 5f34 debc
00000100: 4dfc b5bd a359 63be 1740 9d3d 9666 2e3d
00000110: 1f3d 50bd ebca 27be 33dd a9bd fc3c 0bbe
00000120: 8848 393e 39e6 cabc 9b7a 48be d7fa d9bd
00000130: 1afb 173e ba0b e33c 9501 56be 48c3 a0bd
00000140: a1ec 853d 9166 d33d 1f0c 85be 79cd aabd
00000150: 4f57 95bc 7bfa c5bd 1cfa 133e f052 083e
00000160: 4598 69bd 4181 723d 0d51 073e 0419 bcbd
00000170: 8dab d93d 5c5c b2bd 6ff6 533d 4180 30be
00000180: 1f00 d1bd 7f24 df3b af5d 123d 5078 b6bd
00000190: 8cfc 993d d8cf e83c bbba ea3d ffe5 22bd
000001a0: 1ad9 70be e735 7dbb 3bb9 9abd 99c8 8ebe
000001b0: 6a72 303b b102 4bbd c652 98be b02a b3be
000001c0: 9183 abbe 1438 2abe b5e6 01be 25f0 4c3c
000001d0: ac35 183d 7ba8 223c 25d4 88bd 707a 55be
000001e0: 84ba 41bd 31a9 02bd 9e79 80be 045a 2cbe
000001f0: 99cd e03d 354b d5bc 1339 963d bd95 3bbd
00000200: bc74 34be 9575 5e3e c876 5a3e 6569 a73e
00000210: 1199 673e 07bd e73d 7449 bc3d fbf9 1bbe
00000220: ba87 45be db5a ba3d 3e23 553d 040b 883c
00000230: 9489 0fbe ac33 223e df9b 07be 82a4 293e
00000240: 80d6 673d f64d cc3d c5d3 00be 837e 99bd
00000250: fb54 84bd 932b 09ba ad2a 25be af74 18be
00000260: 2074 14be d29f 46be 9666 d9bd 35fb dbbd
00000270: d0a6 08bd 80d1 3fbe 2051 1e3e fa16 5abe
00000280: da87 b93d e44d 52be 1249 b1bd c1d9 b7bd
00000290: 4242 afbd f3f0 f6bd 706e 45be 67dd 993d
000002a0: d3b5 76be d6f9 9abe 0e52 16bd d87e c23d
000002b0: 87aa 203e 5c9e b4bd 7b00 4e3e d17b 06bd
000002c0: 332f 513d e4b0 e93d 22e0 7cbb fcab a63e
000002d0: b481 3bbd eda1 1c3d f159 133e d870 973e
000002e0: 4600 0d3e 995e fb3d e276 a63c 9a50 b23e
000002f0: 79c9 b93e 6488 a03d 43e5 693e a4d4 353a
00000300: a715 15be 3dbf 2abe 6575 3b3e 5d67 d83d
00000310: c45c 3bbd 553d ffbd 867f 103e 8a0d ba3d
00000320: 1b7e 51be 40fd 7a3e 9bfe 1d3e 337e 543e
00000330: 24fd 123e b0ab 9a3d f0f1 423e 55a0 8a3d
00000340: 931e 73bc 2117 b63d 0b0e 79ba 9d45 c23d
00000350: 5b4a ea3d 57d6 edbc d185 633e d527 4e3e
00000360: 75e9 31be cddd 983d 3d9b debd aebf 033e
00000370: 6bb6 a43d 1a56 8b3d aaa2 f33c 0375 0ebe
00000380: 02bc 7abe 4bf5 53be 98a7 a7bd 71eb e43d
00000390: 117b 793c 7973 77be 96e3 b3be 97c8 15be
000003a0: 3df6 56be e06e 053d ea9f 91bd 9452 f6bd
000003b0: 672f 1abe 75f7 65bd 7b6c 99be 0aa9 973d
000003c0: ab54 77be ff8a 01be e3fb 993e 9ebe 393e
000003d0: c7d1 263d 2784 ad3d 6fbb a93e 3fd5 3abe
000003e0: 6f7d 593d 5a97 cbbb 72a0 eebd 8435 153e
000003f0: facc babd e27e ebbc 37ed 79be 37b4 b3bd

model2.0.bias f4 [512]
-0.04973536 -0.015343937 0.113718495 0.14452533 0.057720095 -0.16359165 -0.1336584 -0.046786997
0.013729151 0.04331798 -0.22428097 -0.040143013 0.091529675 0.08598368 0.04956536 0.20064071
-0.17393467 0.004087693 -0.027153417 -0.02519741 0.039494723 0.01500376 -0.13723627 0.06224832
-0.23845628 -0.0009982544 -0.05134341 -0.21637091 0.117491245 0.04127897 0.064007156 0.051035956
-0.11512064 -0.118989915 -0.29819274 0.09237931 0.036244705 -0.14063656 0.03774203 -0.13676466
0.21371813 -0.047286507 -0.2684669 -0.22454263 -0.03165372 -0.22512023 0.13377692 0.05057775
0.09571071 -0.07029681 0.027968219 -0.21772663 0.16279434 0.10238127 -0.0013614784 0.019968674
-0.026024293 -0.042752083 -0.07913393 -0.17854872 -0.0738948 -0.017420255 0.074161366 0.023478141
-0.18354098 0.067544945 -0.05028983 -0.021036662 -0.0979004 -0.095418856 0.025008565 0.011485391
-0.091835976 -0.27302483 0.05458199 0.26932368 0.016688831 -0.20043276 -0.055898957 -0.06533912
-0.15533142 -0.019698298 -0.103585 0.013825735 -0.12571451 -0.012273381 0.062165003 -0.1068825
-0.19939102 0.16823412 0.11113321 0.122902066 -0.21643709 -0.08292582 -0.008606477 0.13546564
-0.17947634 0.1420429 -0.186422 -0.11713815 -0.059501264 -0.1188424 -0.14194922 0.053886577
0.07296515 0.17011487 -0.17659722 0.16182005 0.1646371 -0.18493567 -0.115319595 -0.053126525
0.10792004 -0.075336754 -0.09470592 -0.21079439 -0.1093759 -0.1418517 0.10606419 -0.198712
0.031383786 -0.02279543 0.021166252 -0.055644937 -0.0847524 -0.1522151 0.11589053 -0.068845734
-0.0047666705 0.06451257 -0.08549427 -0.0532078 -0.09464884 -0.103131615 0.003649829 0.048362713
0.101335384 0.038113065 0.018972931 0.06934628 -0.040819686 0.027551986 -0.09650448 0.13475657
-0.0374185 -0.076419584 0.09228326 0.1626297 0.07843934 -0.15010999 -0.15279447 0.06921717
-0.09277596 0.07574815 -0.12457703 0.17683718 0.023835016 -0.102013975 -0.15026958 -0.049278125
0.04999963 -0.03709754 -0.016569853 0.123541966 -0.041920923 0.011178776 -0.22771838 -0.007738451
-0.18285894 0.023403443 -0.0042400644 -0.01984218 -0.02746742 0.021493712 0.15924346 0.067051396
-0.04258565 -0.13323787 -0.10138206 0.043238077 -0.07742082 0.010207925 0.063312754 0.09322575
-0.13643804 -0.018136214 0.028461924 -0.06409674 0.09780873 -0.20548542 0.10361812 0.20990731
-0.088613 -0.17041826 0.074732795 -0.1502958 0.16446263 -0.08256855 -0.041640323 -0.09059738
-0.011008072 -0.0886343 -0.17444065 -0.101629235 -0.16396461 -0.0283535 -0.020536032 0.07134792
-0.24056683 0.13934068 -0.15680926 -0.10541583 -0.13218509 0.18075019 -0.009939691 -0.10204706
-0.01871273 -0.01552789 0.15278031 0.07574277 -0.13960111 -0.095768355 -0.07861575 -0.059784528
-0.02255761 -0.033484224 -0.12704968 -0.05027561 0.03501867 0.047188826 -0.2360367 0.035039656
-0.19377625 -0.19914855 -0.24217835 -0.09088447 0.14258216 0.02973794 0.024183946 0.06654984
-0.030515539 0.0041967942 -0.017906997 0.051709026 -0.19367927 0.11183374 0.060401663 0.09127051
0.0794247 0.1163189 0.11428103 0.12860112 -0.12217648 0.008043152 0.08002738 0.10522124
00000000: 4eb7 4bbd 2365 7bbc 3ee5 e83d 73fe 133e
00000010: e86b 6c3d 9284 27be bfdd 08be b9a3 3fbd
00000020: 3cf0 603c 326e 313d e9a9 65be 006d 24bd
00000030: e973 bb3d 3618 b03d 0c05 4b3d c274 4d3e
00000040: ee1b 32be 0ef2 853b d870 debc cc6a cebc
00000050: 38c5 213d 55d2 753c aa87 0cbe 18f8 7e3d
00000060: e22d 74be dcd7 82ba 784d 52bd 5690 5dbe
00000070: 409f f03d 2314 293d 2f16 833d 140b 513d
00000080: 5fc4 ebbd fcb0 f3bd b8ac 98be 5d31 bd3d
00000090: 5475 143d 0803 10be 6397 1a3d 090c 0cbe
000000a0: edd8 5a3e 7faf 41bd 7e74 89be 81ee 65be
000000b0: 55a7 01bd eb85 66be d1fc 083e 9d2a 4f3d
000000c0: fa03 c43d c6f7 8fbd 9b1d e53c bbf3 5ebe
000000d0: 8fb3 263e 45ad d13d a273 b2ba 5895 a33c
000000e0: e630 d5bc cf1c 2fbd f810 a2bd 7ad5 36be
000000f0: 2856 97bd ecb4 8ebc eae1 973d 3b55 c03c
00000100: 2bf2 3bbe 0155 8a3d b5fc 4dbd 1455 acbc
00000110: 0180 c8bd f66a c3bd c3de cc3c 392d 3c3c
00000120: 8014 bcbd e9c9 8bbe 5d91 5f3d cbe4 893e
00000130: 04b7 883c 3f3e 4dbe 4ef6 64bd 84d0 85bd
00000140: 330f 1fbe 535e a1bc 5f24 d4bd 5685 623c
00000150: 4ebb 00be 4b16 49bc bba0 7e3d 36e5 dabd
00000160: 292d 4cbe 9145 2c3e cf99 e33d 14b4 fb3d
00000170: afa1 5dbe 03d5 a9bd 2e02 0dbc 81b7 0a3e
00000180: a5c8 37be b273 113e 69e5 3ebe 20e6 efbd
00000190: 99b7 73bd a563 f3bd 235b 11be 2cb8 5c3d
000001a0: c16e 953d 9832 2e3e e7d5 34be 28b4 253e
000001b0: a196 283e c75f 3dbe ae2c ecbd 339b 59bd
000001c0: 2f05 dd3d 284a 9abd 2df5 c1bd 7cda 57be
000001d0: 7900 e0bd 9241 11be 2f38 d93d 297b 4bbe
000001e0: 498c 003d 7bbd babc d964 ad3c f2eb 63bd
000001f0: ab92 adbd 46de 1bbe 0458 ed3d fefe 8cbd
00000200: bb31 9cbb 2b1f 843d 9f17 afbd 6cf0 59bd
00000210: 40d7 c1bd ab36 d3bd f831 6f3b fb17 463d
00000220: ed88 cf3d 721c 1c3d 1f6d 9b3c 6c05 8e3d
00000230: 8b32 27bd b4b4 e13c 24a4 c5bd a0fd 093e
00000240: 2444 19bd df81 9cbd 01ff bc3d 6688 263e
00000250: cea4 a03d 6fb6 19be 2776 1cbe bbc1 8d3d
00000260: 5301 bebd d921 9b3d 3e22 ffbd ce14 353e
00000270: a741 c33c b4ec d0bd 45e0 19be dcd7 49bd
00000280: 69cc 4c3d 97f3 17bd 80bd 87bc 9203 fd3d
00000290: 46b5 2bbd 2f27 373c 022f 69be d592 fdbb
000002a0: 603f 3bbe 94b8 bf3c 3df0 8abb 118c a2bc
000002b0: 5b03 e1bc 9513 b03c b810 233e 3e52 893d
000002c0: 4a6e 2ebd 826f 08be 66a1 cfbd 691a 313d
000002d0: cf8e 9ebd 243f 273c 1eaa 813d 24ed be3d
000002e0: 6ab6 0bbe 6692 94bc fb28 e93c 2745 83bd
000002f0: f24f c83d c56a 52be bd35 d43d f1f1 563e
00000300: bc7a b5bd 2082 2ebe 820d 993d 24e7 19be
00000310: e468 283e b319 a9bd 0b8f 2abd 1f8b b9bd
00000320: 335b 34bc e685 b5bd 92a0 32be fd22 d0bd
00000330: 57e6 27be 9945 e8bc 2e3b a8bc dc1e 923d
00000340: 2757 76be 53af 0e3e 9b92 20be 41e4 d7bd
00000350: 875b 07be 9416 393e 16da 22bc 0dfe d0bd
00000360: 704b 99bc b168 7ebc 7172 1c3e 071f 9b3d
00000370: 98f3 0ebe 3322 c4bd 4b01 a1bd 9fe0 74bd
00000380: bdca b8bc c126 09bd 5019 02be cced 4dbd
00000390: bd6f 0f3d 1249 413d 9bb3 71be be85 0f3d
000003a0: 486d 46be 99ed 4bbe 9afd 77be a321 babd
000003b0: 0f01 123e fb9c f33c 691d c63c 484b 883d
000003c0: b9fb f9bc 4385 893b b2b1 92bc d8cc 533d
000003d0: dc53 46be 1609 e53d bc67 773d 08ec ba3d
000003e0: 6ba9 a23d 9a38 ee3d 2c0c ea3d 03b0 033e
000003f0: aa37 fabd 6dc7 033c 65e5 a33d 3c7e d73d

model2.2.weight f4 [256, 512]
0.021032142 -0.03421568 -0.024520472 0.0028011159 0.019768018 -0.048163883 -0.028853377 -0.037049595
-0.04167487 -0.045102473 -0.028303705 -0.025726678 0.023072 -0.019830236 0.028923504 -0.009622885
-0.005746134 0.01304347 -0.021998594 -0.0027381626 -0.02635128 -0.053776573 -0.0068055885 0.016616698
-0.029394995 -0.053745843 0.025365636 0.027462715 -0.014473967 -0.011193763 0.00025408852 0.019951547
-0.029601634 0.0043833014 -0.004196086 0.0053185797 -0.012293523 0.01594949 -0.009897057 0.032291934
-0.025784547 -0.013498503 -0.05537891 0.031554118 0.012476665 0.041673593 -0.034168914 0.017636858
0.016725563 -0.015794786 -0.0013132035 0.0016921441 -0.05183955 0.0069809193 -0.010226908 0.0031164314
-0.012935816 -0.02958191 0.014273925 -0.06436451 -0.04182516 -0.0082977265 0.006415194 0.010575949
-0.042587746 -0.045730967 -0.008389929 -0.0012381205 0.00962265 0.016320597 0.019692056 -0.028877595
0.030661931 0.014010675 -0.029443113 0.041162685 -0.044805687 0.01970151 0.021450583 -0.01254763
0.0036559352 -0.048316978 -0.036881715 0.005418694 0.01662632 -0.04020289 -0.0054418053 0.018846922
0.02747496 -0.05146369 0.0052669235 -0.02031881 -0.040394515 0.030776357 -0.039494548 -0.029719075
-0.044166766 -0.045455307 0.04014265 0.032639388 0.0076990873 0.03470343 0.004911383 -0.022038851
-0.045526206 -0.033071246 0.00030448972 -0.042535063 -0.02176539 0.0394186 -0.039939124 0.016903426
-0.006672804 0.010676494 -0.03723011 -0.037486274 0.013383723 -0.0075876974 -0.016312996 0.024462095
0.031583566 -0.037058882 0.0072435 -0.036785606 0.022276884 -0.044740234 -0.02847843 -0.03496158
0.007476472 0.031215455 -0.016662128 -0.020666737 0.03212841 0.033757236 -0.012092074 -0.030629396
-0.020498617 0.024527092 0.004150896 0.038703 -0.0150806615 0.0370184 -0.030675313 -0.014540261
0.022948466 0.003959717 0.0150042325 0.0042660725 0.0140366275 -0.03533845 -0.031550735 -0.035735663
-0.006317245 0.0041575357 -0.020956274 -0.0030644464 -0.05031285 0.03462024 -0.02509017 -0.024992445
-0.0066178073 -0.00041810982 -0.024662944 0.031941228 -0.020914482 -0.028701788 -0.030097334 -0.02302599
0.0135031985 -0.033703994 -0.046267726 0.028714728 -0.020803383 0.019026287 0.015813442 -0.026179291
-0.05781877 -0.032798197 0.014729163 0.010885991 -0.026265455 -0.025249995 -0.0059098257 -0.04320801
-0.021751923 0.0020595922 -0.0013145827 -0.007433591 0.029046094 -0.0418577 -0.0124967145 -0.051353138
-0.0026251108 -0.031630497 -0.031573918 0.035623524 0.01846022 -0.05102782 -0.020959932 -0.032993674
-0.05206685 -0.0065833344 -0.019012572 -0.0120547265 -0.0370465 0.008850019 0.00117798 0.0121816415
-0.016693726 -0.049272787 -0.0026142579 -0.037428837 -0.0043192995 0.0030424234 0.017641049 -0.0031383233
-0.05060862 0.016512139 -0.02945268 -0.01269674 -0.017993493 -0.010351184 -0.025829013 0.036855604
-0.006128558 0.013829749 -0.026436007 -0.017549094 -0.045484297 -0.013630315 0.034113027 0.0024352842
0.020745227 -0.0035446573 0.007165734 -0.030446716 -0.040916804 0.022069309 0.0009251723 -0.023086488
-0.025601795 -0.0122852605 0.010316755 0.02810168 -0.053308375 -0.019001579 0.010872064 -0.0050525777
0.01019971 -0.03342709 0.008532897 -0.043496165 -0.053495876 0.031688713 -0.0020407266 -0.037867848
00000000: 994b ac3c be25 0cbd 28df c8bc ed92 373b
00000010: 8af0 a13c 7e47 45bd eb5d ecbc 51c1 17bd
00000020: 45b3 2abd 5fbd 38bd 2cdd e7bc c1c0 d2bc
00000030: 7e01 bd3c 0573 a2bc fcf0 ec3c 4ea9 1dbc
00000040: 114a bcbb 47b4 553c 6536 b4bc bf72 33bb
00000050: a4de d7bc d344 5cbd 6a01 dfbb be1f 883c
00000060: c6cd f0bc 9a24 5cbd 98cb cf3c 7df9 e03c
00000070: 3824 6dbc 0c66 37bc 2f37 8539 6d71 a33c
00000080: 207f f2bc cca1 8f3b 527f 89bb 7b47 ae3b
00000090: c66a 49bc 81a8 823c 4427 22bc 8c44 043d
000000a0: 1d3a d3bc d328 5dbc ffd4 62bd e43e 013d
000000b0: ed6a 4c3c eeb1 2a3d b4f4 0bbd 2c7b 903c
000000c0: 0c04 893c 1164 81bc cc1f acba efca dd3a
000000d0: b555 54bd 32c0 e43b c38e 27bc 0b3d 4c3b
000000e0: bff0 53bc c355 f2bc 2edd 693c 8ad1 83bd
000000f0: dc50 2bbd 30f3 07bc 8c36 d23b bf46 2d3c
00000100: 7d70 2ebd 6550 3bbd ea75 09bc 6e48 a2ba
00000110: 52a8 1d3c c6b2 853c 3c51 a13c b590 ecbc
00000120: bb2e fb3c 088d 653c af32 f1bc 349a 283d
00000130: 2b86 37bd 1065 a13c 22b9 af3c 9394 4dbc
00000140: 6a98 6f3b 06e8 45bd 4811 17bd 4d8f b13b
00000150: ec33 883c c9ab 24bd 2c51 b2bb dc64 9a3c
00000160: 2b13 e13c 97cb 52bd 2896 ac3b a273 a6bc
00000170: b874 25bd b31e fc3c 09c5 21bd 6b75 f3bc
00000180: 36e8 34bd 582f 3abd 9f6c 243d e1b0 053d
00000190: a048 fc3b 2f25 0e3d abef a03b d28a b4bc
000001a0: b079 3abd b775 07bd eba3 9f39 3f39 2ebd
000001b0: 554d b2bc 6675 213d 3597 23bd 0e79 8a3c
000001c0: 89a7 dabb 76ec 2e3c 9a7e 18bd 358b 19bd
000001d0: 6747 5b3c 38a2 f8bb d5a2 85bc bb64 c83c
000001e0: c55d 013d 0ecb 17bd e25a ed3b 81ac 16bd
000001f0: 037e b63c 8941 37bd 994b e9bc e033 0fbd
00000200: 31fd f43b 8eb7 ff3c 047f 88bc 4a4d a9bc
00000210: 1499 033d 0745 0a3d d61d 46bc 80ea fabc
00000220: b7ec a7bc 0aed c83c 3d04 883b 0987 1e3d
00000230: e114 77bc 9ba0 173d cb4a fbbc 463a 6ebc
00000240: 6cfe bb3c 84c0 813b 50d4 753c 69ca 8b3b
00000250: e2f9 653c 0dbf 10bd 583b 01bd 8f5f 12bd
00000260: e400 cfbb f03b 883b 7eac abbc e1d4 48bb
00000270: d914 4ebd f4cd 0d3d e689 cdbc f5bc ccbc
00000280: 31da d8bb c035 dbb9 f109 cabc ced4 023d
00000290: d954 abbc 0320 ebbc af8e f6bc 00a1 bcbc
000002a0: 853c 5d3c 330d 0abd 3a83 3dbd 263b eb3c
000002b0: db6b aabc 04dd 9b3c 318b 813c f475 d6bc
000002c0: 60d3 6cbd 6757 06bd 9652 713c 285b 323c
000002d0: a72a d7bc 14d9 cebc 36a7 c1bb e2fa 30bd
000002e0: 1731 b2bc 39fa 063b 134e acba 7b95 f3bb
000002f0: 13f2 ed3c fb72 2bbd 05bf 4cbc ab57 52bd
00000300: 0d0a 2cbb fb8e 01bd a753 01bd f9e9 113d
00000310: e339 973c 8c02 51bd 2ab4 abbc 6024 07bd
00000320: 0d44 55bd 03b9 d7bb 41c0 9bbc 3081 45bc
00000330: 12be 17bd acff 103c 7366 9a3a 8295 473c
00000340: 48c1 88bc 43d2 49bd f853 2bbb fb4e 19bd
00000350: e988 8dbb 6563 473b f683 903c 54ac 4dbb
00000360: fc4a 4fbd 7744 873c bf46 f1bc fd05 50bc
00000370: 1767 93bc 0398 29bc 5e97 d3bc e7f5 163d
00000380: 12d2 c8bb 2c96 623c 5390 d8bc 1ec3 8fbc
00000390: be4d 3abd af51 5fbc 1aba 0b3d 4a99 1f3b
000003a0: e5f1 a93c 7b4d 68bb 89ce ea3b 646b f9bc
000003b0: 6198 27bd b2ca b43c 4387 723a e01f bdbc
000003c0: dbba d1bc 1e48 49bc 9b07 293c 7f35 e63c
000003d0: e259 5abd 33a9 9bbc be20 323c 1890 a5bb
000003e0: af1c 273c d8ea 08bd 90cd 0b3c 0929 32bd
000003f0: 7e1e 5bbd 06cc 013d b6bd 05bb 511b 1bbd

model2.2.bias f4 [256]
-0.025673963 -0.016709205 -0.0024762198 -0.033909284 0.061773602 -0.0083051855 -0.03419718 -0.056648806
0.018406954 0.013979749 -0.030832667 -0.05966027 -0.027464697 -0.043481346 -0.028846212 -0.02502207
-0.008980988 -0.062896624 0.029282156 -0.055351462 -0.034664843 0.0246703 -0.02593158 -0.046169247
0.0013649983 0.064605266 -0.006035156 -0.034502503 -0.007779487 0.005013819 -0.05092351 -0.027711337
-0.028153291 -0.0146718975 -0.05969734 -0.059721366 -0.016352432 -0.04427163 -0.0037777496 -0.0540236
-0.026737504 -0.0029572984 -0.06540231 -0.011710821 -0.03652904 -0.047783453 -0.012613795 -0.0229781
-0.06870362 -0.023128944 -0.0103501715 -0.023290982 -0.025747221 0.009713485 0.05484855 -0.022736665
-0.038697187 -0.030226588 -0.0080682505 -0.07815254 -0.07349428 -0.0011671082 -0.019261297 -0.00019304015
-0.018559849 -0.067873105 -0.055763975 0.012885362 -0.029162472 -0.013766041 0.0150957685 -0.016084436
-0.05844292 -0.019959828 0.012179852 -0.0071144 -0.040417343 -0.045632016 0.10273683 -0.03938123
-0.05197026 0.02145065 -0.06155985 0.034635715 7.143531e-06 -0.03665558 -0.027724888 0.016698241
-0.013509385 -0.06816176 -0.027782826 0.04681831 -0.022520352 -0.00240294 -0.02086027 -0.045722716
-0.0041795466 -0.065733604 -0.070346 0.010450275 -0.08629575 -0.03312355 -0.037062503 -0.04535071
-0.06286066 -0.074343406 -0.016085083 0.05501843 0.007656927 -0.056037016 -0.009268606 -0.0107169375
-0.024351582 -0.023114137 -0.004715456 -0.03340589 0.014342105 0.0119607635 -0.0025034968 -0.05447024
-0.11053348 -0.029653063 -0.022529237 -0.013341817 -0.055206627 -0.0129919555 -0.03494399 -0.016024983
-0.02997444 -0.003896869 -0.071016185 -0.036195006 0.0008927498 -0.0654613 -0.017887358 -0.0072202473
-0.0194601 0.016508305 -0.023490908 -0.03258425 -0.017863939 -0.074830204 0.03859317 -0.050308708
-0.09350749 -0.06572268 -0.024856247 -0.08946847 0.100021034 -0.08892677 0.013881817 0.06126227
0.005246643 -0.022164868 0.011183 -0.023315672 -0.02625101 -0.00996416 -0.025942067 0.01657977
-0.006502177 -0.0073468206 -0.07801491 -0.0062213815 0.030255858 0.0015488799 -0.04352191 -0.10014897
-0.0110818595 0.0071657225 -0.018973568 -0.009053265 -0.01130388 -0.09793352 -0.07043779 -0.014304504
-0.01951512 0.010153018 -0.075625665 -0.05461898 -0.02726766 -0.036816765 -0.017252903 -0.055919904
0.010231376 -0.02447618 -0.037231203 -0.021364754 -0.0031955077 -0.0072155027 -0.027698249 -0.014323687
-0.07317928 -0.018263943 -0.027667057 -0.058397777 -0.032672342 -0.0004970272 -0.045368023 0.0019923162
-0.029913153 -0.06338451 -0.08002108 -0.04695684 -0.07822736 0.073844 -0.03184335 -0.0022396913
-0.04853379 -0.007933519 -0.029947046 -0.040521935 -0.040879942 -0.052228276 -0.033134054 -0.030925153
-0.053358432 -0.014293103 -0.1082995 -0.037109368 0.019627027 0.15439855 -0.051943958 -0.05427011
-0.083649606 0.008770346 -0.032296404 0.0042404383 -0.0819737 -0.04723117 -0.028511282 -0.03816626
-0.0906029 -0.012323195 -0.059201773 0.02629504 -0.02428893 -0.05541696 -0.049536645 0.017334344
-0.014584535 0.009785736 -0.012041106 -0.023633206 -0.028805224 -0.09281762 -0.008498407 -0.024410585
0.009707285 0.0023703168 -0.03165277 0.03665763 -0.052196383 0.0088071115 -0.01099909 -0.035554655
00000000: 3452 d2bc bee1 88bc 1348 22bb 76e4 0abd
00000010: 5106 7d3d 7912 08bc 5812 0cbd 9408 68bd
00000020: 2eca 963c 510b 653c ca94 fcbc 545e 74bd
00000030: a5fd e0bc 7f19 32bd e44e ecbc 16fb ccbc
00000040: fe24 13bc f2cf 80bd 22e1 ef3c 37b8 62bd
00000050: b9fc 0dbd 5e19 ca3c 776e d4bc f71b 3dbd
00000060: bee9 b23a c44f 843d 8fc2 c5bb 7f52 0dbd
00000070: 11eb febb f64a a43b 2c95 50bd e302 e3bc
00000080: bba1 e6bc 6662 70bc 3385 74bd 649e 74bd
00000090: 89f5 85bc 2b56 35bd 1f94 77bb da47 5dbd
000000a0: 9c08 dbbc 3ccf 41bb a5f1 85bd bede 3fbc
000000b0: 7a9f 15bd 95b8 43bd 17aa 4ebc 923c bcbc
000000c0: 7cb4 8cbd e978 bdbc c493 29bc bbcc bebc
000000d0: d6eb d2bc 4f25 1f3c e0a8 603d 3e42 babc
000000e0: f180 1ebd c09d f7bc b230 04bc 700e a0bd
000000f0: 2b84 96bd a7f9 98ba dec9 9dbc d26a 4ab9
00000100: d30a 98bc 0e01 8bbd c468 64bd 201d 533c
00000110: 23e6 eebc f68a 61bc 3e54 773c 82c3 83bc
00000120: d861 6fbd cb82 a3bc 018e 473c ea1f e9bb
00000130: a88c 25bd a3e8 3abd b067 d23d 364e 21bd
00000140: c4de 54bd 46b9 af3c 2e26 7cbd 2ede 0d3d
00000150: 77b2 ef36 2924 16bd 4e1f e3bc c0ca 883c
00000160: 7856 5dbc 6598 8bbd cf98 e3bc 8ec4 3f3d
00000170: 9a7c b8bc a57a 1dbb 28e3 aabc be47 3bbd
00000180: 94f4 88bb 579f 86bd 9011 90bd a137 2b3c
00000190: d4bb b0bd 8fac 07bd dace 17bd abc1 39bd
000001a0: 17bd 80bd 5b41 98bd ddc4 83bc 015b 613d
000001b0: f6e6 fa3b 1287 65bd 5adb 17bc 1896 2fbc
000001c0: f87c c7bc dc59 bdbc 1d84 9abb 9dd4 08bd
000001d0: 26fb 6a3c 14f7 433c b511 24bb 301c 5fbd
000001e0: 615f e2bd fbea f2bc 3c8f b8bc a397 5abc
000001f0: 5820 62bd 36dc 54bc 6e21 0fbd d346 83bc
00000200: f58c f5bc 9d62 7fbb ef70 91bd 3741 14bd
00000210: 6d07 6a3a 9310 86bd 8288 92bc d397 ecbb
00000220: ca6a 9fbc 6d3c 873c 0170 c0bc 1077 05bd
00000230: 6557 92bc 9440 99bd df13 1e3d 8110 4ebd
00000240: db80 bfbd 9d99 86bd 549f cbbc 3f3b b7bd
00000250: d4d7 cc3d 3d1f b6bd 9070 633c 25ee 7a3d
00000260: 08ec ab3b 1993 b5bc e738 373c 8200 bfbc
00000270: 5c0c d7bc b740 23bc 7584 d4bc 4cd2 873c
00000280: 3710 d5bb 99bd f0bb 48c6 9fbd bbdc cbbb
00000290: 22db f73c c903 cb3a 0844 32bd e71a cdbd
000002a0: b090 35bc 70ce ea3b 756e 9bbc 2554 14bc
000002b0: e933 39bc 5f91 c8bd b041 90bd 705d 6abc
000002c0: 2cde 9fbc d858 263c a1e1 9abd 27b8 5fbd
000002d0: 6d60 dfbc 2dcd 16bd f655 8dbc 450c 65bd
000002e0: 80a1 273c 4582 c8bc bf7f 18bd 2305 afbc
000002f0: b96b 51bb 0670 ecbb 70e7 e2bc e6ad 6abc
00000300: 05df 95bd 449e 95bc 06a6 e2bc 8232 6fbd
00000310: 6fd3 05bd ee4a 02ba d2d3 39bd 8591 023b
00000320: 6e0c f5bc bdcf 81bd 18e2 a3bd d155 40bd
00000330: ab35 a0bd 863b 973d 2c6e 02bd c9c7 12bb
00000340: 5ecb 46bd 97fb 01bc 8253 f5bc 54fa 25bd
00000350: ba71 27bd 51ed 55bd 93b7 07bd bf56 fdbc
00000360: 5f8e 5abd 9e2d 6abc 21cc ddbd feff 17bd
00000370: dcc8 a03c a71a 1e3e 30c3 54bd 564a 5ebd
00000380: 7c50 abbd 7fb1 0f3c 3c49 04bd 60f3 8a3b
00000390: d4e1 a7bd 7975 41bd 7e90 e9bc 3954 1cbd
000003a0: 038e b9bd 3ae7 49bc 8f7d 72bd b268 d73c
000003b0: 94f9 c6bc e5fc 62bd f0e6 4abd c100 8e3c
000003c0: f9f3 6ebc 5a54 203c 0f48 45bc 6d9a c1bc
000003d0: eff8 ebbc 2a17 bebd e73c 0bbc b5f8 c7bc
000003e0: 4e0b 1f3c 5157 1b3b 56a6 01bd 5026 163d
000003f0: e0cb 55bd b44b 103c 8735 34bc c2a1 11bd

model2.4.weight f4 [64, 256]
0.056628056 -0.07799336 -0.03420271 0.016093576 -0.007944882 -0.009354259 -0.0050898218 -0.015419011
-0.04464206 -0.026516823 0.058460493 0.05492811 0.03318218 0.02432403 0.042447902 0.010689857
-0.050300177 -0.05117326 -0.054946207 0.032326903 -0.016677435 0.012736727 -0.19929487 0.03528137
-0.017134152 -0.12546828 -0.086049765 0.025313798 0.024562739 -0.025903687 -0.076413445 -0.06343968
-0.05594954 -0.026409099 -0.076365754 0.01448669 -0.10209458 -0.069499426 -0.06590445 -0.025425255
-0.06344594 0.016825551 -0.01701065 0.007263404 0.010208589 -0.05487544 -0.0064545358 0.0026101798
-0.05559529 -0.030725457 -0.10065041 -0.055915836 0.0064224596 0.051167767 -0.059036233 0.006477848
-0.018647613 0.012655178 -0.043936543 -0.003811524 -0.06698345 0.047054365 -0.0018157293 -0.04609827
0.034981713 -0.030037332 0.060480285 0.0024204296 0.03583878 0.0087130265 -0.0034878885 -0.14200543
0.0026235427 -0.042293843 0.034296107 0.00879102 0.0017446142 -0.0074087 0.068193875 -0.015826544
0.010851275 0.089329354 0.052497234 0.09199912 0.030736001 -0.016558958 0.0012517158 0.02473034
0.046482075 -0.048606437 -0.041466147 -0.050951388 0.012341041 -0.004093845 -0.007065007 -0.020929605
-0.060130693 -0.031100102 -0.008283299 0.00050202844 -0.024341129 0.032372054 -0.041921332 -0.07835042
-0.094873406 0.017876403 -0.013884584 -0.08854429 -0.02648201 -0.05463112 0.0042537143 0.030034369
0.06525081 0.034606483 -0.06294636 -0.0542301 -0.022294039 -0.061332893 -0.07641899 0.00890927
-0.042372536 -0.013159409 -0.04487755 0.017424434 -0.06904526 0.046674307 0.052055143 -0.055310596
-0.0707761 -0.014725823 -0.07571714 -0.04083899 0.022197332 -0.086073965 0.039731722 -0.0621168
0.057726018 -0.03683159 0.019002998 0.06668025 0.012016736 -0.053693727 -0.04106701 0.011186241
-0.071974 0.05088806 -0.05676881 0.012113172 0.01913092 0.011020531 -0.0036118862 -0.035978157
-0.03837462 -0.016431393 -0.0019079959 -0.022103488 0.016457397 -0.043814126 -0.057279427 0.055327497
0.0039642705 -0.04512622 0.0043239915 -0.0013409705 -0.0078215515 -0.042383406 0.01113502 0.0067054224
0.03210251 -0.06386607 -0.0025748005 -0.03209904 -0.07066369 -0.0012873185 -0.07713173 0.009405638
-0.005252656 -0.07892182 -0.06808817 -0.015550732 -0.05320334 1.8270195e-05 0.022114018 -0.07669504
0.05729646 0.043375447 -0.09364868 0.020295424 -0.05654364 -0.046378434 -0.007923756 0.0031860669
0.04391156 -0.04222181 -0.0211619 0.053243745 -0.020813273 -0.041634947 0.008046297 -0.07822391
-0.007904227 -0.025558166 -0.07775144 -0.027721003 -0.005167494 -0.049766183 -0.06130021 -0.08136939
0.01667526 -0.035927895 -0.044768423 -0.0749366 -0.0045684357 -0.011284506 0.042732686 -0.116945155
-0.074106015 0.033672057 -0.004829338 -0.05755964 -0.061409745 0.007445835 0.028668072 -0.08485162
-0.035257064 -0.041387647 -0.037156172 -0.027594663 -0.03491334 -0.0013344592 -0.076972246 -0.06206368
0.033853002 0.031754475 0.0024493325 -0.10065862 -0.029520707 -0.038053777 -0.010526164 -0.06175338
-0.08397905 -0.024359737 0.0433572 -0.016252706 0.043958373 -0.03475871 -0.013837703 -0.061526556
-0.008413763 -0.06863016 0.043040752 -0.094840184 -0.00025139106 -0.026715165 -0.025402036 0.05936252
00000000: d2f2 673d fcba 9fbd 2418 0cbd add6 833c
00000010: 402b 02bc 9b42 19bc 85c8 a6bb 05a0 7cbc
00000020: 98da 36bd cf39 d9bc 4574 6f3d 4cfc 603d
00000030: 0aea 073d 3043 c73c dadd 2d3d 8324 2f3c
00000040: 8f07 4ebd 0d9b 51bd 460f 61bd 3769 043d
00000050: 1e9f 88bc b4ad 503c f413 4cbe 3383 103d
00000060: ec5c 8cbc c27a 00be dc3a b0bd e25e cf3c
00000070: cc37 c93c f833 d4bc a77e 9cbd aaec 81bd
00000080: 582b 65bd e557 d8bc a665 9cbd 9559 6d3c
00000090: f716 d1bd b755 8ebd eaf8 86bd a048 d0bc
000000a0: f2ef 81bd bdd5 893c eb59 8bbc d901 ee3b
000000b0: ed41 273c 12c5 60bd 9280 d3bb 8d0f 2b3b
000000c0: e3b7 63bd f4b3 fbbc cd21 cebd 0108 65bd
000000d0: 7f73 d23b 4b95 513d facf 71bd 2144 d43b
000000e0: e1c2 98bc aa57 4f3c cef6 33bd c3ca 79bb
000000f0: 9e2e 89bd 14bc 403d c4fd edba 8ad1 3cbd
00000100: fc48 0f3d da10 f6bc 2dba 773d 12a0 1e3b
00000110: afcb 123d 15c1 0e3c 0f95 64bb df69 11be
00000120: beef 2b3b 4f3c 2dbd 137a 0c3d 3608 103c
00000130: 8aab e43a aec4 f2bb 3ba9 8b3d aba6 81bc
00000140: 8cc9 313c 4ff2 b63d 5707 573d 096a bc3d
00000150: 11ca fb3c a7a6 87bc 9d10 a43a 4897 ca3c
00000160: fd63 3e3d 8b17 47bd 68d8 29bd 67b2 50bd
00000170: 1432 4a3c a925 86bb 9381 e7bb 9074 abbc
00000180: 9a4b 76bd a4c5 febc adb6 07bc 8f9a 033a
00000190: 0c67 c7bc 8f98 043d b4b5 2bbd 2f76 a0bd
000001a0: fd4c c2bd 8971 923c 2b7c 63bc b556 b5bd
000001b0: cdf0 d8bc e2c4 5fbd be62 8b3b a30a f63c
000001c0: 37a2 853d 87bf 0d3d 05ea 80bd 6220 5ebd
000001d0: fda1 b6bc 3338 7bbd 8f81 9cbd 30f8 113c
000001e0: d38e 2dbd 909a 57bc 86d1 37bd b0bd 8e3c
000001f0: 9a67 8dbd 8f2d 3f3d c637 553d 5d8d 62bd
00000200: 0ff3 90bd 9444 71bc 9711 9bbd c946 27bd
00000210: 2ed7 b53c 8c47 b0bd bbbd 223d 306e 7ebd
00000220: 1e72 6c3d b9dc 16bd 2dac 9b3c a88f 883d
00000230: d8e1 443c f4ed 5bbd e235 28bd 7f46 373c
00000240: 1b67 93bd 0070 503d 6986 68bd 5376 463c
00000250: 72b8 9c3c 758f 343c 65b5 6cbb d55d 13bd
00000260: b52e 1dbd 219b 86bc b815 faba 6012 b5bc
00000270: aad1 863c 7176 33bd d59d 6abd 169f 623d
00000280: b6e6 813b 45d6 38bd 45b0 8d3b 81c3 afba
00000290: f725 00bc 399a 2dbd a96f 363c 29b9 db3b
000002a0: ec7d 033d 37cc 82bd fcbd 28bb 487a 03bd
000002b0: 20b8 90bd 3ebb a8ba 3ef7 9dbd 1b1a 1a3c
000002c0: 791e acbb c3a1 a1bd cf71 8bbd 7fc8 7ebc
000002d0: bfeb 59bd f242 9937 7528 b53c 4a12 9dbd
000002e0: b1af 6a3d 74aa 313d e1ca bfbd 9742 a63c
000002f0: 4e9a 67bd 50f7 3dbd a4d2 01bc 55cd 503b
00000300: 9cdc 333d c7f0 2cbd b95b adbc 1d16 5a3d
00000310: 9980 aabc 6889 2abd 9ed4 033c db33 a0bd
00000320: bb80 01bc 5c5f d1bc 263c 9fbd 2817 e3bc
00000330: 1554 a9bb a0d7 4bbd ee15 7bbd ffa4 a6bd
00000340: 8e9a 883c 2129 13bd 185f 37bd 5c78 99bd
00000350: d1b2 95bb a6e2 38bc 7808 2f3d f180 efbd
00000360: e5c4 97bd b6eb 093d 6c3f 9ebb a8c3 6bbd
00000370: c988 7bbd 31fc f33b 4ed9 ea3c b0c6 adbd
00000380: b669 10bd 1886 29bd 1231 18bd 340e e2bc
00000390: 4a01 0fbd 05e9 aeba a0a3 9dbd 7c36 7ebd
000003a0: 72a9 0a3d fb10 023d fb84 203b 1b26 cebd
000003b0: 69d5 f1bc 47de 1bbd ef75 2cbc 1df1 7cbd
000003c0: 35fd abbd 128e c7bc 5297 313d 6524 85bc
000003d0: b20d 343d 265f 0ebd 88b7 62bc 4503 7cbd
000003e0: e1d9 09bc f88d 8cbd 804b 303d 923b c2bd
000003f0: 23cd 83b9 c3d9 dabc ee17 d0bc 1d26 733d

model2.4.bias f4 [64]
0.0019161355 -0.07562844 -0.00096333463 0.030684227 0.024382884 -0.14695923 -0.08318721 -0.009660731
-0.081726186 0.083844975 -0.013170492 -0.08084359 -0.036482356 -0.07857224 0.1314221 0.08957332
-0.059227187 -0.074654676 -0.014609387 -0.042676218 0.040050063 -0.009103208 0.030140568 -0.07156897
-0.042535916 0.050507654 0.040863387 0.018608812 -0.045424093 0.0074855904 -0.01374766 -0.024510024
-0.03076658 -0.039404638 -0.041972842 0.015669221 -0.0601635 -0.059175476 -0.061108448 -0.021896426
-0.0701092 -0.02343428 0.013605383 0.0616225 -0.013075863 0.0512732 -0.09238578 0.039516386
-0.056976788 -0.075878106 0.0075953933 -0.041611727 0.046712805 0.038997702 0.025285836 -0.037592858
-0.068300314 -0.09863073 -0.10650163 -0.09338604 -0.021260787 -0.08199851 -0.08355518 -0.020858599
00000000: d726 fb3a 15e3 9abd 4b88 7cba 7d5d fb3c
00000010: 9dbe c73c 7b7c 16be 0e5e aabd 0b48 1ebc
00000020: 0f60 a7bd eab6 ab3d 0cc9 57bc 5391 a5bd
00000030: 866e 15bd 7cea a0bd 8493 063e 3772 b73d
00000040: 3598 72bd 8de4 98bd 365c 6fbc 42cd 2ebd
00000050: 890b 243d 9f25 15bc 5ae9 f63c c192 92bd
00000060: 243a 2ebd 1de1 4e3d 5e60 273d 8271 983c
00000070: 9d0e 3abd af49 f53b de3d 61bc 3fc9 c8bc
00000080: 320a fcbc c266 21bd b7eb 2bbd bd5c 803c
00000090: 016e 76bd fc61 72bd da4c 7abd 2260 b3bc
000000a0: 6a95 8fbd 3ff9 bfbc 1de9 5e3c e067 7c3d
000000b0: 253c 56bc d903 523d c134 bdbd efdb 213d
000000c0: 7e60 69bd fb65 9bbd c7e2 f83b 0f71 2abd
000000d0: ed55 3f3d 0ebc 1f3d 3e24 cf3c f8fa 19bd
000000e0: 09e1 8bbd e8fe c9bd 871d dabd 2e41 bfbd
000000f0: 1a2b aebc d6ee a7bd fa1e abbd a7df aabc

model2.6.weight f4 [4, 64]
0.17985028 0.07570042 -0.12381345 -0.07729359 -0.13472271 0.05115878 -0.042603888 0.1188917
0.114280105 -0.08107928 -0.0683978 0.1014357 -0.08296131 0.14545502 0.009616151 -0.22136022
0.04835376 -0.042823493 -0.0073718224 0.022692466 -0.15896952 -0.1108596 0.049501937 -0.05554339
-0.01859577 -0.004664747 -0.033187818 -0.079298265 -0.015620507 0.05462857 -0.009483253 -0.04909619
-0.08109634 0.14762287 -0.05369714 -0.076099835 -0.08568801 0.067146674 -0.11163015 -0.05389618
-0.10026249 0.059425786 -0.019671949 0.12209175 -0.07320298 -0.19915524 0.051440533 0.04199002
0.09053145 -0.03691988 -0.041598737 0.036473352 -0.027180593 -0.025004415 0.110105515 -0.018448172
-0.007954612 0.10649935 0.065147355 0.023699649 0.004902965 0.048897553 0.008352657 -0.06488622
-0.04518403 -0.09960294 0.018353239 -0.014655057 -0.14097829 0.24423583 0.029042933 0.10683588
0.0068705464 -0.029938392 0.08698184 0.22932224 -0.0043387674 0.07464436 -0.09911619 -0.14777417
-0.092625596 0.0057148687 -0.032316156 -0.10767901 -0.023632301 0.026608106 0.053320047 0.07903987
0.026889758 -0.120751746 -0.053449266 -0.00698312 -0.056624465 0.08504636 -0.05609623 -0.10695763
0.04291433 0.066577785 -0.0064242505 0.06210987 0.06518441 -0.09875841 0.12587109 0.15525992
0.07965515 0.0088669155 -0.11120806 0.084840156 -0.07480872 -0.025190325 0.057628848 -0.06570969
0.0638106 -0.020757949 -0.0592274 0.09692095 0.10676668 0.08048287 0.063592575 -0.09294817
-0.028985329 0.06500415 0.22454919 0.09408017 0.073338486 -0.04576373 0.041206934 0.12417655
-0.13145585 0.012315827 -0.033550914 0.020193694 -0.04041528 -0.03136962 0.05672598 -0.1436031
0.07950723 -0.058819626 0.024441207 -0.053771876 0.0099776955 0.034259036 -0.14211453 0.04757858
0.018144244 0.06073278 -0.023261173 -0.007892282 -0.04035789 -0.10333683 -0.06759778 0.005135407
0.0034720837 0.021607915 -0.03199241 0.049235255 0.06310704 0.0081409225 -0.08696869 -0.006495943
-0.0018120939 0.11538922 -0.019389061 0.045318637 0.0044972138 0.104108214 0.1273192 -0.07058479
-0.062182024 -0.018245395 -0.047561016 -0.065342024 -0.11985967 -0.0547705 -0.019710537 -0.09403287
-0.02695524 -0.024889393 -0.08653551 0.024567407 -0.008510894 -0.11414246 -0.10701434 -0.011761164
-0.069481894 0.097290836 -0.005895605 -0.103640996 0.030170903 -0.09052674 -0.06988883 0.03965193
-0.017887069 -0.04953937 -0.023483269 0.0052423785 -0.061272983 0.06733483 0.07780612 -0.06431415
0.1760006 -0.21951698 0.08626123 -0.038059734 -0.036819763 0.10265732 -0.15236208 0.09521034
0.40465775 0.13080737 0.010076954 -0.29321662 0.2477783 -0.049108367 -0.08480861 0.03992575
0.11119508 0.071387485 -0.09420429 0.019798504 -0.1091325 0.10226116 0.0026475939 0.11657809
-0.07148356 -0.079989895 0.0031383869 -0.08089945 0.040275946 0.121695615 0.014170944 -0.062788
0.061915137 -0.009736989 0.22614038 -0.1177927 0.05169426 -0.0061573065 0.35126096 -0.066359274
0.092966214 0.08297376 -0.04307998 -0.09146536 0.13431752 0.09879022 0.1157177 -0.09641063
-0.11064833 -0.1324482 -0.0149804605 0.07293306 -0.07078713 0.069306456 -0.04859351 0.0017631196
00000000: ac2a 383e d208 9b3d e891 fdbd 1a4c 9ebd
00000010: c0f4 09be de8b 513d 6a81 2ebd 7e7d f33d
00000020: b00b ea3d e50c a6bd 2514 8cbd 85bd cf3d
00000030: 9fe7 a9bd 29f2 143e 108d 1d3c 41ac 62be
00000040: 980e 463d b067 2fbd 548f f1bb 8de5 b93c
00000050: e8c8 22be 5c0a e3bd 8bc2 4a3d 7781 63bd
00000060: 2856 98bc bcda 98bb f3ef 07bd 2167 a2bd
00000070: 28ed 7fbc 35c2 5f3d a55f 1bbc 1619 49bd
00000080: d715 a6bd 732a 173e 88f1 5bbd 3bda 9bbd
00000090: 327d afbd 3284 893d 599e e4bd 3ec2 5cbd
000000a0: 6c56 cdbd 7468 733d 1127 a1bc 3d0b fa3d
000000b0: 72eb 95bd 5aef 4bbe 4fb3 523d bafd 2b3d
000000c0: 8e68 b93d 4d39 17bd 7063 2abd 1565 153d
000000d0: d6a9 debc 0fd6 ccbc 007f e13d 9f20 97bc
000000e0: 1054 02bc 551c da3d fa6b 853d c425 c23c
000000f0: 0da9 a03b cd48 483d 95d9 083c 11e3 84bd
00000100: e412 39bd a0fc cbbd 8859 963c c41b 70bc
00000110: 9d5c 10be f518 7a3e 72eb ed3c c5cc da3d
00000120: 5222 e13b 5c41 f5bc 8923 b23d 73d3 6a3e
00000130: 382c 8ebb 24df 983d 6efd cabd 1d52 17be
00000140: 7db2 bdbd cb43 bb3b f25d 04bd d086 dcbd
00000150: 8798 c1bc 3ef9 d93c 1f66 5a3d a8df a13d
00000160: e947 dc3c b14c f7bd 9eed 5abd a8d2 e4bb
00000170: 0eef 67bd c92c ae3d 29c5 65bd 9a0c dbbd
00000180: f0c6 2f3d ef59 883d 8582 d2bb eb66 7e3d
00000190: 677f 853d d941 cabd 5ae4 003e 75fc 1e3e
000001a0: 3d22 a33d 8a46 113c 0dc1 e3bd adc0 ad3d
000001b0: 5035 99bd f15b cebc 3a0c 6c3d cd92 86bd
000001c0: 22af 823d 930c aabc 6e98 72bd 7e7e c63d
000001d0: 7da8 da3d 34d4 a43d d33c 823d 9c5b bebd
000001e0: a472 edbc e520 853d 39f0 653e 1bad c03d
000001f0: 7d32 963d c072 3bbd 9ac8 283d 4650 fe3d
00000200: 5d9c 06be 53c8 493c af6c 09bd 3f6d a53c
00000210: 7e8a 25bd 6e7d 00bd 8059 683d b10c 13be
00000220: b0d4 a23d d9ec 70bd ed38 c83c e63f 5cbd
00000230: 7d79 233c 3453 0c3d 7986 11be c2e1 423d
00000240: 3da3 943c efc2 783d 378e bebc a14e 01bc
00000250: 514e 25bd 43a2 d3bd b470 8abd eb46 a83b
00000260: e68b 633b 1503 b13c 790a 03bd e8aa 493d
00000270: 443e 813d 8161 053c a41c b2bd ebdb d4bb
00000280: c883 edba 2f51 ec3d cfd5 9ebc 09a0 393d
00000290: 5d5d 933b b036 d53d f75f 023e c28e 90bd
000002a0: 94b2 7ebd 5e77 95bc 57cf 42bd 0ad2 85bd
000002b0: fd78 f5bd 0857 60bd fe77 a1bc 4e94 c0bd
000002c0: 3cd1 dcbc d7e4 cbbc 8839 b1bd 9641 c93c
000002d0: 4771 0bbc 86c3 e9bd 562a dbbd e6b1 40bc
000002e0: 864c 8ebd 6b40 c73d eb2f c1bb bb41 d4bd
000002f0: f828 f73c 1566 b9bd e021 8fbd 106a 223d
00000300: e787 92bc cbe9 4abd fc5f c0bc 42c8 ab3b
00000310: 61f9 7abd d8e6 893d d158 9f3d 23b7 83bd
00000320: 8039 343e 0fc9 60be baa9 b03d 86e4 1bbd
00000330: 52d0 16bd 003e d23d ce04 1cbe a4fd c23d
00000340: 4d2f cf3e 5ef2 053e cf19 253c 7d20 96be
00000350: 98b9 7d3e db25 49bd 23b0 adbd 2f89 233d
00000360: 3fba e33d 9a33 923d 2eee c0bd 7930 a23c
00000370: dc80 dfbd 4d6e d13d 4183 2d3b 7ec0 ee3d
00000380: f965 92bd bed1 a3bd 65ad 4d3b 9cae a5bd
00000390: 64f8 243d 8d3b f93d 3f2d 683c ff96 80bd
000003a0: ba9a 7d3d e487 1fbc 5891 673e 4d3d f1bd
000003b0: 5cbd 533d 3bc3 c9bb 7ad8 b33e 5fe7 87bd
000003c0: 1265 be3d 26ee a93d a274 30bd 3152 bbbd
000003d0: 888a 093e 8752 ca3d 67fd ec3d f072 c5bd
000003e0: 979b e2bd 80a0 07be 9b70 75bc ee5d 953d
000003f0: d8f8 90bd 8bf0 8d3d fd09 47bd 7a18 e73a

model2.6.bias f4 [4]
-0.0802426 -0.07089573 -0.039611816 -0.026969314
00000000: 3b56 a4bd c831 91bd 0040 22bd c0ee dcbc
