model_weight/temp_model/29997 actor.pth (torch, 646091 bytes, 9 tensors)

std f4 [4]
00000000: 23de 27c0 dc88 1ac0 f1d3 27c0 1f8f e1bf
-2.6229331 -2.4146032 -2.6223109 -1.7621802

model2.0.weight f4 [512, 24]
00000000: cd16 393e e1b3 e93d 5990 e8bd 239d 443e
00000010: d8ea 3b3e 0237 503e 4125 05be 1dd8 5bbc
00000020: 388b 82bd 481e a9be ee4c 1e3e de55 20be
00000030: f17d 083d 5ac2 883e 3a5a 8c3e 1b91 e1bd
00000040: 193b a53d 2eb0 263e f30e 9dbc 8611 413d
00000050: 81d2 7e3e 1202 803e 95e8 663d 87e0 04be
00000060: 5e9c 853e 80bb 303e 9c27 a13d b441 42bd
00000070: 9e2d 41be cd31 a4bc 244a 8ebb f5fd b9bd
00000080: f4b9 773d 0ea6 36be a8c1 2e3d 2696 8dbe
00000090: c7d4 66bc 58e9 3fbd 4d1a 07be 3c8b 843e
000000a0: 1859 f93d 81b0 5a3d 76b7 333e d88b 1ebe
000000b0: 4677 d6bc 74f5 d93d 7cdd 123d 342e da3d
000000c0: 44cd b73d 2955 cbbc 87bf 703e b381 df3d
000000d0: 04fa 15be e951 333e 0f92 3dbe 6f6c 61bd
000000e0: 6470 53bd 6dfb fdbd 435d 17bc 520d d2be
000000f0: 4bd5 a6bd 4ff4 6ebe fcb6 aabd a705 e0bc
00000100: 71a0 b6bd facd 63be a917 9c3d dcf1 2b3d
00000110: 8876 53bd 9c3c 29be 7eab afbd c711 0abe
00000120: 0d32 3d3e 1863 d6bc 9ad2 4dbe 9f5c eabd
00000130: 7e08 0a3e 95e7 c73c a47a 58be 0968 d4bd
00000140: 90bc 513d 105b ab3d f806 84be aeed 99bd
00000150: 8ecb cfbb 137b b1bd 726e 0e3e 27c5 023e
00000160: 6ff4 7fbd 8efc 5b3d 7990 013e 37c5 c7bd
00000170: 87da cd3d c44a bebd 4102 443d 09af 2dbe
00000180: 1f00 d1bd 7f24 df3b af5d 123d 5078 b6bd
00000190: 8cfc 993d d8cf e83c bbba ea3d ffe5 22bd
000001a0: 1ad9 70be e735 7dbb 3bb9 9abd 99c8 8ebe
000001b0: 6a72 303b b102 4bbd c652 98be b02a b3be
000001c0: 9183 abbe 1438 2abe b5e6 01be 25f0 4c3c
000001d0: ac35 183d 7ba8 223c 25d4 88bd 707a 55be
000001e0: bbc6 52bd eedc b7bc 3945 88be 8d2b 29be
000001f0: b2a0 e93d 3a62 acbc f3bf 913d dfb5 b9bd
00000200: f931 2fbe 28da 753e 17f8 403e a11a ac3e
00000210: 7f3c 8b3e ae50 f63d 644d c03d a0f6 19be
00000220: 3a86 43be b158 be3d 5e1d 5d3d ea17 983c
00000230: f386 0dbe 54f8 233e 7853 08be 1e10 2a3e
00000240: f279 903d 10d4 de3d 9aa5 13be bd7c 71bd
00000250: 4221 47bd 168d 613c cb72 14be f7a7 07be
00000260: 2074 14be 6837 37be 6893 d0bd 2cfb babd
00000270: 1ebd d0bc 80d1 3fbe 4d7d 0e3e 7bf0 69be
00000280: e9bf 993d 6739 62be 373c d1bd 2bfd d7bd
00000290: 1481 cfbd dab0 0bbe 73a2 55be b4b9 733d
000002a0: 1e82 6abe 52b7 98be cb07 1dbd 231b dc3d
000002b0: 0bca 203e 9ebb bcbd a3b5 4f3e fb28 bebb
000002c0: 8adf 413d 3625 043e 9fa7 823c 55f4 aa3e
000002d0: dc12 86bd 9e15 423d 36fd 153e edbf 983e
000002e0: e9b5 0f3e 9881 003e 41d8 bd3c 37cc b33e
000002f0: 744e bb3e 27ff a63d 5cbf 6c3e 0a51 c73a
00000300: 0aed fcbd d358 23be 4a5c 323e 1b15 003e
00000310: a674 2ebd 0d8f f7bd 2d94 133e 8589 f43d
00000320: d3d5 4abe 29c8 853e 2025 373e 9079 5f3e
00000330: c076 ee3d a0a0 c43d def8 433e 1a98 8c3d
00000340: db0d 62bc 826f b83d 31cd 9439 0bd0 c43d
00000350: 14ea ec3d 0004 e1bc d059 653e 86e0 4e3e
00000360: 42a5 24be 6fea a63d 477a ecbd 1e61 0a3e
00000370: 4a53 903d d88c 9b3d 0aea 223d 9541 0bbe
00000380: 02bc 7abe f941 4cbe 419e 8dbd a5e1 f93d
00000390: 37a5 833c 7973 77be f66f b9be e4df 20be
000003a0: b30b 62be e535 b23c 38ca a7bd 5f3d 06be
000003b0: 0c3f 25be 0d17 89bd ffef 9ebe 4cfd 813d
000003c0: 77c9 94be 62b4 2bbe 2e31 b93e e29b 3e3e
000003d0: 707f 233d 3d72 923d 653e ae3e 0ab9 4dbe
000003e0: a2e5 513d 19b8 1dbc 70c5 11be 28c6 243e
000003f0: c931 97bd 423b 04bd 7ecf 6ebe d47a 9dbd
0.18075104 0.11411262 -0.11355657 0.19200568 0.18351305 0.20333484 -0.13002492 -0.013418225
-0.0637421 -0.33030915 0.15459034 -0.15657756 0.033323232 0.26710778 0.27412587 -0.11014005
0.080679126 0.16278145 -0.019172167 0.047135852 0.24884988 0.2500158 0.05637415 -0.12976275
0.2609586 0.17259026 0.07868883 -0.04742594 -0.18865058 -0.020043278 -0.0043423343 -0.090816416
0.060480073 -0.17836782 0.042665154 -0.27653617 -0.014088816 -0.046853393 -0.13193627 0.25887477
0.121751964 0.053390983 0.17550454 -0.15483034 -0.02617992 0.106425196 0.035855755 0.10653344
0.08974698 -0.024820881 0.23510562 0.1091341 -0.14646155 0.17511715 -0.18512748 -0.05503505
-0.051620856 -0.12401471 -0.009238544 -0.41025788 -0.08146151 -0.23335384 -0.08335683 -0.027346445
-0.089173205 -0.22246543 0.076217 0.041978702 -0.051626712 -0.16527027 -0.085776314 -0.13483344
0.18476124 -0.026170298 -0.2009987 -0.11443447 0.13479802 0.02440242 -0.21140534 -0.10371406
0.051205218 0.08366978 -0.25786567 -0.07516037 -0.0063414043 -0.08666053 0.13909319 0.1277052
-0.06248897 0.05370765 0.12652768 -0.097544126 0.100514464 -0.09291604 0.047853712 -0.16961302
-0.10205101 0.0068097706 0.035733875 -0.089096665 0.075188726 0.02841942 0.11461397 -0.039770123
-0.23520318 -0.0038636865 -0.07554861 -0.2788742 0.0026923665 -0.049563114 -0.2975065 -0.34993505
-0.33498815 -0.16622955 -0.12685664 0.012508427 0.03716056 0.009927864 -0.06681088 -0.20847487
-0.051459055 -0.022444215 -0.26615313 -0.1652052 0.11407603 -0.021042932 0.071166895 -0.09067892
-0.17108907 0.24009001 0.18844639 0.33614066 0.27194592 0.12027107 0.09389761 -0.15035486
-0.19094172 0.0929426 0.053983085 0.01856609 -0.1382101 0.16012698 -0.13313091 0.1660771
0.07054509 0.108802915 -0.1441864 -0.05895685 -0.0486157 0.013766548 -0.14496915 -0.13247667
-0.14497423 -0.1789223 -0.101843655 -0.091299385 -0.025480803 -0.18732262 0.13914986 -0.22845642
0.07507307 -0.2209221 -0.10216563 -0.10546335 -0.101320416 -0.13641682 -0.2086275 0.059503272
-0.22901198 -0.29827362 -0.03833751 0.107473634 0.15702073 -0.09215473 0.20284133 -0.005803225
0.047332324 0.1290482 0.015949069 0.33389536 -0.06546566 0.047383897 0.14647374 0.29833928
0.14034237 0.12549436 0.023174407 0.3511674 0.36583292 0.08154135 0.23119873 0.0015206647
-0.12349899 -0.15951853 0.17418018 0.12508051 -0.042591713 -0.12087832 0.14411993 0.11940292
-0.1980813 0.26129273 0.17885256 0.21823716 0.116437435 0.09600949 0.19137904 0.068649486
-0.013797249 0.090056434 0.0002838164 0.096099935 0.11568084 -0.027467728 0.22397542 0.20202836
-0.16078666 0.081501834 -0.1154676 0.1351361 0.07047136 0.07595223 0.03977398 -0.13599236
-0.24485782 -0.19947042 -0.0691495 0.122012414 0.016069992 -0.24165143 -0.36218232 -0.15710407
-0.22074775 0.021754215 -0.08192867 -0.13109349 -0.16137332 -0.0669385 -0.31042477 0.06347141
-0.29059955 -0.1676803 0.36170334 0.18614152 0.039916456 0.071506955 0.34031978 -0.20090118
0.051244386 -0.009626412 -0.14235473 0.16091216 -0.07382543 -0.032283075 -0.2332134 -0.07689443

model2.0.bias f4 [512]
00000000: e5c2 37bd e2d0 99bc 3f58 f33d 3692 173e
00000010: e86b 6c3d b945 26be f366 19be a71d 4ebd
00000020: 0f01 f13b 44de 0b3d f01d 5dbe 006d 24bd
00000030: b215 a53d c3f0 a93d d5e1 263d c207 503e
00000040: cc21 38be 2815 b9bc 97a3 76bd bd68 f4bc
00000050: 0204 3f3d 55d2 753c aa87 0cbe 9aa6 293d
00000060: e22d 74be d849 1c3b 8ba5 90bc 290a 5fbe
00000070: f10e 9e3d e677 003d 917e fe3c 4a72 8a3d
00000080: 310d 01be 8a55 00be b8ac 98be f15c cf3d
00000090: 7a51 6a3d 0803 10be 8846 9e3d 090c 0cbe
000000a0: 1499 593e 6423 4abd 7e74 89be 81ee 65be
000000b0: bcc8 1ebd eb85 66be f22b 123e 411b 013d
000000c0: bda9 853d 7e22 9bbd a3a0 b13c bbf3 5ebe
000000d0: dc7c 233e 4f50 b53d 3278 a0bb 8761 533c
000000e0: b490 56bc 25df 3bbd 58e0 9dbd 7ad5 36be
000000f0: 2856 97bd 0411 54bc 3eda 6d3d 3b55 c03c
00000100: b009 47be 0155 8a3d 78c3 85bd 7ac0 4cbd
00000110: 9b6c b7bd e22e d4bd 203f 7f3c e3d0 86ba
00000120: 8b52 c2bd 1fd4 8fbe 73fb 303d e09b 863e
00000130: 8e12 1e3c 8586 37be 245b 5fbd b8ba 9dbd
00000140: 473a 32be 4dfc 67bc c374 05be 87b0 bb3c
00000150: f00a cdbd 1f40 e1bc f9a7 533d eb45 edbd
00000160: b1c2 4fbe 0f20 1e3e cbde 073e 1386 f53d
00000170: afa1 5dbe 109c d0bd 7596 5a3c 3e14 0a3e
00000180: a5c8 37be b02e e83d b27c 4bbe 15d8 00be
00000190: 99b7 73bd 470b d3bd 565b 1ebe 6a6a 443d
000001a0: 0bde a53d 297e 293e 8dec 38be 2eba 2a3e
000001b0: 653b 223e a8b7 49be c738 fcbd 944a 76bd
000001c0: 7cdf 023e 284a 9abd afc9 c6bd 2abb 63be
000001d0: c8b3 00be 7800 0cbe 4973 dc3d d0bc 4cbe
000001e0: 2ded bd3c 5dd9 01bd 6717 5fba 9a6c 75bd
000001f0: 457f 95bd 46de 1bbe 963b dc3d 9742 97bd
00000200: ed70 e1bc 6395 823d 7ada 9dbd 6cf0 59bd
00000210: 9f37 c8bd 0b34 c7bd 922e 90bc cdae 353d
00000220: b835 b63d 2a19 073d 9414 203b 6c05 8e3d
00000230: 8ea1 53bd de83 b73b dee6 dcbd 3b12 ef3d
00000240: 8bf3 1bbd df81 9cbd ce3e be3d c3a5 233e
00000250: ac1b 9a3d 6fb6 19be e1ea 1bbe 59ae 203d
00000260: 5301 bebd d921 9b3d 3e22 ffbd 78e2 2d3e
00000270: 465e 0d3d 76a7 83bd 45e0 19be dcd7 49bd
00000280: f884 403d b964 64bd 6faf ecbc 465a f83d
00000290: 373d 31bd 2f27 373c 43dd 82be 6547 38bb
000002a0: 8282 53be d8e0 f9ba f135 3e3a 1661 ce3b
000002b0: 3a84 27bd 19d4 423c ab2c 273e 9b31 213d
000002c0: 52e9 4ebd 48c2 11be acf6 efbd 0dd2 243d
000002d0: e533 8bbd 440f 333c 5446 7c3d b34b cb3d
000002e0: 681a 0dbe d3aa 85bc 8578 343d 646c 84bd
000002f0: 2480 cf3d a1a0 68be b8df c73d 5936 4a3e
00000300: bc7c a9bd ddaa 2cbe e48f 953d cef9 0fbe
00000310: de18 3f3e 11d7 b0bd f5b4 85bd d788 e0bd
00000320: 36aa c9bb 4743 f6bd 9705 2dbe 3650 c9bd
00000330: 1717 2bbe 168f bebb d34e 09bd 4328 503d
00000340: 2757 76be 1553 0d3e 45c4 18be 3c96 dfbd
00000350: 1de5 16be 7f5b 2d3e 90d7 99bc e147 e8bd
00000360: 704b 99bc f469 b3bc b73a 0a3e 4ed7 8a3d
00000370: 2fee bebd bdb1 f5bd f20a b1bd ab0b 89bd
00000380: 5690 84bc fa19 1dbd 2e3e f8bd e06f 5ebd
00000390: e844 2f3d 1249 413d 79e0 86be be21 0b3d
000003a0: 6318 39be 0205 4cbe 9afd 77be a321 babd
000003b0: 6327 143e b1c7 023d 0005 643c eaef 523d
000003c0: cfb4 54bd 50c2 1b3c b2b1 92bc 0c1e 403d
000003d0: dc53 46be 5ebd f43d f5e1 453d 3140 963d
000003e0: 6ba9 a23d 67f5 d23d 4120 ca3d 555c d93d
000003f0: 3b76 fcbd 8e24 803b b263 923d 5539 c23d
-0.0448636 -0.01877636 0.11882066 0.14801869 0.057720095 -0.16237535 -0.14980678 -0.050321247
0.0073548625 0.034147516 -0.21593451 -0.040143013 0.08060779 0.08297875 0.040742714 0.2031546
-0.17981642 -0.022593096 -0.060214605 -0.0298351 0.04663468 0.01500376 -0.13723627 0.04141865
-0.23845628 0.0023847725 -0.017657062 -0.2178122 0.077176936 0.031364344 0.031066211 0.0676008
-0.12602688 -0.1253263 -0.29819274 0.10125149 0.05720661 -0.14063656 0.077282965 -0.13676466
0.21249801 -0.049350157 -0.2684669 -0.22454263 -0.038765654 -0.22512023 0.14274576 0.031520132
0.06526516 -0.07574938 0.021683043 -0.21772663 0.15965599 0.08853208 -0.004897141 0.01290167
-0.013096023 -0.045867104 -0.07708806 -0.17854872 -0.0738948 -0.01294351 0.05806946 0.023478141
-0.19437289 0.067544945 -0.06531423 -0.049988247 -0.08956262 -0.10360505 0.015579015 -0.0010285642
-0.094884 -0.28091523 0.04320855 0.26290798 0.0096479785 -0.17922409 -0.054530278 -0.077016294
-0.17405044 -0.014159274 -0.13032822 0.022911323 -0.10011852 -0.027496396 0.051673863 -0.115856014
-0.20289113 0.15441917 0.13268583 0.11988463 -0.21643709 -0.101860166 0.013341536 0.13484284
-0.17947634 0.1133703 -0.19871786 -0.12582429 -0.059501264 -0.10304885 -0.1546453 0.047953047
0.08098992 0.16552033 -0.18058987 0.16672584 0.1584297 -0.19698966 -0.12315517 -0.060129717
0.12780565 -0.075336754 -0.09706437 -0.22239366 -0.12568581 -0.13672054 0.107641764 -0.19993901
0.023184383 -0.031701434 -0.0008510262 -0.059918024 -0.07299665 -0.1522151 0.107535526 -0.07385748
-0.027519668 0.063761495 -0.07707687 -0.0532078 -0.09776234 -0.09726723 -0.017600331 0.044356156
0.08896965 0.032982983 0.0024426328 0.06934628 -0.051667742 0.0056004366 -0.10786222 0.11673399
-0.038074058 -0.076419584 0.09289323 0.15981202 0.07524809 -0.15010999 -0.15226318 0.03922877
-0.09277596 0.07574815 -0.12457703 0.16980922 0.034513734 -0.06428425 -0.15026958 -0.049278125
0.04700181 -0.05576012 -0.028892247 0.12126593 -0.04327127 0.011178776 -0.25559434 -0.0028118726
-0.20655254 -0.0019064201 0.00072559627 0.0062981946 -0.040897585 0.011891388 0.16325633 0.039353948
-0.05051548 -0.14234269 -0.11716971 0.040239383 -0.067970075 0.010928933 0.061590508 0.09926548
-0.13779604 -0.016316807 0.04406025 -0.06465986 0.10131863 -0.22717525 0.09759468 0.19747294
-0.08275744 -0.16862054 0.073028356 -0.14060137 0.1866183 -0.08634771 -0.065286554 -0.109636
-0.006154324 -0.12024551 -0.16896664 -0.09829752 -0.16708027 -0.005815397 -0.03352244 0.050819647
-0.24056683 0.13801225 -0.14918621 -0.10917327 -0.14735837 0.16929434 -0.018779546 -0.11341835
-0.01871273 -0.021901108 0.1349896 0.06779347 -0.09322774 -0.119967915 -0.08644666 -0.066916786
-0.016182106 -0.03835485 -0.12121235 -0.05430591 0.042790323 0.047188826 -0.26343134 0.033967726
-0.18075709 -0.19923785 -0.24217835 -0.09088447 0.1446815 0.03192872 0.013917208 0.05149833
-0.051930245 0.009506777 -0.017906997 0.046903655 -0.19367927 0.119501814 0.048311193 0.07336462
0.0794247 0.10300713 0.09869433 0.10613314 -0.12327238 0.0039106077 0.071479216 0.094835915

model2.2.weight f4 [256, 512]
00000000: 994b ac3c be25 0cbd 28df c8bc ed92 373b
00000010: 8af0 a13c 7e47 45bd eb5d ecbc 51c1 17bd
00000020: 45b3 2abd 5fbd 38bd 2cdd e7bc c1c0 d2bc
00000030: 7e01 bd3c 0573 a2bc fcf0 ec3c 4ea9 1dbc
00000040: 114a bcbb 47b4 553c 6536 b4bc bf72 33bb
00000050: a4de d7bc d344 5cbd 6a01 dfbb be1f 883c
00000060: c6cd f0bc 9a24 5cbd 98cb cf3c 7df9 e03c
00000070: 3824 6dbc 0c66 37bc 2f37 8539 6d71 a33c
00000080: 207f f2bc cca1 8f3b 527f 89bb 7b47 ae3b
00000090: c66a 49bc 81a8 823c 4427 22bc 8c44 043d
000000a0: 1d3a d3bc d328 5dbc ffd4 62bd e43e 013d
000000b0: ed6a 4c3c eeb1 2a3d b4f4 0bbd 2c7b 903c
000000c0: 0c04 893c 1164 81bc cc1f acba efca dd3a
000000d0: b555 54bd 32c0 e43b c38e 27bc 0b3d 4c3b
000000e0: bff0 53bc c355 f2bc 2edd 693c 8ad1 83bd
000000f0: dc50 2bbd 30f3 07bc 8c36 d23b bf46 2d3c
00000100: 7d70 2ebd 6550 3bbd ea75 09bc 6e48 a2ba
00000110: 52a8 1d3c c6b2 853c 3c51 a13c b590 ecbc
00000120: bb2e fb3c 088d 653c af32 f1bc 349a 283d
00000130: 2b86 37bd 1065 a13c 22b9 af3c 9394 4dbc
00000140: 6a98 6f3b 06e8 45bd 4811 17bd 4d8f b13b
00000150: ec33 883c c9ab 24bd 2c51 b2bb dc64 9a3c
00000160: 2b13 e13c 97cb 52bd 2896 ac3b a273 a6bc
00000170: b874 25bd b31e fc3c 09c5 21bd 6b75 f3bc
00000180: 36e8 34bd 582f 3abd 9f6c 243d e1b0 053d
00000190: a048 fc3b 2f25 0e3d abef a03b d28a b4bc
000001a0: b079 3abd b775 07bd eba3 9f39 3f39 2ebd
000001b0: 554d b2bc 6675 213d 3597 23bd 0e79 8a3c
000001c0: 89a7 dabb 76ec 2e3c 9a7e 18bd 358b 19bd
000001d0: 6747 5b3c 38a2 f8bb d5a2 85bc bb64 c83c
000001e0: c55d 013d 0ecb 17bd e25a ed3b 81ac 16bd
000001f0: 037e b63c 8941 37bd 994b e9bc e033 0fbd
00000200: 31fd f43b 8eb7 ff3c 047f 88bc 4a4d a9bc
00000210: 1499 033d 0745 0a3d d61d 46bc 80ea fabc
00000220: b7ec a7bc 0aed c83c 3d04 883b 0987 1e3d
00000230: e114 77bc 9ba0 173d cb4a fbbc 463a 6ebc
00000240: 6cfe bb3c 84c0 813b 50d4 753c 69ca 8b3b
00000250: e2f9 653c 0dbf 10bd 583b 01bd 8f5f 12bd
00000260: e400 cfbb f03b 883b 7eac abbc e1d4 48bb
00000270: d914 4ebd f4cd 0d3d e689 cdbc f5bc ccbc
00000280: 31da d8bb c035 dbb9 f109 cabc ced4 023d
00000290: d954 abbc 0320 ebbc af8e f6bc 00a1 bcbc
000002a0: 853c 5d3c 330d 0abd 3a83 3dbd 263b eb3c
000002b0: db6b aabc 04dd 9b3c 318b 813c f475 d6bc
000002c0: 60d3 6cbd 6757 06bd 9652 713c 285b 323c
000002d0: a72a d7bc 14d9 cebc 36a7 c1bb e2fa 30bd
000002e0: 1731 b2bc 39fa 063b 134e acba 7b95 f3bb
000002f0: 13f2 ed3c fb72 2bbd 05bf 4cbc ab57 52bd
00000300: 0d0a 2cbb fb8e 01bd a753 01bd f9e9 113d
00000310: e339 973c 8c02 51bd 2ab4 abbc 6024 07bd
00000320: 0d44 55bd 03b9 d7bb 41c0 9bbc 3081 45bc
00000330: 12be 17bd acff 103c 7366 9a3a 8295 473c
00000340: 48c1 88bc 43d2 49bd f853 2bbb fb4e 19bd
00000350: e988 8dbb 6563 473b f683 903c 54ac 4dbb
00000360: fc4a 4fbd 7744 873c bf46 f1bc fd05 50bc
00000370: 1767 93bc 0398 29bc 5e97 d3bc e7f5 163d
00000380: 12d2 c8bb 2c96 623c 5390 d8bc 1ec3 8fbc
00000390: be4d 3abd af51 5fbc 1aba 0b3d 4a99 1f3b
000003a0: e5f1 a93c 7b4d 68bb 89ce ea3b 646b f9bc
000003b0: 6198 27bd b2ca b43c 4387 723a e01f bdbc
000003c0: dbba d1bc 1e48 49bc 9b07 293c 7f35 e63c
000003d0: e259 5abd 33a9 9bbc be20 323c 1890 a5bb
000003e0: af1c 273c d8ea 08bd 90cd 0b3c 0929 32bd
000003f0: 7e1e 5bbd 06cc 013d b6bd 05bb 511b 1bbd
0.021032142 -0.03421568 -0.024520472 0.0028011159 0.019768018 -0.048163883 -0.028853377 -0.037049595
-0.04167487 -0.045102473 -0.028303705 -0.025726678 0.023072 -0.019830236 0.028923504 -0.009622885
-0.005746134 0.01304347 -0.021998594 -0.0027381626 -0.02635128 -0.053776573 -0.0068055885 0.016616698
-0.029394995 -0.053745843 0.025365636 0.027462715 -0.014473967 -0.011193763 0.00025408852 0.019951547
-0.029601634 0.0043833014 -0.004196086 0.0053185797 -0.012293523 0.01594949 -0.009897057 0.032291934
-0.025784547 -0.013498503 -0.05537891 0.031554118 0.012476665 0.041673593 -0.034168914 0.017636858
0.016725563 -0.015794786 -0.0013132035 0.0016921441 -0.05183955 0.0069809193 -0.010226908 0.0031164314
-0.012935816 -0.02958191 0.014273925 -0.06436451 -0.04182516 -0.0082977265 0.006415194 0.010575949
-0.042587746 -0.045730967 -0.008389929 -0.0012381205 0.00962265 0.016320597 0.019692056 -0.028877595
0.030661931 0.014010675 -0.029443113 0.041162685 -0.044805687 0.01970151 0.021450583 -0.01254763
0.0036559352 -0.048316978 -0.036881715 0.005418694 0.01662632 -0.04020289 -0.0054418053 0.018846922
0.02747496 -0.05146369 0.0052669235 -0.02031881 -0.040394515 0.030776357 -0.039494548 -0.029719075
-0.044166766 -0.045455307 0.04014265 0.032639388 0.0076990873 0.03470343 0.004911383 -0.022038851
-0.045526206 -0.033071246 0.00030448972 -0.042535063 -0.02176539 0.0394186 -0.039939124 0.016903426
-0.006672804 0.010676494 -0.03723011 -0.037486274 0.013383723 -0.0075876974 -0.016312996 0.024462095
0.031583566 -0.037058882 0.0072435 -0.036785606 0.022276884 -0.044740234 -0.02847843 -0.03496158
0.007476472 0.031215455 -0.016662128 -0.020666737 0.03212841 0.033757236 -0.012092074 -0.030629396
-0.020498617 0.024527092 0.004150896 0.038703 -0.0150806615 0.0370184 -0.030675313 -0.014540261
0.022948466 0.003959717 0.0150042325 0.0042660725 0.0140366275 -0.03533845 -0.031550735 -0.035735663
-0.006317245 0.0041575357 -0.020956274 -0.0030644464 -0.05031285 0.03462024 -0.02509017 -0.024992445
-0.0066178073 -0.00041810982 -0.024662944 0.031941228 -0.020914482 -0.028701788 -0.030097334 -0.02302599
0.0135031985 -0.033703994 -0.046267726 0.028714728 -0.020803383 0.019026287 0.015813442 -0.026179291
-0.05781877 -0.032798197 0.014729163 0.010885991 -0.026265455 -0.025249995 -0.0059098257 -0.04320801
-0.021751923 0.0020595922 -0.0013145827 -0.007433591 0.029046094 -0.0418577 -0.0124967145 -0.051353138
-0.0026251108 -0.031630497 -0.031573918 0.035623524 0.01846022 -0.05102782 -0.020959932 -0.032993674
-0.05206685 -0.0065833344 -0.019012572 -0.0120547265 -0.0370465 0.008850019 0.00117798 0.0121816415
-0.016693726 -0.049272787 -0.0026142579 -0.037428837 -0.0043192995 0.0030424234 0.017641049 -0.0031383233
-0.05060862 0.016512139 -0.02945268 -0.01269674 -0.017993493 -0.010351184 -0.025829013 0.036855604
-0.006128558 0.013829749 -0.026436007 -0.017549094 -0.045484297 -0.013630315 0.034113027 0.0024352842
0.020745227 -0.0035446573 0.007165734 -0.030446716 -0.040916804 0.022069309 0.0009251723 -0.023086488
-0.025601795 -0.0122852605 0.010316755 0.02810168 -0.053308375 -0.019001579 0.010872064 -0.0050525777
0.01019971 -0.03342709 0.008532897 -0.043496165 -0.053495876 0.031688713 -0.0020407266 -0.037867848

model2.2.bias f4 [256]
00000000: 3452 d2bc bee1 88bc 1348 22bb 76e4 0abd
00000010: 8856 653d 7912 08bc 5812 0cbd 1d37 8cbd
00000020: 2eca 963c 510b 653c ca94 fcbc 545e 74bd
00000030: 99e9 10bd b41d 66bd e44e ecbc 16fb ccbc
00000040: fe24 13bc f2cf 80bd f875 a33c 37b8 62bd
00000050: b9fc 0dbd 5e19 ca3c 3eec e2bc b611 56bd
00000060: bee9 b23a 554d 943d d5d0 203c 7f52 0dbd
00000070: 70d7 583b 3e4d 1e3c 741c 7ebd e302 e3bc
00000080: bba1 e6bc 6662 70bc 410f 6bbd 649e 74bd
00000090: 89f5 85bc 2b56 35bd 81cc 85bc da47 5dbd
000000a0: 9c08 dbbc 3ccf 41bb 10d0 97bd bede 3fbc
000000b0: 7a9f 15bd 95b8 43bd a7ca c8bc 8722 a6bc
000000c0: 7cb4 8cbd e978 bdbc 42b7 e9bc bbcc bebc
000000d0: af82 4cbc 4f25 1f3c 68fb 363d 3e42 babc
000000e0: f180 1ebd e499 2bbd 3a0f aabc 9bbf 90bd
000000f0: 2b84 96bd 6d78 0bbc dec9 9dbc d26a 4ab9
00000100: d30a 98bc 0e01 8bbd c468 64bd 201d 533c
00000110: 23e6 eebc e93c cbbc 3e54 773c 26cf ebbc
00000120: d861 6fbd cb82 a3bc 018e 473c 9846 52bc
00000130: a88c 25bd a3e8 3abd e529 b73d 364e 21bd
00000140: 0bd8 38bd cfe7 953c 2e26 7cbd 77f0 043d
00000150: 77b2 ef36 49fe a7bc 4e1f e3bc c0ca 883c
00000160: 7856 5dbc 6598 8bbd 4696 0abd 3fef 2f3d
00000170: 9a7c b8bc a57a 1dbb 28e3 aabc f1e3 13bd
00000180: 94f4 88bb 579f 86bd d9c1 96bd a137 2b3c
00000190: 4956 d2bd 8fac 07bd dace 17bd 2648 36bd
000001a0: 17bd 80bd 7197 a8bd ddc4 83bc 43e4 523d
000001b0: f6e6 fa3b 7c15 90bd 3357 06bc 1896 2fbc
000001c0: 6331 cbbc dc59 bdbc e5bf 3bbc 9dd4 08bd
000001d0: 26fb 6a3c 14f7 433c b511 24bb 301c 5fbd
000001e0: 7903 d0bd fbea f2bc 3c8f b8bc a397 5abc
000001f0: 5820 62bd 36dc 54bc b7c3 42bd d346 83bc
00000200: f58c f5bc 9d62 7fbb 1226 9ebd 3741 14bd
00000210: 6d07 6a3a 9310 86bd 8288 92bc d397 ecbb
00000220: 376e f3bc 6d3c 873c 0170 c0bc 1077 05bd
00000230: 6557 92bc 9440 99bd 8787 1f3d 8110 4ebd
00000240: db7b c4bd 9d99 86bd 549f cbbc f768 a5bd
00000250: a3fd b83d 3d1f b6bd 9070 633c 3a39 5c3d
00000260: 08ec ab3b f59b ecbc e738 373c 8200 bfbc
00000270: 4c1c f9bc b740 23bc 7584 d4bc 69e3 4ebc
00000280: 4d7a 88bc 99bd f0bb 48c6 9fbd bbdc cbbb
00000290: 2b5a 8e3c c903 cb3a 0844 32bd e71a cdbd
000002a0: b090 35bc 5921 e13a 756e 9bbc 2554 14bc
000002b0: 1849 cebb 5f91 c8bd b041 90bd 590c 98bc
000002c0: 2cde 9fbc d858 263c a1e1 9abd 54d1 67bd
000002d0: 6d60 dfbc 2dcd 16bd eb2d 06bd 450c 65bd
000002e0: 80a1 273c 4582 c8bc 3785 4cbd 2305 afbc
000002f0: 8903 1bbc 0670 ecbb 70e7 e2bc e6ad 6abc
00000300: 05df 95bd 449e 95bc 06a6 e2bc 8232 6fbd
00000310: 6fd3 05bd ee4a 02ba d2d3 39bd b661 dd3a
00000320: 6e0c f5bc bdcf 81bd 18e2 a3bd d155 40bd
00000330: ab35 a0bd 5ce0 483d 2c6e 02bd 6fca 15bc
00000340: 5ecb 46bd 97fb 01bc 8253 f5bc 54fa 25bd
00000350: ba71 27bd 51ed 55bd 93b7 07bd bf56 fdbc
00000360: 5f8e 5abd 9e2d 6abc 21cc ddbd feff 17bd
00000370: 4807 8c3c cdfb 173e 30c3 54bd 564a 5ebd
00000380: 7c50 abbd 7fb1 0f3c 3c49 04bd 60f3 8a3b
00000390: 1ffa adbd 7975 41bd 4c8b 5ebd 3954 1cbd
000003a0: 038e b9bd 1091 77bc 8f7d 72bd 487b 6f3c
000003b0: 94f9 c6bc e5fc 62bd f0e6 4abd c100 8e3c
000003c0: 1769 5dbc 5a54 203c bdb5 91bc 702c f7bc
000003d0: eff8 ebbc 2a17 bebd e73c 0bbc b5f8 c7bc
000003e0: 4e0b 1f3c 5157 1b3b 56a6 01bd 63ec 0d3d
000003f0: d439 33bd e91b 7ebb 8735 34bc c2a1 11bd
-0.025673963 -0.016709205 -0.0024762198 -0.033909284 0.055990726 -0.0083051855 -0.03419718 -0.068464495
0.018406954 0.013979749 -0.030832667 -0.05966027 -0.035379026 -0.05618067 -0.028846212 -0.02502207
-0.008980988 -0.062896624 0.019953713 -0.055351462 -0.034664843 0.0246703 -0.02770054 -0.052262984
0.0013649983 0.072413124 0.009815414 -0.034502503 0.0033087395 0.009661971 -0.062038854 -0.027711337
-0.028153291 -0.0146718975 -0.057387594 -0.059721366 -0.016352432 -0.04427163 -0.016332867 -0.0540236
-0.026737504 -0.0029572984 -0.07412732 -0.011710821 -0.03652904 -0.047783453 -0.024510695 -0.020280136
-0.06870362 -0.023128944 -0.028529767 -0.023290982 -0.012482329 0.009713485 0.044673353 -0.022736665
-0.038697187 -0.04189481 -0.020759214 -0.07067796 -0.07349428 -0.008512598 -0.019261297 -0.00019304015
-0.018559849 -0.067873105 -0.055763975 0.012885362 -0.029162472 -0.024809318 0.0150957685 -0.0287853
-0.05844292 -0.019959828 0.012179852 -0.012834214 -0.040417343 -0.045632016 0.089435376 -0.03938123
-0.04512791 0.018299012 -0.06155985 0.032455888 7.143531e-06 -0.020506995 -0.027724888 0.016698241
-0.013509385 -0.06816176 -0.03383472 0.042952772 -0.022520352 -0.00240294 -0.02086027 -0.036106054
-0.0041795466 -0.065733604 -0.07361192 0.010450275 -0.10270364 -0.03312355 -0.037062503 -0.0445024
-0.06286066 -0.0823201 -0.016085083 0.05148722 0.007656927 -0.07035348 -0.008199501 -0.0107169375
-0.024803823 -0.023114137 -0.011459325 -0.03340589 0.014342105 0.0119607635 -0.0025034968 -0.05447024
-0.10156912 -0.029653063 -0.022529237 -0.013341817 -0.055206627 -0.0129919555 -0.04754993 -0.016024983
-0.02997444 -0.003896869 -0.07722105 -0.036195006 0.0008927498 -0.0654613 -0.017887358 -0.0072202473
-0.02971564 0.016508305 -0.023490908 -0.03258425 -0.017863939 -0.074830204 0.03894761 -0.050308708
-0.09593936 -0.06572268 -0.024856247 -0.08076661 0.09032752 -0.08892677 0.013881817 0.053765513
0.005246643 -0.02888296 0.011183 -0.023315672 -0.030409 -0.00996416 -0.025942067 -0.012627461
-0.01665988 -0.0073468206 -0.07801491 -0.0062213815 0.01737698 0.0015488799 -0.04352191 -0.10014897
-0.0110818595 0.0017176076 -0.018973568 -0.009053265 -0.0062953345 -0.09793352 -0.07043779 -0.018560575
-0.01951512 0.010153018 -0.075625665 -0.056596115 -0.02726766 -0.036816765 -0.032758635 -0.055919904
0.010231376 -0.02447618 -0.04993173 -0.021364754 -0.009461292 -0.0072155027 -0.027698249 -0.014323687
-0.07317928 -0.018263943 -0.027667057 -0.058397777 -0.032672342 -0.0004970272 -0.045368023 0.0016890082
-0.029913153 -0.06338451 -0.08002108 -0.04695684 -0.07822736 0.04904209 -0.03184335 -0.009142502
-0.04853379 -0.007933519 -0.029947046 -0.040521935 -0.040879942 -0.052228276 -0.033134054 -0.030925153
-0.053358432 -0.014293103 -0.1082995 -0.037109368 0.017093316 0.14842148 -0.051943958 -0.05427011
-0.083649606 0.008770346 -0.032296404 0.0042404383 -0.084949724 -0.04723117 -0.054332063 -0.03816626
-0.0906029 -0.015110269 -0.059201773 0.014616795 -0.02428893 -0.05541696 -0.049536645 0.017334344
-0.013513825 0.009785736 -0.017786855 -0.030172557 -0.028805224 -0.09281762 -0.008498407 -0.024410585
0.009707285 0.0023703168 -0.03165277 0.034649264 -0.04375632 -0.003877396 -0.01099909 -0.035554655

model2.4.weight f4 [64, 256]
00000000: d2f2 673d fcba 9fbd 2418 0cbd add6 833c
00000010: 3526 0f3c 9b42 19bc 85c8 a6bb 2d22 f7bc
00000020: 98da 36bd cf39 d9bc 4574 6f3d 4cfc 603d
00000030: 9a5e 5e3d b2eb 163d dadd 2d3d 8324 2f3c
00000040: 8f07 4ebd 0d9b 51bd 1278 31bd 3769 043d
00000050: 1e9f 88bc b4ad 503c 7d78 3cbe 3383 103d
00000060: ec5c 8cbc b673 0abe dc3a b0bd e25e cf3c
00000070: d15d c03c df7d 63bc 3a09 cfbd aaec 81bd
00000080: 582b 65bd e557 d8bc 1cf5 a0bd 9559 6d3c
00000090: f716 d1bd b755 8ebd eaf8 86bd a048 d0bc
000000a0: f2ef 81bd bdd5 893c 6710 8ebb d901 ee3b
000000b0: ed41 273c 12c5 60bd 30e6 34bc 8f11 49bb
000000c0: e3b7 63bd f4b3 fbbc c29d d1bd 0108 65bd
000000d0: 22b1 8e3b 4b95 513d cc55 85bd 2144 d43b
000000e0: e1c2 98bc e809 9c3b cef6 33bd b1ec b53b
000000f0: 9e2e 89bd fea7 3f3d c4fd edba 8ad1 3cbd
00000100: fc48 0f3d da10 f6bc 2dba 773d 12a0 1e3b
00000110: afcb 123d 15c1 0e3c 0f95 64bb df69 11be
00000120: beef 2b3b 4f3c 2dbd 137a 0c3d 16aa d5ba
00000130: 8aab e43a aec4 f2bb 39df 873d aba6 81bc
00000140: 8e15 703c d195 a83d 5707 573d 9552 d33d
00000150: 11ca fb3c eea8 503c 9d10 a43a 4897 ca3c
00000160: fd63 3e3d 8b17 47bd 4180 dbbc 09e4 4fbd
00000170: 1432 4a3c a925 86bb 9381 e7bb 9074 abbc
00000180: 9a4b 76bd a4c5 febc adb6 07bc 8f9a 033a
00000190: 0c67 c7bc 8f98 043d b4b5 2bbd 646a adbd
000001a0: fd4c c2bd 8971 923c 2b7c 63bc edab b6bd
000001b0: cdf0 d8bc e2c4 5fbd c14c 2cbc a30a f63c
000001c0: 196c 853d 87bf 0d3d 42cc b3bd 6220 5ebd
000001d0: fda1 b6bc 3338 7bbd 8f81 9cbd 30f8 113c
000001e0: cd41 62bd 909a 57bc 86d1 37bd b0bd 8e3c
000001f0: 9a67 8dbd 8f2d 3f3d c637 553d 5d8d 62bd
00000200: 0ff3 90bd 9444 71bc 9711 9bbd c946 27bd
00000210: 2ed7 b53c 8c47 b0bd bbbd 223d 306e 7ebd
00000220: b204 4f3d b9dc 16bd 2dac 9b3c a88f 883d
00000230: d8e1 443c f4ed 5bbd fbeb 1cbd 7f46 373c
00000240: 1b67 93bd 0070 503d 6986 68bd cfac 2e3c
00000250: 7914 803c 758f 343c 65b5 6cbb fab5 26bd
00000260: b52e 1dbd 740b 9abc b815 faba 6012 b5bc
00000270: aad1 863c 7176 33bd d59d 6abd 7331 383d
00000280: c36a 563b 45d6 38bd 45b0 8d3b 81c3 afba
00000290: 365b 60bc 399a 2dbd a96f 363c 29b9 db3b
000002a0: ec7d 033d e479 4bbd fcbd 28bb 487a 03bd
000002b0: 5bcb d0bd 3ebb a8ba 3ef7 9dbd 64ca 5db8
000002c0: 791e acbb c3a1 a1bd cf71 8bbd fbd3 0e3c
000002d0: bfeb 59bd f242 9937 cf55 a13c 4a12 9dbd
000002e0: b1af 6a3d 74aa 313d e1ca bfbd 9742 a63c
000002f0: 1d15 2dbd 50f7 3dbd a4d2 01bc 55cd 503b
00000300: 9cdc 333d c7f0 2cbd b95b adbc 1d16 5a3d
00000310: 9980 aabc 6889 2abd 9ed4 033c 859b a6bd
00000320: bb80 01bc 5c5f d1bc 263c 9fbd 2817 e3bc
00000330: 1554 a9bb 9741 84bd ee15 7bbd ffa4 a6bd
00000340: 8e9a 883c 2129 13bd 185f 37bd 5c78 99bd
00000350: d1b2 95bb a6e2 38bc 7808 2f3d f180 efbd
00000360: e5c4 97bd b6eb 093d 6c3f 9ebb a8c3 6bbd
00000370: c988 7bbd 4c6a 2b3b 4ed9 ea3c b0c6 adbd
00000380: b669 10bd 1886 29bd 1231 18bd 340e e2bc
00000390: 4a01 0fbd 05e9 aeba 671b aebd 7c36 7ebd
000003a0: 72a9 0a3d fb10 023d fb84 203b 1b26 cebd
000003b0: 69d5 f1bc 47de 1bbd ef75 2cbc 1df1 7cbd
000003c0: 7528 bcbd 128e c7bc a2b5 1f3d 6524 85bc
000003d0: b20d 343d 265f 0ebd 88b7 62bc 4503 7cbd
000003e0: e1d9 09bc f88d 8cbd 804b 303d a54f d9bd
000003f0: 97a6 46bc c3d9 dabc ee17 d0bc 1d26 733d
0.056628056 -0.07799336 -0.03420271 0.016093576 0.008737137 -0.009354259 -0.0050898218 -0.030167663
-0.04464206 -0.026516823 0.058460493 0.05492811 0.054289438 0.03684587 0.042447902 0.010689857
-0.050300177 -0.05117326 -0.0433274 0.032326903 -0.016677435 0.012736727 -0.18405338 0.03528137
-0.017134152 -0.13520703 -0.086049765 0.025313798 0.023482235 -0.0138849905 -0.10109182 -0.06343968
-0.05594954 -0.026409099 -0.07859251 0.01448669 -0.10209458 -0.069499426 -0.06590445 -0.025425255
-0.06344594 0.016825551 -0.0043354514 0.007263404 0.010208589 -0.05487544 -0.011041209 -0.0030680632
-0.05559529 -0.030725457 -0.10235168 -0.055915836 0.004354612 0.051167767 -0.06510505 0.006477848
-0.018647613 0.004761923 -0.043936543 0.0055518975 -0.06698345 0.04679107 -0.0018157293 -0.04609827
0.034981713 -0.030037332 0.060480285 0.0024204296 0.03583878 0.0087130265 -0.0034878885 -0.14200543
0.0026235427 -0.042293843 0.034296107 -0.00163013 0.0017446142 -0.0074087 0.06634373 -0.015826544
0.014653577 0.082317 0.052497234 0.10318486 0.030736001 0.0127355885 0.0012517158 0.02473034
0.046482075 -0.048606437 -0.026794555 -0.05075458 0.012341041 -0.004093845 -0.007065007 -0.020929605
-0.060130693 -0.031100102 -0.008283299 0.00050202844 -0.024341129 0.032372054 -0.041921332 -0.08467558
-0.094873406 0.017876403 -0.013884584 -0.08919511 -0.02648201 -0.05463112 -0.010516346 0.030034369
0.065147586 0.034606483 -0.087791935 -0.0542301 -0.022294039 -0.061332893 -0.07641899 0.00890927
-0.055238534 -0.013159409 -0.04487755 0.017424434 -0.06904526 0.046674307 0.052055143 -0.055310596
-0.0707761 -0.014725823 -0.07571714 -0.04083899 0.022197332 -0.086073965 0.039731722 -0.0621168
0.050541587 -0.03683159 0.019002998 0.06668025 0.012016736 -0.053693727 -0.038310986 0.011186241
-0.071974 0.05088806 -0.05676881 0.010661318 0.015634762 0.011020531 -0.0036118862 -0.04070089
-0.03837462 -0.01880429 -0.0019079959 -0.022103488 0.016457397 -0.043814126 -0.057279427 0.044969033
0.0032717444 -0.04512622 0.0043239915 -0.0013409705 -0.013693621 -0.042383406 0.01113502 0.0067054224
0.03210251 -0.04967679 -0.0025748005 -0.03209904 -0.10195037 -0.0012873185 -0.07713173 -5.2878997e-05
-0.005252656 -0.07892182 -0.06808817 0.008717532 -0.05320334 1.8270195e-05 0.019694237 -0.07669504
0.05729646 0.043375447 -0.09364868 0.020295424 -0.042256463 -0.046378434 -0.007923756 0.0031860669
0.04391156 -0.04222181 -0.0211619 0.053243745 -0.020813273 -0.041634947 0.008046297 -0.08135132
-0.007904227 -0.025558166 -0.07775144 -0.027721003 -0.005167494 -0.06457823 -0.06130021 -0.08136939
0.01667526 -0.035927895 -0.044768423 -0.0749366 -0.0045684357 -0.011284506 0.042732686 -0.116945155
-0.074106015 0.033672057 -0.004829338 -0.05755964 -0.061409745 0.0026155887 0.028668072 -0.08485162
-0.035257064 -0.041387647 -0.037156172 -0.027594663 -0.03491334 -0.0013344592 -0.0850132 -0.06206368
0.033853002 0.031754475 0.0024493325 -0.10065862 -0.029520707 -0.038053777 -0.010526164 -0.06175338
-0.09187404 -0.024359737 0.038991578 -0.016252706 0.043958373 -0.03475871 -0.013837703 -0.061526556
-0.008413763 -0.06863016 0.043040752 -0.10610894 -0.012124679 -0.026715165 -0.025402036 0.05936252

model2.4.bias f4 [64]
00000000: 6b47 1b3c 15e3 9abd 4b88 7cba 7d5d fb3c
00000010: 7c59 0b3d 7b7c 16be 0e5e aabd 1ce0 4ebc
00000020: b8d5 abbd 0f63 bd3d e888 fdba 5391 a5bd
00000030: cf5e 24bd cbfa 91bd 70d7 003e 3772 b73d
00000040: 3c3f 56bd 9647 8abd 365c 6fbc 6ca2 1bbd
00000050: 83e7 5f3d df0c 25ba 5ae9 f63c c192 92bd
00000060: 243a 2ebd 39cd 213d c4ad 3b3d 8271 983c
00000070: f5cd 74bd af49 f53b de3d 61bc 3fc9 c8bc
00000080: 320a fcbc a08b 2abd b7eb 2bbd bd5c 803c
00000090: 016e 76bd 527a 69bd da4c 7abd 2260 b3bc
000000a0: 6a95 8fbd 3ff9 bfbc 495d 8a3b 9809 4d3d
000000b0: 253c 56bc d903 523d d6a6 c4bd efdb 213d
000000c0: 7e60 69bd fb65 9bbd c7e2 f83b 8c1c 2fbd
000000d0: 5442 723d 0ebc 1f3d 8cb1 b63c f8fa 19bd
000000e0: 09e1 8bbd e8fe c9bd 871d dabd 2e41 bfbd
000000f0: 1a2b aebc d6ee a7bd fa1e abbd a7df aabc
0.009477477 -0.07562844 -0.00096333463 0.030684227 0.034020886 -0.14695923 -0.08318721 -0.012626674
-0.08390373 0.092474096 -0.0019343169 -0.08084359 -0.04012948 -0.07127913 0.12582183 0.08957332
-0.0523064 -0.06751935 -0.014609387 -0.037996694 0.054664146 -0.00062961684 0.030140568 -0.07156897
-0.042535916 0.039502356 0.045820013 0.018608812 -0.05976673 0.0074855904 -0.01374766 -0.024510024
-0.03076658 -0.041637063 -0.041972842 0.015669221 -0.0601635 -0.05700142 -0.061108448 -0.021896426
-0.0701092 -0.02343428 0.0042225462 0.050057977 -0.013075863 0.0512732 -0.09602134 0.039516386
-0.056976788 -0.075878106 0.0075953933 -0.042751834 0.059145287 0.038997702 0.022301458 -0.037592858
-0.068300314 -0.09863073 -0.10650163 -0.09338604 -0.021260787 -0.08199851 -0.08355518 -0.020858599

model2.6.weight f4 [4, 64]
00000000: be67 4c3e d208 9b3d e891 fdbd 1a4c 9ebd
00000010: 4ed2 19be de8b 513d 6a81 2ebd 7459 e93d
00000020: f4d8 fb3d 4965 c3bd b0b2 84bd 85bd cf3d
00000030: 7908 aebd c193 113e 2ff5 4bbc 41ac 62be
00000040: 29f6 483d 8b54 d1bc 548f f1bb c8c9 5b3c
00000050: 896d 26be d829 f2bd 8bc2 4a3d 7781 63bd
00000060: 2856 98bc 2e69 093c 1f20 29bd 2167 a2bd
00000070: 7659 acbc 35c2 5f3d a55f 1bbc 1619 49bd
00000080: d715 a6bd af5d f73d 88f1 5bbd 3bda 9bbd
00000090: 327d afbd 4c98 a63d 599e e4bd 3ec2 5cbd
000000a0: 6c56 cdbd 7468 733d be90 c4bc 17a7 d83d
000000b0: 72eb 95bd 5aef 4bbe e85b 613d bafd 2b3d
000000c0: 8e68 b93d 4d39 17bd 7063 2abd 6d75 043d
000000d0: ff9b cebc 0fd6 ccbc d423 c63d 9f20 97bc
000000e0: 1054 02bc 551c da3d fa6b 853d c425 c23c
000000f0: 0da9 a03b cd48 483d 95d9 083c 11e3 84bd
00000100: be73 9bbc a0fc cbbd 8859 963c c41b 70bc
00000110: 543a 17be f518 7a3e 72eb ed3c 1ce9 dc3d
00000120: 8460 193c b085 7dbc cb23 803d 73d3 6a3e
00000130: b350 edb9 81a1 db3d 3622 99bd 1d52 17be
00000140: 18c2 c0bd 6315 8a3b f25d 04bd a234 ccbd
00000150: 5702 e3bc 5484 b63c 1f66 5a3d a8df a13d
00000160: e947 dc3c 6c50 ebbd fc76 6ebd a8d2 e4bb
00000170: e93b 85bd c92c ae3d 29c5 65bd 9a0c dbbd
00000180: f0c6 2f3d 43d2 843d 8582 d2bb eb66 7e3d
00000190: 677f 853d c318 bbbd 5ae4 003e 75fc 1e3e
000001a0: 3d22 a33d 8a46 113c bab7 d6bd 2d96 dc3d
000001b0: 5035 99bd f15b cebc 3c85 503d cd92 86bd
000001c0: 22af 823d 930c aabc 6e98 72bd b0d8 b83d
000001d0: 902d f63d 34d4 a43d 9487 5a3d 9c5b bebd
000001e0: a472 edbc e520 853d 39f0 653e 1bad c03d
000001f0: 7d32 963d c072 3bbd 9ac8 283d 4650 fe3d
00000200: d5f7 f6bd 53c8 493c af6c 09bd 3f6d a53c
00000210: 861d 3ebd 6e7d 00bd 8059 683d 52d6 15be
00000220: 2dc5 973d dc5c 6fbd a848 323d e63f 5cbd
00000230: 1078 3a3c 5cfe a63c 026e 0abe c2e1 423d
00000240: cfea b33c 51e6 413d 378e bebc fe0b b8bb
00000250: 4a3d 84bd 6824 c6bd b470 8abd eb46 a83b
00000260: e68b 633b ad10 1b3d 6b65 fcbc e8aa 493d
00000270: 4f1d 5d3d 8161 053c a41c b2bd ebdb d4bb
00000280: c883 edba 6101 003e cfd5 9ebc 09a0 393d
00000290: 5d5d 933b d9ff cb3d f75f 023e c28e 90bd
000002a0: 94b2 7ebd 5e77 95bc 8894 7bbd 6ae9 45bd
000002b0: fd78 f5bd 0857 60bd f436 01bc 4e94 c0bd
000002c0: 3cd1 dcbc d7e4 cbbc 8839 b1bd b18a ef3a
000002d0: 6579 bfbc 86c3 e9bd 05e8 c9bd e6b1 40bc
000002e0: 864c 8ebd 6b40 c73d eb2f c1bb bb41 d4bd
000002f0: f828 f73c 1566 b9bd e021 8fbd 106a 223d
00000300: 0c59 173c cbe9 4abd fc5f c0bc 42c8 ab3b
00000310: 0a17 72bd d8e6 893d d158 9f3d 5660 7dbd
00000320: 0626 3b3e 51bb 60be 8da1 e43d 86e4 1bbd
00000330: 2b77 32bb 6cba f53d 0a4b 22be a4fd c23d
00000340: 0655 e13e 38ad 173e cf19 253c c67c 98be
00000350: e9b7 b03e fc66 1fbd 23b0 adbd 2f89 233d
00000360: 3fba e33d a294 a23d 8628 a1bd 7930 a23c
00000370: 999a c4bd 4d6e d13d 4183 2d3b 7ec0 ee3d
00000380: f965 92bd 5029 d1bd 65ad 4d3b 9cae a5bd
00000390: 64f8 243d e0d8 033e 3f2d 683c ff96 80bd
000003a0: ba9a 7d3d e487 1fbc 2a92 883e 861f ddbd
000003b0: 5cbd 533d 3bc3 c9bb 5391 be3e 5fe7 87bd
000003c0: 1265 be3d 26ee a93d a274 30bd a7e4 b0bd
000003d0: 45c8 173e 8752 ca3d f848 fa3d f072 c5bd
000003e0: 979b e2bd 80a0 07be 9b70 75bc ee5d 953d
000003f0: d8f8 90bd 8bf0 8d3d fd09 47bd 7a18 e73a
0.1996145 0.07570042 -0.12381345 -0.07729359 -0.15021631 0.05115878 -0.042603888 0.11394015
0.1229724 -0.09540803 -0.064793944 0.1014357 -0.0849771 0.1421652 -0.012448593 -0.22136022
0.04906288 -0.025553009 -0.0073718224 0.013414808 -0.16252722 -0.11824387 0.049501937 -0.05554339
-0.01859577 0.008386893 -0.0412904 -0.079298265 -0.021038752 0.05462857 -0.009483253 -0.04909619
-0.08109634 0.120784156 -0.05369714 -0.076099835 -0.08568801 0.08134517 -0.11163015 -0.05389618
-0.10026249 0.059425786 -0.0239948 0.10578745 -0.07320298 -0.19915524 0.05501929 0.04199002
0.09053145 -0.03691988 -0.041598737 0.03233855 -0.02522087 -0.025004415 0.096748024 -0.018448172
-0.007954612 0.10649935 0.065147355 0.023699649 0.004902965 0.048897553 0.008352657 -0.06488622
-0.018976089 -0.09960294 0.018353239 -0.014655057 -0.14768344 0.24423583 0.029042933 0.107866496
0.00936139 -0.015473768 0.06256827 0.22932224 -0.00045264288 0.10724164 -0.07477228 -0.14777417
-0.094120204 0.0042139753 -0.032316156 -0.099709764 -0.027711077 0.022279896 0.053320047 0.07903987
0.026889758 -0.11489949 -0.05821894 -0.00698312 -0.065055676 0.08504636 -0.05609623 -0.10695763
0.04291433 0.06485417 -0.0064242505 0.06210987 0.06518441 -0.09135582 0.12587109 0.15525992
0.07965515 0.0088669155 -0.10484262 0.10770831 -0.07480872 -0.025190325 0.050908312 -0.06570969
0.0638106 -0.020757949 -0.0592274 0.09025705 0.12020409 0.08048287 0.053351954 -0.09294817
-0.028985329 0.06500415 0.22454919 0.09408017 0.073338486 -0.04576373 0.041206934 0.12417655
-0.12058989 0.012315827 -0.033550914 0.020193694 -0.046414874 -0.03136962 0.05672598 -0.14632538
0.07410655 -0.058438167 0.04352632 -0.053771876 0.011381164 0.02038496 -0.13518527 0.04757858
0.021962551 0.047338787 -0.023261173 -0.005616664 -0.064570025 -0.09674913 -0.06759778 0.005135407
0.0034720837 0.0378577 -0.030810079 0.049235255 0.05398303 0.0081409225 -0.08696869 -0.006495943
-0.0018120939 0.12500526 -0.019389061 0.045318637 0.0044972138 0.099609084 0.1273192 -0.07058479
-0.062182024 -0.018245395 -0.061420947 -0.048318304 -0.11985967 -0.0547705 -0.007886637 -0.09403287
-0.02695524 -0.024889393 -0.08653551 0.0018275586 -0.023373315 -0.11414246 -0.09858707 -0.011761164
-0.069481894 0.097290836 -0.005895605 -0.103640996 0.030170903 -0.09052674 -0.06988883 0.03965193
0.009237539 -0.04953937 -0.023483269 0.0052423785 -0.059104003 0.06733483 0.07780612 -0.06185945
0.18276224 -0.21946456 0.11163626 -0.038059734 -0.0027231674 0.11998448 -0.15848938 0.09521034
0.4401018 0.14812171 0.010076954 -0.29782695 0.34515312 -0.038916573 -0.08480861 0.03992575
0.11119508 0.07938506 -0.07869057 0.019798504 -0.095998 0.10226116 0.0026475939 0.11657809
-0.07148356 -0.10212958 0.0031383869 -0.08089945 0.040275946 0.128757 0.014170944 -0.062788
0.061915137 -0.009736989 0.26674014 -0.10797028 0.05169426 -0.0061573065 0.3722025 -0.066359274
0.092966214 0.08297376 -0.04307998 -0.08637362 0.1482249 0.09879022 0.12220949 -0.09641063
-0.11064833 -0.1324482 -0.0149804605 0.07293306 -0.07078713 0.069306456 -0.04859351 0.0017631196

model2.6.bias f4 [4]
00000000: ccf7 cdbd 1a27 82bd eca4 cdbc 01d4 03bd
-0.10057029 -0.06355114 -0.025103055 -0.032184605
