model_weight/temp_model/3333 actor.pth (torch, 646091 bytes, 9 tensors)

std f4 [4]
0	0xbf289140	-0.65846634
1	0xbe3e88f5	-0.18606932
2	0xbf481154	-0.7815144
3	0xbee2c966	-0.4429428

model2.0.weight f4 [512, 24]
0	0x3dc6284f	0.09675657
1	0x3d8baa39	0.06819577
2	0xbdb418e1	-0.08793808
3	0x3e2b724e	0.16742823
4	0x3e20ab88	0.15690434
5	0x3dfea208	0.12433249
6	0xbe2af93a	-0.16696635
7	0x3db7ba82	0.089711204
8	0xbe194f9f	-0.1497178
9	0xbe0b88b4	-0.13626367
10	0x3e60cfad	0.21954222
11	0xbd29d349	-0.041461263
12	0x3dc65c99	0.0968563
13	0x3e414db2	0.18877295
14	0x3e3248e5	0.1741062
15	0xbe56d473	-0.2097948
16	0xbc971f09	-0.018447416
17	0x3d837709	0.064191885
18	0xbdefd573	-0.11710634
19	0xbd4de81c	-0.050270185
20	0x3e1b3717	0.15157734
21	0x3e1b9728	0.1519438
22	0xbd05f756	-0.03270658
23	0xbe40cb0e	-0.18827459
24	0x3e38b133	0.18036346
25	0x3ddf84f7	0.10914033
26	0x3e42a69e	0.19008872
27	0x3c09e7be	0.008417068
28	0xbe769397	-0.24079739
29	0xbdba1193	-0.09085383
30	0xbd05fe78	-0.032713383
31	0xbc3347d8	-0.010942422
32	0x3db25f16	0.087095425
33	0xbe5156b5	-0.20443232
34	0x3d26d814	0.040733412
35	0xbe4f9acf	-0.20273899
36	0xbc4ce61e	-0.012506036
37	0xbdd1ffaa	-0.10253842
38	0xbe129452	-0.14314392
39	0x3e7f3ca8	0.24925482
40	0x3de93b17	0.113882236
41	0x3d4308a8	0.047615677
42	0x3e307c81	0.17234994
43	0xbe1ee786	-0.15518007
44	0xbcc2e786	-0.02379204
45	0x3ddc1080	0.107453346
46	0x3cfb4ac6	0.030675303
47	0x3de3d3a5	0.11124352
48	0x3deb4f80	0.11489773
49	0xbca4752b	-0.020075401
50	0x3e88458d	0.26615563
51	0x3dbff7d3	0.093734406
52	0xbe114c13	-0.14189176
53	0x3e0a4c4f	0.13505672
54	0xbe00e131	-0.12585904
55	0xbd9a2a09	-0.07527549
56	0xbc9bc95b	-0.019016912
57	0xbe1795a8	-0.14803183
58	0x3d8f29af	0.069903724
59	0xbecc1a31	-0.39863732
60	0xbde9ca0c	-0.114154905
61	0xbd8af28b	-0.06784543
62	0x3d30f8b6	0.04320594
63	0x3dcb72fb	0.0993404
64	0x3d1a35dd	0.037649024
65	0xbdc376ab	-0.095441185
66	0x3e5020eb	0.20325057
67	0x3e2ceb86	0.1688672
68	0x3d998e4e	0.074978456
69	0xbd1c8777	-0.038215127
70	0x3d214985	0.039376754
71	0xbd63b57a	-0.05559299
72	0x3d3b39df	0.045709487
73	0xbe26bcc4	-0.16282946
74	0xbe085794	-0.13314658
75	0xbcb64e7a	-0.022254217
76	0x3e5a1e87	0.21300708
77	0x3cd7b139	0.026329624
78	0xbe8a2501	-0.26981357
79	0xbb6104ca	-0.003433513
80	0x3df9b1c5	0.1219211
81	0x3dcefca9	0.10106785
82	0xbe83482f	-0.2564101
83	0xbd6dc079	-0.058044884
84	0xbd537530	-0.05162543
85	0xbb574599	-0.003284788
86	0x3e215938	0.1575669
87	0x3e16b7e4	0.14718586
88	0xbd2c431b	-0.042056184
89	0x3d9a0aa0	0.07521558
90	0x3e1924e8	0.14955485
91	0xbd94f937	-0.072740965
92	0x3e019431	0.12654187
93	0xbd8b23c0	-0.06793928
94	0x3d857f4b	0.0651842
95	0xbe2071b8	-0.1566838
96	0xbdeb87b3	-0.11500492
97	0xbb08a71e	-0.0020851563
98	0x3cf27128	0.029594973
99	0xbe13623b	-0.1439294
100	0x3d7c59c8	0.06160906
101	0x3c444f68	0.011981823
102	0x3dd9b3ad	0.106299736
103	0xbd8b9e6d	-0.06817327
104	0xbe26be37	-0.16283499
105	0xbb50a628	-0.0031837318
106	0xbda0de1f	-0.07854866
107	0xbe9fed30	-0.31235647
108	0xbd388136	-0.0450451
109	0xbd306827	-0.043068077
110	0xbe3c41ee	-0.18384525
111	0xbe71d101	-0.23614885
112	0xbe6251a2	-0.22101453
113	0xbd551f20	-0.052031636
114	0xbc4dec8f	-0.012568607
115	0x3e01b0ad	0.12665053
116	0x3e1ae8db	0.1512789
117	0x3dfca337	0.12335818
118	0x3d363830	0.04448718
119	0xbdf6d0a4	-0.12051514
120	0xbd988847	-0.07447868
121	0xbdd3f051	-0.10348571
122	0xbe101c3e	-0.14073274
123	0xbe3c0c98	-0.18364179
124	0x3e0c2a2d	0.13687964
125	0x3d44b013	0.04801948
126	0x3d9521c7	0.07281833
127	0xbd8874c3	-0.066628955
128	0xbdcba32e	-0.099432334
129	0x3df83673	0.1211976
130	0x3e23caf3	0.15995388
131	0x3e8bb4b8	0.27286315
132	0x3dc89945	0.09794859
133	0x3da97286	0.08273797
134	0x3e09e624	0.13466698
135	0xbde1d03e	-0.11026047
136	0xbe1b5a6d	-0.15171213
137	0x3e064451	0.13111998
138	0x3dba5a31	0.09099234
139	0x3d5e5e64	0.054289237
140	0xbdd45905	-0.10368542
141	0x3e49d495	0.1971
142	0xbdc750d1	-0.097322114
143	0x3e44fef9	0.1923789
144	0x3e067f7f	0.13134573
145	0x3dd99350	0.10623801
146	0xbe00f307	-0.12592708
147	0xbcf6fcc8	-0.030149832
148	0xbd2e9da5	-0.04263081
149	0x3d55f78d	0.052238036
150	0xbe1b8b79	-0.15189923
151	0xbddcf174	-0.10788241
152	0xbe29ff85	-0.16601379
153	0xbe2297a0	-0.15878153
154	0xbe09b8dc	-0.13449425
155	0xbd463227	-0.048387673
156	0x3cc39014	0.023872413
157	0xbe304563	-0.17213969
158	0x3e29a8c5	0.16568287
159	0xbe4eb149	-0.20184816
160	0x3dd0c427	0.10193663
161	0xbe463505	-0.19356163
162	0xbd982d3c	-0.07430503
163	0xbd9e4c34	-0.07729378
164	0xbd961b37	-0.073294096
165	0xbddf28a7	-0.10896426
166	0xbe3daf4b	-0.185239
167	0x3d884d85	0.06655411
168	0xbe3c50bc	-0.18390173
169	0xbe87fe53	-0.2656122
170	0xbde077b8	-0.109603345
171	0x3e16abc4	0.14713961
172	0x3e54f051	0.20794798
173	0xbcfd9304	-0.030953892
174	0x3e56962b	0.20955722
175	0xbd0a130e	-0.03370958
176	0x3ceb0262	0.02868766
177	0x3dbc154d	0.0918375
178	0xbd47830e	-0.048708968
179	0x3ea45908	0.32099175
180	0xbdf2273e	-0.11823891
181	0x3d51ef99	0.05125389
182	0x3d522266	0.051302336
183	0x3e4e9e4e	0.20177576
184	0x3d2cbf8e	0.04217487
185	0x3cd156d6	0.025554102
186	0xbda16498	-0.07880515
187	0x3e7cf664	0.24703366
188	0x3e8523b7	0.2600381
189	0xbcc0d168	-0.023537353
190	0x3e02283f	0.12710665
191	0xbdca02da	-0.09863825
192	0xbd811698	-0.063031375
193	0xbe0c7857	-0.13717781
194	0x3de9a0a3	0.11407592
195	0x3e425a38	0.18979728
196	0x3aee53a4	0.0018182886
197	0xbd4c3475	-0.049854714
198	0x3e15a4ff	0.14613722
199	0x3d8b7e57	0.06811207
200	0xbe329b2d	-0.17442007
201	0x3e4f76f6	0.20260224
202	0x3dbf2e2d	0.09334979
203	0x3e6dc45d	0.23219438
204	0x3e00a89d	0.12564321
205	0x3dac7f5c	0.084227294
206	0x3dcec5e7	0.100963406
207	0xbcb9ce3e	-0.022681352
208	0xbdd9b1e0	-0.1062963
209	0xbb7d1c09	-0.0038621447
210	0xbdc303ee	-0.09522234
211	0xba868336	-0.0010262493
212	0x3c8d80e2	0.01727337
213	0xbe000fab	-0.12505977
214	0x3e03b556	0.12862143
215	0x3de27907	0.110582404
216	0xbe4363c4	-0.19081026
217	0x3d5514a2	0.05202163
218	0xbde452ba	-0.11148591
219	0x3dbdfa2c	0.09276232
220	0x3e0f70a8	0.14007819
221	0x3d54223c	0.05179046
222	0x3ca15135	0.019692043
223	0xbe1cf290	-0.15326905
224	0xbdbdf19c	-0.09274599
225	0xbe5de080	-0.21667671
226	0xbdac8d05	-0.08425335
227	0x3df71b78	0.12065786
228	0xbc53ec15	-0.012934704
229	0xbe28fafc	-0.16501993
230	0xbe8709d6	-0.26374692
231	0xbd7189cb	-0.0589693
232	0xbdfbacd1	-0.122888215
233	0x3df4c45d	0.11951516
234	0x3c82c516	0.015963119
235	0xbd0816e1	-0.033224944
236	0xbd817c66	-0.06322555
237	0x3d061182	0.03273154
238	0xbe5a50c9	-0.2131988
239	0x3e146c34	0.14494401
240	0xbe03d069	-0.12872471
241	0xbd002180	-0.031281948
242	0x3e27c116	0.1638225
243	0xbd99cc18	-0.07509631
244	0x3d6d349c	0.0579115
245	0xbce322f2	-0.027726624
246	0x3e9a5740	0.3014469
247	0xbe0dce54	-0.13848239
248	0x3da0e04c	0.07855281
249	0x3c458e87	0.012057907
250	0xbe24b226	-0.16083583
251	0x3da687ae	0.081313476
252	0xbdd0f1d8	-0.10202378
253	0xbcbdf2d6	-0.023187082
254	0xbe3290c9	-0.17438044
255	0xbca2ecc0	-0.019888282

model2.0.bias f4 [512]
0	0xbde29e07	-0.110652976
1	0xbc2501cf	-0.010071232
2	0x3e3c7bf4	0.1840666
3	0x3e1e7e61	0.15477897
4	0x3e0cb7b7	0.13741957
5	0xbe0e92f0	-0.1392324
6	0xbe1358e8	-0.14389384
7	0xbe0ccef2	-0.13750818
8	0xbd967ede	-0.07348417
9	0x3dde69bd	0.10860012
10	0xbe23c231	-0.15992047
11	0xbcaeaef7	-0.021323664
12	0x3e02a1aa	0.12756982
13	0x3e1f4e9c	0.15557331
14	0x3d8484d4	0.064706475
15	0x3e7fb2f2	0.24970606
16	0xbdd594a5	-0.10428742
17	0x3de4692f	0.11152875
18	0x3b308862	0.002693676
19	0x3d8eb78a	0.06968601
20	0x3c0aa976	0.008463254
21	0x3d3175f5	0.043325383
22	0xbd207d8e	-0.03918224
23	0x3e13ea0b	0.14444749
24	0xbe51bbe1	-0.20481826
25	0x3d5d42d9	0.05401883
26	0x3d95fd4c	0.07323703
27	0xbe3a11cc	-0.18170851
28	0x3e017ca8	0.12645209
29	0xbc80be4f	-0.015715746
30	0x3d9ba033	0.07598915
31	0x3dea5762	0.11442448
32	0xbd4e09a7	-0.050302174
33	0xbde69d3c	-0.11260459
34	0xbe75d8da	-0.24008504
35	0x3e25b659	0.16182841
36	0x3da28ec8	0.079373896
37	0xbdccfc87	-0.10009103
38	0x3d071861	0.032982234
39	0xbd83cdf7	-0.06435769
40	0x3e6a7ef0	0.22899985
41	0xbdba279d	-0.09089587
42	0xbe767265	-0.24067076
43	0xbe4823a9	-0.19544853
44	0x3ce2046c	0.02759
45	0xbe57b19e	-0.2106385
46	0x3e4c2715	0.19936784
47	0x3b93a969	0.0045062792
48	0x3dd70894	0.10499683
49	0x3b1b8b3c	0.0023734113
50	0x3dce2c01	0.10066987
51	0xbe2bd1dc	-0.16779274
52	0x3e4bf1ea	0.19916502
53	0x3dd305a0	0.10303807
54	0x3cfeb932	0.031094167
55	0x3d83f4ae	0.06443153
56	0x3dc15d56	0.094416305
57	0xbd2998e9	-0.041405592
58	0xbae753d4	-0.0017648884
59	0xbe04b49e	-0.12959525
60	0xbc764dbb	-0.015033181
61	0x3cf8998c	0.030346654
62	0x3da94ab7	0.08266204
63	0x3da60674	0.081066996
64	0xbdca21ce	-0.09869729
65	0x3dc1e953	0.09468331
66	0xbdeca421	-0.115547426
67	0x3d473f4b	0.048644345
68	0xbc6c1de2	-0.0144114215
69	0xbd66039a	-0.05615578
70	0x3d71e513	0.059056353
71	0x3d409f52	0.04702694
72	0xbd386aca	-0.045023717
73	0xbe585a60	-0.21128225
74	0xbc71e668	-0.014764406
75	0x3e420d23	0.18950324
76	0xbc3e111a	-0.011600757
77	0xbe5e31ab	-0.21698634
78	0xbd35fd14	-0.044430807
79	0xbe06cb23	-0.13163428
80	0xbe15238c	-0.14564341
81	0x3cf4551a	0.029825736
82	0xbe163588	-0.14668858
83	0xbc6a00e0	-0.014282435
84	0xbe0b5e36	-0.13610157
85	0x3c4f4ca9	0.012652555
86	0x3b82ec1f	0.003995433
87	0xbdd29fd5	-0.10284392
88	0xbe0ccf7f	-0.13751028
89	0x3daa1ca5	0.08306245
90	0x3d298705	0.04138853
91	0x3e1e8785	0.15481384
92	0xbe2627e8	-0.1622616
93	0xbdb7035e	-0.08936189
94	0x3b699c29	0.0035646057
95	0x3e22d967	0.15903245
96	0xbdfbcc08	-0.12294775
97	0x3e56f56b	0.20992057
98	0xbe2e6d81	-0.1703396
99	0xbe1b4a17	-0.15164982
100	0xbc91b820	-0.017787993
101	0xbda2c5a9	-0.07947857
102	0xbdc0bcf9	-0.09411044
103	0x3d91af97	0.07113569
104	0x3c449e67	0.012000657
105	0x3e4c64ed	0.19960375
106	0xbe2f785c	-0.17135757
107	0x3e274c8e	0.16337797
108	0x3e0a07ae	0.13479492
109	0xbe3298a4	-0.1744104
110	0xbcd4e33b	-0.025987258
111	0xbb2dbf9a	-0.0026511909
112	0x3e12adbd	0.14324088
113	0xbc9f7db5	-0.019469121
114	0xbe46fd8e	-0.19432661
115	0xbe271c2c	-0.1631934
116	0xbdeba6ca	-0.11506422
117	0xbde3e8b7	-0.11128371
118	0x3de83b9c	0.113394946
119	0xbe2cfa92	-0.1689246
120	0xbc2607ab	-0.010133664
121	0xbc079a78	-0.008276574
122	0x3c08dc6e	0.008353336
123	0x3911a8f7	0.00013891222
124	0xbca96960	-0.02068013
125	0xbdb1d069	-0.08682329
126	0x3dfb9635	0.12284509
127	0xbd5ff350	-0.0546754
128	0xbdcfb072	-0.10141076
129	0xbc3f6e7c	-0.011684056
130	0xbdf13288	-0.11777216
131	0xbd32777c	-0.04357098
132	0xbd015713	-0.03157718
133	0xbcbe659b	-0.023241809
134	0xbc6148d6	-0.013750276
135	0xbd2685af	-0.040654834
136	0x3e29ec4f	0.16594051
137	0x3d8ab1d2	0.06772198
138	0x3da1760f	0.07883846
139	0x3db6ec8f	0.08931839
140	0x3cc4acfc	0.024008267
141	0x3d005c57	0.031338062
142	0xbda0a069	-0.07843096
143	0x3da27a85	0.07933525
144	0x3d048f33	0.032363128
145	0xbd06bbad	-0.032893825
146	0x3dbdc276	0.09265606
147	0x3db4f836	0.08836405
148	0x3dd4935b	0.10379668
149	0xbdbe66bb	-0.09296938
150	0xbe2fda8c	-0.17173213
151	0x3da0e2c7	0.07855754
152	0xbda1b062	-0.078949705
153	0x3e09676a	0.13418356
154	0xbd607bcb	-0.05480556
155	0x3e3c6659	0.18398418
156	0x3dd0e1e3	0.101993345
157	0xbe33a2c3	-0.17542557
158	0xbe19e045	-0.15026958
159	0x3ceb3e5c	0.028716259
160	0x3b857031	0.004072212
161	0xbcb7e646	-0.02244867
162	0x3dabde4e	0.08392011
163	0x3dd22b69	0.10262186
164	0xbcdf80a6	-0.027283024
165	0x3dc1c217	0.09460848
166	0xbe6a14a6	-0.22859439
167	0xbd9e4ce7	-0.07729512
168	0xbe08ae2a	-0.13347688
169	0x3d91f55e	0.07126878
170	0x3d79cd99	0.06098709
171	0x3d19aae0	0.037516475
172	0x3d70d7e3	0.058799636
173	0xbcc0796f	-0.023495404
174	0x3e14cedf	0.1453204
175	0x3dacffaa	0.084472016
176	0xbc9cb3ac	-0.019128643
177	0xbdfda90f	-0.12385761
178	0xbd43b399	-0.0477787
179	0x3c82faa8	0.015988663
180	0xbde91734	-0.11381379
181	0x3d2062d6	0.039156757
182	0x3dcbadbd	0.09945247
183	0x3d8e6236	0.06952326
184	0xbe037299	-0.12836684
185	0xbc7e702e	-0.015529675
186	0x3d9bde13	0.07610717
187	0xbdc53370	-0.096289515
188	0x3db87e12	0.09008421
189	0xbe208b90	-0.15678239
190	0x3de8a4f9	0.11359591
191	0x3e25cbf1	0.16191079
192	0xbd673e40	-0.05645585
193	0xbdf58b80	-0.11989498
194	0x3cdcc410	0.026948959
195	0xbdf8d201	-0.1214943
196	0x3dcc6d5a	0.09981795
197	0xbd7a9a12	-0.06118209
198	0xbcf14717	-0.029452844
199	0x3b813fab	0.0039443574
200	0xbd622ff3	-0.05522151
201	0xbe472616	-0.19448122
202	0xbe372845	-0.17886455
203	0xbdafad0f	-0.0857793
204	0xbde098ff	-0.10966682
205	0x3d1cf6be	0.03832125
206	0xbdc749fb	-0.097309075
207	0x3e2f4094	0.17114478
208	0xbe10b524	-0.141316
209	0x3e33ceec	0.17559403
210	0xbe19a955	-0.15006001
211	0xbdfaab42	-0.12239696
212	0xbe3a0a5e	-0.18168017
213	0x3e1d2b23	0.15348487
214	0xbdaefa6a	-0.085438564
215	0xbe176da4	-0.14787918
216	0x3cd4733d	0.025933856
217	0xbdb7aec4	-0.08968881
218	0x3e018424	0.12648064
219	0xbe2149da	-0.15750828
220	0xbe4334de	-0.19063136
221	0xbe0607c7	-0.13088904
222	0xbda0bc49	-0.078484125
223	0xbd45b27c	-0.04826592
224	0xbc292217	-0.010323069
225	0x3c843945	0.01614059
226	0xbdd89804	-0.1057587
227	0xbdbbf12f	-0.091768615
228	0x3e00e520	0.12587404
229	0x3d13c1d1	0.03607351
230	0xbe7a9c79	-0.24473752
231	0x3e0a1994	0.1348632
232	0xbe423d93	-0.18968801
233	0xbe394eb0	-0.18096423
234	0xbe5f6f65	-0.21819837
235	0xbd5290a6	-0.05140748
236	0x3e1a742b	0.15083377
237	0x3b4b2a40	0.0031000525
238	0x3d13d62d	0.036092926
239	0x3db3902c	0.08767733
240	0xbe0a92a9	-0.13532509
241	0xbd11cc0b	-0.03559498
242	0x3d471dcf	0.048612412
243	0x3de4eaa0	0.11177564
244	0xbe369932	-0.17831877
245	0x3d68935e	0.056781165
246	0x3da51a25	0.08061627
247	0x3de918de	0.11381696
248	0x3e2f0301	0.1709099
249	0x3dfa10a2	0.12210204
250	0x3dee4106	0.11633496
251	0x3dd4285b	0.1035926
252	0xbda0b0df	-0.078462355
253	0x3d814f04	0.06313899
254	0x3de0d8e3	0.10978868
255	0x3e08417d	0.13306232

model2.2.weight f4 [256, 512]
0	0x3cac4b99	0.021032142
1	0xbd0c25be	-0.03421568
2	0xbcc8df28	-0.024520472
3	0x3c5b5669	0.013387301
4	0x3ca1f08a	0.019768018
5	0xbd19526d	-0.037432123
6	0xbcec5deb	-0.028853377
7	0xbcd323db	-0.025773933
8	0xbd027b96	-0.031856142
9	0xbd38bd5f	-0.045102473
10	0xbce7dd2c	-0.028303705
11	0xbcd2c0c1	-0.025726678
12	0x3cbd017e	0.023072
13	0xbca27305	-0.019830236
14	0x3cecf0fc	0.028923504
15	0xbc1da94e	-0.009622885
16	0xbbbc4a11	-0.005746134
17	0x3c90e8ca	0.017689127
18	0xbc9b4c1a	-0.018957186
19	0xbb3372bf	-0.0027381626
20	0xbcd7dea4	-0.02635128
21	0xbd5c44d3	-0.053776573
22	0xbbdf016a	-0.0068055885
23	0x3ca2e9ad	0.019886816
24	0xbcf0cdc6	-0.029394995
25	0xbd30db66	-0.043177985
26	0x3ccfcb98	0.025365636
27	0x3d1b108e	0.037857585
28	0xbbe42bf1	-0.006963246
29	0xbc37660c	-0.011193763
30	0x3985372f	0.00025408852
31	0x3ca3716d	0.019951547
32	0xbcf27f20	-0.029601634
33	0x3b8fa1cc	0.0043833014
34	0xbb897f52	-0.004196086
35	0x3bae477b	0.0053185797
36	0xbc496ac6	-0.012293523
37	0x3c82a881	0.01594949
38	0xbc222744	-0.009897057
39	0x3d04448c	0.032291934
40	0xbcd33a1d	-0.025784547
41	0xbbebfcb3	-0.007201755
42	0xbd62d4ff	-0.05537891
43	0x3d013ee4	0.031554118
44	0x3c4c6aed	0.012476665
45	0x3d2ab1ee	0.041673593
46	0xbcd272a0	-0.025689423
47	0x3c907b2c	0.017636858
48	0x3c89040c	0.016725563
49	0xbbceb2f5	-0.0063079544
50	0xbaac1fcc	-0.0013132035
51	0x3addcaef	0.0016921441
52	0xbd41d683	-0.047323715
53	0x3be4c032	0.0069809193
54	0xbc278ec3	-0.010226908
55	0x3b4c3d0b	0.0031164314
56	0xbc53f0bf	-0.012935816
57	0xbc9ce2cb	-0.019151112
58	0x3c69dd2e	0.014273925
59	0xbd83d18a	-0.06436451
60	0xbd1595cb	-0.036519807
61	0xbc07f330	-0.0082977265
62	0x3bd2368c	0.006415194
63	0x3c2d46bf	0.010575949
64	0xbd2e707d	-0.042587746
65	0xbd3b5065	-0.045730967
66	0xbc0975ea	-0.008389929
67	0xbaa2486e	-0.0012381205
68	0x3c1da852	0.00962265
69	0x3c85b2c6	0.016320597
70	0x3ca1513c	0.019692056
71	0xbcec90b5	-0.028877595
72	0x3cfb2ebb	0.030661931
73	0x3cc4fe3e	0.024047013
74	0xbcf132af	-0.029443113
75	0x3d289a34	0.041162685
76	0xbd344a43	-0.044016134
77	0x3cb742d8	0.02237074
78	0x3cafb922	0.021450583
79	0xbb226dee	-0.0024784761
80	0x3b6f986a	0.0036559352
81	0xbd45e806	-0.048316978
82	0xbd0b08a6	-0.033943795
83	0x3bb18f4d	0.005418694
84	0x3ce42948	0.027851716
85	0xbd24abc9	-0.04020289
86	0xbbb2512c	-0.0054418053
87	0x3cf03043	0.029319888
88	0x3ce1132b	0.02747496
89	0xbd2a2103	-0.04153539
90	0x3bac9628	0.0052669235
91	0xbca673a2	-0.02031881
92	0xbd2574b8	-0.040394515
93	0x3cfc1eb3	0.030776357
94	0xbd21c509	-0.039494548
95	0xbcf3756b	-0.029719075
96	0xbd34e836	-0.044166766
97	0xbd3a2f58	-0.045455307
98	0x3d246c9f	0.04014265
99	0x3d05b0e1	0.032639388
100	0x3bfc48a0	0.0076990873
101	0x3d0e252f	0.03470343
102	0x3ba0efab	0.004911383
103	0xbcb48ad2	-0.022038851
104	0xbd0c09d2	-0.034189053
105	0xbcbfd350	-0.023416191
106	0x399fa3eb	0.00030448972
107	0xbd2e393f	-0.042535063
108	0xbc4d3f32	-0.012527274
109	0x3d4506c7	0.048102167
110	0xbd239735	-0.039939124
111	0x3c8a790e	0.016903426
112	0xbbdaa789	-0.006672804
113	0x3c2eec76	0.010676494
114	0xbcd6923a	-0.026192773
115	0xbd198b35	-0.037486274
116	0x3cc1341b	0.023584416
117	0xbbf8a238	-0.0075876974
118	0xbc85a2d5	-0.016312996
119	0x3cc864bb	0.024462095
120	0x3d015dc5	0.031583566
121	0xbcd40615	-0.025881806
122	0x3bed5ae2	0.0072435
123	0xbd16ac81	-0.036785606
124	0x3cb67e03	0.022276884
125	0xbd374189	-0.044740234
126	0xbca45ebd	-0.020064706
127	0xbcdb3847	-0.026760234
128	0x3c259f28	0.010108747
129	0x3cffb78e	0.031215455
130	0xbc887f04	-0.016662128
131	0xbca94d4a	-0.020666737
132	0x3d039914	0.03212841
133	0x3d30669d	0.04306661
134	0xbc096d69	-0.008387902
135	0xbcab5f21	-0.020919384
136	0xbc891d6c	-0.016737662
137	0x3cc8ed0a	0.024527092
138	0x3b88043d	0.004150896
139	0x3d1e8709	0.038703
140	0xbc7714e1	-0.0150806615
141	0x3d17a09b	0.0370184
142	0xbcfb4acb	-0.030675313
143	0xbb9890cc	-0.004655933
144	0x3cbbfe6c	0.022948466
145	0x3b81c084	0.003959717
146	0x3c75d450	0.0150042325
147	0x3b8bca69	0.0042660725
148	0x3c65f9e2	0.0140366275
149	0xbd10bf0d	-0.03533845
150	0xbd013b58	-0.031550735
151	0xbd125f8f	-0.035735663
152	0xbbcf00e4	-0.006317245
153	0x3b883bf0	0.0041575357
154	0xbcabac7e	-0.020956274
155	0xbb48d4e1	-0.0030644464
156	0xbd2436d6	-0.040091358
157	0x3d0dcdf4	0.03462024
158	0xbccd89e6	-0.02509017
159	0xbcccbcf5	-0.024992445
160	0xbbd8da31	-0.0066178073
161	0xb9db35c0	-0.00041810982
162	0xbcca09f1	-0.024662944
163	0x3d02d4ce	0.031941228
164	0xbcab54d9	-0.020914482
165	0xbc9f2215	-0.019425431
166	0xbcf68eaf	-0.030097334
167	0xbc50df1b	-0.012748505
168	0x3cc0a62d	0.023516739
169	0xbd0a0d33	-0.033703994
170	0xbd3d833a	-0.046267726
171	0x3ceb3b26	0.028714728
172	0xbc1e30cf	-0.009655192
173	0x3cedb442	0.029016618
174	0x3c818b31	0.015813442
175	0xbcd675f4	-0.026179291
176	0xbd6cd360	-0.05781877
177	0xbd065767	-0.032798197
178	0x3c715296	0.014729163
179	0x3c325b28	0.010885991
180	0xbcad1593	-0.021128451
181	0xbc6c3b62	-0.014418455
182	0x3b5f38a6	0.0034060865
183	0xbd30fae2	-0.04320801
184	0xbcb23117	-0.021751923
185	0x3b06fa39	0.0020595922
186	0x3c042cbe	0.008067308
187	0x3b1e230d	0.0024129779
188	0x3cedf213	0.029046094
189	0xbd2a4335	-0.041568
190	0xbc4cbf05	-0.0124967145
191	0xbd26c54a	-0.040715493
192	0x3beb9e36	0.007190491
193	0xbd018efb	-0.031630497
194	0xbcada541	-0.021196963
195	0x3d11e9f9	0.035623524
196	0x3c9739e3	0.01846022
197	0xbd426968	-0.047463804
198	0xbc6f468a	-0.01460422
199	0xbd072460	-0.032993674
200	0xbd27acba	-0.04093621
201	0xbbd7b903	-0.0065833344
202	0xbc9bc041	-0.019012572
203	0xbc458130	-0.0120547265
204	0xbd07b016	-0.033126913
205	0x3c10ffac	0.008850019
206	0x3b8d1174	0.004305059
207	0x3c479582	0.0121816415
208	0xbc88c148	-0.016693726
209	0xbd3d4095	-0.04620417
210	0xbb2b53f8	-0.0026142579
211	0xbd194efb	-0.037428837
212	0xbb8d88e9	-0.0043192995
213	0x3c607d7a	0.013701791
214	0x3ced624d	0.028977538
215	0xbb4dac54	-0.0031383233
216	0xbd4f4afc	-0.05060862
217	0x3ca9fbf7	0.020750029
218	0xbcf146bf	-0.02945268
219	0xbc5005fd	-0.01269674
220	0xbc936717	-0.017993493
221	0xbb062f3a	-0.0020474927
222	0xbc93530d	-0.017983938
223	0x3d16f5e7	0.036855604
224	0x3b7bd003	0.0038423545
225	0x3cc93b2f	0.024564354
226	0xbc9b87b8	-0.018985614
227	0xbc8fc31e	-0.017549094
228	0xbd3a4dbe	-0.045484297
229	0xbc5f51af	-0.013630315
230	0x3d0bba1a	0.034113027
231	0x3b1f994a	0.0024352842
232	0x3ca9f1e5	0.020745227
233	0xbb684d7b	-0.0035446573
234	0x3beace89	0.007165734
235	0xbcf96b64	-0.030446716
236	0xbd279861	-0.040916804
237	0x3d04b848	0.032402307
238	0x3c0fc413	0.008774775
239	0xbc8d23bc	-0.017228954
240	0xbc76b848	-0.0150585845
241	0xbc49481e	-0.0122852605
242	0x3c29079b	0.010316755
243	0x3d1f7716	0.03893193
244	0xbd5a59e2	-0.053308375
245	0xbc9ba933	-0.019001579
246	0x3c3220be	0.010872064
247	0xbba59018	-0.0050525777
248	0x3c271caf	0.01019971
249	0xbd08ead8	-0.03342709
250	0x3c0bcd90	0.008532897
251	0xbd11242e	-0.035434894
252	0xbd307321	-0.043078545
253	0x3d01cc06	0.031688713
254	0xbb05bdb6	-0.0020407266
255	0xbd1b1b51	-0.037867848

model2.2.bias f4 [256]
0	0xbc682977	-0.014170042
1	0x3d37a58c	0.044835612
2	0xbb224813	-0.0024762198
3	0x3cff2f62	0.031150524
4	0x3b0cdd5b	0.0021494243
5	0x3b84b884	0.0040503163
6	0xbb618bf2	-0.003441569
7	0xbd2d928e	-0.042376094
8	0x3cdb4275	0.026765088
9	0x3c650b51	0.013979749
10	0xbcfc94ca	-0.030832667
11	0xbd2f23a8	-0.042758614
12	0xbcb69198	-0.022286221
13	0xbd32197f	-0.043481346
14	0xbcec4ee4	-0.028846212
15	0x3c835b24	0.01603467
16	0xbc1324fe	-0.008980988
17	0x3ce4eb0c	0.02794411
18	0x3c9dd1b4	0.019265033
19	0xbd62b837	-0.055351462
20	0xbc1b3f57	-0.009475551
21	0x3cca195e	0.0246703
22	0x3b9c4bcf	0.0047697793
23	0x3d03a328	0.03213802
24	0x3ab2e9be	0.0013649983
25	0x3c9655bc	0.018351428
26	0xba965821	-0.0011470356
27	0xbcdc9f5c	-0.026931457
28	0x3cd445bd	0.02591216
29	0x3afc17c6	0.0019233159
30	0x3c8169df	0.015797554
31	0x3cd8eb06	0.026479255
32	0xbc88c3df	-0.016694961
33	0xbc706266	-0.0146718975
34	0xbd88db5a	-0.06682463
35	0xbcab1e5e	-0.020888504
36	0x3ca4cade	0.020116266
37	0xbcd7d946	-0.026348721
38	0x3d158704	0.036505714
39	0xbd3d9770	-0.046287
40	0xbc79c109	-0.015243777
41	0xbb41cf3c	-0.0029572984
42	0x3b9a90b3	0.0047169565
43	0x3d296369	0.04135457
44	0xbcd175cb	-0.025568863
45	0xbc129e34	-0.008948851
46	0x3c642c2a	0.013926545
47	0xbc72bed9	-0.014816009
48	0xbd79247c	-0.06082581
49	0xbc3462ab	-0.011009852
50	0xbcc6f6de	-0.024287637
51	0x3c9627dc	0.018329553
52	0xbc4b808a	-0.012420783
53	0x3ca0085b	0.019535234
54	0x3d2f102a	0.042740025
55	0xbcba423e	-0.022736665
56	0xbc90bb95	-0.017667571
57	0xbd01d979	-0.03170154
58	0xbc0430b2	-0.0080682505
59	0xbc8af390	-0.016961843
60	0xbcd85ded	-0.026411975
61	0xbc3d627f	-0.011559128
62	0x3cc23da0	0.023711026
63	0xb94a6ad2	-0.00019304015
64	0xbbc271f9	-0.0059339968
65	0xbcdcb973	-0.026943898
66	0xbd6468c4	-0.055763975
67	0x3d8ac189	0.06775195
68	0xbbd2867f	-0.0064247246
69	0xbbc03d72	-0.0058667
70	0x3c77543e	0.0150957685
71	0x3d244214	0.04010208
72	0x3cdde7ab	0.027088007
73	0xbca382cb	-0.019959828
74	0x3cc5eb8d	0.02416017
75	0x3c124ee5	0.008929943
76	0xbd258ca8	-0.040417343
77	0xbd07056f	-0.032964166
78	0x3d313289	0.043261085
79	0xbcf2745e	-0.029596504
80	0xbbd6fa23	-0.0065605803
81	0xbd1f7b1f	-0.038935777
82	0xbd489c43	-0.048977148
83	0x3d27e7d8	0.040992588
84	0x3c1ab24e	0.009441925
85	0xbd2221d5	-0.039583046
86	0xbce31f4e	-0.027724888
87	0x3c88cac0	0.016698241
88	0xbc5d5678	-0.013509385
89	0xbd8b9865	-0.06816176
90	0x3cc80756	0.02441756
91	0x3cee3ccd	0.029081726
92	0xbcb87c9a	-0.022520352
93	0x3b9f7781	0.004866541
94	0x3d042382	0.032260425
95	0xbd05610d	-0.032563258
96	0xbb88f494	-0.0041795466
97	0x3cec8966	0.02887411
98	0xbc9a5175	-0.01883767
99	0x3c5fca48	0.013659067
100	0xbd3dac34	-0.046306804
101	0xbd07ac8f	-0.03312355
102	0x3c55bd20	0.013045579
103	0xbd2007a8	-0.0390698
104	0xbd2519c0	-0.04030776
105	0xbc918a53	-0.017766153
106	0xbc83c4dd	-0.016085083
107	0x3ba9515e	0.0051671704
108	0xbb01f4ee	-0.0019829827
109	0xbcc0a34d	-0.023515368
110	0x3ca0f300	0.019647121
111	0xbc2f9618	-0.0107169375
112	0x3cb8e523	0.022570198
113	0xbcbd59dc	-0.023114137
114	0x3ce60043	0.028076297
115	0xbcaaf4c1	-0.02086866
116	0x3c6afb26	0.014342105
117	0x3c43f714	0.0119607635
118	0x3d216c8a	0.03941015
119	0xbd2ca35d	-0.042147983
120	0xbd6756fd	-0.056479443
121	0xbcf2eafb	-0.029653063
122	0x3d184afe	0.037180893
123	0x39b66b93	0.00034793894
124	0xbd507811	-0.050895754
125	0x3be1ec59	0.00689463
126	0xbd2b40b3	-0.04180975
127	0xbb5a7976	-0.0033336557
128	0x3b72f931	0.00370748
129	0x3c0d6258	0.008629404
130	0xbce6f204	-0.028191574
131	0xbd144137	-0.036195006
132	0x3a6a076d	0.0008927498
133	0xbce65a7e	-0.028119322
134	0x3b0046e8	0.0019573513
135	0xbbec97d3	-0.0072202473
136	0xbc9f6aca	-0.0194601
137	0x3c873c6d	0.016508305
138	0xbc0d3522	-0.008618625
139	0xbca705a2	-0.020388428
140	0xbc925765	-0.017863939
141	0xbb61b9ec	-0.0034443093
142	0xbc771f2c	-0.015083116
143	0xbd145fca	-0.036224164
144	0xbd067f6e	-0.03283637
145	0xbd597ac6	-0.0530956
146	0xbccb9f54	-0.024856247
147	0xbd98d466	-0.07462387
148	0x3d149a8f	0.03628021
149	0xbd1e7ef8	-0.038695306
150	0x3c637090	0.013881817
151	0x3ca4dc3b	0.020124545
152	0x3cdd80c3	0.027038937
153	0xbc99d699	-0.018779086
154	0x3ce5a01f	0.028030453
155	0x3b1ce70a	0.002394142
156	0xbc7d559b	-0.015462304
157	0x3cb5ec4b	0.0222074
158	0x3cc5ddc6	0.024153601
159	0x3c93eb8f	0.018056659
160	0xbca1aac6	-0.019734751
161	0xbbf0bd99	-0.0073468206
162	0xbce5b222	-0.028039042
163	0x3d0fd7f4	0.03511806
164	0x3c40a8dc	0.011759009
165	0x3acb03c9	0.0015488799
166	0xbcfe371c	-0.031032138
167	0xbd59e389	-0.05319551
168	0xbc3590b0	-0.0110818595
169	0x3d0dcc31	0.03461856
170	0xbc9b6e75	-0.018973568
171	0xbc145425	-0.009053265
172	0x3d2807f2	0.041023202
173	0xbcb9a4cd	-0.022661591
174	0xbd69037d	-0.056888092
175	0x3a439bed	0.00074618944
176	0x3bc9d5f0	0.0061595365
177	0x3ca2db89	0.019880073
178	0xbc987103	-0.018608576
179	0xbcd74cdc	-0.026281767
180	0xbc7babbe	-0.015360771
181	0xbd16cd2d	-0.036816765
182	0x3b88d15b	0.0041753477
183	0xbd3ff1e6	-0.04686155
184	0x3c964b50	0.018346459
185	0xbcc88245	-0.02447618
186	0x3c335a01	0.010946752
187	0x3bfdc56b	0.0077444813
188	0xbcc2506b	-0.023719987
189	0x3d490757	0.049079265
190	0xbc7f3976	-0.015577665
191	0x3c8db23b	0.017296901
192	0xbb99c743	-0.0046929433
193	0xbbc56774	-0.0060242955
194	0xbc17dded	-0.00926922
195	0xbd3c8d5b	-0.046033245
196	0xbca462e9	-0.020066695
197	0x3ca02a7f	0.019551514
198	0xbcce78ce	-0.025204089
199	0xbca8e593	-0.020617282
200	0xbd10c4da	-0.035343982
201	0xbd3a6c6f	-0.045513567
202	0xbc4e16f4	-0.012578715
203	0xbd4055d1	-0.04695684
204	0xbccf6d7a	-0.025320757
205	0x3d1c9fd9	0.03823838
206	0xbd026e2c	-0.03184335
207	0x3cf142b9	0.029450761
208	0xbd46cb5e	-0.04853379
209	0xbc01fb97	-0.007933519
210	0xbcf55382	-0.029947046
211	0x3d019ef3	0.031645726
212	0xbd0fbbac	-0.035091087
213	0xbcd7c2d5	-0.02633802
214	0xbca860ff	-0.020554064
215	0x3ce8f843	0.028438693
216	0xbc9bbfdc	-0.019012384
217	0xbc6a2d9e	-0.014293103
218	0xbd00c86d	-0.03144114
219	0xbcac274a	-0.021014828
220	0x3bf21419	0.0073876497
221	0x3ce2c21d	0.027680451
222	0x3c3e8835	0.011629154
223	0xbd3da65f	-0.046301242
224	0xbd79ddd3	-0.061002564
225	0x3cae51c4	0.021279223
226	0xbd04493c	-0.032296404
227	0x3d6568f0	0.05600828
228	0xbca895bd	-0.020579213
229	0x3d1bfc2e	0.038082294
230	0xbcdb83d9	-0.026796268
231	0x3b9c3ba4	0.004767852
232	0xbd154c36	-0.036449634
233	0xbc0b6231	-0.008507297
234	0xbce480c5	-0.027893433
235	0x3c224a7a	0.009905452
236	0xbc5882e1	-0.013214798
237	0xbd1ca7fa	-0.038246132
238	0xbd210027	-0.039306786
239	0x3d1884be	0.037235968
240	0xbb227a65	-0.002479219
241	0x3ce6d630	0.028178304
242	0x3c5539bb	0.013014252
243	0x3b357233	0.0027686476
244	0xbcebf8ef	-0.028805224
245	0xbd2c1861	-0.042015437
246	0x3af3af7e	0.001859173
247	0xbcc7f8b5	-0.024410585
248	0x39b896b6	0.00035207503
249	0x3c29cd9a	0.010363961
250	0xbd01a656	-0.03165277
251	0xbc268611	-0.0101638
252	0x3c922376	0.017839175
253	0x3cd80353	0.026368773
254	0xbc136c3b	-0.008997972
255	0xbcc50c6c	-0.024053775

model2.4.weight f4 [64, 256]
0	0x3d67f2d2	0.056628056
1	0xbd8e6fb4	-0.069548994
2	0xbd0c1824	-0.03420271
3	0x3d0555f9	0.032552693
4	0xbcb04bfb	-0.021520605
5	0xbc19429b	-0.009354259
6	0xba5c5d14	-0.00084062037
7	0xbd8308a2	-0.06398131
8	0xbd02d291	-0.031939093
9	0xbcd939cf	-0.026516823
10	0x3d6f7445	0.058460493
11	0x3d60fc4c	0.05492811
12	0x3d1daa4c	0.038492486
13	0x3cc74330	0.02432403
14	0x3d2dddda	0.042447902
15	0x3ab44385	0.0013753033
16	0xbd4e078f	-0.050300177
17	0xbd146059	-0.036224697
18	0xbd7c9e95	-0.061674673
19	0x3d046937	0.032326903
20	0xbc628855	-0.013826449
21	0x3c50adb4	0.012736727
22	0xbda7c471	-0.08191765
23	0x3ca841bc	0.020539157
24	0xbc8c5cec	-0.017134152
25	0xbdb7979d	-0.08964465
26	0xbd816ed2	-0.063199654
27	0x3ccf5ee2	0.025313798
28	0x3cb513ff	0.022104261
29	0xbc806b77	-0.015676243
30	0xbd900806	-0.0703278
31	0xbd75106b	-0.05983011
32	0xbd652b58	-0.05594954
33	0xbcd857e5	-0.026409099
34	0xbd7917d0	-0.060813725
35	0x3c95cead	0.018287027
36	0xbdc98641	-0.0984006
37	0xbd6924d1	-0.056919876
38	0xbd890cb2	-0.066918746
39	0xbcd048a0	-0.025425255
40	0xbd81eff2	-0.06344594
41	0x3c89d5bd	0.016825551
42	0xbd2c2bda	-0.042034008
43	0x3c356cbd	0.0110732885
44	0x3c8138a0	0.015774071
45	0xbd538e3a	-0.05164931
46	0xbc550144	-0.01300079
47	0xbbd00bc9	-0.006349061
48	0xbd63b7e3	-0.05559529
49	0xbcfbb3f4	-0.030725457
50	0xbd6202a0	-0.055178285
51	0xbd52920b	-0.05140881
52	0xbc154af4	-0.0091121085
53	0x3d51954b	0.051167767
54	0xbd21179a	-0.03932915
55	0x3bd44421	0.006477848
56	0xbc98c2e1	-0.018647613
57	0x3906f8aa	0.0001287187
58	0xbd33f6ce	-0.043936543
59	0xbbf0fd88	-0.007354442
60	0xbd5d601c	-0.054046735
61	0xbcc6d85c	-0.02427309
62	0x3c17a967	0.009256697
63	0xbd3cd18a	-0.04609827
64	0x3d0f48fc	0.034981713
65	0xbd20070a	-0.039069213
66	0x3d77ba2d	0.060480285
67	0x3c2530a2	0.010082396
68	0x3d25ace9	0.040448103
69	0x3cadf8bd	0.021236772
70	0xbb64950f	-0.0034878885
71	0xbe006a59	-0.12540568
72	0x3c2734e2	0.010205479
73	0xbd2d3c4f	-0.042293843
74	0x3d0c7a13	0.034296107
75	0x3cedd040	0.029029965
76	0x3ae4ab8a	0.0017446142
77	0xbbf2c4ae	-0.0074087
78	0x3d4b6afe	0.049662583
79	0xbc81a6ab	-0.015826544
80	0xbc953945	-0.018215785
81	0x3d4fc07c	0.050720677
82	0x3d570757	0.052497234
83	0x3ce79200	0.02826786
84	0x3cfbca11	0.030736001
85	0xba612839	-0.00085890625
86	0x3aa4109d	0.0012517158
87	0x3cca9748	0.02473034
88	0x3d3e63fd	0.046482075
89	0xbd47178b	-0.048606437
90	0xbd833877	-0.06407254
91	0xbbe14cb9	-0.006875601
92	0x3c4a3214	0.012341041
93	0xbb8625a9	-0.004093845
94	0x3c5c783b	0.0134564
95	0xbc80e0d1	-0.0157322
96	0xbd764b9a	-0.060130693
97	0xbcb885e0	-0.022524774
98	0x39a09c1a	0.00030633883
99	0x3a039a8f	0.00050202844
100	0xbcc7670c	-0.024341129
101	0x3d04988f	0.032372054
102	0xbd349efb	-0.044096928
103	0xbcd87071	-0.026420804
104	0xbd9c5bd5	-0.07634703
105	0x3d35ea93	0.04441316
106	0xbc637c2b	-0.013884584
107	0xbd214d2a	-0.03938023
108	0xbc61bb41	-0.013777555
109	0xbd2c39a9	-0.042047177
110	0xbd17a3f4	-0.037021592
111	0x3cf60aa3	0.030034369
112	0x3d0d1087	0.03443959
113	0x3d0dbf87	0.034606483
114	0xbd8183fc	-0.06324002
115	0xbd5e2062	-0.0542301
116	0xbcb6a1fd	-0.022294039
117	0xbd7b3833	-0.061332893
118	0xbd99890f	-0.07496845
119	0x3ca3a0e3	0.019974178
120	0xbc903322	-0.017602507
121	0xbc579a90	-0.013159409
122	0xbd067a5b	-0.03283153
123	0x3c5a9300	0.013340712
124	0xbd93d9df	-0.0721929
125	0x3d3f2d8f	0.046674307
126	0x3d846627	0.064647965
127	0xbd628d5d	-0.055310596
128	0xbd7987bc	-0.060920462
129	0xbc714494	-0.014725823
130	0xbd8c12a6	-0.068394944
131	0xbd2746c9	-0.04083899
132	0x3cb5d72e	0.022197332
133	0xbd968249	-0.07349069
134	0x3d283cd8	0.04107365
135	0xbd7e6e30	-0.0621168
136	0x3d6c721e	0.057726018
137	0xbd16dcb9	-0.03683159
138	0x3c9bac2d	0.019002998
139	0x3d888fa8	0.06668025
140	0x3c44e1d8	0.012016736
141	0xbd129675	-0.03578802
142	0xbba44c47	-0.005013976
143	0x3c37467f	0.011186241
144	0xbd8e3eb3	-0.06945553
145	0x3d507000	0.05088806
146	0xbd688669	-0.05676881
147	0x3d42202b	0.04739396
148	0x3d5c3960	0.053765655
149	0x3c348f75	0.011020531
150	0xbb6cb565	-0.0036118862
151	0x3bf0620e	0.007335908
152	0xbd1d2eb5	-0.03837462
153	0xbab2b03c	-0.0013632844
154	0xbafa15b8	-0.0019079959
155	0xbcab1c36	-0.020887475
156	0x3c86d1aa	0.016457397
157	0xbd238dc9	-0.03993014
158	0xbd621047	-0.055191305
159	0xbc69cae4	-0.014269564
160	0x3b45179b	0.0030073884
161	0xbd38d645	-0.04512622
162	0x3be36cf2	0.0069404775
163	0x3bdf919f	0.0068227793
164	0x3c95468c	0.018222116
165	0xbd2d9a39	-0.042383406
166	0x3c366fa9	0.01113502
167	0x3bdbb929	0.0067054224
168	0x3d037dec	0.03210251
169	0xbdb0d7ae	-0.08634888
170	0xbb28bdfc	-0.0025748005
171	0xbd037a48	-0.03209904
172	0xbdaaa1bc	-0.0833163
173	0xbb930a95	-0.0044873455
174	0xbd850578	-0.06495184
175	0xbd70da5d	-0.058801997
176	0xba9297fc	-0.0011184211
177	0xbd4060cf	-0.046967324
178	0xbda3b4d4	-0.079934746
179	0xbc550f26	-0.0130041
180	0xbd2737fc	-0.040824875
181	0x379942f2	1.8270195e-05
182	0xbd2af81c	-0.04174052
183	0xbd83502f	-0.06411778
184	0x3d6aafb1	0.05729646
185	0x3d31aa74	0.043375447
186	0xbda809b9	-0.082049794
187	0x3cb2adee	0.021811452
188	0xbce3d4f3	-0.027811503
189	0xbd28a1ca	-0.04116992
190	0xbc01d2a4	-0.007923756
191	0x3c80b201	0.015709879
192	0x3d4f5b94	0.050624445
193	0xbd2cf0c7	-0.04222181
194	0xbcad5bb9	-0.0211619
195	0x3d5a161d	0.053243745
196	0xbcaa8099	-0.020813273
197	0xbd2a8968	-0.041634947
198	0x3c03d49e	0.008046297
199	0xbd20ac2d	-0.0392267
200	0xbbfc2e0d	-0.0076959194
201	0xbcd15f5c	-0.025558166
202	0xbd7f7056	-0.06236299
203	0xbce31728	-0.027721003
204	0x3af575eb	0.0018727159
205	0x3bc00de9	0.005861033
206	0xbd7b15ee	-0.06130021
207	0xbda6a4ff	-0.08136939
208	0x3c889a8e	0.01667526
209	0xbd132921	-0.035927895
210	0xbd375f18	-0.044768423
211	0xbda7f114	-0.08200279
212	0xbb95b2d1	-0.0045684357
213	0xbc3483a3	-0.011017713
214	0x3d2f0878	0.042732686
215	0xbdbabb4e	-0.09117757
216	0xbd8eddc7	-0.069758944
217	0x3d09ebb6	0.033672057
218	0x3bb09879	0.00538927
219	0xbd6bc3a8	-0.05755964
220	0xbd224d33	-0.039624404
221	0xbbfc082e	-0.007691405
222	0x3d0b0cbf	0.033947702
223	0xbdadc6b0	-0.08485162
224	0xbd1069b6	-0.035257064
225	0xbd298618	-0.041387647
226	0xbd183112	-0.037156172
227	0xbcced5ad	-0.025248373
228	0xbd01256a	-0.03152982
229	0xbc537c0e	-0.012907995
230	0x3c18df6b	0.009330611
231	0xbd20f1a5	-0.03929295
232	0x3d057187	0.03257897
233	0x3d729116	0.059220396
234	0x3b2084fb	0.0024493325
235	0xbd50ecd5	-0.05100711
236	0xbcf1d569	-0.029520707
237	0xbd1bde47	-0.038053777
238	0xbc2c75ef	-0.010526164
239	0xbd4710a5	-0.048599858
240	0xbd52899b	-0.051400762
241	0xbc3f82df	-0.011688917
242	0x3c63acd4	0.013896186
243	0xbbeeeb34	-0.007291222
244	0x3d340db2	0.043958373
245	0xbd40a012	-0.047027655
246	0xbc62b788	-0.013837703
247	0xbd7c0345	-0.061526556
248	0x3c58a26a	0.013222316
249	0xbd65225c	-0.05594097
250	0x3d304b80	0.043040752
251	0xbd857895	-0.0651714
252	0x3c48eebc	0.01226395
253	0xbcd2779c	-0.0256918
254	0xbcd017ee	-0.025402036
255	0x3d73261d	0.05936252

model2.4.bias f4 [64]
0	0x39fbd718	0.00048034708
1	0xbd8063cb	-0.06269034
2	0x3d70ccd6	0.058789097
3	0x3d63b6ce	0.055594258
4	0x3cebe8ed	0.028797591
5	0xbd61cdbe	-0.05512785
6	0xbc952d94	-0.01821021
7	0x3bee0baf	0.0072645764
8	0x3c17fc08	0.0092763975
9	0x3d6f8c5a	0.05848346
10	0x3c7712e5	0.015080188
11	0xbd44024f	-0.047853764
12	0xbc02e709	-0.007989653
13	0xbca350cb	-0.019935986
14	0xba8652d1	-0.001024807
15	0x3dc5b929	0.09654457
16	0x3cbaacfa	0.02278756
17	0xbd8497aa	-0.0647424
18	0x3d05654c	0.032567307
19	0xbc975cf1	-0.018476935
20	0x3d88b777	0.06675618
21	0xbd3e4924	-0.04645647
22	0x3d0eb3ae	0.034839325
23	0xbd3d35ad	-0.046193767
24	0xbd2e3a24	-0.042535916
25	0x3d3278e9	0.04357234
26	0x3d5fd289	0.05464414
27	0x3d21b369	0.03947774
28	0x3d1e868c	0.038702533
29	0x3c548fa0	0.012973696
30	0x3c003b90	0.007826701
31	0x3b8a01bb	0.004211632
32	0xbbc46b3d	-0.005994229
33	0xbd163846	-0.03667476
34	0xba7d92f1	-0.000967308
35	0x3d141778	0.036155194
36	0xbc067aa7	-0.008207954
37	0xbd2adb2e	-0.041712932
38	0xbd478b6b	-0.048716944
39	0xbb9cf8af	-0.0047903876
40	0xbd8035bd	-0.0626025
41	0xbc6d1536	-0.014470389
42	0x3c77aac1	0.0151163945
43	0x3b981ba9	0.004641969
44	0x3c3872e8	0.011257865
45	0x3d4741aa	0.048646607
46	0xbd8a9b11	-0.06767858
47	0x3d55b6c5	0.052176256
48	0xbd7d8843	-0.061897527
49	0xbc9206e1	-0.017825546
50	0x3cfbfce9	0.030760245
51	0xbcee224a	-0.029069085
52	0x3d575c45	0.05257823
53	0x3d3922c7	0.045199182
54	0x3c32a1e3	0.010902855
55	0xbc4e67ce	-0.012597991
56	0xbd8be109	-0.068300314
57	0xbd9c76ae	-0.07639824
58	0x3abb3f22	0.0014285783
59	0xbd3bb183	-0.045823585
60	0xbc522f12	-0.012828605
61	0xbd8e8b41	-0.06960154
62	0xbda30b89	-0.079611845
63	0x3d09a698	0.03360614

model2.6.weight f4 [4, 64]
0	0x3df9aaf6	0.12190811
1	0x3db5ad22	0.08870913
2	0xbe121bf8	-0.14268482
3	0xbdbd8633	-0.09254112
4	0xbdd74be2	-0.105125204
5	0x3d987fe1	0.07446266
6	0xbdbb652c	-0.091501564
7	0x3dbccd54	0.09218851
8	0x3d1569ea	0.03647796
9	0xbd32dbe3	-0.04366673
10	0xbd9ce8da	-0.076616004
11	0x3db18a7c	0.08668992
12	0xbd95af95	-0.0730888
13	0x3d7a3da6	0.06109395
14	0x3c619aec	0.013769846
15	0xbe4188ef	-0.18899892
16	0x3ca83103	0.020531183
17	0xbce416f1	-0.02784297
18	0xbd51e750	-0.051245987
19	0x3d60a349	0.05484322
20	0xbe27ae1b	-0.1637501
21	0xbdd7e282	-0.1054125
22	0x3d20598b	0.039147895
23	0xbda52b77	-0.08064931
24	0xbc985628	-0.01859577
25	0xbde4be36	-0.11169092
26	0x3bc31600	0.0059535503
27	0xbdc159cc	-0.094409555
28	0xbcc761d5	-0.024338642
29	0x3db6656b	0.08906063
30	0xbc9ebaf2	-0.019376252
31	0xbd174478	-0.03693053
32	0xbd812aa7	-0.063069634
33	0x3d1c52c3	0.038164865
34	0xbd57718f	-0.052598532
35	0xbda7402d	-0.081665374
36	0xbdab41c1	-0.08362151
37	0xbd43d8b8	-0.0478141
38	0xbe010527	-0.12599622
39	0xbcd1b960	-0.025601089
40	0xbdcd5041	-0.10025073
41	0x3d5eb3cf	0.054370698
42	0xbd9ca320	-0.07648301
43	0x3d9e0c9f	0.07717251
44	0xbde75671	-0.11295784
45	0xbe020f3f	-0.12701128
46	0x3c333397	0.010937593
47	0x3d34f469	0.0441784
48	0x3dbe42fb	0.09290119
49	0xbca0918c	-0.019600652
50	0xbd6584a7	-0.05603471
51	0x3d7e436b	0.062076014
52	0xb8838d15	-6.272845e-05
53	0x3be2844a	0.0069127427
54	0x3dddf384	0.108374625
55	0xbdaa8d69	-0.08327753
56	0xbc025410	-0.007954612
57	0x3dfcc233	0.12341728
58	0x3d06292e	0.032754116
59	0x3d2a8478	0.04163024
60	0x3ca77503	0.020441538
61	0x3d4d999c	0.05019532
62	0x3a481075	0.0007631847
63	0xbd7a0579	-0.061040375
64	0xbda2f990	-0.079577565
65	0xbdcfc201	-0.10144425
66	0x3c5a4415	0.013321896
67	0xbd0b02df	-0.033938285
68	0xbdda139e	-0.10648273
69	0x3e80b87e	0.25140756
70	0x3d11dace	0.03560906
71	0x3e27b4e5	0.163776
72	0xbd78f370	-0.060779035
73	0xbd7a828b	-0.06115965
74	0x3e0c36ae	0.13692734
75	0x3e859f1d	0.26097956
76	0xbc5e9cce	-0.01358719
77	0x3d385ea4	0.04501213
78	0xbdaf9032	-0.08572425
79	0xbe1647c5	-0.14675815
80	0x3d3fca2f	0.046823677
81	0xbcf71d3e	-0.030165311
82	0xbd193e4d	-0.03741293
83	0xbe1d46dc	-0.15359062
84	0xbce7e9df	-0.02830976
85	0xbc0fd6da	-0.008779252
86	0x3d567fc5	0.052367944
87	0x3d79ffe2	0.061035044
88	0x3cdc47e9	0.026889758
89	0xbd354d00	-0.044262886
90	0xbd985d2c	-0.07439646
91	0x3c74af51	0.014934377
92	0xbda73d51	-0.08165992
93	0x3d982f44	0.0743089
94	0xbd67be5c	-0.056578025
95	0xbddccfa9	-0.107817955
96	0x3d84305b	0.064545356
97	0x3e462a61	0.19352104
98	0xbaa038e2	-0.0012223984
99	0x3d996332	0.07489623
100	0x3da5044e	0.08057462
101	0xbdae3ee2	-0.08508088
102	0x3dfbd1d5	0.12295882
103	0x3df16dc1	0.11788512
104	0x3d9e8610	0.07740414
105	0x3bcb5a41	0.0062058275
106	0xbd99e0a4	-0.0751355
107	0x3ddebd4f	0.108759515
108	0x3cf893c5	0.0303439
109	0xbb67a5f7	-0.0035346725
110	0x3d75671a	0.05991278
111	0xbdc82981	-0.09773541
112	0x3d9a5e2f	0.07537495
113	0xbd1dde59	-0.038542125
114	0xbd921ac8	-0.07134014
115	0x3e282d3d	0.16423507
116	0x3c076f47	0.008266277
117	0x3d27850d	0.04089837
118	0x3d215aaa	0.039393105
119	0xbde87f84	-0.11352447
120	0xbced72a4	-0.028985329
121	0x3da5b142	0.0809045
122	0x3ea460a9	0.32104996
123	0x3de5b6b3	0.11216488
124	0x3dbed972	0.09318818
125	0xbd355dad	-0.04427879
126	0x3dbf087d	0.09327791
127	0x3e43d6d4	0.19124919
128	0xbddd6a8c	-0.10811338
129	0x3ca464f8	0.020067677
130	0xbd81f9e2	-0.063464895
131	0x3c359a97	0.01108422
132	0xbb917810	-0.0044393614
133	0xbbb2ef85	-0.005460682
134	0x3de401c5	0.1113315
135	0xbe2a7904	-0.16647726
136	0x3dc53a6b	0.09630283
137	0xbd07265a	-0.03299556
138	0x3e00a261	0.12561943
139	0xbd2a0013	-0.041503977
140	0xbc8e69ee	-0.017384496
141	0x3d6c012d	0.05761831
142	0xbd518efc	-0.05116175
143	0x3df2f0a3	0.11862304
144	0x3e188d85	0.14897735
145	0x3cfb716e	0.030693736
146	0x3bd1fdac	0.006408414
147	0x3c6e6421	0.01455024
148	0x3d3d2de6	0.04618635
149	0xbddc3df6	-0.107540056
150	0xbda53abb	-0.080678426
151	0x3bbd7a19	0.0057823774
152	0x3b638be6	0.0034720837
153	0x3c88829a	0.016663838
154	0x3ca22d29	0.019796925
155	0x3d849ada	0.06474848
156	0x3d805dd7	0.062678985
157	0xbd546c96	-0.051861368
158	0xbdabe304	-0.08392909
159	0xbd163cb1	-0.036678974
160	0x3caae139	0.020859348
161	0x3dc6b3a5	0.09702233
162	0xbcf4aa97	-0.0298665
163	0x3d5fce72	0.05464024
164	0x3c8b4f26	0.017005514
165	0x3dbf6274	0.0934495
166	0x3de981dc	0.11401722
167	0xbd46b542	-0.048512705
168	0xbd878619	-0.06617374
169	0xbcb92a38	-0.02260314
170	0xbc300703	-0.010743859
171	0xbcf07830	-0.029354185
172	0xbd31e306	-0.043429397
173	0xbd1bad06	-0.038006805
174	0x3d8c9033	0.06863441
175	0xbddad9ae	-0.1068605
176	0xbcd1619f	-0.025559245
177	0xbca0090b	-0.019535562
178	0xbdb98106	-0.090578124
179	0x3d33a1e6	0.04385557
180	0x3ccb8862	0.024845306
181	0xbde68b75	-0.11257068
182	0xbde3b9bf	-0.11119413
183	0x3d5b5926	0.053551815
184	0xbd8e4c86	-0.069481894
185	0x3dc1fc3a	0.094719365
186	0xbbe26df4	-0.00691008
187	0xbd8ce1a0	-0.06878972
188	0x3d881f1c	0.06646559
189	0xbdc0feb3	-0.0942358
190	0xbda0a35b	-0.078436576
191	0x3d8ed202	0.069736496
192	0xbd3c0812	-0.045906134
193	0xbd50ca06	-0.050973915
194	0xbc87c893	-0.016575133
195	0xbb375aaa	-0.0027977624
196	0xbd35acfc	-0.044354424
197	0x3db4b0ea	0.08822806
198	0x3d864623	0.06556346
199	0xbdd956d1	-0.10612262
200	0x3e19a6f0	0.15005088
201	0xbe17d7dc	-0.14828438
202	0x3d2d9e24	0.042387143
203	0x3c82b101	0.015953543
204	0xbd8b79b8	-0.068103254
205	0x3e1d5801	0.15365602
206	0xbd55289f	-0.052040692
207	0x3dba56ee	0.09098612
208	0x3d583515	0.052784998
209	0x3dc43b44	0.095816165
210	0x3bbd4b48	0.0057767965
211	0xbe706b13	-0.23478346
212	0x3d926642	0.071484104
213	0xbccac6d1	-0.024753006
214	0xbd67586c	-0.05648081
215	0x3c79d6e5	0.015248989
216	0x3de3ba3f	0.11119508
217	0x3d96999b	0.07353517
218	0xbe09a504	-0.13441855
219	0xbc6dbfeb	-0.014511089
220	0xbdf94e81	-0.121731766
221	0x3ce3f6eb	0.0278277
222	0x3cc48c0c	0.02399256
223	0x3dde3336	0.108496115
224	0xbda80ddc	-0.082057685
225	0xbc76ef3e	-0.015071688
226	0xbb9b6cb1	-0.0047431816
227	0xbdd8f474	-0.10593501
228	0x3d431712	0.047629423
229	0x3dc93a62	0.09825589
230	0x3c88a087	0.016678108
231	0xbd2a51fb	-0.04158209
232	0x3d8142ac	0.06311545
233	0xbca0040a	-0.019533176
234	0x3dc21bbe	0.09477948
235	0xbcfaab0c	-0.03059914
236	0x3dc32c1c	0.095298976
237	0x3c10a3c9	0.008828112
238	0x3df41638	0.119183004
239	0xbd767e28	-0.060178906
240	0x3d88267a	0.06647964
241	0x3df1f250	0.118137956
242	0xbd1135ff	-0.035451885
243	0x3ae56b24	0.0017503244
244	0x3d9314c0	0.07181692
245	0x3dd3dfab	0.10345396
246	0x3de2be04	0.11071399
247	0xbdee3518	-0.116312206
248	0xbde29b97	-0.11064833
249	0xbe0496dd	-0.12948175
250	0xbcb548ac	-0.02212938
251	0x3d92be26	0.07165174
252	0xbd77ecfc	-0.06052874
253	0x3d8d7779	0.06907553
254	0xbcf4a127	-0.029862
255	0x399d8c1b	0.0003004976

model2.6.bias f4 [4]
0	0xbd8ce484	-0.068795234
1	0xbd52a4e1	-0.051426772
2	0x3d14f53f	0.036366697
3	0x3e08cd8b	0.13359658
