model_weight/temp_model/36663 actor.pth (torch, 646091 bytes, 9 tensors)

std f4 [4]
00000000: 72ed 3cc0 1a62 32c0 9188 3ac0 b763 03c0
-2.9519925 -2.7872376 -2.9145854 -2.052961

model2.0.weight f4 [512, 24]
00000000: ad44 683e fe32 053e e82a 09be 3129 593e
00000010: 8665 383e 86a4 573e 55c4 16be fe9c 07bc
00000020: 9e11 24bd 90f3 a4be c3cf 333e 960a 23be
00000030: 6776 983b f64f 963e 0f90 883e 71d7 f0bd
00000040: a0d0 953d 96f6 1e3e 5e4b dabc 3f4f 223d
00000050: f31b 773e 4434 783e dffb 483d e9ca 0bbe
00000060: 1988 903e 88bb 273e 4001 ab3d 361f b1bd
00000070: a2e9 44be e165 c1bd 1f29 713c 058b b0bc
00000080: 2dce 7b3d ad52 4dbe 292c 0d3d 3c31 89be
00000090: 2e92 bdba c104 29bd c40b 11be 8524 7f3e
000000a0: c28a e53d 3f08 333d 4dc6 293e b088 28be
000000b0: 599e 13bd f345 c63d be22 fe3c 3c83 e13d
000000c0: fa1b ab3d db87 7bbc 8f71 673e 7481 dc3d
000000d0: cdb7 1cbe 57ec 2c3e 5c03 11be 113f 87bd
000000e0: dd60 8fbd e881 dfbd 953f 05bd 6388 ccbe
000000f0: 8294 ccbd 743c 85be bb67 eebd 5336 77bd
00000100: f61d fabd e1c5 82be 52ac 313d 5e71 183c
00000110: 26ab abbd 2dbb 49be 00ad efbd e807 26be
00000120: 0aae 513e 10a7 0ebc 4548 66be 9dcb 08be
00000130: 78c0 ea3d 3b0a 033c 0c63 16be 10fc adbd
00000140: 7d04 c1bc 387e b33d 5677 8abe 7537 88bd
00000150: c26f 063c 1a2b 0dbe ca96 b43d 2560 9d3d
00000160: 5212 e8bd 86fb 3c3b c40c 9b3d d7f9 17be
00000170: 0363 4b3d 93c6 12be 9381 8fb9 b83c 49be
00000180: a344 dabd dcdd 6bbb 98a5 283d e0cc b9bd
00000190: fda5 903d 33b0 8d3d 343a fb3d 5d50 8fbd
000001a0: 1ad9 70be 867a ebbb 8478 7bbd 3032 92be
000001b0: bc96 cf3b 3c31 3bbd 97a6 97be 7b77 b2be
000001c0: 9cc2 aabe 4c95 28be 1518 00be 3d3e 6c3c
000001d0: e589 213d ae1a 553c c6fc 82bd 66ce 54be
000001e0: d3da d8bd 236f 8f3c 37c5 97be b0e9 12be
000001f0: c433 f23d 4fc9 dabc 0d08 873d 223a 9bbd
00000200: 5a61 20be 8727 843e 946b 433e 1e81 be3e
00000210: bf00 763e de5d 093e 9ea2 bd3d 7645 1bbe
00000220: 1ed2 44be b8d0 bb3d d530 583d e0ee 8e3c
00000230: c06b 0ebe 38dc 223e 8b00 0cbe 1d6f 223e
00000240: bc91 843d 40da ce3d f085 1cbe 8a81 09bd
00000250: c5e8 a5bc 99f0 a73c 1172 f9bd ff18 e7bd
00000260: 2074 14be daa4 1cbe d2d8 a7bd 5bdd 8bbd
00000270: 8dc7 3abd 80d1 3fbe 5912 ec3d 4833 81be
00000280: 269c 513d 76b5 7abe 2f1f 01be 9e84 04be
00000290: 6e51 00be fa52 24be 2413 6ebe d6f7 133d
000002a0: 2e7a 74be 7a11 95be 4cc5 0abd e4c9 063e
000002b0: 7d4f 213e 0c87 94bd 6622 393e 7756 b8bc
000002c0: c1fc 1c3d 5e42 143e f8d9 da3c 1413 ad3e
000002d0: b738 9ebd 7c08 d73c b272 183e c6f8 993e
000002e0: 9714 123e b6d1 023e 808f cf3c 2ed9 b43e
000002f0: 7a3d bc3e bc7f a93d d923 6b3e e0df 86bb
00000300: 0ef0 08be 253b 19be 5b90 3a3e 89f4 123e
00000310: 944c 24bd 4df7 eabd 4b68 ea3d 963a dd3d
00000320: f6c0 5cbe b158 8c3e 6ae5 353e c888 4f3e
00000330: 81c3 143e bd56 a03d 54ec 473e 9f7e 943d
00000340: 82a7 23bc 5812 c03d 3b6f 793b a180 cb3d
00000350: b1f8 f23d 221d cdbc 504e 653e b724 4b3e
00000360: 0d23 37be a8ba 803d d417 b5bd 78de e13d
00000370: 34d7 3b3d 7348 bb3d 60c9 883d 68b3 48be
00000380: 0c1d 75be dd25 5cbe a10e 7cbd 3e4e af3d
00000390: 999b ee3c 2d49 7abe b96c b2be fffd 12be
000003a0: 496a 54be d5b0 0e3d 7133 8dbd 21eb f1bd
000003b0: 3a43 18be 22bd 60bd 0f01 99be cc0c 9d3d
000003c0: 5b46 adbe f5cf 21be 8ca8 b83e 2a5c 6d3e
000003d0: 5684 913d 769f be3d e3f5 a43e 16fb 7dbe
000003e0: f674 423d db65 443c 4a39 29be 5595 2e3e
000003f0: 7bd7 3dbd 2b9b 1bbd 30ba 66be 3e55 8dbd
0.22682448 0.13007733 -0.13395274 0.2120712 0.18007478 0.21058854 -0.14723332 -0.008277176
-0.040055864 -0.32217073 0.17559724 -0.15922007 0.0046527865 0.2935788 0.26672408 -0.11759842
0.07315183 0.15523753 -0.026647266 0.039626356 0.24131756 0.24238688 0.049068328 -0.13651623
0.28228834 0.16380131 0.08349848 -0.08648531 -0.19229749 -0.0944326 0.014719277 -0.021550665
0.06147592 -0.2005107 0.034465943 -0.26795375 -0.0014463121 -0.0412643 -0.14164644 0.24916275
0.112081066 0.043709036 0.16579552 -0.16458392 -0.036039684 0.096813105 0.031022426 0.11011359
0.083549455 -0.015352215 0.22601913 0.10766879 -0.1530449 0.16887031 -0.14161438 -0.06603826
-0.07000897 -0.109134495 -0.03253134 -0.39947805 -0.09989263 -0.26022685 -0.11640879 -0.060354542
-0.12212746 -0.25541595 0.043377228 0.009304373 -0.08382253 -0.19700308 -0.11702919 -0.16213953
0.20476547 -0.008706823 -0.22488506 -0.13358922 0.11462492 0.007998045 -0.14686221 -0.08495343
-0.02356171 0.08764309 -0.2704417 -0.066512026 0.008205356 -0.13785973 0.08817823 0.07684354
-0.11331619 0.0028836443 0.07570794 -0.148414 0.04965497 -0.14333563 -0.00027371626 -0.19652069
-0.10657623 -0.0035990393 0.041173548 -0.0907228 0.0706291 0.06918373 0.12266961 -0.0699775
-0.23520318 -0.007186237 -0.06139423 -0.28553915 0.0063351076 -0.04570125 -0.29619285 -0.3485678
-0.333516 -0.16463202 -0.12509187 0.014419136 0.039438147 0.013006849 -0.06395869 -0.2078186
-0.105886124 0.017509049 -0.2964265 -0.14346957 0.1182628 -0.02670732 0.065933324 -0.07579447
-0.15662137 0.25811407 0.19084007 0.37207884 0.24023722 0.13414714 0.092595324 -0.15163216
-0.19220778 0.09170669 0.052780945 0.017447889 -0.13908291 0.1590432 -0.13672082 0.15862699
0.06473109 0.10100222 -0.15285468 -0.033570804 -0.020252595 0.020500468 -0.121799596 -0.112840645
-0.14497423 -0.15297261 -0.08195652 -0.068293296 -0.045600463 -0.18732262 0.11526937 -0.25234437
0.051174305 -0.24483284 -0.12609552 -0.12941214 -0.12531063 -0.16047278 -0.23249489 0.036125027
-0.23874733 -0.29114896 -0.033879563 0.13162953 0.15752979 -0.07252321 0.18079528 -0.022502167
0.038326982 0.14478442 0.026715264 0.33803618 -0.07725661 0.026249163 0.14887503 0.30072612
0.14265667 0.12775311 0.02533698 0.35321945 0.36765653 0.082763165 0.22962894 -0.0041160434
-0.13372824 -0.14963968 0.1821913 0.14351095 -0.040112093 -0.1147295 0.114456736 0.1080219
-0.21557984 0.27411416 0.17763296 0.20267022 0.14527704 0.07829044 0.19523746 0.072507136
-0.009988667 0.09378499 0.0038060683 0.099366434 0.1186384 -0.025038306 0.22393155 0.19838224
-0.17884465 0.06285602 -0.088424355 0.11028761 0.04585953 0.09144678 0.06679034 -0.19599688
-0.23936862 -0.21498819 -0.06153739 0.085598454 0.02912693 -0.24441977 -0.34848574 -0.14354704
-0.2074367 0.03483661 -0.06894577 -0.118124254 -0.14869395 -0.05486787 -0.2988362 0.076684564
-0.3384274 -0.15801986 0.3606609 0.23179689 0.07105319 0.093077585 0.32218847 -0.24802813
0.047474824 0.011987175 -0.1652576 0.17049153 -0.046348076 -0.037989777 -0.22531962 -0.06901024

model2.0.bias f4 [512]
00000000: 44fa 55bd 0a21 28bc 2897 d43d 92a6 003e
00000010: 8d02 7c3d 14e7 2dbe 2ce9 32be f14c 7ebd
00000020: 13a3 f3ba 3ca8 523d ecf7 6abe 006d 24bd
00000030: 2b3f 9d3d c3f0 a93d 3013 da3c de8e 663e
00000040: a21a 45be 3615 b9bc 7d63 91bd eeeb 41bd
00000050: 98fb 273d 55d2 753c aa87 0cbe 3a36 ff3c
00000060: e22d 74be 77df c1bc e3e0 e2bc ab8b 18be
00000070: 5cff dd3d 5be4 313d 3d6c b73a 5050 c43d
00000080: 6001 12be f004 eebd b8ac 98be 0c2d c43d
00000090: 8618 833d 0803 10be 4b0f 0a3e 0f06 0bbe
000000a0: fe30 4f3e 30df 53bd 7e74 89be fc1e 6bbe
000000b0: cd0d 84bd eb85 66be 8abc 083e 69da 893c
000000c0: 938c 853d 6904 c7bd b405 583c bbf3 5ebe
000000d0: 24b4 093e 87d7 b73d e869 3cbc c09a b9ba
000000e0: 688f 30bd e0e3 80bd 81d5 bebd 7ad5 36be
000000f0: 2856 97bd 8669 91bc db73 5a3d 3b55 c03c
00000100: faa7 5fbe 0155 8a3d 983a bfbd 992a 27bd
00000110: 3c0f 96bd 5edc aabd 0921 ccba 3159 bdbc
00000120: bb25 d1bd 9c06 99be c572 213d 4b13 733e
00000130: a7e3 c8bb 2dcb 60be dd0e 75bd c6da c6bd
00000140: 5ccb 1fbe b4ce 83bc c098 edbd 838f c33c
00000150: 8920 2ebe 6858 45bc 73a0 6b3c d812 eabd
00000160: 4391 48be ced1 103e 7451 013e e5a3 083e
00000170: 85a3 6abe cca2 e1bd 0fff b43c 81d1 013e
00000180: a5c8 37be 824d e43d 9c53 56be b6d5 04be
00000190: 99b7 73bd 4c21 fabd 565b 1ebe c359 e73a
000001a0: 67dd a33d 6a6a 283e e12b 4cbe 1c05 163e
000001b0: b2e8 123e ae20 4bbe c738 fcbd c0ff 80bd
000001c0: 5248 e93d 284a 9abd 8969 e6bd 5808 64be
000001d0: e177 01be f8b4 d8bd ada5 b03d ce1e 2cbe
000001e0: 339a fdbb 1738 e6bc 55fd 943d 7039 64bd
000001f0: 2b56 9ebd 46de 1bbe a613 e13d 5a48 8cbd
00000200: d6eb 90bd 6f5f 8a3d 8866 67bd 6cf0 59bd
00000210: 9f37 c8bd ea06 eabd a4bf 16bd c978 2d3d
00000220: 9955 133e e55f 8d3c 70ff 8abb 6c05 8e3d
00000230: 263d 2a3c aa97 f13c 1e65 b6bd 0b51 a93d
00000240: 4e56 febc df81 9cbd df1c c43d 6e24 303e
00000250: afd8 bc3d 6fb6 19be 873c bfbd 1dd9 5e3d
00000260: 5301 bebd 311d 813d 3e22 ffbd dcaa 2d3e
00000270: d600 e93c 7cf0 87bd 45e0 19be dcd7 49bd
00000280: d21c 933d a755 89bd 86af ecbc 0d53 eb3d
00000290: 76a5 40bd 620f c8ba 3a5f 59be 0ef5 853c
000002a0: 8cce 52be 8bfd cbbc f00c aebc 8570 ab3b
000002b0: ae89 42bd 25eb 8bbc 8128 203e 6e28 b53d
000002c0: 6716 75bd 6184 e0bd 51c7 0ebe 3b0c 243d
000002d0: 4128 50bd f73e f03c 6c5c 6b3d 494a 123e
000002e0: 29a4 b8bd 9674 d2b9 2c94 ae3c 1414 98bd
000002f0: bf19 c93d 14e1 73be 8a74 963d 6554 2f3e
00000300: dad0 a4bd 8fba 2bbe 4534 763d 9abe 19be
00000310: bbe0 383e 78ef cabd f1f0 98bd ee02 23bd
00000320: 584f c43c aaf8 f8bd f815 31be d6db 9abd
00000330: 07b1 22be 05bd 75bc a1f6 5dbd fb2b 323d
00000340: 2757 76be 1401 163e 73ca 23be d6f8 48bd
00000350: 55d5 06be cacc 2d3e a188 37bd 1c27 10be
00000360: 704b 99bc 5f6e 51bd c1b8 293e 8fbc 5d3d
00000370: c9c0 91bd bf31 0bbe 3d5d bfbd 0f1a d5bc
00000380: 323a b3bc 9889 c4bc 8b7e ffbd 02be 28bd
00000390: fbb4 023d 70f3 183d 17ce 8fbe 7baa ae3c
000003a0: 13e6 5bbe bbc4 49be 9afd 77be a321 babd
000003b0: a350 113e a7c9 ac3c da7f 8a3c 3503 6b3d
000003c0: 09fd 8cbd 6062 6a3c b2b1 92bc 50c0 023d
000003d0: dc53 46be 5e04 dc3d 9a40 583d e041 903d
000003e0: 71d8 1f3e 2532 d63d 820e e73d 2266 993d
000003f0: 7038 f2bd 08f4 45bc e175 8e3d cc64 d43d
-0.052240625 -0.010261783 0.10380393 0.12563542 0.06152587 -0.1698268 -0.1747176 -0.062085096
-0.0018588029 0.051429972 -0.22946137 -0.040143013 0.07678064 0.08297875 0.026620477 0.22515437
-0.19248441 -0.022593122 -0.07099054 -0.04734414 0.041011423 0.01500376 -0.13723627 0.031153787
-0.23845628 -0.023666127 -0.027695125 -0.14897029 0.108397216 0.043430667 0.001399405 0.09585631
-0.14258337 -0.116220355 -0.29819274 0.095789045 0.06401162 -0.14063656 0.13482396 -0.1357653
0.20233533 -0.05172652 -0.2684669 -0.22961038 -0.06447945 -0.22512023 0.13353172 0.016827779
0.06520953 -0.09717638 0.0131849535 -0.21772663 0.13447624 0.089766555 -0.011499859 -0.0014160499
-0.043105513 -0.06293464 -0.093180664 -0.17854872 -0.0738948 -0.017750513 0.053333145 0.023478141
-0.21841422 0.067544945 -0.09337348 -0.04081211 -0.073271245 -0.08342813 -0.001557381 -0.023113819
-0.10212275 -0.29887855 0.039416093 0.23737828 -0.006130654 -0.21952505 -0.059828628 -0.097096965
-0.15604919 -0.016089775 -0.116014004 0.023872143 -0.17004599 -0.0120450035 0.014381516 -0.114293754
-0.19586663 0.14142534 0.12628728 0.13343771 -0.2291394 -0.11017379 0.022094278 0.12677576
-0.17947634 0.11147596 -0.20930332 -0.12972149 -0.059501264 -0.12213382 -0.1546453 0.0017650652
0.080012135 0.16446844 -0.19938613 0.14650387 0.14346579 -0.19836685 -0.12315517 -0.062987804
0.11390747 -0.075336754 -0.11250598 -0.22268808 -0.12643386 -0.10581392 0.0862535 -0.16808626
-0.0077393292 -0.028102918 0.07274882 -0.05571884 -0.07731279 -0.1522151 0.10990076 -0.068497375
-0.07076232 0.06756484 -0.056494266 -0.0532078 -0.09776234 -0.114271 -0.036803856 0.042351518
0.14388122 0.01725764 -0.0042418763 0.06934628 0.0103905555 0.029491264 -0.08906005 0.08267411
-0.031047013 -0.076419584 0.09575819 0.17201397 0.092210166 -0.15010999 -0.093377165 0.054406274
-0.09277596 0.06304396 -0.12457703 0.16959709 0.028442781 -0.06637666 -0.15026958 -0.049278125
0.071832314 -0.0670579 -0.02889229 0.1149045 -0.047032796 -0.0015263373 -0.21227732 0.016352203
-0.20586604 -0.024901172 -0.021246403 0.005231919 -0.047494583 -0.0170799 0.15640451 0.08845602
-0.059835818 -0.10962749 -0.1394322 0.040050726 -0.05081964 0.029326899 0.057461187 0.1428615
-0.09015686 -0.00040141185 0.021310888 -0.074257046 0.09819364 -0.23816329 0.07346447 0.17122038
-0.08047648 -0.16770385 0.06010844 -0.15014115 0.18054478 -0.09908956 -0.07467831 -0.039797716
0.023963615 -0.12156804 -0.17293537 -0.07561462 -0.15887843 -0.014998679 -0.05419028 0.043498974
-0.24056683 0.14648849 -0.15995197 -0.049065433 -0.13167317 0.16972652 -0.044808034 -0.14077419
-0.01871273 -0.05113065 0.16574384 0.0541349 -0.07116849 -0.13593195 -0.09343956 -0.026013402
-0.021878336 -0.023991391 -0.12475308 -0.04119683 0.031910878 0.037341535 -0.28086922 0.021321526
-0.21474485 -0.19703953 -0.24217835 -0.09088447 0.14190917 0.02109225 0.016906668 0.057376105
-0.068842 0.014305681 -0.017906997 0.031921685 -0.19367927 0.107430205 0.052795984 0.07043815
0.1560991 0.10458783 0.11282064 0.074901834 -0.11827171 -0.012082107 0.06956077 0.10370788

model2.2.weight f4 [256, 512]
00000000: 994b ac3c be25 0cbd 28df c8bc ed92 373b
00000010: 8af0 a13c 7e47 45bd eb5d ecbc 51c1 17bd
00000020: 45b3 2abd 5fbd 38bd 2cdd e7bc c1c0 d2bc
00000030: 7e01 bd3c 0573 a2bc fcf0 ec3c 4ea9 1dbc
00000040: 114a bcbb 47b4 553c 6536 b4bc bf72 33bb
00000050: a4de d7bc d344 5cbd 6a01 dfbb be1f 883c
00000060: c6cd f0bc 9a24 5cbd 98cb cf3c 7df9 e03c
00000070: 3824 6dbc 0c66 37bc 2f37 8539 6d71 a33c
00000080: 207f f2bc cca1 8f3b 527f 89bb 7b47 ae3b
00000090: c66a 49bc 81a8 823c 4427 22bc 8c44 043d
000000a0: 1d3a d3bc d328 5dbc ffd4 62bd e43e 013d
000000b0: ed6a 4c3c eeb1 2a3d b4f4 0bbd 2c7b 903c
000000c0: 0c04 893c 1164 81bc cc1f acba efca dd3a
000000d0: b555 54bd 32c0 e43b c38e 27bc 0b3d 4c3b
000000e0: bff0 53bc c355 f2bc 2edd 693c 8ad1 83bd
000000f0: dc50 2bbd 30f3 07bc 8c36 d23b bf46 2d3c
00000100: 7d70 2ebd 6550 3bbd ea75 09bc 6e48 a2ba
00000110: 52a8 1d3c c6b2 853c 3c51 a13c b590 ecbc
00000120: bb2e fb3c 088d 653c af32 f1bc 349a 283d
00000130: 2b86 37bd 1065 a13c 22b9 af3c 9394 4dbc
00000140: 6a98 6f3b 06e8 45bd 4811 17bd 4d8f b13b
00000150: ec33 883c c9ab 24bd 2c51 b2bb dc64 9a3c
00000160: 2b13 e13c 97cb 52bd 2896 ac3b a273 a6bc
00000170: b874 25bd b31e fc3c 09c5 21bd 6b75 f3bc
00000180: 36e8 34bd 582f 3abd 9f6c 243d e1b0 053d
00000190: a048 fc3b 2f25 0e3d abef a03b d28a b4bc
000001a0: b079 3abd b775 07bd eba3 9f39 3f39 2ebd
000001b0: 554d b2bc 6675 213d 3597 23bd 0e79 8a3c
000001c0: 89a7 dabb 76ec 2e3c 9a7e 18bd 358b 19bd
000001d0: 6747 5b3c 38a2 f8bb d5a2 85bc bb64 c83c
000001e0: c55d 013d 0ecb 17bd e25a ed3b 81ac 16bd
000001f0: 037e b63c 8941 37bd 994b e9bc e033 0fbd
00000200: 31fd f43b 8eb7 ff3c 047f 88bc 4a4d a9bc
00000210: 1499 033d 0745 0a3d d61d 46bc 80ea fabc
00000220: b7ec a7bc 0aed c83c 3d04 883b 0987 1e3d
00000230: e114 77bc 9ba0 173d cb4a fbbc 463a 6ebc
00000240: 6cfe bb3c 84c0 813b 50d4 753c 69ca 8b3b
00000250: e2f9 653c 0dbf 10bd 583b 01bd 8f5f 12bd
00000260: e400 cfbb f03b 883b 7eac abbc e1d4 48bb
00000270: d914 4ebd f4cd 0d3d e689 cdbc f5bc ccbc
00000280: 31da d8bb c035 dbb9 f109 cabc ced4 023d
00000290: d954 abbc 0320 ebbc af8e f6bc 00a1 bcbc
000002a0: 853c 5d3c 330d 0abd 3a83 3dbd 263b eb3c
000002b0: db6b aabc 04dd 9b3c 318b 813c f475 d6bc
000002c0: 60d3 6cbd 6757 06bd 9652 713c 285b 323c
000002d0: a72a d7bc 14d9 cebc 36a7 c1bb e2fa 30bd
000002e0: 1731 b2bc 39fa 063b 134e acba 7b95 f3bb
000002f0: 13f2 ed3c fb72 2bbd 05bf 4cbc ab57 52bd
00000300: 0d0a 2cbb fb8e 01bd a753 01bd f9e9 113d
00000310: e339 973c 8c02 51bd 2ab4 abbc 6024 07bd
00000320: 0d44 55bd 03b9 d7bb 41c0 9bbc 3081 45bc
00000330: 12be 17bd acff 103c 7366 9a3a 8295 473c
00000340: 48c1 88bc 43d2 49bd f853 2bbb fb4e 19bd
00000350: e988 8dbb 6563 473b f683 903c 54ac 4dbb
00000360: fc4a 4fbd 7744 873c bf46 f1bc fd05 50bc
00000370: 1767 93bc 0398 29bc 5e97 d3bc e7f5 163d
00000380: 12d2 c8bb 2c96 623c 5390 d8bc 1ec3 8fbc
00000390: be4d 3abd af51 5fbc 1aba 0b3d 4a99 1f3b
000003a0: e5f1 a93c 7b4d 68bb 89ce ea3b 646b f9bc
000003b0: 6198 27bd b2ca b43c 4387 723a e01f bdbc
000003c0: dbba d1bc 1e48 49bc 9b07 293c 7f35 e63c
000003d0: e259 5abd 33a9 9bbc be20 323c 1890 a5bb
000003e0: af1c 273c d8ea 08bd 90cd 0b3c 0929 32bd
000003f0: 7e1e 5bbd 06cc 013d b6bd 05bb 511b 1bbd
0.021032142 -0.03421568 -0.024520472 0.0028011159 0.019768018 -0.048163883 -0.028853377 -0.037049595
-0.04167487 -0.045102473 -0.028303705 -0.025726678 0.023072 -0.019830236 0.028923504 -0.009622885
-0.005746134 0.01304347 -0.021998594 -0.0027381626 -0.02635128 -0.053776573 -0.0068055885 0.016616698
-0.029394995 -0.053745843 0.025365636 0.027462715 -0.014473967 -0.011193763 0.00025408852 0.019951547
-0.029601634 0.0043833014 -0.004196086 0.0053185797 -0.012293523 0.01594949 -0.009897057 0.032291934
-0.025784547 -0.013498503 -0.05537891 0.031554118 0.012476665 0.041673593 -0.034168914 0.017636858
0.016725563 -0.015794786 -0.0013132035 0.0016921441 -0.05183955 0.0069809193 -0.010226908 0.0031164314
-0.012935816 -0.02958191 0.014273925 -0.06436451 -0.04182516 -0.0082977265 0.006415194 0.010575949
-0.042587746 -0.045730967 -0.008389929 -0.0012381205 0.00962265 0.016320597 0.019692056 -0.028877595
0.030661931 0.014010675 -0.029443113 0.041162685 -0.044805687 0.01970151 0.021450583 -0.01254763
0.0036559352 -0.048316978 -0.036881715 0.005418694 0.01662632 -0.04020289 -0.0054418053 0.018846922
0.02747496 -0.05146369 0.0052669235 -0.02031881 -0.040394515 0.030776357 -0.039494548 -0.029719075
-0.044166766 -0.045455307 0.04014265 0.032639388 0.0076990873 0.03470343 0.004911383 -0.022038851
-0.045526206 -0.033071246 0.00030448972 -0.042535063 -0.02176539 0.0394186 -0.039939124 0.016903426
-0.006672804 0.010676494 -0.03723011 -0.037486274 0.013383723 -0.0075876974 -0.016312996 0.024462095
0.031583566 -0.037058882 0.0072435 -0.036785606 0.022276884 -0.044740234 -0.02847843 -0.03496158
0.007476472 0.031215455 -0.016662128 -0.020666737 0.03212841 0.033757236 -0.012092074 -0.030629396
-0.020498617 0.024527092 0.004150896 0.038703 -0.0150806615 0.0370184 -0.030675313 -0.014540261
0.022948466 0.003959717 0.0150042325 0.0042660725 0.0140366275 -0.03533845 -0.031550735 -0.035735663
-0.006317245 0.0041575357 -0.020956274 -0.0030644464 -0.05031285 0.03462024 -0.02509017 -0.024992445
-0.0066178073 -0.00041810982 -0.024662944 0.031941228 -0.020914482 -0.028701788 -0.030097334 -0.02302599
0.0135031985 -0.033703994 -0.046267726 0.028714728 -0.020803383 0.019026287 0.015813442 -0.026179291
-0.05781877 -0.032798197 0.014729163 0.010885991 -0.026265455 -0.025249995 -0.0059098257 -0.04320801
-0.021751923 0.0020595922 -0.0013145827 -0.007433591 0.029046094 -0.0418577 -0.0124967145 -0.051353138
-0.0026251108 -0.031630497 -0.031573918 0.035623524 0.01846022 -0.05102782 -0.020959932 -0.032993674
-0.05206685 -0.0065833344 -0.019012572 -0.0120547265 -0.0370465 0.008850019 0.00117798 0.0121816415
-0.016693726 -0.049272787 -0.0026142579 -0.037428837 -0.0043192995 0.0030424234 0.017641049 -0.0031383233
-0.05060862 0.016512139 -0.02945268 -0.01269674 -0.017993493 -0.010351184 -0.025829013 0.036855604
-0.006128558 0.013829749 -0.026436007 -0.017549094 -0.045484297 -0.013630315 0.034113027 0.0024352842
0.020745227 -0.0035446573 0.007165734 -0.030446716 -0.040916804 0.022069309 0.0009251723 -0.023086488
-0.025601795 -0.0122852605 0.010316755 0.02810168 -0.053308375 -0.019001579 0.010872064 -0.0050525777
0.01019971 -0.03342709 0.008532897 -0.043496165 -0.053495876 0.031688713 -0.0020407266 -0.037867848

model2.2.bias f4 [256]
00000000: 3452 d2bc bee1 88bc 1348 22bb 76e4 0abd
00000010: 35b6 313d 7912 08bc 5812 0cbd 2a16 7cbd
00000020: 2eca 963c 510b 653c ca94 fcbc 545e 74bd
00000030: 8b33 02bd b41d 66bd e44e ecbc 16fb ccbc
00000040: fe24 13bc f2cf 80bd c622 7b3d 37b8 62bd
00000050: b9fc 0dbd 5e19 ca3c 4d96 36bd df7c 8fbd
00000060: bee9 b23a 808d 4b3d 76a4 eeba 7f52 0dbd
00000070: 7433 03bd dea3 d53b 7d1c 7ebd e302 e3bc
00000080: bba1 e6bc 6662 70bc 1759 57bd 649e 74bd
00000090: 89f5 85bc 2b56 35bd 81cc 85bc da47 5dbd
000000a0: 9c08 dbbc 3ccf 41bb c4b8 9fbd 2a01 c8bc
000000b0: 7a75 47bd 95b8 43bd d13b 3fbd 81f1 b1bc
000000c0: 7cb4 8cbd e978 bdbc 3c65 8dbc bbcc bebc
000000d0: 16a3 a6bc 4f25 1f3c 3669 af3c 3e42 babc
000000e0: f180 1ebd 9630 67bd 3a0f aabc 9d02 abbd
000000f0: 2b84 96bd 04db 8c3c f374 f4bc d26a 4ab9
00000100: d30a 98bc 0e01 8bbd c468 64bd 0f9b 9a3b
00000110: 23e6 eebc e93c cbbc 533d 1e3c 26cf ebbc
00000120: d861 6fbd cb82 a3bc 018e 473c 72bd 9dbc
00000130: a88c 25bd a3e8 3abd 990a c63d 364e 21bd
00000140: 7796 50bd cdfe 2a3d 2e26 7cbd 0cbd 933c
00000150: 77b2 ef36 36af cdbc 4e1f e3bc c0ca 883c
00000160: 7856 5dbc 6598 8bbd 0f36 30bd c384 383d
00000170: 9a7c b8bc a57a 1dbb 28e3 aabc 1c13 83bd
00000180: 94f4 88bb 579f 86bd 1566 9bbd a137 2b3c
00000190: 4956 d2bd 8fac 07bd 84d2 10bd ad85 50bd
000001a0: 17bd 80bd 66ae 01bd ddc4 83bc 14f3 343d
000001b0: f6e6 fa3b 65de abbd b7c9 08bd 1896 2fbc
000001c0: cb28 debc dc59 bdbc a349 b2bc 9dd4 08bd
000001d0: 26fb 6a3c 14f7 433c b511 24bb 301c 5fbd
000001e0: 101c ddbd fbea f2bc 3c8f b8bc a397 5abc
000001f0: 5820 62bd 36dc 54bc b7c3 42bd d346 83bc
00000200: f58c f5bc 9d62 7fbb 1226 9ebd 3741 14bd
00000210: 6d07 6a3a b3a6 57bd 8288 92bc d397 ecbb
00000220: 376e f3bc 6d3c 873c 0170 c0bc 1077 05bd
00000230: 6557 92bc 9440 99bd 776a de3c 8110 4ebd
00000240: 148c e0bd 9d99 86bd 549f cbbc 2441 aebd
00000250: e801 473d 3d1f b6bd e138 9f3a 4f3a 343d
00000260: 08ec ab3b bede 0cbd e738 373c 8200 bfbc
00000270: 9b57 de3b b740 23bc 7584 d4bc b09c 79bc
00000280: a24a 86bc 99bd f0bb 48c6 9fbd 9ef6 98bc
00000290: cb95 aa3b c903 cb3a 0844 32bd bbd0 d9bd
000002a0: b090 35bc feca 293b 756e 9bbc 2554 14bc
000002b0: e6a1 a83b ecd9 ddbd b041 90bd 9d8d d2bc
000002c0: 2cde 9fbc d858 263c 5f41 acbd 0870 a9bd
000002d0: 6d60 dfbc 2dcd 16bd ca8e 23bd 450c 65bd
000002e0: 80a1 273c 4582 c8bc 3785 4cbd 2305 afbc
000002f0: 40c8 a1bc 0670 ecbb 70e7 e2bc e6ad 6abc
00000300: 05df 95bd 449e 95bc 06a6 e2bc 8232 6fbd
00000310: 6fd3 05bd ee4a 02ba d2d3 39bd 5c44 b7bb
00000320: 6e0c f5bc bdcf 81bd 18e2 a3bd d155 40bd
00000330: ab35 a0bd 4d2f 523d 2c6e 02bd 5837 b1bc
00000340: 5ecb 46bd 97fb 01bc 8253 f5bc 54fa 25bd
00000350: ba71 27bd 51ed 55bd 93b7 07bd bf56 fdbc
00000360: c438 87bd 9e2d 6abc 8a88 e7bd feff 17bd
00000370: 094a 0a3c bb60 0b3e 30c3 54bd 564a 5ebd
00000380: 7c50 abbd 7fb1 0f3c 3c49 04bd 60f3 8a3b
00000390: d9bc c0bd af49 1dbd 2826 24bd 3954 1cbd
000003a0: 8383 d3bd b0e6 dabc 8f7d 72bd 7ee0 9c3b
000003b0: 94f9 c6bc e5fc 62bd f0e6 4abd c100 8e3c
000003c0: ce09 03bd 5a54 203c b5f9 203c 7b0a 00bd
000003d0: eff8 ebbc 2a17 bebd e73c 0bbc 1414 fdbc
000003e0: 5a4a 44bb 79f7 d3bb 56a6 01bd 614a 543d
000003f0: 8e2d 4abd e91b 7ebb 8735 34bc c2a1 11bd
-0.025673963 -0.016709205 -0.0024762198 -0.033909284 0.043386657 -0.0083051855 -0.03419718 -0.061544575
0.018406954 0.013979749 -0.030832667 -0.05966027 -0.031787436 -0.05618067 -0.028846212 -0.02502207
-0.008980988 -0.062896624 0.06131246 -0.055351462 -0.034664843 0.0246703 -0.04457693 -0.07006239
0.0013649983 0.04969549 -0.0018206972 -0.034502503 -0.03203149 0.0065197786 -0.062038887 -0.027711337
-0.028153291 -0.0146718975 -0.052575197 -0.059721366 -0.016352432 -0.04427163 -0.016332867 -0.0540236
-0.026737504 -0.0029572984 -0.07798913 -0.024414618 -0.04869602 -0.047783453 -0.046687905 -0.021721603
-0.06870362 -0.023128944 -0.017260186 -0.023290982 -0.020341437 0.009713485 0.021412473 -0.022736665
-0.038697187 -0.05644282 -0.020759214 -0.08350108 -0.07349428 0.017194279 -0.029840922 -0.00019304015
-0.018559849 -0.067873105 -0.055763975 0.0047181915 -0.029162472 -0.024809318 0.0096581755 -0.0287853
-0.05844292 -0.019959828 0.012179852 -0.019255374 -0.040417343 -0.045632016 0.0966999 -0.03938123
-0.050924744 0.041746903 -0.06155985 0.01803448 7.143531e-06 -0.025107961 -0.027724888 0.016698241
-0.013509385 -0.06816176 -0.043020304 0.045048486 -0.022520352 -0.00240294 -0.02086027 -0.06400129
-0.0041795466 -0.065733604 -0.0758783 0.010450275 -0.10270364 -0.03312355 -0.035357013 -0.050908733
-0.06286066 -0.03166046 -0.016085083 0.04417713 0.007656927 -0.08392028 -0.033395495 -0.0107169375
-0.027119061 -0.023114137 -0.021763628 -0.03340589 0.014342105 0.0119607635 -0.0025034968 -0.05447024
-0.10796368 -0.029653063 -0.022529237 -0.013341817 -0.055206627 -0.0129919555 -0.04754993 -0.016024983
-0.02997444 -0.003896869 -0.07722105 -0.036195006 0.0008927498 -0.05264921 -0.017887358 -0.0072202473
-0.02971564 0.016508305 -0.023490908 -0.03258425 -0.017863939 -0.074830204 0.027150376 -0.050308708
-0.10964218 -0.06572268 -0.024856247 -0.08508518 0.048585802 -0.08892677 0.0012147689 0.04400092
0.005246643 -0.03439211 0.011183 -0.023315672 0.0067853457 -0.00996416 -0.025942067 -0.015235111
-0.01639301 -0.0073468206 -0.07801491 -0.018672284 0.005205845 0.0015488799 -0.04352191 -0.10635515
-0.0110818595 0.0025908346 -0.018973568 -0.009053265 0.005146253 -0.10832581 -0.07043779 -0.025702292
-0.01951512 0.010153018 -0.08410906 -0.082733214 -0.02726766 -0.036816765 -0.039931096 -0.055919904
0.010231376 -0.02447618 -0.04993173 -0.021364754 -0.019748807 -0.0072155027 -0.027698249 -0.014323687
-0.07317928 -0.018263943 -0.027667057 -0.058397777 -0.032672342 -0.0004970272 -0.045368023 -0.005592866
-0.029913153 -0.06338451 -0.08002108 -0.04695684 -0.07822736 0.05131464 -0.03184335 -0.021632835
-0.04853379 -0.007933519 -0.029947046 -0.040521935 -0.040879942 -0.052228276 -0.033134054 -0.030925153
-0.06602624 -0.014293103 -0.1130534 -0.037109368 0.008440503 0.13611118 -0.051943958 -0.05427011
-0.083649606 0.008770346 -0.032296404 0.0042404383 -0.0941102 -0.03840035 -0.04007545 -0.03816626
-0.10327818 -0.026721328 -0.059201773 0.0047875037 -0.02428893 -0.05541696 -0.049536645 0.017334344
-0.031991772 0.009785736 0.00982516 -0.031259995 -0.028805224 -0.09281762 -0.008498407 -0.030893363
-0.0029951544 -0.00646871 -0.03165277 0.051828746 -0.04935985 -0.003877396 -0.01099909 -0.035554655

model2.4.weight f4 [64, 256]
00000000: d2f2 673d fcba 9fbd 2418 0cbd add6 833c
00000010: 419e 2a3c 9b42 19bc 85c8 a6bb edb7 083c
00000020: 98da 36bd cf39 d9bc 4574 6f3d 4cfc 603d
00000030: 656d 5c3d b2eb 163d dadd 2d3d 8324 2f3c
00000040: 8f07 4ebd 0d9b 51bd 08bf c4bc 3769 043d
00000050: 1e9f 88bc b4ad 503c 107b 62be 3383 103d
00000060: ec5c 8cbc e87e 16be f35e bebd e25e cf3c
00000070: cace 21bb b4ed 5dbd 3d09 cfbd aaec 81bd
00000080: 582b 65bd e557 d8bc f520 cbbd 9559 6d3c
00000090: f716 d1bd b755 8ebd eaf8 86bd a048 d0bc
000000a0: f2ef 81bd bdd5 893c 6710 8ebb 1d8e a33c
000000b0: ed41 273c 12c5 60bd 30e6 34bc 54ed 66bc
000000c0: e3b7 63bd f4b3 fbbc b9b1 04be 0108 65bd
000000d0: e73a c13b 4b95 513d a796 933c 2144 d43b
000000e0: e1c2 98bc 613e 1bbc cef6 33bd b1ec b53b
000000f0: 9e2e 89bd 2104 1a3d c4fd edba 8ad1 3cbd
00000100: fc48 0f3d da10 f6bc 2dba 773d 12a0 1e3b
00000110: afcb 123d 15c1 0e3c ec22 d5bc df69 11be
00000120: beef 2b3b 4f3c 2dbd 137a 0c3d e30c 053d
00000130: 8aab e43a aec4 f2bb 3d03 d13d aba6 81bc
00000140: c65c 0f3d 7ba8 ff3d 5707 573d 99df 0e3e
00000150: 11ca fb3c 56d9 983c 9d10 a43a 4897 ca3c
00000160: fd63 3e3d 8b17 47bd e066 bcbc 9b3e 31bd
00000170: 1432 4a3c a925 86bb 9381 e7bb 9074 abbc
00000180: 9a4b 76bd a4c5 febc a04e 17bc 8f9a 033a
00000190: 0c67 c7bc 8f98 043d b4b5 2bbd 416f cabd
000001a0: fd4c c2bd 26e9 073d 2b7c 63bc 2bc1 96bd
000001b0: cdf0 d8bc e2c4 5fbd ba43 9f3c a30a f63c
000001c0: 89e3 ac3d 87bf 0d3d 42cc b3bd 6220 5ebd
000001d0: fda1 b6bc 3338 7bbd 8f81 9cbd 30f8 113c
000001e0: 48d4 e9bc 909a 57bc 86d1 37bd b0bd 8e3c
000001f0: 9a67 8dbd 8f2d 3f3d c637 553d 5d8d 62bd
00000200: 0ff3 90bd 9444 71bc 9711 9bbd c946 27bd
00000210: 2ed7 b53c b64b cabd bbbd 223d 306e 7ebd
00000220: b204 4f3d b9dc 16bd 2dac 9b3c a88f 883d
00000230: d8e1 443c f4ed 5bbd dfe7 20bd 7f46 373c
00000240: 1b67 93bd 0070 503d 6986 68bd a670 b13c
00000250: 8335 953c 758f 343c 65b5 6cbb fab5 26bd
00000260: b52e 1dbd 7415 8cbd b815 faba 6012 b5bc
00000270: a6f6 433d 7176 33bd d59d 6abd b291 353d
00000280: 819f 20bc 45d6 38bd 45b0 8d3b 81c3 afba
00000290: 6f39 a6bb 399a 2dbd a96f 363c 29b9 db3b
000002a0: ec7d 033d e6ae cdbc fcbd 28bb 487a 03bd
000002b0: 301d 7cbd 3ebb a8ba 3ef7 9dbd 1c7b 103d
000002c0: 791e acbb c3a1 a1bd cf71 8bbd d125 163c
000002d0: bfeb 59bd f242 9937 7e44 f13c 4a12 9dbd
000002e0: b1af 6a3d 74aa 313d e1ca bfbd 9742 a63c
000002f0: 8e6c 9dbd 50f7 3dbd a4d2 01bc 55cd 503b
00000300: 9cdc 333d c7f0 2cbd b95b adbc 1d16 5a3d
00000310: 9980 aabc 6889 2abd 9ed4 033c 01e8 17be
00000320: bb80 01bc 5c5f d1bc 263c 9fbd 2817 e3bc
00000330: 1554 a9bb 0151 a3bd ee15 7bbd ffa4 a6bd
00000340: 8e9a 883c 2129 13bd 185f 37bd 5c78 99bd
00000350: d1b2 95bb a6e2 38bc 7808 2f3d f180 efbd
00000360: e5c4 97bd b6eb 093d 6c3f 9ebb a8c3 6bbd
00000370: c988 7bbd c86a 1c3d 4ed9 ea3c b0c6 adbd
00000380: b669 10bd 1886 29bd 1231 18bd 340e e2bc
00000390: 4a01 0fbd 509c 0a3c 36c3 2dbd 7c36 7ebd
000003a0: 72a9 0a3d fb10 023d fb84 203b cce5 f9bd
000003b0: 69d5 f1bc 47de 1bbd ef75 2cbc 1df1 7cbd
000003c0: 4733 e2bd 128e c7bc e0de 5a3d 6524 85bc
000003d0: b20d 343d 265f 0ebd 88b7 62bc 4503 7cbd
000003e0: e1d9 09bc f88d 8cbd 804b 303d 5b5c aebd
000003f0: 97a6 46bc c3d9 dabc ee17 d0bc 1d26 733d
0.056628056 -0.07799336 -0.03420271 0.016093576 0.010413707 -0.009354259 -0.0050898218 0.008344633
-0.04464206 -0.026516823 0.058460493 0.05492811 0.053815264 0.03684587 0.042447902 0.010689857
-0.050300177 -0.05117326 -0.024016872 0.032326903 -0.016677435 0.012736727 -0.22117257 0.03528137
-0.017134152 -0.14696848 -0.09295454 0.025313798 -0.0024689906 -0.05418177 -0.10109184 -0.06343968
-0.05594954 -0.026409099 -0.099183954 0.01448669 -0.10209458 -0.069499426 -0.06590445 -0.025425255
-0.06344594 0.016825551 -0.0043354514 0.019965226 0.010208589 -0.05487544 -0.011041209 -0.014094669
-0.05559529 -0.030725457 -0.12958421 -0.055915836 0.0058969143 0.051167767 0.018016173 0.006477848
-0.018647613 -0.0094753215 -0.043936543 0.0055518975 -0.06698345 0.037601594 -0.0018157293 -0.04609827
0.034981713 -0.030037332 0.060480285 0.0024204296 0.03583878 0.0087130265 -0.026017629 -0.14200543
0.0026235427 -0.042293843 0.034296107 0.032482993 0.0017446142 -0.0074087 0.10205696 -0.015826544
0.035000585 0.12483307 0.052497234 0.13952483 0.030736001 0.018658321 0.0012517158 0.02473034
0.046482075 -0.048606437 -0.022998273 -0.043272596 0.012341041 -0.004093845 -0.007065007 -0.020929605
-0.060130693 -0.031100102 -0.009235054 0.00050202844 -0.024341129 0.032372054 -0.041921332 -0.09884501
-0.094873406 0.033181332 -0.013884584 -0.073610626 -0.02648201 -0.05463112 0.019441474 0.030034369
0.084418364 0.034606483 -0.087791935 -0.0542301 -0.022294039 -0.061332893 -0.07641899 0.00890927
-0.028543606 -0.013159409 -0.04487755 0.017424434 -0.06904526 0.046674307 0.052055143 -0.055310596
-0.0707761 -0.014725823 -0.07571714 -0.04083899 0.022197332 -0.09877722 0.039731722 -0.0621168
0.050541587 -0.03683159 0.019002998 0.06668025 0.012016736 -0.053693727 -0.03928363 0.011186241
-0.071974 0.05088806 -0.05676881 0.02166016 0.018213993 0.011020531 -0.0036118862 -0.04070089
-0.03837462 -0.06840029 -0.0019079959 -0.022103488 0.047842644 -0.043814126 -0.057279427 0.0443284
-0.009803654 -0.04512622 0.0043239915 -0.0013409705 -0.0050727646 -0.042383406 0.01113502 0.0067054224
0.03210251 -0.025107812 -0.0025748005 -0.03209904 -0.061551273 -0.0012873185 -0.07713173 0.035273656
-0.005252656 -0.07892182 -0.06808817 0.00916429 -0.05320334 1.8270195e-05 0.029451605 -0.07669504
0.05729646 0.043375447 -0.09364868 0.020295424 -0.07686721 -0.046378434 -0.007923756 0.0031860669
0.04391156 -0.04222181 -0.0211619 0.053243745 -0.020813273 -0.041634947 0.008046297 -0.14834596
-0.007904227 -0.025558166 -0.07775144 -0.027721003 -0.005167494 -0.07974435 -0.06130021 -0.08136939
0.01667526 -0.035927895 -0.044768423 -0.0749366 -0.0045684357 -0.011284506 0.042732686 -0.116945155
-0.074106015 0.033672057 -0.004829338 -0.05755964 -0.061409745 0.038187772 0.028668072 -0.08485162
-0.035257064 -0.041387647 -0.037156172 -0.027594663 -0.03491334 0.008460119 -0.042422496 -0.06206368
0.033853002 0.031754475 0.0024493325 -0.122020334 -0.029520707 -0.038053777 -0.010526164 -0.06175338
-0.110449366 -0.024359737 0.053435206 -0.016252706 0.043958373 -0.03475871 -0.013837703 -0.061526556
-0.008413763 -0.06863016 0.043040752 -0.08513709 -0.012124679 -0.026715165 -0.025402036 0.05936252

model2.4.bias f4 [64]
00000000: f590 893c 15e3 9abd 4b88 7cba 98d8 153d
00000010: 2326 f73c 7b7c 16be 608a e7bd 0c8b f2bc
00000020: 3115 86bd 7ad4 e63d e773 e5bc b279 bebd
00000030: 5833 3ebd 8543 94bd 4e73 e43d 507a 9c3d
00000040: 9285 74bd ed08 86bd 365c 6fbc 64da c5bd
00000050: 4106 2d3d 2056 a7bc 3c2f 2e3c c192 92bd
00000060: 243a 2ebd 8ea2 bc3c e5a7 aa3c 2488 723b
00000070: eae5 87bd af49 f53b de3d 61bc 3fc9 c8bc
00000080: 320a fcbc c74e 0dbd b7eb 2bbd dd0d 463b
00000090: 016e 76bd e39a 96bd 6c07 97bd 2260 b3bc
000000a0: 9c98 8abd 3ff9 bfbc 0da3 4d3c 6359 6b3d
000000b0: 253c 56bc d903 523d 137d f0bd efdb 213d
000000c0: 4f08 39bd 6000 b5bd b08e a3bb 2c51 69bd
000000d0: 593c 873d 0ebc 1f3d 9fb5 983c c6fc 80bd
000000e0: 09e1 8bbd e8fe c9bd 871d dabd 2e41 bfbd
000000f0: 471c 0bbd d6ee a7bd fa1e abbd a7df aabc
0.016792754 -0.07562844 -0.00096333463 0.036583513 0.030169552 -0.14695923 -0.1130569 -0.029607318
-0.06547011 0.112709954 -0.028009368 -0.09300555 -0.046435684 -0.07239441 0.11154805 0.07640517
-0.059697695 -0.06544671 -0.014609387 -0.09660795 0.042242292 -0.02042681 0.010631379 -0.07156897
-0.042535916 0.02302673 0.020832011 0.0037007416 -0.066356495 0.0074855904 -0.01374766 -0.024510024
-0.03076658 -0.034498956 -0.041972842 0.0030220666 -0.0601635 -0.07353761 -0.073744625 -0.021896426
-0.06767389 -0.02343428 0.012551081 0.057458293 -0.013075863 0.0512732 -0.11742606 0.039516386
-0.04517394 -0.08837962 -0.004991375 -0.056962177 0.06603307 0.038997702 0.018641291 -0.06298213
-0.068300314 -0.09863073 -0.10650163 -0.09338604 -0.033962514 -0.08199851 -0.08355518 -0.020858599

model2.6.weight f4 [4, 64]
00000000: ab58 7d3e d208 9b3d e891 fdbd b9d8 babd
00000010: c372 44be de8b 513d 40a3 65bd e56d d53d
00000020: 7f5b 033e 37fb d5bd e617 2fbd 9cac ca3d
00000030: 0679 a0bd acf6 f13d 4d04 95bc 9669 62be
00000040: 2e95 f23c b261 713a 548f f1bb 5d59 483c
00000050: 5eb6 2abe fee6 d2bd 1163 163d 7781 63bd
00000060: 2856 98bc 293c c63b ad4e 6fbd 526a 2abd
00000070: 8a9e b6bc 35c2 5f3d a55f 1bbc 1619 49bd
00000080: d715 a6bd afda 053e 88f1 5bbd bd16 b4bd
00000090: 327d afbd 7e45 5a3d cb07 cdbd 3ec2 5cbd
000000a0: 553e 9dbd 7468 733d 92f9 0bbd bfbb f43d
000000b0: 72eb 95bd 5aef 4bbe 5e39 1b3d bafd 2b3d
000000c0: 18c8 b33d 223e 3fbd 155b 0dbd dcb9 b53c
000000d0: 316a 19bd 0fd6 ccbc 9c47 d23d 52b3 f7bc
000000e0: 1054 02bc 551c da3d fa6b 853d c425 c23c
000000f0: aea4 ffbb cd48 483d 95d9 083c 11e3 84bd
00000100: 1257 12bd a0fc cbbd 8859 963c b30e c8bc
00000110: ff82 eabd f518 7a3e 3dcb 8dbc 6b04 f03d
00000120: 6fe2 bb3c 4912 303c c4c6 823d ac8e 6b3e
00000130: 5ccc a4bc b020 673d 90be 8cbd 9f3d 17be
00000140: a035 b9bd 9e94 bbbc f25d 04bd 495e 9dbd
00000150: a532 b0bc 7cfd f73c 3c38 3b3d a8df a13d
00000160: e947 dc3c 799f ebbd 8b7b cdbc 2333 35bd
00000170: c519 89bd c92c ae3d 29c5 65bd 9a0c dbbd
00000180: f0c6 2f3d 56c9 1d3d 8582 d2bb af43 4d3d
00000190: 677f 853d 3b7b c7bd aad9 0d3e 75fc 1e3e
000001a0: 9632 9c3d 8a46 113c edc3 60bd fcfb d13d
000001b0: 5035 99bd f15b cebc 7300 1d3d cd92 86bd
000001c0: 555f 8e3d f60c 24bc f321 53bd 1bdb ab3d
000001d0: 857f 023e 34d4 a43d e8d0 6dbc c7a1 94bd
000001e0: a472 edbc e520 853d 39f0 653e 1bad c03d
000001f0: 8060 783d c072 3bbd 9ac8 283d 4650 fe3d
00000200: 05f0 dabd 53c8 493c af6c 09bd accc 773c
00000210: e73a 7bbd 6e7d 00bd cf5c ae3c 793a 13be
00000220: edf8 9e3d d3f6 5bbd d0ea c93c f671 5cbd
00000230: 269f 973c e030 343c fdaf 0abe 9161 433d
00000240: 469d f13c ea3f a13c 378e bebc 69ce 40bc
00000250: b68f a9bd a42c 9bbd 6d19 aebd eb46 a83b
00000260: e68b 633b 49b5 523c 6406 cabb 3c2d a53c
00000270: 04e2 313d 8161 053c a41c b2bd ebdb d4bb
00000280: c883 edba bd62 ca3d cfd5 9ebc 4645 063d
00000290: 5d5d 933b b735 a33d 09d4 ea3d c28e 90bd
000002a0: 2751 99bd 5e77 95bc 799a 41bd 5858 3dbd
000002b0: fd78 f5bd 0857 60bd 4dbb 4a3b 4e94 c0bd
000002c0: 6503 e3bc 1432 89bc 5fc3 b3bd 32bd 143a
000002d0: 3f67 e1bc 86c3 e9bd 9869 ccbd 8793 2cbc
000002e0: 864c 8ebd 6b40 c73d eb2f c1bb bb41 d4bd
000002f0: 752c 2f3d 1566 b9bd e021 8fbd 106a 223d
00000300: 4999 c2bc cbe9 4abd fc5f c0bc 90d5 0ebd
00000310: 746b acbc d8e6 893d 7ab9 aa3d ff00 b3bc
00000320: 39da 5e3e db96 67be 2364 e33d d686 14bd
00000330: 14dd babc e791 143e 1609 31be cd11 c33d
00000340: 2694 d83e c116 0a3e cf19 253c ba7f 8fbe
00000350: 3a33 f53e 5d57 8fbc b0ba 73bd 2f89 233d
00000360: 3fba e33d 7ecf 903d f69d 90bd b230 2dbc
00000370: 1abf c2bd 4d6e d13d 4183 2d3b 7ec0 ee3d
00000380: f965 92bd 234e f5bd 65ad 4d3b 2bfa 92bd
00000390: 64f8 243d 176f 003e bbe8 713c ff96 80bd
000003a0: e6b6 9d3d e487 1fbc c418 dc3e 1de6 e9bd
000003b0: 5cbd 533d 3bc3 c9bb 3bd8 c83e 5fe7 87bd
000003c0: eb6f de3d cbfb a63d cb04 37bd 41b6 b3bd
000003d0: df5d 113e 8752 ca3d 1365 933d de8e e8bd
000003e0: 979b e2bd 80a0 07be 9b70 75bc ee5d 953d
000003f0: 3caf a9bd 8bf0 8d3d fd09 47bd 7a18 e73a
0.24740855 0.07570042 -0.12381345 -0.09123368 -0.19184403 0.05115878 -0.05606389 0.10421351
0.12827872 -0.10448306 -0.0427474 0.09896204 -0.078355834 0.11814627 -0.018190527 -0.2211059
0.02961215 0.0009207978 -0.0073718224 0.012228337 -0.1667113 -0.102979645 0.03671557 -0.05554339
-0.01859577 0.006049652 -0.05842464 -0.0416053 -0.022292394 0.05462857 -0.009483253 -0.04909619
-0.08109634 0.13071702 -0.05369714 -0.087933995 -0.08568801 0.05328893 -0.10011252 -0.05389618
-0.076779045 0.059425786 -0.034173556 0.11949872 -0.07320298 -0.19915524 0.037896506 0.04199002
0.08778399 -0.046690114 -0.03451069 0.022183351 -0.037454788 -0.025004415 0.10267565 -0.030236874
-0.007954612 0.10649935 0.065147355 0.023699649 -0.007801614 0.048897553 0.008352657 -0.06488622
-0.035727568 -0.09960294 0.018353239 -0.024421072 -0.11450767 0.24423583 -0.017308826 0.11719593
0.02293512 0.010746547 0.06385568 0.23003644 -0.020116977 0.056427658 -0.068722844 -0.147696
-0.09043431 -0.022898015 -0.032316156 -0.07683999 -0.021508524 0.030272238 0.045707926 0.07903987
0.026889758 -0.11505026 -0.025083324 -0.04423822 -0.06694368 0.08504636 -0.05609623 -0.10695763
0.04291433 0.038522087 -0.0064242505 0.050113376 0.06518441 -0.09740301 0.13852564 0.15525992
0.07626836 0.0088669155 -0.05487435 0.1025314 -0.07480872 -0.025190325 0.038330507 -0.06570969
0.06951777 -0.010012856 -0.05154605 0.083914004 0.12743957 0.08048287 -0.014515139 -0.07257419
-0.028985329 0.06500415 0.22454919 0.09408017 0.060638905 -0.04576373 0.041206934 0.12417655
-0.10690311 0.012315827 -0.033550914 0.015124481 -0.06133547 -0.03136962 0.021284489 -0.14377774
0.077623226 -0.053702187 0.0246481 -0.05381962 0.018508505 0.010997981 -0.13543697 0.04770047
0.02949394 0.019683797 -0.023261173 -0.011767962 -0.08279364 -0.07576874 -0.08500943 0.005135407
0.0034720837 0.012860605 -0.0061653126 0.020163171 0.043428436 0.0081409225 -0.08696869 -0.006495943
-0.0018120939 0.09882114 -0.019389061 0.032780908 0.0044972138 0.0796923 0.11466224 -0.07058479
-0.07486182 -0.018245395 -0.047266457 -0.04622683 -0.11985967 -0.0547705 0.0030934394 -0.09403287
-0.02771158 -0.016747512 -0.087774985 0.0005673944 -0.027515052 -0.11414246 -0.09981078 -0.01053322
-0.069481894 0.097290836 -0.005895605 -0.103640996 0.042767007 -0.09052674 -0.06988883 0.03965193
-0.023754733 -0.04953937 -0.023483269 -0.034871638 -0.021047331 0.06733483 0.08336158 -0.02185106
0.21762933 -0.2261614 0.11103084 -0.036261402 -0.022810496 0.14508782 -0.17288622 0.095248796
0.42300528 0.13485242 0.010076954 -0.28027135 0.47890645 -0.017497713 -0.05950421 0.03992575
0.11119508 0.07070826 -0.07061379 -0.010570692 -0.09509106 0.10226116 0.0026475939 0.11657809
-0.07148356 -0.11977794 0.0031383869 -0.07176622 0.040275946 0.12542377 0.01476496 -0.062788
0.07700901 -0.009736989 0.42987645 -0.11420844 0.05169426 -0.0061573065 0.3922747 -0.066359274
0.108611904 0.081534944 -0.044682305 -0.087749965 0.14195965 0.09879022 0.07197013 -0.11355375
-0.11064833 -0.1324482 -0.0149804605 0.07293306 -0.082853764 0.069306456 -0.04859351 0.0017631196

model2.6.bias f4 [4]
00000000: 75cf adbd bd5f 8ebd b3e6 0ebd 6a5a 3fbd
-0.08486835 -0.069518544 -0.03488798 -0.046717085
