model_weight/best2/13_13 14:32:25 std 0.4 lr_actor_0.0004- gamma_0.7 memory100 actor_weight.pth (torch, 646091 bytes, 9 tensors)

std f4 [4]
000000 ec 71 d1 bd 7f f9 98 bb cf 17 cb bd 83 07 14 be
       -0.10226807 -0.004668414 -0.099166505 -0.1445599

model2.0.weight f4 [512, 24]
000000 ae bd f7 bd 6b 61 37 be 0b 26 56 3e 4b 0e 29 be
       -0.120967254 -0.17908256 0.2091295 -0.16509359
000010 7e ab e5 3d 42 17 db bd 77 d7 7d be 00 34 cd bc
       0.1121435 -0.106977955 -0.24789225 -0.02504921
000020 44 be 2c be 89 65 87 3c 0d a8 10 3d 01 f6 2b 3e
       -0.16869456 0.016527908 0.035316516 0.16793062
000030 d6 7c e6 bd 76 8c 97 3d 67 32 84 bb 2d 26 12 3e
       -0.11254279 0.07399838 -0.0040343287 0.14272375
000040 1e d2 a5 3d 15 f3 01 3e 34 93 9f bd f5 e1 9d bc
       0.08096717 0.12690385 -0.07791749 -0.019272784
000050 b2 02 c2 bd 93 50 39 3e 23 10 6e bd f0 ee 43 be
       -0.0947317 0.18097143 -0.058120858 -0.19134116
000060 30 c1 12 ba 6b 36 59 3e 31 eb 40 bd ef 25 08 3e
       -0.0005598245 0.21212165 -0.047099296 0.1329572
000070 72 96 47 be e5 94 ae bc 33 84 67 3e 1e e0 e3 bd
       -0.19490984 -0.021311233 0.22609024 -0.11126731
000080 c3 14 41 3e 0c b3 ad bd 3b 3e 07 3d 81 61 b6 bd
       0.18855576 -0.08481416 0.033018332 -0.08905316
000090 16 d5 c8 3d 08 03 3d 3e 90 f8 a4 3c ee b5 1b 3c
       0.09806268 0.18458188 0.020138055 0.009503825
0000a0 d3 80 f5 bd a2 85 1e 3e 5f 11 f0 bd 21 10 fe bd
       -0.11987462 0.15480664 -0.11722063 -0.1240542
0000b0 6b 4c 42 be 34 5f 96 3d 61 15 15 be 79 96 d8 bc
       -0.18974464 0.07342377 -0.14558937 -0.026438938
0000c0 0c 56 00 3b 78 d9 8a 3d 97 f7 1a be 2f e1 45 3e
       0.0019582538 0.0677976 -0.1513351 0.19324182
0000d0 cb 12 ae bd 72 b9 aa 3c 39 2d 2a be fe 35 19 be
       -0.08499678 0.02084038 -0.16618814 -0.14962003
0000e0 0a 1d 10 be 34 98 36 be f1 c1 20 3d 28 69 88 bd
       -0.14073578 -0.17831498 0.039247457 -0.06660682
0000f0 58 d1 92 3d d7 c1 b5 3d de 75 37 be fa 5e 0c be
       0.071688354 0.08874863 -0.17916057 -0.13708106
000100 53 16 ec 3d 32 b1 f8 bb 84 61 ca bd 28 61 40 3d
       0.115276955 -0.0075894827 -0.09881881 0.046967655
000110 be 8c 57 bd 54 85 83 3d d7 89 1f bd 91 fa 71 bd
       -0.052624457 0.06421915 -0.038949814 -0.05907685
000120 21 c5 fe 3d b3 4d 0f 3d 46 78 b7 bd 12 bd 24 3d
       0.12439943 0.03498621 -0.08958487 0.040219374
000130 3d 97 bd 3d 76 ae 1f 3d d0 d9 87 3b 2d 02 38 3e
       0.09257362 0.03898474 0.0041458383 0.1796958
000140 d7 95 19 be d3 42 bd 3d 2b 1f 31 3e 38 1a e5 3c
       -0.14998566 0.09241261 0.17297046 0.027966604
000150 5a ae 97 bd ce 0c 44 bd c1 a5 4c 3e 44 d5 87 3b
       -0.07406302 -0.047863774 0.19985105 0.0041452963
000160 80 20 81 bd 99 95 c7 3c 4c 6e ef bd cc 55 b0 3d
       -0.06305027 0.024363326 -0.11690959 0.086101145
000170 f5 a5 36 be a7 d4 54 bd 64 f6 12 be 60 1f dc bd
       -0.17836745 -0.051960614 -0.14351803 -0.10748172
000180 cb cf 53 3e f9 35 bf bc 0e 72 f1 bd 21 ff 4a be
       0.20684735 -0.023341166 -0.11789332 -0.19823886
000190 9d 74 22 3e 8a a5 45 be d5 e1 35 3c 6d ab ee bd
       0.15864797 -0.1930143 0.011101206 -0.116537906
0001a0 32 ee 26 be 76 90 6d 3b e5 bf 1c 3e 64 77 09 3e
       -0.16301802 0.0036249436 0.15307577 0.1342445
0001b0 26 aa 96 3b b4 31 23 be 42 f3 07 3e 87 d4 78 3d
       0.00459792 -0.15936929 0.13276389 0.060749557
0001c0 da 1f 14 3e eb 08 a7 bd 03 7e 5f 3e d1 34 96 bc
       0.14465275 -0.08155998 0.21825413 -0.018335732
0001d0 7c e0 f5 3d 52 e6 96 bd de 05 9e 3d fb 32 5c bd
       0.120057076 -0.07368149 0.07715963 -0.053759556
0001e0 00 1e de 3d 11 7c 07 3e cc f4 72 3d ff 5a 6e 3d
       0.10845566 0.13230921 0.059315488 0.05819225
0001f0 39 69 16 be 13 c4 54 3d 62 1e b5 bd 3b b2 40 3e
       -0.14688577 0.051944803 -0.08843686 0.1881799
000200 26 61 b9 3d 49 42 6e be bc 84 b4 bd fa 21 0d 3d
       0.09051733 -0.23267473 -0.088143796 0.03445623
000210 34 10 6a be 6f 5a 20 bd 04 55 44 3c b3 86 bc bc
       -0.22857744 -0.039148744 0.01198316 -0.023013448
000220 78 bc 93 3d ab 24 42 3e 69 0b ad 3d cb 74 e2 3d
       0.07213682 0.189593 0.08449442 0.11057433
000230 1d e3 60 3e 42 29 02 bd 2e 5a 59 3e 68 59 04 be
       0.21961637 -0.031777628 0.21225807 -0.12924731
000240 58 35 49 be 38 2c 37 be 0f 92 81 3d 6f 94 23 be
       -0.19649255 -0.17887962 0.063266866 -0.15974592
000250 ab 3a 4d 3e ab 5e 50 bd 8c f9 32 3e a1 0d 26 3e
       0.20041911 -0.050871532 0.17478007 0.16216137
000260 0f e4 31 3e 4b 0a 0e bd 91 b1 fd 3c c1 2f 19 bd
       0.17372154 -0.034677785 0.03096846 -0.037399057
000270 29 3a 2d 3d ad b3 03 3d 98 0b 33 3d 64 3f 61 be
       0.042291794 0.032153774 0.04371223 -0.21996838
000280 46 6c 46 bc ea 4d f4 bd 41 e8 80 3d c5 25 b1 bd
       -0.012110775 -0.119289234 0.06294299 -0.08649782
000290 b1 d2 c0 3d 17 15 d8 3d cd 41 1b bd 80 e5 5e be
       0.09415186 0.105508976 -0.03790455 -0.21767235
0002a0 36 39 e8 bd d7 da 11 3d 5a 7f e1 3d 1e e5 1d bb
       -0.11339037 0.035609093 0.110106185 -0.0024092863
0002b0 ae b1 58 3e 09 01 9a bc 3f 04 9a 3d 66 4f 3e 3d
       0.2116153 -0.018799322 0.07520341 0.04646244
0002c0 d4 57 dc 3d 9f 58 3b 3d 2e 43 16 3e 52 26 7d 3e
       0.107589394 0.045738813 0.14674065 0.2472165
0002d0 d4 b9 15 bd f3 b1 8b 3d a2 28 06 3e 79 c9 f9 3d
       -0.036554173 0.068210505 0.13101438 0.12196631
0002e0 d3 48 27 3e 5a 59 13 3e 9f 13 7d 3d 04 1a 92 3c
       0.16336374 0.14389554 0.06178629 0.01783467
0002f0 a5 e9 20 be aa 0e 63 3d 97 26 ef bd e1 ca 04 be
       -0.15714128 0.055433907 -0.11677282 -0.12968017
000300 2c f4 52 be e0 be 9c bc b9 b6 03 3e 49 48 e3 3b
       -0.20600957 -0.019133985 0.12862672 0.0069361073
000310 9c 11 8f 3d c1 3f 4b 3e c7 1e 7a 3e a7 84 41 3e
       0.069857806 0.19848539 0.24425803 0.18898259
000320 d6 ee a7 3d a2 19 9d 3d d5 7a 01 be 65 22 69 3d
       0.08199851 0.07670905 -0.12644513 0.056917567
000330 d2 2f f4 bd 22 41 9a bd a2 8d 97 3d a4 f2 90 bd
       -0.119231835 -0.07531954 0.07400061 -0.0707753
000340 2c 88 c8 bd 08 f2 43 be d3 de fe bd f5 1c 87 bc
       -0.09791598 -0.19135296 -0.12444844 -0.0164933
000350 d5 2f d8 3d 67 b0 8d be ff 88 e8 3c 52 30 92 bd
       0.10555998 -0.27673647 0.028385637 -0.071381226
000360 d3 9e 37 3c ad 4a 24 3e 1f 2b 01 be 0a d7 3a 3d
       0.0112073 0.16044112 -0.12614106 0.045615233
000370 67 26 54 be 4b 44 05 be 53 50 5d be 21 ca 16 3e
       -0.20717774 -0.13014333 -0.21612673 0.14725544
000380 15 cb d7 bd cb 24 44 bd 48 14 00 bd 0d 6f 04 3e
       -0.10536782 -0.04788665 -0.03126934 0.12932988
000390 84 12 3c 3d 4e d1 d6 bc 86 c9 ea bd 85 b8 98 3d
       0.045916095 -0.026222851 -0.11464219 0.07457069
0003a0 c8 78 60 bd 9f e7 c9 3c 4b c1 52 be 48 87 ca 3d
       -0.054802686 0.024646578 -0.20581548 0.09889084
0003b0 cc bd 93 bd b5 18 61 bc ba 1a 22 3e c3 75 af bd
       -0.07213935 -0.013738801 0.15830508 -0.08567383
0003c0 17 2e f2 bd 7f 9a d3 bd 9c 0c e8 bd 8b 81 14 be
       -0.11825197 -0.10332202 -0.1133053 -0.14502542
0003d0 d6 ae 49 bc c2 3d 85 3d 5e bf 29 be 13 32 b1 bd
       -0.012309751 0.0650592 -0.16576907 -0.08652129
0003e0 22 cc 78 be 79 a7 ec 3c 5f ce 19 be b7 ec d1 3d
       -0.2429662 0.028888451 -0.1502013 0.10250228
0003f0 f8 64 f4 3d b2 7e b4 3d b6 9e 0a be f1 bb 86 3d
       0.11933321 0.08813228 -0.13537106 0.06578816

model2.0.bias f4 [512]
000000 f1 08 2c bd ef 2a 3b bb ec 4d 0b be 63 53 a8 bc
       -0.042000715 -0.0028559526 -0.13603944 -0.020547574
000010 2e 5e 21 be 6a 3d f2 bd 7d a4 50 3d 77 b4 0a bd
       -0.15758583 -0.1182812 0.05093812 -0.03386351
000020 14 cb be 3d dd 5b 1d be 6a cf 06 3e dc 39 58 3e
       0.09316078 -0.15367074 0.1316506 0.21115822
000030 e9 fe 56 3d a2 27 23 be 64 77 1a 3e af 3d 30 bd
       0.052489195 -0.15933087 0.15084606 -0.043027576
000040 0f 5c 89 bc 60 d7 94 3d 56 6e da bd be ac d0 3d
       -0.01676753 0.07267642 -0.10665576 0.10189198
000050 2f bf 23 bc 3c e6 d8 3c 91 29 03 be ec ba 2c be
       -0.009994312 0.026476972 -0.12808825 -0.1686818
000060 49 d7 29 3b da 16 42 bb 54 00 b6 3c e9 f9 57 3e
       0.0025915673 -0.0029615671 0.022216953 0.21091427
000070 fd 7b 11 3e da 4c 65 be 19 a9 6a be c9 21 c8 bd
       0.14207454 -0.22392598 -0.22916068 -0.09772069
000080 05 58 16 be 10 dd e1 bd 93 c4 0c 3e 9b 30 2d bd
       -0.14682014 -0.110284925 0.13746862 -0.042282682
000090 ea bd f0 bd 96 44 86 bd ba ce e9 bd 0a fa 38 be
       -0.11754973 -0.065560505 -0.11416383 -0.18064132
0000a0 3c 1e 67 be 11 01 92 3d 80 f0 11 be e1 ef 18 bd
       -0.22570127 0.0712911 -0.142519 -0.03733814
0000b0 4f 31 0c 3e 27 47 0f be 68 ee 0e 3e 61 d0 26 3e
       0.13690685 -0.13991986 0.13958132 0.16290428
0000c0 63 c6 ee 3d 8b 79 03 be ee 55 e8 3d cd e7 ba 3d
       0.11658933 -0.12839334 0.11344515 0.09126244
0000d0 5c f3 1f 3e 20 69 4e 3d 0f bf 5f 3d 94 8b 41 be
       0.15620178 0.050393224 0.054625567 -0.18900901
0000e0 32 35 2e be 4f 2f 28 bd f5 bc c2 bb da fe 92 3d
       -0.1701248 -0.041060742 -0.0059429356 0.07177515
0000f0 a9 76 07 bd 69 f7 17 3e 42 bb 38 bc d9 2d 45 3e
       -0.033072148 0.14840473 -0.0112751145 0.1925577
000100 73 65 6d bd 03 ca 58 be 6e 0a 47 3d 2f c8 56 bd
       -0.057958078 -0.21170811 0.04859393 -0.052437004
000110 4a 82 90 bd 9f 92 0f 3e de 2e 4b be bf d0 21 be
       -0.07056101 0.14020775 -0.19842097 -0.15802287
000120 fa 0f 66 3e 33 44 a5 3d 5f 65 2d be be 3d f8 bd
       0.22467032 0.080696486 -0.16933201 -0.121211514
000130 29 54 b1 bc 6d 7e d8 bd 05 74 dc 3d ff a8 da 3a
       -0.021646576 -0.10570989 0.107643165 0.0016682445
000140 ad 59 c4 3d a9 07 94 bd 89 4c e2 bd 98 10 27 be
       0.09587417 -0.072280236 -0.11049754 -0.16314924
000150 5e a2 4b bd 6e fb fd bd 85 a2 15 3e ba f8 2e bd
       -0.049715392 -0.12401472 0.14612778 -0.042717673
000160 2f 89 bc 3d c5 1f db 3d b6 94 f9 ba 3e 0f ac bd
       0.09205853 0.10699419 -0.0019041512 -0.08401345
000170 8f 52 93 bd 93 ac 5c 3d 65 3d ce bd d6 3b 00 3d
       -0.07193481 0.053875517 -0.10070304 0.031307064
000180 90 a3 96 3d 0d 7c b6 3d 6c 76 68 bd 3a c8 19 be
       0.07355416 0.089103796 -0.05675356 -0.15017787
000190 21 43 4d bd 23 c9 5d 3d 42 2e e2 bd 1b 54 cd bd
       -0.050112847 0.054146897 -0.11043979 -0.100258075
0001a0 55 9c 90 3b bb 20 e5 3d c2 3f 99 3d b8 95 02 be
       0.0044131675 0.111878835 0.07482864 -0.12752426
0001b0 09 0a 66 3d c0 08 83 3d 1a 93 98 3c 08 3f 31 be
       0.056161914 0.06398153 0.018624831 -0.17309201
0001c0 1f de 73 3c 38 0f fd bd 47 c4 80 3d 47 8d 05 bc
       0.014884501 -0.12356418 0.06287437 -0.008151359
0001d0 52 6f 34 be 0b cf 15 bd ce 4b b0 bd 36 4c 0b 3e
       -0.1762059 -0.036574405 -0.086082086 0.13603291
0001e0 9c af fb 3c 8d 52 13 3d 11 57 2f bc 58 62 03 be
       0.030723386 0.0359674 -0.010701911 -0.12830484
0001f0 2a 33 21 3d cf 86 f5 3d 28 0f 88 bc 74 23 33 3e
       0.039355434 0.11988603 -0.01660879 0.17493993
000200 14 61 10 3e 9a 95 1b be 2d 11 74 bd eb 44 21 3d
       0.14099532 -0.15193787 -0.059586693 0.039372366
000210 94 4b 6b be 61 50 67 bd 78 96 3c 3e a8 41 b6 3d
       -0.2297805 -0.05647314 0.18416774 0.08899242
000220 cd a1 91 3d dc 92 4a bd 74 13 9b bd b7 12 a2 bd
       0.07110939 -0.049456462 -0.0757207 -0.07913726
000230 01 21 cf bd 03 d3 7e 3d f6 7d 10 3e e1 8c 9d 3d
       -0.10113717 0.062212955 0.1411055 0.07692886
000240 55 74 16 bd 5f 83 c1 bc 2b b8 05 be 70 be db 3d
       -0.036732037 -0.023622213 -0.13058536 0.107296824
000250 67 dd 94 3d 1f c2 39 3c 67 0d ee bd 33 7b eb bc
       0.07268792 0.011337786 -0.1162365 -0.02874527
000260 82 88 da bc 9c 46 d1 bc 1d 78 25 3e 75 a0 ae bd
       -0.02667642 -0.025546364 0.16159101 -0.085266985
000270 8b be cb 3c e8 7a 72 bd 32 89 20 3e bc 89 51 bc
       0.024871131 -0.059199244 0.15677336 -0.012789186
000280 ae ac 41 3e ff 93 c9 3c 36 d5 1b 3e dc db 0a 3e
       0.18913528 0.024606703 0.15218052 0.13560432
000290 fa 27 0e be 81 df 4b be be 01 40 be 21 8c 2e 3d
       -0.13882437 -0.19909479 -0.18750665 0.042614106
0002a0 84 33 16 3d 6c cb de 3c a0 3d b3 3d 7a 27 45 be
       0.036670223 0.027196608 0.087519884 -0.1925334
0002b0 89 20 d2 3d 9a 15 c1 3c f3 e4 ea 3d 22 a0 42 be
       0.10260112 0.02356987 0.1146945 -0.19006398
0002c0 00 12 f8 3d 4f 9b 03 3e 08 ce 4e bd 56 95 9b 3d
       0.12112808 0.12852214 -0.050489455 0.07596843
0002d0 e9 2e 2a bc 29 98 08 3e 5b d7 76 3d c9 70 06 3d
       -0.010387161 0.13339294 0.060263973 0.032822404
0002e0 db 0f 13 3d d6 13 b0 3b cb 30 30 be 56 95 8a 3c
       0.035903793 0.0053734584 -0.17206113 0.016916912
0002f0 73 7f 72 bd 6d bb b4 bd 5e 26 6a bd 36 bf e0 bb
       -0.059203576 -0.08824811 -0.057165496 -0.0068587316
000300 0e f2 b9 bd 8d 45 1b be f9 91 1a 3e a4 00 b3 3d
       -0.090793714 -0.1516325 0.15094747 0.087403566
000310 95 7f 16 3e 23 4a e2 3d 0c bf d0 bd fc 51 97 bd
       0.14697106 0.11049297 -0.10192689 -0.07388684
000320 7d 09 47 3e a2 35 2a be 6b b3 8a bc de 8f 37 be
       0.19437213 -0.16622022 -0.016931256 -0.17925975
000330 4d fd 84 be d9 c2 51 be f0 5c 59 be 99 65 82 bd
       -0.25974503 -0.20484485 -0.21226859 -0.063670345
000340 ee 7e db bd 47 73 1b be 97 98 60 be 31 f4 f4 3d
       -0.10717569 -0.15180694 -0.21933208 0.11960638
000350 80 77 0d be ac 91 a1 3c 70 fa c6 3d 76 03 85 3d
       -0.13815117 0.019722782 0.09715736 0.06494801
000360 5d d5 0e be e6 1f f3 3d c0 7a 68 3d a7 d4 3a be
       -0.13948579 0.118713185 0.05675769 -0.18245183
000370 fd bb af 3d 6f 77 15 be 57 83 41 3e 26 cc 2b be
       0.08580778 -0.14596342 0.18897758 -0.16777095
000380 ee 30 5b be 44 4a 6f 3e 34 2d 99 3d 71 6f 02 be
       -0.21405384 0.23368174 0.07479325 -0.12737824
000390 a9 74 2c bd e6 cc 8e bc 7d 2a d7 3d d6 be 2f be
       -0.042103443 -0.017431688 0.10506151 -0.17162642
0003a0 3f da 21 be 02 d5 f4 bd 16 9c fb bd 36 d0 14 be
       -0.1580591 -0.119546905 -0.122856304 -0.14532551
0003b0 7d 00 dc 3d 51 4c d5 3d f3 15 fc 3d a2 37 50 bc
       0.10742281 0.10414947 0.12308874 -0.012708576
0003c0 6d fd 43 bd 76 52 d3 3d d9 27 26 be 04 d6 20 bd
       -0.047849108 0.103184626 -0.16226138 -0.0392666
0003d0 a1 1c cf 3d 3b cc d9 3d 02 de 0d 3e 85 bf 4c bd
       0.101128824 0.10634657 0.1385422 -0.049987335
0003e0 ef 4b 60 bc d0 d8 6d 3d 71 05 ad 3c 6a 3e 17 be
       -0.013689979 0.058068097 0.021120759 -0.14769903
0003f0 ea a9 f1 ba 41 a1 30 be fb 07 66 bd c5 33 1e 3d
       -0.0018437479 -0.17249013 -0.056159955 0.03862359

model2.2.weight f4 [256, 512]
000000 58 34 2b bc 62 14 a3 bc c0 3d 96 bc 03 15 63 bd
       -0.010449491 -0.01990718 -0.018339992 -0.05543996
000010 63 cf d7 bc 32 30 2e 3d 95 71 bd bd 9a b1 64 bc
       -0.026344007 0.04252643 -0.0925018 -0.013958359
000020 31 81 0c bc 7b 14 b9 3d 50 c8 ba 3b 3c d6 04 3d
       -0.0085757235 0.090371095 0.0057001486 0.032430872
000030 de ec a5 bd 2a b8 5a bc 85 47 12 3d 88 d8 6a 3c
       -0.081018195 -0.013349572 0.035712738 0.014333852
000040 53 85 ae bd 11 5d 32 bc 55 1e 92 3c 12 58 ef 3d
       -0.08521523 -0.010886447 0.017836729 0.1168672
000050 91 28 49 3d 05 c7 ed bc f8 9d 84 3d 98 57 dd bc
       0.049110953 -0.029025564 0.06475443 -0.027019307
000060 29 85 82 bd 8c 63 e3 bb f0 69 bb bc 95 06 82 bb
       -0.063730545 -0.006939357 -0.022877663 -0.00396807
000070 b5 37 3c 3b 11 46 7d bd 31 00 a4 ba 77 43 9e b9
       0.0028719727 -0.0618344 -0.0012512264 -0.00030186374
000080 72 39 77 3d 57 4f 0c 3d a3 87 d5 bd 10 ad 00 3d
       0.06035752 0.034255352 -0.10426261 0.031415045
000090 09 fa 8f bd ad 4a a0 3b cf ab 05 3d f1 5b 16 3b
       -0.07030112 0.0048917145 0.032634553 0.0022942985
0000a0 f3 4f f4 bb 1b 92 57 3c 2a dd 69 bd f4 0e ce 39
       -0.0074558198 0.013157393 -0.057095684 0.00039302523
0000b0 ab 68 51 bd d3 94 57 bd 9e e9 40 bd c4 36 14 3d
       -0.05112521 -0.052632164 -0.047097795 0.03618504
0000c0 5a 55 3d bd c1 ac 7f bd 3f bb ec bc ce 4f 4a bd
       -0.046223976 -0.06242061 -0.02889788 -0.049392514
0000d0 7c 54 8d bd 2e 29 84 bc 78 6a 6f bc f3 6f b3 bd
       -0.0690088 -0.016132917 -0.0146127865 -0.08761587
0000e0 34 03 f9 bc a2 9d 10 3c 01 66 0e bd e1 99 d3 bc
       -0.030397035 0.008826645 -0.034765247 -0.025830211
0000f0 fc 72 c5 bc 42 84 5f bc 91 38 19 bc e0 25 10 bd
       -0.02410268 -0.013642373 -0.009351865 -0.03519237
000100 9a 25 77 bd 4d 74 a0 3b b5 11 d1 ba ec 11 40 3d
       -0.060338594 0.0048966766 -0.0015950712 0.04689209
000110 36 7e 27 bc 9d ee 1c 3c 08 07 6b bd 23 f5 24 bd
       -0.010222962 0.009578374 -0.057379752 -0.040272843
000120 e6 00 73 bd 15 76 6e bd c3 35 5d 3d 0a 2f b8 3b
       -0.05932703 -0.05821808 0.05400635 0.005620842
000130 87 b9 1d 3d 70 6a 0b bd 9e 07 71 bd 9a 00 41 3c
       0.03850701 -0.034037054 -0.058845155 0.011779929
000140 ed 58 a9 3c df e1 d1 bc 7c 5e e3 ba 8f c4 af 3c
       0.020672286 -0.025620399 -0.0017346884 0.021456031
000150 2b f3 e0 3c ab 0f c5 3b 86 35 3a bd 45 56 93 3d
       0.027459702 0.0060138307 -0.0454612 0.07194189
000160 a3 e7 3c bd f0 f7 14 3c 6f cb 36 3d d5 a7 c9 bd
       -0.046119343 0.009092316 0.044627603 -0.098464645
000170 3c d9 4d bd 12 c5 3b 3d d0 46 9c bd f2 ff e9 bc
       -0.050256 0.045842238 -0.07630694 -0.028564427
000180 97 9e 41 bd 26 ee fd 3c c1 12 23 bd b8 79 43 bd
       -0.047270384 0.030997347 -0.039812807 -0.047723502
000190 46 72 4b bd 46 bd 9f bb e8 97 bb bd ed 40 cd bc
       -0.049669527 -0.004874858 -0.09159833 -0.025055373
0001a0 11 9a 7a bc 1f c7 b1 3d 64 03 87 bc a4 fb 2a bd
       -0.015295521 0.086805575 -0.016481109 -0.04174389
0001b0 6e d7 49 3c 85 a9 16 bd 73 aa 22 bd 9a 87 53 bd
       0.012319429 -0.03678276 -0.039713334 -0.05164299
0001c0 da c7 14 3d 85 61 4b bd ab d3 5e 3c 62 cf 8c bd
       0.036323406 -0.04965355 0.01360027 -0.06875493
0001d0 8f fe 96 bd 2e 33 2c b9 b6 1a 0f 3d 2b 7d bb bd
       -0.07372772 -0.00016422264 0.034937583 -0.09154733
0001e0 bc c9 d4 3c 3d ef 05 bd 84 9d fe 3c a6 d3 bd bc
       0.0259751 -0.03269886 0.031080969 -0.02317221
0001f0 43 86 32 3d fa 97 88 3c 66 65 ff 3c 89 99 82 bc
       0.043585073 0.01667403 0.03117628 -0.015942352
000200 9f c7 6e 3c b6 fa 72 3d 2a 68 65 3d 1f 70 3a bc
       0.014573961 0.059321128 0.05600754 -0.011379271
000210 f1 04 e8 bc 29 60 0f 3d 70 d7 de bc 54 87 28 bd
       -0.028322669 0.035003815 -0.027202338 -0.041144684
000220 02 83 02 bd 4f f1 20 bd 3d 26 2f 3e 42 5f c4 bb
       -0.03186322 -0.03929263 0.1710443 -0.005992801
000230 28 89 4d bd 4d 84 1b bd 6e 1c 8e bc 41 9c a9 bc
       -0.05017963 -0.03796797 -0.01734754 -0.02070439
000240 80 9f 37 bc 9d 65 66 bd d6 68 c2 3c fb a0 8c bd
       -0.011207461 -0.05624925 0.02373163 -0.06866642
000250 67 cc 31 bd 60 2f df bb b8 ba 16 3d 51 5c bd bb
       -0.043407824 -0.0068110675 0.036799163 -0.0057788272
000260 fd 19 75 bd 8c 38 6f bd 73 3a 18 3b 23 8c 8b bd
       -0.059839237 -0.058403537 0.0023228198 -0.06813838
000270 06 d3 31 bd 40 c9 2d 3c 61 68 fe bb fb cc 0e 3c
       -0.04341414 0.010607064 -0.007763908 0.008715863
000280 94 49 96 bd 28 23 8e bd b8 02 78 3d f8 85 a5 bc
       -0.07338253 -0.06940299 0.060549468 -0.020205483
000290 0c 91 fc 3c 6d ed 85 3a b0 7e 5d bd 3b c9 68 bd
       0.030830882 0.0010217853 -0.054075897 -0.056832533
0002a0 e4 bb b9 3d 59 23 cf bd 2f 7a 2a 3b 02 43 d2 3c
       0.090690404 -0.10114164 0.0026012769 0.025666717
0002b0 07 58 a3 bc e2 24 0a 3d 45 24 b5 bd ae b8 aa 3d
       -0.019939436 0.03372658 -0.088448085 0.08336006
0002c0 3c f5 b0 3d ce 20 7f bd 55 75 cc 3c 1b b2 fd 3c
       0.08640525 -0.062287144 0.024958292 0.030968716
0002d0 d5 fc b9 bd 28 a1 fb 3b c5 45 90 bd 24 66 76 ba
       -0.09081427 0.0076791234 -0.070445575 -0.00093993754
0002e0 01 ad 32 3c ec 46 7b bd bf 62 1c bc 07 a7 33 3d
       0.010905505 -0.061346933 -0.009545027 0.04386046
0002f0 88 3d 47 bd ee e3 d6 bc 22 0f 09 bd 11 6a 12 3d
       -0.048642665 -0.026231732 -0.033461697 0.035745684
000300 b5 84 0a bd 10 a8 69 bd 98 cd c3 ba 08 4e b2 bd
       -0.033817966 -0.057045043 -0.0014938591 -0.087062895
000310 68 1c 9d bc 52 d5 da bc 2d c6 62 bd 16 dd 03 bd
       -0.019178584 -0.026713047 -0.055364776 -0.032193266
000320 2d 61 84 bd 59 f3 bb bb b7 2f 18 3b bc aa d6 bb
       -0.06463847 -0.0057357964 0.00232218 -0.006551115
000330 4c ee 2e 3d 0d ad b2 bc 37 50 98 bb bd ed 9f bd
       0.042707726 -0.021811033 -0.004648234 -0.07809017
000340 25 1a 2e 3d e7 84 16 3c 5e 07 43 3c 9c 1c cf bd
       0.042505402 0.00918696 0.011903612 -0.10112879
000350 1f b1 53 bc c1 80 51 bd 63 e7 35 ba fc 5e b4 bc
       -0.012920647 -0.05114818 -0.00069390814 -0.022017948
000360 3b b1 0d 3d f0 dd 32 3c 01 ea fa bc ae eb 4e bd
       0.03459285 0.010917172 -0.03062916 -0.05051773
000370 d6 ff 6a bd a4 82 a9 3d 73 70 ea bc 4b 08 9c bc
       -0.05737289 0.08276871 -0.028618073 -0.019046923
000380 8f d3 91 bd 6c fa 16 bd 15 0b 28 3d 93 0d 7a 3c
       -0.0712043 -0.036859915 0.041026194 0.015262025
000390 48 d0 9e 3c 99 3f 16 3c 6a 7c 7e bc c5 6f e5 3d
       0.019386426 0.009170436 -0.015532592 0.11202959
0003a0 7e 3f 47 bb ba 0f d2 bb f5 74 ce 3b c8 66 5c bd
       -0.0030402835 -0.006410566 0.0063005635 -0.053808957
0003b0 bc 93 62 bd 58 bb 2d bd e3 6f dc bc 37 0d 08 bd
       -0.05531667 -0.042414993 -0.02690882 -0.033215728
0003c0 90 70 90 bc 91 8d d6 bb f8 70 80 3b c8 61 2e bd
       -0.017631799 -0.0065476377 0.003919717 -0.04257372
0003d0 56 56 8e 3c 02 74 a7 3b e1 25 31 bc 3c 26 3f bd
       0.017375153 0.0051102648 -0.010812254 -0.046667323
0003e0 96 03 37 bc 5c dd e3 bc 96 60 05 3d 77 7a ff bc
       -0.011170289 -0.027815513 0.032562815 -0.031186325
0003f0 66 ce 07 3c 72 06 43 bd 11 64 26 3c 1c 69 1c bd
       0.008288955 -0.04761357 0.010155694 -0.038186178

model2.2.bias f4 [256]
000000 a4 35 aa bd 59 74 89 bc 60 28 51 bd a4 68 69 bb
       -0.083110124 -0.016779112 -0.051063895 -0.003561535
000010 03 8c ca 3c f8 e5 8d 3c 33 6f 92 3c 93 c3 08 bd
       0.024724966 0.017321572 0.01787529 -0.03338964
000020 00 f0 ee bb 79 5a 82 bc 35 3a 03 3d 29 db 6b 3c
       -0.007291794 -0.015912281 0.032037932 0.014395514
000030 45 63 88 bd 6f 80 e0 3c 86 0f 53 3c b4 bd f5 3b
       -0.06659559 0.027404992 0.012882119 0.007499421
000040 c6 f3 7d 3c a8 b3 bc 3c 16 86 d2 bc bf 17 04 bd
       0.015500015 0.023034886 -0.025698703 -0.03224921
000050 e7 27 8d bc 1e f7 27 bd d5 7b 15 3c ef b9 c3 bc
       -0.017230941 -0.041007154 0.009123762 -0.023892371
000060 af 47 df 37 01 e8 14 bd cf 3c 84 3c 66 87 89 bc
       2.6617052e-05 -0.03635407 0.016142277 -0.016788196
000070 82 e2 a9 3c a5 af b8 3b ef 8b 18 bd ef 96 4c 3c
       0.02073789 0.005636173 -0.037242826 0.012487157
000080 76 cc 86 bd 26 3f 27 bd c7 91 47 3d 66 f4 7d bc
       -0.065819666 -0.040831707 0.04872301 -0.015500164
000090 fe 13 37 bd f2 02 1a 39 a7 3f 28 3d 01 87 26 bd
       -0.0446968 0.00014687682 0.04107633 -0.040656094
0000a0 78 cc 75 bd 56 32 9a 3c 36 38 e6 bc a6 6f 2e bc
       -0.06000945 0.01882283 -0.028102975 -0.010646736
0000b0 2d 6e 28 bd 01 a9 52 3c 1e 52 15 3d 1a 8a da 3b
       -0.041120697 0.0128576765 0.036455266 0.006669295
0000c0 6f be f2 bb d8 3a bc ba 2c 92 50 bd bf 19 40 bd
       -0.0074079554 -0.0014360799 -0.05092065 -0.046899553
0000d0 a4 0b 58 3c fa f7 3a bd 80 d2 37 bc ca ec 39 3c
       0.013186369 -0.045646645 -0.011219621 0.011347959
0000e0 96 8f 06 bc 64 62 97 bc 24 31 a7 3c 63 92 8d 3c
       -0.0082129445 -0.018479533 0.020409174 0.017281717
0000f0 8c e5 e2 bc 29 5f ba 3c f4 ec 00 bd 3e 35 6f 3d
       -0.027697347 0.022750454 -0.031475976 0.058400385
000100 b1 36 ce bc 14 43 6d bc d4 9c e6 3c a3 c5 1b bd
       -0.025172563 -0.014481325 0.028150953 -0.038030278
000110 04 34 f6 3c 4f 7d 0d bd e2 28 dc bc 78 6b 7a bd
       0.0300541 -0.03454333 -0.026874963 -0.061137646
000120 5d 19 11 3d ca 74 b1 bc e9 f6 5f bc e7 3c fe bc
       0.03542458 -0.021662135 -0.013669708 -0.0310349
000130 4f 8c 07 3d 25 c9 87 3c 6f bf b4 bb 3b 0e 5c bd
       0.033092793 0.016575405 -0.0055159847 -0.05372451
000140 b1 4a 80 bc b0 86 9e ba 99 f2 72 3b 55 26 02 3d
       -0.015660616 -0.0012094583 0.003707087 0.031774838
000150 6f b6 47 3c 23 97 4b bc ea 55 96 3b a1 1d 21 bd
       0.012189492 -0.0124261705 0.0045878785 -0.039334897
000160 1f 00 60 bc 01 e0 44 bd 2d 78 9d 3c 8b c2 88 3b
       -0.013671904 -0.04806519 0.019222343 0.004173582
000170 d9 ce b4 bc 8f 57 f6 ba f8 8d bb bc 8d 4c 46 bd
       -0.022071289 -0.0018794405 -0.022894844 -0.04841285
000180 71 45 e3 3b 7d 1b 46 3c 5d 54 d2 bc 44 09 13 3c
       0.0069357683 0.012091515 -0.025674993 0.008974377
000190 d9 ec 6f 3d a3 2a fa 3a 3b f3 0a bb e1 cd 56 3c
       0.058575485 0.0019086193 -0.0021202106 0.013110609
0001a0 13 3f 80 bc 62 3a 42 bc a4 8d 88 ba 1a a1 b5 3c
       -0.015655076 -0.01185474 -0.0010418189 0.022171546
0001b0 9a 33 14 bd be bc 3b bc 6a e5 df 3c f9 52 af 3b
       -0.036182024 -0.011458574 0.027331073 0.0053504673
0001c0 8c f7 61 3c 1f 55 3b bc 61 d6 8c bc f4 00 22 bc
       0.01379193 -0.011433869 -0.017192068 -0.009887923
0001d0 15 aa 0d 3c 02 c8 7c bc 61 7e fa bc d8 d6 e8 3c
       0.008646508 -0.015428545 -0.03057784 0.028422758
0001e0 ab 2b 67 bc 8c f9 92 3d 01 ec 57 bd 78 17 0b 3a
       -0.014109532 0.071765035 -0.052715305 0.00053059263
0001f0 dd 80 07 bd 3d 7d 84 3c 83 5c cd bc 32 4f 34 bd
       -0.033081878 0.016173 -0.025068527 -0.04402084
000200 22 80 59 bb ce fd 84 bc 6e 14 58 3c 08 0b d4 3a
       -0.0033187945 -0.016234305 0.013188465 0.0016177604
000210 c6 cc 66 bd 24 b6 24 bd a5 76 2f bd 9b 75 3d 3a
       -0.05634763 -0.040212765 -0.042837758 0.00072273024
000220 e2 77 67 bd 1c f7 02 3b 6e f3 6a bc 19 9c ce 3c
       -0.056510814 0.0019983714 -0.014340265 0.025220918
000230 75 dd cd 3c f1 52 a3 3c 8f b7 52 bd a0 5d 2b bd
       0.025130013 0.01993701 -0.051444586 -0.041837335
000240 24 8e 98 bb 1d f8 51 bc 42 11 f9 bb 3e 87 7d 39
       -0.0046556164 -0.0128155025 -0.0076009342 0.00024178342
000250 6d 1e 1a bd b2 88 a2 bc 07 56 45 bd 89 67 3c 3d
       -0.037626673 -0.019840572 -0.048177745 0.045997176
000260 ec 2f 9d bc ec bf 8e bc 67 bf 03 bd 66 be 2b bc
       -0.01918789 -0.0174255 -0.032164957 -0.010482406
000270 58 da d4 3c 4a 85 5b 3c 36 5c 97 bc 12 80 ec 3b
       0.02598302 0.013398478 -0.018476587 0.0072174156
000280 ed 79 bb bc 7c 8b f7 bc 4e fa 0f bd db 3e 19 bb
       -0.022885287 -0.030217879 -0.03515082 -0.0023383412
000290 1d 10 21 bc 7d d9 4a bc e7 c7 5f 3b b7 47 88 3c
       -0.009830502 -0.012380955 0.003414625 0.016635759
0002a0 2b b5 f0 3c eb af 20 bb f5 29 56 bb 87 15 9b bb
       0.029383263 -0.0024518918 -0.0032678817 -0.004732791
0002b0 ae 77 56 3d 79 8d a5 3c f5 2f 0a 3d 7c 45 2d bd
       0.05236023 0.020209061 0.03373714 -0.042302594
0002c0 af 8b 4e 3d c9 21 8f ba 6d bd a1 bc 85 12 de 3c
       0.05042618 -0.0010920103 -0.019743646 0.02710844
0002d0 3d 0e f0 3c b5 53 a6 3c 2e 63 19 bd d8 f4 1d bd
       0.029303664 0.020303586 -0.0374481 -0.03856358
0002e0 4a 36 b7 bb 38 7f 61 bd 58 53 e8 bc 34 63 3f 3c
       -0.0055911886 -0.055052966 -0.028360054 0.011681367
0002f0 2b 8e 5a bd 49 a3 a9 3b 67 ce b0 b9 da e1 4f 3c
       -0.05335824 0.005176936 -0.00033723118 0.012688125
000300 f4 c1 ab 3c 2c 5e c7 3b 8f 2f 0d 3d b2 81 fd 3c
       0.020966507 0.006084224 0.034469184 0.030945633
000310 26 bd 30 bc 36 89 cd bc 27 68 37 3b 06 8d bf bc
       -0.010787284 -0.025089841 0.0027985664 -0.023382675
000320 30 d3 c1 3c 80 16 ee 3b a5 2e 12 bd 1a dc 18 3d
       0.023660272 0.007265866 -0.035689015 0.03731928
000330 41 4a d0 ba 2f 96 2c bd b0 07 10 3b ef b4 15 bb
       -0.001589127 -0.042135414 0.0021977238 -0.002284344
000340 79 42 04 bc db f3 74 3c f6 3f 5b 3a 49 29 24 bc
       -0.008072489 0.014950718 0.0008363718 -0.010019609
000350 64 46 09 bd ce 14 12 bd 49 e7 f3 3b 3e ca a6 bc
       -0.033514395 -0.035664372 0.007443343 -0.020360108
000360 ad 3c f0 bc ea 26 76 3c e8 88 3f bd 72 25 57 bc
       -0.029325807 0.015023926 -0.046761423 -0.013131486
000370 db 68 64 bb a5 b1 08 bd 5d 05 a0 bc d9 71 97 3d
       -0.0034852538 -0.03337254 -0.019533807 0.073947616
000380 57 13 68 bd 7c 6a b6 bc 1e 79 3e 3d 07 b9 ae bd
       -0.05665907 -0.022267573 0.046502225 -0.08531385
000390 70 eb 0f bb 2a 3a f4 3c f4 a9 f1 bc 32 5b 9b bc
       -0.00219604 0.029812891 -0.029499985 -0.018964384
0003a0 20 98 12 3d 1c b2 c2 bc f0 ea b8 bc dd 22 01 bd
       0.03578961 -0.02376657 -0.022572964 -0.03152739
0003b0 4c f4 01 3b 0a 1a 54 bd 49 22 3d bc ce db a1 3c
       0.001982945 -0.051782645 -0.011543819 0.019758131
0003c0 08 9e 65 bd 9e 0b f5 bb 24 c1 84 bd ec 08 91 bc
       -0.056058913 -0.0074781915 -0.06482151 -0.01770445
0003d0 a7 c5 69 bd 88 31 d6 bc 49 e3 fd ba 2b cc 57 bb
       -0.05707326 -0.026146665 -0.0019370104 -0.003292809
0003e0 94 55 8e bc 3e 00 3e 3c 0e 26 f0 bb 98 36 50 bd
       -0.017374791 0.011596737 -0.007328755 -0.050833315
0003f0 e0 7e 57 3c 59 bf a1 3c 0f cc 56 bb 76 62 1c bc
       0.013152808 0.019744562 -0.0032775437 -0.009544959

model2.4.weight f4 [64, 256]
000000 5d 90 8d 3d 99 5e c7 bc 20 55 ff 3d 12 aa 83 3d
       0.06912301 -0.0243371 0.12467408 0.06428923
000010 75 52 80 3c a4 35 57 3d 79 27 34 3c 28 d2 8e 3c
       0.015664319 0.05254139 0.010995739 0.017434195
000020 14 8d 79 bd 7a 43 75 3d 37 18 15 3d 7d 97 1d 3d
       -0.06092556 0.059878804 0.036400046 0.03847455
000030 98 a3 4c 3d 40 73 87 bc 68 04 0d bd 8e 82 c4 bc
       0.049960703 -0.016534448 -0.03442803 -0.023988035
000040 bf 78 c5 bc 6d 95 35 bb d3 f8 ef bb b6 d4 b0 3d
       -0.024105428 -0.0027707473 -0.0073233633 0.086343214
000050 67 5e 32 3c 4f e9 d2 3b 18 69 ee bc a3 a7 03 3c
       0.010886765 0.006436504 -0.029102847 0.008035573
000060 70 05 8d bc 5d d2 a4 bb 54 9a 83 3d d5 90 f2 3c
       -0.017214507 -0.00502996 0.0642592 0.029610077
000070 95 32 20 3d ac 04 48 3d 7f 4e 42 3d 05 46 44 3c
       0.03911074 0.04883258 0.04743814 0.011979585
000080 f5 74 d4 3d 82 66 d0 bc be 23 86 3d f5 82 ba 3d
       0.1037387 -0.025439505 0.06549786 0.09107009
000090 d8 34 94 3c a5 06 40 bd 8a c2 af bc 13 53 95 bd
       0.018091604 -0.046881337 -0.021455068 -0.07291236
0000a0 1e 5c f3 3a 83 c4 5e 3d e6 3f 88 3d 0f 63 93 bc
       0.0018566882 0.054386627 0.06652813 -0.01799157
0000b0 19 8d b6 bc 68 e2 07 bd 5f 7c 64 bd 3e 88 00 b9
       -0.022284077 -0.033174902 -0.055782672 -0.00012257785
0000c0 77 07 b5 3c 5f 65 03 3d 20 a6 08 bc c0 6f ad 3b
       0.022098286 0.032079097 -0.008340389 0.0052928627
0000d0 ef 3e 5d 3c dd 2b bb 3c b7 b1 8a 3d a0 01 c0 bb
       0.013503774 0.022848064 0.06772178 -0.0058595687
0000e0 4a a2 3b 3d 79 c9 35 3d e3 6d be 3c 74 b7 c4 bc
       0.045809068 0.044381592 0.023245757 -0.024013259
0000f0 9d 76 65 3d 00 eb 35 3c 9a e1 6d bd 6f 8a b6 3d
       0.05602132 0.011103392 -0.05807648 0.08913123
000100 9f 89 c0 3c c0 ad d0 3b 41 5a cc bd ac 81 d8 3d
       0.023503123 0.006368369 -0.09978152 0.10571608
000110 c8 e6 56 bd 73 db 19 bd f0 0d 71 3d d3 a9 45 3d
       -0.052466184 -0.0375628 0.058851182 0.04825766
000120 90 2f ba 3b 2d 97 5c bd 10 38 fa bb 45 76 86 bb
       0.0056819394 -0.05385511 -0.0076360777 -0.0041034543
000130 b7 eb c0 3b e0 a3 0c be b4 7c 00 bd 02 8c 08 bd
       0.0058874744 -0.13734388 -0.031368926 -0.033336647
000140 0e d9 0d 3d 36 d7 21 3d c0 ce b7 bd 96 04 21 3d
       0.034630828 0.03951188 -0.08974981 0.039311014
000150 67 d4 79 3d 50 2d 6e bc 05 80 60 bb 5e 49 77 bc
       0.06099358 -0.0145371705 -0.0034255993 -0.015093176
000160 44 77 8c bc d5 0a 44 3d c4 43 46 bd 78 4b 91 bc
       -0.017146714 0.047861893 -0.04840447 -0.017736182
000170 d3 56 86 bd 8b 7c 7e bd 9a d1 b4 3d 64 6d b2 3c
       -0.06559529 -0.062130492 0.08829041 0.021780677
000180 20 3d cb 3c ac a5 82 3d 0a 53 d4 3c 15 87 b7 3d
       0.02480942 0.06379256 0.025918502 0.08961312
000190 b6 a2 21 3d d0 d2 96 bc 4e 74 1d bb 43 5b c1 3b
       0.039461814 -0.01841107 -0.0024025622 0.005900772
0001a0 51 94 77 3d 0a c8 43 3d 2a 57 18 3d fa 83 49 bd
       0.06044418 0.047798194 0.0371925 -0.04919813
0001b0 6a 56 2b 3d 67 97 e3 bc 30 49 a3 bb d5 7c b7 3c
       0.041830458 -0.027782155 -0.00498309 0.022398392
0001c0 08 b4 1a bd 7d 22 89 bc 54 79 1d bc bc 03 0c 3d
       -0.037769347 -0.016740078 -0.009611446 0.03418325
0001d0 0f c8 ea 3c 08 bf 0d 3d 27 4a 4f bb 10 91 cc 3c
       0.028659848 0.03460601 -0.0031629892 0.024971515
0001e0 d5 ff 57 bd d3 15 44 3d a4 4f de 3c 32 2d 8c 3d
       -0.052734215 0.047872376 0.027137585 0.06844558
0001f0 f9 e8 73 bd a2 29 07 bd d3 ac 4e bc a7 fa 54 3d
       -0.059548352 -0.03299869 -0.012614447 0.051996853
000200 e9 d0 e8 bc 9c 0f ae bc 50 64 71 bc a0 d0 bc 3d
       -0.028419929 -0.021247678 -0.014733389 0.092194796
000210 c8 c0 8d 3d ea 52 dd 3d 23 0f 5a 3d 4d 45 e0 3c
       0.06921536 0.1080683 0.05323709 0.027376795
000220 3c 69 8d 3c 1a dd 1b 3c 9f 6c 25 3b cc 51 58 bd
       0.017262094 0.009513164 0.0025241745 -0.052812383
000230 b0 e3 2b 3d e3 06 b3 3b c7 7c 8a 3d 66 aa 2f 3d
       0.041965187 0.0054634674 0.06762081 0.042887114
000240 3f 13 04 3d 97 d3 53 3d e6 fe dc bc e0 e6 d9 3c
       0.032244917 0.05171546 -0.026977014 0.026599348
000250 8b da 40 bd fa f2 47 3d 56 e6 51 3d ff 42 9d 3d
       -0.04708342 0.048815705 0.051245056 0.07678794
000260 49 29 8d 3d 82 30 61 3d fa 9e d7 3d 80 35 6d bc
       0.0689264 0.0549779 0.10528369 -0.014478087
000270 65 9f 8f 3c 10 f2 74 bd c4 7d f8 3c 4c 13 f1 bb
       0.01753206 -0.05980116 0.030333407 -0.0073570367
000280 96 c7 50 3c 2c 0d ab 3d 4c cf 9b 3c c8 1d 48 3d
       0.0127428975 0.08352122 0.019019745 0.048856527
000290 bc 07 df 3c f0 6a 3b 3d 28 39 37 3c 00 40 ec 3a
       0.027225368 0.04575628 0.011183061 0.0018024445
0002a0 c7 24 06 3e cd 53 bc 3d 20 bd 84 3b b0 c7 5c 3d
       0.13099967 0.09195671 0.004050866 0.053901374
0002b0 3a fd 86 bc 20 f0 a9 bc 01 66 44 3d b9 8a 6e 3d
       -0.01647817 -0.020744383 0.04794884 0.058237765
0002c0 35 4c 37 3d 76 6a a4 3b a0 22 07 3b 11 80 36 bd
       0.04475041 0.005017574 0.0020620003 -0.044555727
0002d0 a0 31 9c bc 76 64 5d 3d 94 94 a8 3d 53 3a 5a bd
       -0.019066632 0.054050885 0.08231464 -0.05327828
0002e0 4d 3d 05 bd fc 18 c0 bb a0 23 79 bc ec 23 06 3d
       -0.032529164 -0.0058623534 -0.015206248 0.0327491
0002f0 cd 36 89 3d dc c6 d6 3c a0 63 1c 3d 17 ec 1d bc
       0.066999055 0.02621787 0.038180947 -0.009638808
000300 d8 a2 c6 3b b6 6e 1c 3c 78 2f b5 3c b9 db cf 3c
       0.006061893 0.00954788 0.022117361 0.025373327
000310 62 e2 28 3d 97 e4 0e 3d 08 02 32 bd 18 c5 4d bb
       0.04123152 0.03488597 -0.04345897 -0.0031397995
000320 4c 62 c4 3c aa 45 45 bd cc 10 9f 3c 93 a4 b8 3c
       0.023972653 -0.04816214 0.019417189 0.022539413
000330 8b 2c 04 3d 3f 82 97 3d 73 82 1f 3d 63 2f 8f 3c
       0.032269042 0.07397889 0.038942765 0.01747865
000340 81 f4 0b be 2e 14 42 bd e2 1d d2 3c 62 9f af bb
       -0.1366749 -0.047382526 0.025649015 -0.005359576
000350 8f f8 a0 3d a1 ef 9f bc 06 8d 62 bd 85 81 c0 bc
       0.07859909 -0.019523444 -0.05531027 -0.02349926
000360 12 13 d9 bc 0c 4e 76 3d a8 17 59 bc 38 cd 76 3d
       -0.026498351 0.060133025 -0.013250269 0.060254306
000370 e3 67 49 bc d1 5f a2 bd 58 ce 44 3d bb 16 ff bb
       -0.012292835 -0.07928432 0.048048347 -0.007784692
000380 51 6d 7d 39 54 9a 00 3e 7b af 0a 3c 73 87 ba 3b
       0.00024168684 0.12558872 0.008464689 0.0056924163
000390 e4 24 5d 3c ed 46 86 3d e8 6b 4c 3c 70 e0 85 3d
       0.013497565 0.06556497 0.012476899 0.06536949
0003a0 2f f9 b5 3d 66 fa 01 3d 4f b5 4a bc d3 ea cb 3d
       0.088854186 0.03173294 -0.012372329 0.099568985
0003b0 8c 5e 53 bd 46 f6 54 3d 62 cf ec bc 49 a1 3e bd
       -0.05160384 0.051992677 -0.028907482 -0.046540532
0003c0 16 ef 17 3d c0 ab 79 3c 92 bd 0d bc 3e 75 97 bc
       0.037093244 0.015238702 -0.008651154 -0.018488523
0003d0 59 59 01 bc 83 20 85 bd 4a b8 08 3d 7e 58 8d bd
       -0.007894837 -0.06500342 0.033378877 -0.06901644
0003e0 17 f5 02 3c 0c 32 0f bd 91 d7 46 bd a4 57 f2 3c
       0.007993004 -0.034959838 -0.048545424 0.029582806
0003f0 8c 86 0d 3d 6e 66 31 3d 26 48 43 bd f3 4e 18 bb
       0.034552142 0.043310575 -0.047676228 -0.0023240417

model2.4.bias f4 [64]
000000 57 3b 10 3c a2 09 a7 bc 50 eb 05 3d e1 eb ed ba
       0.00880321 -0.020390335 0.032695115 -0.0018151962
000010 13 93 9b bc b4 aa 56 bd e2 dd c6 bc 68 cf 8a bd
       -0.018991029 -0.05240889 -0.024275724 -0.06777841
000020 b3 8d 93 3c ea 0f 0e bd 39 c0 25 3c de 97 b3 3c
       0.018011903 -0.034683146 0.01011663 0.021923002
000030 85 25 b8 3b 13 f0 89 3c 17 19 b9 3b a1 6b 38 bd
       0.005619707 0.01683811 0.005648743 -0.045024518
000040 6b 37 c1 3d 2f 48 70 3b 6c f9 33 bb ad 72 6b bd
       0.09434398 0.0036664119 -0.00274619 -0.05748241
000050 02 d1 1c bd 59 e5 c8 bc c8 40 b2 bd 7a d2 8d b9
       -0.038285263 -0.024523424 -0.08703762 -0.00027050433
000060 b9 9c 49 3d 34 8f 47 bd 89 08 da 3b 86 f4 19 bc
       0.049221728 -0.048720554 0.0066538495 -0.009396678
000070 a8 19 90 3d 9b 9e 0c 3d 71 5d 33 bd d5 93 a9 3c
       0.070361435 0.034330945 -0.043790285 0.020700375
000080 99 de 44 bd 27 bd 85 3b 45 62 76 3d 16 19 10 bd
       -0.04806385 0.0040813866 0.06015231 -0.035180174
000090 98 56 6e 3d dc 45 a0 3d a1 60 a8 bd a6 91 70 bd
       0.05818805 0.078258246 -0.082215555 -0.05873265
0000a0 bb 30 9a bd 83 b7 2c 3d da 9c b1 bc ac 39 46 bc
       -0.07528826 0.042167198 -0.021681238 -0.012098711
0000b0 0f 5d 65 bc 6b 22 d6 bb b5 6a f9 bc 90 84 23 3d
       -0.013999238 -0.0065348647 -0.03044639 0.039921343
0000c0 f0 f2 83 bd ea af 14 3d 22 09 59 bb 1b e9 02 3d
       -0.06442821 0.036300577 -0.0033117016 0.031960588
0000d0 a0 ce 6f 3c 0d 80 10 bc 0e e7 5f 3d 3b 99 86 3d
       0.014636666 -0.008819592 0.05466371 0.06572195
0000e0 ef de 76 bc e7 d7 6f bd 58 e7 56 bc f9 8c 20 bd
       -0.0150678 -0.05855551 -0.01311668 -0.039196942
0000f0 58 66 38 bd 65 f1 43 bd ef 9e 8e bd 79 6a 9a bc
       -0.045019478 -0.047837634 -0.06963908 -0.018849598

model2.6.weight f4 [4, 64]
000000 de d4 84 3d c9 b4 2b bc 7b 37 c9 bd 48 a4 7b 39
       0.06485914 -0.010480114 -0.09825035 0.00023998425
000010 8e bf cf bd db 34 60 bd 20 bb b7 3d 94 5a 83 bd
       -0.10143958 -0.054737907 0.08971238 -0.06413761
000020 48 8c 9f bc a2 fb a8 3d 96 4d aa bc 6c ca 22 bd
       -0.019476071 0.0825112 -0.020788949 -0.039743826
000030 a7 32 bc bd 0c 18 aa bd b3 a4 ee bd d6 ee 49 3c
       -0.09189349 -0.08305368 -0.11652508 0.012325009
000040 1b d7 36 be bd d7 21 3c b4 6c a4 3d a1 e3 91 bd
       -0.17855494 0.009878096 0.08028546 -0.07123495
000050 f3 0b 2c bd 92 4e 69 3d 39 30 97 3d 42 6c 5a 3c
       -0.042003583 0.056959696 0.073822446 0.013331475
000060 8e 64 b1 bd e8 26 69 bd a6 26 96 3d 22 17 5b 3d
       -0.086617574 -0.05692187 0.0733159 0.053488858
000070 74 ec 57 bd e8 82 eb 3c 15 d4 aa bd 39 fb 96 3d
       -0.052715734 0.028748944 -0.08341233 0.07372136
000080 8c d2 91 3d e7 78 b0 3c be b4 41 bc 7a f2 37 bd
       0.07120237 0.021542026 -0.011822877 -0.044908978
000090 1c d3 f2 bd d8 98 be bd 80 b0 7d 3d 60 4a 13 bd
       -0.11856672 -0.093064964 0.0619359 -0.0359596
0000a0 69 35 ff bd ce fb 09 3e 7f 55 b5 3c f0 5a 57 bd
       -0.12461359 0.13474962 0.022135494 -0.05257696
0000b0 d0 60 df bd 26 13 b9 3b 8b af 66 3c 38 1c b1 bb
       -0.109071374 0.0056480346 0.014079939 -0.0054049753
0000c0 d6 72 6f 3b a9 72 0f bc e9 09 b2 bc 2c 25 70 bd
       0.0036536953 -0.008755364 -0.021733241 -0.0586292
0000d0 9d ff 86 bd e2 1f 69 bd bc b6 75 bd db 9a cd bc
       -0.06591723 -0.05691517 -0.059988722 -0.025098255
0000e0 0f f0 9f bc 8f df 99 3d 88 8e 25 3d 33 9b 62 bd
       -0.019523649 0.075133435 0.04041913 -0.05532379
0000f0 73 1e cc bd 57 b3 24 3d 58 90 90 bd d0 bb c9 3d
       -0.09966745 0.040210094 -0.070587814 0.098502755
000100 e3 6b 96 3b 5a 2e 57 3a db db 65 3c 74 f4 c6 bc
       0.004590498 0.0008208506 0.014029468 -0.024286486
000110 1d 9f e4 bc ac 97 eb bd 24 d3 08 bc ee ac d0 3c
       -0.027907902 -0.115035385 -0.008351121 0.025473084
000120 80 dd da 3d 87 68 b4 bd 2d 96 c3 bd 67 65 e6 bd
       0.10686779 -0.088089995 -0.09550128 -0.1124981
000130 bc cd 3a 3e 56 6c da bd d2 90 da bd 16 1d b2 3d
       0.18242544 -0.10665195 -0.106721535 0.08696954
000140 01 92 d1 3d 1e 41 b7 3c e2 c9 0d be 2a a8 dd 3c
       0.10232926 0.022369917 -0.13846543 0.027057726
000150 b7 76 a0 bd a3 81 10 3c b6 c8 ef 3d e5 4c be bd
       -0.07835143 0.00881997 0.117082044 -0.0929201
000160 fd 06 c3 bd 6b e2 90 3d f7 c5 f6 3c 7c e8 4d 3c
       -0.09522817 0.07074436 0.030123694 0.012567636
000170 6e 22 24 3e 15 95 40 bd b9 02 2c 3d 43 c5 97 3d
       0.16028759 -0.047017176 0.041994784 0.074106716
000180 7a df 6d 3d 8f 39 34 bd f3 99 7c bd 5c f8 93 3d
       0.058074452 -0.044000205 -0.061670255 0.07225105
000190 cb e0 ef bd 44 df 89 3d 52 07 31 3e 94 f6 ac 3d
       -0.11712798 0.06732038 0.17287949 0.084454685
0001a0 ea 10 91 3d f0 d0 20 be 48 2a 38 3e aa c4 97 3d
       0.07083304 -0.15704703 0.17984879 0.074105576
0001b0 51 9a 82 3d c7 16 3a bc 66 4e bb 3d bc 0e a5 bd
       0.0637709 -0.01135797 0.09145813 -0.08059451
0001c0 bd c4 01 be cf 4f 1a bd c6 a8 0a 3e 1a b6 8b bd
       -0.12672706 -0.037673768 0.13540944 -0.068218425
0001d0 1a 5a e3 bc 63 92 52 bd 5c c9 ae 3d 29 90 26 3d
       -0.027752925 -0.051409137 0.085345 0.040664826
0001e0 d3 94 99 bc fe 55 51 3e 56 16 fb bd d1 93 56 bd
       -0.018747723 0.2044296 -0.122601196 -0.052387062
0001f0 b9 e2 6c bd 91 3b b0 bd 0c e6 ae bd 9b 87 8e bd
       -0.057833407 -0.086051114 -0.08539972 -0.069594584
000200 ab d7 81 3c c1 be 6b 3d 64 16 12 3e 23 0f 15 be
       0.015849909 0.057554964 0.14266354 -0.14556555
000210 8b 96 c3 3d fb 06 be 3d 47 02 d9 bd 4f 30 51 bc
       0.09550198 0.09278675 -0.105961375 -0.012767865
000220 4a 2d cd bb d7 33 cd bd 7d e9 70 bd 29 f4 45 3c
       -0.0062615024 -0.10019653 -0.05881642 0.012082138
000230 18 c9 cd bd 5e 2a 03 3e 5b 04 78 bc ca 9d 8e 3c
       -0.10048121 0.1280913 -0.015137757 0.017409224
000240 28 96 af bd d7 e2 a9 bc 47 20 88 3d 57 e4 a2 3d
       -0.08573562 -0.020738048 0.066467814 0.079537086
000250 f6 4f 15 bd 14 03 a7 bc 2e 60 1c be 25 36 02 bd
       -0.03645321 -0.02038721 -0.15271065 -0.031789917
000260 24 e3 e3 3a 96 ff a5 3d 59 ba f0 3d aa 18 84 3d
       0.0017386419 0.0810539 0.11754293 0.06450017
000270 d7 5b bf bc 68 a0 7b 3d f5 9b b8 3c 29 e4 fc 3d
       -0.023359222 0.061432272 0.022535304 0.123482056
000280 69 03 42 ba 1a ad 99 bd 32 64 1e 3e d8 ad 32 bd
       -0.0007401021 -0.0750372 0.15467909 -0.04362282
000290 34 b1 51 3b 99 9c 76 bd f2 8c f2 3d af 05 0f 3d
       0.003199649 -0.060207937 0.118432894 0.03491753
0002a0 73 bc c4 bc 84 a3 79 3d 53 05 98 bc 98 63 8d 3c
       -0.02401564 0.060946956 -0.018557226 0.017259404
0002b0 71 93 b6 bd 32 3c 04 bc 89 b2 cd 3b 54 17 88 3d
       -0.08914841 -0.008070992 0.0062773866 0.066450745
0002c0 39 2b aa bd a7 a0 3b bd 57 03 8f 3c ea a9 ed 3d
       -0.08309025 -0.045807507 0.017457647 0.11604674
0002d0 0f cf cb 3d 84 60 04 bc 54 4b 8f 3d a4 44 a8 3d
       0.09951603 -0.008079652 0.069967896 0.08216217
0002e0 69 f3 8a 3d f4 47 48 bb e9 f8 a8 3d db 78 1b bd
       0.06784708 -0.0030560466 0.08250601 -0.037957054
0002f0 97 8f d7 bd 37 9f 35 3b 4b 06 9d 3d 7a ef 51 bc
       -0.105254345 0.0027713308 0.07667216 -0.012813443
000300 34 16 c2 bd 68 56 b4 bd 56 e1 16 3e 5c 16 ee bd
       -0.09476891 -0.08805543 0.14734396 -0.116253585
000310 52 0f 92 3d 08 19 6e 3d d9 bd 4a 3d 57 6a 91 3c
       0.07131828 0.05812934 0.04949746 0.017750902
000320 c3 7b a1 bc 5b 30 d7 bd d0 f4 c2 bd 1c 2b 0a 3d
       -0.019712334 -0.1050727 -0.095193505 0.03373252
000330 6f 95 4b 3d f6 a6 44 3d f8 4c 0e be d5 61 08 3e
       0.049703058 0.04801079 -0.13896549 0.1331857
000340 af ce ca 3d db 90 f1 bd 9a 0a 90 bc 6f 13 05 3d
       0.09902703 -0.11795207 -0.01758318 0.032489236
000350 09 66 46 3d 55 97 49 3d cc d7 1f be f7 e7 9d 3d
       0.048437152 0.049216587 -0.15609664 0.077102594
000360 8f 6d a8 3d ad ec 3c bd 8f 2b b1 3d 75 a8 4c bd
       0.08224022 -0.04612415 0.08650886 -0.04996534
000370 69 6d e8 bd 93 af cd 3c e6 16 ae 3b 2d 74 97 3c
       -0.11348993 0.025108134 0.0053127883 0.018488014
000380 c5 a5 5b bb de 38 f5 bb fa c3 32 3e aa b3 ad bd
       -0.0033515554 -0.0074835857 0.17457572 -0.08481534
000390 cc 51 9d 3c 42 c0 f7 3d 01 66 1d bd 25 37 a3 bc
       0.019204043 0.12097217 -0.038427357 -0.019923756
0003a0 11 4f e0 bd 6b 1c 99 bd 0b cc 8e 3d 65 54 be bd
       -0.10952581 -0.074761234 0.06972512 -0.09293441
0003b0 2e 8d 60 bc 83 54 11 3e 0c c7 d8 bd 73 d0 fb 3d
       -0.013705535 0.14192395 -0.1058484 0.12295618
0003c0 23 91 d1 bd 28 91 e8 bc 4a e5 a5 bd 97 da 95 bc
       -0.10232761 -0.028389528 -0.08100374 -0.018292708
0003d0 03 7e c0 3c 42 f0 88 3a 7d ed 92 3d ee dc d1 3d
       0.023497587 0.0010447579 0.071742035 0.10247217
0003e0 42 34 10 be a1 6c 3d 3d 4a 3b 9a bd 2d 46 a8 3c
       -0.14082435 0.046246175 -0.0753084 0.020541275
0003f0 12 56 2b bd 51 94 9d bc 54 cb 4c bd 8d 9e b3 bd
       -0.04183013 -0.019235762 -0.049998596 -0.087704755

model2.6.bias f4 [4]
000000 70 76 7f bd 67 bb bb bd 1b 5a b1 3d 27 c8 15 3e
       -0.06236881 -0.091666035 0.086597644 0.14627133
