model_weight/critic/13_13 12:02:33 std 0.5 lr_critic_0.004- gamma_0.9 memory100 critic_weight.pth (torch, 645007 bytes, 7 tensors)

model.0.weight f4 [512, 24]
0	0x3caf237f	0.02137923
1	0xbcc35350	-0.023843437
2	0xbd65bd77	-0.05608889
3	0x3d895383	0.06705382
4	0xbc925e69	-0.017867284
5	0xbd05b511	-0.03264338
6	0xbd908a4f	-0.0705763
7	0x3d8fd1c7	0.07022434
8	0xbb720b08	-0.0036932845
9	0xbb922ed2	-0.004461148
10	0x3d0dd2d3	0.034624886
11	0xbe133879	-0.14377011
12	0xbcdc922d	-0.02692517
13	0xbde91032	-0.11380042
14	0xbe771b0e	-0.24131414
15	0xbe944c41	-0.28964427
16	0xbe8bde0a	-0.2731784
17	0x3bdcbeaa	0.006736596
18	0xbe1cec2f	-0.15324472
19	0xbd377ccc	-0.04479675
20	0x3b20860b	0.0024493958
21	0xbeb48ec8	-0.35265183
22	0xbeb7e620	-0.3591776
23	0x3c957afa	0.018247116
24	0xbdb3044d	-0.08741055
25	0x3e9c6ebf	0.30553243
26	0xbd90847d	-0.0705652
27	0x3cbdbfbb	0.023162713
28	0x3da4c925	0.08046178
29	0xbdbfb5ce	-0.09360848
30	0xbda24cc4	-0.07924798
31	0xbb81ef61	-0.003965304
32	0x3dd0eba0	0.10201192
33	0xbe59579b	-0.21224825
34	0x3d9feb7d	0.07808588
35	0x3b338284	0.0027391026
36	0x3d88552a	0.06656869
37	0x3c9b5207	0.018960012
38	0xbe45db2c	-0.19321889
39	0xbe32b78b	-0.17452829
40	0xbcf663a1	-0.030076804
41	0xbe4c7e48	-0.19970047
42	0x3d5031eb	0.050828855
43	0xbe53a7a4	-0.20669419
44	0xbe6da6bb	-0.23208134
45	0xbd8211c0	-0.06351042
46	0xbea16130	-0.3151946
47	0xbe927c8d	-0.2861065
48	0xbe383f49	-0.17992891
49	0xbb59ef12	-0.003325407
50	0xbe73f056	-0.2382215
51	0xbea6b670	-0.32561064
52	0x3ec29e02	0.38011175
53	0x3d980f56	0.074248
54	0x3ea600fa	0.3242262
55	0xbe7e135f	-0.24812077
56	0xbe67679a	-0.22598115
57	0xbea2b049	-0.3177512
58	0x3e6536c5	0.22384174
59	0xbde290de	-0.110627875
60	0x3d85e6bb	0.06538149
61	0xbd98c064	-0.074585706
62	0xbf230711	-0.6368266
63	0xbf3c2bea	-0.7350451
64	0xbee779e8	-0.45210195
65	0xbf1f5c9e	-0.622507
66	0xbef60457	-0.48050186
67	0xbf10cff0	-0.5656729
68	0xbec802e7	-0.39064714
69	0xbecb4fd0	-0.3970933
70	0xbf201f3e	-0.6254767
71	0xbe65f47f	-0.22456549
72	0xbeb0e21b	-0.34547505
73	0xbf0571c7	-0.52126735
74	0x3e0d39fb	0.13791649
75	0xbc6ffc5c	-0.0146475695
76	0x3e6f9c7c	0.23399538
77	0x3d1e06f2	0.038580842
78	0x3d79133c	0.06080936
79	0xbd601b2b	-0.05471341
80	0x3d08415c	0.033265457
81	0xbed83201	-0.4222565
82	0x3dec0f24	0.11526325
83	0x3d825ff6	0.06365959
84	0x3db752e5	0.08951358
85	0x3c44d5ec	0.012013894
86	0xbe2eb267	-0.17060243
87	0xbefcf96b	-0.4940904
88	0xbe42e52d	-0.19032736
89	0xbeff9b19	-0.49923018
90	0xbe92c878	-0.2866857
91	0xbea4af45	-0.3216497
92	0xbef2ed26	-0.47446555
93	0xbe93401b	-0.28759846
94	0xbec2aaaf	-0.38020846
95	0xbee17247	-0.440325
96	0xbbae8f74	-0.0053271595
97	0xbe4d3c40	-0.20042515
98	0x3c46fb3e	0.012144862
99	0x3e853633	0.26017913
100	0xbcf13982	-0.029446367
101	0x3dfb3085	0.12265114
102	0xbe47d43c	-0.19514555
103	0x3daeb985	0.08531479
104	0x3e070e99	0.13189162
105	0xbe0c46e8	-0.13698924
106	0x3d5f7bf7	0.05456158
107	0x3e042a96	0.1290687
108	0x3d651eca	0.055937566
109	0x3c6c6693	0.0144287525
110	0xbdce90ce	-0.10086213
111	0xbe54f689	-0.2079717
112	0xbe8e91af	-0.27845523
113	0xbc88d316	-0.016702216
114	0x3d3350c8	0.04377821
115	0xbea52e72	-0.32261997
116	0xbe43eda0	-0.19133615
117	0xbe6a2a6a	-0.22867742
118	0xbeacb51d	-0.33731928
119	0xbe6a1c02	-0.22862247
120	0xbfb5a7cf	-1.4191836
121	0xbfa4881b	-1.2854036
122	0x3f9f92a7	1.246663
123	0xbf12670c	-0.5718849
124	0xbf321e15	-0.6957715
125	0xbda9b854	-0.08287111
126	0xbe3ce32e	-0.18446037
127	0x3da38391	0.07984079
128	0xbd282c64	-0.04105796
129	0xbed9a8b4	-0.42511523
130	0x3ca5bb37	0.020230873
131	0xbe915d96	-0.28391713
132	0x3d11dc58	0.035610527
133	0xbe192266	-0.14954528
134	0xbdfb6f32	-0.12277068
135	0xbd372a5d	-0.044718135
136	0xbe9dc861	-0.3081694
137	0xbebf0e91	-0.373158
138	0xbc15fe5e	-0.009154884
139	0xbe5af7d0	-0.21383595
140	0xbe537453	-0.20649843
141	0xbe96ff0d	-0.29491463
142	0xbe829518	-0.25504375
143	0x3efde84f	0.495913
144	0x3e52be25	0.20580347
145	0xbcf7cfd9	-0.030250477
146	0xbe92142e	-0.2853102
147	0xbd9c9714	-0.07646003
148	0x3edb9e50	0.4289422
149	0x3e52b792	0.20577839
150	0xbe18d88b	-0.14926355
151	0x3e01e78b	0.12685983
152	0xbeb9a258	-0.3625667
153	0x3e2f2417	0.17103611
154	0xbd0af6d6	-0.033926807
155	0xbeb2a96c	-0.34894884
156	0xbe8bf1ad	-0.2733282
157	0xbdae482c	-0.085098594
158	0xbe564085	-0.2092305
159	0xbf035a4b	-0.5130965
160	0xbec1ff1a	-0.3788994
161	0xbe2c2e2c	-0.16814488
162	0xbeb89564	-0.36051476
163	0xbeba1681	-0.36345294
164	0xbe833c34	-0.2563187
165	0xbe4f929f	-0.20270775
166	0xbe33eb5a	-0.17570248
167	0xbe756a7d	-0.23966403
168	0x3f0ce4ab	0.5503642
169	0x3ee89ea0	0.4543352
170	0xbf248ad2	-0.64274323
171	0xbf37d984	-0.7181628
172	0x3eff273e	0.49834627
173	0xbdf47c66	-0.119377896
174	0xbe811005	-0.25207534
175	0xbd25a9f6	-0.04044529
176	0xbdd2dcf3	-0.10296049
177	0x3ea32fe0	0.31872463
178	0x3d4919f3	0.049097013
179	0x3c328859	0.010896766
180	0x3c7584e2	0.014985295
181	0xbe440cfd	-0.1914558
182	0xbf407128	-0.7517266
183	0xbf064a6f	-0.52457327
184	0xbf2c9d28	-0.674273
185	0xbf1b939b	-0.60772103
186	0xbedc695b	-0.4304913
187	0xbf024db6	-0.5089983
188	0xbf12ed5d	-0.5739344
189	0xbf15ce1c	-0.5851762
190	0xbf1737cf	-0.5906953
191	0xbea8b745	-0.32952324
192	0xbd981c1c	-0.074272364
193	0x3e3740c8	0.17895806
194	0xbe1b994b	-0.15195195
195	0xbe851249	-0.25990513
196	0x3e911ea8	0.283437
197	0x3df52d89	0.11971576
198	0x3e01fcbd	0.12694068
199	0x3e3efdf9	0.1865157
200	0xbe36dd8a	-0.17857948
201	0x3b58878a	0.0033039772
202	0x3d6cdded	0.057828832
203	0x3e3f9b4f	0.1871159
204	0xbd6a7681	-0.05724192
205	0xbda9cefd	-0.08291433
206	0xbe7a9a94	-0.2447303
207	0xbef099a6	-0.46992224
208	0xbe960214	-0.2929846
209	0xbeee26b9	-0.46513918
210	0xbe217bb2	-0.15769842
211	0xbe949149	-0.29017094
212	0xbee4e928	-0.44709134
213	0xbe9bbca1	-0.3041735
214	0xbed85497	-0.42252037
215	0xbe7edcc7	-0.24888907
216	0x3d8d9e01	0.069149025
217	0x3e498efb	0.19683449
218	0xbe90cc6a	-0.28280956
219	0x3e09b03a	0.13446131
220	0x3bc5cbe5	0.006036269
221	0xbe42e345	-0.19032009
222	0xbc8d6ee9	-0.0172648
223	0x3d1524b3	0.036411952
224	0xbe374c20	-0.17900133
225	0xbdef19bb	-0.116748296
226	0xbbb32148	-0.005466614
227	0x3d2e4734	0.042548373
228	0xbcd3b33b	-0.0258423
229	0xbdd6a455	-0.104805626
230	0xbd65ca44	-0.0561011
231	0xbd951301	-0.07279015
232	0xbdd8ca8f	-0.1058551
233	0xbe576c33	-0.21037368
234	0xbe67ce4b	-0.22637288
235	0xbe9fdefe	-0.31224817
236	0xbe3b2f36	-0.18279728
237	0xbe9d24dc	-0.30692184
238	0xbe979841	-0.29608348
239	0xbe22a08d	-0.15881558
240	0x3e5260de	0.20544764
241	0xbf041263	-0.51590556
242	0x3e323ad6	0.17405257
243	0x3f0a529c	0.540323
244	0xbde48fdf	-0.11160254
245	0x3d61206e	0.054962568
246	0xbcfbd277	-0.030740006
247	0xbe06e332	-0.13172606
248	0xbe1f97bd	-0.15585227
249	0xbe1d8aa2	-0.15384915
250	0x3e614494	0.21998817
251	0xbd93745e	-0.0719993
252	0xbd78a189	-0.060700927
253	0xbe1cf5c2	-0.15328124
254	0xbdd3bc23	-0.103386186
255	0xbec1711f	-0.37781617

model.0.bias f4 [512]
0	0xbd687fd2	-0.056762524
1	0xbe458370	-0.1928842
2	0xbe8bcb27	-0.2730343
3	0xbd958777	-0.073012285
4	0xbd5cc3b9	-0.053897593
5	0x3f09388a	0.53601897
6	0xbec8c789	-0.39214733
7	0xbedb17d7	-0.42791626
8	0x3d00189b	0.031273466
9	0xbd71e32f	-0.05905455
10	0xbea713c7	-0.32632276
11	0xbe220fe9	-0.15826382
12	0xbe54e301	-0.2078972
13	0xbe766d9a	-0.24065247
14	0xbdcd8323	-0.10034778
15	0xbea8de1c	-0.32981956
16	0xbdf40fd3	-0.11917081
17	0x3e1d21b7	0.15344892
18	0xbe0431f6	-0.12909684
19	0xbe98e213	-0.2985998
20	0x3dd46b57	0.10372036
21	0xbe6787e6	-0.22610435
22	0xbe3a850a	-0.18214813
23	0xbedb5711	-0.42839864
24	0xbe2bbb49	-0.16770662
25	0xbda83e5d	-0.0821502
26	0xbe87f854	-0.26556647
27	0xbe134fe3	-0.14385943
28	0x3d7fb62b	0.06242959
29	0xbe9e67d2	-0.30938584
30	0xbe18a5cb	-0.14906995
31	0xbc70f82f	-0.014707609
32	0x3e0e9f3a	0.13927928
33	0xbe167d32	-0.14696196
34	0xbf385e03	-0.7201845
35	0x3cb77f48	0.02239956
36	0xbe7958b5	-0.24350245
37	0xbec99e84	-0.3937875
38	0xbd5203e5	-0.051273245
39	0xbe6c8e4b	-0.23101155
40	0xbe8e919c	-0.27845466
41	0xbe788346	-0.24268827
42	0xbe991fe9	-0.29907158
43	0xbe6128bc	-0.21988195
44	0x3dc804ac	0.09766516
45	0xbdd4924d	-0.10379467
46	0xbe8f7dc9	-0.28025654
47	0xbe62a8de	-0.2213473
48	0x3cf8b0bc	0.030357711
49	0xbe538be6	-0.20658836
50	0xbe334793	-0.17507772
51	0xbe6294a6	-0.22127017
52	0xbd526702	-0.051367767
53	0xbda40ccf	-0.080102555
54	0xbbc1fc6d	-0.005919984
55	0xbe3bdf40	-0.18346882
56	0xbe27f356	-0.16401419
57	0xbce2f32d	-0.027703846
58	0xbe630946	-0.22171506
59	0xbe94fe57	-0.29100296
60	0xbce9572e	-0.028483953
61	0xbd738c0a	-0.059459724
62	0xbdaa9cc7	-0.08330684
63	0xbeec7553	-0.4618326
64	0xbd1e165f	-0.038595553
65	0x3d96b767	0.073592
66	0xbdc857c0	-0.09782362
67	0xbde0c574	-0.10975161
68	0xbdac958e	-0.08426963
69	0xbe23eb64	-0.16007763
70	0xbe3bf9c3	-0.18356995
71	0x3ec8f1e5	0.3924705
72	0xbe1a3ebd	-0.15062995
73	0xbdd0cacc	-0.101949304
74	0xbe66e7eb	-0.22549407
75	0x3f0fcfe7	0.5617661
76	0xbe34c18b	-0.17651956
77	0xbe8073f7	-0.25088474
78	0x3d0436e7	0.03227892
79	0xbe13078b	-0.14358346
80	0xbe8c26d8	-0.27373385
81	0xbee0606c	-0.43823564
82	0xbe829dfe	-0.25511163
83	0xbea0b39d	-0.31387034
84	0x3ed6f87a	0.41986448
85	0xbe214338	-0.15748298
86	0xbd74d075	-0.059769113
87	0xbe4ba847	-0.19888411
88	0xbe78fe7c	-0.24315828
89	0xbf313cfe	-0.6923369
90	0xbd5c13c5	-0.05372979
91	0x3eb13d2f	0.34616992
92	0xbe3c671f	-0.18398713
93	0x3da85208	0.08218771
94	0xbe28c144	-0.16479975
95	0x3ef3f5dd	0.47648516
96	0x3edac5ea	0.4272912
97	0xbe9ba88f	-0.30402038
98	0xbbf44496	-0.007454465
99	0xbe9c9dfc	-0.30589283
100	0xbe1a75bc	-0.15083975
101	0xbcc7dc82	-0.024397139
102	0xbd750608	-0.059820205
103	0x3c9050d5	0.017616669
104	0xbe2e4d7f	-0.1702175
105	0xbe208dbd	-0.15679069
106	0xbe52f122	-0.20599797
107	0xbe92c7f9	-0.28668192
108	0xbbf5ca61	-0.007500932
109	0xbdd61df0	-0.10454929
110	0xbe7422e0	-0.23841429
111	0xbdaee624	-0.085399896
112	0x3a1f0d3b	0.000606734
113	0xbe19c571	-0.15016724
114	0xbee37243	-0.44423112
115	0x3f297d10	0.66206455
116	0xbddf61da	-0.109073356
117	0xbc4928c4	-0.012277786
118	0xbe52ea97	-0.20597301
119	0xbe978371	-0.2959247
120	0xbe2da85e	-0.16958758
121	0xbe60b4c2	-0.21943954
122	0xbe50d09a	-0.20392075
123	0xbea63f35	-0.32470098
124	0xbec76fe6	-0.3895256
125	0x3d88edc4	0.06685975
126	0x3dcdb868	0.10044938
127	0xbe82bcc9	-0.25534657
128	0xbdb0d65d	-0.086346366
129	0x3eb66fb6	0.35632104
130	0x3c291e74	0.010322202
131	0xbe9e22d6	-0.30885953
132	0xbc9a5da8	-0.018843487
133	0xbe4f0d9c	-0.20220035
134	0x3d0b99a7	0.03408208
135	0xbdfe3652	-0.124127045
136	0xbe42d726	-0.19027385
137	0xbe58bee6	-0.21166572
138	0xbe0304c8	-0.12794793
139	0xbeef4411	-0.46731618
140	0xbe41314a	-0.18866459
141	0x3d1cd69e	0.038290612
142	0xbe05fb5e	-0.1308417
143	0xbe3c6d73	-0.18401127
144	0xbe9d0467	-0.3066742
145	0xbe9f24d6	-0.3108279
146	0x3cdcefe8	0.026969865
147	0x3e31f32f	0.17377923
148	0xbe829d77	-0.2551076
149	0xbe76dbed	-0.24107333
150	0xbcb5349d	-0.022119815
151	0xbcde377c	-0.027126066
152	0xbecc6a1a	-0.399247
153	0xbeaff973	-0.34370002
154	0x3f095c23	0.53656214
155	0xbf0c22ae	-0.54740417
156	0xbe2496f5	-0.1607321
157	0xbdb26836	-0.08711283
158	0xbdd63b95	-0.10460583
159	0xbe767a84	-0.24070174
160	0xbe2ab9d7	-0.16672455
161	0x3d4a26ba	0.04935334
162	0xbe63d41b	-0.2224888
163	0xbe8ca896	-0.2747237
164	0x3dec8fb8	0.1155085
165	0xbd9648bb	-0.07338091
166	0x3ddc9315	0.10770241
167	0xbec70561	-0.3887129
168	0xbe93db63	-0.28878316
169	0xbe49274a	-0.19643894
170	0xbe94eb11	-0.2908559
171	0xbebfaacd	-0.37434998
172	0xbf13e115	-0.5776532
173	0xbcf5114a	-0.02991547
174	0xbe731040	-0.23736668
175	0xbe596239	-0.21228875
176	0xbec65f89	-0.38744763
177	0x3ee3a988	0.4446528
178	0xbe295385	-0.16535766
179	0xbea9eae8	-0.33187032
180	0xbebae10f	-0.3649983
181	0xbd7f4398	-0.06232032
182	0xbea620c2	-0.32446867
183	0xbd3bca71	-0.04584736
184	0xbe66daa2	-0.2254434
185	0xbe89beb1	-0.26903298
186	0xbe87fe96	-0.2656142
187	0x3bb4ffbd	0.0055236504
188	0xbe80c144	-0.2514745
189	0xbecbb737	-0.3978822
190	0xbec95d02	-0.39328772
191	0xbe1cde80	-0.15319252
192	0xbc11dfc0	-0.008903444
193	0xbe4901a9	-0.1962954
194	0xbf29d407	-0.66339153
195	0xbe7681c0	-0.24072933
196	0xbe5ad4d6	-0.21370253
197	0xbe069cf3	-0.13145809
198	0x3ec51cf5	0.38498655
199	0xbe51e65e	-0.20498034
200	0xbf09e079	-0.53858143
201	0xbe5b7f59	-0.21435298
202	0x3e167e22	0.14696553
203	0xbc934ad1	-0.017980011
204	0x3e95b667	0.29240724
205	0xbe1996ee	-0.14998981
206	0xbdae14c7	-0.08500057
207	0xbe9905ef	-0.2988734
208	0xbe2a4f26	-0.16631755
209	0xbe87f306	-0.265526
210	0xbe65b9aa	-0.22434106
211	0x3e20fe6f	0.15722059
212	0xbdfa380e	-0.12217723
213	0x3ce33997	0.027737422
214	0xbd8978ca	-0.06712492
215	0xbe60d8fa	-0.2195777
216	0xbd8b0994	-0.06788936
217	0xbe9b3db2	-0.30320507
218	0xbe2b37ed	-0.16720553
219	0x3ee86142	0.45386702
220	0xbebcd6b7	-0.36882564
221	0xbe97a8bb	-0.2962092
222	0xbe868894	-0.26276076
223	0xbe9b0158	-0.30274463
224	0x3e94b5cc	0.2904495
225	0xbe67dbef	-0.22642492
226	0x3cf4e0a4	0.029892273
227	0xbe57be01	-0.21068574
228	0xbe6cbbe6	-0.23118553
229	0xbe8d0dea	-0.27549678
230	0xbcac6d74	-0.021048285
231	0xbdb16080	-0.08660984
232	0x3c256a7e	0.0100961905
233	0x3ed981e3	0.42481908
234	0xbdfde2e7	-0.12396794
235	0xbd897ea0	-0.06713605
236	0xbeae50d1	-0.34046033
237	0xbe944e95	-0.28966203
238	0xbdaa921f	-0.08328652
239	0xbddefe6c	-0.10888371
240	0xbc9faedb	-0.019492557
241	0xbe4ba599	-0.19887389
242	0xbec77b14	-0.3896109
243	0xbe3578e5	-0.17721899
244	0xbe0775aa	-0.13228479
245	0xbea73b4e	-0.32662433
246	0xbde87566	-0.11350517
247	0xbd494940	-0.049142122
248	0x3daf8226	0.08569746
249	0xbe4946bd	-0.19655891
250	0xbea1803b	-0.31543145
251	0x3e9f2378	0.31081748
252	0xbe9dddcd	-0.30833283
253	0xbd638156	-0.055543266
254	0xbe4fefcd	-0.2030632
255	0xbcd9e0b8	-0.026596412

model.2.weight f4 [256, 512]
0	0x3c88e0e5	0.0167088
1	0x3c934f40	0.017982125
2	0xbd4e7e04	-0.050413147
3	0xbc7a5b0d	-0.015280497
4	0xbc2ae3d6	-0.010430297
5	0x3cc4a48c	0.024004243
6	0x3b6b028e	0.0035859677
7	0x3c08a63b	0.008340414
8	0xbc29b6a4	-0.010358486
9	0xbca0f50f	-0.019648103
10	0x3cd7aa8a	0.026326437
11	0xbc8d4ab9	-0.017247545
12	0x3c922f78	0.0178449
13	0xbc5caf98	-0.013469599
14	0x3ba7249c	0.0051007997
15	0x3cd1863c	0.025576703
16	0xbabce407	-0.0014411219
17	0x3cacabb7	0.021077974
18	0xbcaa8ab7	-0.020818098
19	0xbd6aeff7	-0.057357755
20	0xbcffc206	-0.031220447
21	0xbda04187	-0.07824998
22	0xbd35f97c	-0.04442738
23	0xbcf37d4e	-0.029722836
24	0x3d170715	0.03687199
25	0xbca7056d	-0.02038833
26	0x3c6fe713	0.014642495
27	0xbcff0b5f	-0.031133352
28	0xbd5de89c	-0.05417691
29	0x3b280f81	0.0025644007
30	0x3d0c6369	0.034274492
31	0xbc07c84f	-0.008287503
32	0x3bf45d43	0.0074574067
33	0x3d02d43d	0.031940687
34	0xbd70e28c	-0.058809802
35	0xbce71fbe	-0.028213378
36	0xbc8c6d05	-0.017141828
37	0x3cd8a252	0.026444588
38	0xbd2bc9ad	-0.04194038
39	0x3d0c22b6	0.03421279
40	0xbd018f8b	-0.031631034
41	0x3d63dcab	0.055630367
42	0xbd17aead	-0.03703182
43	0xbccf7ed5	-0.025329033
44	0x3b7ddeb6	0.0038737482
45	0xbcb71887	-0.022350563
46	0xbbef8c2f	-0.0073104124
47	0x39c37908	0.00037283474
48	0xbd02564b	-0.031820577
49	0xbd084862	-0.033272155
50	0xbd53aba5	-0.051677365
51	0xbd34c2a0	-0.04413092
52	0x3c5dc9de	0.013536898
53	0xbcc96093	-0.024582183
54	0xbd481bab	-0.04885451
55	0xbd30cd76	-0.043164693
56	0x3cfba773	0.030719494
57	0x3cde5698	0.0271409
58	0xbcf4c61a	-0.029879618
59	0xbc7c5886	-0.015401965
60	0x3c5a7aeb	0.01333497
61	0xbd837bef	-0.06420123
62	0xbaf564dc	-0.0018722075
63	0xbcf3e7f2	-0.029773686
64	0x3c44b1ba	0.012005264
65	0x3c0527ab	0.008127133
66	0x3ae294d5	0.0017286787
67	0xb9beda8d	-0.00036402457
68	0xbc9a7b6e	-0.018857684
69	0xbd849cb2	-0.064752
70	0x3c4472ce	0.011990262
71	0xbd5d3e3f	-0.05401444
72	0x3ca271ed	0.019829715
73	0x3c2430b2	0.0100213755
74	0x3ce5b3fb	0.028039923
75	0xbd63c0ea	-0.0556039
76	0x3c1cab29	0.009562292
77	0x3cbc6190	0.02299574
78	0xbc35b7b0	-0.011091158
79	0xbac2b81c	-0.0014855894
80	0x3d9052aa	0.07047017
81	0x3d317ccf	0.043331917
82	0x3ca300ec	0.0198979
83	0x3d26c8e8	0.040718943
84	0xbc2cb57e	-0.010541318
85	0xbcdc9a7e	-0.026929136
86	0x3b94c972	0.0045406157
87	0xbd44f784	-0.04808761
88	0x3d13ba23	0.036066186
89	0xbdff691c	-0.1247122
90	0xbcddb932	-0.027065847
91	0xbc316f46	-0.010829752
92	0xbcd3127d	-0.025765652
93	0xbd62025c	-0.05517803
94	0x3cbb4c64	0.022863574
95	0xbcdea451	-0.027177962
96	0xbcadc831	-0.021213623
97	0xbd09f429	-0.033680115
98	0xbceffa77	-0.029294236
99	0x3cc4327e	0.023949858
100	0xbcc10cdb	-0.0235657
101	0x3ce91f29	0.028457241
102	0xbc7b0b30	-0.0153224915
103	0x3bdc5179	0.0067235795
104	0xbcf235ff	-0.029566763
105	0x3bfe7cf8	0.0077663623
106	0x3cb8f913	0.022579705
107	0xbd314f95	-0.043288786
108	0xbc0205e0	-0.007935971
109	0xbd67f321	-0.05662835
110	0xbd2d35bc	-0.042287573
111	0xbd4a5d71	-0.04940552
112	0xbc8ed397	-0.017434878
113	0xbd45d85a	-0.048302032
114	0xbcea284b	-0.028583666
115	0xbd286585	-0.04111244
116	0xbc5d7756	-0.013517221
117	0xbcc821e7	-0.024430228
118	0xbceb2397	-0.028703494
119	0x3cf515c0	0.029917598
120	0xbd620426	-0.055179738
121	0x3c9aa057	0.018875284
122	0xba4b8024	-0.000776293
123	0xbce2ccfd	-0.027685637
124	0xbc80a0b9	-0.015701639
125	0xbd0bd9b0	-0.03414315
126	0x3bc7e75b	0.006100578
127	0xbb7d8871	-0.0038686062
128	0xbb8ae0e5	-0.0042382353
129	0xbcf35328	-0.029702738
130	0xbd0767a1	-0.033057813
131	0xbb3ee915	-0.0029130627
132	0x3d05a16f	0.03262466
133	0xbcd23e7f	-0.025664566
134	0xbcff0fc6	-0.031135451
135	0x3ce87c03	0.028379446
136	0x3ba2e1c0	0.004970759
137	0x3d2c2ee0	0.04203689
138	0x3b1880bf	0.0023270098
139	0x3c1e240d	0.00965215
140	0xbccad325	-0.024758885
141	0xbc1feb4c	-0.009760689
142	0xbb2f66a2	-0.0026764055
143	0x3b3b8b54	0.0028616982
144	0xbb6420d0	-0.0034809597
145	0x3c029af1	0.007971511
146	0xbbb72825	-0.0055895024
147	0xbccc28c3	-0.02492178
148	0x3c44256e	0.011971815
149	0x3c95b6bf	0.018275617
150	0xbb9647ca	-0.0045861946
151	0xbcbd2e51	-0.023093374
152	0xbd83152f	-0.06400525
153	0xbd3c3d2f	-0.045956787
154	0x3c1a8f50	0.009433582
155	0x3c821ab3	0.015881872
156	0x3d368836	0.044563495
157	0x3c1de9f3	0.009638297
158	0x3d5f03bd	0.054446924
159	0x3cb66d75	0.02226899
160	0x3c198b30	0.009371564
161	0x3bad3f77	0.0052871066
162	0xbc0d09c8	-0.008608289
163	0xbd6392ab	-0.055559795
164	0xbc65c28b	-0.014023433
165	0xbc9c11d3	-0.019051468
166	0xbd82dc67	-0.06389695
167	0xbc1865a5	-0.009301578
168	0xbd281dc4	-0.04104401
169	0xbd25b907	-0.04045966
170	0x3cb4e1b7	0.022080285
171	0xbd161168	-0.036637694
172	0x3d2ceb13	0.04221637
173	0xbd51c747	-0.051215436
174	0xbd183f8b	-0.037169974
175	0xbd3f0e49	-0.046644483
176	0xbb467e34	-0.0030287625
177	0xbc6bb0e8	-0.014385439
178	0xbcb55cad	-0.022138918
179	0x3c54ce31	0.012988613
180	0xbceeee7a	-0.029166449
181	0xbd2231e9	-0.03959838
182	0x3c921a57	0.017834825
183	0x3c9a2a31	0.018818947
184	0x3bb4ab35	0.0055135735
185	0xbc91b6ca	-0.017787356
186	0x3b60f922	0.0034328182
187	0xbc90021d	-0.017579133
188	0x3caff20b	0.02147772
189	0x3c32171f	0.01086977
190	0xbbe130ac	-0.006872257
191	0xbc5e2435	-0.013558437
192	0xbc93d055	-0.018043676
193	0xbd75d49b	-0.06001721
194	0xbcbb95fb	-0.022898665
195	0x3cb656eb	0.022258243
196	0x3d0dda93	0.034632277
197	0xbc1b26a3	-0.009469661
198	0xbcaf00bf	-0.02136266
199	0xbcaa5dba	-0.020796645
200	0xbd423771	-0.047416154
201	0xbd117454	-0.03551133
202	0xbd3c5b2a	-0.04598538
203	0xbd5369a9	-0.051614437
204	0x3b174c06	0.0023086085
205	0x3c5ab80a	0.013349542
206	0xbd429ea0	-0.047514558
207	0xbcab2566	-0.020891856
208	0x3c4a5148	0.0123484805
209	0xbd57644b	-0.05258588
210	0xbd3d3fdc	-0.04620348
211	0x3cbc5c64	0.022993274
212	0xbd358638	-0.044317454
213	0xbd27464e	-0.040838532
214	0xbd2d4f84	-0.04231216
215	0xbd2cb7c9	-0.04216746
216	0x3d7e1e8a	0.062040843
217	0xbd0c93a6	-0.034320496
218	0xbcb51e69	-0.022109227
219	0x3b194d5b	0.0023392055
220	0xbc63498f	-0.013872518
221	0xbd1a3817	-0.037651148
222	0xbb2b0adf	-0.002609901
223	0xbcfacec3	-0.03061617
224	0xbc3aa5f7	-0.011392108
225	0x3c622836	0.013803532
226	0x3d486988	0.048928767
227	0xbcb480f3	-0.022034144
228	0x3b8284f2	0.0039831335
229	0x3b16d3ec	0.00230145
230	0xbb471f83	-0.0030383773
231	0xbccac2a5	-0.024751017
232	0xbc967a1f	-0.018368779
233	0xbd0948d7	-0.03351673
234	0x3c4a351f	0.012341767
235	0x3b6a6c44	0.0035770098
236	0x3cac0c30	0.021001905
237	0xbd68a3b4	-0.056796744
238	0xbca6ed54	-0.020376839
239	0xbc896e28	-0.01677616
240	0x3afbe276	0.0019217271
241	0x3d043e42	0.032285936
242	0xbd5328e8	-0.051552683
243	0x3c1cf5ee	0.009580119
244	0xbc5b9e5b	-0.013404454
245	0x37aae1e4	2.0370768e-05
246	0xbcb8ebbf	-0.02257335
247	0xbcc8e5bc	-0.024523608
248	0xbd1b2a94	-0.037882403
249	0xbd83b6da	-0.064313605
250	0xbd79cb39	-0.060984824
251	0xbd25b17d	-0.04045247
252	0x3c10a2ad	0.008827847
253	0xbc4aac99	-0.012370252
254	0xbcb1232e	-0.02162322
255	0x3c2be60e	0.010491861

model.2.bias f4 [256]
0	0xbd1e586a	-0.038658537
1	0xbdfc1663	-0.123089574
2	0xbd2d868a	-0.042364635
3	0xbd16cf66	-0.036818884
4	0xbe1754ba	-0.14778414
5	0x3cbff545	0.023432383
6	0xbd78b656	-0.060720764
7	0xbda2b145	-0.07943968
8	0xbbc1c175	-0.0059129545
9	0xbd2b8f60	-0.04188478
10	0x3e046d0e	0.12932226
11	0xbd5b57f4	-0.053550676
12	0xbe30ba7b	-0.17258637
13	0xbb494ced	-0.0030716017
14	0xbd95a7d3	-0.073074006
15	0xbd2338a3	-0.039848935
16	0xbe5fed86	-0.21867952
17	0x3d71ea15	0.05906113
18	0xbd4eb86a	-0.05046884
19	0xbd882763	-0.066481374
20	0xbdc36d8e	-0.0954238
21	0xbd0f0310	-0.03491503
22	0xbe570b78	-0.21000469
23	0xbe184075	-0.14868338
24	0xbcf377c4	-0.029720195
25	0xbd75fc68	-0.060055166
26	0xbded38e7	-0.11583119
27	0xbcd11425	-0.025522301
28	0xbd329da6	-0.043607377
29	0xbdc66408	-0.09687048
30	0xbc52e402	-0.012871744
31	0xbdc1cb40	-0.09462595
32	0xbe226487	-0.1585866
33	0xbd939cc0	-0.07207632
34	0x3dd6811b	0.10473844
35	0xbd06bc52	-0.03289444
36	0xbd88ba89	-0.06676204
37	0xbca6d285	-0.020364055
38	0xbd14ecca	-0.036358632
39	0xbd191932	-0.037377544
40	0xbd6d3f94	-0.05792196
41	0xbcdb7664	-0.026789851
42	0xbc143f8f	-0.009048357
43	0xbd123a69	-0.035700236
44	0xbbfebfc4	-0.007774325
45	0xbdc5bcd4	-0.09655157
46	0x3df0c53e	0.11756371
47	0x3cb3ed8f	0.021963863
48	0x3bda4ca2	0.0066619674
49	0xbddf011b	-0.10888883
50	0xbd366754	-0.044532135
51	0xbcc80fef	-0.02442166
52	0xbd8ca03f	-0.06866502
53	0xbc6f6eb8	-0.0146138
54	0xbdf89454	-0.12137666
55	0x3baf66c5	0.0053528273
56	0x3c15077c	0.009096023
57	0xbe390b0a	-0.18070617
58	0x3ba50d38	0.005036976
59	0xbe0e4ec3	-0.13897233
60	0x3c662aba	0.014048273
61	0xbd50ea9c	-0.05100499
62	0xbd863193	-0.06552424
63	0xbd7cceed	-0.061720777
64	0xbda3ec02	-0.08003999
65	0xbe99fe00	-0.300766
66	0xbd178b8a	-0.03699831
67	0xbe503f75	-0.20336707
68	0xbe54ef14	-0.20794326
69	0xbc39507a	-0.011310691
70	0xbd6b5ccd	-0.05746155
71	0xbd8c1c37	-0.06841319
72	0x3e0fc40a	0.14039627
73	0x3b628aea	0.0034567663
74	0xbe8cf13f	-0.27527806
75	0xbbe95a5c	-0.0071213674
76	0xbd8426e6	-0.06452732
77	0xbd9eb7c2	-0.07749893
78	0x3c50d7f0	0.012746796
79	0xbea8da2b	-0.3297895
80	0xbd4db604	-0.05022241
81	0x3e12ff66	0.1435524
82	0xbcbf9489	-0.023386257
83	0xbbb3e6e0	-0.005490169
84	0xbde0899f	-0.10963749
85	0xbb7e680e	-0.0038819346
86	0xbd9b0eae	-0.07571159
87	0xbd09634e	-0.03354197
88	0x3d80b927	0.06285315
89	0xbdabb0ca	-0.08383329
90	0xbcab21e2	-0.02089018
91	0xbe2a3625	-0.16622217
92	0x3dd3159b	0.10306855
93	0xbdfea36b	-0.12433513
94	0xbd899b2f	-0.06719052
95	0x3cf787bc	0.03021609
96	0xbd39b6b7	-0.045340266
97	0xbd53625e	-0.051607482
98	0x3b92cbd4	0.0044798646
99	0xbc756da9	-0.014979758
100	0xbd45b1f3	-0.04826541
101	0xbdbc4d39	-0.091944166
102	0xbe02d99f	-0.12778328
103	0x3bd9dfac	0.006648978
104	0xbd93cbe2	-0.07216622
105	0xbcb31013	-0.02185825
106	0x3ccb8f65	0.02484865
107	0xbce0c712	-0.027438674
108	0xbdd8970c	-0.10575685
109	0xbca5ebd5	-0.020254055
110	0xbda80d23	-0.08205631
111	0xbdcfdf16	-0.10149972
112	0xbd387b30	-0.045039356
113	0xbc670034	-0.0140991695
114	0x3c868fe4	0.016426034
115	0xbc92bd26	-0.017912459
116	0x3bc3b903	0.005972983
117	0xbd8a75f5	-0.0676078
118	0xbd81c4c9	-0.06336362
119	0xbcb954fb	-0.02262353
120	0x3c7e22a7	0.015511191
121	0xbe3d776e	-0.1850259
122	0xbe0927b6	-0.13394055
123	0xbd76fecf	-0.0603016
124	0xbc954d25	-0.018225262
125	0xbd8271fe	-0.063693985
126	0xbdc93306	-0.09824185
127	0x3d0593c5	0.032611627
128	0x3e4f230e	0.20228216
129	0xbe12f007	-0.14349376
130	0xbcdb3a33	-0.02676115
131	0xbe1f5f62	-0.1556373
132	0xbde1e0b7	-0.11029189
133	0xbe34bd2f	-0.17650293
134	0xbde1ff0f	-0.11034977
135	0xbe0996fd	-0.13436504
136	0xbd191dab	-0.03738181
137	0xbd26814d	-0.040650655
138	0xbd5d000b	-0.05395512
139	0xbd9bbe70	-0.076046824
140	0xbe1d90ed	-0.15387316
141	0xbe1467cb	-0.14492719
142	0xbd2d24c3	-0.042271387
143	0xbdf80205	-0.1210976
144	0xbd720958	-0.059090942
145	0xbd2cb597	-0.042165365
146	0xbd1da37e	-0.038485996
147	0xba9db317	-0.0012031522
148	0xbe0623b2	-0.13099554
149	0x3d268483	0.040653717
150	0x3c5ef492	0.013608115
151	0xba817ac5	-0.0009878507
152	0xbd2b1a1b	-0.041772943
153	0xbe336852	-0.17520264
154	0x3b6e59f0	0.0036369525
155	0xbdb88069	-0.09008867
156	0xbd596a2c	-0.05307977
157	0xbd6ee8fe	-0.058327667
158	0xbb4ec3bf	-0.003154978
159	0xbd7bd4ba	-0.06148217
160	0xbd2060ab	-0.03915469
161	0x3c2ff473	0.010739434
162	0xbdc55b65	-0.09636573
163	0xbc48eb75	-0.012263169
164	0xbe4e94da	-0.2017397
165	0xbcf9767c	-0.030452006
166	0xbe44799c	-0.19187015
167	0xbdf6859f	-0.12037205
168	0xbd9002d5	-0.0703179
169	0xbcc2c132	-0.023773763
170	0xbca7d363	-0.02048654
171	0xbda6cf11	-0.081449635
172	0xbe15c670	-0.14626479
173	0x3c16cca9	0.009204068
174	0xbc0189dc	-0.007906403
175	0xbcc0386d	-0.023464406
176	0xbdaa2f52	-0.08309807
177	0x3e489519	0.19588126
178	0xbcc06ab0	-0.023488373
179	0xbd56be5d	-0.05242764
180	0x3c8b6d2c	0.01701983
181	0x3dbbf99f	0.09178471
182	0xbd28f70c	-0.041251227
183	0xbd8b0558	-0.067881286
184	0x3d5ed7cb	0.054405015
185	0xbd69c5fb	-0.057073575
186	0x3c3cb501	0.011517764
187	0xbd3eef1d	-0.046614755
188	0xbd78a784	-0.06070663
189	0xbcd79ee5	-0.026320884
190	0x3e1a3696	0.15059885
191	0x3c769845	0.015050952
192	0xbcb285e1	-0.021792354
193	0xbd41bc62	-0.047298796
194	0xbdadd2ab	-0.08487447
195	0xbd0ea07a	-0.03482101
196	0xbd612cd3	-0.05497439
197	0x3d736d44	0.059430376
198	0xbcd21ac3	-0.025647527
199	0xbe10789b	-0.14108507
200	0xbe74b38b	-0.23896615
201	0xbe2ff36c	-0.17182702
202	0xbe6a3e73	-0.22875385
203	0x3c60972f	0.01370792
204	0xbcde156e	-0.027109828
205	0xbec2fe83	-0.38084802
206	0xbc1ee5af	-0.0096983155
207	0xbcd23423	-0.025659626
208	0xbe7cce57	-0.24688087
209	0xbe49595b	-0.19662993
210	0xbc8379be	-0.016049262
211	0xbe003b71	-0.12522675
212	0xbd70826e	-0.058718137
213	0xbdc9ec6d	-0.09859548
214	0xbd8ab352	-0.06772484
215	0xbe3438cf	-0.17599796
216	0x3c67cbcb	0.014147709
217	0xbde6736f	-0.11252486
218	0xbd495ac8	-0.04915884
219	0x3e16ef4b	0.1473972
220	0xbd684838	-0.0567095
221	0xbb82a015	-0.0039863684
222	0xbd5cfee8	-0.053954035
223	0xbe48a3af	-0.1959369
224	0x3da415be	0.080119595
225	0xbe2a3746	-0.16622648
226	0xbe46ec07	-0.19425975
227	0xbd2d5e2d	-0.04232614
228	0x3bc330b6	0.0059567345
229	0xbd098c7c	-0.033581242
230	0x3cdce607	0.026965154
231	0xbd8657c1	-0.065597065
232	0xbc2e5c8f	-0.010642185
233	0xbf2d494f	-0.67689985
234	0x3db94b01	0.09047509
235	0xbdbb87a4	-0.09156731
236	0xbd28fffd	-0.041259754
237	0xbd023415	-0.03178795
238	0xbb9e40f9	-0.0048295227
239	0xbd2ecc29	-0.04267517
240	0xbdc42100	-0.09576607
241	0xbc47c17b	-0.012192125
242	0xbddcb0ea	-0.10775931
243	0xbc57454e	-0.013139082
244	0xbd3fbc0f	-0.046810206
245	0x3cb14a8b	0.02164199
246	0xbd074a76	-0.033029996
247	0x3cc63674	0.024195887
248	0xbe9504c4	-0.29105198
249	0xbc2106c5	-0.009828274
250	0xbd087991	-0.03331906
251	0xbccfb1bd	-0.025353307
252	0x3c9b3d48	0.01895012
253	0xbe0a552c	-0.13509053
254	0xbe353093	-0.17694311
255	0xbd205abf	-0.039149042

model.4.weight f4 [64, 256]
0	0x3cbbd719	0.022929715
1	0xbd9581b9	-0.07300133
2	0x3d02005a	0.031738617
3	0xbd35309f	-0.04423582
4	0x3c7f5c13	0.015585917
5	0xbda1a8b9	-0.078935094
6	0xbd450aa5	-0.048105855
7	0x3ce43927	0.027859284
8	0x3b6b99da	0.0035949857
9	0x3c67a71a	0.014138961
10	0xbd6cde0f	-0.05782896
11	0x3db122e6	0.086492345
12	0xbce6f2b7	-0.028191907
13	0xbcf295b8	-0.029612407
14	0xbd8016db	-0.06254359
15	0xbd9a7003	-0.07540896
16	0x3bc37286	0.00596458
17	0xbd19740d	-0.03746419
18	0x3c9c71c0	0.019097209
19	0x3d2b04be	0.04175257
20	0xbd2f4c92	-0.042797633
21	0xbd4b7bf6	-0.049678765
22	0x3d9e44f8	0.077279985
23	0xbd01076b	-0.031501215
24	0xbd9bbcfb	-0.076044045
25	0xbc72c70f	-0.014817967
26	0xbd75f875	-0.0600514
27	0x3c642276	0.013924232
28	0x3b6f58ae	0.0036521363
29	0xbcc66a1c	-0.024220519
30	0x3d04a8ae	0.032387428
31	0xbc29a319	-0.010353827
32	0x3dbc565c	0.09196159
33	0x3d908756	0.07057063
34	0xbd3d4c7e	-0.046215527
35	0xbd42de6c	-0.0475754
36	0xbd4adefe	-0.04952907
37	0x3cdbf148	0.02684845
38	0x3b2a9640	0.0026029497
39	0xbd69a4dc	-0.057041988
40	0xbb073719	-0.0020632206
41	0xbd636c21	-0.05552304
42	0xbbafed0f	-0.0053688358
43	0xbd15dd8c	-0.036588237
44	0xbd468340	-0.048465014
45	0xbd91b237	-0.0711407
46	0xbdf2e330	-0.11859739
47	0xbd652e18	-0.05595216
48	0x3d8daf43	0.06918194
49	0x3cb6ecfe	0.022329804
50	0x3b9f1a34	0.0048554186
51	0x3d4df548	0.050282747
52	0xbe6a8ccb	-0.22905271
53	0xbb5e18c5	-0.0033889276
54	0xbceb1a8c	-0.028699182
55	0x3cea0bf5	0.028570155
56	0xbc1ffb80	-0.009764552
57	0xbd2a0a63	-0.04151381
58	0xbe3c624c	-0.18396872
59	0xbe591ab3	-0.21201591
60	0x3d04c9f7	0.03241917
61	0x3c574e3c	0.013141211
62	0xbcd26052	-0.025680695
63	0xbda098e8	-0.078416646
64	0x3dec5b6c	0.11540875
65	0xbb851083	-0.0040608062
66	0xbb9fdac7	-0.004878375
67	0x3c9b707c	0.018974535
68	0x3c252702	0.010080101
69	0xbd3965d7	-0.045263138
70	0xbcf4cc76	-0.02988265
71	0xbd27db2b	-0.0409805
72	0xbd5bbb27	-0.05364528
73	0x3d16173c	0.03664325
74	0xbe2b0783	-0.16702084
75	0x3d9e64df	0.077340834
76	0x3c7f5bcd	0.015585852
77	0x3c469bde	0.012122123
78	0xbdac9699	-0.08427162
79	0xbbb3bbb0	-0.0054850206
80	0x3c57bef6	0.013168087
81	0xbd869ed5	-0.065732636
82	0x3cfaf290	0.030633241
83	0xbd222ed6	-0.039595447
84	0xbd1750c8	-0.036942273
85	0xbcd5fbc9	-0.026121037
86	0x3ce3aac5	0.02779139
87	0xbcde5948	-0.027142182
88	0xbe42f150	-0.19037366
89	0xbd176709	-0.036963496
90	0xbd8c5c4e	-0.06853543
91	0x3acc0ed1	0.001556838
92	0xbe2275f5	-0.1586531
93	0xbd8c5ebe	-0.06854008
94	0x3d1b1faa	0.037871994
95	0xbde9a8ec	-0.114091724
96	0xbd90bd86	-0.07067399
97	0x3d3c9f6a	0.046050467
98	0x3af43153	0.0018630422
99	0xbc44dbf0	-0.012015328
100	0xbca616ed	-0.020274604
101	0x3cb1d4ae	0.021707859
102	0x3c5244f0	0.012833819
103	0xbd7c8f22	-0.06165994
104	0xbe0586a4	-0.13039643
105	0xbb98dfe7	-0.004665363
106	0xbd0fe7c6	-0.035133146
107	0xbe223497	-0.15840374
108	0x3da585d6	0.08082168
109	0xbd64eff7	-0.05589291
110	0xbba70320	-0.005096808
111	0xbb98e014	-0.004665384
112	0x3c979d0e	0.018507507
113	0xbd8a431d	-0.06751082
114	0xbdc26ea4	-0.09493759
115	0xbd9281f4	-0.07153693
116	0xbcbc7334	-0.023004152
117	0xbd9403cb	-0.07227286
118	0x3c461cdd	0.0120918425
119	0x3ca15040	0.019691586
120	0x3b867ac3	0.00410399
121	0xbcc46d30	-0.023977846
122	0xbd0b946a	-0.034077086
123	0xbc9f9d25	-0.019484112
124	0x3d8eebbe	0.06978558
125	0xbc866c4b	-0.01640906
126	0x3d76894b	0.060189527
127	0xbdad6542	-0.08466579
128	0xbe3a6f20	-0.18206453
129	0xbe5eb512	-0.2174876
130	0x3d8ef061	0.069794424
131	0x3d443636	0.047903262
132	0xbd9f7fce	-0.07788049
133	0xbd194cd8	-0.0374268
134	0xbe3a0d70	-0.18169188
135	0xbd0591e2	-0.032609828
136	0xbd9d3fb1	-0.07678164
137	0x3cb1db17	0.021710915
138	0xbe0eb05b	-0.13934462
139	0xbce9031a	-0.028443862
140	0x3d50f054	0.051010445
141	0xbd173205	-0.036912937
142	0x3d18fe24	0.037351742
143	0xbe4eda5d	-0.20200486
144	0x3c8b23c4	0.016984828
145	0x3d2fd8a3	0.04293121
146	0x3afb55e3	0.0019175377
147	0xbd762740	-0.060096025
148	0xbebbdb14	-0.3669058
149	0xbe3483b4	-0.17628366
150	0x3c747807	0.014921195
151	0x3cd8ed3c	0.02648031
152	0xbd738a76	-0.05945822
153	0xbe8448e5	-0.25836864
154	0xbb24ac31	-0.0025127048
155	0x3d28eaa1	0.041239385
156	0x3cd8f0b7	0.02648197
157	0x3da48473	0.08033075
158	0xbaa49004	-0.0012555127
159	0x3d00e864	0.031471625
160	0xbac93d75	-0.0015353399
161	0xbe206847	-0.15664779
162	0xbcfb56f2	-0.030681107
163	0x3d75c9b2	0.060006805
164	0xbd13cdaa	-0.03608481
165	0xbc67c8b3	-0.0141469715
166	0xbcbfe9ac	-0.023426853
167	0x3bc11e29	0.005893488
168	0xbc0751ad	-0.008259219
169	0xbc1c2c79	-0.0095320875
170	0xbd8c4d03	-0.06850626
171	0xbd714438	-0.05890295
172	0xbd758ac6	-0.059946798
173	0xbc6a332e	-0.014294429
174	0xbcf38beb	-0.029729804
175	0xbcdc56ed	-0.026896918
176	0xbe09f634	-0.13472825
177	0xbca893d0	-0.020578295
178	0xbb70fd9b	-0.0036772254
179	0x3cdc3846	0.026882302
180	0x3bed1f30	0.007236384
181	0xbd6004d7	-0.054692116
182	0xbbb2b66f	-0.0054538767
183	0xbe016d3d	-0.12639327
184	0xbec3873a	-0.38189107
185	0x3d057951	0.0325864
186	0xbc855ab7	-0.016278608
187	0xbcb2a63c	-0.021807782
188	0x3d575e2b	0.05258004
189	0xbd49467b	-0.04913948
190	0xbdc97267	-0.09836274
191	0xbdeb62de	-0.11493467
192	0xbcde2f41	-0.027122142
193	0xbd88f009	-0.06686408
194	0xbdb4a74a	-0.0882097
195	0xbd2f99b9	-0.04287121
196	0x3d710267	0.05884018
197	0xbd4e2a05	-0.05033304
198	0x3cfd3607	0.030909551
199	0xbd64f0bc	-0.055893645
200	0xbd8577af	-0.065169685
201	0xbdb9b983	-0.09068587
202	0xbe1ecbec	-0.15507478
203	0xbd219d7a	-0.039456822
204	0xbd8d232b	-0.068914734
205	0xbdf9df43	-0.12200787
206	0x3c317c55	0.010832866
207	0x3c7a9d9f	0.015296369
208	0xbe2b640a	-0.1673738
209	0x3e1c67e9	0.15274014
210	0x3c31c6fb	0.010850663
211	0x3e1e218b	0.15442483
212	0x3ce31eb8	0.027724609
213	0xbd0d8bd5	-0.034557182
214	0x3d14afc2	0.03630043
215	0x3c819174	0.015816428
216	0x3d6414d6	0.055683933
217	0xbd4e882a	-0.050422825
218	0xbd2daeb8	-0.042402953
219	0xbbeda035	-0.007251764
220	0xbc8a0c30	-0.016851515
221	0xbccf7ad1	-0.025327118
222	0x3cb26942	0.021778706
223	0xbda540e1	-0.08069015
224	0x3b0e1866	0.0021682023
225	0x3d99d577	0.07511418
226	0xbdab0dee	-0.08352266
227	0xbd465bc0	-0.048427343
228	0x3d898b3b	0.06716009
229	0xbe032f14	-0.12810928
230	0xbd6a6f8c	-0.057235286
231	0xbd8560dc	-0.06512615
232	0xbd809336	-0.06278078
233	0x3d1df25f	0.03856122
234	0xbde6358f	-0.11240684
235	0x3cf1b648	0.029505864
236	0xbd27febf	-0.04101443
237	0x3c2cf1b9	0.010555678
238	0xbd9f51a1	-0.07779241
239	0xbd8da934	-0.069170386
240	0xbbbec670	-0.0058219954
241	0x3d8b0560	0.067881346
242	0xbd95c9e8	-0.07313901
243	0x3d1d2c30	0.03837222
244	0xbd2b6ae1	-0.041849975
245	0x3c1975d8	0.009366475
246	0xbd83dd46	-0.06438689
247	0x3c8c4bf3	0.01712606
248	0x3d2df6e6	0.04247179
249	0xbd1c3fee	-0.038146906
250	0x3d19e415	0.03757103
251	0x3cb11c3d	0.02161991
252	0xbd149f7c	-0.03628491
253	0xbcfa638c	-0.030565046
254	0x3ccc3146	0.02492584
255	0xbcd7c070	-0.026336879

model.4.bias f4 [64]
0	0xbdcfd471	-0.10147942
1	0x3e39deed	0.18151446
2	0xbd45da22	-0.04830373
3	0x3ed48e0d	0.41514626
4	0xbea2fcb5	-0.31833425
5	0xbe9092d2	-0.28237015
6	0xbd879304	-0.06619838
7	0xbeeb50c7	-0.45960066
8	0xbd4af9a1	-0.04955447
9	0x3e81327b	0.25233826
10	0xbe127b62	-0.1430488
11	0xbf70f6da	-0.94126666
12	0xbd680887	-0.056648757
13	0xbe638d4f	-0.22221874
14	0xbea741f6	-0.32667512
15	0xbe0bdbf7	-0.13658129
16	0x3e76627a	0.24061003
17	0xbe9eb365	-0.30996242
18	0xbd50cd34	-0.050976947
19	0xbdda15c0	-0.1064868
20	0xbd4a4915	-0.049386103
21	0xbe3f8e7a	-0.18706694
22	0xbf1ad53b	-0.60481614
23	0xbdfc852e	-0.123300895
24	0xbbd75281	-0.0065711145
25	0xbe03d125	-0.12872751
26	0xbe478545	-0.19484432
27	0xbf1e402c	-0.6181667
28	0xbef1ad10	-0.4720235
29	0xbd131c0f	-0.03591543
30	0xbd6043f9	-0.054752324
31	0xbe081c96	-0.13292155
32	0xbe8924cf	-0.26785895
33	0xbe270d11	-0.16313578
34	0xbdc8218f	-0.09772026
35	0xbdb27e2c	-0.087154716
36	0xbea644fa	-0.324745
37	0xbe87c3f1	-0.2651668
38	0xbdb13d29	-0.086542435
39	0xbd96f151	-0.07370246
40	0xbe900de9	-0.28135613
41	0xbd0f7946	-0.035027765
42	0xbefea360	-0.4973402
43	0xbea4308a	-0.32068282
44	0x3dce3144	0.100679904
45	0x3ed44fca	0.41467124
46	0xbbbc79de	-0.0057518324
47	0xbdd28cba	-0.10280748
48	0xbebc011a	-0.3671959
49	0xbda2e44f	-0.07953703
50	0x3e843be3	0.2582694
51	0xbe754ed6	-0.23955855
52	0x3d838d74	0.064234644
53	0xbe6188b8	-0.2202481
54	0xbccf924d	-0.025338316
55	0x3f0cb394	0.54961514
56	0x3db7f404	0.08982089
57	0xbe0ad54f	-0.13557933
58	0x3f854d1a	1.0414155
59	0x3ceb4217	0.028718038
60	0xbc1598e4	-0.00913069
61	0xbe81e699	-0.25371245
62	0xbd13ab41	-0.036051992
63	0xbdbcf99b	-0.09227296

model.6.weight f4 [1, 64]
0	0x3d3f9130	0.04676932
1	0xbcb4ca8d	-0.02206924
2	0xbd27ec83	-0.04099704
3	0xbd377ab6	-0.04479476
4	0x3a00dc56	0.0004915645
5	0xbc6a4a71	-0.014299975
6	0xbc129ba0	-0.008948237
7	0xbdea63e5	-0.114448346
8	0x3b7630db	0.0037565741
9	0xbc029316	-0.007969638
10	0xbd2db6a3	-0.042410504
11	0xbdff4f3c	-0.12466285
12	0x3bb614c5	0.005556675
13	0x3dd53ada	0.10411616
14	0xbdb6fd87	-0.08935075
15	0xbbc91c42	-0.006137402
16	0x3e2edcf2	0.17076471
17	0xbaf849fd	-0.0018942949
18	0x3dd55957	0.10417431
19	0x3d78cd74	0.06074281
20	0x3bd83f0d	0.006599313
21	0x3d9ec22b	0.07751878
22	0x3d970278	0.07373518
23	0x3c3946f0	0.011308417
24	0x3e30b40a	0.1725618
25	0x3db53b2e	0.08849178
26	0x3ca1076f	0.019656865
27	0xbd581558	-0.05275473
28	0x3d9e592c	0.07731852
29	0x3d2b0d4f	0.04176074
30	0x3c0d6aae	0.008631391
31	0x3ac9ec5a	0.0015405521
32	0xbd140fb0	-0.036147773
33	0xbc6f69f5	-0.0146126645
34	0x3d42e9af	0.04758614
35	0x3da80231	0.08203543
36	0xbda6f20b	-0.08151635
37	0x3bfcf980	0.0077201724
38	0x3c30cf76	0.01079165
39	0xbc680a4e	-0.014162613
40	0x3d7c11c4	0.06154038
41	0x3e20b94e	0.15695688
42	0x3e0e429a	0.13892594
43	0x3dbe2571	0.09284485
44	0x3bb67c37	0.005569007
45	0xbe277492	-0.16353062
46	0xbd9986a4	-0.07496384
47	0xbe58e606	-0.21181497
48	0x3dffe7d9	0.12495393
49	0xbbae472c	-0.005318543
50	0x3d54e8b9	0.051979754
51	0x3e6090a6	0.21930179
52	0xbcad152d	-0.021128261
53	0x3d82efdf	0.06393408
54	0x3c53115b	0.012882556
55	0xbeb491bb	-0.35267434
56	0xbc8378cb	-0.01604881
57	0x3c2c8868	0.010530569
58	0xbeb2ec46	-0.34945887
59	0x3d01c135	0.031678397
60	0xbe1b23b0	-0.15150332
61	0xbd1eda2b	-0.03878228
62	0xbce8222d	-0.028336609
63	0x3d13838d	0.03601413
