model_weight/critic/13_13 23:46:57 std 0.4 lr_critic_0.004- gamma_0.7 memory500 critic_weight.pth (torch, 645007 bytes, 7 tensors)

model.0.weight f4 [512, 24]
0	0x3aa262b6	0.0012389037
1	0xbda32932	-0.07966842
2	0xbe2f378b	-0.17111032
3	0xbd689440	-0.056782007
4	0xbe1fd627	-0.15609036
5	0x3d38020f	0.04492384
6	0xbd9a28ca	-0.07527311
7	0xbe05bc88	-0.130602
8	0xbdca45c9	-0.09876592
9	0xbe0baa12	-0.13639095
10	0x3b5d6100	0.003377974
11	0xbe18b7e4	-0.14913899
12	0x3a34f88d	0.0006903492
13	0xbd1aa118	-0.037751287
14	0xbdef3f59	-0.116820045
15	0x3dc44335	0.09583131
16	0x3d656608	0.056005508
17	0xbd76b2c9	-0.060229097
18	0xbd8d67c5	-0.06904558
19	0xbe7ac3af	-0.2448871
20	0xbe77afec	-0.24188203
21	0xbb2c8a81	-0.0026327672
22	0xbe843740	-0.25823402
23	0xbe4126f4	-0.18862516
24	0x3f118613	0.56845206
25	0x3f024dc5	0.50899917
26	0xbeb8002b	-0.35937628
27	0xbf6fa2b3	-0.93607634
28	0x3eab92b3	0.3351036
29	0xbdfb58b4	-0.12272778
30	0x3e0184e9	0.12648357
31	0x3db7b9ae	0.089709625
32	0x3e4411c5	0.19147404
33	0x3e894d81	0.26816943
34	0xbcf27159	-0.029595064
35	0x3e1b24c3	0.15150742
36	0xbdcfb5ea	-0.10142119
37	0x3c546603	0.012963775
38	0xbe456dbb	-0.1928014
39	0xbe4ae265	-0.19812925
40	0xbefc07f7	-0.49224827
41	0xbec989e6	-0.3936302
42	0xbe9a810c	-0.3017658
43	0xbf021536	-0.50813615
44	0xbe21c242	-0.1579676
45	0xbf010b0c	-0.5040748
46	0xbef791dc	-0.4835347
47	0x3cb8358c	0.02248647
48	0xbe9cc7e6	-0.3062126
49	0xbe0ac07e	-0.13549992
50	0xbcde87ed	-0.027164424
51	0xbee0a41a	-0.438752
52	0x3e364070	0.17798018
53	0xbdb12ec5	-0.08651499
54	0x3ea63d66	0.32468718
55	0xbd131e69	-0.035917673
56	0xbdfe9aab	-0.12431844
57	0x3d1dbbdf	0.038509246
58	0x3cc6604c	0.02421584
59	0x3d394d42	0.045239694
60	0xbc0a657c	-0.008447047
61	0xbd1abe40	-0.037779093
62	0xbec9a460	-0.3938322
63	0xbdad182f	-0.08451878
64	0xbe2ef469	-0.17085423
65	0xbe8ded12	-0.27719933
66	0xbe8cc0d9	-0.2749088
67	0xbe16d774	-0.14730626
68	0xbd92bdd0	-0.0716511
69	0xbe845da4	-0.25852692
70	0xbe6ce2d5	-0.23133405
71	0xbe99f728	-0.30071378
72	0x3b7bb338	0.0038406383
73	0x3d3f134a	0.046649255
74	0x3d23d525	0.039998192
75	0xbdbeb2ff	-0.093114845
76	0xbd10d560	-0.03535974
77	0xbc7e3a36	-0.015516808
78	0x3e202e00	0.15642548
79	0xbd925006	-0.071441695
80	0xbe0e733b	-0.13911144
81	0x3c8a32cf	0.01686993
82	0x3d0a61ba	0.033784606
83	0xbe026755	-0.1273473
84	0xbd8dba89	-0.069203444
85	0x3d0ae8bb	0.033913355
86	0x3d391547	0.045186307
87	0xbba3ba85	-0.0049966
88	0xbd756b73	-0.059916925
89	0xbe802281	-0.25026324
90	0x3d873031	0.06600989
91	0xbc213bc6	-0.009840911
92	0xbe52ee0f	-0.20598625
93	0xbda51aab	-0.08061727
94	0xbe5de3ef	-0.21668981
95	0xbe86fc1a	-0.26364213
96	0xbd5ce173	-0.053925943
97	0x3e9fbeb0	0.3120017
98	0x3eb4bf15	0.35302034
99	0xbf3a07d9	-0.72668225
100	0x3c3bffcd	0.011474562
101	0x3c8497b7	0.016185625
102	0x3dd7ab8d	0.105307676
103	0xbd166901	-0.036721233
104	0xbdb0024e	-0.085941896
105	0x3eba02e2	0.36330324
106	0x3c647a57	0.013945184
107	0xbe33460c	-0.1750719
108	0x3c4f89a7	0.012667096
109	0xbdc7d234	-0.0975689
110	0xbece8425	-0.40335193
111	0xbf0a4f5b	-0.54027337
112	0xbee2e680	-0.44316483
113	0xbe810f69	-0.2520707
114	0xbf0c8097	-0.5488371
115	0xbeb22cd5	-0.3479983
116	0xbea7eae3	-0.32796392
117	0xbee3cb92	-0.4449125
118	0xbecf68d6	-0.4050967
119	0x3d47b1aa	0.048753418
120	0x3e54f6db	0.20797293
121	0xbf2cac34	-0.6745026
122	0x3e7d0909	0.24710478
123	0x3f09aa9b	0.5377595
124	0xbde09e98	-0.10967749
125	0xbdd4ba40	-0.10387087
126	0xbd94623f	-0.072453015
127	0xbd5ca28c	-0.053865954
128	0x3adf120b	0.0017018927
129	0xbd9b2c67	-0.075768284
130	0xbdaa61f1	-0.08319462
131	0xbe053b6d	-0.1301095
132	0x3be73538	0.0070559047
133	0xbcc7b7ef	-0.024379699
134	0xbc95394a	-0.018215794
135	0xbd0d06e0	-0.034430385
136	0x3d55717d	0.052110184
137	0x3c543641	0.012952388
138	0xbdb50d11	-0.08840383
139	0xbd07adb8	-0.033124655
140	0xbe3328c6	-0.17496023
141	0x3e0f516e	0.13995907
142	0x3d417067	0.047226336
143	0xbde3abc8	-0.11116749
144	0xbf75047b	-0.9570996
145	0xbe949742	-0.2902165
146	0x3e71b646	0.23604688
147	0xbdb7c229	-0.0897258
148	0xbd9a31c9	-0.07529027
149	0xbcb373bc	-0.021905772
150	0x3ea353f2	0.31899983
151	0xbc9a2cd8	-0.018820211
152	0x3b0c2cbe	0.0021388973
153	0xbe69fe86	-0.22850999
154	0x3b04a49e	0.002023972
155	0xbe7f5772	-0.24935701
156	0xbc2a7db6	-0.010405948
157	0x3c32d258	0.010914408
158	0xbea5687f	-0.32306287
159	0xbe282d3d	-0.16423507
160	0xbed995f3	-0.42497215
161	0xbebbc56a	-0.36674052
162	0xbe24a2c9	-0.16077723
163	0xbec3d7ba	-0.38250524
164	0xbe4face3	-0.20280795
165	0xbdb13129	-0.08651955
166	0xbec3e0df	-0.382575
167	0x3f03fd8f	0.51558775
168	0xbe180f5e	-0.14849612
169	0xbd1977c1	-0.03746772
170	0x3e89c956	0.2691142
171	0xbdc6c115	-0.09704796
172	0xbe312a8e	-0.1730139
173	0x3dcfedd5	0.10152785
174	0xbd1fb1f5	-0.038988072
175	0xbc2fd83a	-0.010732705
176	0xbb50de32	-0.003187072
177	0x3d9920ed	0.07476983
178	0xbe58d587	-0.21175204
179	0xbe3e1956	-0.18564352
180	0x3e4b06ee	0.19826862
181	0x3d3054de	0.043049686
182	0xbc870b41	-0.016484858
183	0x3ca5b22e	0.020226564
184	0xbe7250ab	-0.23663585
185	0xbe4d7c70	-0.20067
186	0xbe8ba988	-0.2727778
187	0x3ba7d29f	0.0051215435
188	0xbe807b87	-0.25094244
189	0xbe8ac952	-0.2710672
190	0xbe943bb9	-0.28951815
191	0xbe330604	-0.17482764
192	0xbe3fab23	-0.18717627
193	0xbeab488d	-0.3345379
194	0x3e86bab1	0.2631431
195	0xbe49b30e	-0.1969721
196	0xbbf310e5	-0.0074177855
197	0xbc0b7431	-0.008511589
198	0xbe1d8f69	-0.15386738
199	0xbda50be5	-0.08058909
200	0xbd5fd0ea	-0.054642595
201	0xbda6eb27	-0.081503205
202	0x3dfee18b	0.12445363
203	0xbe9606b3	-0.29301986
204	0x3d9346bc	0.07191226
205	0x3dd5018d	0.104006864
206	0xbec5d9e4	-0.386428
207	0xbe974a33	-0.29548797
208	0xbec52bab	-0.3850988
209	0xbe451359	-0.19245662
210	0xbe0190ab	-0.12652843
211	0xbeba497c	-0.3638419
212	0xbe1567d3	-0.14590387
213	0xbec221b0	-0.37916327
214	0xbddbe0b5	-0.10736219
215	0xbe6af3f5	-0.22944625
216	0xbe998d9c	-0.29990852
217	0x3d80d94f	0.06291448
218	0x3d6b842d	0.0574991
219	0xbe837b43	-0.2567998
220	0x3d9995dd	0.07499287
221	0xbd902589	-0.07038409
222	0x3d91a481	0.07111455
223	0xbde2994f	-0.110643975
224	0xbe18ce57	-0.14922462
225	0xbcfb369f	-0.030665694
226	0xbca7fa14	-0.020504989
227	0xbd9ffc58	-0.078118026
228	0x3d387856	0.045036636
229	0xbd2fd342	-0.04292608
230	0xbea5aa5b	-0.32356533
231	0xbed854a9	-0.4225209
232	0xbde6a423	-0.11261775
233	0xbeb013f9	-0.34390238
234	0xbdf592f8	-0.11990923
235	0xbdae2979	-0.08504004
236	0xbdff4232	-0.12463798
237	0xbe1077c9	-0.14108194
238	0xbddb9dc7	-0.10723453
239	0xbe0ac9aa	-0.13553491
240	0x3e277d0c	0.16356295
241	0xbdb0c87b	-0.086319886
242	0x3ac9f303	0.0015407506
243	0x3eb2b237	0.34901592
244	0x3e30b70b	0.17257325
245	0xbe08ea03	-0.13370518
246	0xbe8d2d5e	-0.27573675
247	0x3ca1ce5b	0.019751718
248	0xbde9ecbf	-0.11422109
249	0x3dbbc1e2	0.091678396
250	0xbd0fc906	-0.03510382
251	0x3d500965	0.05079021
252	0x3d869c70	0.06572807
253	0xbe0a981f	-0.13534592
254	0xbe36477e	-0.1780071
255	0xbe3ae448	-0.18251145

model.0.bias f4 [512]
0	0xbe174984	-0.14774138
1	0x3cbea6f2	0.023272965
2	0xbe729751	-0.23690535
3	0x3d9d0e58	0.076687515
4	0x3e049f20	0.12951326
5	0xbe66fabc	-0.22556585
6	0x3ea9649d	0.33084574
7	0xbe7af4cf	-0.2450745
8	0xba879c53	-0.0010346271
9	0xbe5452e2	-0.20734742
10	0xbea17d2b	-0.31540808
11	0xbe2cbf88	-0.16869938
12	0x3e0bd220	0.13654375
13	0x3ee7d53b	0.4527987
14	0x3e3fa71c	0.18716091
15	0xbe941b39	-0.2892702
16	0xbdcd2ea5	-0.10018662
17	0xbcf4a1b2	-0.029862259
18	0xbe685630	-0.22689128
19	0xbe5fb7d8	-0.21847475
20	0xbe407fe4	-0.18798786
21	0xbe85ac1d	-0.26107875
22	0x3ea4fd0b	0.32224306
23	0x3ebc1e42	0.36741835
24	0x3e395964	0.18100506
25	0xbdbb940e	-0.091590986
26	0xbdfbc328	-0.122930825
27	0x3e479e14	0.19493896
28	0xbe125d23	-0.14293341
29	0x3f261ec9	0.64890724
30	0xbcfea10a	-0.031082649
31	0x3ba287ac	0.004960021
32	0xbe9028c1	-0.28156093
33	0xbdaff79b	-0.08592149
34	0xbda49e51	-0.08038009
35	0x3d4588fb	0.048226338
36	0xbec25dc3	-0.3796216
37	0x3e8f41af	0.279798
38	0xbe93607d	-0.28784552
39	0xbe8cc750	-0.27495813
40	0xbda62823	-0.08113124
41	0x3ee29e4c	0.44261396
42	0x3e6592c7	0.22419272
43	0x3e596467	0.21229707
44	0x3e87eccd	0.26547852
45	0x3e91f1ce	0.28504795
46	0x3dc798cb	0.0974594
47	0xbdf44a5f	-0.11928248
48	0xbb92c742	-0.00447932
49	0x3dca984e	0.09892331
50	0xbdac5588	-0.08414751
51	0xbe5c49f3	-0.21512584
52	0xbe8ff92f	-0.281198
53	0xbe3334a0	-0.17500544
54	0x390dc477	0.00013519997
55	0xbe9ada25	-0.30244556
56	0x3cc3388c	0.023830675
57	0x3a3adbf7	0.0007128114
58	0xbe4a95ec	-0.19783753
59	0xbe0a221f	-0.13489579
60	0xbe9de4ae	-0.3083853
61	0x3e8307a8	0.2559178
62	0x3b36dd75	0.0027902995
63	0x3e06d2cc	0.1316635
64	0x3e3de1f3	0.18543224
65	0x3e27cbf5	0.16386397
66	0x3b379cbc	0.0028017005
67	0xbdc3808c	-0.09546003
68	0x3d7fb3e3	0.062427413
69	0x3e2e4998	0.17020261
70	0x3ebeb612	0.37248284
71	0xbe4d5a53	-0.20053987
72	0xbdcedb3d	-0.1010041
73	0x3f1aa6d7	0.6041083
74	0xbe84a0d0	-0.2590394
75	0x3ef54a51	0.4790826
76	0x3e1093b4	0.14118844
77	0xbccda193	-0.025101459
78	0x3e8fccc9	0.28085926
79	0x3eae1969	0.3400376
80	0x3de3f765	0.11131171
81	0xbc543da6	-0.012954151
82	0x3e09d1c1	0.13458921
83	0xbea91f88	-0.3303187
84	0x3e865444	0.26236165
85	0xbe54e1ad	-0.20789213
86	0xbd82920b	-0.06375512
87	0xbd9477e0	-0.07249427
88	0x3daf0eef	0.0854777
89	0xbe944da9	-0.289655
90	0xbda2c515	-0.07947747
91	0xbe5819f9	-0.21103658
92	0xbeb2411f	-0.34815308
93	0xbdf510bc	-0.119660825
94	0xbd8d585e	-0.0690162
95	0xbe481465	-0.1953903
96	0x3e86abbd	0.263029
97	0x3cb52cfc	0.022116177
98	0x3cb0ffa5	0.021606276
99	0xbe49bc71	-0.19700791
100	0xbe5127ec	-0.20425385
101	0x3ea603a9	0.32424667
102	0x3ed3100b	0.41223177
103	0xbe3a97f3	-0.18222027
104	0x3e1c3434	0.15254289
105	0x3d1509ac	0.036386177
106	0xbe7cb387	-0.24677859
107	0xbdee5e9f	-0.11639141
108	0x3d3885e3	0.04504956
109	0x3e7d9833	0.2476509
110	0x3e9ca1f5	0.30592313
111	0x3e55019d	0.20801397
112	0x3f11ca45	0.56949264
113	0xbd06577a	-0.032798268
114	0x3e14fc9a	0.14549485
115	0xbe918cf2	-0.28427845
116	0x3e2d368b	0.16915338
117	0xbe537636	-0.20650563
118	0xbd28c5fd	-0.04120444
119	0xbe728975	-0.23685248
120	0x3dbef30e	0.09323703
121	0xbe01926a	-0.12653509
122	0xbe392eaf	-0.18084215
123	0xbd11f06a	-0.035629667
124	0x3e32b2b1	0.17450978
125	0xbea835b8	-0.32853484
126	0xbe9a5595	-0.3014342
127	0x3dcb9f68	0.09942514
128	0xbc7df6a1	-0.015500695
129	0xbb8ed676	-0.004359062
130	0x3eb54594	0.35404646
131	0xbe4997eb	-0.19686858
132	0x3d79dfa9	0.061004315
133	0xbe3ad00e	-0.18243429
134	0x3de2ecff	0.1108036
135	0xbe773ab3	-0.24143486
136	0xbe3253d5	-0.17414792
137	0xbe6be11f	-0.23035096
138	0xbe1b238b	-0.15150277
139	0x3dcadafd	0.0990505
140	0x3e8edc36	0.27902383
141	0xbe5fd0b3	-0.21856956
142	0x3e302a62	0.17203668
143	0xbe90df4b	-0.2829536
144	0xbcf85eea	-0.030318696
145	0x3d0cb00a	0.03434757
146	0xbdb28d4e	-0.08718358
147	0xbd2000d6	-0.039063297
148	0xbe948928	-0.29010892
149	0xbb694781	-0.0035595598
150	0xbe0f90b6	-0.14020047
151	0xbe6b1924	-0.22958809
152	0xbe9300ce	-0.2871155
153	0x3e743b7b	0.23850815
154	0xbe8ee693	-0.2791029
155	0xbe979cde	-0.29611868
156	0xbd6bd2a0	-0.057573915
157	0xbe19a3ba	-0.15003863
158	0xbe526510	-0.20546365
159	0x3d67d7fd	0.056602467
160	0xbe9bbc61	-0.3041716
161	0xbf199421	-0.5999165
162	0xbe2d4419	-0.16920508
163	0xbe204095	-0.15649636
164	0x3e6898cf	0.22714542
165	0xbdbb48a3	-0.09144714
166	0xbdf6ff93	-0.12060466
167	0xbe8c0221	-0.27345374
168	0xbecfaec3	-0.4056302
169	0x3dd30b9d	0.103049494
170	0x3f02e816	0.51135385
171	0xbe8572fb	-0.26064286
172	0x3e989fe8	0.298095
173	0xbd7856d6	-0.06062969
174	0x3d17c263	0.037050616
175	0x3e07933b	0.13239758
176	0xbe793e4a	-0.24340168
177	0x3e9e07d2	0.3086534
178	0x3ed4827b	0.415058
179	0xbd486feb	-0.04893486
180	0xbe0a9167	-0.13532029
181	0xbefcbbf7	-0.49362156
182	0xbe6c759b	-0.23091738
183	0x3d8aeda9	0.06783611
184	0x3e8887f1	0.26666215
185	0x3e052592	0.13002613
186	0xbe07219d	-0.13196416
187	0xbe5f3686	-0.21798143
188	0xbe1d40a0	-0.15356684
189	0xbdb36a9c	-0.087605685
190	0xbd951c3c	-0.07280776
191	0x3d453b18	0.04815206
192	0xbe4d31d0	-0.20038533
193	0x3d9d8628	0.07691604
194	0xbe187c43	-0.14891152
195	0xbd127dc1	-0.03576446
196	0xbdf94ccc	-0.12172851
197	0x3ea95ec6	0.3308012
198	0x3e9d882a	0.30767947
199	0xbd3b3193	-0.045701575
200	0xbea9821f	-0.33107087
201	0xbb852633	-0.0040633916
202	0xbe8426df	-0.25810906
203	0xbe72a4d9	-0.23695697
204	0x3d3f2a9a	0.046671487
205	0xbe9b29fd	-0.30305472
206	0xbe2139fe	-0.15744779
207	0x3e6b8129	0.2299849
208	0x3ef41fa0	0.47680378
209	0xbe29d3a3	-0.16584639
210	0x3ebf6a53	0.37385806
211	0xbcff19eb	-0.031140288
212	0xbdf70d63	-0.120631
213	0x3d6f6855	0.05844911
214	0xbe00173b	-0.12508862
215	0xbe0fa8b8	-0.14029205
216	0xbe7f1940	-0.24911976
217	0xbee1d907	-0.4411089
218	0x3e8d5235	0.2760178
219	0xbe88678f	-0.2664151
220	0xbdc6edf1	-0.097133525
221	0xbf1a30b0	-0.6023054
222	0x3cb42909	0.021992223
223	0x3d91a488	0.0711146
224	0xbdc500ff	-0.096193306
225	0x3e9ca529	0.30594757
226	0xbe2a40fb	-0.1662635
227	0xbea5107b	-0.32239136
228	0xbd9b1410	-0.07572186
229	0xbccf686f	-0.025318353
230	0xbd0e1df1	-0.034696523
231	0xbda49caf	-0.080376975
232	0xbdad0942	-0.084490314
233	0xbe5cf385	-0.2157727
234	0xbda2520b	-0.07925805
235	0xbe857a95	-0.26070085
236	0x3d2541e4	0.04034604
237	0x3d74c0b6	0.059754096
238	0xbea9fd58	-0.33201098
239	0x3d30ab94	0.04313238
240	0x3e3c2822	0.18374684
241	0xbe328322	-0.17432836
242	0xbd3c708f	-0.04600578
243	0xbd1928ae	-0.03739231
244	0xbe3c46ac	-0.18386334
245	0xbd843a3a	-0.06456418
246	0xbdf626aa	-0.12019093
247	0xbdb5073a	-0.08839269
248	0xbe72a7c5	-0.23696811
249	0xbde1e97d	-0.110308625
250	0x3e64e153	0.2235158
251	0xbdbde84a	-0.09272821
252	0x3e164e44	0.14678293
253	0x3cec1c61	0.028822126
254	0xbe8da56d	-0.27665272
255	0x3eccd6d5	0.40007654

model.2.weight f4 [256, 512]
0	0xbd551ab5	-0.052027423
1	0x3dd5ce1d	0.104397036
2	0xbd2efb70	-0.04272026
3	0xbccb64da	-0.024828363
4	0x3a20dda6	0.0006136544
5	0xbd8d4d35	-0.06899492
6	0x3c8feab8	0.017567977
7	0xbc87852c	-0.016542993
8	0xbd3a66d2	-0.045508213
9	0xbd351a67	-0.044214632
10	0xbc62f62e	-0.013852639
11	0xbcf05651	-0.029338034
12	0x3e0b7a35	0.13620837
13	0x3e1044de	0.14088771
14	0x3dc634e4	0.09678057
15	0x3c109338	0.008824162
16	0x3d4d53af	0.050128635
17	0xbd28bada	-0.04119382
18	0x39e0487d	0.00042778617
19	0x3e55fcea	0.2089726
20	0x3dd5295d	0.1040828
21	0x3db88aa5	0.09010819
22	0x3ccbd424	0.02488143
23	0x3dfabb18	0.122427166
24	0xbe0feed1	-0.14055945
25	0x3ce7836b	0.028260907
26	0xbd2a80c2	-0.0416267
27	0xbd2f310a	-0.042771377
28	0xbc70303f	-0.01465994
29	0x3e37a203	0.17932896
30	0x3c4aa6b8	0.01236885
31	0x3d588343	0.052859556
32	0x3d94a5c7	0.07258182
33	0xbc1a6dfb	-0.009425635
34	0xbd296982	-0.041360386
35	0x39418c21	0.00018458116
36	0xbe2455c0	-0.16048336
37	0x3e810668	0.252002
38	0xbc91ce43	-0.017798549
39	0x3ada2412	0.001664283
40	0x3c027b3e	0.007963954
41	0x3d2d53c1	0.042316202
42	0x3e383aee	0.1799123
43	0x3d568284	0.052370563
44	0x3e5d1b9f	0.21592568
45	0xbc8b6a50	-0.017018467
46	0x3e0aabeb	0.13542144
47	0x3c343db0	0.011001036
48	0x3d4dbee7	0.050230887
49	0x3db3e220	0.08783364
50	0xb8f62379	-0.000117368014
51	0x3da87ab9	0.082265325
52	0xbd050665	-0.0324768
53	0xb9d0189a	-0.0003969118
54	0x3dd79de1	0.1052816
55	0xbd12f347	-0.03587654
56	0x3db23c19	0.08702869
57	0x3d0e9087	0.0348058
58	0x3d5dd700	0.054160118
59	0x3d28f4b6	0.041249
60	0xbe46bc3d	-0.19407745
61	0x3df89e8e	0.12139617
62	0x3d4e8120	0.050416112
63	0x3e5264d2	0.20546272
64	0x3d8263a2	0.0636666
65	0x3c997ce2	0.018736307
66	0xbb6c76bd	-0.0036081516
67	0xbc6f0bac	-0.014590185
68	0x3e195390	0.14973283
69	0xbc241a78	-0.010016076
70	0x3d5fcd3c	0.054639086
71	0x3c73c68f	0.014878883
72	0xbe82df4d	-0.2556099
73	0x3df8db4a	0.12151201
74	0xbc0714a8	-0.008244671
75	0xbd87b055	-0.066254295
76	0xbd95f46c	-0.073220104
77	0x3d10ad65	0.035321612
78	0xbd993967	-0.07481652
79	0x3b944b10	0.0045255497
80	0x3d5587ad	0.052131344
81	0xbd42bbb3	-0.047542285
82	0xbc785be3	-0.015158626
83	0xbd4fb24f	-0.050707158
84	0xbda15b2d	-0.078787185
85	0xbb77357f	-0.0037721095
86	0xbd72e909	-0.05930427
87	0xbd9aee7a	-0.07565017
88	0xbd49d114	-0.049271658
89	0xbe3cc5aa	-0.18434778
90	0x3d468bd3	0.04847319
91	0xbd988040	-0.07446337
92	0x3c8b525f	0.017007051
93	0xbb860bcf	-0.004090763
94	0xbd5ae412	-0.05344016
95	0x3c2d8684	0.010591153
96	0x3dc45d7a	0.09588142
97	0xbd35dd52	-0.04440052
98	0xb92500c4	-0.00015735911
99	0x3c7c1e57	0.015388093
100	0xbda8923f	-0.08231019
101	0x3d18d6cc	0.03731422
102	0x3d63d076	0.055618726
103	0x3c682e0c	0.014171135
104	0x3d8ad110	0.06778157
105	0x3d07d5e5	0.03316297
106	0xbbbc5921	-0.0057479297
107	0x3cf520ad	0.029922808
108	0x3d813a24	0.063099176
109	0xbceeba75	-0.029141644
110	0x3e976463	0.29568776
111	0x3dc553c7	0.0963512
112	0x3da31c75	0.07964412
113	0x3cbb64af	0.022875158
114	0xbd2f54be	-0.042805426
115	0xbd44587a	-0.04793594
116	0xbcb0f180	-0.021599531
117	0xbb79494c	-0.0038038073
118	0xbd4a199a	-0.04934082
119	0xbc88d90a	-0.016705055
120	0xbc96571c	-0.018352084
121	0xbcd997a8	-0.026561573
122	0x3d008a92	0.03138215
123	0x3d1b4e8d	0.03791671
124	0x3da6431c	0.08118269
125	0xbe9fdeff	-0.3122482
126	0xbe9edbd4	-0.3102709
127	0xbdc5f7f4	-0.09666434
128	0x3d5c77a8	0.05382505
129	0xbc6b4406	-0.01435948
130	0x3d875f35	0.06609956
131	0xbcaa48e4	-0.02078671
132	0x3da143f5	0.0787429
133	0xbd9a5c3a	-0.07537122
134	0x3c5b59cc	0.013388108
135	0xbd6734b5	-0.05644675
136	0x3d9ba5d8	0.075999916
137	0xbc08b596	-0.008344075
138	0x3d451235	0.048113067
139	0x3b8c237a	0.00427669
140	0x3e58f819	0.21188392
141	0x3d33dd10	0.043911994
142	0x3dcfb1f9	0.101413675
143	0x3d834e62	0.06411435
144	0x3bcd0504	0.0062567014
145	0xbd2f8b26	-0.04285731
146	0xbcd21019	-0.025642442
147	0xbc1ab08b	-0.009441505
148	0xbd0faa59	-0.035074566
149	0xbc2417ce	-0.010015441
150	0xbc8df907	-0.01733066
151	0x3cd44878	0.025913462
152	0xbd3baac7	-0.045817163
153	0x3de5606e	0.11200033
154	0xbd47862e	-0.048711948
155	0xbe87285b	-0.26397976
156	0xbe292a2c	-0.16519994
157	0xbd190660	-0.037359595
158	0xbd767bb2	-0.06017656
159	0x3e9b2ed8	0.30309176
160	0x39f9093b	0.00047499858
161	0xbe7dc889	-0.2478353
162	0x3c882dc1	0.01662338
163	0xbd55c3d6	-0.052188717
164	0xbd18cc81	-0.037304405
165	0x3cf86e54	0.030326046
166	0x3c5c1915	0.013433714
167	0x390d52bc	0.00013477629
168	0xbe295f91	-0.16540362
169	0x3c891d16	0.016737502
170	0x3dc985db	0.09839984
171	0xbcb06c87	-0.021536125
172	0xbdc33422	-0.09531428
173	0xbd9f5a2f	-0.07780873
174	0x3dd36f1e	0.10323928
175	0x3da7ad27	0.08187323
176	0xbdbbecba	-0.091760114
177	0x3c84bafb	0.01620244
178	0x3dfc2a35	0.12312738
179	0xbd74c375	-0.059756715
180	0x3c8f85a3	0.017519778
181	0xbefbd545	-0.4918615
182	0xbc5a14a7	-0.013310588
183	0xbd6a80f5	-0.05725189
184	0x3c56eba4	0.013117705
185	0x3e11f1c4	0.14252383
186	0x3d8c7928	0.06859046
187	0xbb99c509	-0.004692678
188	0xbc6b878f	-0.014375581
189	0x3df3a6fb	0.11897083
190	0x3dceb2bb	0.10092684
191	0x3d12eaab	0.035868328
192	0xbd208eda	-0.039198734
193	0x3c2171f7	0.0098538315
194	0x3c52538c	0.012837302
195	0xbcf87da1	-0.030333342
196	0x3d967cbb	0.07348009
197	0x3b9bc177	0.0047532874
198	0xbd421b9e	-0.04738962
199	0xbcc67271	-0.024224492
200	0x3c392a5b	0.011301602
201	0x3cf9c181	0.030487778
202	0x3ad83c69	0.0016497496
203	0x3bf58773	0.0074929534
204	0xbcfce23d	-0.030869598
205	0x3c239fa7	0.009986795
206	0xbbe9ca0e	-0.0071346825
207	0x3d09fdfc	0.033689484
208	0x3e024560	0.12721777
209	0xbd7c2d6b	-0.06156675
210	0xbd1c8232	-0.0382101
211	0xbdc95523	-0.09830692
212	0xbcc0c398	-0.023530766
213	0x3d32b024	0.043625012
214	0xbc1ccf37	-0.009570888
215	0x3c3bf3fd	0.011471746
216	0xbd125907	-0.035729434
217	0xbe9083bd	-0.28225508
218	0xbd25b946	-0.040459894
219	0x3c82d236	0.015969377
220	0xbbd6479f	-0.0065392996
221	0xbf27b9ff	-0.6551818
222	0xbbad9885	-0.0052977228
223	0xbd8ccd4a	-0.06875093
224	0xbc79568e	-0.01521839
225	0xbce3d71e	-0.027812537
226	0xbc774310	-0.015091673
227	0xbf169bfa	-0.5883175
228	0xbdc12fbf	-0.09432935
229	0x3d8b88a8	0.068131745
230	0xbd2dadc5	-0.042402048
231	0xbcef31f3	-0.029198622
232	0x3c9964c3	0.018724805
233	0x3cc299ff	0.023755072
234	0xbcf04e7d	-0.029334301
235	0xbd2f2385	-0.042758483
236	0x3b77a181	0.0037785473
237	0x3ca1ddbf	0.019759057
238	0xbcb80606	-0.02246381
239	0x3e20842d	0.15675421
240	0xbde84682	-0.11341573
241	0xbd1f4eb6	-0.038893424
242	0xbc0af390	-0.008480921
243	0xbd73e920	-0.059548497
244	0x3cde86b3	0.027163839
245	0xbdb108dc	-0.08644268
246	0x3ce595a5	0.028025458
247	0x3d536bb1	0.051616374
248	0x3d5e02d3	0.054201912
249	0xbcbfa650	-0.023394734
250	0xbd4312d6	-0.047625385
251	0xbc172226	-0.00922445
252	0x3d975e69	0.07391054
253	0xbbfa212d	-0.0076333494
254	0xbbb891d3	-0.005632618
255	0x3d1fcc2e	0.03901308

model.2.bias f4 [256]
0	0x3dc58796	0.096450016
1	0xbcbac58f	-0.022799281
2	0xbc27064d	-0.010194373
3	0xbade9ecc	-0.0016984581
4	0xbd81ee51	-0.06344283
5	0xbc88b52f	-0.016687958
6	0x3df1e40e	0.11811076
7	0xbc001a6d	-0.0078188
8	0xbd6f0a65	-0.058359522
9	0xbe223245	-0.15839489
10	0xbd40c91d	-0.047066797
11	0xbdc1bb97	-0.09459608
12	0xbadcb88e	-0.001683967
13	0x3b62a62c	0.003458391
14	0xbd0e1c2a	-0.034694828
15	0x3c257a65	0.010099982
16	0x3e90e9a1	0.28303245
17	0xbd527741	-0.05138326
18	0xbcc9b8f4	-0.024624325
19	0x3a0d7d4c	0.0005397394
20	0xbc97769a	-0.01848917
21	0xbd1f5c1c	-0.0389062
22	0xbcc7e228	-0.024399832
23	0xbd8bf1dc	-0.068332404
24	0x3c009e38	0.007850222
25	0xbe2ed965	-0.17075117
26	0xbdf7bc14	-0.1209642
27	0x3b326d63	0.0027225844
28	0x3b97a0fb	0.0046273447
29	0xbcc53818	-0.0240746
30	0xbe1f62e0	-0.15565062
31	0xbd9180d9	-0.07104654
32	0xbc1a493a	-0.009416873
33	0xbd0c30eb	-0.03422634
34	0x3d69a962	0.0570463
35	0xbd75abdc	-0.05997835
36	0x3e7952a8	0.24347937
37	0xbd0aaf0f	-0.033858355
38	0xbd74024a	-0.059572496
39	0x3e32188d	0.17392178
40	0xbcec8203	-0.028870588
41	0x3e310e83	0.17290692
42	0xbd24c564	-0.04022731
43	0xbdc6b359	-0.097021766
44	0xbc186e8c	-0.0093037
45	0xbd924dd9	-0.071437545
46	0xbd0d0f8d	-0.03443866
47	0xbb452d44	-0.0030086795
48	0x3e2d4500	0.16920853
49	0xbd5b285f	-0.053505298
50	0x3da60b67	0.081076436
51	0xbe0a83aa	-0.13526788
52	0x3e7012f4	0.2344473
53	0xbc787424	-0.015164409
54	0x3e697b0a	0.22800842
55	0x3e9400d4	0.28906882
56	0x3c5b68f4	0.013391722
57	0xbe04a2c7	-0.1295272
58	0x3d5807f5	0.052741963
59	0xbb43bba3	-0.002986648
60	0xbd0d86a8	-0.034552246
61	0x3d8912d8	0.06693047
62	0xbd78b52e	-0.06071966
63	0x3e728999	0.23685302
64	0xbce6e10d	-0.028183484
65	0xbdfa690b	-0.122270666
66	0xbb002395	-0.0019552459
67	0xbc17ec5c	-0.009272661
68	0xbd48f978	-0.049066037
69	0xbe3a60f7	-0.18201052
70	0x3e3f61c0	0.18689632
71	0xbd63454c	-0.05548601
72	0xbe043944	-0.1291247
73	0xbc5fc2e0	-0.013657302
74	0x3e4ba185	0.19885834
75	0xbd81b281	-0.06332875
76	0xbd4abe45	-0.04949786
77	0xbd72f75c	-0.05931793
78	0x3d42ee35	0.047590453
79	0x3e6d08f5	0.23147948
80	0xbd53e9e1	-0.051736716
81	0xbdd1ef88	-0.10250765
82	0xbd1884cc	-0.03723602
83	0xbc365491	-0.011128561
84	0x3e5de711	0.21670176
85	0xbd8680c8	-0.06567532
86	0xbbc0cf0e	-0.005884058
87	0xbd2edbec	-0.042690203
88	0x3e89fed0	0.2695222
89	0x3c15d5d2	0.009145217
90	0x3d3382f9	0.043826077
91	0xbdbd1047	-0.0923162
92	0xbd7fde88	-0.06246808
93	0xbd238b12	-0.03992755
94	0xbd02c037	-0.03192159
95	0xbd0fd4e5	-0.03511514
96	0x3cc3a9d8	0.023884699
97	0xbca04085	-0.019562015
98	0xbcc2602c	-0.023727499
99	0x3cc3a8a9	0.023884134
100	0x3b929064	0.004472779
101	0x3d283987	0.041070487
102	0xbce79876	-0.028270941
103	0x3ea8f22b	0.3299726
104	0x3e853443	0.26016435
105	0xbd75a766	-0.059974097
106	0xbe1b30fd	-0.15155406
107	0xbcfc6a5c	-0.030812435
108	0xbdb6b74b	-0.08921679
109	0xbaa51d44	-0.0012597223
110	0xbbde8ce7	-0.006791699
111	0xbe0727f0	-0.13198829
112	0x3da0713c	0.07834098
113	0xbd0bc77b	-0.034125786
114	0xbdc3cbdd	-0.09560368
115	0x3d55263f	0.052038427
116	0xbd2c7d56	-0.042111717
117	0xbd9f1fae	-0.07769714
118	0x3d8c8200	0.06860733
119	0x3e9e703c	0.30945003
120	0xbd3a24c0	-0.045445204
121	0x3f2ac741	0.6671029
122	0xbe2b2b36	-0.16715702
123	0x3e973a90	0.29536867
124	0xbd3e87e8	-0.04651633
125	0xbd3d651d	-0.046239007
126	0xbca87c39	-0.020567046
127	0xbd786ea2	-0.060652383
128	0xbd826f0c	-0.06368837
129	0x3a4e1da0	0.0007862691
130	0xbd9cf0c9	-0.076631136
131	0xbd2fa676	-0.04288336
132	0xbcb043a0	-0.021516621
133	0xbb52dd36	-0.003217531
134	0xbd57e97b	-0.0527129
135	0xbd40e35d	-0.04709183
136	0xbc99c3b0	-0.018770069
137	0xbd6ec078	-0.05828902
138	0xbd5b72e2	-0.053576358
139	0xbd352bee	-0.044231348
140	0xbce2eff4	-0.02770231
141	0xbe0db356	-0.13837942
142	0xbd11b65c	-0.035574302
143	0xbc32df8f	-0.010917558
144	0xbe1ebbbc	-0.15501302
145	0xbcdab422	-0.026697222
146	0xbc615961	-0.01375422
147	0x3eb16708	0.3464892
148	0xbd3c7dd2	-0.04601843
149	0xbd26b120	-0.040696263
150	0xbe3989ed	-0.18119021
151	0x3e16c3b8	0.14723098
152	0xbb8e5262	-0.004343317
153	0xbd283757	-0.0410684
154	0xbd7a28da	-0.061074115
155	0xbdb683aa	-0.08911832
156	0x3d368b21	0.044566277
157	0xbcbfba79	-0.023404347
158	0xbd840e0e	-0.06447993
159	0xbcd9117f	-0.0264976
160	0xbc0603a1	-0.008179576
161	0xbd67b980	-0.05657339
162	0x3e6b2f49	0.22967257
163	0x3c2e623d	0.010643539
164	0xbca680a5	-0.020325014
165	0x3e677d16	0.2260631
166	0xbd1ee088	-0.03878835
167	0x3c0d196a	0.008612016
168	0x3d9995e9	0.07499296
169	0x3d98a3fa	0.07453151
170	0xbe99f6cd	-0.30071107
171	0xbe138bba	-0.1440877
172	0xbcb47c31	-0.022031875
173	0xbe2c6a12	-0.16837338
174	0xbb49b5f7	-0.0030778626
175	0x3da3e1e6	0.08002071
176	0xbba9fa07	-0.0051872763
177	0x3c7a1a0b	0.015264998
178	0x3e40b6ce	0.18819734
179	0x3eaf567e	0.34245676
180	0x3c6bcea9	0.014392533
181	0xbdfd08fb	-0.123552285
182	0xbd1b5dfe	-0.037931435
183	0x3eae00dc	0.3398503
184	0x3e8a2c0f	0.2698674
185	0xbd80e26d	-0.06293187
186	0x3e72657e	0.23671529
187	0xbcc79d87	-0.024367107
188	0xbd41f4ee	-0.047352724
189	0x3c82648a	0.015917081
190	0x3c91cff8	0.017799363
191	0x3d85de26	0.06536512
192	0xbdae8bbc	-0.08522746
193	0xbd5e6ea4	-0.054304734
194	0x3c71c2b7	0.014755896
195	0xbc9137ba	-0.017726768
196	0xbd73386f	-0.05937999
197	0xbafcf724	-0.0019299728
198	0xbd4768b6	-0.048683845
199	0x3cb25997	0.021771235
200	0xbbe58513	-0.007004389
201	0xbc3efc3a	-0.011656815
202	0xba90fc5b	-0.0011061536
203	0xbced6898	-0.028980538
204	0xbdcfc3f1	-0.10144795
205	0xbdc14894	-0.09437671
206	0xbd83f628	-0.06443435
207	0x3c7a0a7e	0.015261291
208	0x3a30ccdd	0.0006744394
209	0xbd4a11c2	-0.04933334
210	0xbd37a9bf	-0.044839617
211	0x3e59dd9f	0.21275948
212	0xbd45f32a	-0.048327602
213	0x3ccd5f93	0.025069987
214	0xbd4cce78	-0.05000159
215	0x3d8d130d	0.06888399
216	0x3e6b2256	0.22962317
217	0x3c57e3ae	0.013176842
218	0x3e3dcec2	0.18535903
219	0xbe2034d1	-0.15645148
220	0xbd974313	-0.0738584
221	0x3e2fab79	0.17155255
222	0x3ed9c6c4	0.4253446
223	0x3cb5812a	0.022156317
224	0xbd7073b0	-0.05870408
225	0x3ea4a4db	0.32157025
226	0xbc6f0dda	-0.014590705
227	0x3d2d4ebd	0.04231142
228	0x3e5c0ee9	0.21490063
229	0xbd410635	-0.04712506
230	0x3cb6f8c3	0.022335416
231	0x3e276f8c	0.16351146
232	0xbd95abf0	-0.07308185
233	0xbd070d16	-0.032971464
234	0xbd1ce1fe	-0.03830146
235	0xbe05fc5b	-0.13084547
236	0xbd15bd34	-0.03655739
237	0x3e3bb5a8	0.18331015
238	0x3e0a6f94	0.13519126
239	0xbe247b8c	-0.16062754
240	0xbb50238b	-0.0031759467
241	0xbc7e3411	-0.015515343
242	0xbbed37a0	-0.007239297
243	0xbd231b9b	-0.03982125
244	0xbcd11086	-0.025520574
245	0x3e87377f	0.26409528
246	0x3e01850c	0.1264841
247	0x3e74e3bd	0.23915
248	0xbd941315	-0.07230202
249	0x3b1a4732	0.002354097
250	0xbdb3d4cf	-0.087808244
251	0xbdfd4f32	-0.12368621
252	0xbedd2408	-0.43191552
253	0xbe0d656a	-0.13808218
254	0xbc22b7bc	-0.009931501
255	0x3e41c8b2	0.18924215

model.4.weight f4 [64, 256]
0	0xbcdc1e8a	-0.02687003
1	0xbd5a5aae	-0.053309135
2	0x3c974782	0.018466715
3	0xbabe18c2	-0.0014503228
4	0xbcb8084a	-0.02246489
5	0xbc8c34c4	-0.017115004
6	0xbc104511	-0.008805529
7	0xbd2e9f72	-0.042632528
8	0xbda9d184	-0.08291915
9	0xbbd687d8	-0.0065469556
10	0xbcf00b67	-0.029302312
11	0xbc6e930d	-0.014561427
12	0x3ca9561e	0.020670947
13	0xbd0a6853	-0.033790898
14	0x3c2dc44f	0.010605886
15	0xbd3873cc	-0.045032308
16	0xbd922347	-0.07135635
17	0xbd555581	-0.052083496
18	0xbc975801	-0.01847458
19	0xbda974d6	-0.08274238
20	0x3d935f22	0.071958795
21	0x3c8c79cb	0.01714792
22	0x3c067aa1	0.008207948
23	0xbd4b61ab	-0.04965369
24	0x3d1aa0f3	0.03775115
25	0xbd2b8c4a	-0.041881837
26	0xbd3146ba	-0.04328034
27	0x3ca9792b	0.02068766
28	0xbd33f66f	-0.04393619
29	0x3d387415	0.04503258
30	0xbaa4ae02	-0.0012564065
31	0xbc8d6214	-0.017258681
32	0x3c8f0f4b	0.017463347
33	0xbda3b144	-0.07992795
34	0xbd9b4369	-0.07581217
35	0xb8dee46a	-0.0001062833
36	0xbd2142f0	-0.039370477
37	0x3c4fbd2d	0.01267938
38	0xbc480702	-0.012208702
39	0xbc4dd331	-0.012562559
40	0x3d3bc545	0.045842428
41	0xbd470976	-0.048593007
42	0xbbbbef33	-0.005735302
43	0xbe1ad0b8	-0.15118682
44	0x3dadc684	0.084851295
45	0x3cb3abdc	0.021932535
46	0x3ced1636	0.028941255
47	0xbd708d9d	-0.058728803
48	0xbd49f85d	-0.049309123
49	0xbd9d64c5	-0.07685236
50	0xbca38204	-0.019959457
51	0xbd129dc2	-0.03579498
52	0xbd44c5c8	-0.04804018
53	0xbc51376e	-0.012769563
54	0x3d13ed4e	0.036114983
55	0xbd9a4d80	-0.07534313
56	0x3d1e030b	0.03857712
57	0x3dae3273	0.08505716
58	0xbda8d187	-0.08243089
59	0xbc30d85d	-0.0107937725
60	0xbc90d0d3	-0.0176777
61	0xbdb064d4	-0.086129814
62	0x3c8e7453	0.017389452
63	0x3c07894f	0.008272483
64	0xbca9bb1f	-0.02071911
65	0xbcca28eb	-0.024677714
66	0x3c0e6223	0.00869039
67	0x3c876db9	0.016531812
68	0xbb54a9cc	-0.003244984
69	0xbd269388	-0.04066804
70	0xbbde679f	-0.006787255
71	0x3d587e95	0.052855093
72	0x3bba3eba	0.005683747
73	0x3d12ea73	0.03586812
74	0xbd992e59	-0.07479543
75	0x3b5f2fd8	0.0034055617
76	0x3d5cb0b6	0.053879462
77	0x3d11a218	0.035554975
78	0xbd8b74f6	-0.06809418
79	0x3b0ae02d	0.0021190748
80	0xbd1662cb	-0.03671531
81	0xbd18562f	-0.037191566
82	0xbd6f0ace	-0.058359914
83	0xbbdbc3fd	-0.0067067132
84	0xbd95b63d	-0.0731015
85	0x3ca0a1b4	0.019608356
86	0x3d6f52c2	0.058428533
87	0x3bcc381d	0.006232275
88	0xbd09785c	-0.03356205
89	0xbbea3ff2	-0.007148736
90	0xbd9405a9	-0.07227642
91	0xbd098c2b	-0.03358094
92	0xbac0dd25	-0.0014714344
93	0x3c56e0af	0.013115092
94	0xbbd7ade0	-0.006582007
95	0xbc8b5b99	-0.01701145
96	0xbd1c96ad	-0.038229633
97	0xbc90e274	-0.017686106
98	0x3b0e5450	0.0021717735
99	0xbd98594a	-0.074389055
100	0x3d624558	0.055241913
101	0xbd7a3984	-0.061090007
102	0xbc4e59b3	-0.012594628
103	0x3d04b914	0.032403067
104	0x3b8be055	0.004268686
105	0xbc61fcfe	-0.013793228
106	0x3d164f76	0.036696874
107	0xbcab9ab5	-0.020947793
108	0xbdb306cf	-0.08741533
109	0xbc19b38f	-0.009381189
110	0xbd01b302	-0.031664856
111	0x3c7837de	0.0151500385
112	0xbd34d675	-0.044149835
113	0xbd47f3fd	-0.04881667
114	0xbcbee23c	-0.023301236
115	0xbd90cb64	-0.07070044
116	0x3d3593f5	0.044330556
117	0xbc83c247	-0.01608385
118	0xbd094dd0	-0.033521473
119	0x3c91a236	0.017777544
120	0xbd975ea0	-0.07391095
121	0xbe1cd5ac	-0.15315884
122	0x3d23291a	0.03983412
123	0xbd12a9f0	-0.035806596
124	0xbbaf29b2	-0.0053455466
125	0x3d70f382	0.058825977
126	0x3b49cc3c	0.00307919
127	0x3d284b7f	0.041087624
128	0x3d837691	0.06419099
129	0x3cbd711a	0.02312522
130	0xbd0cc148	-0.034364015
131	0x3c7b1779	0.015325421
132	0x3d23c67b	0.039984208
133	0xbbe24f63	-0.0069064363
134	0x3d9421ec	0.072330326
135	0x3da021da	0.07818957
136	0xbbe3d7d4	-0.006953219
137	0xbafdc69b	-0.0019361557
138	0xbd019cd2	-0.031643696
139	0xbcc111fc	-0.023568146
140	0xbd7ab894	-0.061211184
141	0x3cd856b8	0.026408538
142	0xbce3dccc	-0.027815245
143	0xbce7cbb0	-0.028295368
144	0x3cfe5caa	0.031050045
145	0x3d3620c9	0.04446486
146	0xbd6176d2	-0.055044957
147	0xbc866964	-0.016407676
148	0xbd4806c1	-0.048834566
149	0xbcc360c9	-0.023849862
150	0x3c3eeffe	0.011653898
151	0x3c019ec5	0.007911389
152	0x3c9cfed8	0.019164488
153	0x3d0382c4	0.03210713
154	0xbca170d6	-0.019707125
155	0xbd649f64	-0.05581607
156	0xbcec5917	-0.028851075
157	0x3c2e8ebf	0.0106541505
158	0x3b1f49aa	0.0024305382
159	0x3d337506	0.043812774
160	0x3d5e19d1	0.05422384
161	0xbcb4c71f	-0.022067605
162	0x3ba15c50	0.0049243346
163	0x3cd3915d	0.02582615
164	0xbd084cd1	-0.033276383
165	0x3b31e13f	0.0027142314
166	0x3b957c5f	0.0045619453
167	0x3d103399	0.035205457
168	0xbd9aaad6	-0.075521156
169	0xbcded270	-0.027199954
170	0xbd158b8a	-0.036510028
171	0xbc59335e	-0.013256876
172	0xbc5301da	-0.012878859
173	0xbb39d740	-0.0028357059
174	0x3b67d272	0.0035373238
175	0x3c6fe380	0.014641643
176	0xbd6bdfca	-0.05758647
177	0x3d1a9ae0	0.037745357
178	0xbd332fad	-0.04374664
179	0x3cc6c1ec	0.024262391
180	0xbd0573e2	-0.032581218
181	0xbc5c3717	-0.013440869
182	0x3d5256ec	0.051352426
183	0xbce8f2aa	-0.028436024
184	0x398b55d8	0.00026576105
185	0x3d8cc872	0.068741694
186	0x3cf4038f	0.029786853
187	0x3c3cadbb	0.01151603
188	0x3c93ff9f	0.018066226
189	0xbd7ea4cd	-0.062168885
190	0xbce58c21	-0.02802092
191	0xbd9ac0d7	-0.075563125
192	0x3d1aa4d4	0.03775485
193	0x3d9027ca	0.07038839
194	0x3d3c3263	0.04594649
195	0xbd2ddcac	-0.042446777
196	0x3c42c8d2	0.0118887
197	0xbd1ab5b7	-0.037770953
198	0xbd01258c	-0.031529948
199	0xbb12e638	-0.0022415053
200	0xbcce9e40	-0.025221944
201	0xbd5f38ca	-0.054497518
202	0x3bd19dd6	0.0063969893
203	0x3c8eeb6c	0.017446242
204	0xbd75b024	-0.059982434
205	0x3d6c43de	0.05768191
206	0x3c099cfc	0.008399244
207	0xbd4694db	-0.048481803
208	0x3d877b8f	0.06615364
209	0x3d5f6958	0.054543823
210	0xbcdd9846	-0.027050149
211	0xbd7cc848	-0.06171444
212	0xbcda29c6	-0.026631247
213	0x3c878913	0.016544854
214	0x3d148ba0	0.03626597
215	0x3d2d5a81	0.04232264
216	0xbc91f8e8	-0.017818883
217	0x3d6165e7	0.055028822
218	0xbd8f7af0	-0.0700587
219	0xbd7a21d9	-0.061067436
220	0xbd8e6b87	-0.06954103
221	0xbc7124eb	-0.014718275
222	0xbdca1e82	-0.098691
223	0x3d789cb4	0.06069632
224	0xbd350526	-0.044194363
225	0x3bf5bc9c	0.0074992906
226	0x3d88226a	0.06647189
227	0xbccbc239	-0.024872886
228	0xbd1d66d1	-0.03842813
229	0xbd2b32b4	-0.0417964
230	0xbc1716b9	-0.009221726
231	0x3c2d3620	0.010571986
232	0x3d93a1eb	0.07208618
233	0x3cce728c	0.025201105
234	0x3cadcb03	0.021214968
235	0x3bc299c7	0.005938742
236	0xbc875fa2	-0.016525093
237	0xbd36ac76	-0.044598065
238	0x3cc57528	0.024103716
239	0x3d2c7b21	0.042109612
240	0xbd24370e	-0.040091567
241	0xbce75919	-0.028240727
242	0x3a8bd7c9	0.0010669167
243	0x3bfaf302	0.0076583633
244	0xbd9bf3a7	-0.07614832
245	0x3cc04ae8	0.023473218
246	0xbd717bb5	-0.058955867
247	0x3c0f0014	0.008728046
248	0x3cfc9768	0.030833915
249	0xbce6e2ce	-0.02818432
250	0xbb28652b	-0.0025695066
251	0xbcf1f8bb	-0.02953755
252	0xbc00bf8c	-0.007858168
253	0x3c6de378	0.014519565
254	0xbc1c59c7	-0.009542889
255	0x3cac6819	0.021045731

model.4.bias f4 [64]
0	0xbcb7b8b9	-0.02242695
1	0xbd97cbe6	-0.074119374
2	0xbf64ac95	-0.8932584
3	0xbdcf3de1	-0.10119224
4	0xbd3a4d37	-0.045483794
5	0xbdcc8d1f	-0.09987854
6	0x3e0ffcdc	0.14061302
7	0x3ed65dcc	0.41868436
8	0xbdfbd26f	-0.122959964
9	0x3eaa4e2c	0.33262765
10	0xbdcc2110	-0.09967244
11	0x3e6bb652	0.23018768
12	0xbcb40694	-0.021975793
13	0xbe18eb81	-0.14933588
14	0x3e948eb3	0.2901512
15	0xbe21f7a5	-0.15817125
16	0xbe88e4d4	-0.26737082
17	0xbd64e2df	-0.055880424
18	0xbde879cf	-0.11351358
19	0xbbc70e2f	-0.006074689
20	0x3e44763f	0.19185732
21	0xbedf22e1	-0.43581298
22	0xbb979642	-0.0046260664
23	0xbc6d68b2	-0.014490293
24	0xbd5ba111	-0.0536204
25	0x3dca357b	0.09873482
26	0xbe173548	-0.14766419
27	0xbd10689f	-0.035256024
28	0xbef232e1	-0.47304443
29	0xbd49f8ad	-0.04930942
30	0x3df62ba0	0.120200396
31	0xbd3756d8	-0.044760555
32	0xbe9ece4b	-0.31016764
33	0xbdceb51f	-0.1009314
34	0x3e3bff76	0.1835917
35	0x3eb93ac3	0.36177644
36	0x3ee2624e	0.44215626
37	0xbc5d1bdd	-0.013495413
38	0xbe2bd005	-0.16778572
39	0x3eb69c07	0.35665914
40	0x3e1ffa10	0.15622735
41	0x3d1be0c2	0.038056143
42	0x3eacf558	0.33780932
43	0xbedf10f8	-0.43567634
44	0x3e0f28db	0.13980429
45	0xbe29b576	-0.16573128
46	0xbd437dd0	-0.047727406
47	0x3c4ba22c	0.0124288015
48	0xbd6b30de	-0.05741965
49	0xbaaee1c3	-0.0013342429
50	0xbd966eb3	-0.07345333
51	0xbd79f990	-0.061029017
52	0xbe12d52d	-0.14339133
53	0xbd195b2f	-0.037440475
54	0x3caef04b	0.021354815
55	0xbe8098cf	-0.25116584
56	0xbc9d8b51	-0.01923147
57	0xbdb1c0f8	-0.08679384
58	0xbe66e151	-0.22546889
59	0xbde17554	-0.11008707
60	0xbdb41ea0	-0.08794904
61	0x3d3da540	0.046300173
62	0x3c90498b	0.017613193
63	0x3f204207	0.6260075

model.6.weight f4 [1, 64]
0	0x3d476b68	0.048686415
1	0xbb6519dc	-0.003495804
2	0x3c38bbfb	0.011275287
3	0x3e186646	0.14882764
4	0x3abe4f80	0.0014519542
5	0xbbdeddac	-0.0068013277
6	0xbc41347c	-0.011792298
7	0x3e2e46e2	0.17019227
8	0xbcc7fb4a	-0.024411816
9	0xbe358899	-0.17727889
10	0xbe650db3	-0.22368507
11	0x3c9916c9	0.018687623
12	0xbd117c17	-0.035518732
13	0x3d9c47d0	0.07630885
14	0xbe7774ab	-0.24165599
15	0xbc912e90	-0.017722398
16	0x3d9e4d74	0.07729617
17	0xbd23be7b	-0.03997658
18	0xbcc0ffb0	-0.023559421
19	0x3d20d93f	0.039269682
20	0x3dfe7e95	0.12426487
21	0x3cf506e0	0.029910505
22	0xbbac889b	-0.005265308
23	0x3cbc6b1c	0.023000292
24	0xbc9a12ce	-0.018807795
25	0xbbb27575	-0.005446131
26	0xbc298885	-0.01034749
27	0x3c431713	0.011907357
28	0x3d36bb61	0.044612292
29	0xbd26dcae	-0.0407378
30	0xbb938b72	-0.004502707
31	0xbda2058e	-0.07911216
32	0xbe190ac2	-0.1494551
33	0x3cefb284	0.029259928
34	0x3a3bae45	0.0007159452
35	0xbe1eddfc	-0.15514368
36	0xbe106fbc	-0.14105123
37	0xba9938ac	-0.0011689863
38	0x3dbf5053	0.093414925
39	0xbdfe4758	-0.124159515
40	0xbcbc672f	-0.02299842
41	0x3e56b160	0.209661
42	0xbdba56b3	-0.09098568
43	0x3d674178	0.05645892
44	0xbc0712c6	-0.008244222
45	0x3cb2663d	0.021777267
46	0x3d82c092	0.06384386
47	0xbd47644c	-0.048679635
48	0x3b191c46	0.00233628
49	0xbdc326d6	-0.09528892
50	0x3d940209	0.07226951
51	0x3cdf695a	0.027271915
52	0x3e1c3242	0.15253547
53	0x3cce7d98	0.025206372
54	0x3d95c310	0.07312596
55	0x3ba91740	0.0051602423
56	0x3cce09dd	0.025151188
57	0x3d705127	0.058671143
58	0xbdaab338	-0.083349645
59	0x3cbfa37b	0.023393383
60	0xbdab4471	-0.083626635
61	0xbbc01820	-0.005862251
62	0xbda3ba8c	-0.07994565
63	0xbda4e194	-0.08050838
