model_weight/critic/13_13 14:17:58 std 0.4 lr_critic_0.004- gamma_0.8 memory100 critic_weight.pth (torch, 645007 bytes, 7 tensors)

model.0.weight f4 [512, 24]
-1.3677201 -0.74667394 0.9385746 -0.52369106 -0.49392 -0.09219961 -0.09370492 0.022354566
-0.020312957 -0.7884831 -0.044595215 0.09957555 -0.04204392 0.08204675 -0.44282943 -0.1737457
-0.28073788 -0.46090707 -0.23463142 -0.23929407 -0.32560533 -0.49078465 -0.37446126 0.22617649
0.0800505 0.20458448 -0.020092687 0.050008047 -0.18162319 -0.022592146 -0.1686428 -0.116865784
-0.12421298 -0.082090616 0.0013220862 0.16907245 -0.08461255 -0.016618924 -0.038935773 -0.08142692
-0.044117235 -0.05372621 -0.20575105 0.04112473 -0.14979737 0.08973185 -0.0317787 -0.27442637
0.25032705 0.090924315 0.03251017 -0.20153736 -0.07570845 -0.039381906 -0.007995881 -0.01978215
-0.12815483 -0.15103306 -0.15548353 -0.25693712 -0.12996778 0.19150697 -0.2492752 -0.34978095
-0.17033151 -0.21563894 -0.28521827 -0.2743349 -0.1768345 -0.14647526 -0.4613267 -0.17247206
-0.26344126 0.008936833 -0.3834121 -0.27791533 0.24181254 0.14432926 -0.0032643655 -0.023055706
-0.10831321 0.102381095 0.16093905 0.038153313 -0.10024405 -0.021968054 -0.49586383 -0.43612728
-0.2577904 -0.38716862 -0.49196407 -0.42539513 -0.31984353 -0.33513403 -0.4368806 -0.31480503
-0.3255195 0.43880355 -0.25999564 -0.07955797 0.06648152 0.07571749 0.4576706 0.09719909
-0.14687961 0.081694186 0.09341718 0.19620825 -0.17415915 -0.047625855 -0.30996284 -0.45293918
-0.49975044 -0.48137552 -0.22170368 -0.48487875 -0.33440393 -0.48243362 -0.32961088 -0.30921128
0.011209776 0.22718745 -0.1957805 0.1465046 0.081586465 0.08624705 0.13213733 0.0062906416
0.04361313 -0.09900151 0.0758274 0.07048257 0.035762962 -0.021974608 0.08022419 -0.069972016
-0.27860957 -0.2580762 -0.23453458 -0.30776083 0.08502803 -0.26249373 -0.09027949 -0.1715622
-0.7983449 -0.027835576 0.27124864 -0.27369937 0.48466098 0.117244534 0.3008462 -0.018629443
-0.040230416 0.24706525 -0.05090687 0.12541929 -0.14261188 -0.06350185 -0.42141426 -0.2593111
-0.43709043 -0.44204015 -0.21074957 -0.5254488 -0.3231567 -0.5140094 -0.400519 -0.31429118
-0.038920876 0.19545907 -0.12110173 0.0149101745 0.025709985 0.07273011 -0.13801222 0.017451536
-0.19119133 -0.15295969 -0.07203936 0.045996785 -0.06343673 -0.24713676 0.005630546 -0.2839271
-0.005991888 -0.23168546 -0.029497018 -0.23263086 0.02393345 -0.04396281 -0.29919276 -0.055652887
-1.1966672 -0.35533535 0.8137588 -0.60569453 -0.043864988 -0.10389692 -0.09872342 0.036950197
-0.2037281 0.042347975 -0.10686743 0.10158843 -0.12391272 -0.16622505 -0.379556 -0.49163473
-0.5750692 -0.613066 -0.46279544 -0.47141275 -0.36101502 -0.63282436 -0.60232204 0.035141308
0.10921385 -0.07075822 -0.12136423 0.8072503 0.8230595 -0.13733222 0.3179371 -0.009302613
0.019298775 -1.0565758 0.046250865 -0.30836502 -0.020009408 -0.18760994 0.10421935 0.46652412
0.2626665 0.44726393 0.2929642 0.20339823 0.13087039 0.39772514 0.07569659 -0.28166014
0.3271641 0.10508188 -0.415758 -0.27380165 0.015315342 -0.03262167 0.029800175 -0.0366113
0.11012207 0.1193882 0.061660502 -0.28380957 -0.037920207 -0.0995774 -0.07852776 -0.34457222
00000000: 7411 afbf 0626 3fbf 6d46 703f 9e10 06bf
00000010: 15e3 fcbe 26d3 bcbd 5de8 bfbd ec20 b73c
00000020: 5c67 a6bc 07da 49bf 79a9 36bd 44ee cb3d
00000030: 3f36 2cbd 2008 a83d 8aba e2be 65ea 31be
00000040: e0bc 8fbe 03fc ebbe 3843 70be 8109 75be
00000050: beb5 a6be 2048 fbbe 63b9 bfbe cf9a 673e
00000060: 84f1 a33d 987e 513e 6b99 a4bc 3dd5 4c3d
00000070: 6efb 39be 2a13 b9bc b3b0 2cbe 5457 efbd
00000080: 6063 febd 201f a8bd da49 ad3a 5421 2d3e
00000090: 5849 adbd 6924 88bc 1e7b 1fbd 28c3 a6bd
000000a0: 46b4 34bd 0410 5cbd 67b0 52be 6872 283d
000000b0: 7b64 19be 55c5 b73d 622a 02bd 9d81 8cbe
000000c0: de2a 803e 8736 ba3d 6229 053d cf5f 4ebe
000000d0: 080d 9bbd ec4e 21bd 2801 03bc 2d0e a2bc
000000e0: 053b 03be 69a8 1abe 1337 1fbe 438d 83be
000000f0: 4616 05be 671a 443e ff41 7fbe 7d16 b3be
00000100: 626b 2ebe 74d0 5cbe 2108 92be a075 8cbe
00000110: 1a14 35be 9cfd 15be 0333 ecbe 849c 30be
00000120: c6e1 86be cb6b 123c 974e c4be eb4a 8ebe
00000130: b59d 773e 0dcb 133e f7ee 55bb 52df bcbc
00000140: 51d3 ddbd 2ead d13d 35cd 243e a646 1c3d
00000150: c14c cdbd 59f6 b3bc dde1 fdbe 134c dfbe
00000160: 1afd 83be f73a c6be b7e2 fbbe 64cd d9be
00000170: 88c2 a3be b096 abbe d0ae dfbe 202e a1be
00000180: 7eaa a6be dcaa e03e 261e 85be 4aef a2bd
00000190: 7727 883d c511 9b3d cd53 ea3e 5110 c73d
000001a0: 9c67 16be 484f a73d 8251 bf3d d1ea 483e
000001b0: c756 32be 5413 43bd 73b3 9ebe a5e7 e7be
000001c0: 4adf ffbe da76 f6be 4a06 63be 0742 f8be
000001d0: fe36 abbe 8a01 f7be c2c2 a8be f150 9ebe
000001e0: 35a9 373c d4a3 683e af7a 48be 4d05 163e
000001f0: ce16 a73d 4ba2 b03d 024f 073e ba21 ce3b
00000200: aea3 323d 4ec1 cabd 654b 9b3d 2a59 903d
00000210: 2f7c 123d 1804 b4bc 954c a43d 7d4d 8fbd
00000220: eaa5 8ebe 9022 84be d529 70be d492 9dbe
00000230: 2d23 ae3d 9465 86be 74e4 b8bd 00ae 2fbe
00000240: 5560 4cbf 6f07 e4bc 1ae1 8a3e 5322 8cbe
00000250: 7c25 f83e e71d f03d 8308 9a3e c69c 98bc
00000260: a6c8 24bd acfe 7c3e b983 50bd ea6d 003e
00000270: d908 12be 420d 82bd 9cc3 d7be 6dc4 84be
00000280: 51ca dfbe 1653 e2be bcce 57be d083 06bf
00000290: cc74 a5be 1f96 03bf d410 cdbe c6ea a0be
000002a0: 7f6b 1fbd 6c26 483e 2f04 f8bd ce49 743c
000002b0: bf9d d23c 86f3 943d 1353 0dbe 86f6 8e3c
000002c0: a9c7 43be 77a1 1cbe 5f89 93bd 2067 3c3d
000002d0: 1eeb 81bd 6b11 7dbe 7180 b83b e55e 91be
000002e0: 9a57 c4bb f43e 6dbe bba3 f1bc c936 6ebe
000002f0: 1510 c43c 5912 34bd cb2f 99be 48f4 63bd
00000300: 642c 99bf 84ee b5be 7f52 503f cc0e 1bbf
00000310: c6ab 33bd e9c7 d4bd 812f cabd 1759 173d
00000320: 199e 50be 1275 2d3d 50dd dabd 980d d03d
00000330: f4c5 fdbd e636 2abe 2a55 c2be 8cb7 fbbe
00000340: bc37 13bf e5f1 1cbf 86f3 ecbe 035d f1be
00000350: f6d6 b8be c700 22bf c731 1abf 55f0 0f3d
00000360: 83ab df3d b0e9 90bd cf8d f8bd f5a7 4e3f
00000370: 07b4 523f d1a0 0cbe a7c8 a23e fd69 18bc
00000380: 7718 9e3c e03d 87bf 8c71 3d3d 05e2 9dbe
00000390: c5ea a3bc d21c 40be f470 d53d 40dc ee3e
000003a0: 397c 863e c7ff e43e 67ff 953e a047 503e
000003b0: e302 063e a1a2 cb3e d006 9b3d c235 90be
000003c0: 0e82 a73e 2b35 d73d 3cde d4be bb2f 8cbe
000003d0: 33ed 7a3c 4d9e 05bd 7f1f f43c bbf5 15bd
000003e0: ae87 e13d cd81 f43d b98f 7c3d 7d4f 91be
000003f0: 3852 1bbd 3cef cbbd 2ad3 a0bd c56b b0be

model.0.bias f4 [512]
0.36561033 -0.22828938 -0.28472877 -0.20410754 0.01047724 0.027586438 0.06534446 0.007123024
0.21533066 -0.3878571 -0.16668802 -0.068009235 -0.29322997 -0.29363167 -0.13674036 -0.08816296
-0.2920493 -0.28144962 -0.25957167 -0.17523505 -0.28447565 -0.123401076 -0.19034782 -0.2002927
-0.15745623 -0.27374357 -0.15371181 -0.27729014 -0.020088762 -0.10807045 -0.36197832 0.015918992
0.038699534 -0.19884893 0.015194838 -0.20836218 -0.29099053 0.009678242 0.16806889 -0.104587235
-0.1480845 -0.31257063 -0.13315095 -0.1530113 -0.32014883 -0.14708753 -0.12842219 0.008967439
-0.13702545 -0.122120626 0.1485083 -0.11942751 -0.12637073 -0.15594254 0.017723648 -0.15594836
-0.0072144624 0.02436847 -0.111582346 0.049130704 -0.25501043 -0.28518474 -0.046019457 0.016301325
-0.2343499 -0.0855501 -0.106741145 -0.09069669 -0.34435406 0.46697298 -0.094479226 -0.31172252
-0.132082 -0.31359753 -0.02380628 0.48891836 0.06491142 -0.014676165 -0.100695096 0.4467514
-0.038526915 -0.12899105 -0.17253305 -0.13395645 -0.60216737 -0.04397512 -0.25142762 -0.005004491
-0.10207037 0.06220796 -0.39192352 -0.0989645 -0.20796376 0.05225115 -0.20005755 -0.39446905
-0.07460463 -0.22355488 0.06033305 -0.005124364 -0.41264135 0.018161697 -0.27205613 -0.30593777
-0.48589346 -0.17211668 -0.151717 -0.28728124 -0.14140564 0.028173115 -0.2708222 -0.23514444
-0.07748942 -0.6455345 -0.27513695 0.029095257 -0.25681067 -0.08139676 0.0031097848 0.14552441
0.008995262 -0.14162119 0.08574693 0.20516962 -0.15533696 0.025368901 -0.09491845 0.06358068
-0.3872232 -0.22209604 -0.0045956047 -0.20986384 -0.07728668 -0.17303096 0.031248847 -0.09888259
-0.25961956 -0.31634656 -0.17134239 0.24326542 -0.14541942 -0.041781653 0.012854291 -0.24616656
-0.2200496 -0.30688196 0.075159326 -0.17475553 -0.116587944 -0.2159571 -0.43609625 -0.028420286
-0.18988703 -0.024651403 0.020105813 -0.06374728 -0.02994 -0.23049136 -0.24669202 -0.20765595
0.38626072 -0.14424281 -0.2141904 -0.20832759 -0.23552701 -0.18435329 -0.13018483 -0.3279632
-0.23869272 -0.25968292 0.4948536 -0.21725568 -0.23776868 -0.0013751198 -0.06257952 0.16707763
-0.27627605 0.17785437 -0.18245378 -0.14608394 -0.16887686 0.46076316 -0.11784774 -0.063979365
0.4210995 -0.00921128 -0.05251261 -0.05260276 -0.28994164 -0.3436363 -0.2886396 -0.06924708
-0.01863657 0.06454825 0.27923188 -0.2957015 0.04010371 0.024294509 -0.12705839 0.4742085
-0.10167927 -0.056394845 -0.206264 0.1564101 0.06258404 -0.17275627 -0.19056037 -0.36497056
-0.27518588 -0.33748046 0.05376168 0.50163823 -0.36100814 0.13041458 -0.28764674 0.25621194
-0.04184058 -0.11980146 -0.3052772 -0.1649872 -0.050560985 -0.031004278 0.004517788 -0.11095641
-0.09902431 -0.018161397 0.2355439 -0.038163327 -0.22711368 0.06425442 -0.11363922 -0.29877865
-0.020544905 0.0071005616 -0.3514684 -0.38714632 -0.10053534 -0.2089432 -0.016767252 -0.54224193
-0.006675923 -0.22135243 -0.14356102 0.11048392 0.20108637 0.115673274 0.09761904 -0.16992305
-0.1952369 -0.03742373 -0.14824627 0.023180973 -0.17011252 0.019571109 0.0030890286 -0.12918584
00000000: 4731 bb3e b1c4 69be f8c7 91be 9101 51be
00000010: bba8 2b3c f4fc e13c 51d3 853d 4268 e93b
00000020: a47f 5c3e 3595 c6be 44b0 2abe 6d48 8bbd
00000030: 3d22 96be e456 96be aa05 0cbe c88e b4bd
00000040: 7c87 95be 2a1a 90be 94e6 84be d170 33be
00000050: cba6 91be b4b9 fcbd 8aea 42be 8819 4dbe
00000060: 353c 21be 1e28 8cbe a166 1dbe f9f8 8dbe
00000070: 3091 a4bc 0a54 ddbd 3955 b9be 8c68 823c
00000080: 6783 1e3d 0e9f 4bbe c5f3 783c e55c 55be
00000090: b6fc 94be 7d91 1e3c 401a 2c3e d531 d6bd
000000a0: 77a3 17be 4209 a0be b958 08be ffae 1cbe
000000b0: 8cea a3be 1d9e 16be 1b81 03be 2aec 123c
000000c0: 6650 0cbe 611a fabd 8f12 183e 6996 f4bd
000000d0: 5467 01be 67af 1fbe 2f31 913c edb0 1fbe
000000e0: 4c67 ecbb 63a0 c73c 4985 e4bd 473d 493d
000000f0: ba90 82be bc03 92be e67e 3cbd 5b8a 853c
00000100: 6cf9 6fbe e434 afbd 1a9b dabd 30bf b9bd
00000110: 2d4f b0be 1517 ef3e 537e c1bd 189a 9fbe
00000120: 8140 07be db8f a0be 6305 c3bc 8253 fa3e
00000130: 47f0 843d 4c74 70bc 3b39 cebd 99bc e43e
00000140: 66ce 1dbd 3b16 04be 81ac 30be e12b 09be
00000150: a427 1abf 411f 34bd 1fbb 80be b7fc a3bb
00000160: 450a d1bd c6cd 7e3d 33aa c8be e6ad cabd
00000170: 74f4 54be 4d05 563d e3db 4cbe d9f7 c9be
00000180: 50ca 98bd 92eb 64be ca1f 773d 48ea a7bb
00000190: ba45 d3be d7c7 943c f14a 8bbe e0a3 9cbe
000001a0: 07c7 f8be 5b3f 30be b45b 1bbe 8716 93be
000001b0: a4cc 10be 4ecb e63c 35a9 8abe b4c9 70be
000001c0: c6b2 9ebd c041 25bf c0de 8cbe 2d59 ee3c
000001d0: b07c 83be 58b3 a6bd 88cd 4b3b 5a04 153e
000001e0: dd60 133c 2505 11be 169c af3d fc17 523e
000001f0: a710 1fbe 71d2 cf3c 9b64 c2bd 9636 823d
00000200: 1f42 c6be 256d 63be ba96 96bb 8ce6 56be
00000210: 7b48 9ebd 072f 31be 95fd ff3c f582 cabd
00000220: dbec 84be 2df8 a1be 6174 2fbe 921a 793e
00000230: d4e8 14be 3d23 2bbd ce9a 523c 1613 7cbe
00000240: af54 61be a21f 9dbe 22ed 993d 1df3 32be
00000250: a9c5 eebd dc23 5dbe 0248 dfbe a9d1 e8bc
00000260: bf71 42be bdf1 c9bc f2b4 a43c ef8d 82bd
00000270: bb44 f5bc ed05 6cbe d59c 7cbe c3a3 54be
00000280: f7c3 c53e 63b4 13be ba54 5bbe d453 55be
00000290: fe2d 71be 1cc7 3cbe 2c4f 05be cbea a7be
000002a0: dd6b 74be 29f5 84be 735d fd3e 4678 5ebe
000002b0: a279 73be 5d3d b4ba b129 80bd 6616 2b3e
000002c0: 0e74 8dbe 751f 363e 2ad5 3abe 0797 15be
000002d0: 0eee 2cbe 26e9 eb3e 285a f1bd 9d07 83bd
000002e0: 5b9a d73e e9ea 16bc 7617 57bd fe75 57bd
000002f0: 3b73 94be 19f1 afbe 92c8 93be 6ad1 8dbd
00000300: b8ab 98bc df31 843d 7bf7 8e3e 3066 97be
00000310: ca43 243d 4705 c73c 981b 02be 75cb f23e
00000320: 393d d0bd 48fe 66bd df36 53be f829 203e
00000330: 102c 803d 05e7 30be 4222 43be 6cdd babe
00000340: 2ae5 8cbe 3dca acbe 3535 5c3d 5d6b 003f
00000350: 0fd6 b8be 668b 053e 6f46 93be 362e 833e
00000360: 0761 2bbd 785a f5bd 4b4d 9cbe 68f2 28be
00000370: 0919 4fbd affc fdbc f409 943b 1d3d e3bd
00000380: 42cd cabd 36c7 94bc 6c32 713e 2651 1cbd
00000390: 7d90 68be d297 833d aebb e8bd 84f9 98be
000003a0: ca4d a8bc d4ab e83b abf3 b3be 0b38 c6be
000003b0: 79e5 cdbd 35f5 55be 7a5b 89bc 5ed0 0abf
000003c0: b3c1 dabb 36aa 62be a901 13be 6545 e23d
000003d0: 96e9 4d3e 1ce6 ec3d 7eec c73d 4f00 2ebe
000003e0: 2fec 47be a049 19bd dfcd 17be 06e6 bd3c
000003f0: fa31 2ebe 9753 a03c 4d71 4a3b 4b49 04be

model.2.weight f4 [256, 512]
-0.12577891 -0.0037918095 -0.07449475 -0.18620309 -0.053960714 -0.028922843 -0.13175467 0.011949748
-0.11077491 -0.21106547 0.043734472 -0.08485826 -0.13886128 0.4493981 0.14939554 -0.03463964
-0.008958408 -0.015347268 0.015324942 0.043768622 0.016245866 -0.06199906 0.008373767 -0.37180164
-0.1850234 -0.11684384 -0.094781555 0.013280777 -0.14240429 -0.008482796 0.025983468 -0.12995084
-0.07755897 0.011537421 -0.17872685 -0.034985535 0.04241453 -0.089466 -0.051332198 -0.15592188
-0.3235212 -0.029172752 0.034396123 -0.22115898 -0.14281428 0.018159559 0.079771765 -0.016265322
-0.04710798 -0.0062879496 -0.14213438 -0.0011957745 -0.0019888731 -0.2271281 -0.030894667 0.033066384
-0.10366612 -0.1555651 -0.022296177 -0.11500989 -0.15450928 -0.3220331 -0.15610814 0.0388155
0.0014386389 -0.010547702 0.018487962 -0.096006855 0.08604516 -0.17557286 -0.26105884 -0.09461305
-0.036298677 -0.08420551 -0.15486772 -0.108111866 -0.007721033 -0.16151111 -0.1229887 -0.075508624
-0.07297172 0.0017870581 0.02560194 -0.06485961 -0.25589055 -0.07225232 -0.005711899 -0.1455891
-0.15066956 -0.10901362 -0.14047003 -0.15048225 -0.12248216 -0.18088077 -0.07753823 0.19799222
-0.28010443 -0.27917948 -0.13103461 -0.042135935 0.015007581 -0.094916165 0.041868143 -0.030120403
-0.24571978 -0.0029243748 -0.1422596 -0.14648858 -0.025382733 0.011379433 0.00824768 -0.039735842
0.022130359 -0.39691952 0.0061193537 -0.13979861 0.05389005 -0.07548014 -0.08632411 -0.055164278
-0.16139291 -0.017315311 0.015274158 -0.13143645 -0.028990889 -0.104481034 -0.10534586 -0.15322506
-0.08025145 -0.013562213 -0.027942482 -0.37094274 0.018400941 -0.026055764 -0.028918158 -0.037257306
0.021958686 0.23155792 -0.18972483 -0.1568963 0.013709231 -0.005966566 -0.19421251 -0.001772243
0.034473468 -0.09647177 -0.24778715 -0.22380994 0.0065089273 -0.009384817 -0.010970548 -0.12552886
-0.4905738 -0.16606438 -0.050140202 0.07651544 -0.032119576 -0.03897037 0.019897569 0.033558838
-0.072421886 -0.043245643 -0.0015284817 0.20770071 -0.006613846 -0.26509678 -0.28413156 0.11910979
-0.05347614 0.0217476 0.06753595 -0.018804641 -0.09383406 -0.18862922 0.04148854 -0.23307605
-0.04241197 -0.13707441 -0.02931623 0.026740242 0.0023343612 -0.14895019 0.028585982 0.021283004
-0.079280466 -0.071103364 -0.0048373602 -0.105121404 -0.115918316 0.008695148 -0.023257768 -0.12734336
-0.12234527 -0.2192405 -0.117855355 -0.26513118 -0.069036275 0.0043675723 -0.032084297 -0.1082267
-0.0026185098 -0.10375161 -0.017928673 0.008209546 -0.15071927 -0.084963456 -0.102420576 -0.29113793
-0.025484312 -0.17125167 -0.10641001 -0.11104118 -0.10170784 -0.14557886 -0.046481155 -0.18673567
-0.01239336 0.0028154622 0.041968144 -0.050200343 0.06875058 -0.07646235 -0.11635583 -0.09673574
-0.010374636 -0.075866915 -0.18550168 -0.15447216 -0.014503753 0.031463888 -0.21033396 0.012301472
-0.14105988 -0.13239647 0.016976152 0.091117 -0.23568305 -0.038106225 -0.15179048 -0.2707112
-0.1078667 -0.094037645 -0.06815773 -0.24215336 -0.1528052 -0.111442365 -0.112747945 -0.09736043
-0.058255512 -0.11706896 -0.0070816474 -0.32226387 -0.0074254605 -0.037106432 0.023172284 -0.04667849
00000000: 30cc 00be 0280 78bb b490 98bd 06ac 3ebe
00000010: e905 5dbd 99ef ecbc b2ea 06be e0c8 433c
00000020: f5dd e2bd 8c21 58be eb22 333d 2bca adbd
00000030: a731 0ebe 8217 e63e 25fb 183e 4ce2 0dbd
00000040: 49c6 12bc 1c73 7bbc 7715 7b3c ba46 333d
00000050: 0d16 853c baf2 7dbd 2032 093c c95c bebe
00000060: c676 3dbe d34b efbd d51c c2bd 9e97 593c
00000070: 6ed2 11be 6dfb 0abc 48db d43c d511 05be
00000080: 3dd7 9ebd 7307 3d3c 2c04 37be fe4c 0fbd
00000090: dcba 2d3d f339 b7bd b641 52bd fca9 1fbe
000000a0: 92a4 a5be b2fb eebc f3e2 0c3d 8077 62be
000000b0: e83d 12be 5bc3 943c 615f a33d da3e 85bc
000000c0: 4cf4 40bd 250b cebb ad8b 11be 89bb 9cba
000000d0: c157 02bb 4594 68be d016 fdbc 9e70 073d
000000e0: e74e d4bd 754c 1fbe 79a6 b6bc 4e8a ebbd
000000f0: ae37 1ebe 86e1 a4be d0da 1fbe 00fd 1e3d
00000100: b690 bc3a 45d0 2cbc 1174 973c 3e9f c4bd
00000110: 7238 b03d 5fc9 33be 81a9 85be 7dc4 c1bd
00000120: ecad 14bd f073 acbd a595 1ebe c169 ddbd
00000130: b800 fdbb 2b63 25be 80e1 fbbd 44a4 9abd
00000140: 3272 95bd b83b ea3a 29bb d13c 1dd5 84bd
00000150: 1604 83be 06f9 93bd e22a bbbb 4f15 15be
00000160: 1f49 1abe 8842 dfbd 60d7 0fbe 0518 1abe
00000170: edd7 fabd cf38 39be 5dcc 9ebd 79be 4a3e
00000180: d969 8fbe 9df0 8ebe f02d 06be bb96 2cbd
00000190: 5be2 753c 6863 c2bd ee7d 2b3d 10bf f6bc
000001a0: f79d 7bbe dea6 3fbb 80ac 11be 1a01 16be
000001b0: 73ef cfbc cd70 3a3c 4721 073c 0dc2 22bd
000001c0: ba4a b53c 0939 cbbe dc84 c83b 5e27 0fbe
000001d0: d0bb 5c3d 5595 9abd b2ca b0bd f0f3 61bd
000001e0: 2f44 25be d7d8 8dbc 7640 7a3c 4797 06be
000001f0: 4d7e edbc 27fa d5bd 92bf d7bd 08e7 1cbe
00000200: df5a a4bd 0b34 5ebc a2e7 e4bc 35ec bdbe
00000210: 92bd 963c e672 d5bc c6e5 ecbc 1e9b 18bd
00000220: b4e2 b33c 851d 6d3e 3a47 42be 6ca9 20be
00000230: af9c 603c 2f83 c3bb a5df 46be 9b4a e8ba
00000240: 0d34 0d3d fe92 c5bd eabb 7dbe 6f2e 65be
00000250: d748 d53b c7c2 19bc d0bd 33bc a38a 00be
00000260: 7d2c fbbe c80c 2abe d05f 4dbd 21b4 9c3d
00000270: d18f 03bd 659f 1fbd 3a00 a33c fe74 093d
00000280: ed51 94bd 5822 31bd 5657 c8ba 7faf 543e
00000290: f6b8 d8bb c4ba 87be b179 91be d5ef f33d
000002a0: cc09 5bbd 0628 b23c 4a50 8a3d 310c 9abc
000002b0: 122c c0bd 0528 41be e3ef 293d 7dab 6ebe
000002c0: 2db8 2dbd 3c5d 0cbe 9728 f0bc 5a0e db3c
000002d0: 15fc 183b 6686 18be 262d ea3c b259 ae3c
000002e0: cc5d a2bd a49e 91bd b882 9ebb e449 d7bd
000002f0: 9566 edbd 1876 0e3c 1387 bebc 4c66 02be
00000300: 2890 fabd 9580 60be 265e f1bd 46bf 87be
00000310: e462 8dbd da1d 8f3b d36a 03bd f6a5 ddbd
00000320: 4e9b 2bbb b97b d4bd 27df 92bc 5581 063c
00000330: 2756 1abe 5201 aebd e1c1 d1bd 0810 95be
00000340: 7ac4 d0bc 995c 2fbe 7eed d9bd 8f69 e3bd
00000350: 334c d0bd a012 15be 0663 3ebd a337 3fbe
00000360: 850d 4bbc 9e83 383b cae6 2b3d e09e 4dbd
00000370: 1bcd 8c3d 4b98 9cbd f74b eebd 631d c6bd
00000380: 61fa 29bc 1d60 9bbd 27f4 3dbe f32d 1ebe
00000390: 26a1 6dbc 47e0 003d c961 57be 1d8c 493c
000003a0: 0072 10be f192 07be 9211 8b3c 8d9b ba3d
000003b0: e656 71be 4615 1cbd f76e 1bbe a99a 8abe
000003c0: 37e9 dcbd cf96 c0bd 4896 8bbd 0df7 77be
000003d0: f778 1cbe e53b e4bd 65e8 e6bd e864 c7bd
000003e0: 559d 6ebd dac1 efbd 2a0d e8bb c5ff a4be
000003f0: 4751 f3bb eafc 17bd cdd3 bd3c f231 3fbd

model.2.bias f4 [256]
-0.42855793 -0.0034868005 -0.059623625 -0.34168914 -0.07654562 -0.15944578 -0.11985 0.002888503
-0.03037686 -0.015830303 -0.19377728 -0.13216045 -0.11598504 -0.030414334 -0.006704831 -0.08945841
-0.06937211 -0.038843222 -0.008180416 -0.036590062 -0.13703176 -0.086767964 -0.014155951 -0.14926907
-0.30999938 -0.1562534 -0.23605183 0.12674502 -0.08747181 -0.15597741 -0.19785504 0.013561662
-0.15540148 -0.03977645 -0.023500305 -0.10566888 -0.12779237 -0.044725712 -0.20411488 0.0055928295
0.0003442512 -0.11892279 -0.03757752 -0.037579756 0.18067054 -0.08907359 -0.01361489 -0.039156906
-0.06139192 -0.14701854 -0.17470068 -0.063473314 -0.1365853 -0.07309026 0.012275221 -0.05936412
-0.15621744 -0.028162787 -0.04113442 -0.16188961 -0.07999439 -0.032592997 -0.28283662 -0.085072875
0.01584236 -0.06814782 -0.2567038 -0.026701568 -0.18681319 -0.038650412 0.017480602 -0.019838506
-0.049428783 -0.0046260515 0.013688986 -0.19898921 -0.10063397 -0.070976265 -0.031070977 -0.049608532
-0.1315379 -0.0711958 -0.00817899 -0.16369386 -0.020566411 -0.0055051968 -0.044865564 -0.0027469748
-0.06363804 0.020367887 -0.037509393 -0.03949212 -0.006049178 -0.12563893 -0.17217444 0.007992026
-0.15861583 -0.035973106 -0.057217404 -0.24778816 -0.19510245 -0.13471422 -0.03328663 -0.06160111
-0.080662705 0.015379757 -0.029298626 -0.008803584 -0.013379355 -0.25289428 -0.19189565 -0.03922799
-0.01952651 -0.115967885 -0.1645762 -0.02192202 -0.043181926 -0.040327817 -0.22090605 -0.13998507
-0.18323375 -0.010945719 -0.0326602 -0.019406844 -0.06211509 -0.032985464 0.0019454809 -0.03199158
-0.17363502 -0.030562455 -0.33663005 -0.052033618 -0.03791877 -0.064293385 -0.11356992 -0.040937677
-0.32294902 0.109173596 -0.08445037 -0.053046808 0.013406381 -0.07143397 -0.030274663 -0.055850003
-0.0023549323 -0.016188018 -0.11784488 -0.023997987 -0.22198668 -0.03410161 -0.13501905 -0.0077526597
-0.10267035 -0.011116749 -0.062204637 -0.013988549 -0.13934834 -0.0074312445 -0.146606 0.013042165
-0.21442233 -0.07162268 -0.036086086 0.051513918 -0.011534686 0.008477857 -0.009215027 0.008680551
-0.037585583 0.0050957166 -0.006342274 -0.15063931 -0.0091297515 -0.0063322056 -0.030250663 -0.12542276
-0.041777037 -0.1694613 -0.1500814 -0.29671273 -0.025269454 -0.0046282695 0.0035925452 0.009383908
-0.12974663 -0.18297574 -0.027013935 -0.20841925 -0.13816167 -0.06068244 0.007849944 -0.29210728
-0.059539746 -0.010184711 -0.29694974 0.017154513 -0.06532843 -0.021590095 -0.20794941 -0.089786194
-0.016387874 -0.08285637 -0.06700014 -0.03205009 -0.14573064 -0.10639792 -0.030577034 -0.01018251
-0.020737575 -0.14659464 0.008401803 -0.1685655 -0.13543198 -0.26176393 -0.26648682 -0.23621815
-0.1235319 -0.02895724 0.0026772646 -0.12586105 -0.0653048 -0.23184557 -0.042177062 -0.24839035
-0.030041464 -0.076156475 -0.052779913 -0.12612903 -0.19294184 -0.12178085 -0.11876406 -0.249693
-0.055173583 -0.048907716 -0.071147576 -0.21768801 0.35630995 -0.101967625 -0.18522003 0.22104855
-0.0026340263 -0.031192932 0.0030066534 -0.027370524 -0.17722946 0.0043141567 -0.07694349 -0.057303645
-0.1843566 -0.014809773 -0.06103136 -0.06278596 -0.057404622 -0.03974027 -0.06697683 -0.016593164
00000000: f26b dbbe ce82 64bb e737 74bd e1f1 aebe
00000010: f3c3 9cbd c145 23be eb73 f5bd 0a4d 3d3b
00000020: e5d8 f8bc 8dae 81bc 8d6d 46be 1255 07be
00000030: 9189 edbd 7b27 f9bc 33b4 dbbb f935 b7bd
00000040: f712 8ebd 121a 1fbd 2707 06bc 76df 15bd
00000050: 0e52 0cbe 67b3 b1bd 5dee 67bc fed9 18be
00000060: 3db8 9ebe e400 20be 92b7 71be 72c9 013e
00000070: 6c24 b3bd 8bb8 1fbe 839a 4abe bc31 5e3c
00000080: 9121 1fbe a1ec 22bd b683 c0bc ed68 d8bd
00000090: 01dc 02be 4f32 37bd 7e03 51be 0e44 b73b
000000a0: 9d7c b439 cb8d f3bd e3ea 19bd 3bed 19bd
000000b0: b301 393e 376c b6bd fd10 5fbc fe62 20bd
000000c0: 1876 7bbd 078c 16be bce4 32be 4cfe 81bd
000000d0: 04dd 0bbe 59b0 95bd 021e 493c cb27 73bd
000000e0: 77f7 1fbe a5b5 e6bc 917c 28bd 64c6 25be
000000f0: 19d4 a3bd 3c80 05bd f6cf 90be b03a aebd
00000100: d6c7 813c 1691 8bbd ae6e 83be 3fbd dabc
00000110: f54b 3fbe e54f 1ebd 7b33 8f3c 5d84 a2bc
00000120: d675 4abd 2296 97bb c547 603c d4c3 4bbe
00000130: 2f19 cebd 015c 91bd 9088 febc 5132 4bbd
00000140: dfb1 06be 1bcf 91bd 2c01 06bc 5d9f 27be
00000150: e47a a8bc f064 b4bb f4c4 37bd 9706 34bb
00000160: a954 82bd 8eda a63c 73a3 19bd 7dc2 21bd
00000170: 2f38 c6bb 7ea7 00be 7f4e 30be fdf0 023c
00000180: 306c 22be 8958 13bd cc5c 6abd 2ebc 7dbe
00000190: f0c8 47be 86f2 09be 9057 08bd 7251 7cbd
000001a0: 7d32 a5bd 60fb 7b3c ac03 f0bc e83c 10bc
000001b0: 1535 5bbc 5c7b 81be 4b80 44be 87ad 20bd
000001c0: 0ff6 9fbc 9280 edbd aa86 28be cf95 b3bc
000001d0: 88df 30bd c82e 25bd 3235 62be 3f58 0fbe
000001e0: a1a1 3bbe ac55 33bc b4c6 05bd 1afb 9ebc
000001f0: 656c 7ebd c41b 07bd 82ff fe3a 9a09 03bd
00000200: 61cd 31be 1d5e fabc c65a acbe 3421 55bd
00000210: b650 1bbd 40ac 83bd 5997 e8bd 44ae 27bd
00000220: 9359 a5be 6896 df3d 51f4 acbd 9c47 59bd
00000230: 70a6 5b3c f94b 92bd 9202 f8bc f9c2 64bd
00000240: 3555 1abb bc9c 84bc a858 f1bd 6d97 c4bc
00000250: 7a50 63be 21ae 0bbd 6f42 0abe 060a febb
00000260: d544 d2bd 0623 36bc 4aca 7ebd 3a30 65bc
00000270: 55b1 0ebe cc81 f3bb e21f 16be ceae 553c
00000280: 8791 5bbe e9ae 92bd 01cf 13bd 4200 533d
00000290: fbfb 3cbc b6e6 0a3c a0fa 16bc df38 0e3c
000002a0: 57f3 19bd f8f9 a63b dad2 cfbb 3141 1abe
000002b0: f494 15bc 647e cfbb 3dd0 f7bc d36e 00be
000002c0: 661e 2bbd 4387 2dbe f0ae 19be bbea 97be
000002d0: e301 cfbc bda8 97bb e870 6b3b f6be 193c
000002e0: 4ddc 04be fe5d 3bbe 544c ddbc db6b 55be
000002f0: 417a 0dbe 268e 78bd 0d9d 003c 168f 95be
00000300: f3df 73bd c6dd 26bc cc09 98be 9f87 8c3c
00000310: e9ca 85bd b6dd b0bc b1f0 54be d3e1 b7bd
00000320: dd3f 86bc 9ab0 a9bd 5f37 89bd f546 03bd
00000330: 6a3a 15be 27e7 d9bd b07c fabc 8bd4 26bc
00000340: d9e1 a9bc e81c 16be b7a7 093c 6f9c 2cbe
00000350: aeae 0abe ec05 86be f670 88be 2ce3 71be
00000360: 4bfe fcbd bc37 edbc 0c75 2f3b b8e1 00be
00000370: 86be 85bd ed68 6dbe dbc1 2cbd 0a5a 7ebe
00000380: 8419 f6bc edf7 9bbd c02f 58bd f827 01be
00000390: 8c92 45be 3d68 f9bd 923a f3bd 86af 7fbe
000003a0: b2fd 61bd 7553 48bd d2b5 91bd 9be9 5ebe
000003b0: 426e b63e 67d4 d0bd 52aa 3dbe 8d5a 623e
000003c0: a19f 2cbb 5288 ffbc 460b 453b 2638 e0bc
000003d0: a47b 35be c55d 8d3b 8c94 9dbd 3ab7 6abd
000003e0: fac7 3cbe b1a4 72bc 05fc 79bd ed95 80bd
000003f0: 1c21 6bbd b1c6 22bd 262b 89bd 63ee 87bc

model.4.weight f4 [64, 256]
-0.020778598 -0.058293544 0.01411382 0.010474254 0.052966673 0.0554735 0.043532252 0.045119885
0.05205967 -0.035738625 -0.021119112 0.047401126 0.012115212 0.034975808 0.013425646 -0.020636192
0.058027826 0.022041455 0.04281193 0.052352365 -0.00050566724 0.04147172 -0.05555878 -0.12450155
0.04686819 0.020218818 0.12374916 0.04117825 0.041145485 -0.03660225 -0.01990082 -0.07230309
-0.008950831 0.038123257 -0.081297636 -0.061921872 -0.013737544 -0.039482668 -0.0006350857 0.018186362
-0.03837906 0.030100591 -0.05323982 0.023722993 -0.011968214 -0.013061652 0.015676502 -0.017514557
0.07447614 -0.034514878 -0.0063070147 0.08418764 -0.021125693 0.086100966 -0.038216047 0.0461611
0.047080074 0.08618392 -0.016145254 -0.13001984 -0.0677523 0.027571365 0.02341401 0.024971673
0.025064396 0.0038991868 -0.022986827 -0.062450986 -0.121237755 -0.024974624 -0.008821059 -0.03033131
-0.015650636 0.0613954 0.011853268 -0.03166807 0.030090027 0.06551286 0.015963495 0.085553825
0.034778573 0.0038519995 0.0607646 -0.015697926 -0.036761086 -0.02924689 -0.0018606477 -0.049869783
0.0030440493 -0.06807101 0.04097968 0.02292337 0.006521943 0.028735332 -0.007700752 -0.051156584
-0.016506853 -0.02177338 0.03562916 0.006602298 -0.013942308 0.05042117 0.058884095 0.05203584
-0.084903926 0.021519288 0.07742519 -0.060555585 -0.030295268 -0.011622923 0.18432064 0.0742562
0.029655917 0.02997706 -0.021119548 -0.0075722877 0.082685664 -0.0020781131 -0.03275788 -0.036159508
-0.005656162 0.036911048 0.0059069083 0.00015418977 -0.024393085 0.04373869 0.02319524 0.045095008
-0.042120077 0.055344947 -0.04069588 -0.020225082 -0.029872768 -0.038222224 -0.03588592 0.05094825
-0.023854846 -0.018104268 -0.05281233 -0.0054741655 0.021514915 -0.00025855337 0.055020932 -0.014855408
0.027375929 0.0068343147 0.026063906 0.034645252 -0.00023189181 -0.10419835 -0.03250948 0.07979719
0.07140857 -0.030896315 0.015959414 -0.035435915 0.05399034 0.053429335 0.011015548 0.023641795
0.026484454 -0.010210679 -0.0042781737 -0.028778708 -0.03843778 -0.037187673 -0.04900118 -0.0443756
0.05432619 0.018598938 0.035985194 0.02001971 -0.029867053 -0.063347384 -0.036017194 0.027117655
0.061041094 0.060759086 -0.035276774 -0.0105811795 -0.01956844 0.008835061 0.007905924 -0.018266486
-0.0019528635 -0.016780533 0.02898033 -0.025174892 -0.00773454 -0.010297906 0.028787466 -0.015255862
0.048533205 -0.044584468 -0.081694834 0.073338926 0.08333698 0.016422966 -0.06871247 0.050089944
0.03160078 0.03973685 -0.0008052575 -0.0601774 0.03929993 -0.06007392 0.01870506 0.00047216754
0.023837557 -0.0036351443 0.0038230303 -0.013439226 0.0011449034 -0.01405857 0.018882798 0.039853122
0.02900194 0.00107528 0.045939583 -0.0070140767 0.0060526147 0.061624426 -0.05326114 0.02202735
-0.0065737083 -0.060651492 0.04676828 0.014286793 -0.052057363 0.051523555 -0.028296787 -0.008688919
0.043980982 -0.0790013 0.009354696 0.053809598 -0.20751837 0.031833522 -0.067122035 -0.11005842
0.01595467 0.022529518 -0.0684787 0.031162037 0.018251736 -0.024071269 0.011797747 0.026512867
-0.052535765 -0.05133502 0.07634387 0.05682304 0.01398601 0.0043673418 0.017855236 0.01662691
00000000: e137 aabc 36c5 6ebd a73d 673c 359c 2b3c
00000010: 95f3 583d 2e38 633d e04e 323d a1cf 383d
00000020: 853c 553d aa62 12bd fd01 adbc af27 423d
00000030: e27e 463c cb42 0f3d 3ef7 5b3c 3b0d a9bc
00000040: 96ae 6d3d 4890 b43c 905b 2f3d 6f6f 563d
00000050: c18e 04ba 40de 293d 9a91 63bd abfa febd
00000060: dcf8 3f3d efa1 a53c 3370 fd3d 86aa 283d
00000070: 2b88 283d 3eec 15bd 0b07 a3bc a413 94bd
00000080: 82a6 12bc 2227 1c3d 607f a6bd caa1 7dbd
00000090: 7013 61bc 94b8 21bd e17b 26ba 91fb 943c
000000a0: 5c33 1dbd 8495 f63c ff11 5abd b956 c23c
000000b0: 5416 44bc 8a00 56bc 026c 803c b07a 8fbc
000000c0: f286 983d 795f 0dbd 13ab cebb 926a ac3d
000000d0: ca0f adbc b455 b03d 6e88 1cbd 6c13 3d3d
000000e0: 09d7 403d 3281 b03d 0d43 84bc ec23 05be
000000f0: b8c1 8abd 58dd e13c bdce bf3c 6591 cc3c
00000100: d953 cd3c 8089 7f3b df4e bcbc 9bcc 7fbd
00000110: 804b f8bd 9597 ccbc 3486 10bc 5e79 f8bc
00000120: c335 80bc be79 7b3d 3634 423c 61b6 01bd
00000130: 5c7f f63c 9b2b 863d e0c5 823c d836 af3d
00000140: fa73 0e3d d471 7c3b 4de4 783d f098 80bc
00000150: cb92 16bd 2d97 efbc fae0 f3ba 4244 4cbd
00000160: ac7e 473b d068 8bbd 4fda 273d cbc9 bb3c
00000170: 06b6 d53b 5c66 eb3c 9756 fcbb 9189 51bd
00000180: 6139 87bc 165e b2bc e2ef 113d 1758 d83b
00000190: 476e 64bc 6e86 4e3d 7330 713d 8823 553d
000001a0: 1ce2 adbd 3849 b03c 1991 9e3d 2209 78bd
000001b0: c82d f8bc 136e 3ebc 8dbe 3c3e a213 983d
000001c0: f7f0 f23c 7492 f53c e702 adbc f420 f8bb
000001d0: 1a57 a93d f430 08bb 202d 06bd fe1b 14bd
000001e0: 5357 b9bb 0a30 173d bd8e c13b 00ae 2139
000001f0: 02d4 c7bc 5727 333d f203 be3c 8bb5 383d
00000200: 1a86 2cbd 62b1 623d b9b0 26bd 12af a5bc
00000210: bcb7 f4bc e88e 1cbd 1dfd 12bd 1daf 503d
00000220: 3d6b c3bc 674f 94bc be51 58bd a160 b3bb
00000230: 0c40 b03c 728e 87b9 a15d 613d 1964 73bc
00000240: 7c43 e03c 63f2 df3b f983 d53c 2ee8 0d3d
00000250: fc27 73b9 f265 d5bd a928 05bd b66c a33d
00000260: a83e 923d 451a fdbc 51bd 823c 4025 11bd
00000270: fa24 5d3d b8d8 5a3d 8f7a 343c 70ac c13c
00000280: edf5 d83c b14a 27bc ec2f 8cbb 53c1 ebbc
00000290: ef70 1dbd 1a52 18bd 76b5 48bd 30c3 35bd
000002a0: 2485 5e3d cd5c 983c 3665 133d 6000 a43c
000002b0: c0ab f4bc 46bc 81bd c486 13bd d825 de3c
000002c0: 3a06 7a3d 85de 783d 617e 10bd af5c 2dbc
000002d0: fe4d a0bc efc0 103c d987 013c 99a3 95bc
000002e0: 3af7 ffba 5477 89bc 2868 ed3c 933b cebc
000002f0: 0672 fdbb 8cb8 28bc b1d3 eb3c b9f3 79bc
00000300: c1ca 463d 349e 36bd 9f4f a7bd b832 963d
00000310: 94ac aa3d 7589 863c 20b9 8cbd 1d2b 4d3d
00000320: d26f 013d 1bc3 223d eb17 53ba 947c 76bd
00000330: f7f8 203d 1210 76bd 5b3b 993c 418d f739
00000340: fb46 c33c 9a3b 6ebb ce8b 7a3b 3330 5cbc
00000350: 9510 963a eb55 66bc 19b0 9a3c 073d 233d
00000360: 7a95 ed3c 69f0 8c3a 252b 3c3d 57d6 e5bb
00000370: 0355 c63b e569 7c3d 5a28 5abd b372 b43c
00000380: 4368 d7bb b36d 78bd 1990 3f3d 2713 6a3c
00000390: 1a3a 55bd 5d0a 533d aace e7bc f85b 0ebc
000003a0: 6725 343d 6fcb a1bd 7044 193c 7467 5c3d
000003b0: b27f 54be de63 023d 4777 89bd 4f66 e1bd
000003c0: 5eb3 823c d38f b83c 903e 8cbd 8747 ff3c
000003d0: aa84 953c 1c31 c5bc 564b 413c 8331 d93c
000003e0: be2f 57bd ac44 52bd 2d5a 9c3d 47bf 683d
000003f0: 9425 653c eb1b 8f3b 2545 923c 2835 883c

model.4.bias f4 [64]
0.024411935 -0.07091503 0.04330937 -0.22868694 -0.12662968 0.07799014 -0.17349787 0.008818138
-0.07324759 -0.051699493 -0.047050495 -0.097650655 -0.19271167 -0.17801268 -0.08998067 -0.11909567
0.3519261 0.42632246 -0.053392068 -0.17517634 -0.14251193 -0.8883853 0.008500975 -0.012883113
0.025715178 0.044124432 0.21349585 -0.08110671 -0.07655617 0.05826723 0.23866042 0.08501133
0.68064016 0.17476329 -0.107447684 0.0061936565 0.047979455 -0.22352175 -0.10557821 0.34825337
0.010991289 -0.0013413784 -0.047874335 -0.09517396 -0.13053155 -0.18850598 -0.36668435 -0.17645778
-0.02615146 0.03220983 -0.111723766 -0.046032786 -0.054856595 -0.2184386 0.015365125 0.018242678
-0.014548629 -0.034430157 0.045561172 -0.031249767 0.055006437 -0.17095731 0.030488992 0.009765542
00000000: 8afb c73c e63b 91bd 2a65 313d e92c 6abe
00000010: 36ab 01be 4bb9 9f3d 6da9 31be f479 103c
00000020: d502 96bd d9c2 53bd 05b8 40bd 11fd c7bd
00000030: 3556 45be f548 36be c947 b8bd 6ee8 f3bd
00000040: a82f b43e f046 da3e a4b1 5abd 6d61 33be
00000050: a6ee 11be 386d 63bf ac47 0b3c b113 53bc
00000060: a3a8 d23c d2bb 343d a89e 5a3e 461b a6bd
00000070: 7bc9 9cbd 9ea9 6e3d 6663 743e 6c1a ae3d
00000080: 6f3e 2e3f 26f5 323e 880d dcbd 28f4 ca3b
00000090: 1b86 443d e3e2 64be 6339 d8bd 444e b23e
000000a0: cf14 343c 31d1 afba e117 44bd 91ea c2bd
000000b0: 10aa 05be b607 41be 0dbe bbbe 59b1 34be
000000c0: 963b d6bc 74ee 033d 6ecf e4bd e08c 3cbd
000000d0: 4fb1 60bd 5eae 5fbe 01be 7b3c ab71 953c
000000e0: 5f5d 6ebc a306 0dbd 5a9e 3a3d 83ff ffbc
000000f0: 6e4e 613d 6f0f 2fbe 0dc4 f93c a7ff 1f3c

model.6.weight f4 [1, 64]
-0.006411013 0.032723494 -0.006945782 0.09693383 0.036460888 -0.10802241 0.07358117 -0.03850936
0.039973386 0.039241847 0.016455239 0.058364507 -0.032478064 -0.19562234 0.12265033 0.013532851
-0.016940083 -0.010579733 0.06673884 0.012953333 -0.021563137 -0.3888693 0.07862999 0.021513535
0.008856413 -0.0049979114 0.23973171 0.07454205 0.11793978 0.024814015 -0.011139584 -0.031086434
-0.12245903 0.13937972 -0.08334828 0.0027852512 -0.06603254 -0.030897308 0.035262384 -0.07942475
-0.04994914 -0.01782371 -0.0043603587 0.1454257 -4.1057997e-06 0.13086355 -0.069809 0.00261435
0.015357896 -0.0017099219 0.0051523247 -0.017749365 0.07996287 0.07767193 0.0012445558 0.007853576
0.09736554 -0.007823976 -0.05639346 0.02121999 0.014047541 0.045009363 0.00068857777 0.00023785279
00000000: 7a13 d2bb 1209 063d 7199 e3bb 3e85 c63d
00000010: 0358 153d da3a ddbd b9b1 963d febb 1dbd
00000020: 22bb 233d 0fbc 203d 23cd 863c 9f0f 6f3d
00000030: b807 05bd 3951 48be 1930 fb3d e4b8 5d3c
00000040: eec5 8abc 9e56 2dbc 5fae 883d 373a 543c
00000050: 2da5 b0bc e019 c7be c308 a13d 273d b03c
00000060: 7d1a 113c 85c5 a3bb 3b7c 753e 81a9 983d
00000070: 698a f13d c346 cb3c cd82 36bc faa8 febc
00000080: cdcb fabd 8fb9 0e3e 81b2 aabd c388 363b
00000090: 113c 87bd 5a1c fdbc 4a6f 103d 71a9 a2bd
000000a0: 7897 4cbd 0703 92bc 57e1 8ebb 7aea 143e
000000b0: 8dc4 89b6 1801 063e 05f8 8ebd 8455 2b3b
000000c0: af9f 7b3c 751f e0ba d5d4 a83b 1e67 91bc
000000d0: 93c3 a33d 7612 9f3d 5d20 a33a 49ac 003c
000000e0: 9667 c73d 2230 00bc d4fc 66bd 8bd5 ad3c
000000f0: a827 663c bd5b 383d ac81 343a 1f68 7939
