model_weight/critic/13_13 20:10:02 std 0.5 lr_critic_0.004- gamma_0.8 memory500 critic_weight.pth (torch, 645007 bytes, 7 tensors)

model.0.weight f4 [512, 24]
00000000: b6b3 85bd 695d 0ebe 6d66 a73d 80a3 253e
00000010: 5c4f 39be 5a86 e6bd 880f 0abe 93b8 ccbd
00000020: af9a 4dbe 89ac 6abe 3b7e 063e 9023 52be
00000030: 81de 863e 8690 4cbe 610d c9be e185 c6be
00000040: 6ce7 97be 92f1 d3bd 8407 47be d594 5abe
00000050: a66a 62be affe b1be 7075 d2be 35be d1be
00000060: b1da f33d cfa1 2b3e 8805 99bd 2f26 e63d
00000070: 5a20 4fbc 1246 cb3c 3d21 59be 58eb e135
00000080: 1aaf 2b3e 929c 4dbe 1e60 1ebd a939 abbe
00000090: 1669 ed3b 6ce6 e43c 8b2d 77be 00fb 83be
000000a0: 1df3 3fbe 7e32 28be 6a87 c33d c742 75be
000000b0: d34b 873a e295 ebbd 454d 9c3d a577 633d
000000c0: d168 b5be e467 55be 8293 15be 4bb6 f6be
000000d0: c5c6 bfbc e540 a2bd 79f0 a0bd c9ff f03c
000000e0: cc47 1dbd 306f a53e 5a5f 2fbd a5c1 353e
000000f0: cee3 19bd c110 acbe e431 fbbd 4b4a bcbe
00000100: 2838 efbe 36b9 9ebe f0e8 46be a43c 60be
00000110: a242 a9be 7a7d 8dbe 2c8d 96be f993 81bd
00000120: 8ac0 553e 1ff6 893d f0da 95be ecf6 32be
00000130: 092c e43c b925 8ebd 41f2 a5bd 2898 883d
00000140: b2f3 f7bd cb4d a53e 12d4 523d 8aae 883b
00000150: fa65 033d 433e 8f3c 0cdf ebbd 1aad d4bd
00000160: 2215 57be 0c8c 96be 1f55 6dbd bfcb 4fbe
00000170: 6693 aebd 7525 5bbe 66c7 25be 73e0 bebd
00000180: c048 1d3d 5f3e f3bb bc10 253e de6e 173c
00000190: cdc7 ba3d 66df a43d e65e 1cbe d2da 64bd
000001a0: 88ca 41be 42fb 8bbd 1838 e9bd b4e9 d13d
000001b0: adee 24bd 9399 8a3d 4349 6ebe 22ce 8abc
000001c0: bedd 02be c8d7 96bd 85ce bdbd 0bae 953d
000001d0: 6354 99bd fd57 4ebe 67de 6fbe 47d8 363d
000001e0: 4ad6 87bf 8e80 c6be 3714 403f 9376 bfbe
000001f0: 399a 33bd 2fd5 aabd 8373 87bc dad5 643c
00000200: ccd9 94bd 2c20 debe 52db 0e3d f9fe 54bc
00000210: e7f1 073c 3b6f 353d 3eda 6dbe 9255 99be
00000220: bf1f 96be 2ae5 9cbe 4018 4cbe 7d36 1ebe
00000230: 2345 a2be 1bc6 8abe 26cf 30be 5eac 2e3e
00000240: a610 cc3d 82f3 803e e6f0 f9bd d060 f13c
00000250: 8e94 043e 4435 02bd 9902 fabd c7d0 0ebe
00000260: ce29 a1be a9a6 493e cc0f 093e fb29 083e
00000270: 70a3 1c3e a9c6 8ebe ee85 08be bef3 2ebe
00000280: 58c2 b3be 5faf b0be cd47 54bc 135a a4be
00000290: 5e71 80be c1d0 b1bd 1bc4 5dbd 78db 06bd
000002a0: f235 34bc eb6c 54bd d5c4 8b3e 273b e03d
000002b0: 5102 f3bd dfb2 893d 12b5 c13d a7e4 963d
000002c0: 3afc b93d 9c20 acbc 80ff 06bc e0ec 57bd
000002d0: 769c d5bd 7493 43be 8ca2 f6bd 85fa aebe
000002e0: 66e3 103d fff2 9ebe eebd 60be 12c9 6bbe
000002f0: 23d7 63bd ba1d 74bd c308 6ebe 9875 8abe
00000300: 61b8 f7be 22ff 61be 9c55 00be cbaa a7be
00000310: ac26 43be 678f 8dbe 16bd dc3c d9df 003d
00000320: cc93 a7bc f4d1 b4bd 6f24 c23d 11cb 983d
00000330: 5c22 79bc 4105 873d e3e0 c0bd e2bc e5be
00000340: 17af abbd 24e8 2cbe 96b7 d7bd 02a9 e6be
00000350: 224b a3be b8c4 a0bd 106c ddbe 6940 6bbe
00000360: 0c33 d83d 3720 023e c9df 8dbe b3a3 04bf
00000370: 4557 ca3d 03e2 e5bb f611 09be 1951 f6bd
00000380: 3527 cabd d473 c03e c2ef 46bd fd3f 33be
00000390: 2fb3 993c 790d abbc af08 a9be 75d3 65be
000003a0: 1074 efbe 43ad f3be 31c1 00bf 2c7c 9dbe
000003b0: e8c5 5dbe 9e16 16be 7512 cfbe 8956 bbbd
000003c0: 1e95 acbd 8648 8d3e 5711 9cbe ae2b c93d
000003d0: 8a32 11be c2d7 a3bc bb06 9bbd 12cf 603d
000003e0: 66cb a43d 7a53 09bd 39b2 d5bd 1980 c4be
000003f0: 2d82 fcbc b97e 0ebe 5728 463d c9f3 5cbd
-0.06528418 -0.1390282 0.08173833 0.16175652 -0.1809668 -0.11256094 -0.13482487 -0.09996142
-0.20078538 -0.2291738 0.1313409 -0.20521379 0.26341632 -0.19977006 -0.3926802 -0.38774016
-0.29668748 -0.1034881 -0.1943646 -0.21345837 -0.22110996 -0.3476462 -0.41105223 -0.4096543
0.119069465 0.16760944 -0.07471758 0.11237752 -0.012641991 0.024813686 -0.21204086 1.68323e-06
0.16766015 -0.20079258 -0.038665883 -0.3344243 0.0072451932 0.027941905 -0.24138467 -0.25777435
-0.18745084 -0.16425511 0.095473126 -0.23951255 0.001032228 -0.11503197 0.076319255 0.055534024
-0.3543153 -0.20840412 -0.14607051 -0.48185953 -0.02341021 -0.07922534 -0.078583665 0.029418843
-0.03839855 0.32311392 -0.042815544 0.17749651 -0.037570767 -0.33606532 -0.12265375 -0.3677543
-0.4672253 -0.3100068 -0.19424796 -0.21898133 -0.3305865 -0.27634794 -0.2940458 -0.06327052
0.20874229 0.06736397 -0.292686 -0.17477006 0.027853029 -0.06940789 -0.08102847 0.066696465
-0.12107028 0.32285914 0.051471777 0.0041711973 0.032079674 0.017485743 -0.11517152 -0.10384579
-0.21004155 -0.29403722 -0.057942506 -0.20292567 -0.08524208 -0.21401007 -0.16189346 -0.09320154
0.038399458 -0.0074232067 0.16119665 0.009242741 0.0912014 0.08050422 -0.15270576 -0.055872746
-0.18924916 -0.06835033 -0.11387652 0.102496535 -0.04026668 0.06767573 -0.23270135 -0.016943995
-0.127799 -0.07365376 -0.09267906 0.07308587 -0.074867986 -0.20150752 -0.23424684 0.044639852
-1.0612271 -0.38769954 0.75030845 -0.37395152 -0.04384825 -0.08341443 -0.016534572 0.013967002
-0.07268104 -0.4338392 0.03487713 -0.013000243 0.00829742 0.04429553 -0.23227784 -0.29948097
-0.29321095 -0.30643588 -0.19931126 -0.15450473 -0.31693372 -0.27104267 -0.17266521 0.1705794
0.09964113 0.25185782 -0.12204151 0.02946511 0.12947294 -0.03178908 -0.12207527 -0.1394683
-0.31477207 0.19692482 0.13384932 0.13297264 0.15296721 -0.2788594 -0.1333234 -0.17085168
-0.3510921 -0.34508798 -0.012956572 -0.3209997 -0.25086492 -0.08682395 -0.0541421 -0.032924145
-0.01099919 -0.051861685 0.27298608 0.109487824 -0.11865676 0.0672357 0.094583645 0.07367831
0.090813115 -0.021011643 -0.008239627 -0.052716136 -0.10430233 -0.19099218 -0.12042722 -0.34175506
0.035373114 -0.31044766 -0.21947452 -0.23025921 -0.055625092 -0.059598662 -0.2324553 -0.27042842
-0.48382857 -0.22069982 -0.12532657 -0.32747492 -0.19057721 -0.2764847 0.026945632 0.031463478
-0.020456217 -0.08829108 0.094796054 0.07460607 -0.015205946 0.06592799 -0.09417894 -0.4487067
-0.08383005 -0.1688543 -0.10533063 -0.45050818 -0.3189326 -0.07850021 -0.43246508 -0.2297379
0.105566114 0.12707601 -0.27709797 -0.51812285 0.098799266 -0.007015468 -0.13385758 -0.12027187
-0.098707594 0.3758837 -0.048568495 -0.17504878 0.0187622 -0.020880448 -0.33014438 -0.22443946
-0.46768236 -0.47593126 -0.50294787 -0.30758798 -0.21657526 -0.14657065 -0.4044377 -0.09147365
-0.08426879 0.27594393 -0.3048198 0.09822784 -0.14179435 -0.020000342 -0.07569643 0.054884978
0.08046608 -0.033526875 -0.10434384 -0.3837898 -0.030823791 -0.13915528 0.048378315 -0.05394343

model.0.bias f4 [512]
00000000: cd3a 24be 5dc5 7bbe e58b 63be 0d6b e5ba
00000010: dfc7 5ebe 1623 b43e b2cd 80be 8149 8fbe
00000020: 0d52 013d 98a5 47be 623d 54be f721 8bbd
00000030: b7c5 763e e55d 90be a1bd 29be 42b8 82be
00000040: 08b8 c63d e292 92bd 58b4 2d3e e29b 8dbe
00000050: 085b 96be ba4e 03be 9c01 87be a6da b2bd
00000060: 3675 82be 9410 52be 039c 8cbe 2206 f63c
00000070: 2652 84be 2c66 b7bd 9edb 7cbe 43c5 35be
00000080: 664f 34bd f8ae 12be 9963 0b3d c8ea ed3d
00000090: 6b14 85bb 8531 b1bd 0519 8fbe 12a3 41bd
000000a0: f2b7 90be f8db 9dbd 6eff d3be 791e 40be
000000b0: 1289 3fbe ba4c 7cbe 8d09 ca3d 3408 38be
000000c0: bf50 4ebd f77a 54be dcac b0bd d2ea a63e
000000d0: a3ed 89bd e61d 52be 1689 61be 7460 6f3d
000000e0: 7323 0fbe c405 66be 49fb 9cbd e6e6 873e
000000f0: b1de ed3b a58a 9cbe c1ce cfbd 5321 d53e
00000100: 24cf 81be 78ad 2ebe a6a3 91be 7efa 8c3d
00000110: 3dd4 543d 5eb4 0d3e 45dd 6bbe 9f43 a73c
00000120: 5e62 4fbe 8ad8 c5ba 731b 13bf 4f2c 87bd
00000130: 8d61 56bd c1c2 eebd 51e8 0fbe 3bd0 113e
00000140: 52a4 b6bc 2737 02bf 7f1d abbe 8abc 3bbe
00000150: 7214 cf3c ca15 0abe 140f 7fbe 35b6 dfbc
00000160: b062 863e f673 89be 1358 833e 7310 a2bd
00000170: 4dc3 92bd 407c e7be b99b 9fbd 73ae 693d
00000180: 05db 963d fd31 6ebe 55c8 8abd 1a83 9dbe
00000190: d9d1 74be 92ed e5bc 8300 6c3d 4652 46be
000001a0: 1ba1 ea3c 1ba7 f1bd b17f 71be d610 1c3d
000001b0: 940d 8fbd 5720 70be 2df7 8dbe 3864 44bd
000001c0: 11b5 0fbd 099e 66be 2522 12be b968 3b3e
000001d0: 364e a43e 82b1 3ebe 7aee 193e e463 4d3e
000001e0: 0d5d b3bd ba2a e23c 2c9d d8bd be9f 7cbe
000001f0: 8f6b e23c 5000 21be 8509 d93c f891 3bbd
00000200: 0f79 f73d b00a 8b3c 6c43 30bd dc49 5abe
00000210: a420 ecbb 0b96 0cbe 7db9 54bc fca8 4b3e
00000220: 3513 60be 1edd 243e f347 5abe aae9 16bd
00000230: 6d8a 0c3d 3b4d fdbb 762e 013d 3158 96bc
00000240: 0d8d 5cbe ec98 133b 8d8a 39be 5670 e5bb
00000250: fcfa 5abe 568e 3cbe 3ed1 1cbe eb63 6d3c
00000260: 0c88 aabd 94da 44be 1542 013e 2dce 36be
00000270: 27ec 4ebd f719 0ebf 997c 5abd 032b 61be
00000280: 4d7e 303e a4ac 84be acec 8fbe 8adb 6fbd
00000290: c79b 85be 246e dabd 9683 1bbe ecc8 44be
000002a0: c731 2dbe 4379 5bbe b070 80bc 1bba 033e
000002b0: 7abe d9bd 73fa cbbe 8aef 23be 23b1 8d3e
000002c0: 6384 1abc 93f4 83be 67d0 403e fa0b 823e
000002d0: ad26 503e ecd3 7cbe 95a1 49be 2dff 17be
000002e0: 32e3 ddbe faf3 943d 85a9 08be f853 87be
000002f0: 9ddb 30be 77a6 073e fb26 30be 1510 39be
00000300: fc79 d9bd 7a6e a8bd 61e1 98be fa5e b63d
00000310: 8a7d bdbe 9cef 49bc 86bf 45be 6c93 84bd
00000320: 9785 44be 63d1 edbb f4b0 45be 1bc7 2abe
00000330: 72bf d6bd 9045 ec3d a8ce a5be a420 32be
00000340: 01a8 3bbe d5da 39bc c94b 6c3d 2268 9c3d
00000350: 96ec ee3d 0e43 32bd 26ee 813e d762 e0bd
00000360: 9c89 483d 8abc f3bd 9ce8 833e e0b2 d5be
00000370: acd3 fe3c 570d 31be b166 133e 1de2 f93e
00000380: e52d b43e 9f88 bcbe 886b b5be fe0f 83be
00000390: 4acd 2cbe 8980 a0bd 547b bebd a817 51be
000003a0: 143c d6bc d47a 69bd 35e7 2dbc 445b a7bd
000003b0: 4f84 71be bb84 5e3d 54ca b73d d37e 263e
000003c0: a189 96be 7a2f 5a3e fe8c 643d ac28 823c
000003d0: 3035 d63d f4dc f13d 7c77 f6bd a6c4 ddbe
000003e0: fce7 8ebd 495f 2c3c 6ed7 c4bd 3fca b4bd
000003f0: d116 633e a609 7abe e77a 573d 885d 223f
-0.16038056 -0.24587007 -0.22221334 -0.0017503217 -0.21755932 0.35183018 -0.25156933 -0.27985767
0.03157239 -0.19496763 -0.2072654 -0.06793588 0.2409886 -0.28196636 -0.16576244 -0.25531203
0.0970307 -0.07156922 0.16963327 -0.27657992 -0.29366326 -0.12823 -0.26368415 -0.0873311
-0.2548005 -0.20514137 -0.27462777 0.030032221 -0.25843924 -0.089550346 -0.24693152 -0.1775103
-0.044021033 -0.14324558 0.03403053 0.116170466 -0.004061272 -0.08652023 -0.27948776 -0.047274657
-0.2826534 -0.07707971 -0.41405815 -0.18761624 -0.18704632 -0.24638644 0.09865103 -0.17971879
-0.050369974 -0.20750032 -0.0862672 0.3260103 -0.06734779 -0.20519218 -0.2202495 0.058441594
-0.13978367 -0.22463137 -0.07665116 0.2654335 0.007259213 -0.30574527 -0.10146857 0.41626987
-0.25353348 -0.1705836 -0.28445166 0.06883715 0.05196022 0.13838336 -0.23033626 0.020417986
-0.20252368 -0.0015094441 -0.5746376 -0.06600248 -0.052339125 -0.1165824 -0.14053465 0.1423959
-0.02229515 -0.50865406 -0.3342094 -0.1833364 0.025278304 -0.13484874 -0.24908096 -0.027308563
0.26247168 -0.26846284 0.25653133 -0.07913294 -0.07166157 -0.45211983 -0.077933736 0.057051133
0.073659934 -0.23261257 -0.067764916 -0.30764085 -0.23908176 -0.028067384 0.057617676 -0.19367322
0.028641274 -0.11799451 -0.23583867 0.038101994 -0.06985012 -0.23449837 -0.27727643 -0.04794714
-0.035084788 -0.22521223 -0.14270838 0.18301667 0.3209092 -0.18622401 0.15032378 0.20057636
-0.087579824 0.027608264 -0.10576853 -0.24670312 0.027639179 -0.15722775 0.026493797 -0.045793504
0.12083637 0.01697287 -0.04303305 -0.21317238 -0.0072060395 -0.13729112 -0.012983677 0.19888681
-0.21882327 0.16099975 -0.21316509 -0.036843933 0.0343117 -0.007730154 0.03153845 -0.0183526
-0.21538182 0.0022521568 -0.18119259 -0.007001917 -0.21384805 -0.18413672 -0.15314195 0.014489154
-0.0832673 -0.19224006 0.12622865 -0.17852087 -0.05051818 -0.5550837 -0.05334148 -0.21989064
0.1723568 -0.25912964 -0.28110254 -0.05855898 -0.2609541 -0.10665539 -0.15186915 -0.1921727
-0.1691352 -0.21432976 -0.015678734 0.12863962 -0.10632034 -0.39839515 -0.16009346 0.27674207
-0.0094309775 -0.25772533 0.18829499 0.25399762 0.20327254 -0.24690217 -0.19690545 -0.14843436
-0.433374 0.07273097 -0.13345917 -0.2643125 -0.17271276 0.13247095 -0.1720237 -0.18072541
-0.1061897 -0.08224197 -0.2985945 0.08904834 -0.3700984 -0.012325194 -0.19311342 -0.06473431
-0.19191585 -0.007257627 -0.19305784 -0.16677515 -0.10485734 0.115367055 -0.3238423 -0.17395264
-0.18325807 -0.0113436775 0.05768946 0.07637049 0.11666219 -0.04352098 0.25377005 -0.10956352
0.04895936 -0.11901195 0.25763404 -0.41738033 0.031106792 -0.17290245 0.14394642 0.48805323
0.35191265 -0.36822984 -0.35433602 -0.2559814 -0.16875187 -0.07837016 -0.09300867 -0.2041918
-0.026151694 -0.057001904 -0.010614206 -0.081717044 -0.23585628 0.0543258 0.08974138 0.16259317
-0.29401878 0.21307173 0.055798523 0.015888534 0.104593635 0.118097216 -0.120345086 -0.43314093
-0.06977841 0.010520765 -0.096114025 -0.08827638 0.22176673 -0.24417743 0.052607443 0.6342397

model.2.weight f4 [256, 512]
00000000: d5d1 b13c c9b3 08bc eadd 00bc c5af fbbc
00000010: 7e45 a9bc e065 19bc a063 8bbd 187d 05bd
00000020: a81e 5ebb 0616 49bd 28a4 6fbd c2b9 a8bc
00000030: b704 1ebd db72 f2bc 3b25 9cbd 7f32 e23b
00000040: 4727 9e3c f3b9 b73c 9187 e53c 84a6 463d
00000050: 6b7c 293d f724 f5bc e52d 703b 1068 cabb
00000060: a725 4ebb 2dbd a53b 8fa9 aebb ea7d b63c
00000070: b110 12bc a633 d83b ca18 12bd a7c4 cabb
00000080: 28cd df3c 524a 9b3b e57e 9bbc b99f 83bd
00000090: d90f 273b a0d9 84bd fcfa 4abc 5731 13bd
000000a0: e78b 2abd 6424 6cbd e775 7d3d 9115 b0bc
000000b0: 9c42 19bd 76f3 a1bc c76a 983a 4fee 0abd
000000c0: d718 04bc 4ac8 45bc f89a 24bc 2083 d8bc
000000d0: 0010 2dbd 82b1 e1bc bc09 d1bc 5039 733b
000000e0: 392a ecbc 2a90 543d 9cdc 9c3b d7d6 2bbd
000000f0: fce6 5abd ce32 923c 222e 143c df15 353c
00000100: dbf2 7c3c 862f 87bd b192 903b fc22 1c3d
00000110: 0eb0 02bd ef4c a0bc 7d8b 97bd a650 b0bc
00000120: 84bb 3abc e8a4 80bd 12e7 34bd 9276 c03a
00000130: 4f53 08bd 8a93 19bc 9856 963b 617e 09bd
00000140: d3d2 4cbd a5b0 cabc 7fee 8b3c 33eb 3b3c
00000150: 01fa 94bd 447e c3bb 76bf 32bd 938a d4bc
00000160: 6480 103c db2d 37bd a2e2 ecbc 4232 3abb
00000170: 8239 11bc 7af8 693b 0d70 243c 141c 86bb
00000180: 3441 39bc 709c c93c e2c4 24bc 8a7b 713c
00000190: 5ab9 69bd 3cda 8dbc fcdf 53bd 5743 37bb
000001a0: 64c3 243c 11c3 fabb 298c 8b3c 7256 1cbc
000001b0: 7607 0dbc 578d 61bd a388 163c 9b8e 35bd
000001c0: 2353 053d 68a5 133b 5837 103d f3e6 233c
000001d0: a00c 67bd 9f57 a23b 0a2b 90bc 5372 bcbc
000001e0: 3a9f 80bc 7045 693d 9d4e 62bd 36a3 29bc
000001f0: ea9e afbc cb24 07bd 5fe8 43bd 23c9 a4bc
00000200: 8ef2 86bc f3ea 7dbc 14ca 83bd 097f e2bb
00000210: c5fb 2cbd ca07 12bc 7791 d63a ff25 453d
00000220: c1c9 7abd 48df 2cbd f5fe 023c 5e6b 5bbd
00000230: b17e 8db9 baca 373b 44b5 efbc a6cb 82bc
00000240: 8122 fcbb 008e e4bc 07b3 193d 2401 d93c
00000250: 2106 13bd 19d3 5abd 1893 1fbd 2fe3 2abd
00000260: 2682 6abd e9bf 7cb7 0287 26bc c20c fdbb
00000270: eac8 03bc e23f 8c3c 3276 15bd f735 9f3c
00000280: 4a98 a33c 516d 06bd 34bf 34bd d5ca f7bb
00000290: 9da8 39ba 4047 81bd 824c 52bc c487 b7bc
000002a0: 9d8e 87bc 942c ad3c f2c0 343d 5fc1 75bc
000002b0: 5a47 3abc aa7b 6a3d edaf 2d3c 939d 6fbd
000002c0: 6512 96bd cc6d 903c 9473 ffbc a725 07bd
000002d0: f417 0ebd b62a 703c fbe6 cd3a 1a00 15bc
000002e0: 609a 6c3c a429 00bd 9528 b5b9 ba04 6cbd
000002f0: 48a9 093b 602b 08bd 2286 84bc bfe3 093d
00000300: 9bcf b3bc 1ec5 aaba 8b6c 59bd 4e88 6cbb
00000310: a0d7 59bd 5966 983c d51d 80bd ee5e 443b
00000320: 94b5 6dbd 3c90 c0bb a390 a5bc 2846 633c
00000330: 7ea7 3bbd f10e a03c 0007 5f3c 5e26 9abc
00000340: 1b92 6ebd a36d d2bc b822 493c 628a 18bc
00000350: 7441 39bd 87cf 963c 4615 703d 8b26 833c
00000360: 89a0 293c 38be 853b f710 97bc abf2 abbc
00000370: 319b 17bd 7892 abbc 298c 58bc 2fce ddbc
00000380: 43d8 f7bc b2a2 c63c 98cb f8bc 8ab2 323c
00000390: 4562 ceba fc1f 00bc 002d 79bc 709d 9dba
000003a0: bba8 ccbc f279 513c af8f e43b 48d7 6cbc
000003b0: 64f9 edbc 6444 a6bc 37cd d7bc 0f84 02bc
000003c0: a167 9dbc 653d 1fbd 712b 35bd 1a0f 07bd
000003d0: 2743 9c3b f963 abbb c9d8 e83c 6659 0b3d
000003e0: 432e 66bd 9993 36bd 26f4 55bd 8270 95bc
000003f0: fe2d 23bd 836e 18bb cf87 80bc 3784 1ebc
0.021706501 -0.008343645 -0.007865408 -0.030723462 -0.02066302 -0.009362668 -0.06806111 -0.03259
-0.0033892784 -0.04909327 -0.05850616 -0.020596389 -0.038578715 -0.029595783 -0.07624289 0.0069029923
0.019305838 0.022427535 0.028018745 0.048498645 0.04137842 -0.029924853 0.003664845 -0.006176956
-0.0031455548 0.005057952 -0.0053302716 0.022276837 -0.008915112 0.006597954 -0.035668172 -0.0061879936
0.027319506 0.0047390843 -0.018981406 -0.06426949 0.0025491624 -0.06486821 -0.012388941 -0.035935726
-0.041637328 -0.057651892 0.06188002 -0.021494659 -0.03741704 -0.019769412 0.0011628502 -0.033918675
-0.008062563 -0.012071678 -0.010046713 -0.026429713 -0.042251587 -0.027550463 -0.025517337 0.0037113018
-0.028828727 0.051895298 0.004787041 -0.041952934 -0.05344294 0.017846491 0.009044202 0.011052578
0.015438761 -0.06600861 0.004412018 0.0381193 -0.03190618 -0.019567935 -0.07399652 -0.021522831
-0.011397246 -0.06281453 -0.04416568 0.0014683774 -0.033282574 -0.009373555 0.0045879595 -0.03356779
-0.050005745 -0.024742434 0.017081497 0.01146965 -0.07274247 -0.00596598 -0.043639623 -0.025944984
0.008819673 -0.044721466 -0.02891666 -0.0028411304 -0.008863809 0.0035701082 0.010036481 -0.0040927026
-0.01130705 0.024610728 -0.010056706 0.014738927 -0.05706153 -0.017315976 -0.05172728 -0.0027963722
0.01005635 -0.0076526483 0.017034607 -0.009542095 -0.008607736 -0.055066433 0.00918785 -0.044325452
0.03254999 0.002252901 0.03520903 0.010003793 -0.056408525 0.004954293 -0.017598648 -0.023003733
-0.015700925 0.056950986 -0.055250753 -0.010353854 -0.02143808 -0.032994073 -0.04782903 -0.02011544
-0.016473081 -0.015497911 -0.06435028 -0.0069121164 -0.042232294 -0.00891299 0.0016370256 0.04813194
-0.061227564 -0.042205125 0.007995357 -0.05356919 -0.00026988008 0.0028044418 -0.029261239 -0.015966248
-0.007694543 -0.027899742 0.03752425 0.026489802 -0.035894517 -0.053423975 -0.03895864 -0.041720565
-0.057253025 -1.5065053e-05 -0.010164024 -0.007722468 -0.008043507 0.017120305 -0.036489673 0.019434912
0.019970078 -0.032819096 -0.044127658 -0.0075620213 -0.0007082315 -0.06312418 -0.012835624 -0.022403605
-0.016547495 0.02113942 0.04412932 -0.014999717 -0.011369551 0.05724684 0.010601026 -0.058499884
-0.07327727 0.01763048 -0.031183042 -0.032994892 -0.034690812 0.014658621 0.0015709096 -0.0090942625
0.014441103 -0.03128971 -0.00034553246 -0.057621695 0.002100544 -0.03324449 -0.01617724 0.03366446
-0.02194958 -0.0013028716 -0.05308203 -0.0036091986 -0.05318415 0.01860349 -0.0625569 0.002996381
-0.058034495 -0.005876569 -0.02021057 0.013871707 -0.04581403 0.019538375 0.013612509 -0.018817123
-0.058244806 -0.025687044 0.012276344 -0.009310337 -0.045228437 0.018409504 0.058614038 0.01600959
0.010353216 0.0040815137 -0.018440707 -0.020989737 -0.037013236 -0.020943865 -0.013217011 -0.027075855
-0.030254489 0.024247501 -0.030370519 0.010906825 -0.0015745839 -0.007820126 -0.015208483 -0.001202507
-0.0249828 0.012785422 0.006975136 -0.014455624 -0.029049583 -0.020296283 -0.026342971 -0.007966056
-0.019214453 -0.03887691 -0.044230882 -0.032973386 0.0047687474 -0.0052304235 0.028423684 0.034020804
-0.056196462 -0.044574354 -0.05223479 -0.018242124 -0.039838783 -0.002325923 -0.015689759 -0.009675077

model.2.bias f4 [256]
00000000: 1936 94bd 1b26 86bd 3c5f 6fbd c08b cd3d
00000010: ead4 8fbd 5dc5 cc3d 7eb7 2dbd 888f 2cbd
00000020: 7322 59bd 87bd 04bd f29c 5ebd 0fae 81bc
00000030: c5c4 4c3e 7484 dabc a14b dbbd f5d5 0a3e
00000040: 87bb fcbd 2abc 5fbc 80b2 32bc 34bf a1bc
00000050: 3719 a43d f15e 6f3d 93c8 24bc b706 843d
00000060: 5538 89bd 00d4 dcbc 1d41 51bc 7587 4ebb
00000070: 7846 04be 35cf 51bd 42e2 0cbc ee88 3c3c
00000080: 5cda 17bd 54da 39bc 635f 55bd ee6e 84bd
00000090: 56be 363e da6c 5bbd e07d 91bd a894 babc
000000a0: 2044 86bd 162b 03bd f61b 1ebc c258 943c
000000b0: 02a4 253e 05eb b03c bd09 efbc 3d98 813c
000000c0: a726 473e 2cb1 22bd 72f1 2f3c fce6 b6bc
000000d0: f2a9 e53d 485f 58bc 8d25 193c 7280 cc3c
000000e0: 9b3b c33d e9b7 6c3b 1388 83bb 40c0 59bd
000000f0: a942 003e c42c 02be c94e d6bd 4c54 283e
00000100: f1e8 e5bd 1926 043e 839d a5bc c707 fc3d
00000110: 40b8 58bb 615b 34bc a231 f5bc 90d9 c0bd
00000120: 4603 01bc b675 5d3d 8ce2 40bd e04b f83e
00000130: 171b c0bd 00d7 89bd 3846 ddbd 7b08 23bd
00000140: 8e18 8c3e 97dc 0bbe f900 11bf 288a b9bd
00000150: ebde 96bd 3f75 31bd 30e0 b5bc 0bb2 fabc
00000160: 57f2 363e dad3 09bd 2a68 93bd 2ece e93a
00000170: dfae a43b d55d 28bd 9e41 873d 4655 3d3b
00000180: 3264 7d3d 5ce2 81bd 6845 14bd 8a95 ee3d
00000190: cdef ecbc 0c28 12bd 9140 98bd ebe4 78bd
000001a0: 01bd 7fbd 2f3c 7f3d c401 aabd caf1 8ebe
000001b0: 2214 463a 9d9b 8dbd 339c 83bd 7193 f1bc
000001c0: 3d65 0f3d 4747 81bd 506b f3bc a666 8e3e
000001d0: cc27 7ebd 2e05 ce3d 51c5 8d3c 27be 233d
000001e0: 12ed 113e a208 a13c 1c8e 863c 8e37 00be
000001f0: 6c51 15bd d589 51bd df2e 52bd 4e32 aebd
00000200: 1c7d 8ebd 2dd4 20bd 91d2 adbc 0ad8 84bd
00000210: ec7b a43a 1cbc 9ebc 393b bbbb 7c25 1bbd
00000220: d262 323e e917 a3bd 55e7 4ebe 8a40 c9bd
00000230: c467 433e 0129 1ab9 12d2 92bb 41c5 f7bd
00000240: a098 bfbd 8291 313d 72c1 88be c613 873d
00000250: 5894 833d ccae 31bd 6041 0ebe 4669 a8bc
00000260: 0431 29bd 7865 4cbd 3530 8dbc 85e0 0d3e
00000270: ee41 01bc db5f 743e 11e9 febd 057e 623d
00000280: 694f 7abd f64d d23d 73b3 dc3d f173 9c3d
00000290: 1866 13bc 1285 303e dbcd 63be 04b0 d93e
000002a0: 2fc9 92bc aef6 e03d d9e2 293e c135 02be
000002b0: a31c 48bd 07fb 4dbd f410 58be 0aa5 f5bc
000002c0: 6a7a 14bd a0ac 303c f29b 323e a067 48bd
000002d0: 1c1e c7bd 3dd8 15bd a7a5 363e ce58 a8bd
000002e0: 3871 6cbd 6e6c a23c 6b63 f5bc f930 49bb
000002f0: 33ab 0c3c 9015 60bd 76dc 24bd ee33 2ebd
00000300: e41b e33d 4652 8ebb e77f f33c e33f 503e
00000310: 4a76 32bd 11a7 3ebd 7258 eabd 24e8 f9bd
00000320: c678 49ba 6c30 56bd 8b61 5abd 8ebf 4bbd
00000330: fc41 f4bc eaf4 fd3d 9877 9ebd 9deb a73d
00000340: f19c 753d 46a5 eebc 0df5 24bd 28a3 50bc
00000350: 4ceb 123e f3cf 723a 38ba 4d3e 0421 7bbd
00000360: d619 8bbc 12fd 68be eb8c 72bd 5bca 163e
00000370: d911 5ebd a078 9b3a a86c 2dbe 987c 91be
00000380: ec03 5abe cf6b 1b3c 8f94 07bd d5c4 b33d
00000390: 6242 a6bd dfab 01bd 7670 77bc 79be 43bd
000003a0: 016c 4a3c 75d7 2abc 39ff 1cbe 0885 3a3c
000003b0: 0f26 d3bd 7deb 43bd cdf4 9f3e c14e 68bd
000003c0: 16a7 89bb 97c6 a2bd 59dd d9bc 5466 073e
000003d0: 48b6 fabd 93ed ffbc be10 cdbd 7a7f 3eb9
000003e0: 03f2 88bd 718c c7bd c296 3b3c c8f5 c1bb
000003f0: 5838 51bd 70b2 5ebd 6be5 c1bc e41c 86bd
-0.07236881 -0.06550237 -0.058440432 0.10036421 -0.07023032 0.099985816 -0.04241132 -0.04212907
-0.05301137 -0.03240731 -0.054348893 -0.015830068 0.19996937 -0.026674487 -0.107077844 0.1355818
-0.123404555 -0.013655702 -0.0109068155 -0.019744493 0.08012622 0.058440153 -0.010057586 0.06446593
-0.067001976 -0.026956558 -0.012771872 -0.0031513844 -0.12917507 -0.051223 -0.008598866 0.011507256
-0.037073478 -0.011343557 -0.05209292 -0.06466471 0.17846045 -0.053570606 -0.07104087 -0.022775963
-0.065559626 -0.03202351 -0.009650221 0.01810873 0.16175845 0.021596441 -0.029179448 0.015819663
0.19448338 -0.039719746 0.010738717 -0.022326939 0.11214055 -0.013206311 0.009347332 0.024963591
0.09532853 0.0036120361 -0.004014024 -0.05316186 0.12525429 -0.12712389 -0.10464246 0.16438407
-0.11226071 0.12905158 -0.020216709 0.12306171 -0.0033068806 -0.011008115 -0.029930893 -0.09416497
-0.007874316 0.054067336 -0.047091052 0.48495388 -0.09380167 -0.06730461 -0.10804409 -0.03980301
0.27362484 -0.13658367 -0.5664211 -0.09059554 -0.07366737 -0.043324705 -0.022201627 -0.030602476
0.17865883 -0.033649303 -0.07197602 0.0017837936 0.005025729 -0.04110511 0.06604312 0.0028889938
0.06186313 -0.06342003 -0.036199003 0.11649616 -0.02892294 -0.035682723 -0.0743419 -0.06076519
-0.062436108 0.062313255 -0.08301118 -0.27918845 0.00075561006 -0.069144465 -0.06426277 -0.02948925
0.035008658 -0.06312423 -0.029714257 0.2781269 -0.062049672 0.10059582 0.017306002 0.039976265
0.14250591 0.019657437 0.016425185 -0.12521192 -0.036454603 -0.051156837 -0.05131423 -0.085056886
-0.069574565 -0.039264847 -0.02121857 -0.06486519 0.0012549139 -0.019376807 -0.005713847 -0.037877545
0.1742051 -0.07963545 -0.20205434 -0.09826763 0.19082552 -0.0001470186 -0.0044806087 -0.1209817
-0.09355283 0.043351658 -0.26710087 0.06595568 0.06424779 -0.04337959 -0.13892126 -0.02055801
-0.04130651 -0.049901456 -0.017234901 0.13855179 -0.007889254 0.23864691 -0.12446798 0.055295963
-0.061110888 0.10268776 0.10776415 0.076393016 -0.008996509 0.17238262 -0.22246496 0.42517102
-0.017918197 0.109845504 0.16590442 -0.12715818 -0.048855435 -0.050288226 -0.21100217 -0.029985923
-0.036249556 0.0107833445 0.17442301 -0.04892695 -0.0972254 -0.036583174 0.17836629 -0.08220063
-0.05772516 0.019827094 -0.029954633 -0.0030699356 0.008585739 -0.054708064 -0.04024931 -0.042529993
0.11089304 -0.004343304 0.029724075 0.20336871 -0.04356984 -0.046546046 -0.11442651 -0.122024804
-0.0007685538 -0.052292272 -0.05331568 -0.049743228 -0.02981662 0.12400229 -0.077376544 0.081992365
0.059964124 -0.029131543 -0.04027276 -0.012734212 0.14347571 0.0009262554 0.20090568 -0.061310783
-0.016980093 -0.22752789 -0.05921642 0.1472563 -0.05421624 0.001186151 -0.1693598 -0.2841537
-0.21290559 0.009486153 -0.03310066 0.08777777 -0.0811813 -0.03165805 -0.015102496 -0.04778907
0.012354852 -0.0104273455 -0.15331735 0.011384256 -0.103099935 -0.047832 0.31241456 -0.05671573
-0.0042008264 -0.07948034 -0.026594805 0.13222629 -0.12241799 -0.031241214 -0.10012959 -0.00018167301
-0.06686785 -0.09743584 0.011449518 -0.005919192 -0.051079124 -0.05436939 -0.023668965 -0.06548479

model.4.weight f4 [64, 256]
00000000: 1aa9 fd3c 2bfb 4dbb b514 283c ebd2 663e
00000010: 9df2 40bd 0153 c6bc 4420 453d 3944 4ebc
00000020: 3759 073e d7f0 dc3b 1ffa fcbc b03e 9d3d
00000030: 526b 9a3d 40a4 763d df9c 6b3c 6856 1f3d
00000040: 7787 af3d f370 a23d d978 8ebd ef3e 82ba
00000050: 567f fbbc ac4d d1bd 87ff af3c 39c3 9cbd
00000060: d97b 523d 4583 0a3d 1d2c 93bc 7fed bcbd
00000070: 6bd5 b4bc 31ba 0cbd d81b e63c 61e3 05bc
00000080: 1e6f 423d 6e06 b7bc 3fa4 cbbd 641b 78bc
00000090: 41d5 2c3e 04a9 bfbc b8d6 c5bc cd72 a03d
000000a0: c86c c83c 2953 6e3d 4625 dc3c 7a0b 5b3c
000000b0: 34e9 bd3d 54ee 2c3d 2943 613d f941 b4bc
000000c0: 1033 e73c 7495 953d e0b1 06bd 99d4 603d
000000d0: e411 4e3e 44fd a6bc 783b 0abd bef6 673b
000000e0: 155c 9c3d a701 5bbd 1b6e 3b3d 81a8 ab3d
000000f0: 0544 4dbc c268 d53c d76a cbbc 913c ad3d
00000100: f11e 12bc 6841 473c 918c 563d b5a1 c83d
00000110: 402c 453c 5ae2 50bd 3703 363c 72a5 1fbd
00000120: 625a 923c 1a27 20bd 3cb6 65bd fc65 213d
00000130: 45f2 9f3d dad3 93bd 1e77 d6bc 2630 093d
00000140: 9053 ebbc e4bc 503d fd26 41be 2716 72bc
00000150: fbc1 583b 011c f9bb 6d36 81bc 1c39 27bd
00000160: e4eb 003e 07e1 863d 8909 523d 1265 89bd
00000170: d75a 113d e438 763d 0e3b daba e4b1 2cbd
00000180: 88ea bc3c 90c1 0c3d 0858 94bc ce3f db3b
00000190: e551 bb3c 37ec e2bc 2e2b b1bc a2d0 0dbd
000001a0: 5a58 9a3b feb3 80bd 758b 443d 4a95 273e
000001b0: 4481 cf3c ea8e 24bd f023 733d 7d88 f2ba
000001c0: 2a87 bdbd 474d 823b 1cbf 553a f0fc 023e
000001d0: d49d 4a3b e914 d43c 5de8 82bc 4779 a7bc
000001e0: 86b8 833d 6723 443d dc46 45bd 1b91 0ebe
000001f0: f98a d53d 2421 053d 0286 a53d 2851 29bd
00000200: 918a 103a fd04 183d d316 b0bd 4bf9 663d
00000210: 1658 763d 8997 c7bb 396e 9a3c 521c fb3b
00000220: 09ba 0f3e f8ee 7e3c 5fde 15bc 743e a8bc
00000230: da17 343d aaf2 693d b69e 8b3c 5171 d13c
00000240: b68b b03d e9da d13a 4b46 febb a24a 0f3b
00000250: a472 07bd 796a 79bd 3266 df3a ea10 82bb
00000260: 5555 a5bc 9595 9a3d 16c5 92bc 81d3 07bc
00000270: 36d7 953d 2f42 053e 8cfd d63c 6d92 6c3c
00000280: cc32 f03c 1c7a 61bd 331c e8bb b181 8c3d
00000290: 962c 29bd 7cd7 c93d 6f60 413d c1ac 113e
000002a0: 98cd a5bc c99d eabc 85ff 33bc ed74 b1bc
000002b0: f9cf 093d d2c1 933d c202 2b3c 960e 233d
000002c0: 9bb3 55bd fba8 fc3c a2be 473d 2b20 003d
000002d0: 6d13 0f3d 4cec 82bd 4331 4fbd 31b2 febc
000002e0: 5fb3 b33c 98fc c93c c2f6 833d 3c82 043d
000002f0: 7018 e6bc a36a 23bd 3939 873d e0b3 51bc
00000300: 4ab4 993d d08a 8bbc e00a 42bd ddbb 973e
00000310: 1bc1 103c e68f e3bc bc6e 403d a25e 233b
00000320: a5d3 b83c 7144 b6bc 41bf 433b 757b 5ebc
00000330: cd9c 313d 1a32 4abd f5a1 783c b29c 9bbc
00000340: 7fdd 813c 533f b33c 5a6d 11bd a711 8abd
00000350: 7da7 d63d cb60 12bd cc7a 1d3e a709 a43c
00000360: d7e0 8e3d c868 2a3d f8cf 573d 07b4 3d3e
00000370: ebed babc 13cf ed3c 2ad2 15bd b7b5 383e
00000380: 5af1 0abc 3b3d 073c a769 093c 62e7 d2bd
00000390: aee1 d8bb 6533 f73c 9df8 24bd d8d3 303d
000003a0: 9c4e fbbc e809 76bd ffaf bdbc 5d4a 89b9
000003b0: 9329 333d 4983 523d 396a a73d e2e9 143d
000003c0: 58b6 5f3d 0d75 3d3c ee9e 2f3d 998e 063e
000003d0: 1774 25bc c756 043d 9bb4 d5bd 7450 453d
000003e0: 9667 99bc ac27 03bd 5652 f4bc 09f2 883c
000003f0: df2b b7bd 6474 3b3d e603 a0bc 2f99 5f3c
0.030964423 -0.0031430225 0.010258843 0.22541396 -0.047106374 -0.024209501 0.048126474 -0.012589508
0.13217627 0.0067425775 -0.030880986 0.07677972 0.07540001 0.060215235 0.014380663 0.038900763
0.0857076 0.079316996 -0.069566436 -0.0009936969 -0.030700367 -0.10219893 0.02148415 -0.07654423
0.05138764 0.033816595 -0.01796537 -0.09224986 -0.022074422 -0.034357253 0.028089449 -0.008171887
0.04746925 -0.022341933 -0.09943437 -0.015143249 0.16878225 -0.023396023 -0.024150237 0.078343965
0.024465933 0.058184776 0.026873242 0.013369435 0.092729956 0.042219475 0.05499569 -0.022004114
0.02822259 0.073038965 -0.03288448 0.05489025 0.20124012 -0.020384438 -0.03374812 0.0035394873
0.07634751 -0.053468373 0.0457593 0.08381749 -0.012528424 0.026050929 -0.024831219 0.08458818
-0.00891851 0.01216159 0.05238015 0.09796468 0.012034476 -0.050997116 0.011109165 -0.03897614
0.017865364 -0.03909979 -0.056081995 0.0394039 0.07809881 -0.07218142 -0.026179846 0.033493184
-0.02872637 0.05096139 -0.18862529 -0.014775789 0.0033074606 -0.0076022153 -0.015773023 -0.040825948
0.12589985 0.06585889 0.051278625 -0.06708731 0.035487022 0.06011285 -0.001664968 -0.042161837
0.023061052 0.034364283 -0.018108383 0.0066909557 0.022866199 -0.027700527 -0.021627035 -0.034622796
0.0047102394 -0.06284331 0.04798456 0.16365543 0.025330193 -0.040175356 0.059360445 -0.0018503811
-0.09254296 0.0039764973 0.00081537827 0.127918 0.0030916827 0.025888877 -0.01597994 -0.020443572
0.064316794 0.047885325 -0.04816328 -0.13922541 0.104268976 0.03250231 0.080822006 -0.041337162
0.0005513812 0.037114132 -0.085981034 0.056390088 0.0601426 -0.0060910624 0.018851386 0.007663288
0.1403581 0.015559904 -0.009147256 -0.020537592 0.04396806 0.057116188 0.017043453 0.025566729
0.08620398 0.0016010675 -0.0077598444 0.0021864553 -0.033068314 -0.060892556 0.0017044006 -0.0039693015
-0.020182291 0.07548062 -0.017916244 -0.008290173 0.07316439 0.13013528 0.026243947 0.0144392075
0.029321097 -0.055048093 -0.0070834397 0.06860674 -0.041302286 0.098555535 0.047211107 0.14226057
-0.020239636 -0.028639691 -0.010986214 -0.0216622 0.033645604 0.07214703 0.010437669 0.039808832
-0.05217324 0.030842295 0.048765786 0.031280678 0.034930635 -0.06392726 -0.05058409 -0.031090828
0.021936117 0.024656579 0.0644355 0.032350764 -0.028087825 -0.03989662 0.06602711 -0.012799233
0.075050905 -0.017033964 -0.047373652 0.29635516 0.008835102 -0.027778577 0.046980605 0.0024928232
0.022561857 -0.022249432 0.0029868635 -0.013579239 0.043362428 -0.049364187 0.015175332 -0.018995617
0.015852688 0.021880781 -0.035504676 -0.06741648 0.104811646 -0.03573684 0.15378875 0.020024134
0.069764785 0.041603833 0.05268857 0.18525706 -0.022818526 0.029029405 -0.03657738 0.18038069
-0.008480394 0.008254345 0.008387006 -0.10298039 -0.0066187 0.030175874 -0.04027616 0.04317078
-0.030677132 -0.06006804 -0.02315521 -0.0002618608 0.04374082 0.051394735 0.08174557 0.03635586
0.054617256 0.011563552 0.042876177 0.13140334 -0.010098479 0.03230932 -0.104348384 0.04817243
-0.018726151 -0.032020256 -0.029824417 0.016716974 -0.089439146 0.045765296 -0.019533109 0.013647362

model.4.bias f4 [64]
00000000: bcd2 243e dced 04be 2b6a 46be 7028 42be
00000010: 5e79 adbd c63e 053f 2ed1 e13d 1742 633c
00000020: 661d a5bd 3aa9 2f3e 5b8a 54bd 4bca 08be
00000030: 67f6 06be 4343 c5bd 309b 373e bb7f 0b3e
00000040: 1696 533e 187b f1bc 72e8 09be 0459 aebd
00000050: a675 4f3c 3757 fe3b 98e2 68bc e015 c8bc
00000060: d15c 893d 99b1 d9bd 8d7f 58bd b122 aabe
00000070: b159 6a3d 72c0 433e 42b4 40be dd99 f63d
00000080: 1030 a13e da41 023e e54f 6a3e 7732 7bbc
00000090: 8908 46bd 7a63 273e 3564 29bd 999c 913d
000000a0: fe9c 5cbe 4adb 47be 3c17 133e 11b0 4e3e
000000b0: da50 b2bd 90fa b73d 089c 533d 4c41 d2bd
000000c0: 6f46 403e c971 51be c42d 3a3e 6cad 2e3e
000000d0: 391b 483e d4ef 5f3e 9e24 5c3d 697a b13d
000000e0: aa6e cfbd 0100 92bd a58f 723e b6b3 aabe
000000f0: a13b a63c 4fb7 3d3e 8dac bb3d 89a8 37bd
0.16096014 -0.12981361 -0.19376437 -0.18960738 -0.084704146 0.5204891 0.11026226 0.0138707375
-0.08062248 0.17154399 -0.05188976 -0.13358419 -0.13179933 -0.0963197 0.17930293 0.13622944
0.20662722 -0.029477641 -0.13467577 -0.08513072 0.012662327 0.0077618617 -0.01421418 -0.024424493
0.067071564 -0.10629577 -0.052856017 -0.33229592 0.057214443 0.19116381 -0.18818763 0.12041066
0.3148198 0.12720433 0.2288204 -0.015331856 -0.048347984 0.16346541 -0.04135533 0.07109947
-0.21544263 -0.19517246 0.14364332 0.20184352 -0.087068275 0.08983338 0.051662475 -0.10266361
0.18776868 -0.20453562 0.1818152 0.17058343 0.19541635 0.21868831 0.05374586 0.08665926
-0.10128529 -0.07128907 0.23687609 -0.33340234 0.020292105 0.18526958 0.09163771 -0.044838462

model.6.weight f4 [1, 64]
00000000: 6b4d bfbd d98a 97bd 4b1a 26bd 4ced 113d
00000010: ccd6 8b3d 94f9 b23e a2cc 55bc e3de 253d
00000020: 62b7 843d 28eb 12bd fff5 da3d e46b 34bc
00000030: b193 0dbd f7b5 aebd d321 8ebe c4c4 47bd
00000040: 3be7 39be ea4f 8fba 623d d5bc c3ca 29bd
00000050: 28cc 15ba abca 543d fc12 133d ef79 b0bb
00000060: c888 a73c 4ef7 f53d 8d03 303d abd0 0c3c
00000070: 7e63 0ebb 1380 81bb 8ae2 91bd ba9b d5bd
00000080: 72db 913e 49f6 20be ff4f a73c 38aa acba
00000090: 12e7 d23c 448f e3bd c266 6d3d d1c2 293b
000000a0: 3aee da3d 3f8d 0c3e f721 bebd 3e55 1e3e
000000b0: 7832 30bd 6b67 0fbd f5e2 d03d 1870 cabc
000000c0: 2ce3 83be d451 a5bd 90d1 49be 82da 94bd
000000d0: 02d4 143e 3b66 29be a2ad bebc 9cec d4bb
000000e0: d9a1 dfbd 62cf 493c a7f1 42bd 4777 95bd
000000f0: 36f4 a83a f51f 1f3d 485b 69bb 06d8 56bd
-0.09340938 -0.0739953 -0.04055242 0.035626695 0.06828079 0.34956038 -0.013049277 0.040495764
0.0648029 -0.035868794 0.10691451 -0.011012051 -0.034564678 -0.08530801 -0.2776018 -0.048771635
-0.18154614 -0.001093385 -0.026030246 -0.041453134 -0.00057143206 0.05195109 0.035906777 -0.0053856294
0.020450965 0.1201006 0.042972136 0.008594672 -0.0021726782 -0.003952035 -0.07123287 -0.10430093
0.28487736 -0.1571895 0.020423887 -0.0013173288 0.025744949 -0.1111131 0.057959326 0.0025903473
0.10689969 0.13725756 -0.09283822 0.15462205 -0.04301688 -0.035010736 0.101995386 -0.024711654
-0.25759256 -0.08072248 -0.19708848 -0.072682396 0.14534 -0.16542904 -0.023276154 -0.0064979326
-0.10919542 0.01231751 -0.04759374 -0.07298141 0.0012890163 0.038848836 -0.0035607386 -0.05245211
