model_weight/critic/14_14 12:19:02 std 0.4 lr_critic_0.004- gamma_0.7 memory200 critic_weight.pth (torch, 645007 bytes, 7 tensors)

model.0.weight f4 [512, 24]
0	0x3e238ae3	0.1597095
1	0x3e73a0ca	0.23791805
2	0xbdd4140c	-0.10355386
3	0x3e26a3ac	0.16273373
4	0xbee900a6	-0.45508307
5	0xbe5982df	-0.2124133
6	0x3d8b2049	0.06793267
7	0x3d1423f9	0.03616712
8	0xbdde2149	-0.108461924
9	0x3d69074c	0.056891724
10	0xbd820380	-0.06348324
11	0xbda4b37b	-0.08042046
12	0xbd16c9d6	-0.03681358
13	0xbe5a002f	-0.21289133
14	0xbe720f08	-0.23638546
15	0xbee1e8b4	-0.4412285
16	0xbe39a593	-0.18129568
17	0xbed02759	-0.4065502
18	0xbe58cbe7	-0.21171533
19	0xbecc0aca	-0.3985198
20	0xbe412bcb	-0.18864362
21	0xbe6ee4a2	-0.23329404
22	0xbf0fd03b	-0.5617711
23	0xbef5ec2d	-0.4803175
24	0x3d821d64	0.06353262
25	0xbd14abde	-0.036296718
26	0xbde65105	-0.11245922
27	0xbe67aee7	-0.22625314
28	0x3dd76f24	0.10519245
29	0x3d0e4081	0.034729484
30	0x3d939be9	0.07207472
31	0xbd130677	-0.035894837
32	0x3da61b15	0.08110634
33	0xbd9afc46	-0.075676486
34	0x3df565ae	0.119822845
35	0x3d6ef0ba	0.058335043
36	0xbcf96eb1	-0.03044829
37	0xbd2dc620	-0.042425275
38	0xbdcb939f	-0.09940266
39	0xbe714746	-0.23562345
40	0xbdd6400e	-0.10461436
41	0xbca9016c	-0.02063056
42	0xbe6301c8	-0.22168648
43	0xbe995499	-0.29947355
44	0xbe2e2405	-0.17005928
45	0xbeb287e9	-0.34869316
46	0xbdf7c590	-0.12098229
47	0xbd48fab9	-0.049067233
48	0xbf1477f5	-0.5799554
49	0xbdaccbaa	-0.08437283
50	0xbe383ca0	-0.17991877
51	0xbf1403b9	-0.5781818
52	0xbd55e26d	-0.05221789
53	0x3ed04c56	0.4068324
54	0xbd25b0a8	-0.040451676
55	0xbdeb4ace	-0.11488877
56	0xbe63102b	-0.22174136
57	0x3e8ecadf	0.27889153
58	0xbd0a8ea7	-0.03382745
59	0x3e28a3e9	0.16468777
60	0xbd81f12e	-0.063448295
61	0x3e12ecd6	0.14348158
62	0xbf3cb581	-0.73714453
63	0xbef3a065	-0.4758331
64	0xbecf235d	-0.40456668
65	0xbefed1ff	-0.4976959
66	0xbf4038ae	-0.75086486
67	0xbf3fe1bf	-0.74953836
68	0xbf13ddb8	-0.5776019
69	0xbf2a6e39	-0.66574436
70	0xbec571ab	-0.38563284
71	0xbee1b21c	-0.440812
72	0x3efbbbd2	0.49166733
73	0xbf809444	-1.0045247
74	0x3f46ae8c	0.7761009
75	0x3f02a739	0.5103641
76	0xbf89bfd5	-1.0761667
77	0xbccbc101	-0.024872305
78	0xbf8db398	-1.1070433
79	0xbd1ab82f	-0.037773307
80	0xbd82ea74	-0.06392375
81	0x3f11a9e9	0.5689989
82	0xbdef8bd0	-0.11696589
83	0x3ea85754	0.32879126
84	0xbdd3a0f0	-0.10333431
85	0xbf09fbc6	-0.538998
86	0xbe61ba59	-0.22043742
87	0xbe6aa794	-0.22915488
88	0xbe8aeb07	-0.27132437
89	0xbeadf905	-0.3397905
90	0xbe8e2142	-0.2775975
91	0x3c4aff9a	0.012390042
92	0xbe1e35b8	-0.1545018
93	0xbe877a23	-0.2646037
94	0xbe26cd5c	-0.16289276
95	0xbed09e83	-0.40745935
96	0x3ec898af	0.39178988
97	0xbe5f34b3	-0.21797447
98	0xbc7b4c8f	-0.015338077
99	0x3e208941	0.15677358
100	0x3d9f4ff6	0.07778923
101	0xbd89b770	-0.06724441
102	0xbeea0bae	-0.45712036
103	0x3d87c87b	0.066300355
104	0xbdc4822f	-0.09595143
105	0xbef65ed2	-0.48119217
106	0x3e477789	0.19479193
107	0xbbcc5259	-0.0062354025
108	0x3da2a3dd	0.07941411
109	0x39c6af01	0.0003789589
110	0xbdd1b3ea	-0.10239394
111	0xbc8a8b8d	-0.016912246
112	0xbd94048d	-0.072274305
113	0xbeac7dfa	-0.33689862
114	0xbc795f80	-0.015220523
115	0xbea445f8	-0.32084632
116	0xbe0abd00	-0.1354866
117	0xbeb59de9	-0.35472038
118	0xbe582007	-0.21105967
119	0xbe713f63	-0.23559336
120	0x3e42c8d2	0.1902192
121	0xbd2538fd	-0.04033755
122	0xbea3178b	-0.318539
123	0x3dc4e2b2	0.09613551
124	0x3d679327	0.05653682
125	0xbd72184e	-0.05910521
126	0x3ea3cc0c	0.31991613
127	0xbda16fca	-0.0788265
128	0xbeb492a5	-0.3526813
129	0xbeadad43	-0.3392125
130	0x3ed4dfcf	0.41577002
131	0x3c3d86aa	0.011567751
132	0x3e7ef8f7	0.2489966
133	0x3dc0ce3e	0.094143376
134	0xbe5be724	-0.21474892
135	0xbe303cb7	-0.17210661
136	0xbea8d3b5	-0.3297402
137	0xbdcb396a	-0.0992306
138	0xbe23da72	-0.16001299
139	0xbd97ff57	-0.07421749
140	0xbe43f360	-0.19135809
141	0xbeb932ef	-0.36171672
142	0xbedd99e3	-0.4328147
143	0xbee40400	-0.44534302
144	0x3cb9e3f6	0.022691708
145	0x3b4b977b	0.0031065631
146	0xbcabea73	-0.020985818
147	0x3dbefaef	0.093252055
148	0x3db6fb6d	0.089346744
149	0x3cfad170	0.030617446
150	0x3dfc183e	0.12309311
151	0xbd52d99a	-0.051477052
152	0x3dc5ae87	0.09652429
153	0x3d8518f6	0.064989015
154	0x3d084653	0.03327019
155	0xbe746f0a	-0.23870483
156	0x3da7b9b6	0.081897184
157	0x3e0b19dc	0.13584083
158	0xbe8a7ecf	-0.27049872
159	0xbe97a19b	-0.29615483
160	0xbcf73f26	-0.030181479
161	0x3c8f4afb	0.017491808
162	0xbe938254	-0.2881037
163	0xbd4a79dc	-0.04943262
164	0xbe9b6ad8	-0.30354953
165	0xbdcb333e	-0.09921883
166	0xbe7453d5	-0.23860104
167	0x3cf0f339	0.029412853
168	0xbf28138c	-0.65654826
169	0xbd9ed80d	-0.07756052
170	0x3e4f03f7	0.20216356
171	0xbe596e35	-0.21233447
172	0xbeb4a8c6	-0.35285014
173	0x3e9bb00c	0.3040775
174	0xbe82f887	-0.25580236
175	0xbd62678b	-0.055274528
176	0x3eddfa9d	0.43355265
177	0xbdee7065	-0.11642531
178	0x3df3bc77	0.11901181
179	0x3d9ce3e5	0.07660655
180	0x3c8fd169	0.01755591
181	0xbe42c3ba	-0.19019976
182	0xbf1abc03	-0.60443133
183	0xbebeb079	-0.37244013
184	0xbf0325db	-0.5122964
185	0xbed9eea3	-0.42564878
186	0xbf408056	-0.75195825
187	0xbf092930	-0.5357847
188	0xbf2b6411	-0.66949564
189	0xbf157ce2	-0.5839368
190	0xbf233a5e	-0.63760936
191	0xbccc36de	-0.024928506
192	0x3dede810	0.11616528
193	0xbe58e325	-0.21180399
194	0x3e4aa887	0.1979085
195	0x3df67801	0.12034608
196	0xbd83037f	-0.06397151
197	0xbe5d21b3	-0.21594886
198	0x3d8f5a13	0.06999602
199	0xbdc5e982	-0.09663679
200	0xbe5f66d6	-0.21816573
201	0xbdd1b9db	-0.10240527
202	0xbbf297fd	-0.0074033723
203	0xbd542b09	-0.051798854
204	0x3dbaa0e9	0.091127224
205	0xbdbe7602	-0.09299852
206	0xbe36f3cf	-0.17866443
207	0xbe55a8d5	-0.20865186
208	0xbdaa791f	-0.08323883
209	0xbe828ee4	-0.25499642
210	0xbdcf07ba	-0.101088956
211	0xbe941836	-0.2892472
212	0xbc8b29e9	-0.016987758
213	0xbe89b756	-0.26897687
214	0xbe3cbd18	-0.18431509
215	0xbd46f601	-0.04857445
216	0x3ee58020	0.44824314
217	0xbee9dc4c	-0.45675886
218	0xbf1d4379	-0.6143108
219	0x3f79e325	0.9761222
220	0xbe48e572	-0.19618776
221	0xbd8e3d58	-0.06945294
222	0xbe3758cc	-0.17904967
223	0xbd6dac89	-0.05802587
224	0x3d416047	0.047210958
225	0xbc539b0a	-0.012915382
226	0x3e031a7f	0.12803076
227	0xbd2d6e38	-0.04234144
228	0x3d893fe7	0.067016415
229	0xbdefbd95	-0.11706082
230	0xbe2e9e71	-0.17052628
231	0x3e07ddbb	0.13268177
232	0x3e2a937b	0.16657822
233	0xbe09ba1e	-0.13449904
234	0xbdedb862	-0.11607434
235	0xbe001644	-0.12508494
236	0x3dd4c0ba	0.10388322
237	0x3e01da79	0.12680997
238	0xbb14e137	-0.0022717246
239	0xbeb83bea	-0.3598321
240	0x3d73fd3f	0.059567686
241	0x3dd84eb9	0.1056189
242	0x3dda12a9	0.106480904
243	0x3ee05cf1	0.4382091
244	0xbe408406	-0.18800363
245	0x3d0a3477	0.03374144
246	0xbd59afc3	-0.053146135
247	0xbaf10341	-0.001838781
248	0xbd92b91f	-0.07164215
249	0xbd806344	-0.062689334
250	0xbd61931c	-0.055071935
251	0x3a9b4f61	0.0011849218
252	0xbdace516	-0.08442132
253	0x3caaeb63	0.020864194
254	0xbdcb1335	-0.09915773
255	0xbe4b65fe	-0.19863126

model.0.bias f4 [512]
0	0xbedb26d1	-0.42803052
1	0xbe817180	-0.25281906
2	0x3d9169fd	0.07100294
3	0xbe91da3f	-0.2848682
4	0xbedea306	-0.43483752
5	0xbe6335b3	-0.22188453
6	0xbe904e45	-0.28184715
7	0xbcda11b7	-0.026619775
8	0xbe5043cd	-0.20338364
9	0xbf05a9a4	-0.52211976
10	0xbbf4d1d3	-0.007471302
11	0xbe2e24f6	-0.17006287
12	0xbf02b1e5	-0.51052696
13	0xbe2ccf83	-0.16876034
14	0xbc99f11e	-0.018791731
15	0xbcd66633	-0.02617178
16	0x3e9fe0ea	0.31226283
17	0x3e82c3c5	0.25539985
18	0xbe99fdd2	-0.30076462
19	0x3dc39357	0.09549587
20	0xbf0a6717	-0.5406355
21	0xbe2eb0eb	-0.17059676
22	0xbed30bc1	-0.41219905
23	0xbd49b634	-0.049246028
24	0xbe01a7b1	-0.12661625
25	0x3e61048b	0.2197439
26	0xbc9b3293	-0.018945014
27	0xbe4ff8f1	-0.20309807
28	0xbe153c99	-0.14573897
29	0xbda48c50	-0.08034575
30	0xbdcb7729	-0.09934837
31	0xbe5a680f	-0.21328758
32	0xbe099038	-0.13433921
33	0xbe934a9f	-0.2876787
34	0xbe40c159	-0.18823756
35	0xbeb069c2	-0.34455687
36	0xbe4ef7e6	-0.20211753
37	0x3edc3bdb	0.43014416
38	0xbe7a0ed8	-0.24419725
39	0xbec673f6	-0.38760346
40	0xbeab2027	-0.33422968
41	0xbe880f41	-0.26574138
42	0xbe4c75f6	-0.19966874
43	0xbda67832	-0.08128394
44	0xbec94c3d	-0.39315978
45	0xbeb151c0	-0.34632683
46	0xbec1c1b2	-0.3784309
47	0xbf19bb61	-0.6005154
48	0xbdc82d58	-0.09774274
49	0xbee46248	-0.44606233
50	0xbea39b0c	-0.3195423
51	0x3de7fa99	0.113270946
52	0xbe389030	-0.18023753
53	0xbebeb5eb	-0.37248167
54	0xbda8c5cc	-0.08240852
55	0xbe7457d8	-0.23861635
56	0xbe56bd5b	-0.20970671
57	0xbea18f27	-0.3155453
58	0xbe62afc3	-0.2213736
59	0xbd10be57	-0.035337772
60	0x3c688cd6	0.014193734
61	0xbdda3f3e	-0.10656594
62	0xbe9db6e5	-0.308036
63	0xbe76be4f	-0.24096034
64	0xbe81532a	-0.25258762
65	0x3f44ae8e	0.7682885
66	0xbe6186e1	-0.22024108
67	0xbe68144a	-0.2266399
68	0xbe197a4d	-0.1498806
69	0xbd9fc804	-0.07801822
70	0xbe135737	-0.14388739
71	0xbe8f112e	-0.27942795
72	0xbec325bc	-0.38114727
73	0xbe6f2430	-0.23353648
74	0xbed5f0e6	-0.41785353
75	0xbe8850ae	-0.26624054
76	0x3f4ff241	0.81229025
77	0xbe14e1f3	-0.14539318
78	0xbda76e7c	-0.0817537
79	0xbe5e8712	-0.21731213
80	0xbe6a1f89	-0.22863592
81	0xbe36f7f2	-0.17868021
82	0x3eb6d895	0.35712114
83	0xbec30616	-0.3809058
84	0x3d60bd8c	0.054868266
85	0xbe6bc246	-0.23023328
86	0xbec5d028	-0.38635373
87	0xbddd1d65	-0.10796622
88	0xbd0f59ab	-0.034997623
89	0xbd753f1f	-0.05987465
90	0xbdd77129	-0.105196305
91	0xbe068a63	-0.13138728
92	0xbe9671fc	-0.29383838
93	0xbe25abcb	-0.16178815
94	0x3d0f7a1e	0.03502857
95	0xbe17b0d4	-0.14813548
96	0xbdef2622	-0.11677195
97	0xbdb0d0b6	-0.086335585
98	0xbe240172	-0.16016176
99	0xbea96343	-0.33083543
100	0xbe905118	-0.2818687
101	0xbd18f4d3	-0.037342858
102	0xbe084afe	-0.13309857
103	0xbd130a79	-0.03589866
104	0x3cff6320	0.031175196
105	0xbe36e425	-0.17860468
106	0xbe854b0e	-0.26033825
107	0xbe992f23	-0.29918775
108	0xbe0c96c6	-0.1372939
109	0x3d3bf5a6	0.045888565
110	0xbd47d1cd	-0.048784066
111	0x3d9b0d11	0.075708516
112	0xbdb1401f	-0.08654808
113	0xbe76bd67	-0.24095689
114	0x3e856a81	0.2605782
115	0xbe2799bd	-0.1636724
116	0xbe461131	-0.19342496
117	0x3f3762ef	0.71635336
118	0x3be7ebd2	0.0070776725
119	0x3e065e79	0.13121976
120	0xbe4a4810	-0.19754052
121	0xbe916cd7	-0.2840335
122	0x3df63556	0.12021892
123	0x3e8e4769	0.27788857
124	0xbe125f9a	-0.14294282
125	0xbea18547	-0.31546995
126	0xbeda6a5c	-0.4265927
127	0xbe27eaec	-0.1639821
128	0xbe13aa86	-0.14420518
129	0xbe819642	-0.2530995
130	0xbcb9d4e5	-0.022684524
131	0xbe30c5c5	-0.17262943
132	0xbe213eef	-0.15746664
133	0xbe57f700	-0.21090317
134	0xbe265541	-0.1624346
135	0xbe28343e	-0.16426179
136	0xb9eaf089	-0.0004481117
137	0xbe7f6fd9	-0.2494501
138	0xbed6cb9b	-0.41952214
139	0xbe55b396	-0.20869288
140	0xbe364e1a	-0.17803231
141	0xbf4ec2a2	-0.80765736
142	0xbe129e39	-0.1431817
143	0xbe4ee83a	-0.20205775
144	0xbd9b79d8	-0.07591599
145	0x3f2a815d	0.6660364
146	0xbe842ea9	-0.2581685
147	0x3f14b360	0.58086205
148	0xbecfe3a8	-0.40603375
149	0x3c1602e9	0.009155967
150	0x3cb6543c	0.022256963
151	0xbd87a328	-0.066229165
152	0xbeea7df2	-0.45799214
153	0x3cc99bc4	0.024610408
154	0xbe6f388c	-0.23361415
155	0xbeb90a82	-0.3614083
156	0x3c0824c2	0.008309545
157	0xbdf88931	-0.12135542
158	0xbda06060	-0.07830882
159	0x3f456a5e	0.7711543
160	0xbe680dc9	-0.22661509
161	0x3ccc7a56	0.024960678
162	0x3d233019	0.03984079
163	0xbe267ee4	-0.16259342
164	0xbf128619	-0.57235867
165	0xbd711781	-0.058860306
166	0xbdb6add5	-0.089198746
167	0xbeb3bcf6	-0.35105103
168	0xbf12c17e	-0.57326496
169	0xbe8c0cd2	-0.2735353
170	0xbd0c26df	-0.034216758
171	0xbea695cc	-0.3253616
172	0xbe35b10f	-0.17743324
173	0xbe2316bc	-0.15926641
174	0xbe9ee862	-0.3103667
175	0xbe33fc36	-0.1757668
176	0xbd9dd8b9	-0.07707352
177	0xbe022d57	-0.12712608
178	0xbeafa098	-0.3430221
179	0xbe42a7b1	-0.19009282
180	0xbd47b3e5	-0.048755545
181	0xbe68c975	-0.227331
182	0x3effde63	0.49974355
183	0xbdb326fa	-0.087476686
184	0xbdc607df	-0.0966947
185	0x3e00512e	0.12530968
186	0x3c3f1947	0.011663741
187	0xbe327431	-0.17427136
188	0xbeca5c70	-0.3952365
189	0xbe2d3926	-0.16916332
190	0x3f1c22f8	0.6099086
191	0xbd70c199	-0.05877838
192	0xbe9aca6c	-0.3023256
193	0xbe58b5a7	-0.21163045
194	0xbea77f06	-0.327141
195	0x3f5fe2cd	0.87455446
196	0xbe7aa3de	-0.24476573
197	0xbe8cdaac	-0.27510583
198	0x3bad6b05	0.0052922987
199	0xbd6a7563	-0.057240855
200	0xbe914151	-0.28370145
201	0xbdfe2f57	-0.12411373
202	0xbdb096aa	-0.08622487
203	0xbe5a8b5b	-0.21342222
204	0xbe8c9d07	-0.27463552
205	0xbea93d41	-0.33054546
206	0xbe2e4330	-0.17017817
207	0xbe543f45	-0.2072726
208	0x3f087802	0.5330812
209	0x3d9170b8	0.071015775
210	0xbe951b98	-0.29122615
211	0x3ea27b3e	0.3173465
212	0xbe536399	-0.20643462
213	0xbe01a277	-0.12659632
214	0xbeac0b75	-0.3360249
215	0xbe79cc8f	-0.24394439
216	0xbe29d1ea	-0.16583982
217	0xbcbeda06	-0.023297321
218	0x3f2d114c	0.6760452
219	0xbe82e3f6	-0.25564545
220	0xbe3097a7	-0.17245351
221	0x3eb93641	0.36174205
222	0x3ee2d602	0.443039
223	0xbdb54004	-0.08850101
224	0xbe5d4111	-0.21606852
225	0x3dbc6671	0.09199227
226	0xbd7edf95	-0.062224943
227	0xbe5e6c53	-0.2172101
228	0xbd847c27	-0.06468993
229	0x3f7c5dd9	0.985807
230	0xbe696a13	-0.2279437
231	0x3f29a9d4	0.6627476
232	0xbd5105b0	-0.051030815
233	0x3ea1f5cb	0.31632838
234	0xbf05fbd9	-0.52337414
235	0xbdb49268	-0.08816987
236	0x3f1a3150	0.60231495
237	0xbe940693	-0.28911266
238	0x3d49d384	0.049273983
239	0xbef64ddf	-0.48106286
240	0xbe3bec54	-0.18351871
241	0xbe5d872b	-0.21633594
242	0xbeada730	-0.33916616
243	0xbe873207	-0.26405355
244	0x3f20997e	0.6273421
245	0xbecd275e	-0.40069097
246	0xbd5dcfcc	-0.05415325
247	0xbe293d61	-0.1652732
248	0xbdcf9ceb	-0.101373516
249	0xbed01ce4	-0.40647042
250	0xbe3a51f1	-0.1819532
251	0xbf0725a7	-0.5279183
252	0x3eec4f8e	0.46154445
253	0x3ec2f249	0.38075474
254	0xbe9e859a	-0.30961305
255	0xbd1cbfca	-0.03826884

model.2.weight f4 [256, 512]
0	0xbd01fe10	-0.031736434
1	0xbd9c261f	-0.076244585
2	0xbe0b4b17	-0.13602863
3	0x3dcbbb7d	0.0994787
4	0x3c54e023	0.0129928915
5	0x3e8578c3	0.26068696
6	0x3d07fad1	0.03319818
7	0xbe213b2c	-0.15745229
8	0x3d846585	0.06464676
9	0xbe00881b	-0.1255192
10	0x3b75456f	0.003742542
11	0xbdc19800	-0.0945282
12	0xbdebccc7	-0.115136676
13	0xbd0db597	-0.034597006
14	0xbd501ebd	-0.050810564
15	0xbd68b5b0	-0.056813896
16	0xbdb6c4bd	-0.089242436
17	0xba7f365a	-0.0009735577
18	0xbd72be53	-0.05926354
19	0xbe236524	-0.15956551
20	0xbec0c622	-0.37651163
21	0x3d049757	0.03237089
22	0xbe030dff	-0.12798308
23	0xbd58e443	-0.052952062
24	0x3ca64462	0.02029628
25	0xbdca9e6d	-0.098934986
26	0xbe1ae7be	-0.15127465
27	0x3d171ab0	0.036890686
28	0xbca70d50	-0.02039209
29	0xbd06aea7	-0.032881405
30	0xbcea40d2	-0.028595362
31	0x3e3c8312	0.18409374
32	0xbcf16160	-0.029465377
33	0x3ce04bb1	0.027379842
34	0xbdd60e34	-0.10451928
35	0x3cb67a54	0.022275127
36	0x3d17266d	0.03690188
37	0x3e1a0c7a	0.15043822
38	0xbd42ae15	-0.0475293
39	0x3d36123d	0.044450987
40	0x3d216a31	0.039407913
41	0xbc673158	-0.014110886
42	0x3ce45ea7	0.027877165
43	0xbc7a0c88	-0.015261777
44	0xbea09fe2	-0.3137198
45	0x3e8d2ac9	0.27571705
46	0xbde5827f	-0.11206531
47	0x3b4aac85	0.0030925584
48	0xbd83aee4	-0.06429842
49	0x3e64c97a	0.22342482
50	0xbc32d0a4	-0.010914002
51	0x3ca55f13	0.020186936
52	0xbde74a89	-0.11293513
53	0x3c3de0ae	0.011589212
54	0x3d25dd69	0.040494356
55	0xbe4ec2e9	-0.2019154
56	0xbd467abf	-0.048456904
57	0x3e26ef57	0.16302238
58	0xbd0a1e97	-0.03372058
59	0xbd1b5e04	-0.037931457
60	0x3d162b7d	0.036662567
61	0x3c873a42	0.016507272
62	0xbc51e9fe	-0.012812136
63	0xbe321229	-0.1738974
64	0x3e46f698	0.19430006
65	0xbe032118	-0.12805593
66	0xbd6a44be	-0.057194464
67	0x3d3b840a	0.04578022
68	0xbe819fea	-0.25317317
69	0x3c130b1d	0.008974818
70	0x3d814bd2	0.0631329
71	0xbd388853	-0.045051884
72	0x3db1504e	0.08657895
73	0x3cfffab1	0.031247469
74	0x3b21daf3	0.0024697154
75	0x3e3f97b8	0.1871022
76	0xbe09414d	-0.13403817
77	0x3c9b4f56	0.018958729
78	0xbcc1abeb	-0.023641547
79	0xbd073c73	-0.033016633
80	0x3d269952	0.04067356
81	0xbe513f04	-0.20434195
82	0xbdcd6002	-0.10028078
83	0x3cff77c2	0.031185035
84	0xbe3288d2	-0.17435005
85	0xbd295896	-0.041344248
86	0x3c0d819e	0.00863686
87	0x3b51016e	0.0031891721
88	0xbe0e5420	-0.13899279
89	0xbde408d3	-0.111344956
90	0x3d6cc24a	0.057802476
91	0xbd07df6f	-0.033172067
92	0xbe1a6bf7	-0.15080248
93	0x3d006243	0.03134371
94	0xbd9a3caa	-0.07531102
95	0x3d82243a	0.06354566
96	0xbd4933ea	-0.049121775
97	0x3d031cb2	0.032009788
98	0xbd8ebdef	-0.06969821
99	0x3cbb81bf	0.022889016
100	0x3d6b2c9a	0.057415582
101	0xbdc943ee	-0.0982741
102	0x3cfb8413	0.030702626
103	0xbd69ac9c	-0.05704938
104	0xbe1d7010	-0.1537478
105	0xbcdb75b4	-0.026789524
106	0x3d79e6a5	0.061010975
107	0xbc96ee21	-0.018424096
108	0xbd58d215	-0.052934725
109	0x3dcc21f9	0.09967417
110	0x3dba59d6	0.09099166
111	0xbe02ac75	-0.127611
112	0xbd91882b	-0.0710605
113	0xbd24d175	-0.040238816
114	0xbd6a1057	-0.05714449
115	0xbd8217e7	-0.06352215
116	0xbc799377	-0.015232912
117	0xbe2e3f33	-0.17016296
118	0x3cf8660b	0.030322095
119	0xbe1a4a04	-0.15067297
120	0xbe066bd7	-0.13127075
121	0xbd388f96	-0.04505881
122	0x3bc3f269	0.0059798253
123	0xbdcd7b95	-0.10033337
124	0xba8e9a1a	-0.0010879666
125	0xbce4dc86	-0.027937185
126	0xbd4a920d	-0.04945569
127	0xbca5d41a	-0.02024274
128	0x3d6a71c3	0.057237398
129	0xbd93f314	-0.07224098
130	0x3e44db1c	0.19224209
131	0xbe0a4507	-0.13502894
132	0x3d39bfa1	0.045348767
133	0x3d4a66ea	0.049414553
134	0xbddb39ed	-0.10704408
135	0xbd503db0	-0.05084008
136	0x3b8ed077	0.004358347
137	0xbe1f0042	-0.15527442
138	0x3e3c3153	0.1837819
139	0xbdb781d3	-0.08960309
140	0xbdbdb63c	-0.09263274
141	0x3d09cd37	0.033642974
142	0x3d93aaa0	0.072102785
143	0x3b5fb68c	0.0034135906
144	0xbc3747c6	-0.011186546
145	0xbdc1ffc5	-0.09472612
146	0x3d588c1d	0.052867997
147	0xbd7d1655	-0.061788876
148	0xbca19692	-0.019725118
149	0xbd8306f8	-0.063978136
150	0x3db788ab	0.08961614
151	0xbe3af2b6	-0.1825665
152	0x3da5f866	0.08104019
153	0x3d95e3a7	0.07318812
154	0xbde97b7f	-0.11400508
155	0xbe41c1ea	-0.18921629
156	0xbd817276	-0.0632066
157	0xbc99da81	-0.018780949
158	0xbcca8327	-0.024720741
159	0xbdb92fda	-0.0904233
160	0xbde218a0	-0.11039853
161	0xbc98bef0	-0.018645734
162	0x3da0e056	0.07855289
163	0x3d73ccf6	0.059521638
164	0xbcb5aefb	-0.022178164
165	0xbc61e719	-0.013788008
166	0xbda21189	-0.07913501
167	0x3d54cbfc	0.051952347
168	0x3d4756c1	0.04866672
169	0xbd829d95	-0.06377713
170	0x3e016ac6	0.12638387
171	0x3a1f9276	0.0006087193
172	0x3e5096c2	0.2037001
173	0xbd1d9b85	-0.038478393
174	0x3d0f4646	0.034979127
175	0xbe48dfe6	-0.1961666
176	0xbd8354bf	-0.064126484
177	0xbe386253	-0.18006258
178	0xbe12e1b8	-0.14343917
179	0xbcdba385	-0.02681137
180	0xbd3a137f	-0.04542875
181	0xbc99027b	-0.01867794
182	0xbd5698eb	-0.052391928
183	0xbe320b1f	-0.17387055
184	0x3cb9f1c7	0.022698296
185	0xbe11302a	-0.1417853
186	0xbcd578d6	-0.026058596
187	0xbcec2498	-0.028826043
188	0x3dd65466	0.104653165
189	0xbdcca743	-0.0999284
190	0xbd60d347	-0.05488899
191	0xbde58f8d	-0.11209021
192	0xbdc7e9b7	-0.097613744
193	0xbe276c64	-0.16349941
194	0x3dc10968	0.09425622
195	0x3d393168	0.045213133
196	0xbcdf3582	-0.027247194
197	0x3da5cef8	0.08096117
198	0xbddb6159	-0.10711927
199	0xbda0e7ae	-0.078566894
200	0x3bfbabe8	0.007680405
201	0xbd821dd2	-0.06353344
202	0xbd2fe50f	-0.042943057
203	0xbc874305	-0.01651145
204	0xbe1d6954	-0.1537221
205	0x3cb77bae	0.022397842
206	0x3cb69cd2	0.022291575
207	0xba2e4efd	-0.00066493434
208	0xbc49257c	-0.012277003
209	0xbd29582e	-0.04134386
210	0x3b80dff5	0.0039329478
211	0xbcc66b89	-0.024221199
212	0xbd0d16ac	-0.03444545
213	0xbd6f0539	-0.05835459
214	0x3d88c846	0.06678824
215	0xbde5f8f9	-0.112291284
216	0xbe196c62	-0.14982751
217	0x3ce7ab4f	0.028279928
218	0xbe66bf57	-0.22533928
219	0xbd8e4add	-0.06947873
220	0xbccd723e	-0.025078889
221	0xbc81e44a	-0.015855927
222	0xbe557916	-0.20846972
223	0xbb33b333	-0.0027420043
224	0x3d91fe8e	0.071286306
225	0x3b1fefcd	0.0024404407
226	0xbd89783c	-0.06712386
227	0xbb285a6b	-0.002568866
228	0x3d551e22	0.05203069
229	0xbda89feb	-0.08233627
230	0x3bbe040e	0.005798823
231	0xbddedb88	-0.10881716
232	0xbdb423f2	-0.087959185
233	0xbdefc74f	-0.11707937
234	0xbd66c8c5	-0.056343812
235	0x3d4938c0	0.049126387
236	0xbe0c800a	-0.13720718
237	0xbe2ab3cc	-0.1667015
238	0x3d8f196c	0.06987271
239	0xbe1a6b9e	-0.15080115
240	0x3cba2f6f	0.022727696
241	0x3d161974	0.036645368
242	0xbd027e37	-0.03185865
243	0xbd9fddad	-0.07805953
244	0xbe281c0a	-0.16416946
245	0x3c602b63	0.013682219
246	0xbd84a4a2	-0.06476714
247	0x3dd05827	0.10173064
248	0xbd7353ff	-0.059406277
249	0xbd1e01f1	-0.03857607
250	0xbd6dd948	-0.058068544
251	0xbe0c1384	-0.1367932
252	0xbe672934	-0.22574311
253	0xbd87c87f	-0.066300385
254	0x3c19a9e9	0.009378889
255	0x3cd69dfd	0.026198382

model.2.bias f4 [256]
0	0xbe3ee5e8	-0.1864239
1	0x3e34e78a	0.1766645
2	0xbc913c67	-0.017728997
3	0xbe1473d4	-0.1449731
4	0xbc1f087f	-0.0097066155
5	0xbd03f796	-0.03221854
6	0x3d24fdd7	0.040281143
7	0x3c1b1017	0.009464285
8	0xbcf6309c	-0.030052476
9	0xbd6b8742	-0.05750204
10	0xbe03af0b	-0.12859742
11	0xbd86ebba	-0.0658793
12	0xbdbeb7cc	-0.093124
13	0xbde75e83	-0.112973236
14	0xbea29523	-0.31754407
15	0xbdc70495	-0.09717671
16	0xbd70f5eb	-0.058828276
17	0xbd4399ee	-0.04775422
18	0xbd98221b	-0.0742838
19	0xbd0815b9	-0.03322384
20	0xbc355f8f	-0.011070146
21	0xbca5ec78	-0.020254359
22	0xbd3ac8e4	-0.04560174
23	0xbcb3bf9a	-0.021941949
24	0xbd9ccfb6	-0.07656805
25	0xbca576be	-0.020198222
26	0xbe0efbbb	-0.13963215
27	0xbd7000e7	-0.05859461
28	0xbc8ab491	-0.016931804
29	0xbdec9de5	-0.115535535
30	0xbcf3909a	-0.029732037
31	0x3ecc715a	0.3993023
32	0xbc78d000	-0.01518631
33	0xbd459b5f	-0.048243877
34	0xbe9d761a	-0.30754167
35	0xbd050a77	-0.032480683
36	0xbd8b2000	-0.06793213
37	0x3eebd5bd	0.46061507
38	0xbd2c709c	-0.04209958
39	0xbd6394cd	-0.05556183
40	0xbdb8f3cd	-0.09030876
41	0xbdca6dde	-0.09884237
42	0xbc9c7cad	-0.019102419
43	0x3e01d8ba	0.12680331
44	0x3c902810	0.017597228
45	0x3b27aacc	0.002558398
46	0xbd41c323	-0.047305238
47	0xbd6248f3	-0.05524535
48	0xbd5d72d9	-0.054064605
49	0xbe30c750	-0.17263532
50	0xbe114c27	-0.14189206
51	0xbd77138f	-0.060321387
52	0x3e7926b1	0.24331166
53	0xbdb88349	-0.09009416
54	0xbb1722f6	-0.002306161
55	0xbb00ba6e	-0.001964237
56	0xbdd63aa2	-0.10460402
57	0xbdd22e4d	-0.102627374
58	0xbd6835f8	-0.056692094
59	0xbe2af0c6	-0.1669341
60	0xbe73366a	-0.23751226
61	0xbd2e18f3	-0.042504262
62	0x3c44177e	0.011968492
63	0x3d4bd5ac	0.04976432
64	0xbe76f483	-0.24116711
65	0xbeb137cc	-0.34612882
66	0xbd66e70d	-0.05637269
67	0x3eeb9d90	0.46018648
68	0xbd3dd43c	-0.04634498
69	0x3de9962d	0.11405597
70	0xbe468d2b	-0.19389789
71	0xbb53cc52	-0.003231783
72	0xbcee777c	-0.029109709
73	0xbd83a1b6	-0.06427328
74	0xbc2dec3c	-0.010615405
75	0xbe28c0f9	-0.16479863
76	0x3829da5f	4.0496114e-05
77	0xbe226107	-0.15857325
78	0xbdc9e045	-0.09857229
79	0xbc83352b	-0.016016563
80	0xbd1c4dff	-0.03816032
81	0xbd9b691d	-0.07588408
82	0xbc15dc3e	-0.009146748
83	0xbd202e75	-0.039106805
84	0xbe423159	-0.18964137
85	0x3c583753	0.013196784
86	0xbe843bd5	-0.25826898
87	0xbdb9d986	-0.090746924
88	0xbe124495	-0.14283974
89	0xbe06f827	-0.131806
90	0xbc6aa53f	-0.014321624
91	0xbd26bef6	-0.04070946
92	0xbd14c071	-0.03631634
93	0x3d2c10aa	0.04200808
94	0xbe4b1d2e	-0.1983535
95	0xbdf80da4	-0.12111977
96	0xbc8cb431	-0.017175766
97	0xbd912f8c	-0.07089147
98	0xbe87194d	-0.2638649
99	0xbd8e7632	-0.06956138
100	0xbd3081c2	-0.043092497
101	0x3f0a317e	0.5398177
102	0xbd5d32e1	-0.0540036
103	0xbca6bf34	-0.020354845
104	0xbd93be44	-0.07214025
105	0xbd8588d9	-0.06520242
106	0xbd79ad75	-0.060956437
107	0xbdd94e94	-0.10610691
108	0xbce70365	-0.02819986
109	0xbe0a2f5a	-0.13494626
110	0xbc746df1	-0.01491879
111	0xbd015dcf	-0.031583603
112	0x3c9ae5fe	0.018908497
113	0x3d9dc3bc	0.07703349
114	0x3c5be3f5	0.013421048
115	0xbd6e2e05	-0.058149356
116	0xbdf49628	-0.119427025
117	0x3c3b83ee	0.011445029
118	0xbc5679e2	-0.013090583
119	0xbe027161	-0.12738563
120	0xbd16e59a	-0.03684006
121	0xbe1a852d	-0.15089865
122	0x3bc7b8d2	0.0060950303
123	0xbc04bec9	-0.008102127
124	0xbc2d2422	-0.010567697
125	0x3c1dca7b	0.009630795
126	0xbe84e966	-0.2595932
127	0xbdf0253f	-0.11725854
128	0xbd6462a5	-0.055758137
129	0x3e29e24c	0.16590232
130	0xbe3f86f7	-0.18703829
131	0xbd3c47e4	-0.045966998
132	0xbd14b9c1	-0.03630996
133	0xbe07e996	-0.132727
134	0xbe2681c1	-0.16260435
135	0x3de9a885	0.11409096
136	0xbd2f6d15	-0.042828638
137	0xbda32de6	-0.07967739
138	0xbcc915c0	-0.024546504
139	0xbe18a0b2	-0.1490505
140	0xbe0933b9	-0.13398637
141	0xbddbc316	-0.10730569
142	0xbd968a0a	-0.073505476
143	0xbd3551b5	-0.044267375
144	0xbe1a1161	-0.15045692
145	0xbe1de374	-0.15418798
146	0xbca06f41	-0.0195843
147	0xbd5b9c55	-0.053615887
148	0x3bdd24c3	0.006748767
149	0xbdae93aa	-0.085242584
150	0xbdafffc0	-0.08593702
151	0xbc0f65bd	-0.008752284
152	0xbd6e5608	-0.058187515
153	0x3d8bbd7e	0.06823252
154	0xbe867d92	-0.26267678
155	0xbe293e91	-0.16527773
156	0xbd858fa2	-0.065215364
157	0xbe121e80	-0.14269447
158	0xbd918a2a	-0.07106431
159	0xbe0179da	-0.12644139
160	0xbc1ef434	-0.009701777
161	0xbd8df04b	-0.06930598
162	0xbdd9f9b6	-0.10643332
163	0x3db71eb4	0.08941403
164	0xbe5c1914	-0.21493942
165	0xbd5fcaef	-0.054636892
166	0xbd872b19	-0.06600017
167	0xbdebfe04	-0.11523059
168	0xbd2d76f8	-0.042349786
169	0xbe17c1f8	-0.14820087
170	0xbcd93b8d	-0.026517654
171	0xbd6d0fc2	-0.057876356
172	0xbe4c8716	-0.19973406
173	0xbd3278e2	-0.043572314
174	0xbcda826d	-0.02667352
175	0xbe32bcaa	-0.17454782
176	0xbe01966d	-0.12655039
177	0xbd8837f8	-0.066513
178	0xbd48f68e	-0.049063258
179	0xbccedc89	-0.025251644
180	0x3f03671b	0.513292
181	0xbc8c98e0	-0.01716274
182	0xbc12e293	-0.008965152
183	0xbd148307	-0.03625777
184	0xbd5f9277	-0.05458304
185	0xbd280b88	-0.041026622
186	0xbe20893b	-0.1567735
187	0xbd432595	-0.047643263
188	0xbc44c8f6	-0.012010803
189	0x3f0ae81f	0.5426044
190	0xbc48566f	-0.012227639
191	0xbe44b74c	-0.19210547
192	0xbe4bc951	-0.19901015
193	0x3c9247ea	0.017856557
194	0xbe1d6c99	-0.15373458
195	0xbc8e62dc	-0.017381124
196	0xbd515ace	-0.05111199
197	0xbd686246	-0.056734346
198	0xbe64c92d	-0.22342367
199	0x3e2e9b93	0.17051534
200	0xbcb3a7c0	-0.021930575
201	0xbcab9f08	-0.020949855
202	0x3e8c5283	0.274067
203	0xbd8cf090	-0.06881821
204	0xbd2b62b4	-0.041842178
205	0xbdde87ca	-0.108657435
206	0xbdd4d002	-0.10391237
207	0xbdf4ebd6	-0.11959045
208	0xbe6c9556	-0.23103842
209	0xbe2f2b5a	-0.17106381
210	0x3e749448	0.2388469
211	0xbd51c4a2	-0.051212914
212	0xbe34bda4	-0.17650467
213	0xbe53154d	-0.20613594
214	0xbd5c16de	-0.053732745
215	0x3c3ad0e7	0.011402345
216	0xbce5da3a	-0.02805816
217	0xbeaf521d	-0.34242335
218	0xbe67a66e	-0.22622082
219	0xbdd3cb5b	-0.10341521
220	0xbe008b0b	-0.1255304
221	0xbdf6c43c	-0.120491475
222	0xbbd01783	-0.006350459
223	0xbdd4c247	-0.10388618
224	0x3c137961	0.009001107
225	0xbcaa1f6e	-0.02076694
226	0x3e8edb8d	0.2790188
227	0xbdf4170f	-0.119184606
228	0xbea48fb6	-0.32140893
229	0xbe2230d4	-0.15838939
230	0xbd7361bd	-0.059419382
231	0xbd0e92d3	-0.03480799
232	0x3df50105	0.11963085
233	0xbe0a312c	-0.1349532
234	0x3ac3eb06	0.0014947362
235	0xbd75fbb0	-0.06005448
236	0xbcb8e2be	-0.022569057
237	0xbbfba0dc	-0.007679088
238	0xbd315468	-0.043293387
239	0xbddcfb4e	-0.1079012
240	0xbdc1599b	-0.09440919
241	0xbaa78980	-0.0012782067
242	0xbdb8a054	-0.09014955
243	0xbd1a8129	-0.037720833
244	0x3c333227	0.01093725
245	0x3cadb9a6	0.021206688
246	0xbcdccf44	-0.0269543
247	0xbd375e61	-0.04476774
248	0xbe8935b2	-0.2679878
249	0xbc45f460	-0.012082189
250	0xbc735412	-0.014851587
251	0xbc5421e6	-0.012947535
252	0xbe509ced	-0.20372362
253	0xbdcfad13	-0.10140433
254	0xbca4631e	-0.020066794
255	0xbbabcae2	-0.0052426914

model.4.weight f4 [64, 256]
0	0x3cfe3f79	0.031036125
1	0x3ed34bba	0.41268712
2	0x3c091b77	0.008368365
3	0x3d82ceee	0.06387125
4	0xbd7ab472	-0.061207242
5	0x3cc91236	0.024544816
6	0x3e0a13a9	0.13484062
7	0x3dfc67ca	0.12324484
8	0xbd073253	-0.033006977
9	0xbcabb7c4	-0.02096165
10	0xbcec5232	-0.028847788
11	0x3d68e48a	0.056858577
12	0x3d91a849	0.07112176
13	0x3c3794dd	0.011204925
14	0xbcd66e5a	-0.026175667
15	0x3d3b8f1e	0.045790784
16	0x3d5e49c7	0.05426958
17	0xba09f7af	-0.0005263043
18	0x3d2b4f9c	0.04182397
19	0x3da5ea69	0.08101351
20	0xbd17b58b	-0.037038367
21	0xbc83bab7	-0.016080244
22	0x3c83c9d3	0.016087448
23	0x3daf53ed	0.085609294
24	0x3d872400	0.06598663
25	0xbc389b9a	-0.011267567
26	0xbc4d19f8	-0.012518398
27	0xbbe76d25	-0.0070625716
28	0x3a0d6101	0.0005393178
29	0x3dbfa492	0.09357561
30	0x3cc563c3	0.024095422
31	0x3ee18312	0.4404531
32	0xbca24739	-0.019809352
33	0x3c3caf42	0.011516394
34	0x3ca7466c	0.020419322
35	0x3cf3ff32	0.029784773
36	0xbd8acbbf	-0.06777143
37	0x3ea1055e	0.31449407
38	0xbccae7b1	-0.024768682
39	0xbc5f56b5	-0.013631512
40	0xbe2a1a92	-0.16611698
41	0x3d8bf954	0.06834665
42	0xbba4d89e	-0.0050307056
43	0x3e40e3e4	0.18836933
44	0xbc8c9fa9	-0.017165976
45	0x3d094021	0.033508424
46	0x3d62ac3f	0.055340048
47	0x3ca98678	0.020694003
48	0xbd4f122a	-0.050554432
49	0xbde527c3	-0.111892246
50	0xbdf3c996	-0.11903684
51	0x3d94bb51	0.0726229
52	0x3eb8cef3	0.3609539
53	0xbccbe5e6	-0.024889898
54	0x3cf393c9	0.029733555
55	0xbc3776f7	-0.011197797
56	0xbdde98fe	-0.10869025
57	0x3d666683	0.056250107
58	0xbd03ef89	-0.03221086
59	0x3ea74096	0.32666463
60	0x3e0bf798	0.13668668
61	0x3d1d52af	0.03840893
62	0xbd228083	-0.03967334
63	0xbc7e3184	-0.015514735
64	0x3d4cbbf6	0.04998394
65	0xbd1592f2	-0.03651709
66	0x3ce6cd4c	0.028174065
67	0xbd5d6c4e	-0.054058366
68	0x3c913607	0.017725958
69	0x3ec707be	0.38873094
70	0xbd1b1d34	-0.037869647
71	0x3cbbd826	0.022930216
72	0x3c477a5d	0.01217517
73	0x3d915377	0.07095998
74	0x3bae141a	0.005312455
75	0x3cae967d	0.021311993
76	0x3d920749	0.07130296
77	0xbddb68c9	-0.107133456
78	0xbd3c4f29	-0.04597393
79	0x3d6e0240	0.058107615
80	0xbd16b3b1	-0.03679246
81	0x3d5c0821	0.05371869
82	0x3c4dc432	0.012558984
83	0x3d849c2c	0.064751
84	0x3c42c109	0.0118868435
85	0x3d438381	0.047732834
86	0x3cd906fc	0.026492588
87	0x3c046b81	0.008082272
88	0x3d471db7	0.048612323
89	0xbe0fc132	-0.14038542
90	0x3ca88213	0.020569837
91	0x3d3a630f	0.045504626
92	0x3cfdfc29	0.031004028
93	0x3d0f0a63	0.034922015
94	0x3c305d9c	0.010764506
95	0xbbae49f6	-0.0053188754
96	0xbd14cf24	-0.036330357
97	0x3e1dd001	0.15411378
98	0xbc7b27c2	-0.015329303
99	0x3d31c60c	0.043401763
100	0xbe68fbfd	-0.22752376
101	0x3f0b820c	0.5449531
102	0xbd0cd5f2	-0.03438372
103	0x3d212a70	0.039347112
104	0x3c7c2c07	0.015391356
105	0xbd35e3d2	-0.04440672
106	0x3c8ce0a0	0.017196953
107	0x3ca4b7d9	0.020107197
108	0xbc130aae	-0.008974714
109	0xb93c1f8b	-0.00017940828
110	0x3cc1feb7	0.023681028
111	0x3da36eac	0.07980093
112	0x3d66062a	0.056158222
113	0x3ebcafd0	0.36852884
114	0x3d19e538	0.037572116
115	0xbd6badb7	-0.057538714
116	0x3bca40ce	0.006172276
117	0xbc768f33	-0.01504879
118	0x3d9b2ea3	0.075772546
119	0x3e1e52c6	0.15461263
120	0x3d33c26c	0.043886587
121	0x3e0c926e	0.13727733
122	0x3f22fea7	0.6366982
123	0x3d07316c	0.033006117
124	0x3cf16f17	0.029471917
125	0x3ce6c143	0.028168326
126	0x3de276d0	0.11057818
127	0xba8927d7	-0.0010464144
128	0xbcb8b4e5	-0.022547195
129	0x3e7c6f89	0.24651922
130	0x3ce4c0b5	0.027923921
131	0x3d75bd9c	0.05999528
132	0x3d965f4e	0.07342397
133	0xbd514657	-0.051092472
134	0x3df59536	0.1199135
135	0x3eb5e369	0.35525063
136	0xbd02063a	-0.03174422
137	0xbb51be8f	-0.003200445
138	0x3d42d2bb	0.04756425
139	0xbc6c5307	-0.014424092
140	0x3dd6aa4c	0.104817
141	0x3ccee9a2	0.02525789
142	0xbd903ae8	-0.070424855
143	0xbc40471b	-0.011735703
144	0x3e46a000	0.19396973
145	0x3d04b952	0.032403298
146	0xbcfa2ba6	-0.030538391
147	0xbd16fe6b	-0.036863726
148	0x3d42ecd6	0.047589146
149	0xbcc24a39	-0.023717033
150	0x3d24220e	0.04007154
151	0xbd9126e9	-0.070875
152	0x3d037498	0.032093614
153	0x3e04e42b	0.12977664
154	0x3c9c4b08	0.019078746
155	0xbd39d2af	-0.04536694
156	0x3daa31de	0.08310293
157	0xbd3f8703	-0.046759617
158	0x3d7f5e05	0.062345523
159	0xbc9619c1	-0.018322827
160	0xbc4674e1	-0.012112827
161	0x3d70a22b	0.058748405
162	0x3d37dff6	0.04489132
163	0x3ec99378	0.39370322
164	0x3d62bd6b	0.055356424
165	0x3ce949a7	0.028477503
166	0xbcc8aa9f	-0.024495421
167	0xbd921450	-0.071327806
168	0xbd0d65c2	-0.034520872
169	0x3b9d5507	0.004801396
170	0xbb362c86	-0.0027797534
171	0xbc261519	-0.010136866
172	0xbd2550f2	-0.0403604
173	0x3d35c2dd	0.04437529
174	0x3d108fb8	0.03529331
175	0x3cbbd0d4	0.022926725
176	0x3d574893	0.052559447
177	0x3d596544	0.05307509
178	0x3d08e57a	0.03342197
179	0x3cda7e85	0.026671657
180	0x3ea344ae	0.31888336
181	0xbc95b287	-0.018273605
182	0xbcdd3c36	-0.02700625
183	0xbd1f029e	-0.038820855
184	0x3cae4a10	0.02127555
185	0x3d213048	0.039352685
186	0x3c612099	0.013740682
187	0x3df5fc7a	0.12011047
188	0xbd035769	-0.032065783
189	0x3f0f21d3	0.55910987
190	0x3c542133	0.012947368
191	0xbd62ca61	-0.055368785
192	0x3c2d174f	0.010564639
193	0xbcbcf9ed	-0.023068393
194	0x3d0071dd	0.03135859
195	0x3d2bea76	0.041971646
196	0xbc113cea	-0.008864621
197	0x3d909b72	0.07060899
198	0xbdb273ad	-0.0871347
199	0x3dc7fb72	0.09764756
200	0x3d156086	0.036469005
201	0x3c9449da	0.018101621
202	0x3e1aee44	0.15129954
203	0x3d1cd8ec	0.03829281
204	0xbdcd5629	-0.10026199
205	0xbcdd8c2e	-0.027044382
206	0xbcf3b56f	-0.0297496
207	0x3db42591	0.08796228
208	0xbdf12d95	-0.11776272
209	0xbe390dab	-0.1807162
210	0xbcfd406e	-0.030914512
211	0xbcaaf5c3	-0.020869141
212	0x3d52d7ad	0.051475216
213	0x3d95d9ff	0.0731697
214	0x3d350477	0.04419371
215	0x3d112c9c	0.035442933
216	0xbd3628a5	-0.044472355
217	0x3da015e4	0.07816675
218	0xbd443ef8	-0.047911614
219	0xbca038db	-0.01955836
220	0x3c170480	0.0092173815
221	0x3d57cd4e	0.05268603
222	0x3da82838	0.08210796
223	0x3d2b7d4e	0.041867547
224	0x3d8b5075	0.06802455
225	0xbd1413cb	-0.03615169
226	0x3e3a694f	0.18204235
227	0x3e2695f7	0.16268145
228	0xbda63b3c	-0.08116767
229	0x3d605ffe	0.054779045
230	0xba8b30d0	-0.0010619406
231	0x3b7d4ddd	0.0038651146
232	0x3df9749b	0.12180444
233	0xbd634c85	-0.055492897
234	0xbd3978a1	-0.045281056
235	0x3c111875	0.008855929
236	0xbca05363	-0.019571012
237	0xbb7b983c	-0.00383903
238	0xbd0c70f6	-0.034287415
239	0x3d24444f	0.040104207
240	0x3e3341fd	0.17505641
241	0x3c1c5b6d	0.009543282
242	0xbc5b0fae	-0.013370438
243	0x3d70b9ec	0.05877106
244	0xbd45fa9c	-0.048334703
245	0x3d9eafa6	0.07748346
246	0x3a4f3169	0.0007903786
247	0xbc382e02	-0.011241438
248	0x3d5eb1ca	0.05436877
249	0x3d27bfd1	0.040954415
250	0x3c8fe851	0.017566832
251	0xbcff8c70	-0.031194896
252	0x3e285c72	0.16441515
253	0x3d2e85ab	0.042607944
254	0x3d20f712	0.039298125
255	0x3d4c6c2b	0.049907845

model.4.bias f4 [64]
0	0x3e159d1f	0.14610718
1	0xbe235827	-0.15951596
2	0xbe39331f	-0.18085907
3	0xbdcadc2c	-0.09905276
4	0xbe67d8a5	-0.22641237
5	0xbefae673	-0.49003944
6	0xbe12a0d3	-0.14319162
7	0xbdd0d1df	-0.1019628
8	0xbe93f366	-0.28896636
9	0xbd3cb128	-0.046067387
10	0xbde30621	-0.11085153
11	0x3d898e48	0.06716591
12	0xbe0e7013	-0.1390994
13	0xbc86f6d1	-0.016475113
14	0xbc0614f3	-0.008183706
15	0xbd8c7d66	-0.06859855
16	0xbe281bc5	-0.16416843
17	0xbd4b6f51	-0.049666706
18	0xbd8f8c5d	-0.07009194
19	0xbdc6e4e1	-0.09711624
20	0x3e97b45e	0.29629797
21	0xbc451dfb	-0.012031074
22	0xbe193b4e	-0.14964029
23	0xbee095b9	-0.4386423
24	0xbe914304	-0.2837144
25	0xbd49eddf	-0.049299117
26	0x3dc34f1e	0.09536575
27	0xbe00b253	-0.12568025
28	0xbe558b31	-0.20853879
29	0xbdad228a	-0.084538534
30	0xbcdc04c4	-0.026857741
31	0xbe7a2dd7	-0.24431549
32	0xbeee4be8	-0.46542287
33	0xbddcdaff	-0.10783958
34	0xbe2f6ce5	-0.17131384
35	0xbdf470d0	-0.1193558
36	0x3f409909	0.75233513
37	0x3f28ce5b	0.65939873
38	0xbb690135	-0.0035553698
39	0xbe2e0c99	-0.16996993
40	0xbe3d4097	-0.1848167
41	0xbd89c1df	-0.06726431
42	0xbe046bca	-0.12931743
43	0xbeb291e3	-0.34876928
44	0xbc871510	-0.016489536
45	0xbe40144c	-0.18757743
46	0xbea25b93	-0.3171049
47	0xbced438d	-0.028962875
48	0x3fb8f812	1.4450705
49	0x3d6f838c	0.058475062
50	0xbe83ff28	-0.25780606
51	0xbdb8a5ab	-0.09015974
52	0xbe24f33e	-0.16108415
53	0xbe3aa8eb	-0.182285
54	0xbe805be2	-0.250701
55	0xbe4c8420	-0.19972277
56	0xbd5f7428	-0.054554135
57	0xbdcfda75	-0.10149089
58	0xbea5188f	-0.322453
59	0xbe01fa13	-0.12693052
60	0xbe738c59	-0.23784007
61	0xbed6f4ee	-0.41983742
62	0xbe05cfa4	-0.1306749
63	0xbe15ce18	-0.146294

model.6.weight f4 [1, 64]
0	0xbeb51c72	-0.35373265
1	0xbda65376	-0.08121388
2	0x3c19404c	0.0093537085
3	0xbd9da9bb	-0.07698389
4	0x3d738fdc	0.059463367
5	0x3cecb5c3	0.028895264
6	0x3d11f9e4	0.035638705
7	0xbcbc2507	-0.022966875
8	0xbac0cb4c	-0.0014709025
9	0xbbf70c86	-0.0075393347
10	0xbd139f9b	-0.036040884
11	0xbe845486	-0.25845736
12	0x3cd3c914	0.025852717
13	0x3e94ee68	0.2908814
14	0x3e41d849	0.18930162
15	0xbd269b78	-0.04067561
16	0xbd8ba62f	-0.068188064
17	0x3d3dd129	0.04634205
18	0xbe4aff75	-0.19824012
19	0xbd098d4f	-0.033582028
20	0xbe08563c	-0.13314146
21	0x3e3ac4b4	0.18239099
22	0xbc9724d0	-0.01845017
23	0x3d056867	0.03257027
24	0x3d34cca3	0.04414047
25	0x3d352549	0.04422501
26	0xbe2eb5b9	-0.17061509
27	0x3d0a35bf	0.033742663
28	0xbd40676c	-0.04697363
29	0x3e771428	0.24128783
30	0x3dc71844	0.09721425
31	0xbe02af1d	-0.12762113
32	0xbe18127d	-0.14850803
33	0xbcf1670a	-0.029468078
34	0x3b99f003	0.004697801
35	0x3d86ff30	0.06591642
36	0x3e02725e	0.1273894
37	0x3d25d2df	0.040484305
38	0xba5c7263	-0.0008409379
39	0x3991ea96	0.00027831335
40	0x3d209848	0.039207727
41	0xbcbf7d16	-0.023375075
42	0x3d02508b	0.031815093
43	0x3ed082c3	0.40724763
44	0x3cacd3c0	0.021097064
45	0xbbdf4593	-0.006813714
46	0xbd6b80b5	-0.05749579
47	0x3c713599	0.014722251
48	0x3e9c8e05	0.30577102
49	0xbe7ab2ea	-0.24482313
50	0x3da5af33	0.08090057
51	0x3c167888	0.00918401
52	0x3dca72f6	0.09885208
53	0xbe445386	-0.19172487
54	0xbd572998	-0.0525299
55	0x3c13deb7	0.009025267
56	0x3d1bfce8	0.038082987
57	0x3df1e405	0.118110694
58	0xbe024930	-0.12723231
59	0x3d6fddcc	0.05856113
60	0xbca86eca	-0.02056064
61	0x3dfa6c9a	0.12227745
62	0xbbe635db	-0.007025463
63	0xbaf20638	-0.0018464988
