model_weight/critic/14_14 07:03:31 std 0.4 lr_critic_0.004- gamma_0.8 memory300 critic_weight.pth (torch, 645007 bytes, 7 tensors)

model.0.weight f4 [512, 24]
00000000: 2c15 183e 978c a13d 16f0 18be 320e f7be
00000010: 7834 ad3e 3e17 d23b f3bc c4bd a7e6 f83c
00000020: 9a89 b9bc dfa8 79bd d30d 98bd bcf6 85be
00000030: fb12 0d3d e1fa c8bd 8307 efbe 0bb8 d6bd
00000040: e062 d9bd 20a4 48be 2215 44be 42db 65be
00000050: ad3d 74be dd0c 81be f1e8 57be 08e2 adbd
00000060: 9f67 a6bc b865 6cbd c446 ab3d fdf1 bb3d
00000070: 3f71 c33e 7312 ebbc 4ab4 80be aa6e 8fbd
00000080: 6d8e 903b 71fc bcbd 544a b63d 6403 adbe
00000090: ada6 153b 8c72 8fbd 23c5 a9be 4c1c a3be
000000a0: 4a58 a2be c453 72be be0b 9ebe a1ac 02bf
000000b0: 212b 31be a54c 5dbe 0846 4fbe c2f8 93bd
000000c0: e458 f63f 255b 8e3e 7e01 143f 99ae e8be
000000d0: 4709 66bf c510 ac3d 8aee 04bd 6f78 c1bc
000000e0: 78ac 92bd a138 8a3e 82b2 09bd d4d4 e23c
000000f0: 7ef9 d83c df5e 94ba 7f77 5c3e eb2d c1bc
00000100: abf5 fc3d ae22 0fbd 2a7d 0dbe 7abc 1fbe
00000110: 3c0e babd 7747 62be 85a1 52be 073e 2d3e
00000120: fece b03b b5aa 283e cdf9 02be 8fbf 82be
00000130: b820 de3d 4c51 a83d b679 dbbd 6c36 73bc
00000140: bb2c 40be 43d1 b6bd 57fc 853d 8aad 3bbe
00000150: e044 7f3d 8422 4bbe dbbc 49be 1adb f0be
00000160: 3908 58be b268 9abe 0658 f8bd 8cdc babd
00000170: edd2 a0be 2c5b 6fbe bea5 0ebe c215 cdbc
00000180: 3df3 22bd 0bcc ba3d 99ad 753d be52 45bd
00000190: f4e6 ea3e 475b b8be ed68 b4be e6e4 0a3e
000001a0: 10dd 82be 2eae 933c 867c 483d f007 4cbe
000001b0: 6f8c c83d 5985 23be 571d f1be 8b86 53be
000001c0: d6d4 8fbe c198 45be c6f4 b7be b560 1abe
000001d0: e90f bdbe a3d4 ecbe e474 6abe 1cbf a0be
000001e0: 655b bd3b e205 d0bb 95d4 893e fa27 10bd
000001f0: 20f6 623e 35e0 853e 909e 19be fc1f 67bb
00000200: a507 91be 42d4 27be c897 41be bb7f 8c3c
00000210: 1eae 32be 4bda 053e b74b 40be 913b fcbe
00000220: f0ad 8dbe dee6 ffbe dcd7 7cbe fb31 4bbe
00000230: cf7c d4be 31bd 65be 791c f8bd 9fec afbe
00000240: 7855 17be b369 06be c743 1dbe bb14 f7bc
00000250: f0cd 853e 94e8 ae3d cf88 a3bd a727 433d
00000260: ac5f eb3d b902 bebc feea ebbc 20ad 46be
00000270: 73c8 eebc 9709 85be 1608 80be 1049 0dbe
00000280: 78a4 edbe 41a1 d9be bd36 e9be e8d8 bdbe
00000290: 5fb5 15be 3d96 7fbe aae0 4fbe 09a2 00be
000002a0: 2924 86bd 9390 323e 93d2 b0bd e4ca 12be
000002b0: 113a 083e ab05 90bd a174 32bc 62f4 9a3c
000002c0: 2d10 5fbe 9843 49bd 0fde 543d c08e 95be
000002d0: e797 033c 502d 8a3d 448f b1bd 4a9d 31be
000002e0: dff6 80be 4600 6bbe 7b71 b1be 9c0a bbbd
000002f0: 66c4 8bbe 3089 3ebe 12af aabc e6d6 313c
00000300: 0883 4bbd 7a5f 513d 7407 ccbd 8a96 50be
00000310: 03b4 343e 68ed fa3d 19be bebd 6833 3fbc
00000320: 6e75 76bd abe4 b53c 1ccd 023e 0066 e8bd
00000330: 7d02 023d 0e4b 1fbe 98e4 cebe 0c9d 7bbe
00000340: 101c 4fbe 4211 ffbe 42e8 91be b20d dfbe
00000350: 17e7 e0bd 8041 d3be 123a b9bd 7624 67be
00000360: 0995 adbd 2462 abbe 6e30 553e 7edc 403f
00000370: 2edb 193e 72e3 a33d 7a59 b63d 7076 3a3d
00000380: 8a90 003d b023 09bf 51f0 c7bd 7e77 ccbe
00000390: 51ad 053e 6d2b 173e 394d 2bbd 9c54 5fbe
000003a0: d3d6 12be 87e1 b5bc 837a a0be b607 97bd
000003b0: 6b43 40be 2b61 60be 0cda 19be 4d50 f7be
000003c0: 8d10 1c3e 78dc 7d3d 2371 a43d 81a9 6f3e
000003d0: 0d19 023f 5f04 bc3d 7c38 633d 5c30 593e
000003e0: fc97 0dbe 74c7 4ebe ff7b 653d 2aee 36be
000003f0: 60df bf3d 6089 cfbd b3c1 08bf f5fe 4abe
0.14851826 0.078881435 -0.14935336 -0.48253018 0.33829093 0.006411462 -0.09606352 0.030383421
-0.022648621 -0.060952064 -0.07424512 -0.26164806 0.03444193 -0.09813476 -0.46685418 -0.10484322
-0.10614562 -0.19593859 -0.19148687 -0.22446921 -0.23851652 -0.25205126 -0.21084954 -0.08490378
-0.020313082 -0.057714194 0.08363107 0.09177015 0.38172337 -0.02869532 -0.2513755 -0.07003529
0.0044115097 -0.09227837 0.08900896 -0.3379165 0.0022834942 -0.0700427 -0.33158216 -0.31857526
-0.31707984 -0.23664767 -0.30868334 -0.5104466 -0.17301609 -0.21611269 -0.20241559 -0.07225181
1.9245877 0.27803913 0.57814777 -0.45445707 -0.89857906 0.08401636 -0.03245405 -0.023616998
-0.07161802 0.2699633 -0.033617504 0.027689375 0.026486155 -0.0011319778 0.21529959 -0.023581466
0.12351545 -0.034945183 -0.13817278 -0.15599242 -0.09084746 -0.22097574 -0.20569427 0.16918193
0.005395769 0.1647137 -0.12790604 -0.25536773 0.10846084 0.08218631 -0.10716574 -0.014844518
-0.18767063 -0.08926632 0.06542271 -0.18327919 0.062321544 -0.19837385 -0.19700949 -0.4704216
-0.21096887 -0.30158 -0.12126164 -0.09124097 -0.31410924 -0.23374623 -0.13930413 -0.025034789
-0.03978275 0.09120949 0.05998001 -0.048174612 0.45879328 -0.3600714 -0.35236302 0.1356388
-0.25559282 0.018027391 0.04894688 -0.19924903 0.097924106 -0.15968837 -0.47092697 -0.20656793
-0.28092068 -0.19296552 -0.35928935 -0.15075953 -0.369262 -0.4625598 -0.22896153 -0.31395805
0.0057787173 -0.0063483575 0.2692 -0.035194375 0.22164202 0.2614762 -0.15001893 -0.0035266867
-0.28326145 -0.16389564 -0.18905556 0.01715075 -0.17449233 0.13071553 -0.18778883 -0.49264196
-0.27671766 -0.49980825 -0.24691719 -0.19843285 -0.4150147 -0.22435452 -0.12114806 -0.34360215
-0.14778697 -0.13126259 -0.15357886 -0.030161252 0.2613368 0.085404545 -0.079850785 0.047645237
0.11492857 -0.023194658 -0.028798576 -0.1940198 -0.029148316 -0.2598388 -0.2500617 -0.13797402
-0.46414542 -0.4250584 -0.45549574 -0.3707955 -0.14619969 -0.24959655 -0.20300546 -0.12561812
-0.06549866 0.17437963 -0.08633914 -0.14335209 0.133034 -0.07032331 -0.010892064 0.018915359
-0.21783514 -0.049136728 0.051969584 -0.29210472 0.008031822 0.06746924 -0.08669904 -0.17345157
-0.25188348 -0.22949323 -0.3465689 -0.09132883 -0.27298278 -0.1860702 -0.020835433 0.010854458
-0.049685508 0.051116444 -0.09962359 -0.20369926 0.17646794 0.12252313 -0.09313602 -0.011669971
-0.060170583 0.022203764 0.12773556 -0.1134758 0.031740654 -0.15555975 -0.40408778 -0.24571627
-0.20225549 -0.49817854 -0.2849751 -0.43565136 -0.10981577 -0.4126091 -0.09044279 -0.22572502
-0.08475692 -0.33473313 0.20819256 0.75336444 0.15025017 0.08002366 0.08903785 0.045523107
0.031387843 -0.5357008 -0.097626336 -0.39934915 0.13054396 0.1476266 -0.041821692 -0.2180962
-0.14339761 -0.022202266 -0.3134347 -0.073745176 -0.18775718 -0.21912067 -0.15024585 -0.48303452
0.15240689 0.061977834 0.080293916 0.23404504 0.50819474 0.09180521 0.05547379 0.21209854
-0.13827509 -0.20193273 0.056026455 -0.1786429 0.09368777 -0.10133624 -0.5342056 -0.19823821

model.0.bias f4 [512]
00000000: 6351 f8bd bc5b c7bd 6698 b43e c3fd b9bd
00000010: 4577 8abd 908f 5abe 1eff 89be c0a7 60be
00000020: 3a24 233d 0397 d0be d799 cfbe 3954 2b3f
00000030: 8236 933c 4dca 85be d9dc d4be 81da 1c3f
00000040: 3808 55be b5dd bebe 1281 83bd 9030 0dbe
00000050: 280e 123d a9f9 4d3e 709a 4bbe 3ea3 99bd
00000060: 4004 cfbe 008d 4abb 7b95 693d e1d7 76be
00000070: b4e5 143f 5356 35bc 2f72 c8be e74c 82be
00000080: 9285 49be c483 51be 186f b0be 6a43 2fbd
00000090: 0e88 1cbf a254 dcbe c336 00be 458c a6bc
000000a0: fc68 8dbe c99c ac3e 25ba 8abe 546b c53d
000000b0: 8cb9 813c dac3 1dbe 2bbf ffbe 8bf3 a3bd
000000c0: 899c 42bd cbbd 38be 0c6e 1abe 30f5 b83e
000000d0: 946f b33d e493 253d b2ed c0be 7356 80be
000000e0: 3eae 993e 2a54 e0bd cb46 b3bd bf4d 7f3e
000000f0: e27b 67bd 1012 4d3e f48c 92be 51fc 39be
00000100: 41e8 173e 49b0 1abd 13e6 89be 16e0 5cbe
00000110: 21bd e0bd 7593 dc3c 8f44 5fbe 56ad 14be
00000120: 98dd dabd fc89 0ebd 0d87 003f a19e 8cbe
00000130: daa4 86be bef5 953d b297 cbbe 5a6a 8ebe
00000140: 4917 d2bd 5687 b0bd 6762 c4bc 53fb 2d3f
00000150: 5372 0fbe 868e 79be 829d 23be 2f18 95bd
00000160: 86dd 02bf 17af 8bbe fd87 dabd 6cd3 33bf
00000170: 2a27 2fbe 27b6 a9bd 156e 543a 5a56 9abe
00000180: b386 5ebe 791e 0d3d 92f3 a43e 1290 2dbe
00000190: 5488 f3be 5265 1bbe 87c3 723d f6fd 0e3d
000001a0: 5a6c 613e 90f4 64bd 7593 f8bd 6fb1 86be
000001b0: a22d 90bd de95 51be a67e 07be 2013 c9bd
000001c0: cba9 a6be aa36 8bbc 7922 863e ee8a bebe
000001d0: 8af7 a3be abdd 1ebe 4374 7bbe 9035 7ebe
000001e0: cf71 61be b75a 72be 782a 18be 4ccb a2bb
000001f0: 653b c43e 558d 51be 5a86 8bbe 5c04 283f
00000200: 5d7f d5bd 5f33 17bf 7f5a 9cbe d4f3 98bd
00000210: e2b8 b5bd 2582 28be b783 73be 6c33 80be
00000220: 7e5f 25be 260f fbba e7e1 91be 91c2 1fbd
00000230: 4ab0 82bd 66a9 82be 880f a1be 93bc abbd
00000240: ac31 3cbe 287f 41be e9f7 e3bd aa65 b5bb
00000250: 7703 65be 659e 0fbe c07a 8ebd f0c3 dcbd
00000260: b177 3abe 5704 1fbd deaa 80bc 3979 62be
00000270: 0523 c4bd 2ae5 18be 6555 c7bd 7caa a93c
00000280: 6943 c43c 011c c9be 50a3 b8be 8031 94bd
00000290: ffd2 fbbc 413f fe3d 0e08 be3e 7229 273e
000002a0: aeb8 21bf bc4e 2ebd 831d 6bbe ad33 8bbe
000002b0: 78c9 48be 33cd 8c3e df8f bfbd 3f75 73be
000002c0: e1a9 39be 2ec2 c6bd 78c9 f53d 985d 5cbe
000002d0: 4d89 b1be cbc5 773d acda 9bbe 6b79 24be
000002e0: 3adc 52be d243 94be 221b c2be c136 29bd
000002f0: 11f6 91be 386e c9be f63c 0ebd f541 68be
00000300: 6a2d 9bbe c91d a8bd be3a 64be 7db0 ddbd
00000310: 91d8 16bf 7693 a7be 1bce 95bc ed79 4bbe
00000320: cb16 e8bc 8059 79be 813f d23e f001 87be
00000330: a94f 643e 2fa3 27be 7147 913e b0ea 42bd
00000340: 4ebd 88be 54e2 8abd 9404 e13e c4e4 60bd
00000350: a634 e1bb 2d7a 59be 6c7d 73be d9d7 47be
00000360: e73f 5bbb 7195 a2be c997 46be 64b3 5c3e
00000370: aeb7 76be b355 893e 29ea 9dbe 6be8 e63d
00000380: 76c6 e2bd 7a3d 24be 4e8c 9cbe 2e80 08be
00000390: 70e4 2dbe 8050 27bf efda 96be 5e92 a4be
000003a0: 9859 8b3c 820c e03d 0d35 52be 874c 82be
000003b0: 4639 45be 5d11 91be 3553 dbbc 453b 87bd
000003c0: 6353 b0be 7ae6 a6be 3ce6 6dbe 2c50 0b3f
000003d0: 23c6 15be 50b0 0bbe ce59 49be 9f76 c8bd
000003e0: 2ca8 f43d 924a 6f3e 7ccb 5cbe d332 b73e
000003f0: b7e8 debc 180f d1bc 1ed4 13be bd9c febd
-0.12124898 -0.09734294 0.3527252 -0.09081604 -0.0676103 -0.21343827 -0.2695245 -0.21938992
0.03982947 -0.40740213 -0.40547058 0.6692539 0.017970327 -0.26130906 -0.41574743 0.6127091
-0.20803916 -0.37278524 -0.064211026 -0.13788056 0.03565803 0.20114769 -0.19883132 -0.07501839
-0.4043293 -0.0030906796 0.05702732 -0.24105789 0.58163 -0.011067945 -0.39149615 -0.25449297
-0.1967986 -0.20460421 -0.34459758 -0.0427889 -0.611451 -0.4303332 -0.1252089 -0.020330558
-0.2761916 0.33713368 -0.27095142 0.09639612 0.015835546 -0.15406743 -0.49950537 -0.080054365
-0.047512565 -0.1804115 -0.15081042 0.36124563 0.08761516 0.040424243 -0.37681347 -0.25065956
0.3001575 -0.10953553 -0.08753737 0.24932002 -0.05651463 0.20026422 -0.28623164 -0.18162657
0.14834692 -0.037765775 -0.26933345 -0.21569857 -0.109735735 0.026925782 -0.21803497 -0.14519247
-0.10686797 -0.03479956 0.5020607 -0.27464774 -0.26297647 0.07322262 -0.39764172 -0.27815515
-0.102583475 -0.08619563 -0.023972703 0.67961615 -0.14008455 -0.24370775 -0.15978053 -0.07280003
-0.5111927 -0.2728202 -0.10670469 -0.7024448 -0.17104784 -0.08286696 0.00081035617 -0.30144006
-0.21731071 0.03445289 0.3221708 -0.1694949 -0.47564948 -0.1517537 0.0592685 0.034910165
0.22013989 -0.055897295 -0.121375 -0.26307246 -0.07039954 -0.20467326 -0.13231906 -0.09818101
-0.32551417 -0.01699384 0.26198176 -0.3721537 -0.32024795 -0.15514247 -0.24556069 -0.2482512
-0.22016071 -0.23667417 -0.1485995 -0.0049680825 0.38326564 -0.2046407 -0.2725094 0.6563165
-0.10424683 -0.5906276 -0.30537793 -0.074683815 -0.08873154 -0.16455896 -0.23780714 -0.25039232
-0.16149709 -0.0019154295 -0.28492662 -0.039003912 -0.06381281 -0.25519866 -0.31457162 -0.08385577
-0.18378323 -0.18896163 -0.111312695 -0.005535801 -0.22364603 -0.14025266 -0.069570065 -0.107795596
-0.18209721 -0.0388225 -0.015706476 -0.22116555 -0.09576992 -0.14931169 -0.097330846 0.020711176
0.023957925 -0.39279178 -0.36062098 -0.07236004 -0.03074026 0.124144085 0.3711552 0.16324404
-0.63172424 -0.042555556 -0.22960477 -0.27187863 -0.19608104 0.27500305 -0.09353613 -0.23775195
-0.1813121 -0.097050056 0.12001318 -0.21520078 -0.34675065 0.060491364 -0.3044027 -0.16061942
-0.20591822 -0.28957993 -0.37911326 -0.041311983 -0.28508046 -0.39341903 -0.034726106 -0.2268141
-0.30308086 -0.08208806 -0.22288033 -0.10824678 -0.58924204 -0.3272969 -0.018286755 -0.1987073
-0.028331181 -0.24350548 0.41064075 -0.26368666 0.22296013 -0.16370843 0.28374818 -0.047587097
-0.26706928 -0.0678145 0.43948805 -0.054905668 -0.0068727313 -0.21238013 -0.23778313 -0.19515933
-0.0033454837 -0.3175464 -0.19393839 0.21552807 -0.24093506 0.26823196 -0.30842713 0.11274799
-0.1107301 -0.16039076 -0.30575794 -0.13330147 -0.16981673 -0.6535721 -0.29463908 -0.3214292
0.017010495 0.10939886 -0.2052805 -0.2544901 -0.1926013 -0.2833356 -0.026773075 -0.06603102
-0.3443862 -0.32597715 -0.23232359 0.5441921 -0.14626364 -0.13641477 -0.19663164 -0.0978825
0.11946139 0.2336829 -0.21561998 0.35780963 -0.027210576 -0.025519893 -0.14436385 -0.12432239

model.2.weight f4 [256, 512]
00000000: ef71 433c d44b 463c 9302 4fbe 44c8 20bd
00000010: 42c5 8738 922a 273d c313 fcbc 6069 44bb
00000020: 96f8 513c 1df9 003e 76ef 163d 7b88 6a3c
00000030: 0642 153c 2a15 52bd 16b7 eebd 9808 e4bc
00000040: 1462 67bc a570 48bd 1cf1 64bd d982 273d
00000050: 85a5 7bbc 2008 d93c 0209 bdbc 1ba4 1abd
00000060: ccd5 b0bd 5710 9dbd 0762 5e3c 3744 11be
00000070: 6023 22bc a824 21bb 1296 98bc fe86 a43d
00000080: 5684 6abd 7ed7 23bc 4e6d 203d e285 1bbd
00000090: 8e66 b33b 32fb 4ebb 8dff 8e3d 80c5 70bd
000000a0: 99be efbc 4b5b 80bd c274 49bc 26fd 30bd
000000b0: 3f64 3ebd 4a35 02be fe40 3bbe 5570 8ebc
000000c0: b0e8 7ebd 3dbb 81bc 2333 9ebb e79d 893c
000000d0: d2a5 dd3c 0331 4ebc 87fa 4fbd 54fe c9bc
000000e0: 33cb e2bc 5894 5bbd c08b 3abc fcc2 b1bd
000000f0: e475 c8bc 5a72 293b 5999 1bbd c9d0 253d
00000100: 8db8 143d f9ab 75bc 6080 2fbd 543f 8b3a
00000110: 5d3f df3c d819 573c 60f8 5abd 28bc bcbc
00000120: d1bf 65bd c13e f0bb ce7b 8dbd 863e 90bc
00000130: dade c5bc 050b 17bd 41e7 9dbd 0ce2 2ebd
00000140: 8226 5cbc 62cc f9bc 32a1 14bc 381a 4c3c
00000150: 8735 b73c 0c9d cb3b ee21 d7bc 347a 093e
00000160: 3cf8 36be 9267 ba3c 81c8 a2bc 5586 02be
00000170: 22a9 d6bc 25f2 d5bc 2029 a53a 4b03 fabc
00000180: ef87 0fbd 4d23 aabc 5b8a bb3c 2195 84bd
00000190: bcc6 a23c ec54 5d3b 8959 36be 7705 12bc
000001a0: f191 11bd c231 053d c430 96bc 0b99 f8bc
000001b0: 7371 aa3c 6bb5 133c aaff debb 0d91 7d3c
000001c0: 0630 14bd 33b0 5c3c cb3c 3d3c ae89 3fbd
000001d0: 4baf d03c 6e8c 3abd 91fc 6d3b 5ad6 2cbc
000001e0: ea5a aa3d b691 433c 36fe 4dbb ca81 8b3c
000001f0: c4f0 68bc 0da9 32bd 47c8 1fbe fd5f 053d
00000200: 3b55 453c 736f 02be 125f 95bd 254a 1fbe
00000210: 8913 43bc 5698 28bd bb5d 8dbc 1c8b 073c
00000220: 05ba 72bc 9a17 533c 454a 633b f047 403c
00000230: 9ec3 cf3c 1fe3 d83b 31d6 393d 92f2 6cbb
00000240: 31f1 153d 4d0a 1ebd d05b c1bc ef09 e93c
00000250: d749 4ebc 5ea2 87bc fc19 8fbd c719 6dbc
00000260: d1ed 593d 7565 afbd 9bbc 12bd 1822 eb3b
00000270: 27f0 a7bb 968d 833d 3257 67bd 89ca 36bd
00000280: e354 b83c db6f 6dbc 7e92 773c 4b68 953a
00000290: 5468 99bc bb7c cf3c 3519 a2bd a6e2 adbc
000002a0: e861 f8bd ed51 babb b855 dd3a 1f87 8bbc
000002b0: 9e76 403d 2ae7 adbb 00d4 a1bc 92f5 97b9
000002c0: 52e9 7a3b 12c3 933b f025 45bd 0516 90bd
000002d0: 74cf a4bc 532e 3fbc 2d1c 763c ac62 d9bc
000002e0: 5b68 ccbc f1a4 8a3c 641e 0bbd c039 a83c
000002f0: 8b2b 3ebd 44ca 3dbd 28fe bb3c a4c9 953c
00000300: cdb9 d2bc 2b0c 2f3d 1f06 53bc cede 31bd
00000310: a7c6 47bd aaa2 b4bd abee ce3c 19fa c7bc
00000320: 4994 dabc bb65 cc3b 39db babd d718 eebd
00000330: 6378 23bc c4d2 583c b75b 46bd 4a8a 0fbd
00000340: f6dd e9bc 3b0c 4a3c 35e4 e3bc ef3e 9abc
00000350: c8d3 0dbd 10b0 133d 7786 9dbc ea5a 78bd
00000360: e507 36bd dde0 be3c 3702 b83c 752a 263d
00000370: 05d1 783b d6b3 323c 7e62 dfbc bb6d 14be
00000380: 2e45 4d3c 3df6 0dbb 5173 47bd 8cfc 82bb
00000390: 664e 5dbc 8136 2fbd b3cb b2bc 520e 283d
000003a0: 6529 903c 6f60 99bc 4fa3 2cbd 4a12 2f3d
000003b0: e3ae 203d fa27 86bc 5e42 2abd 5a8c dd3c
000003c0: 529d a9bd a69c 543c 9e07 4e3c a1cc acbc
000003d0: 4752 873c 0695 0b3d 3f9b 9b3d 063a f63b
000003e0: ffd3 bb3b 217e 3abd 1080 b83b a4f1 0dbd
000003f0: db48 8fbc 7925 cabc bb3c 9abd e0da 34bc
0.011929019 0.01210304 -0.20215826 -0.03925349 6.474044e-05 0.040812083 -0.030771142 -0.0029970035
0.012815615 0.12595029 0.03684946 0.014314766 0.0091099795 -0.051289715 -0.116560146 -0.02783613
-0.014122505 -0.04893555 -0.055894002 0.04089627 -0.015359287 0.026493132 -0.023075584 -0.03775416
-0.086345285 -0.07669132 0.013573176 -0.14186178 -0.009896129 -0.00245885 -0.018626247 0.0803356
-0.05725511 -0.010000108 0.03916674 -0.037969477 0.005474872 -0.003158283 0.06982336 -0.0587821
-0.029265689 -0.06267413 -0.012295904 -0.04321017 -0.04648232 -0.1271564 -0.18286511 -0.017387548
-0.062233627 -0.015836352 -0.0048278733 0.016798927 0.027056608 -0.0125849275 -0.05077603 -0.024657406
-0.027684784 -0.05360827 -0.011385858 -0.086797684 -0.024470277 0.0025855512 -0.03798804 0.040482316
0.036308814 -0.014994615 -0.042847037 0.0010623732 0.027251894 0.01312872 -0.053459525 -0.023038939
-0.056091134 -0.0073316996 -0.069083795 -0.017607938 -0.024154115 -0.036875743 -0.07710124 -0.042696044
-0.013436915 -0.030492965 -0.009071635 0.012457423 0.022364391 0.00621379 -0.026261296 0.13425523
-0.17868131 0.022754464 -0.019870998 -0.12746556 -0.026203696 -0.02611644 0.0012600757 -0.030519148
-0.035041746 -0.020768786 0.022893121 -0.064737566 0.019870155 0.0033772541 -0.17807592 -0.008912436
-0.03553957 0.032518156 -0.0183338 -0.030346414 0.02080605 0.009015421 -0.00680538 0.015476477
-0.03617861 0.013469744 0.011550139 -0.04676216 0.025474211 -0.04554408 0.0036313871 -0.010549152
0.08318122 0.011936596 -0.003143204 0.017029662 -0.014217559 -0.04361825 -0.15603743 0.032562245
0.012044246 -0.12737827 -0.07293524 -0.15555628 -0.011906513 -0.041160904 -0.017256608 0.008272912
-0.014814858 0.012884045 0.003468172 0.011735901 0.025361832 0.006618872 0.045370284 -0.0036155325
0.03660697 -0.038584042 -0.02360335 0.02844712 -0.012590847 -0.016556915 -0.06987378 -0.014471478
0.053205315 -0.08564273 -0.0358244 0.007175695 -0.005125064 0.0642349 -0.05647964 -0.044626746
0.022501415 -0.014492 0.01511061 0.001139888 -0.018726505 0.02532803 -0.07914964 -0.021226238
-0.12128049 -0.005686036 0.0016886508 -0.017032204 0.046988122 -0.005307098 -0.01975441 -0.00028983928
0.0038286042 0.004509338 -0.048131883 -0.0703545 -0.020118453 -0.011668759 0.015021366 -0.026536308
-0.024952104 0.016924353 -0.03396453 0.02053535 -0.046428245 -0.046335474 0.02294834 0.018284626
-0.025723362 0.042736214 -0.012879877 -0.043425374 -0.048773434 -0.08820088 0.02526029 -0.024411248
-0.026682036 0.006237713 -0.09123845 -0.116258316 -0.009977433 0.013233844 -0.04842731 -0.035043992
-0.028548222 0.0123320175 -0.027818779 -0.018828837 -0.0346258 0.03605658 -0.019229157 -0.060633577
-0.044441123 0.023300583 0.022461994 0.040567834 0.0037966382 0.010907134 -0.027268644 -0.14494984
0.012528701 -0.0021661662 -0.04869396 -0.003997391 -0.013507461 -0.04277659 -0.021825647 0.041029282
0.017597863 -0.018722741 -0.04214793 0.04274205 0.039229285 -0.016376484 -0.0415672 0.027044464
-0.082819596 0.012976801 0.012575058 -0.021093668 0.016518725 0.034077667 0.0759797 0.007514241
0.005732059 -0.045530442 0.0056305006 -0.034654275 -0.017490795 -0.024676071 -0.07531115 -0.011038512

model.2.bias f4 [256]
00000000: 493e dabd 2907 bb3e 8087 16be 6f4b 80bd
00000010: a262 95bd f282 d2bd 4275 a9bd 6ee0 3d3b
00000020: 880f c13e 744e 45bd 5590 1abb 4263 68bd
00000030: 3b85 dfbd 6c61 1c3d 7c5a b0bd 64d8 b9bd
00000040: 3b51 6abb 3a20 45be 1760 f4bb a9d5 aabc
00000050: 2c87 62bc 1e7b 82bd c0de b03c f4da 373e
00000060: 831e 28bd 9d04 0f3c d6a1 32be 9bec 04be
00000070: 273c 0abd 7a49 9abd eea5 f53d 83ea 693c
00000080: 6401 71bd 10e8 78bd d1a4 05bc 70b5 47bd
00000090: abeb 75bd af70 02be 6d4d 27bc 30bc d8bd
000000a0: 5341 1dbd 26df c6bd 147a 923b 4905 28be
000000b0: b858 41bd c9a2 f8bb 4157 bfbd 7017 10bd
000000c0: ec61 433c 04ce 61bc 5058 c9bd 5699 cb3b
000000d0: 9e5c 7cbd b35b 5cbc c16f 04bd 5a8d d13d
000000e0: 659e f9bd 4cb5 24bd edf5 16bd 1804 90bd
000000f0: a293 603e 1b20 67bd be07 8cbe e829 a9bb
00000100: 6961 bb3d fc24 413d 8e6c 7c3d 7a1f 6fbd
00000110: c6ac 5cbd b9cd 53bd 5d40 0b3f f1fd 9dbd
00000120: 67d7 3abd 6148 9b3b 65c8 0bbd 0b69 dabd
00000130: 9c81 59bd a24d d3bd 28c4 623e 6ed6 6dbd
00000140: ba15 0fbe 1d71 fd3b 7219 27be e987 d6bc
00000150: 785e 5d3e c639 a03d 941e 03bd d6e3 02bd
00000160: 9ba1 99bd 84a4 c2bc d36c 7dbd 933b 833e
00000170: 4314 15bd e3ce a7bd 3d2c f43e d8a4 f4bb
00000180: 5250 5dbc 3c76 0dbe bcb9 2dbd a43f 5c3d
00000190: d529 fabd 8d23 1cbd 95d5 67be f82d 00bc
000001a0: 0ced 97bd 0325 0dbd a158 48bd 3a88 983c
000001b0: 87ef 80bd e8fb 983c 143b 973c 100e 0abc
000001c0: 44e8 0bbb 78a7 36be 893d f9bc 7347 73be
000001d0: 0bb2 96bd 9bb0 c7bd 5b46 69bd 7b4b 88be
000001e0: b904 98bb b8ca 793e ff1e 45bd de1c e3bc
000001f0: ebf2 a83b dd36 a73a 403c b0bd 3f62 e3bb
00000200: e467 283e 3285 0fbe 3a3a 8cbd 8fe9 223e
00000210: ebe1 633e cbbd 19bd c7e6 d6bd 5582 1ebe
00000220: db5a d1bd 1934 2bbc c515 9abd aba3 9fbb
00000230: dca6 8c3c 542a a8bd 2681 363c 53a1 443c
00000240: cae0 a5ba b0a8 9cbd 80ab 5c3c 63dd 673e
00000250: e208 0abc c005 05bd 8afb 59bd cffd 77bc
00000260: e54f 86bd 0da4 29bd 0703 1cbc afd7 1abd
00000270: 7e90 82bc dcd7 01bd f4ee 43bd c8ee f1bd
00000280: cc73 7abd 80aa e6bd e2d8 2fbe 24a3 ce3d
00000290: 5f8b 3dbd 3d7f 38be a369 59bd 4de1 96bd
000002a0: 53a2 b8bd 1541 19be 9e7f 2fbd 139e 3fbd
000002b0: 186e 26bc f5bb 0dbe ed64 07be 64d1 febd
000002c0: 3201 9abc acd5 063f 6c20 6ebd 2069 90bd
000002d0: d19b ca3b d6b6 2ebe 78ab 73bb 8f30 303d
000002e0: 2bd6 a43c e251 89bd 498e 38bd 4c92 83bd
000002f0: d780 debd 310b ca3b 57e6 c23e 16e9 35be
00000300: 3eaf 813e 3a07 b73c bc10 123d 108e b0bd
00000310: 8073 2e3e d00c 85bd a432 94bd 76d4 44bb
00000320: bd4e 6c3b dcfe 243c 34f6 8abd 7d5b 7fbd
00000330: aea2 09bd dbd9 54bd 6e0e f5bd dfc4 82bd
00000340: 5e7e a1bd f86b 04bd d6c6 cfbd f2a6 c33e
00000350: 266a 80bd fbc3 26bd 5942 f3bd 793e 313e
00000360: 29d9 d2bc 92dd 9f3e e1f0 40bd 2431 92bd
00000370: 146d 3bbd 2092 f33d e83f 043e bdf9 a2bc
00000380: 0b82 893e 4a79 1e3e 5722 7fbd 9745 40bc
00000390: 0243 fbbd c524 87bd 1a84 62bc bcd5 a33e
000003a0: 45b7 5ebd ce6d bf3b 943b b53e dcee 80bb
000003b0: 63c1 b93d db81 4cbc b3c8 87bc fae8 01be
000003c0: a13e 38bd 1df6 0ebd 5331 94bd f3e9 ffbc
000003d0: 95ab 86bd d2d2 aebd 5e4e cdbd 353e 11bc
000003e0: 5a50 7bbd 5dcb 86bd d097 30bc 20a6 85bd
000003f0: 9909 a6be 61f1 833c b8b0 54bd a61a a9bd
-0.10656411 0.365289 -0.14700127 -0.06264388 -0.07294203 -0.10278882 -0.08274318 0.0028972882
0.37707162 -0.04817052 -0.0023584564 -0.056735285 -0.109140836 0.038178846 -0.086110085 -0.09074476
-0.0035753984 -0.19250575 -0.007457744 -0.020853834 -0.013826173 -0.06371139 0.02159059 0.17954618
-0.041044723 0.008729127 -0.17444548 -0.12980883 -0.033748772 -0.07533546 0.11994539 0.014277103
-0.058839217 -0.060768187 -0.008156971 -0.048757017 -0.060039204 -0.12738298 -0.010211331 -0.10582769
-0.038392376 -0.09710531 0.0044701193 -0.16408266 -0.04720375 -0.007587765 -0.09342814 -0.0351786
0.011925202 -0.013782028 -0.098312974 0.0062133474 -0.061611764 -0.013449597 -0.03233314 0.10232039
-0.121884145 -0.04021196 -0.036855627 -0.07032031 0.21931317 -0.056427103 -0.27349657 -0.0051624663
0.09149439 0.04715441 0.061626963 -0.058379628 -0.053875707 -0.051709864 0.54395086 -0.07714451
-0.04561558 0.004738853 -0.034126658 -0.106645666 -0.05310212 -0.10317542 0.2214514 -0.058065824
-0.13973132 0.0077344314 -0.163183 -0.026187854 0.21618068 0.078235194 -0.032011583 -0.031955563
-0.07501527 -0.023760088 -0.06187136 0.2563139 -0.036396276 -0.081937574 0.4769 -0.00746594
-0.013507919 -0.13814634 -0.04241346 0.05377163 -0.1221501 -0.03811984 -0.22640069 -0.00782346
-0.0741826 -0.034459125 -0.048912648 0.018619645 -0.06295686 0.018674806 0.018460788 -0.008426204
-0.0021348158 -0.17837322 -0.03042485 -0.23757724 -0.07358178 -0.09750482 -0.05695186 -0.26620087
-0.004639235 0.24393737 -0.048125263 -0.027723726 0.005155911 0.0012757439 -0.08605242 -0.006939202
0.16445881 -0.14015654 -0.06847043 0.15909408 0.2225415 -0.037534516 -0.10493236 -0.15479405
-0.102224074 -0.010449433 -0.075236835 -0.0048718057 0.017169409 -0.082111984 0.01113919 0.012001353
-0.0012655493 -0.07649362 0.013468623 0.22643046 -0.008424969 -0.032476187 -0.053218402 -0.015136196
-0.065582074 -0.041416217 -0.009522206 -0.03780335 -0.01593804 -0.0317 -0.047835305 -0.11813122
-0.06114559 -0.11262989 -0.17172578 0.1008971 -0.046275493 -0.18017288 -0.05307926 -0.073671915
-0.09015336 -0.14966233 -0.042846315 -0.04678161 -0.010158084 -0.13841231 -0.13222094 -0.12442282
-0.018799398 0.5266979 -0.05813639 -0.07051301 0.0061831255 -0.17061934 -0.003718106 0.04301506
0.020121654 -0.06705071 -0.04505757 -0.06424388 -0.10864418 0.006165885 0.3806636 -0.17764696
0.25329012 0.022342313 0.03566049 -0.08620846 0.17036247 -0.064965844 -0.072362214 -0.0030033863
0.0036057674 0.010070529 -0.06785241 -0.06234311 -0.03360241 -0.051965576 -0.11965643 -0.063852064
-0.07885431 -0.03232953 -0.10145347 0.38213307 -0.06270246 -0.040714245 -0.11877889 0.17308988
-0.025738316 0.31223732 -0.04710472 -0.07138279 -0.045758322 0.118931055 0.12915003 -0.019894475
0.26857027 0.15475956 -0.06228861 -0.0117353415 -0.1226864 -0.0659881 -0.013825441 0.31999004
-0.054374 0.005841947 0.35397017 -0.0039347243 0.09070089 -0.012482132 -0.016575193 -0.1268653
-0.044981603 -0.03490268 -0.0723597 -0.031239485 -0.065756954 -0.085363045 -0.10024713 -0.008864929
-0.061355926 -0.06581757 -0.010778382 -0.065258265 -0.32429197 0.01610631 -0.051926345 -0.08257036

model.4.weight f4 [64, 256]
00000000: e216 283d fd68 37ba ee37 62bd d95f 083d
00000010: cc90 7ebd 0e77 283d 0fbf a63c 7ecd 4fbd
00000020: e6a1 853c 8229 23bc 502e 4a3d 1a91 4bbc
00000030: aaad 95bd b024 4dbd e58a 49bd 5e7e fdbb
00000040: f6ea de3b ecf8 8e3c e3c1 14bd 88b8 013d
00000050: acf5 9abc 30ee 2abd 54fc 723d 8b7b b63c
00000060: ad84 4e3c 0a72 39bd 51ff dfbb c837 c23b
00000070: 20dc 0f3d b9eb a0bd 525a abbd 3797 e83c
00000080: 5219 9b3c e999 243d a640 bf3c 91a1 a8bd
00000090: 5d78 9a3c 0b97 9dbd be25 9cbc 06b9 0f3d
000000a0: f405 cfbc a9f4 863c 4948 6fbc 09e8 b43c
000000b0: d718 593c b974 e23c c165 a83d cbda cb3b
000000c0: b581 a2bc ba2a 8fbc 30f2 8bbd c49f 45bd
000000d0: 0a54 16bd fd3f 86bd f98a 61bc a3b3 11bd
000000e0: 87cb 59bd 112d d4bc e446 43bd 911e 65bd
000000f0: b445 6bbd e253 e0ba e08b adbc e212 6abd
00000100: 4622 ecbd 17b8 fe3c a71a 0c3e 74a5 ee3c
00000110: 9ed0 0a3a 467c c2bc 0c1d abbb c2fe 3e3d
00000120: 0f2a 34bd 63fb f43b a614 9b3c 5949 fb3c
00000130: 6175 ae3d 56e5 66bc bc03 31bd ccc6 f33c
00000140: 080c 8ebd 3abe c43b 9349 1c3d d6a6 30bc
00000150: 84ec bebc 09f0 21bd edb7 b6bc 55ac 36bc
00000160: 685c 8bbd 2109 8e3c fe36 3abd 8271 aa3c
00000170: 6cd8 a2bd dbcd a1bd 4253 98bb 31d3 da3c
00000180: 2526 593c d4a4 273d 5f39 47bd cbb8 32bd
00000190: 235c c33c d135 01bd f040 83bb 1392 09bd
000001a0: d400 43bc b3c5 ad3d 9502 dd3c 3081 45bc
000001b0: 4301 96bd 8c62 0fbd e617 82bd 9b73 14bd
000001c0: 1018 033d 66f3 bd3a 82e7 b8bb ac7c 183d
000001d0: ffa5 d23b 0a9b 84bd 656b eebb 135f bbbd
000001e0: f1c4 afbd 0e94 9cbd ffbc d1bb 3d19 adbd
000001f0: 7257 ed3c 8c84 4dbd 7507 bbbc 21a3 45bd
00000200: f6c2 903d 87f3 cdbc f68d e03c 5060 39bd
00000210: 5d2e 953c a812 2e39 60d1 3bbd a26c 3cbd
00000220: b636 b23b d5b0 8bbd f9c5 56bc fa51 71bd
00000230: 9ade ca3c 3199 9bbd d087 7bbd f1cd 94bd
00000240: b8fc 423d 256d 973b 4f7a 043d c6a9 3bbd
00000250: d90d 0c3c 330b 813d 7aa5 93bd e00f 4bbd
00000260: 8ebf 8b3c 1fb5 35bc 7846 59bd a789 44bc
00000270: a38c f83c 4da8 80bd 40af 9fbc f932 59bd
00000280: 1d13 373c 8b99 153c e5db aa3d a6f9 14bc
00000290: adb4 84bd e573 16bd aeb2 2cbd c509 98bd
000002a0: 8b4d dabb 82e9 6c3c e0f7 9fbd bfe4 ab3d
000002b0: 92f9 8abd e06d 75bc c296 9abd 742f b63c
000002c0: 916e aebc 13d7 bcbd 7c10 3bbd 3701 ebbc
000002d0: 7966 cc3b c4ad 23bd b622 063d d361 9dbb
000002e0: bc95 573c 8c83 273d 5308 63bb b5c4 c93b
000002f0: 6c4e eb3c 2ff2 aa3c 9f59 9ebc 53c3 56bc
00000300: 1ccc 20bd 4233 9a3d 5137 abbd 7142 a43d
00000310: 0640 8bbd 7471 ef3c 53fb 44bc 2564 e53c
00000320: 2786 a5bc b14f 2c3c bfce 893a c0b4 75bb
00000330: ec35 783c 1a30 a63d 05b9 c23c ad29 97bd
00000340: 8ef7 b9bc 4c51 18bd 1e07 dfbc fa8a c7bc
00000350: 6aec 63bd 6db7 423d e953 3bbc a3ea bdbb
00000360: e0ec d23a 1531 8d3b 37c5 19bd 16df e4bd
00000370: 4ec0 8bbd 8450 aebd f8db a4bd 2d7b 95bc
00000380: a9af 86bd 2d02 ab3d 15fd a3bc 4afa 003c
00000390: 9329 6bbd eb6c 64b9 f210 993d c775 af3c
000003a0: da90 0a3d 15e4 11bd d065 e8bd 3afc b43c
000003b0: aec1 2abd c6a7 22bb a4bf c83c cea0 68bd
000003c0: 954b 34bc d6a8 76bd 9d85 91bd a6f9 2bbd
000003d0: 904c 15bc 50a4 a7bd bd1e e4bb 62db 30bd
000003e0: ff6c 31bd 5507 6f3c 0b4e 2bbd 6f82 8b3d
000003f0: f130 f13c 5b89 aabd d11c cfbc 61c8 113d
0.041037448 -0.00069965405 -0.05522912 0.033294532 -0.062149808 0.041129164 0.020354776 -0.050733082
0.01631255 -0.009958627 0.049360573 -0.012424732 -0.073085144 -0.050083816 -0.049204726 -0.0077360114
0.006802912 0.01745268 -0.036317717 0.031670123 -0.018915974 -0.04173106 0.05932267 0.022275707
0.012604875 -0.04527477 -0.006835856 0.00592706 0.035122037 -0.078574605 -0.083668366 0.028392417
0.018932972 0.040185843 0.023346256 -0.08233941 0.018856222 -0.07694825 -0.019060966 0.03508856
-0.025271393 0.016474085 -0.0146046365 0.0220833 0.013250551 0.027643548 0.08222533 0.0062211505
-0.01983724 -0.017476428 -0.06833303 -0.048248067 -0.03670124 -0.065551735 -0.013766044 -0.035571706
-0.053172614 -0.025900396 -0.04767503 -0.055937354 -0.05743952 -0.0017114843 -0.021184862 -0.057146914
-0.11529975 0.03109364 0.13682042 0.029131629 0.00052953686 -0.023740899 -0.0052219685 0.046629675
-0.043985423 0.0074762567 0.018930744 0.030674623 0.08518482 -0.014092764 -0.043216452 0.02975788
-0.069358885 0.006004122 0.038156103 -0.010781964 -0.023306139 -0.039535556 -0.0223045 -0.011149486
-0.068047345 0.017338337 -0.0454626 0.020806078 -0.079514354 -0.07900592 -0.004648597 0.026712032
0.013253723 0.040928677 -0.048638698 -0.043633264 0.023847645 -0.031545464 -0.004005544 -0.033586573
-0.011902053 0.08484974 0.02697877 -0.0120547265 -0.073244594 -0.03500609 -0.063522145 -0.036243062
0.03200537 0.0014492094 -0.0056428323 0.03722827 0.0064284797 -0.06474884 -0.007275986 -0.09148993
-0.085824855 -0.07645427 -0.006400704 -0.084520794 0.028972361 -0.050175235 -0.022830704 -0.048251275
0.07068436 -0.025140537 0.027411442 -0.045257866 0.018210584 0.00016600883 -0.045853972 -0.046002038
0.005438651 -0.068208374 -0.013108724 -0.05891607 0.024764348 -0.07597578 -0.061408818 -0.07265843
0.047604293 0.0046211653 0.032343205 -0.045816205 0.008548223 0.06300964 -0.072092965 -0.049575686
0.017059114 -0.011090546 -0.05304572 -0.0119957095 0.030340498 -0.06282101 -0.019492745 -0.053027127
0.011173991 0.009130846 0.08342723 -0.009092724 -0.06479774 -0.03673162 -0.04216259 -0.074237384
-0.006662076 0.0144599695 -0.0781095 0.08393239 -0.06785883 -0.0149798095 -0.07548286 0.022239424
-0.021292957 -0.0922071 -0.045670018 -0.028687103 0.0062378016 -0.039960638 0.032747947 -0.0048029213
0.013158258 0.040896937 -0.0034642413 0.0061574825 0.028723918 0.020867435 -0.019329844 -0.013108092
-0.039257154 0.07529308 -0.0836016 0.08020485 -0.06799321 0.029228903 -0.012022811 0.028001854
-0.02020557 0.010517047 0.0010513886 -0.0037491769 0.015149575 0.081146434 0.023769865 -0.07380996
-0.022701051 -0.037186906 -0.027225073 -0.024358261 -0.055645384 0.04753821 -0.01143358 -0.005795793
0.0016092323 0.0043088295 -0.037541594 -0.11175363 -0.068237886 -0.08511451 -0.08049768 -0.018247211
-0.06576473 0.08350024 -0.02001814 0.007872174 -0.057412695 -0.0002178435 0.07473935 0.021418465
0.033829547 -0.035617907 -0.11347544 0.022092927 -0.041688614 -0.002481924 0.024505444 -0.05679398
-0.011004348 -0.06021961 -0.07105563 -0.04198613 -0.009112492 -0.08185637 -0.006961672 -0.04317797
-0.043316837 0.01458915 -0.041822474 0.068119876 0.029442282 -0.0832698 -0.025282295 0.035591487

model.4.bias f4 [64]
00000000: 2220 a8bd c71d d6bd d3cf e53e d54f 53be
00000010: 6e18 283d acec 7bbd 38b3 2bbe 1aa3 4abd
00000020: c918 5abe 0ea8 9ebd 497f af3c fa29 46be
00000030: 8c92 3a3e 5d23 74be ec07 59bd b5f6 49be
00000040: 09d0 91bd fca6 753a 0824 b2bd 6549 84be
00000050: 7c0e b63c dffa dcbd 1986 abbb 5487 e7bd
00000060: 033c 68be 24b1 a7be 4bce 243e 0d22 aa3e
00000070: 0529 8bbd f679 3bbe 1fc7 4abe 7a13 38bf
00000080: c0e9 2dbd 4090 f1bb ab77 cfbd 25c7 b53d
00000090: 8887 af3b d4f8 033d d186 20be bf3c 62be
000000a0: 128f 98bd 4173 9c3e 16e5 b2bd 09e2 c83e
000000b0: 9dc7 36bc e270 f8bd 04e8 8bbd 96ad 05bd
000000c0: 1bb6 3f3e c61a 913e 8157 e4bd cfd5 febd
000000d0: 09e6 d63c ef2a ef3d 3feb fbbd c8e6 13bd
000000e0: 53ec debe 3609 443e b3f3 2fbe ac80 90bd
000000f0: 1e4a 13bd 643f 3e3d 1d81 033f eef4 053b
-0.08209254 -0.10454898 0.4488512 -0.20635922 0.041038923 -0.061505005 -0.16767585 -0.049471952
-0.21298517 -0.07746898 0.021422999 -0.1935195 0.18219966 -0.23841615 -0.05298607 -0.19723018
-0.07119758 0.0009370891 -0.08698279 -0.25837246 0.022223704 -0.10790037 -0.0052344915 -0.11305109
-0.22679143 -0.32752335 0.1609432 0.33229104 -0.06794933 -0.18308243 -0.19802521 -0.7190472
-0.04245925 -0.0073719323 -0.10130247 0.088758744 0.0053567328 0.032219723 -0.15676428 -0.22093485
-0.074491635 0.30556682 -0.08735101 0.3923495 -0.01115599 -0.12130906 -0.06831363 -0.032636248
0.18721811 0.2834074 -0.111495025 -0.124431245 0.026232736 0.11678111 -0.12300729 -0.036108762
-0.43539676 0.19144139 -0.17182808 -0.07055792 -0.035959356 0.046447173 0.51368886 0.002044018

model.6.weight f4 [1, 64]
00000000: ddf5 013c e1fd d93c d4dd 913d 268a 73bd
00000010: bd7d 543b 9e94 f53c 982b debe dd57 3b3d
00000020: 85b0 013d a325 383d 5c93 453d fc42 a83d
00000030: 5830 053c 8dfd 81bc b446 923d c738 833d
00000040: ace1 5fbc e8e4 163c 650e 813c 6f2c 64bc
00000050: 800b d13b da73 27bc 9af0 10be 28da d7bc
00000060: b072 123e 1e66 403e 85be 87bd 5c16 993a
00000070: c56d 25bd 8aea 8bbd 78fc 90bd cab5 413e
00000080: 29d2 e1bd aa7b b03d 77a1 f2bc 7919 e53c
00000090: f82f b43c 95b6 81bd 98dc 823d 39cc 8abc
000000a0: 9f9d d4bd 6ca6 273d 93bc 5c3d 6bcb bb3d
000000b0: eaeb 483c 821c 00be 41a5 f73c 4642 92be
000000c0: 9c0b ab3e 3c1e 0dbe 81e3 963d 7c6c 4e3d
000000d0: 03f8 bcbb cd2f 873e e08b 41be 5066 e5bc
000000e0: c414 003d abd6 503d bc1c f0bd cec3 ac3d
000000f0: 9cd0 5c3d c6af 673c ea32 af3d ca37 2b3d
0.0079321535 0.026610317 0.071223885 -0.05945792 0.0032423579 0.029978093 -0.43392634 0.04573809
0.031662483 0.04495777 0.048236236 0.08215901 0.008129202 -0.015867973 0.07142392 0.06407314
-0.013664644 0.009209849 0.015753934 -0.013926609 0.0063795447 -0.010220492 -0.14154282 -0.026349142
0.14301562 0.18788955 -0.066281356 0.0011679637 -0.040387888 -0.06831844 -0.070794046 0.18917003
-0.11026413 0.08617337 -0.029618008 0.027966248 0.02199553 -0.06333653 0.06389731 -0.016943084
-0.10381626 0.040930197 0.053890776 0.09169658 0.012263278 -0.12510875 0.030230166 -0.28566188
0.33407295 -0.13781065 0.07367612 0.050396428 -0.00576687 0.26403657 -0.18901014 -0.028002888
0.031269804 0.050985973 -0.11724231 0.08435784 0.053909883 0.014141029 0.08554633 0.04180125
