model_weight/critic/14_14 09:08:46 std 0.5 lr_critic_0.004- gamma_0.7 memory200 critic_weight.pth (torch, 645007 bytes, 7 tensors)

model.0.weight f4 [512, 24]
-0.4628837 -0.71798235 0.71197975 0.102640584 -0.28918463 -0.0060155746 0.28780833 -0.0887395
0.023954337 -0.43618312 0.053038146 -0.22393368 -0.14741302 0.10390387 -0.31321934 -0.49843
-0.47909227 -0.6350801 -0.31707162 -0.5602615 -0.28800637 -0.5595352 -0.62312263 -0.10348324
0.0245232 0.25850743 0.23554471 -0.20178278 0.07165345 0.016520077 0.020243147 0.014714876
-0.123492755 0.11264187 0.09732788 -0.24565142 0.10587423 -0.04471277 -0.0919894 -0.43443358
-0.2745764 -0.091936626 -0.34025782 -0.1001343 -0.39576 -0.40668863 -0.23941371 -0.12622115
0.047502335 -0.13569897 -0.06364976 0.23269132 -0.13799676 -0.030143855 -0.060563214 0.034867924
0.026012236 -0.32149902 -0.10244585 0.011136477 -0.047518272 0.0030633723 -0.20081519 -0.34365883
-0.12237904 -0.21593983 -0.4461126 -0.4587491 -0.124368705 -0.132421 -0.113658614 -0.101630054
0.04584503 0.17169984 -0.1277913 -0.11173105 -0.031108871 0.10296382 0.120632075 0.09177663
0.07046342 -0.050311 -0.10034102 -0.18664107 -0.09884353 -0.009220472 -0.1769978 -0.26987323
-0.024047906 -0.049523577 -0.18111476 -0.2174385 -0.094949365 -0.2142289 0.003987821 -0.048527673
-0.18606088 0.1401907 0.117443934 -0.024952589 -0.09515754 0.016180545 -0.5297001 -0.042833265
-0.0072451406 0.003191068 0.14255196 0.28475836 -0.04505154 -0.17038077 -0.13236362 -0.30416808
-0.31254393 -0.41159472 -0.2819711 -0.41014042 -0.12214483 -0.34785536 -0.14133398 -0.24450229
-0.005329552 0.21553302 -0.12759182 0.007812903 0.2426491 -0.16277353 0.022469314 -0.0665369
0.039387535 0.12761788 -0.10634834 0.08901911 -0.07436132 0.014388623 -0.09787506 -0.12879072
-0.23522545 -0.29333702 -0.095232695 -0.20588756 -0.34311572 0.035228092 -0.27120453 -0.26379436
0.21364632 0.058995795 0.04317658 -0.1106856 -0.3613954 -0.23951235 -0.028397482 0.118629314
-0.17588238 -0.09477403 -0.012491421 -0.28712353 -0.044775177 -0.13185158 -0.21367034 -0.22243795
-0.047070857 -0.2441088 -0.24413718 -0.3860919 -0.22464749 -0.21386524 -0.14293446 -0.35169482
4.822725 0.49320278 -0.847556 -1.0234879 -0.41147116 0.051271137 0.042727593 0.011744914
-0.019515984 -0.3634291 0.026459884 -0.02345899 0.019551676 -0.00661519 0.16505186 0.35852396
0.18234803 0.063885674 0.14011052 0.21616171 0.058251888 0.26451486 0.081692986 0.3847718
-0.0028900157 0.06988147 -0.05510083 0.22439177 -0.33963248 -0.08412868 -0.30837703 -0.08410075
-0.037274066 0.13265319 0.13548265 -0.060505897 0.001970607 0.08874476 -0.24917705 0.072309434
-0.04617194 -0.22633575 -0.05120031 0.058358084 -0.21427032 -0.31184888 -0.32345495 -0.3053482
-0.07343747 -0.05622366 -0.16154943 -0.15424967 0.094997615 0.006257344 -0.14257088 0.00034654647
-0.013592897 0.10822451 0.0055241305 -0.18346296 0.06442491 0.04279648 -0.34724763 -0.30069867
-0.35423315 -0.393768 -0.27883524 -0.38875717 -0.30487186 -0.3874677 -0.23787583 -0.16796288
0.18157835 0.40445247 -0.41034353 0.46094826 -0.47016165 0.09005046 -0.3825746 0.006041101
-0.27287596 0.03658162 -0.023663007 0.08385791 -0.06994915 -0.0055832067 -0.07152418 -0.045135416
00000000: 18ff ecbe b1cd 37bf 4e44 363f 3a35 d23d
00000010: 0210 94be 4c1e c5bb 9d5b 933e 0ebd b5bd
00000020: e33b c43c 6553 dfbe 873e 593d df4e 65be
00000030: 70f3 16be 8dcb d43d 495e a0be 3832 ffbe
00000040: 954b f5be 9c94 22bf 3657 a2be 4c6d 0fbf
00000050: 9275 93be b33d 0fbf f784 1fbf 05ef d3bd
00000060: e1e4 c83c 165b 843e a232 713e 25a0 4ebe
00000070: 0bbf 923d 1d55 873c f5d4 a53c aa16 713c
00000080: c5e9 fcbd c8b0 e63d d753 c73d 0c8c 7bbe
00000090: 97d4 d83d bd24 37bd f064 bcbd 146e debe
000000a0: 4795 8cbe 4549 bcbd 4636 aebe 3613 cdbd
000000b0: 0ea1 cabe 7e39 d0be de28 75be 1e40 01be
000000c0: cf91 423d acf4 0abe ce5a 82bd a246 6e3e
000000d0: 064f 0dbe 3ff0 f6bc 2211 78bd abd1 0e3d
000000e0: 9d17 d53c 859b a4be 21cf d1bd c575 363c
000000f0: 85a2 42bd dcc2 483b 7fa2 4dbe 0df4 afbe
00000100: dda1 fabd 551f 5dbe df68 e4be 29e1 eabe
00000110: 05b5 febd 5f99 07be d9c5 e8bd 6b23 d0bd
00000120: 00c8 3b3d 15d2 2f3e b9db 02be 40d3 e4bd
00000130: 08d8 febc b2de d23d f30d f73d 63f5 bb3d
00000140: 204f 903d e812 4ebd 987f cdbd d61e 3fbe
00000150: 7a6e cabd 7611 17bc e93e 35be d32c 8abe
00000160: 1d00 c5bc 3cd9 4abd 2676 39be 33a8 5ebe
00000170: d074 c2bd d25e 5bbe 44ac 823b f4c4 46bd
00000180: be86 3ebe 278e 0f3e 7286 f03d 5f69 ccbc
00000190: f5e1 c2bd 108d 843c 6d9a 07bf ef71 2fbd
000001a0: a568 edbb 3d21 513b 24f9 113e d9cb 913e
000001b0: f787 38bd 4c78 2ebe 548a 07be ebbb 9bbe
000001c0: c205 a0be 8bbc d2be 845e 90be edfd d1be
000001d0: 1227 fabd 191a b2be dbb9 10be cf5e 7abe
000001e0: 86a3 aebb b0b4 5c3e 6ea7 02be b101 003c
000001f0: 0179 783e 1bae 26be 9111 b83c 8044 88bd
00000200: d354 213d 43ae 023e 29cd d9bd a74f b63d
00000210: bf4a 98bd 42be 6b3c b872 c8bd b7e1 03be
00000220: f1de 70be 4530 96be 5c09 c3bd 30d4 52be
00000230: ddac afbe 554b 103d 52db 8abe 0e10 87be
00000240: 1ac6 5a3e 93a5 713d edd9 303d 22af e2bd
00000250: d108 b9be ba42 75be d6a1 e8bc edf3 f23d
00000260: 831a 34be e318 c2bd d1a8 4cbc db01 93be
00000270: 2d66 37bd 1a04 07be 66cc 5abe c6c6 63be
00000280: 5fcd 40bd a8f7 79be 19ff 79be d6ad c5be
00000290: fe09 66be 7dff 5abe 695d 12be 5811 b4be
000002a0: c353 9a40 1385 fc3e 6ef9 58bf a701 83bf
000002b0: 59ac d2be af01 523d 2103 2f3d bd6d 403c
000002c0: fcdf 9fbc 6113 babe 66c2 d83c 112d c0bc
000002d0: d62a a03c 3cc4 d8bb 5b03 293e 7490 b73e
000002e0: 71b9 3a3e 7ed6 823d 2279 0f3e 7f59 5d3e
000002f0: 8899 6e3d 7e6e 873e a74e a73d cf00 c53e
00000300: 6b66 3dbb 041e 8f3d 68b1 61bd f5c6 653e
00000310: 4fe4 adbe a84b acbd 98e3 9dbe 043d acbd
00000320: b1ac 18bd 3dd6 073e f7bb 0a3e 08d5 77bd
00000330: 4d25 013b d0bf b53d 4528 7fbe f816 943d
00000340: ca1e 3dbd 8fc4 67be 6bb7 51bd e308 6f3d
00000350: ae69 5bbe a8aa 9fbe e39b a5be 9956 9cbe
00000360: 6266 96bd c84a 66bd 376d 25be a0f3 1dbe
00000370: 1c8e c23d 680a cd3b 1afe 11be aeb0 b539
00000380: beb4 5ebc d0a4 dd3d c403 b53b b7dd 3bbe
00000390: 35f1 833d 5d4b 2f3d 71ca b1be 2df5 99be
000003a0: 0c5e b5be f69b c9be 7ec3 8ebe 2e0b c7be
000003b0: 2a18 9cbe 2b62 c6be b995 73be 76fe 2bbe
000003c0: adef 393e 6514 cf3e 8c18 d2be 6901 ec3e
000003d0: 07b9 f0be 606c b83d d1e0 c3be 6ef4 c53b
000003e0: 66b6 8bbe 9cd6 153d ecd8 c1bc b2bd ab3d
000003f0: 8041 8fbd 55f3 b6bb 457b 92bd eadf 38bd

model.0.bias f4 [512]
0.2337184 0.08262777 -0.25098616 -0.25754473 -0.07547366 -0.08745514 -0.047283027 0.13674906
-0.2711551 -0.26567402 -0.5922765 -0.17274116 0.6493104 0.08909037 0.13293286 -0.16627538
-0.47191876 -0.053958513 -0.06668247 -0.004421542 -0.11989525 0.049533747 -0.32089746 0.09894218
-0.11392651 -0.040718246 -0.25838044 0.30549225 -0.15394783 -0.25348622 -0.31136224 -0.058613446
-0.29220524 -0.09334166 -0.25084752 -0.104755014 -0.121424384 0.04632642 0.46518737 -0.2246032
-0.27189782 -0.16695257 -0.21870033 -0.25256395 -0.1871707 -0.15567727 -0.122639686 0.41421965
0.055379376 -0.17795059 -0.067861095 0.25041017 -0.3545687 -0.1130424 -0.04498653 -0.28454536
-0.3031394 0.2802231 -0.034445874 -0.14642054 -0.05830779 -0.69052094 -0.3000994 -0.2067726
-0.03469693 -0.25073802 -0.0010200294 -0.14949478 -0.078885935 -0.052259006 0.06803106 -0.17087527
0.011005485 -0.12022822 0.5496891 -0.34242663 -0.41008565 -0.13802652 -0.24708089 -0.08174194
-0.09770875 -0.33283433 -0.20782137 -0.09102459 -0.123211876 -0.13164756 0.04519933 -0.08006809
-0.12713182 -0.076209284 -0.06877382 -0.28233972 -0.2646892 0.08852685 -0.07692003 -0.22136098
-0.014974254 -0.07358968 -0.60438836 0.6371549 0.0011793191 -0.2656295 0.0106523 0.053866144
-0.40104595 -0.29958653 -0.30260146 0.19293205 0.45755932 -0.58690035 0.65160054 -0.108465426
-0.14583051 -0.077734634 0.018360727 -0.15013345 0.2806928 -0.128307 -0.22192377 0.073841795
-0.278589 0.03870295 -0.27125612 -0.19555238 -0.20784882 -0.12459575 -0.17463274 -0.36525208
0.068611294 -0.25985578 -0.11249971 0.020533727 -0.1446523 -0.26686734 -0.2299775 -0.122315615
-0.07747394 -0.36625773 -0.16865444 0.21448265 -0.16229592 -0.085222445 -0.16115882 -0.037994478
-0.4998198 -0.57616174 -0.12544198 -0.21841635 -0.28507823 0.3662842 0.3853898 -0.26200888
0.061060153 -0.19264118 0.023931649 -0.08813231 -0.072320305 -0.31211394 0.14074573 -0.2950366
-0.19544105 -0.37223583 0.33312643 -0.1400198 0.32182425 -0.19217488 -0.27015483 -0.3160145
0.2604814 -0.06761327 0.063695624 -0.19795664 -0.2972726 -0.23026688 -0.2516 -0.1254052
-0.37389362 -0.14138086 -0.13854003 -0.12472207 -0.56860775 -0.21727926 0.0073916707 0.05914162
-0.31752735 -0.04417599 -0.3322892 -0.101280466 -0.042329606 -0.2063612 -0.1776725 -0.33399686
0.09354396 -0.18037486 0.2977036 -0.32990378 -0.048664745 -0.48222375 0.47218323 -0.17016119
0.02268802 -0.015106223 -0.045139663 0.072108395 -0.155689 0.2294159 -0.12836061 -0.29458627
0.45006856 -0.22990535 -0.14067826 -0.04500491 -0.029284272 -0.2668365 -0.2370582 0.058114644
-0.19474111 0.55512714 -0.1246012 -0.101768225 -0.31177416 -0.25234064 -0.023974935 -0.092599176
-0.17438197 -0.30249026 -0.1690292 0.4158304 0.010976548 -0.22860585 0.29226556 0.53142583
-0.079664 -0.19987662 0.1615121 0.13724284 -0.22928178 -0.1870195 -0.22614057 -0.33817947
-0.17036186 -0.2979742 -0.300398 -0.15923126 0.32991222 -0.034837406 0.0188921 0.050002337
-0.050126098 -0.23578842 -0.31509483 -0.1581279 -0.18730573 -0.4660338 0.07502695 -0.21482036
00000000: e053 6f3e c038 a93d 4281 80be e7dc 83be
00000010: ef91 9abd ae1b b3bd d9ab 41bd f207 0c3e
00000020: d7d4 8abe 6d06 88be 6f9f 17bf 0fe3 30be
00000030: 3539 263f 0375 b63d 8d1f 083e 1844 2abe
00000040: 569f f1be 9a03 5dbd d290 88bd 95e2 90bb
00000050: a48b f5bd e6e3 4a3d ac4c a4be 33a2 ca3d
00000060: 4d52 e9bd 2dc8 26bd 714a 84be 7b69 9c3e
00000070: 80a4 1dbe f2c8 81be df6a 9fbe a714 70bd
00000080: ed9b 95be ea29 bfbd 166f 80be cc89 d6bd
00000090: 59ad f8bd c6c0 3d3d 0a2d ee3e 62fe 65be
000000a0: 3136 8bbe 9df5 2abe fbf2 5fbe 1050 81be
000000b0: ada9 3fbe dd69 1fbe 842a fbbd 9914 d43e
000000c0: 7cd5 623d ae38 36be c2fa 8abd c335 803e
000000d0: 078a b5be c682 e7bd cc43 38bd eeaf 91be
000000e0: 1635 9bbe 6779 8f3e 1e17 0dbd 44ef 15be
000000f0: 26d4 6ebd fbc5 30bf a1a6 99be 32bc 53be
00000100: 5e1e 0ebd bc60 80be 82b2 85ba 2915 19be
00000110: f38e a1bd 8a0d 56bd de53 8b3d edf9 2ebe
00000120: 5a50 343c 373a f6bd 6db8 0c3f 8b52 afbe
00000130: bff6 d1be d356 0dbe c602 7dbe 5168 a7bd
00000140: 861b c8bd 4369 aabe 20cf 54be 1a6b babd
00000150: 8256 fcbd 9ece 06be ef22 393d bdfa a3bd
00000160: d82e 02be 9d13 9cbd 4ad9 8cbd d58e 90be
00000170: 5885 87be 914d b53d 4088 9dbd 74ac 62be
00000180: 9356 75bc 30b6 96bd 32b9 1abf 951c 233f
00000190: 6293 9a3a 9700 88be fc86 2e3c bfa2 5c3d
000001a0: e555 cdbe 6863 99be 94ee 9abe fb8f 453e
000001b0: 3745 ea3e 1a3f 16bf 4bcf 263f 1f23 debd
000001c0: 9854 15be 5633 9fbd 3c69 963c 95bc 19be
000001d0: f7b6 8f3e e962 03be fc3f 63be 5e3a 973d
000001e0: 38a3 8ebe fc86 1e3d 15e2 8abe e23e 48be
000001f0: 52d6 54be 0e2c ffbd edd2 32be 5202 bbbe
00000200: 1484 8c3d d10b 85be 3f66 e6bd 5936 a83c
00000210: bc1f 14be d6a2 88be 397f 6bbe 9c80 fabd
00000220: a8aa 9ebd 2286 bbbe c0b3 2cbe 57a1 5b3e
00000230: e730 26be 1b89 aebd d106 25be 19a0 1bbd
00000240: 61e8 ffbe 567f 13bf dd73 00be 89a8 5fbe
00000250: c6f5 91be 9a89 bb3e d051 c53e 0726 86be
00000260: 361a 7a3d bb43 45be 4e0c c43c b67e b4bd
00000270: ab1c 94bd 66cd 9fbe a61f 103e 0a0f 97be
00000280: b321 48be b295 bebe 8c8f aa3e 5a61 0fbe
00000290: 26c6 a43e 7ec9 44be bc51 8abe a7cc a1be
000002a0: d15d 853e d378 8abd da72 823d 25b5 4abe
000002b0: 1d34 98be 15cb 6bbe b7d1 80be 396a 00be
000002c0: fc6e bfbe 25c6 10be 70dd 0dbe 496e ffbd
000002d0: 4790 11bf 747e 5ebe d435 f23b 7c3e 723d
000002e0: f292 a2be e2f1 34bd cf21 aabe 226c cfbd
000002f0: cf61 2dbd 5a50 53be c8ef 35be a301 abbe
00000300: fa93 bf3d 30b4 38be 9b6c 983e 26e9 a8be
00000310: af54 47bd 08e6 f6be 00c2 f13e bc3e 2ebe
00000320: 3adc b93c 1780 77bc 5ee4 38bd 91ad 933d
00000330: f06c 1fbe 00ec 6a3e f770 03be 03d4 96be
00000340: 636f e63e 4f6c 6bbe f60d 10be 1257 38bd
00000350: 92e5 efbc cb9e 88be 63bf 72be 9f09 6e3d
00000360: 376a 47be d01c 0e3f ea2e ffbd dc6b d0bd
00000370: dda0 9fbe cb32 81be 1567 c4bc a3a4 bdbd
00000380: 3091 32be 01e0 9abe fe15 2dbe b9e7 d43e
00000390: fbd6 333c a717 6abe d5a3 953e 860b 083f
000003a0: e126 a3bd 75ac 4cbe 6e63 253e 6389 0c3e
000003b0: d8c8 6abe 0a82 3fbe 6591 67be dc25 adbe
000003c0: 5773 2ebe 1390 98be c4cd 99be 850d 23be
000003d0: 41ea a83e abb1 0ebd 9bc3 9a3c 40cf 4c3d
000003e0: 0651 4dbd 8572 71be 1c54 a1be 48ec 21be
000003f0: 13cd 3fbe fb9b eebe bba7 993d def9 5bbe

model.2.weight f4 [256, 512]
0.02597525 0.12149228 0.035560593 -0.04304996 -0.034398135 0.017177122 -0.020916754 -0.12924297
-0.036156215 0.0655664 0.058234714 -0.049044836 0.019478675 0.017586686 0.058319032 0.026810208
-0.019905731 -0.04045007 -0.053497456 -0.0027386262 0.23209164 0.00935172 -0.22851387 -0.08588353
-0.062375568 -0.018326182 0.028916083 0.04973509 0.11792951 -0.0065580234 0.046709366 -0.037925787
-0.025444865 -0.04095098 -0.015573626 -0.024717733 -0.06076257 0.0007759237 -0.02803671 -0.0018334964
0.077146664 -0.04626113 0.008683933 -0.03657503 -0.031298913 -0.03375624 0.21714255 -0.055165276
-0.0061399597 -0.0054937163 0.021357335 0.03702417 0.0024600278 -0.032277267 0.11843395 -0.008816687
-0.015279039 0.00084904034 0.009881237 0.03878783 -0.047781684 0.020899097 -0.0039188582 -0.056941424
-0.05060674 0.015066987 -0.030715076 -0.019413382 -0.05802954 -0.009090933 0.01852463 0.010727375
0.015792126 -0.0669606 -0.12543397 0.00057410455 -0.0039311335 -0.02285379 0.14017606 -0.003950695
0.005896128 0.0123549765 0.04363123 -0.022693614 0.077430256 -0.060119145 0.06046235 0.032225817
-0.003954781 -0.02853938 -0.004513171 -0.041134886 -0.023359336 0.07670835 -0.054371256 0.23037933
-0.05641179 -0.04291786 -0.30832013 -0.11258034 -0.01888002 -0.06775323 -0.009017194 0.078453556
-0.017961955 -0.024088541 -0.021343198 -0.0467928 -0.120656475 -0.34307262 0.0059961355 0.53921956
-0.033384018 -0.05313761 -0.058331423 0.023844302 -0.15858454 0.015346788 0.041722752 -0.049436167
0.011981066 0.018533714 -0.00087425404 0.0036213507 -0.04814119 0.0049820663 -0.028494425 -0.04304716
0.19689007 0.012919779 -0.05196579 0.0073691737 0.30704382 0.08111162 0.037640776 0.021186972
-0.048683934 0.025145471 -0.019180136 0.016978102 0.055361927 -0.032693747 -0.033604484 -0.0033927911
-0.1594589 -0.015660921 0.0030615102 -0.06186054 -0.030768719 0.019438569 -0.12116703 0.022765247
0.15908253 -0.03247149 -0.005360947 0.20703854 0.1440915 -0.022911761 0.14969663 0.0012841235
-0.030282086 -0.002447334 -0.07640664 0.014433773 -0.033421107 0.006233507 -0.032580007 0.010841733
-0.06399981 -0.021050835 0.058264636 0.030212613 -0.115020394 -0.16321692 -0.023962451 0.38499227
-0.05603426 -0.017526867 0.10599419 -0.0018102748 -0.3808394 -0.03829055 -0.04489564 0.27694717
-0.052220576 -0.06487969 -0.060377475 0.039488047 0.014086435 0.00010138925 -0.055318546 -0.11340899
0.012572184 0.0051959353 0.086668365 0.15896116 0.025159715 -0.05405336 0.021655139 0.041705027
0.23519178 0.21532848 0.014891751 -0.01038746 -0.007107655 0.079619825 -0.023145778 -0.021127658
0.11041298 -0.053114 -0.028706629 0.019814944 -0.010991355 0.019264715 0.0013725763 -0.04562705
-0.011412883 -0.28913552 -0.023148764 0.04641456 -0.059969243 0.003725634 -0.06803291 0.07842338
0.033570874 0.119981304 0.031334832 0.12003138 -0.037498597 -0.025975097 0.24018493 0.013504034
-0.04855787 -0.042534407 0.13093913 -0.06557509 0.0053445995 0.1030512 -0.010369013 0.007877283
0.01719582 0.060241833 -0.013968077 0.00881458 0.041946594 -0.07622413 0.0019416305 -0.066999145
-0.06538142 -0.055208486 0.06170959 -0.049527142 0.016062476 -0.032698054 0.08717319 0.017246842
00000000: 0cca d43c f2d0 f83d fca7 113d 2855 30bd
00000010: 0fe5 0cbd 09b7 8c3c 9d59 abbc 4558 04be
00000020: 8a18 14bd ad47 863d 8687 6e3d 3de3 48bd
00000030: be91 9f3c f411 903c f0df 6e3d 15a1 db3c
00000040: 5811 a3bc f9ae 25bd 2620 5bbd 867a 33bb
00000050: 6ea9 6d3e f537 193c 8aff 69be b4e3 afbd
00000060: 867d 7fbd ca20 96bc 6ce1 ec3c 06b7 4b3d
00000070: 0785 f13d b0e4 d6bb 5252 3f3d 1258 1bbd
00000080: c071 d0bc 37bc 27bd 8628 7fbc d87c cabc
00000090: 2ce2 78bd 5c67 4b3a 3ead e5bc ee51 f0ba
000000a0: 12ff 9d3d 507c 3dbd 0e47 0e3c b3cf 15bd
000000b0: 4a33 00bd fc43 0abd 9e5a 5e3e fcf4 61bd
000000c0: b731 c9bb a204 b4bb 94f5 ae3c a8a6 173d
000000d0: 6b38 213b 2b35 04bd 808d f23d de73 10bc
000000e0: ef54 7abc 2292 5e3a e9e4 213c fddf 1e3d
000000f0: bab6 43bd 9534 ab3c c469 80bb 693b 69bd
00000100: 0349 4fbd 86db 763c 2f9e fbbc d008 9fbc
00000110: 62b0 6dbd 23f2 14bc f7c0 973c dfc1 2f3c
00000120: 7d5e 813c a422 89bd c371 00be 817f 163a
00000130: bdd0 80bb df37 bbbc 508a 0f3e d574 81bb
00000140: 4e34 c13b 876c 4a3c a9b6 323d f5e7 b9bc
00000150: c193 9e3d 7e3f 76bd 5ea7 773d 38ff 033d
00000160: 1c97 81bb 6bcb e9bc 39e3 93bb 0e7d 28bd
00000170: 145c bfbc 4419 9d3d 65b4 5ebd 8fe8 6b3e
00000180: 0d10 67bd a3ca 2fbd 23dc 9dbe 8590 e6bd
00000190: 46aa 9abc 35c2 8abd dabc 13bc 42ac a03d
000001a0: f324 93bc 5555 c5bc eed7 aebc cfa9 3fbd
000001b0: be1a f7bd 37a7 afbe 3b7b c43b 4b0a 0a3f
000001c0: aebd 08bd d3a6 59bd eeec 6ebd 2055 c33c
000001d0: fc63 22be 1871 7b3c 7ae5 2a3d 947d 4abd
000001e0: 3c4c 443c 04d4 973c 322e 65ba 2f54 6d3b
000001f0: b22f 45bd 9a40 a33b 246d e9bc 3852 30bd
00000200: 8d9d 493e 7bad 533c 15da 54bd 1c79 f13b
00000210: d934 9d3e d91d a63d 372d 1a3d 4d90 ad3c
00000220: ce68 47bd e0fd cd3c a91f 9dbc a915 8b3c
00000230: 30c3 623d e1e9 05bd dba4 09bd 9759 5ebb
00000240: 3249 23be 554b 80bc 9ea3 483b 7a61 7dbd
00000250: ae0e fcbc a23d 9f3c 6b26 f8bd 2f7e ba3c
00000260: 88e6 223e d300 05bd e2aa afbb e901 543e
00000270: b98c 133e 72b1 bbbc 134a 193e 0950 a83a
00000280: 2312 f8bc 7363 20bb 167b 9cbd a27b 6c3c
00000290: 92e4 08bd 7242 cc3b 9d72 05bd 86a1 313c
000002a0: 5512 83bd cd72 acbc e6a6 6e3d 7180 f73c
000002b0: d08f ebbd 5622 27be e74c c4bc b51d c53e
000002c0: 2e84 65bd 8194 8fbc 7b13 d93d be46 edba
000002d0: 62fd c2be 8dd6 1cbd 7ee4 37bd 05cc 8d3e
000002e0: 3ee5 55bd a5df 84bd 5f4e 77bd 38be 213d
000002f0: caca 663c f0a0 d438 b395 62bd f942 e8bd
00000300: 90fb 4d3c aa42 aa3b 2f7f b13d b7c6 223e
00000310: bf1b ce3c 0e67 5dbd 1e66 b13c e4d2 2a3d
00000320: 1dd6 703e 127f 5c3e 88fc 733c 2a30 2abc
00000330: 55e7 e8bb b80f a33d 379c bdbc e913 adbc
00000340: 3320 e23d 118e 59bd 2a2a ebbc f352 a23c
00000350: 1615 34bc 09d1 9d3c 05e8 b33a 6ee3 3abd
00000360: 1afd 3abc 9209 94be 7aa2 bdbc 321d 3e3d
00000370: 4fa2 75bd c429 743b d754 8bbd 709c a03d
00000380: 9d81 093d c2b8 f53d f458 003d 03d3 f53d
00000390: 2198 19bd bac9 d4bc 0af3 753e 0640 5d3c
000003a0: 9ee4 46bd 8f38 2ebd e814 063e 3c4c 86bd
000003b0: c021 af3b 820c d33d cbe2 29bc b80f 013c
000003c0: 40de 8c3c 24c0 763d 5cda 64bc 076b 103c
000003d0: 31d0 2b3d 661b 9cbd 4f7e fe3a d936 89bd
000003e0: b2e6 85bd 4b22 62bd 32c3 7c3d f9dc 4abd
000003f0: 7495 833c 65ee 05bd dc87 b23d 4049 8d3c

model.2.bias f4 [256]
-0.335275 -0.020334614 -0.09309449 0.01280711 0.20920266 -0.07318912 -0.04197782 -0.046187576
-0.08357812 -0.05940778 -0.053729307 0.27354494 -0.057315215 -0.039009072 -0.03599312 -0.044939104
-0.025628217 -0.067831516 -0.025252713 -0.06957894 0.016094808 -0.04754951 0.0010509636 -0.03941336
-0.011113129 -0.010621617 -0.21575877 -0.14885521 -0.12239239 -0.022246733 0.16323836 0.24624142
-0.016878279 -0.10349092 -0.020033706 -0.055512894 0.38352236 -0.4551633 -0.029079357 -0.044519898
-0.16116011 0.3418185 -0.1578983 -0.052933935 -0.13758384 -0.005578727 -0.070281245 -0.19728673
-0.0393096 -0.018529668 -0.029427376 -0.025118023 -0.08910074 -0.04019484 -0.12496116 -0.21082886
-0.015711734 -0.10542326 -0.0057829334 -0.21743457 0.2671991 -0.110937744 -0.033438146 0.0063678785
-0.031953745 -0.029834367 -0.04060415 -0.013051173 0.1432413 -0.2579804 -0.1528272 -0.03375113
-0.044071417 -0.06473337 -0.04994964 -0.06408202 -0.014033912 -0.08535256 0.06836255 -0.04539591
-0.046360888 0.046118557 -0.051711146 0.3786593 0.009954706 0.36535692 0.13602425 -0.05794306
-0.057709366 0.2324557 -0.019900367 -0.024160499 -0.013461621 -0.072975524 -0.035251785 -0.06251627
-0.00724317 -0.035684887 0.20490573 -0.032761443 0.053635877 -0.22266753 0.8011602 -0.20136532
-0.048624504 -0.0077753398 -0.049171567 -0.059693802 0.010280074 0.20466326 -0.0113345105 0.009712087
-0.03585686 -0.100950316 -0.016493894 0.075417034 0.0119252065 -0.06396804 -0.008565653 0.009708102
-0.0059453263 0.16687869 -0.025793856 0.44877312 -0.020418178 0.31768534 -0.016322564 -0.18777405
-0.037330333 -0.042378157 0.0008881741 -0.058929678 0.07439608 0.34417638 -0.027834907 -0.1708191
-0.019170007 -0.058576424 -0.050665826 -0.06033729 -0.06948217 -0.01728102 -0.32348356 -0.02177371
-0.045687694 -0.111477375 -0.044422407 0.0808404 -0.09500462 0.010863512 -0.06339572 -0.11671438
0.08876498 -0.0934522 0.0059358985 -0.21121821 -0.0895051 -0.0020781523 -0.09394948 0.0066312784
-0.021054076 -0.10898864 -0.06405684 -0.09143035 0.0741576 -0.06399432 -0.09698215 -0.0065742275
-0.06242178 0.27052543 0.04158021 -0.13253826 -0.022680309 -0.008793173 0.017756155 -0.01793377
-0.03709812 -0.17515178 -0.1337317 0.08269207 0.01100877 -0.13541396 -0.055498872 -0.45389232
-0.031780645 0.016962158 -0.13862814 -0.18232885 -0.057024658 -0.0006684922 0.06964989 -0.2018343
-0.066525675 -0.098785795 -0.08123699 0.21770427 -0.012148211 -0.013514498 -0.010974829 -0.18894517
-0.04577594 0.34363943 -0.26731655 -0.033491746 -0.064009376 -0.086863756 -0.07338137 -0.15003419
-0.037533175 0.34557152 -0.12464038 -0.0673007 0.020869086 -0.01649763 0.01853594 -0.049465384
-0.0071260566 0.004761788 -0.0002488261 -0.01593424 0.017619984 -0.04227797 -0.048623446 -0.054849423
-0.03588041 -0.03357673 -0.0056846114 -0.13262977 -0.17083295 0.17725588 -0.23648877 -0.022175409
-0.0460629 -0.11455243 0.08538617 -0.01145371 -0.0403503 -0.007963096 0.019309096 0.21982838
-0.017902736 -0.18345489 -0.010547169 0.081337586 -0.03126804 -0.042442903 -0.04310563 -0.058028087
-0.06345291 -0.14919895 0.08422861 -0.3530895 0.40155584 -0.022571329 0.28679875 0.15280509
00000000: 2aa9 abbe c794 a6bc 53a8 bebd ead4 513c
00000010: 3939 563e 2de4 95bd eff0 2bbd 2f2f 3dbd
00000020: 012b abbd 9355 73bd 4313 5cbd 150e 8c3e
00000030: 5cc3 6abd fac7 1fbd 866d 13bd 1112 38bd
00000040: 44f2 d1bc 40eb 8abd c7de cebc 677f 8ebd
00000050: 42d9 833c 46c3 42bd 7dc0 893a e76f 21bd
00000060: d713 36bc 4a06 2ebc deef 5cbe 806d 18be
00000070: dda8 fabd c83e b6bc f527 273e b626 7c3e
00000080: 5144 8abc 0cf3 d3bd ba1d a4bc 7d61 63bd
00000090: 0b5d c43e 2a0b e9be d537 eebc 7f5a 36bd
000000a0: 2807 25be d602 af3e 18b0 21be 41d1 58bd
000000b0: c7e2 0cbe c1cd b6bb 9def 8fbd 8805 4abe
000000c0: 1a03 21bd 88cb 97bc ae11 f1bc 50c4 cdbc
000000d0: 737a b6bd 58a3 24bd a3eb ffbd 85e3 57be
000000e0: e5b5 80bc 26e8 d7bd c37e bdbb 2ba7 5ebe
000000f0: 52ce 883e 5433 e3bd 70f6 08bd a3a9 d03b
00000100: eee1 02bd 3467 f4bc 8a50 26bd 96d4 55bc
00000110: d9ad 123e 0216 84be bc7e 1cbe a03e 0abd
00000120: 3b84 34bd ee92 84bd fe97 4cbd 6f3d 83bd
00000130: 7eee 65bc 53cd aebd aa01 8c3d 10f1 39bd
00000140: eae4 3dbd d0e6 3c3d 11cf 53bd a2df c13e
00000150: 1019 233c 1010 bb3e f149 0b3e b455 6dbd
00000160: a860 6cbd de08 6e3e 1806 a3bc 3dec c5bc
00000170: 218e 5cbc 3174 95bd 2d64 10bd 8808 80bd
00000180: 1d58 edbb 512a 12bd cfd2 513e dd30 06bd
00000190: 4bb1 5b3d f502 64be d618 4d3f b632 4ebe
000001a0: 7d2a 47bd 47c8 febb 2068 49bd 7d81 74bd
000001b0: c16d 283c 3f93 513e 62b4 39bc 721f 1f3c
000001c0: a5de 12bd 0abf cebd 341e 87bc 3f74 9a3d
000001d0: f161 433c ad01 83bd f456 0cbc bb0e 1f3c
000001e0: 03d1 c2bb 3fe2 2a3e a34d d3bc 97c5 e53e
000001f0: 0644 a7bc a7a7 a23e e6b6 85bc d747 40be
00000200: b1e7 18bd b894 2dbd 5bd4 683a 3f60 71bd
00000210: f95c 983d e337 b03e 0806 e4bc 34eb 2ebe
00000220: 6b0a 9dbc d5ed 6fbd f886 4fbd 3c24 77bd
00000230: ab4c 8ebd ed90 8dbc a39f a5be c85e b2bc
00000240: 0523 3bbd 404e e4bd 45f4 35bd a78f a53d
00000250: c891 c2bd dffc 313c 9ed5 81bd f307 efbd
00000260: 6aca b53d de63 bfbd ed81 c23b 9649 58be
00000270: 734e b7bd 9c31 08bb 9668 c0bd 324b d93b
00000280: 9979 acbc 7035 dfbd 3c30 83bd d63f bbbd
00000290: f1df 973d 740f 83bd 949e c6bd 9e6c d7bb
000002a0: fbad 7fbd 4f82 8a3e 0350 2a3d 1cb8 07be
000002b0: 0ecc b9bc 3e11 10bc 5b75 913c d7e9 92bc
000002c0: 33f4 17bd fd5a 33be f6f0 08be 765a a93d
000002d0: 215e 343c f5a9 0abe c952 63bd 9364 e8be
000002e0: 6c2c 02bd 39f4 8a3c 89f4 0dbe 6ab4 3abe
000002f0: b092 69bd c13d 2fba 9aa4 8e3d a7ad 4ebe
00000300: 9d3e 88bd 3550 cabd 945f a6bd deed 5e3e
00000310: 4a09 47bc ea6b 5dbc c5cf 33bc d87a 41be
00000320: 8d7f 3bbd 82f1 af3e b7dd 88be a42e 09bd
00000330: 5917 83bd a0e5 b1bd f948 96bd 90a2 19be
00000340: 63bc 19bd c0ee b03e 7543 ffbd f3d4 89bd
00000350: a5f5 aa3c 0a26 87bc afd8 973c 379c 4abd
00000360: b281 e9bb c608 9c3b e074 82b9 8688 82bc
00000370: c957 903c aa2b 2dbd 6129 47bd caa9 60bd
00000380: 56f7 12bd c187 09bd fa45 babb 19d0 07be
00000390: d5ee 2ebe 9182 353e 1d2a 72be 34a9 b5bc
000003a0: 74ac 3cbd 779a eabd f2de ae3d 57a8 3bbc
000003b0: 5b46 25bd a577 02bc 1c2e 9e3c b11a 613e
000003c0: c2a8 92bc 99db 3bbe 08ce 2cbc 5294 a63d
000003d0: eb12 00bd 9cd8 2dbd 878f 30bd dcae 6dbd
000003e0: 99f3 81bd 9cc7 18be 0d80 ac3d 26c8 b4be
000003f0: ba98 cd3e 82e7 b8bc 49d7 923e f078 1c3e

model.4.weight f4 [64, 256]
0.08919001 -0.008811772 -0.03565427 -0.2430778 0.1170491 -0.095097706 -0.1460619 0.059539452
0.07675812 0.018427454 -0.10533233 -0.144552 0.025294838 0.025459565 -0.050822813 -0.07171632
-0.1020802 -0.043996852 0.053718936 -0.11568583 -0.030635934 0.033756472 0.013488415 0.0486852
-0.05983627 -0.01280274 0.06896832 -0.114396214 -0.32010114 -0.068494186 -0.10390133 0.1319351
-0.024869964 -0.15587339 0.05087711 -0.052406736 -0.15659562 -0.19589947 -0.25772595 0.01948426
-0.23551276 -0.1930486 -0.04596648 -0.00015442091 0.054927554 0.010114677 -0.07664416 -0.0610559
-0.34360912 0.03724924 -0.04474007 -0.024454385 0.020459168 -0.26652512 0.10655312 0.016258398
-0.01769299 -0.44554093 -0.25258017 -0.061920702 -0.16429342 -0.058052056 -0.005176647 0.044681713
0.017126864 -0.016757993 -0.05952534 0.021658584 -0.06466743 -0.023212936 -0.26027605 -0.0707589
-0.0050721304 -0.010101846 -0.04654693 -0.014653545 0.0152814 -0.11661819 -0.289812 -0.07032193
0.12570769 -0.08551474 0.036853153 0.035545904 -0.1896535 -0.77555466 -0.14730722 0.036817323
0.04492462 -0.04006093 -0.05242774 0.019589111 0.012445822 -0.060731884 -0.03994729 -0.10484339
0.046639994 -0.021432815 -0.19651811 -0.080344036 -0.60801834 0.14687051 0.30373886 0.00966721
-0.027525889 -0.02266054 -0.01856383 0.01166479 -0.03377169 -0.20258065 0.024798388 -0.052876048
-0.018283196 0.05230757 0.027540676 -0.07789659 0.036598995 0.09648332 0.020706996 -0.051818345
0.051899813 -0.7880521 0.031689588 0.2555299 0.04828638 -0.23693967 -0.1339813 0.00040549986
-0.0685177 -0.08275249 0.009434429 -0.074799515 -0.19075732 0.53914434 -0.0051519535 -0.05904791
0.011836125 0.00011167766 -0.07370358 0.025936563 0.029084554 -0.23408958 -0.18242173 -0.0017454122
-0.0014145449 -0.013829101 -0.0017059013 -0.16585808 -0.0908058 -0.075910434 0.023148917 0.041360755
-0.7806746 -0.12547784 -0.031521086 -0.01883773 -0.10158668 -0.07358217 -0.32626578 -0.033661805
-0.08164312 -0.09031066 -0.05435972 -0.14361794 -0.14942516 -0.028324038 -0.044332866 -0.0019533036
-0.025479257 -0.5476971 -0.4240447 -0.050945837 -0.083920665 -0.0004889969 -0.008054339 0.004681166
-0.058112297 0.08890342 -0.13203871 0.017664911 -0.02198716 -0.15297285 -0.04797393 0.024313211
-0.032462798 0.029118976 0.23754178 0.38138658 0.04706751 0.0002765879 0.185758 0.036510706
3.495502e-05 -0.34819037 -0.039345782 -0.29524875 -0.023521036 -0.042487178 0.026515381 -0.38577628
0.04171356 0.020889953 -0.049071144 0.029043466 0.022001889 -0.038434025 0.02242061 -0.01996734
0.0025420643 0.03268775 -0.36793044 -0.2216321 -0.02229459 0.045555227 0.02050052 -0.045553192
-0.024521323 -0.0117236525 -0.05013933 0.0046881437 -0.057024498 -0.0729521 -0.13875867 -0.04799325
0.013402479 -0.15909162 0.010985002 -0.0993807 -0.027290463 -0.23094109 -0.046231803 -0.0097715035
-0.04375456 -0.14043717 -0.034047525 -0.04344323 0.04460205 0.042413466 -0.059141908 -0.009906781
0.19694652 -0.29205346 -0.01394469 -0.32491773 0.21285062 -0.027147803 -0.0058965166 0.026112812
0.024698954 -0.02726261 -0.69563806 -0.072845615 -0.57690805 0.08133997 -0.15724024 0.145872
00000000: 41a9 b63d 405f 10bc 360a 12bd 63e9 78be
00000010: 70b7 ef3d 96c2 c2bd 4091 15be a4df 733d
00000020: 5c33 9d3d 2cf5 963c 7ab8 d7bd 7105 14be
00000030: 1f37 cf3c 9490 d03c 952b 50bd 02e0 92bd
00000040: 6d0f d1bd 0b36 34bd 6308 5c3d b1ec ecbd
00000050: 36f8 fabc 3a44 0a3d 83fe 5c3c 226a 473d
00000060: e016 75bd 95c2 51bc 433f 8d3d 9048 eabd
00000070: 4ce4 a3be ae46 8cbd 38ca d4bd ff19 073e
00000080: 18bc cbbc 469d 1fbe 8464 503d 72a8 56bd
00000090: 9a5a 20be df99 48be a8f4 83be 749d 9f3c
000000a0: 422a 71be 88ae 45be 5947 3cbd 0cec 21b9
000000b0: b7fb 603d 08b8 253c 9df7 9cbd c015 7abd
000000c0: 89ed afbe a992 183d 5d41 37bd 9054 c8bc
000000d0: fc99 a73c fb75 88be 8638 da3d 5530 853c
000000e0: e4f0 90bc f11d e4be 3052 81be 90a0 7dbd
000000f0: 893c 28be fec7 6dbd dda0 a9bb 2c04 373d
00000100: a34d 8c3c 0f48 89bc d8d0 73bd 586d b13c
00000110: 5c70 84bd 0e29 bebc e742 85be 0bea 90bd
00000120: 1d34 a6bb 3782 25bc fea7 3ebd 6c15 70bc
00000130: d65e 7a3c 85d5 eebd 3d62 94be f204 90bd
00000140: 84b9 003e 5a22 afbd 55f3 163d 9598 113d
00000150: 8734 42be c08a 46bf b4d7 16be c3cd 163d
00000160: e102 383d ee16 24bd 78be 56bd 5879 a03c
00000170: 90e9 4b3c ffc1 78bd c59f 23bd 22b8 d6bd
00000180: 9409 3f3d df93 afbc 0b3c 49be 6a8b a4bd
00000190: 17a7 1bbf 3965 163e a983 9b3e 3863 1e3c
000001a0: f97d e1bc 99a2 b9bc 2c13 98bc ad1d 3f3c
000001b0: 2f54 0abd 4d71 4fbe fd25 cb3c 8e94 58bd
000001c0: a4c6 95bc 7640 563d fc9c e13c 3f88 9fbd
000001d0: d4e8 153d 0c99 c53d b8a1 a93c 793f 54bd
000001e0: e694 543d c8bd 49bf f1cc 013d d1d4 823e
000001f0: f0c7 453d 50a0 72be 6532 09be 4599 d439
00000200: 0253 8cbd 237a a9bd dd92 1a3c 7d30 99bd
00000210: e355 43be 5d05 0a3f b8d1 a8bb 39dc 71bd
00000220: 4eec 413c 7d34 ea38 e7f1 96bd ea78 d43c
00000230: bb42 ee3c 2eb5 6fbe c3cc 3abe 51c6 e4ba
00000240: 4068 b9ba 7493 62bc 8d98 dfba b3d6 29be
00000250: 64f8 b9bd ee76 9bbd cca2 bd3c e569 293d
00000260: 4ada 47bf 437d 00be 411c 01bd 9551 9abc
00000270: ad0c d0bd 40b2 96bd 4f0c a7be f6e0 09bd
00000280: 8234 a7bd ccf4 b8bd 4ca8 5ebd 9510 13be
00000290: e902 19be d007 e8bc 6196 35bd ff02 00bb
000002a0: e0b9 d0bc e135 0cbf 631c d9be 95ac 50bd
000002b0: 99de abbd 0730 00ba 59f6 03bc 7764 993b
000002c0: 2907 6ebd ff12 b63d 2835 07be 01b6 903c
000002d0: 6b1e b4bc eaa4 1cbe 5080 44bd 802c c73c
000002e0: b6f7 04bd eb8a ee3c 273e 733e 1a45 c33e
000002f0: ddc9 403d 0003 9139 5837 3e3e 408c 153d
00000300: ab9c 1238 0246 b2be 0b29 21bd d82a 97be
00000310: 30af c0bc 0907 2ebd c936 d93c 7884 c5be
00000320: d6db 2a3d 6821 ab3c d3fe 48bd 90ec ed3c
00000330: 4e3d b43c ff6c 1dbd 6dab b73c 8c92 a3bc
00000340: c398 263b 97e3 053d 6161 bcbe 86f3 62be
00000350: 25a3 b6bc 1e98 3a3d b5f0 a73c fc95 3abd
00000360: f1e0 c8bc 9014 40bc e65e 4dbd 009f 993b
00000370: 8592 69bd e967 95bd c116 0ebe 9294 44bd
00000380: 1296 5b3c eae8 22be 70fa 333c 1c88 cbbd
00000390: 4090 dfbc d27b 6cbe 8f5d 3dbd a818 20bc
000003a0: fb37 33bd c3ce 0fbe 6b75 0bbd 87f1 31bd
000003b0: a4b0 363d beb9 2d3d c93e 72bd 0d50 22bc
000003c0: 59ac 493e 0888 95be 4578 64bc 9e5b a6be
000003d0: 83f5 593e 1265 debc 9137 c1bb 89ea d53c
000003e0: 7655 ca3c d655 dfbc 5615 32bf 1530 95bd
000003f0: 3fb0 13bf 9295 a63d 9603 21be 785f 153e

model.4.bias f4 [64]
-0.04287074 -0.047673777 0.013809035 -0.17390944 -0.35540786 0.5007319 0.02835349 0.094567075
-0.03444907 -0.15304436 -0.345586 -0.18126269 -0.013659248 -0.12049464 0.14189981 -0.008005687
0.0070229787 -0.038792208 -0.2987768 -0.011518399 -0.13240613 -0.07446704 -0.01913012 -0.07690597
-0.045582205 -0.6925089 -0.21774827 0.11315407 -0.15001105 -0.25667122 -0.08305134 -0.13521226
-0.051428616 0.34612444 0.5020738 -0.0605407 0.32001784 0.05905489 0.26038715 -0.29656604
-0.52402276 -0.45796898 -0.38695484 0.36554453 -0.00015076101 0.55816 -0.055330865 0.008407717
0.35321248 -0.06773569 -0.12299317 -0.34484988 -0.12023235 -0.23766536 0.21587671 -0.10935973
-0.16240361 -0.088844195 -0.04804989 0.012606869 -0.13733184 0.098683886 -0.29565722 -0.50771606
00000000: 3b99 2fbd 9445 43bd 4a3f 623c 5115 32be
00000010: 05f8 b5be f72f 003f 9445 e83c 62ac c13d
00000020: 781a 0dbd a9b7 1cbe a6f0 b0be ed9c 39be
00000030: 0acb 5fbc e5c5 f6bd 2f4e 113e 492a 03bc
00000040: 0421 e63b 94e4 1ebd 46f9 98be abb7 3cbc
00000050: 7995 07be 2d82 98bd c5b6 9cbc e180 9dbd
00000060: 68b4 3abd 4348 31bf 67f9 5ebe 52bd e73d
00000070: 7f9c 19be 696a 83be d216 aabd 1575 0abe
00000080: d0a6 52bd 3937 b13e e987 003f 86f9 77bd
00000090: 61d9 a33e 8ae3 713d 7751 853e 81d7 97be
000000a0: 5b26 06bf e97a eabe f21e c6be a728 bb3e
000000b0: 9a15 1eb9 93e3 0e3f 9ea2 62bd 85c0 093c
000000c0: 44d8 b43e 02b9 8abd d8e3 fbbd 2a90 b0be
000000d0: 613c f6bd 8c5e 73be c90e 5d3e fef7 dfbd
000000e0: 224d 26be f2f3 b5bd f6cf 44bd 0b8d 4e3c
000000f0: b8a0 0cbe c71a ca3d 6260 97be aef9 01bf

model.6.weight f4 [1, 64]
0.13076074 0.005086471 0.005536174 0.05676531 -0.002442317 -0.16875473 0.03653143 0.03228934
-0.009664765 -0.026430462 0.023360603 0.11810597 0.049554937 0.075816795 -0.14683187 0.008766171
0.06680701 0.06214581 0.184098 -0.019551178 0.09508904 0.0056959824 0.09084888 -0.00092923205
-0.05312537 -0.0032577973 0.082700886 -0.010361089 0.1401947 0.12467159 -0.0014648415 0.0140480185
0.016326908 -0.33228725 -0.09866883 0.09448031 0.044973984 0.0054027196 0.13950256 -0.1438067
-0.025189647 0.0064763958 0.005846455 0.01044763 0.046943262 -0.14423399 -0.042185865 0.050327454
-0.018174246 0.020847773 0.040913343 0.040189177 0.021187603 -0.049016573 -0.0054597477 -0.019392265
0.003259249 -0.10065067 -0.0517515 0.07617162 -0.049219474 -0.017279513 0.008976586 -0.062049337
00000000: 25e6 053e 69ac a63b cb68 b53b be82 683d
00000010: 480f 20bb 0ace 2cbe fba1 153d d441 043d
00000020: f658 1ebc b284 d8bc bc5e bf3c 8be1 f13d
00000030: 1efa 4a3d d645 9b3d 185b 16be fc9f 0f3c
00000040: 1dd2 883d 9b8c 7e3d 3084 3c3e cb29 a0bc
00000050: 0bbe c23d 5da5 ba3b fa0e ba3d b597 73ba
00000060: fd99 59bd c580 55bb 155f a93d 8fc1 29bc
00000070: 338f 0f3e d253 ff3d edff bfba a929 663c
00000080: 02c0 853c 8e21 aabe e212 cabd e57e c13d
00000090: a436 383d 4c09 b13b c2d9 0e3e 1042 13be
000000a0: 855a cebc f237 d43b 9f93 bf3b 892c 2b3c
000000b0: 9447 403d 13b2 13be 16cb 2cbd 2924 4e3d
000000c0: 28e2 94bc f3c8 aa3c c094 273d 689d 243d
000000d0: a091 ad3c 9ac5 48bd afe7 b2bb 87dc 9ebc
000000e0: 2099 553b f021 cebd 62f9 53bd deff 9b3d
000000f0: 5c9a 49bd c48d 8dbc 8812 133c 7227 7ebd
