model_weight/critic/14_14 12:50:44 std 0.4 lr_critic_0.004- gamma_0.9 memory200 critic_weight.pth (torch, 645007 bytes, 7 tensors)

model.0.weight f4 [512, 24]
000000 f7 26 87 3d 2c f5 4f bd e9 69 50 3e 90 f6 23 3f
       0.06599229 -0.050770923 0.20352902 0.640481
000010 d0 29 c6 bf c6 0e 90 bd 18 a6 fd be 01 6d 5f 3d
       -1.548151 -0.07034068 -0.49540782 0.054547314
000020 3a 57 b0 3d 35 c8 62 3f 74 e4 c3 3d 3f 04 01 3f
       0.08610387 0.8858674 0.09565058 0.50397104
000030 b8 70 61 3c b6 57 c3 bd 6e a2 e3 bc 5d 76 9d 3c
       0.013759784 -0.09538214 -0.027787413 0.01922148
000040 44 7e 38 be 3d fb fb 3b 83 2f f0 bd f5 1d e3 3d
       -0.18016917 0.007689862 -0.11727812 0.11089698
000050 40 b8 35 be 01 82 b2 bc 51 fa 1e be 03 6b c9 3d
       -0.17746067 -0.021790506 -0.15525176 0.09834864
000060 56 f4 ae 3d c2 a7 ad 3d 03 64 48 3e 2e 68 c0 3e
       0.08542697 0.08479263 0.19569401 0.37579483
000070 49 ee c8 3c 7f 4f f7 3d 19 32 9d bd 08 59 b6 3d
       0.024527686 0.120757096 -0.07675571 0.089037
000080 ed 3a ab bd 87 c4 cf bd e8 15 af bd 35 d9 55 bd
       -0.083608486 -0.101449065 -0.085491 -0.052209098
000090 ba 30 74 bb 67 90 19 be 4b 47 bb 3d ac 93 0e 3d
       -0.0037260489 -0.14996491 0.091444574 0.0348088
0000a0 f0 28 a3 3d e0 0f d7 bd 65 fb 6a be 95 1e 56 3c
       0.079667926 -0.10501075 -0.22947462 0.013068815
0000b0 c2 59 89 be 76 38 21 3d 88 f4 37 bd 40 09 99 be
       -0.26826292 0.039360486 -0.044910938 -0.2988987
0000c0 63 db 81 3e 0f 06 9c 3e 31 fb c9 be 5b d8 50 bf
       0.2536269 0.30473372 -0.39449456 -0.8158013
0000d0 9c 09 1e 3e a0 b8 c2 3d 58 79 ca be 4c 24 6a 3d
       0.15433353 0.09507871 -0.39545703 0.05716352
0000e0 e9 69 f9 bb 08 82 35 3f 18 85 a3 bc 51 1d 36 3d
       -0.0076115024 0.70901537 -0.019960925 0.044461552
0000f0 1b 6c 15 3d e7 a4 06 3f 87 fa c6 be 00 9d f2 be
       0.03648005 0.5259537 -0.38863012 -0.47385406
000100 6f b8 0b bf b5 9b 19 bf c4 46 1e bf 87 29 f8 be
       -0.545783 -0.60003215 -0.6182673 -0.48469183
000110 fb ce 27 bf a9 f5 19 bf aa 52 de be 88 93 34 be
       -0.655502 -0.6014047 -0.43422443 -0.17634404
000120 7c 25 20 3d 09 4b b8 bd 71 21 8d 3e 27 93 a8 3d
       0.039098248 -0.08998687 0.27564576 0.08231192
000130 09 1e 85 3d e5 45 69 bd f8 b5 e8 3c 0c e8 15 bc
       0.064998694 -0.056951422 0.028407082 -0.009149563
000140 16 52 4e 3d af 45 8b bd 7e d1 84 bd 2d 03 ba bd
       0.050371252 -0.068004005 -0.0648527 -0.09082637
000150 46 5b 14 bd 97 d2 24 be 4c 84 04 be ba 35 52 be
       -0.036219858 -0.16095959 -0.12941092 -0.20528308
000160 f0 0b 6e be dd 97 21 be 9b 22 8a be 12 03 b6 be
       -0.23246741 -0.15780587 -0.26979527 -0.35549217
000170 4e 00 4a be a1 3f 15 be fc 89 cf bd 7b 99 4d be
       -0.19726679 -0.14575054 -0.1013374 -0.2007808
000180 6e 3e 25 3d 2d 0c 73 bd 11 5e 10 be 90 71 da be
       0.04034274 -0.059337784 -0.14098383 -0.42664766
000190 39 6e 52 3e ac 5d 19 be 9b a9 a1 3d e3 4b 2d bd
       0.20549859 -0.14977139 0.07893678 -0.0423087
0001a0 ec 61 88 bd 21 23 ae 3e 3e 1e 26 be 35 8b dd bd
       -0.06659302 0.34011176 -0.16222474 -0.10817567
0001b0 4a b2 ca bc 54 6b 9a 3d f9 76 af be 47 7d c2 be
       -0.024743218 0.075400025 -0.34270456 -0.37986204
0001c0 32 4c 51 be 73 6f 2b be f1 45 5b bd 35 4a 62 be
       -0.20439222 -0.16741733 -0.0535335 -0.2209862
0001d0 a8 b0 a5 be c7 88 c3 be 03 70 a1 be c5 5e 6e be
       -0.3236134 -0.3819029 -0.3153077 -0.23278339
0001e0 63 71 fe bd 7f 02 d0 bd dc b2 79 be 71 3a 4d be
       -0.124239706 -0.10156726 -0.24384636 -0.20041825
0001f0 8d 8d ee 3d e4 6d 43 3d 2e d4 ee bc e8 ec f2 bd
       0.116480924 0.04771222 -0.02915391 -0.118615925
000200 8c f2 51 3d c1 0c 4a be 88 74 0f 3e ad e6 0d be
       0.0512567 -0.19731428 0.14009297 -0.13857527
000210 bf 44 cb 3d ab 0d 07 be 26 a8 ee be be 36 cb be
       0.09925222 -0.13188808 -0.46612662 -0.39690202
000220 00 2c 78 be ae 91 c5 be 40 2b 2c be 16 12 93 be
       -0.24235535 -0.38587707 -0.16813374 -0.28724736
000230 da 4d 3a be 93 27 e1 bd 8b 54 99 be 79 6b 3c bd
       -0.1819376 -0.10993876 -0.29947314 -0.04600093
000240 58 59 e3 3b 2e 44 69 3e 25 b8 b5 bc e8 c1 02 be
       0.006938141 0.22779915 -0.022182534 -0.12769282
000250 39 10 13 be d1 b9 62 3d dc a3 31 be 1e 46 9d bd
       -0.14361657 0.05535299 -0.17347664 -0.076793894
000260 0e 60 07 bb bc 5d 75 3d 62 9d 1a 3e de bc 52 3d
       -0.0020656618 0.059903845 0.150991 0.05144965
000270 c5 bb 60 bd 92 a3 79 bd 72 25 f4 be 34 57 e9 be
       -0.05486657 -0.06094701 -0.47684819 -0.45574343
000280 67 dd 0b bf d0 51 4c be 67 6a 99 be 2d f8 6a be
       -0.5463471 -0.19953084 -0.2996399 -0.22946234
000290 17 b5 b1 be a0 70 7a be 4b 75 38 be 1c 40 ef be
       -0.34708473 -0.24457026 -0.18013494 -0.467286
0002a0 43 09 8f be cd a2 f3 3c 7e 0e 9e 3e 6f 61 28 bd
       -0.27936754 0.029740715 0.30870432 -0.041108545
0002b0 8d 93 dc be 87 a4 2e be 10 fd 99 bd 7b 4a b4 bd
       -0.43081322 -0.1705495 -0.07518971 -0.088032685
0002c0 6c ee 2f bd f8 56 1e bd e1 c1 42 be 31 68 35 be
       -0.042951986 -0.03865716 -0.19019271 -0.17715527
0002d0 a7 d1 21 3e 5f e5 83 3d 98 ce 8e be 39 db cd be
       0.15802632 0.064402334 -0.27891994 -0.40206316
0002e0 c7 ed c3 be e2 ff 0e bf 18 c0 f2 be 07 24 a5 be
       -0.38267347 -0.55859196 -0.4741218 -0.3225405
0002f0 ec be 9b be 44 30 0b bf 24 56 72 be 86 2f a8 be
       -0.304191 -0.5437052 -0.23665673 -0.32848758
000300 7b 73 86 3e 01 ea 86 be 7a 37 3a 3e d3 cc 1e 3f
       0.2625998 -0.26350406 0.18185225 0.62031287
000310 65 30 a7 3e 6b 33 12 3d ca b2 46 3f 01 3f a9 bd
       0.3265411 0.035693567 0.7761656 -0.0826397
000320 f5 5e 94 be d4 64 6b bf a9 3a 30 3d 9c df 9f bf
       -0.28978696 -0.91950727 0.043024693 -1.2490115
000330 7c 40 36 3e 2d 85 d6 3e ca b0 e4 3d 44 63 4d be
       0.17798036 0.4189848 0.11166532 -0.20057398
000340 f1 0f 23 3c af 96 05 3e 80 08 05 bd 4d b1 33 3d
       0.009952531 0.13045762 -0.03247881 0.04387026
000350 01 28 f8 bc 12 81 7f be 7b c0 81 be 09 23 8c be
       -0.030292513 -0.2495158 -0.25342163 -0.2737048
000360 c6 8b b7 3e 37 e1 2b 3f 24 5f a1 be 20 d5 aa 3e
       0.35848826 0.67140526 -0.315179 0.33365726
000370 4f 52 05 bc cb 65 95 bc 0f 17 56 be 70 9d 24 bc
       -0.0081373 -0.018237015 -0.20907234 -0.010047302
000380 a5 03 49 be 30 6f a4 be af 19 62 3d 28 55 57 be
       -0.19630297 -0.3211608 0.055200275 -0.21028578
000390 8d e8 2f 3d 5c a1 5d be 08 9f ce be 69 2e 1b be
       0.042946387 -0.21643585 -0.40355706 -0.15154423
0003a0 90 56 e3 bd ad 45 77 be bc 06 32 be d1 13 52 be
       -0.11100495 -0.24147673 -0.17385381 -0.20515372
0003b0 bc 23 fe be 37 cf cc be 4b 07 76 be 45 71 ba be
       -0.49636638 -0.40001842 -0.2402622 -0.36414543
0003c0 1d af b5 bf b8 cf 7d bf 46 40 42 3f 72 59 0d be
       -1.4194065 -0.9914508 0.75879323 -0.13803652
0003d0 92 b5 77 bf 06 95 6b bd cd be 5d be bf 4c d5 3b
       -0.9676143 -0.057515167 -0.21654816 0.006509393
0003e0 af 3f b5 3c cd af 95 be f1 ab 9c 3d d7 36 96 be
       0.022125093 -0.29235688 0.07649983 -0.29338714
0003f0 66 bd 88 3c 48 92 33 be 5e 01 2d bf 2d 06 c4 be
       0.016691875 -0.1753627 -0.6758021 -0.38285962

model.0.bias f4 [512]
000000 d6 5f 81 be 34 c7 71 bd 89 71 55 3d cd d6 cd bd
       -0.2526843 -0.059027866 0.05211023 -0.100507356
000010 4c bb 06 be 1d 02 97 be 7e 2c 09 be 6d 8d 10 bd
       -0.13157386 -0.294938 -0.13395879 -0.035291124
000020 a4 59 bd be 7c 65 b0 be b3 95 24 3f 47 88 e6 bd
       -0.36982453 -0.34452426 0.6429092 -0.112564616
000030 7a 99 76 3b fb 85 8a be 77 b8 0a 3e 16 29 e4 bd
       0.00376281 -0.27055344 0.1354693 -0.11140649
000040 8a b7 20 3e 5f 1f ae 3d 27 2b 75 be a7 d9 a7 be
       0.15695015 0.08502077 -0.23942243 -0.32783243
000050 4b ad 5b bf 8f dd e1 be 88 a5 2c bf 70 bb e3 bc
       -0.858113 -0.44114348 -0.6744008 -0.027799338
000060 83 bb 9c 3e ec ca b0 be 5f 6e 1e 3d 89 6c fe bb
       0.3061181 -0.34529817 0.038679477 -0.0077644032
000070 be 24 38 be af 38 25 be f3 2f 07 3b 10 ec 6a be
       -0.17982766 -0.16134904 0.0020627945 -0.22941613
000080 ef f9 1a bf 87 b6 49 be 7a e9 8e be 2c 25 22 be
       -0.6053762 -0.19698535 -0.27912503 -0.15834492
000090 d0 72 38 be c8 d3 9f be d1 52 fb ba 8d 4c d1 be
       -0.18012547 -0.31216264 -0.0019174461 -0.40878716
0000a0 cb 09 cd 3e 8f 10 f3 bd cb 06 af bc 38 36 27 be
       0.40046534 -0.11868393 -0.021365544 -0.16329277
0000b0 2f 6b 4f bf 33 e5 9e be c9 65 80 be 56 2f 81 be
       -0.81022924 -0.3103424 -0.25077656 -0.25231427
0000c0 e0 2c df bc 14 b2 99 be 91 94 9a be ee 13 a5 bd
       -0.027243078 -0.30018675 -0.30191472 -0.08060442
0000d0 e0 ea 6f bd 86 8c b0 bd 06 70 d1 be 22 e9 85 be
       -0.058573604 -0.08620553 -0.4090578 -0.2615443
0000e0 1d 85 41 bd 0a 4a 92 3d 3f 1b 09 3d b0 a6 3f be
       -0.047246087 0.07143028 0.03347325 -0.1871593
0000f0 cd cd d6 bc 93 8f a8 bb 39 07 44 be 90 25 15 be
       -0.02622118 -0.0051440685 -0.1914338 -0.1456511
000100 8c 5b 68 bc 46 b5 10 bd d6 b7 5a be 78 85 6f bd
       -0.014181983 -0.035329126 -0.2135919 -0.058476895
000110 17 1f 93 be 35 d4 35 bd 37 42 a8 bd ff a1 16 3f
       -0.28734657 -0.04439183 -0.082157545 0.58840936
000120 a1 7e 4a be 16 36 e5 be 2a 6b 0d 3e dd 79 8b be
       -0.19774868 -0.44767827 0.13810411 -0.27241412
000130 e8 b9 cf bd 92 ea 3d be b5 be 50 be 84 fa 39 bf
       -0.10142881 -0.18546513 -0.20385249 -0.7264788
000140 89 2a 44 3b 31 7a 72 3e 21 ba 9d 3e b5 3a bc bd
       0.002993258 0.23679425 0.30806068 -0.09190885
000150 7a 31 71 be c9 7e bf bd d9 db 7b be 94 6c 60 be
       -0.2355403 -0.09350354 -0.24595584 -0.2191642
000160 64 75 8f bd 48 92 ee bd d1 8b 1c bf 1d b6 7a be
       -0.07004812 -0.11648995 -0.6115084 -0.24483533
000170 24 ec 91 be 3d 14 82 3e fd 56 67 3f 9b 1f 2c be
       -0.28500473 0.25406066 0.9036711 -0.16808932
000180 40 54 c5 bd 6b b4 a6 be 9b a0 65 3d 7f c5 6b be
       -0.0963521 -0.32559523 0.05606137 -0.23024558
000190 7a 7f c3 be 48 04 b0 be 47 b5 20 be 8f 79 20 be
       -0.38183194 -0.34378266 -0.15694152 -0.15671371
0001a0 7d d5 33 be b3 9e a8 be b7 96 58 be 2c 7d 9e bd
       -0.17561908 -0.32933578 -0.21151243 -0.077387184
0001b0 2a 00 38 3f f0 08 37 be 81 fb ae bd 88 54 3e be
       0.7187525 -0.17874503 -0.08544064 -0.18586934
0001c0 33 6a 4f 3e d8 2f ae be 47 70 36 be 60 60 04 be
       0.20255356 -0.34020877 -0.17816268 -0.12927389
0001d0 a5 88 1d 3f 8a 74 73 be 9b c2 d9 be 19 2f de bd
       0.6153663 -0.23774925 -0.42531285 -0.10848827
0001e0 1d b6 4c bf b5 a9 82 be bd b0 a1 bd 5c 69 40 be
       -0.7996538 -0.255201 -0.07895038 -0.18790191
0001f0 6d c4 1e be 7f c1 b3 be bb 5b 27 be da ea b0 3e
       -0.15504618 -0.35108563 -0.16343586 0.34554178
000200 c5 78 5d be 5b 2a eb 3d 40 75 d9 bd a1 94 8f 3e
       -0.21628101 0.11482688 -0.10618067 0.28043082
000210 f1 ac 99 bd 61 7a c5 3c ac 5e 8e bd 6a 02 bd bd
       -0.07503689 0.024106206 -0.06951651 -0.09228976
000220 d5 cb bc bd 08 e4 3d bf a1 2b 26 be 3b 65 37 bd
       -0.092185654 -0.74176073 -0.1622758 -0.044774275
000230 bf c0 24 3e 53 b5 13 be fe 11 5a bc 3b a3 c8 3c
       0.16089152 -0.14424638 -0.013309954 0.024491897
000240 3c a8 d3 be 52 63 04 bf e3 af 3f be 1b e6 84 be
       -0.4133929 -0.5171405 -0.18719439 -0.25956807
000250 56 70 fd bd 47 ce bf be 11 d3 c2 be 54 34 4f 3d
       -0.12374942 -0.37462065 -0.38051656 0.050587013
000260 b3 ed 10 be a8 f8 c5 3b fb b9 43 be 59 b6 8a bd
       -0.14153175 0.006041605 -0.19113915 -0.06773061
000270 14 16 ab 3d 5e 86 3c 3d c0 13 60 be 8f 28 5e bd
       0.083538204 0.04602658 -0.21882534 -0.0542379
000280 e8 5c c5 bd 47 08 6a bd 4f 9f d7 3e b0 e6 8f be
       -0.09636861 -0.0571368 0.4211373 -0.28105688
000290 8a 16 76 be d9 33 12 be cf 1e fb bd b2 82 81 be
       -0.24032035 -0.14277591 -0.12261736 -0.25295025
0002a0 02 70 1b be 4c 88 77 bd 7c 49 1e bd 64 0f 13 bf
       -0.15179446 -0.060432717 -0.0386443 -0.5744536
0002b0 60 3c 80 bd 59 5d cc be c1 95 8e be 3e 83 88 be
       -0.062615156 -0.3991497 -0.27848628 -0.2666263
0002c0 ab b2 b0 be c7 50 47 3f 7a 44 54 be 3b 80 a9 3c
       -0.34511313 0.7785763 -0.20729247 0.020691028
0002d0 fa 5f cd be 31 c0 cc bd 64 82 ef bd c3 0f a4 be
       -0.40112287 -0.09997595 -0.11694792 -0.32043275
0002e0 b8 a5 cd bd ab be ec bd 33 60 32 be 27 d9 7c be
       -0.10041374 -0.115598045 -0.1741951 -0.24692212
0002f0 cf bf 7d be 3f 03 b8 be e5 0e fd bd 3c e5 12 3f
       -0.247802 -0.35939977 -0.123563565 0.57381034
000300 a5 fd df be 01 0c 98 be 0d eb 36 3e 05 c3 88 be
       -0.43748203 -0.29696658 0.17863102 -0.26711288
000310 0c 3f 75 be 49 f1 97 be 9c 16 8f bd 32 85 33 be
       -0.23949832 -0.29676273 -0.06986734 -0.17531279
000320 d3 55 28 3b c3 9a 06 3f 0c dc 6b be 39 53 b6 3d
       0.002568592 0.525799 -0.2303316 0.08902592
000330 1c fe 36 be 2a 62 93 be 0e eb 42 be ce a2 ed bd
       -0.17870373 -0.2878583 -0.19034979 -0.11603318
000340 53 7e 99 be 2d 13 81 be e0 37 86 be 51 53 47 3d
       -0.2997919 -0.25209942 -0.26214504 0.04866344
000350 93 a1 45 be 9c 2f fb 3e 71 24 b1 3e 6b dc cd bd
       -0.19299917 0.4905976 0.34598115 -0.10051807
000360 0e 62 45 be 9d fb 41 bc c1 f9 e7 be 33 f2 94 be
       -0.19275686 -0.011839774 -0.45307735 -0.29091033
000370 a6 57 54 3f 09 72 f4 bd 43 59 16 3d 8e 3f 62 3e
       0.8294624 -0.11935813 0.03670622 0.22094557
000380 66 ae 20 bf 05 16 b9 3d 69 d1 fa bd f8 e9 82 3d
       -0.6276611 0.09037403 -0.12246973 0.06392282
000390 d8 a9 b1 be 0d 13 33 3d 4f 65 59 be 2e 2d 9a be
       -0.34699893 0.04371934 -0.21230052 -0.30112594
0003a0 f3 ab 88 bd 0f b9 42 be dd 22 52 bd 02 94 f7 3c
       -0.06673422 -0.19015907 -0.05130278 0.030221943
0003b0 99 7f 88 be 5e c5 74 be 75 ce 5e be 14 4b 1b 3e
       -0.2665985 -0.23903415 -0.21758445 0.15165359
0003c0 d3 ba b9 be 0d 9c 13 be 94 1d 2d be 50 eb b1 3e
       -0.36275348 -0.14414997 -0.16905814 0.34749842
0003d0 14 93 7d be 31 9d c7 3d d7 74 6d bd 96 76 a6 be
       -0.24763137 0.09746779 -0.057972755 -0.3251235
0003e0 aa 6a 59 bd 27 e7 b1 bd bd 67 af bd 0e 32 54 39
       -0.05308024 -0.08686667 -0.085647084 0.00020236542
0003f0 97 1d 59 3f 4b 08 3d 3d a9 d4 93 be 98 6a 00 be
       0.84810776 0.046150487 -0.28873184 -0.12540662

model.2.weight f4 [256, 512]
000000 20 ba ce 3c 25 c2 d1 bc fe 00 b1 bc bb ee 46 bb
       0.025235236 -0.02560527 -0.021606918 -0.0030354697
000010 8d 36 2e bc 7d 6e 08 bd 69 51 bc bc 1e 87 e8 bb
       -0.010633123 -0.033308495 -0.022988038 -0.0070961853
000020 37 9a 87 bd c9 0e 8c ba 61 a9 bc bb 90 c1 c9 bc
       -0.06621211 -0.0010685559 -0.005757496 -0.02462843
000030 9d 1b f9 bc d2 c9 4e 3d 70 3f 86 bb a3 7b 86 bc
       -0.030408675 0.05048544 -0.004096918 -0.016416376
000040 02 9f 83 bd c1 77 ad 3c 32 02 b7 bb 7b 13 b3 3c
       -0.06426813 0.021175267 -0.0055849785 0.021859875
000050 3f 55 94 bc 95 fe 08 3c 32 06 dd bb c3 9f 88 bc
       -0.018107055 0.008361478 -0.0067451233 -0.016677743
000060 41 49 0e bd 56 81 37 3d 99 3e 63 bd 06 ef 69 bd
       -0.03473783 0.04480108 -0.05547962 -0.057112716
000070 0d 67 11 bc 83 0a 70 3d 1e d3 6b bd 3e 9a 13 bd
       -0.008874667 0.058603775 -0.057574384 -0.03603577
000080 78 e0 06 3b 18 4f 8a bd 00 38 fe b9 d0 f6 7f bd
       0.002058057 -0.06753367 -0.00048488379 -0.062491238
000090 1a ad 5c bd b6 8d 2e 3b 94 aa 6e 3c 13 89 1d bd
       -0.05387602 0.002663476 0.014567036 -0.038460802
0000a0 8e 03 aa bc a3 63 65 bd 41 4d 6c 3a 49 fa 64 bd
       -0.020753648 -0.056003224 0.0009014197 -0.055902753
0000b0 69 c6 62 bb cc 0f 01 3d 52 ea 96 bd e2 3c ee 3b
       -0.0034603125 0.031509206 -0.07368912 0.0072704414
0000c0 6a a0 a3 bd bd cb 1f bc 86 7c 2a bd 8c 63 dd bc
       -0.07989581 -0.009753165 -0.04162266 -0.027025007
0000d0 b4 4e 45 bd 51 b1 9e bb 14 19 4c ba 21 18 88 bd
       -0.04817076 -0.004842915 -0.00077857194 -0.06645227
0000e0 22 c3 ab 3c fc 16 d2 3b 35 ce a9 bc da 8b 00 bd
       0.02096707 0.0064114314 -0.02072821 -0.031383373
0000f0 be ae 7e 3d 76 21 c4 bc 68 42 40 3c 4e bf 89 bd
       0.062178366 -0.023941737 0.0117345825 -0.067259416
000100 3d 21 64 bd 80 a3 51 bc 53 ee 76 bd e7 18 90 bc
       -0.05569576 -0.012795329 -0.060285877 -0.01759
000110 1b 34 60 bd 12 2f 15 bd f2 5e d1 bc 51 f6 0f 3c
       -0.05473719 -0.036421843 -0.025557969 0.008786754
000120 3b 63 26 bc 5f d5 a8 bc 7a d3 82 3c d8 0c 4c bd
       -0.010155494 -0.020609556 0.01596998 -0.049816936
000130 89 a3 83 bd 64 07 fb bb 47 76 7e bc d3 93 f7 bb
       -0.06427676 -0.007660793 -0.015531129 -0.007555464
000140 aa 83 09 3a 41 29 ae 3c c8 c8 83 bc 67 92 9d b8
       0.0005245755 0.021259906 -0.01608695 -7.513613e-05
000150 e2 e2 27 3c c5 52 78 bd 93 c6 6b bd 86 2d 02 3d
       0.010246964 -0.06062581 -0.057562422 0.031781696
000160 7a 59 95 bc 52 4f 32 bb b1 f9 a5 bc 5f 13 06 3d
       -0.018231142 -0.0027207923 -0.020260664 0.032733317
000170 12 7c 71 bd 1a bb 27 bd b4 e6 63 bc 9b f4 7e 3d
       -0.058956213 -0.04094992 -0.013909984 0.062244993
000180 08 2e 85 3b 22 60 24 bd ba 4a 5f bd f4 5a 45 bd
       0.0040643252 -0.040130742 -0.054514624 -0.048182443
000190 94 01 5f bd 19 94 26 bd 13 5d 20 bd 91 fc bc bc
       -0.054444864 -0.04066858 -0.039151262 -0.023069652
0001a0 31 83 6c bd 2e 0b 40 3c fd 3d 38 3c 16 97 9f bc
       -0.0577423 0.011721415 0.011245248 -0.019481223
0001b0 3b 18 c5 3c f5 f7 43 bd cc 0d db 3c f9 cd 26 bd
       0.024059406 -0.047843892 0.026739977 -0.040723775
0001c0 64 58 2a bc dc 71 25 bd 30 fb af 3b c8 18 b6 3c
       -0.0103970505 -0.040391788 0.00537052 0.022228613
0001d0 4b d6 59 bb 55 cd c1 bc df 55 01 bd d1 c9 e7 3c
       -0.00332393 -0.02365748 -0.031576034 0.028294476
0001e0 98 1c f8 bc 5d 30 54 bc 2e 1c 2b bd 4b 63 81 bd
       -0.030287072 -0.012950984 -0.04177492 -0.06317767
0001f0 2c 77 8d bd 09 51 15 bd 44 78 91 bb 8e 1d cf bb
       -0.06907496 -0.036454234 -0.0044393856 -0.006320662
000200 c9 00 23 bc 23 e3 77 bd c0 36 62 bd 7d e6 cf bc
       -0.009948918 -0.06051935 -0.055227995 -0.02537846
000210 37 66 ae 39 8d 71 65 bd f9 17 84 bd f6 ce 76 3b
       0.00033264022 -0.056016494 -0.06449885 0.003765998
000220 0d 7c 46 3c ca 98 06 bd 41 35 55 bd 52 12 99 bd
       0.012114537 -0.032860555 -0.05205274 -0.074741974
000230 88 2d ab 3c 49 f2 77 3a 03 18 4c bd be dd c2 bc
       0.020895734 0.00094584055 -0.049827587 -0.023787376
000240 ee 79 e6 bc c9 49 63 3c ce 79 15 3d 5a 6f 49 bc
       -0.028134312 0.013872572 0.036493115 -0.012294615
000250 a3 7d 9f bc 7b bf 50 bd 80 e9 fc bb d8 f5 22 bb
       -0.019469088 -0.05096386 -0.007718265 -0.0024865773
000260 d8 21 21 bd 13 6f 6e bd 53 51 b1 bc b9 70 6d bd
       -0.039338917 -0.058211397 -0.021645224 -0.05796883
000270 65 4e 65 bd 62 de 8d 3c a0 0f 81 bd 4e 40 f1 bc
       -0.055982966 0.017317954 -0.06301808 -0.029449608
000280 97 0e 78 bb ee 5a fe bc 64 d9 00 bd 66 75 90 bd
       -0.0037850493 -0.031049218 -0.03145732 -0.07053642
000290 81 d4 9a 3c c4 7b d5 3b 00 ad 9d bc a7 69 b2 bc
       0.018900158 0.006514998 -0.019247532 -0.021778895
0002a0 47 ef f9 bc 94 e6 6c 3b 33 18 5f bd 19 cb 03 bc
       -0.030509604 0.0036148177 -0.054466438 -0.008044028
0002b0 67 db 48 bd 68 d9 40 bd 9d 17 ab 3c 1e ec a4 bc
       -0.049037363 -0.047082335 0.020885283 -0.02013212
0002c0 9e 63 64 bd 24 a4 46 3c 05 4f 41 bd f4 8d 79 bd
       -0.055759065 0.012124095 -0.0471945 -0.060926393
0002d0 ab 37 84 bd 3b 77 8b 3c 05 a8 60 3c ba 48 7e 3c
       -0.0645593 0.017024627 0.013711934 0.015520269
0002e0 b4 6e 08 bd 8b b6 e0 3b 8b 88 28 bd 29 99 45 3d
       -0.0333087 0.0068576983 -0.041145843 0.048241768
0002f0 9a 23 62 bb aa 23 89 bc 8d 2b 51 bd 95 5e 6c bd
       -0.0034506083 -0.016740639 -0.051066924 -0.057707388
000300 2c 30 87 bc 9d c6 88 bd 36 fc 00 bd 1c e3 a4 bb
       -0.016502462 -0.066785075 -0.031490527 -0.0050319564
000310 28 56 44 3c 66 bf 05 bb ba ff b2 3c 59 b2 97 3c
       0.011983432 -0.0020408272 0.021850456 0.01851766
000320 6d 46 0c 3c 71 97 02 bc da 68 16 bd 81 5b 96 bc
       0.008561713 -0.007970677 -0.036721088 -0.01835418
000330 19 5f 7c bd af 89 59 bc eb 96 10 bc a4 5b c3 3c
       -0.06161413 -0.013277455 -0.008825044 0.023847409
000340 4b 06 ab 3b 38 98 e6 bc da ef 88 bc 42 5d 39 bd
       0.005219256 -0.028148755 -0.016715933 -0.045254953
000350 e5 ae 6c bd 96 53 05 bc f3 d9 48 3b 73 28 72 bd
       -0.05778398 -0.008137604 0.0030647486 -0.059120607
000360 e2 0f 9a 3c ca 99 ec bb 51 86 7e 3d 36 27 1e bc
       0.018806402 -0.0072204815 0.062139813 -0.009652903
000370 89 ed 10 bd 1c 28 7a bd cc 9a 86 bd cd 8c 6f bd
       -0.03538278 -0.061073408 -0.06572494 -0.058483887
000380 42 fc c9 bc 54 63 52 bd e6 06 4f bd 14 ea ff bb
       -0.024656419 -0.051364258 -0.05054369 -0.0078098867
000390 be a5 19 3c f5 0b 8a bd 7b dd 50 bc 99 bd 80 bd
       0.009377895 -0.06740562 -0.012748118 -0.06286163
0003a0 82 f3 cb bc dd 48 2f bd 0e 61 87 bd ad e3 70 bb
       -0.024896387 -0.042794097 -0.066103086 -0.00367568
0003b0 0c b7 8a bb 2d 8d 38 bb 76 b7 0e ba d6 96 78 bc
       -0.0042332467 -0.002816032 -0.0005444208 -0.015172681
0003c0 ac d5 cc bb 90 9c 4b 3c f0 7c 12 bd de 38 78 bd
       -0.0062510576 0.012427464 -0.03576368 -0.060601108
0003d0 e6 88 5c bd 29 1c 25 bc 52 5f 84 bd 25 1c 85 bc
       -0.053841494 -0.010077515 -0.064634934 -0.016248772
0003e0 33 f2 95 bd e9 c8 88 bd 43 80 7e bd 9d 79 07 bd
       -0.073215865 -0.066789456 -0.06213404 -0.033074964
0003f0 c0 c3 27 3c 09 49 17 bd ca bf 22 bd 3a d7 c2 bc
       0.0102395415 -0.036934886 -0.039733686 -0.023784269

model.2.bias f4 [256]
000000 fc 4c ec bb 31 af 40 bd 20 43 d8 3e 36 84 8f bd
       -0.0072113257 -0.047042076 0.42238712 -0.07007639
000010 52 db 8c be 77 2a 98 bd eb 06 86 bb 84 51 7c bd
       -0.27511078 -0.074299745 -0.00409018 -0.061601177
000020 d4 aa 51 bd 74 3a 24 bd 22 db 30 bc e0 af 47 bd
       -0.051188305 -0.040094808 -0.010794433 -0.04875171
000030 96 83 9e 3c 3c 1a 69 bd 48 e7 f0 bb 7e 73 5b 3b
       0.019349854 -0.056909785 -0.0073517896 0.0033485587
000040 77 64 5d bd 5b af c5 bd e4 72 12 be 38 0e da bc
       -0.05405089 -0.09652587 -0.1430164 -0.026618108
000050 47 35 b3 bd ef 96 70 bd cb 0a bd bd e0 cf 24 bd
       -0.08750396 -0.05873769 -0.09230574 -0.040237308
000060 8e 78 71 bc 9e c9 1c be 57 15 8a 3c 21 a5 bb bc
       -0.014738215 -0.15311286 0.016855879 -0.022905888
000070 5d 09 61 bd 9c d3 c1 bd 6d 4e 73 bd fe ad 20 3d
       -0.05494057 -0.094641894 -0.059400965 0.039228432
000080 a5 68 3f 3b c7 8d 2f bd 34 d1 9e bc 38 e4 37 be
       0.002920666 -0.04285982 -0.019386865 -0.17958152
000090 0b 37 5b bc d2 6f 74 3c 11 54 37 bd 06 29 94 be
       -0.0133798225 0.014919238 -0.044757906 -0.28937548
0000a0 af 33 71 3d e5 82 8e 3c df af 8b be f7 64 53 3c
       0.05888718 0.0173964 -0.27282616 0.01290249
0000b0 8e 8e 91 bd 08 8c c0 bc 4b b2 0d bd e1 69 79 bd
       -0.07107268 -0.023504272 -0.03459386 -0.06089199
0000c0 e2 7d 84 bd 9f 1f 9a bc f0 53 32 3f d6 6a 3c be
       -0.06469323 -0.018813906 0.6965933 -0.1840013
0000d0 1c 2e 4f bd 74 31 fa bc 3b 85 d8 bd 3e b9 3f bb
       -0.050581083 -0.03054116 -0.10572287 -0.00292547
0000e0 79 ed 43 bc 55 d3 c6 bd 9f ee 8c bc 9d 48 8c bd
       -0.011958473 -0.09708277 -0.017203627 -0.068497874
0000f0 54 c4 99 bc b5 18 13 bd b6 7b 55 be 1d d1 84 3b
       -0.018770374 -0.035912234 -0.20847973 0.0040532486
000100 29 9e d3 3b 03 89 cf 3c 7f 8e ab bc cc 05 18 3c
       0.006458063 0.025333887 -0.02094197 0.009278726
000110 84 91 b7 bc b3 e7 63 bd f6 fa 19 be 4b d6 24 bd
       -0.022408254 -0.055640887 -0.1503714 -0.04024343
000120 fe 75 43 3e 81 03 c2 bc ac 19 29 3c 66 c5 4e bd
       0.19087979 -0.023683311 0.010321062 -0.050481223
000130 e1 3e 27 bd 14 90 e8 bc 62 9b 37 bd db 99 35 be
       -0.04083145 -0.028389014 -0.04482592 -0.17734472
000140 39 27 16 bd 50 8b 53 bc 0f d3 f4 bc bb bd 85 bd
       -0.0366585 -0.012911633 -0.029885797 -0.06530329
000150 ba 0b ae bc 99 cb e1 bb b6 65 80 bd d5 f3 9e 3c
       -0.021245826 -0.006890726 -0.062694 0.019403378
000160 fb 7c 82 bd 2a ce f7 bc 8a 30 33 be ff 4d 15 bb
       -0.063714944 -0.030249674 -0.17498985 -0.0022782085
000170 eb 31 f3 be f6 ce 98 3d f5 2d ed bd 5e 47 2f bd
       -0.47499022 0.0746135 -0.11581031 -0.04279267
000180 ee f0 9d 3c 60 52 13 3c 83 f3 33 bd 29 a1 86 3e
       0.019279923 0.008991808 -0.043933403 0.2629483
000190 83 da 5b bd 56 0a 39 be aa da de bd d0 3b 85 3e
       -0.053675186 -0.18070349 -0.108815506 0.26022196
0001a0 b7 39 bf bd f6 2f 73 bc 2d 8a 32 bc 93 85 50 bd
       -0.0933718 -0.014842978 -0.0108972015 -0.050908636
0001b0 50 81 83 bd 1c 97 69 bb 97 1c 7b bd f7 a6 40 bc
       -0.06421149 -0.0035643047 -0.061306562 -0.0117585575
0001c0 ce ea 09 be 34 e2 16 be 6c 75 e7 3b 76 e8 42 be
       -0.13468477 -0.14734727 0.0070635583 -0.1903399
0001d0 22 7d 20 bd 33 26 c5 bd 2d fa 34 be 1b 79 9b 3c
       -0.039181836 -0.096264265 -0.1767356 0.018978646
0001e0 b4 90 db bc 73 5b 3b be e7 a8 2d bd 52 65 4f bd
       -0.026802398 -0.18296604 -0.042397406 -0.050633736
0001f0 59 1d b4 be f3 86 9c bd cb 72 e9 bc f9 d2 f7 3b
       -0.3517864 -0.07642927 -0.02849712 0.0075629917
000200 9d 51 78 bd 32 37 c6 3d 4e 75 9c bd 2b aa 31 3d
       -0.060624707 0.096784964 -0.076395616 0.043375175
000210 ff 0c 4b bd 01 07 13 3f 8f 59 ec bd c7 82 89 bd
       -0.04957294 0.5743256 -0.115405194 -0.06714397
000220 95 94 2c be b8 ac 75 bd dd d3 6d bc 21 4e 6b bd
       -0.16853555 -0.05997917 -0.014515844 -0.057447556
000230 fd d0 9a b8 ea 9c 55 bd 02 98 dd bb 72 f9 0c bd
       -7.382219e-05 -0.052151598 -0.0067625055 -0.034417577
000240 88 f7 7a bd bf ba c3 3a 00 77 a3 be fb 02 4b 3c
       -0.06127122 0.0014932974 -0.31926727 0.012390847
000250 6b 71 14 3c 26 c9 94 3c d7 68 28 be 58 f1 66 bd
       0.009060244 0.018162321 -0.16446243 -0.056382507
000260 cb 9b a1 bd 09 10 11 bb ad 38 db bc b8 99 3e bd
       -0.07891043 -0.0022134802 -0.026760424 -0.046533316
000270 72 89 93 3d 72 ad 72 bd 32 1b a9 bc 1c 39 d1 bb
       0.0720395 -0.05924744 -0.02064285 -0.006384982
000280 40 12 8a bd 8e c6 a6 bb 84 09 b4 bc fa 56 91 bd
       -0.06741762 -0.0050895875 -0.021977194 -0.070966676
000290 80 5f ac bc c3 a4 66 bd 84 79 da 3c 82 9b bf bd
       -0.021041632 -0.056309473 0.026669271 -0.09355833
0002a0 3a 3f 18 3d d4 b6 91 3c 10 d8 e8 bc 8b 22 c2 bd
       0.037169673 0.017787375 -0.02842334 -0.09479245
0002b0 0d 4f 5e bd fa dd fe bd 90 5a 5e bd 6d 04 8e bd
       -0.054274607 -0.124446824 -0.054285586 -0.06934438
0002c0 b7 06 4c bd f7 88 d4 bd 91 8b 5a bb 65 6e 5c bd
       -0.04981109 -0.103776865 -0.0033347348 -0.053816218
0002d0 20 c9 4c bc 1e 36 91 bc e3 f7 9a bc a7 17 72 3c
       -0.012499124 -0.017726 -0.01891703 0.014776147
0002e0 9c 1e 9b bd cf b1 4c bc b0 06 87 3c e3 c0 0a be
       -0.07574198 -0.012493565 0.016482681 -0.13550143
0002f0 81 2f 81 bd 7e 28 c4 be 3f 82 32 be 4a ef 27 3c
       -0.06307889 -0.38312143 -0.17432497 0.010249922
000300 12 9c 98 bc c6 2a 2c bd 88 e2 8e bd c0 84 b2 bd
       -0.018629108 -0.04203298 -0.06976801 -0.08716726
000310 70 b4 c2 3e 3d 88 53 bd 79 e6 8c bc 9c 48 66 be
       0.38028288 -0.0516436 -0.017199742 -0.22488636
000320 09 43 68 bc 66 19 82 bd 10 a3 87 bd cc 77 0f be
       -0.014176139 -0.063525006 -0.066228986 -0.14010543
000330 46 eb 50 bd e6 c9 72 bd 66 de 2d bd d3 e8 d1 bd
       -0.051005624 -0.059274577 -0.042448424 -0.10249486
000340 07 93 a6 bc 4c ff 04 bd fc 1a e4 bc 7d cd 76 bd
       -0.02033378 -0.032470033 -0.027844898 -0.060254563
000350 24 ff df bc 36 29 5b bc 96 f9 8c 3d 67 40 76 be
       -0.02734334 -0.013376525 0.06883542 -0.24048005
000360 80 7b 4d bc d5 ed e7 bd 01 f4 4d bc 19 1f f5 bb
       -0.012541652 -0.1132466 -0.012570382 -0.007480514
000370 ab 49 2d bd d2 59 55 3c 4f 24 2b bc 51 a0 0c be
       -0.042306583 0.013021903 -0.010445668 -0.13733031
000380 e6 cd 12 3d f0 e0 d3 bd 09 c2 28 bd b7 c4 db ba
       0.03584089 -0.10345638 -0.04120067 -0.0016767
000390 89 30 85 3e 76 80 cf bc 74 5f f1 bd 40 51 fc bc
       0.26013592 -0.02532981 -0.11785784 -0.030800462
0003a0 00 a0 e6 bc 5b 19 b0 bb fe fe 92 bd c3 0d dd bc
       -0.028152466 -0.0053741164 -0.07177542 -0.026984101
0003b0 7d da 21 3e a8 21 91 bc bf 2b 22 bd b8 8b c0 bc
       0.15806003 -0.017716244 -0.0395925 -0.023504123
0003c0 71 70 8e bd 1c eb 4a bc e5 db be bd 99 1e 7f 3e
       -0.0695504 -0.012385156 -0.09319285 0.24914016
0003d0 92 e0 0a be 1c 24 08 be e4 43 14 be f3 46 f8 bc
       -0.1356223 -0.13295025 -0.14479023 -0.030307269
0003e0 de 05 a0 bd f2 0e 36 3f 6f 5e 1b bd 08 ae 02 be
       -0.07813619 0.71116555 -0.037931856 -0.127617
0003f0 85 29 83 bd 04 a1 88 3c e4 97 85 3c 34 6f e3 bc
       -0.064044036 0.01667834 0.016307779 -0.027762987

model.4.weight f4 [64, 256]
000000 47 73 20 3c 43 95 81 bc 6b 7d bf bc 47 9f f2 bb
       0.009793109 -0.015818244 -0.023375234 -0.0074042412
000010 f1 2d 82 bd af 67 ab bd 66 68 21 bc f5 24 97 3d
       -0.06356419 -0.083693855 -0.009851551 0.07380096
000020 66 45 44 3a 08 ad 21 3d fb c0 0a bd 7a 03 ca bc
       0.0007487148 0.039471656 -0.033875447 -0.02465986
000030 b2 c7 de bc 6a 07 23 be 29 ef 4a 3d 81 2c 28 bd
       -0.027194832 -0.15920797 0.049544487 -0.041058067
000040 cb c9 ef bc fc 52 e7 3c 97 e0 bd bd 7a 02 ac 3b
       -0.029271027 0.028237812 -0.09271353 0.0052493187
000050 7b bd 7a bb 28 8f ad 3c 0d 41 0e 3b b4 36 19 3d
       -0.0038259912 0.021186426 0.0021706254 0.037405685
000060 dd c1 03 be 7b 0c f8 3c 0a f2 51 bd b1 7a 0c bd
       -0.12866922 0.030279389 -0.051256217 -0.034296695
000070 60 3b 64 bd 05 87 3f be 16 c7 8b bd b8 ce 23 bd
       -0.055720687 -0.1870385 -0.06825082 -0.039992064
000080 d8 ca 40 3d 74 fa 1d bd 67 8e 85 3d 4a 5c 28 3d
       0.047068447 -0.03856893 0.06521302 0.04110364
000090 63 8e 90 bd 72 4b 9f 3d 6e 1d 08 3c 92 54 36 bc
       -0.07058408 0.07778062 0.008307798 -0.011128562
0000a0 9e 7a 5c be 1c 79 8f bc 1c 41 b6 3d 9a 69 0a bd
       -0.2153115 -0.017513804 0.088991374 -0.033792116
0000b0 6e 9c 6a 3c f0 1e 69 bc 97 26 fc bc 24 ef 2b 3c
       0.014319522 -0.0142285675 -0.03078012 0.010494027
0000c0 43 1f 60 bd 80 f1 ee bb 3b a4 26 bf 7b 72 cd bd
       -0.054717313 -0.0072919726 -0.65094346 -0.10031601
0000d0 ae f4 9f 3d 68 c4 11 3d a1 11 97 3d 0e d5 81 3c
       0.07810341 0.0355877 0.07376409 0.015848663
0000e0 6f 26 27 bc 05 2b d8 bd 2b 44 33 bd bb 74 99 bd
       -0.010202034 -0.1055508 -0.043766182 -0.07492968
0000f0 3c 75 9e bc 30 f1 b3 bc f2 bf e1 3b fa 52 98 bb
       -0.019343011 -0.021965593 0.0068893367 -0.0046485635
000100 8a 7c 42 3d 27 8e 80 bd 94 3e 29 bd 6d 40 82 3d
       0.04748205 -0.062771134 -0.041319445 0.063599445
000110 fd cd 95 3c 1a 64 d3 3c a3 95 64 3c 1c 02 93 3d
       0.0182867 0.025804568 0.013951692 0.07178137
000120 7a d7 52 bd 3b 92 22 3d 73 4e 14 3d d5 45 06 bd
       -0.051475026 0.039690237 0.036207628 -0.03278144
000130 67 47 d8 3b 0c 56 1a bd 9f 3a 98 bc 53 55 bd 3c
       0.0066003087 -0.037679717 -0.01858264 0.023111975
000140 e1 f8 23 bc f1 d8 05 bd 2e a5 1a bd ea 54 c0 bc
       -0.010008068 -0.032677595 -0.037755184 -0.02347799
000150 8a 3d 25 3d 51 dd 13 bd aa 5d 3a 3c 48 25 e7 bc
       0.04034189 -0.036099736 0.01137487 -0.02821602
000160 9c 78 2f 3d 23 74 38 3d de c5 94 bd fc 75 21 3c
       0.04283963 0.04503263 -0.07264303 0.00985479
000170 f9 fb 3a bd 93 e7 a9 bd eb 8c f2 bd b4 a2 27 3d
       -0.045650456 -0.082961224 -0.11843284 0.04092665
000180 2e 7a 2c bd b7 34 6b 3b 3c 54 f7 bc 15 62 0b be
       -0.042108707 0.0035889575 -0.030191533 -0.13611634
000190 8c ee 1c 3d 56 48 0d 3b 76 88 16 bd cc bb c8 bc
       0.038313434 0.0021558008 -0.036751233 -0.024503611
0001a0 87 66 3d bd 0c 68 01 bd 17 a2 47 3d 80 e6 48 bb
       -0.046240356 -0.031593367 0.048738565 -0.0030654967
0001b0 71 6b 2e 3d 60 ab 78 3c 5a 3d 88 3d 2a 0e 1c 3d
       0.042582933 0.015177578 0.06652327 0.038099445
0001c0 ce e7 8b 3c 8e b5 57 bd 14 9a 5f 3b 86 67 39 be
       0.017078307 -0.05266338 0.0034118937 -0.18105897
0001d0 20 59 08 3d b1 37 14 3d 8c 0a 76 bd 70 f6 26 3d
       0.03328812 0.036185924 -0.060068652 0.040762365
0001e0 f8 88 81 3b 5c f3 0e bd 1d 4e 2e 3c b2 71 33 3c
       0.0039530955 -0.034900054 0.010638741 0.0109524
0001f0 52 5d cf be ce a2 3b be 46 8c 05 bd 31 95 ff bc
       -0.40500885 -0.18323824 -0.03260448 -0.03119907
000200 5d d3 34 bd 52 75 29 3e f8 b1 4a 3d 91 a2 4e bd
       -0.044146884 0.1654866 0.04948613 -0.050448004
000210 b8 59 6c 3d 7b e7 85 bd 30 95 5b 3d 7d f5 0a bc
       0.05770275 -0.06538292 0.053609073 -0.0084813805
000220 56 70 cc 3b 54 57 65 bd 66 ca b4 39 82 30 e6 bc
       0.0062389774 -0.055991486 0.00034483074 -0.028099302
000230 9d 14 bc bc 2a 89 90 3d 6d ab 8a 3c 21 5a 14 3d
       -0.022959048 0.07057412 0.016927445 0.036218766
000240 a7 30 ce bc 0e 7a b0 bd 36 fc 62 bd e8 dd d7 bb
       -0.025169684 -0.0861703 -0.05541631 -0.0065877326
000250 22 ca 34 bb 54 7d 9d bc 25 cf 3a bc d9 cd cd bc
       -0.00275863 -0.0192248 -0.011401926 -0.02512257
000260 80 cc ba bc 9c d4 71 bc 62 fd 17 3b 02 1c d1 3c
       -0.022802591 -0.014760163 0.00231918 0.02552605
000270 f8 08 45 be 14 bf 88 3c 97 11 8a bc d2 34 15 3d
       -0.19241703 0.016692676 -0.01685409 0.036427327
000280 87 1d df bd 1b 44 96 3d 97 01 55 3d a3 de e4 bb
       -0.10894304 0.07337209 0.05200347 -0.006984548
000290 47 fc a4 3d 40 de 65 bd 50 d1 f1 bd 5a 1c b2 3c
       0.080559306 -0.056120157 -0.11807501 0.021742035
0002a0 2b 9f 9b bd b1 44 a3 3d f1 be d2 bc 19 da 4a bc
       -0.07598718 0.07972086 -0.025725814 -0.0123811
0002b0 74 e6 4b 3d 41 93 b5 bd c9 08 53 3d 14 5c d0 3c
       0.049780324 -0.08865977 0.05152205 0.025434531
0002c0 63 ce 21 bd 0a 5f 89 bd e3 db 47 3d 47 1d d3 bb
       -0.039503466 -0.067075804 0.048793685 -0.006442699
0002d0 e4 ff 91 3d b7 91 fe 3c 88 5e 16 bd bc b6 1d bc
       0.071288854 0.031075342 -0.036711246 -0.009626087
0002e0 39 60 40 ba ed 7b 11 be aa dc ce 3b 6c 09 43 bd
       -0.0007338557 -0.1420743 0.0063129263 -0.047616407
0002f0 df f9 04 3d dd 01 10 bd 4a 37 ad bc 88 20 77 3c
       0.03246486 -0.035158027 -0.021144528 0.01508344
000300 b6 02 86 bd 00 a8 c8 bc c3 8b 8b bc 5c 3d a0 3d
       -0.06543486 -0.024494171 -0.017034417 0.07824203
000310 7b 5b f3 bd 15 5d f2 3b 98 75 e1 bd 8a ae bb bd
       -0.11882683 0.00739635 -0.11008757 -0.0916415
000320 7b ca ab bd ca 46 4d bc ff 88 b1 3b c2 c3 19 bd
       -0.083882295 -0.012529084 0.0054179425 -0.037540205
000330 dd 62 ca bd 5f 0d 83 3d dc 4d 57 3d de 50 01 bd
       -0.09882138 0.06399035 0.052564487 -0.03157126
000340 32 6c 0b bc cb ea f9 bc 7c f3 92 bc 7f ee 7f 3d
       -0.0085096825 -0.030507466 -0.017938368 0.062483307
000350 93 13 ad 3d d8 20 1d bc bb 86 04 3e 4a 17 05 bd
       0.08450999 -0.00959035 0.1294202 -0.032492913
000360 72 d4 cd bd c0 a1 78 3d d2 0f 29 3d e5 2c 1c 3d
       -0.10050286 0.06070113 0.041274853 0.038128752
000370 5e ab 1d bd 24 47 8b be b3 3c 3a 3d f0 4f af bd
       -0.038493507 -0.27202713 0.045468044 -0.08560169
000380 7b 5e c2 bd 4d 91 fe 3c e4 6b cd bc f1 a3 8b 3d
       -0.09490677 0.031075144 -0.02507586 0.06818379
000390 ce 6d c5 3b 19 63 9d 3a 65 a6 ec 3c 4a 7f 67 3d
       0.0060250526 0.0012007683 0.028887937 0.056517877
0003a0 56 d4 c2 3c 9a 4f 31 be 23 a0 af 3c 67 42 10 3d
       0.02378289 -0.17315522 0.021438664 0.035219576
0003b0 5f 7d 5b be 8a 02 80 bd 32 b2 52 bc 5f 0f 1d bd
       -0.21434544 -0.06250484 -0.012859868 -0.038344737
0003c0 67 e2 5a bd e2 71 72 bd 8c f8 d4 bd f2 a9 94 3d
       -0.05343857 -0.05919064 -0.10398969 0.07258977
0003d0 94 85 0a 3e 55 47 36 bd da 16 8c bd d3 56 ef 3c
       0.13527519 -0.04450162 -0.06840296 0.029216206
0003e0 96 2a d9 bd 33 3f d2 be 3a 6d 1b 3d 9b d7 b4 3d
       -0.10603826 -0.41063842 0.037945963 0.08830186
0003f0 3a 64 0e bd 8a 37 39 bd fa f2 e0 bc 8c 71 4d 3d
       -0.034763552 -0.04521898 -0.02745961 0.050157115

model.4.bias f4 [64]
000000 e9 94 a8 be da 42 a9 bc 83 a0 24 bc 6f c8 13 be
       -0.3292611 -0.02066176 -0.010048035 -0.14431928
000010 19 62 66 3e c4 7d 48 be 69 c7 aa be e0 11 c2 be
       0.22498359 -0.19579226 -0.33355263 -0.37904263
000020 51 9b 74 3d d8 19 15 bd 4a 08 dc bd 94 6e d2 be
       0.059718434 -0.0364016 -0.107437685 -0.4109999
000030 e4 78 aa be 4a 86 be 3c 1f 23 1b be 6a 65 93 bd
       -0.33295357 0.023257393 -0.15150116 -0.071970776
000040 72 6d cb bd 72 7a a0 3e 80 4b 18 bd e9 33 05 be
       -0.099329844 0.31343418 -0.037181377 -0.13008083
000050 7c 46 17 be 69 9b 06 be ff c6 a4 be 48 d0 29 be
       -0.14772981 -0.13145222 -0.32183072 -0.16583359
000060 59 7e 39 be 2a 0c 5b be 9a 01 a0 3e f5 2e 94 bd
       -0.18114604 -0.21391359 0.31251222 -0.07235519
000070 1b d6 30 3c 09 73 43 be 5c ea 23 be 94 8f a0 3c
       0.010793234 -0.19086851 -0.1600737 0.019599713
000080 f2 04 06 be bc dd ee bc dd 41 99 3d 26 55 10 be
       -0.13087824 -0.029158466 0.074832655 -0.14094982
000090 6c 4d d3 bd 17 c4 d6 3a 60 96 f0 be 92 b3 5a be
       -0.103175014 0.0016385344 -0.46989727 -0.21357563
0000a0 6e 2a a5 3e c4 17 d6 be 4d e8 a2 bd 87 6a 32 be
       0.32258934 -0.41815007 -0.07954464 -0.1742345
0000b0 cd 01 01 3d fa 98 09 be 13 ed c8 3c b5 6c 94 bd
       0.031495858 -0.13437262 0.024527108 -0.07247297
0000c0 df 7e 96 3b 6b 91 52 be cb 0c 34 bb 51 55 b8 be
       0.004592761 -0.20563285 -0.0027473446 -0.3600259
0000d0 43 ac ec 3c 8a 5f af bd 27 34 02 3d f5 5b 2e be
       0.028890735 -0.085631445 0.031788018 -0.17027266
0000e0 bf 0b 43 be 80 c9 12 be 93 8d 98 bd e5 c3 ab bb
       -0.1904745 -0.14334679 -0.07448878 -0.0052418583
0000f0 66 67 bd bd 80 6a 32 3d e8 06 db bd 9c c3 40 bd
       -0.09248237 0.043558598 -0.10694677 -0.047061548

model.6.weight f4 [1, 64]
000000 d7 72 4f 3c f6 e5 a8 3c 43 08 1f 3c c4 56 4f bb
       0.012661657 0.020617466 0.00970656 -0.003163741
000010 ef dd 59 bd 20 02 43 bc a3 c7 ac 3d b5 1f 25 3c
       -0.053190168 -0.011902362 0.08436515 0.01007836
000020 aa 5b c8 3d 3e 69 0d bc d9 9c d7 bd f1 52 f9 bd
       0.097831085 -0.008631049 -0.10527963 -0.12174023
000030 8b 36 45 bd 48 49 97 bc 25 6e 00 3d 7e c6 b1 bd
       -0.04814772 -0.01846756 0.031355042 -0.086804375
000040 ce 97 86 be e2 c5 1e 3e 2a 6b 22 bd 6c c9 4e 3c
       -0.26287693 0.15505174 -0.03965298 0.012621265
000050 a6 50 f1 bd a3 60 3f bb d2 4a 37 bd e0 68 e4 bc
       -0.117829606 -0.0029201887 -0.04474909 -0.02788204
000060 c1 df ae bd 52 37 22 3d 86 05 40 be 49 a9 6e bc
       -0.085387714 0.03960354 -0.18752107 -0.014566728
000070 e6 7a ad bd 7d 4a 5b 3d 44 11 10 3e 31 01 b6 3b
       -0.08470707 0.053537834 0.14069086 0.0055543412
000080 a1 52 42 3d 3a 81 3b 3d 23 19 85 bc ea ad 43 3d
       0.047442082 0.045777537 -0.016247338 0.04777328
000090 e8 86 c8 bc 75 a3 c2 3c b3 d0 62 3c 7d 4c 5f 3d
       -0.02447839 0.023759583 0.013843703 0.054516304
0000a0 87 7b 95 be 97 23 a1 bc a9 37 ec bc 59 df 00 3e
       -0.29195806 -0.01967029 -0.028835135 0.125852
0000b0 e1 f6 86 bd fe 7b 15 bc 62 89 a7 3d b1 c0 22 bd
       -0.06590057 -0.0091238 0.081805006 -0.039734546
0000c0 1d 26 55 3d 37 42 e5 bc a4 28 ea 3b 79 4d 62 bd
       0.0520383 -0.027985675 0.007145958 -0.055249665
0000d0 da 59 00 ba a7 62 23 3b 82 d3 5c 3d 12 f7 ae be
       -0.00048962014 0.0024930628 0.053912647 -0.34172875
0000e0 b4 91 c3 bd 39 3e de bb 10 02 25 bc 92 d6 93 3c
       -0.09549275 -0.00678232 -0.0100712925 0.018046651
0000f0 db 95 4c bd 3d 40 aa 3c 84 08 85 bc 17 79 0d bb
       -0.0499476 0.020782584 -0.016239412 -0.0021587068
