model_weight/critic/14_14 01:51:13 std 0.5 lr_critic_0.004- gamma_0.9 memory300 critic_weight.pth (torch, 645007 bytes, 7 tensors)

model.0.weight f4 [512, 24]
-2.4365985 0.82736725 -0.36007723 0.90838474 0.036506876 -0.024227606 0.10384295 -0.0045460477
-0.0076746596 0.19545028 0.006870144 0.07682297 -0.0012199603 0.019293157 0.06028822 -0.022398
-0.2500772 -0.056687776 0.07557775 -0.019813338 -0.070271656 -0.08568312 0.03750936 -0.05393248
1.1683179 1.1877252 -1.3484687 -0.8175659 0.73482263 -0.03384851 0.2947169 0.0440599
-0.039101742 0.3983798 0.050406184 0.2032445 0.011284128 -0.06472694 -0.18374057 -0.3299325
-0.26522195 -0.119450696 -0.11613852 -0.22414687 -0.24408323 -0.3983563 -0.35458103 -0.03201031
-0.06368872 -0.09109817 0.18087278 -0.40158454 0.102672644 0.1335807 -0.26289347 0.10177189
-0.19885729 0.03299878 0.023916118 -0.07584255 -0.00025075223 0.06359846 -0.07672265 -0.03335298
-0.38466918 -0.3584283 -0.35073873 -0.23336956 -0.17306638 -0.36951095 -0.3815589 0.051057424
0.36766955 0.38475898 -0.36697358 -0.31196928 0.1646971 0.20457815 -0.080848105 -0.0684986
-0.1435119 -0.005975666 -0.015016681 0.3380532 -0.0015256366 -0.13107699 -0.5723875 -0.26697317
-0.27487305 -0.40059498 -0.5642192 -0.35619494 -0.6372011 -0.37270543 -0.4816575 -0.28767452
-0.75516033 -0.53496385 0.47901767 -0.4149107 0.17186698 0.005609438 0.039657865 -0.04970889
0.037435528 -0.44225243 0.037522394 -0.012166089 -0.06373826 -0.08499798 -0.78533846 -0.6579001
-0.6685894 -0.4594371 -0.53671384 -0.631854 -0.66157407 -0.4941108 -0.5191422 -0.0864713
-0.09411812 0.06942544 -0.04947642 -0.35094503 -0.10391295 -0.10425446 0.08463605 0.06404069
-0.0937072 -0.27481398 0.06296835 -0.085228406 -0.014980532 0.030151725 -0.1576466 -0.20507665
-0.20341702 -0.3617251 -0.31425843 -0.21901596 -0.21142277 -0.27241096 -0.38290486 -0.16838801
-0.0932775 0.17653076 -0.057561338 0.07261468 0.036592785 -0.07264342 -0.21719041 -0.13336903
-0.38950557 -0.33171508 -0.010694282 -0.01511828 -0.0032987255 -0.12139244 -0.1684628 0.037577827
-0.13567781 0.08711176 -0.053573597 -0.03363421 -0.17275155 0.01349008 -0.23170404 -0.12137114
-0.0016108175 0.060452636 0.05294513 0.14487667 0.01571528 0.069701344 -0.13206923 0.017698744
-0.19749455 -0.040491745 0.059171207 -0.03515432 0.04685621 -0.1921451 -0.22559014 -0.16906458
-0.065368086 0.0140628 -0.03476993 -0.094683506 -0.053505674 -0.07742271 -0.11968098 -0.004359334
-0.26590666 -0.23552746 0.21883129 -0.0009731442 0.49486372 0.14162567 -0.21836276 -0.009652688
-0.014891919 -0.08240558 0.13569403 -0.07616615 -0.06535416 -0.2156565 -0.45626676 -0.07460198
-0.4654838 -0.472661 -0.26750207 -0.08274838 -0.27460834 -0.17540042 -0.21488082 -0.3038302
-0.40793687 -0.49950933 0.34919482 -0.25577834 -0.04920913 -0.0035581286 -0.34027213 -0.031278986
0.1322746 -0.2942676 0.16185428 -0.26758945 0.03815346 0.018237567 -0.295632 -0.33870366
-0.34577304 -0.10031841 -0.44988453 -0.22426888 -0.20371678 -0.19274355 -0.281832 -0.2473582
-0.06005437 0.08672643 -0.025670914 0.096426494 -0.08078693 -0.05601759 -0.13387603 0.07524537
-0.10600346 0.009387718 0.17354284 0.08300801 0.14053032 0.05001709 -0.17135283 -0.03863817
00000000: 3bf1 1bc0 57ce 533f 0b5c b8be e78b 683f
00000010: 3c88 153d f978 c6bc 9dab d43d 03f7 94bb
00000020: b67b fbbb 1e24 483e f21e e13b 5c55 9d3d
00000030: 13e7 9fba af0c 9e3c c8f0 763d 037c b7bc
00000040: 1e0a 80be 7131 68bd 82c8 9a3d 954f a2bc
00000050: 96ea 8fbd a27a afbd 6aa3 193d 4ee8 5cbd
00000060: 718b 953f 6107 983f 9f9a acbf 004c 51bf
00000070: 561d 3c3f bca4 0abd 22e5 963e 2778 343d
00000080: 2629 20bd 70f8 cb3e b776 4e3d 541f 503e
00000090: 10e1 383c 8f8f 84bd 7d26 3cbe eaec a8be
000000a0: 2ccb 87be 91a2 f4bd 08da edbd c286 65be
000000b0: f4f0 79be 5bf5 cbbe a58b b5be 3e1d 03bd
000000c0: 3b6f 82bd ad91 babd b736 393e 7d9c cdbe
000000d0: 0946 d23d 61c9 083e f999 86be c86d d03d
000000e0: 3fa1 4bbe bb29 073d bceb c33c 5753 9bbd
000000f0: 6577 83b9 e93f 823d c420 9dbd 229d 08bd
00000100: 5cf3 c4be ea83 b7be 0794 b3be 6ef8 6ebe
00000110: 5038 31be 8a30 bdbe b05b c3be 9721 513d
00000120: 2f3f bc3e 21ff c43e f6e3 bbbe 70ba 9fbe
00000130: 5ba6 283e ef7c 513e b193 a5bd fe48 8cbd
00000140: c9f4 12be 85cf c3bb 8608 76bc 4f15 ad3e
00000150: dff7 c7ba 0c39 06be fd87 12bf b5b0 88be
00000160: 29bc 8cbe c91a cdbe ab70 10bf 2f5f b6be
00000170: 9c1f 23bf 3fd3 bebe d09b f6be 134a 93be
00000180: 3052 41bf 64f3 08bf ce41 f53e 2d6f d4be
00000190: e6fd 2f3e 60cf b73b 4970 223d 8d9b 4bbd
000001a0: ff55 193d e96e e2be 15b1 193d 4754 47bc
000001b0: 3489 82bd 6c13 aebd f10b 49bf 246c 28bf
000001c0: ad28 2bbf 573b ebbe 1466 09bf 2fc1 21bf
000001d0: eb5c 29bf 17fc fcbe 81e6 04bf dd17 b1bd
000001e0: 00c1 c0bd ed2e 8e3d c9a7 4abd 11af b3be
000001f0: 50d0 d4bd 5d83 d5bd aa55 ad3d c427 833d
00000200: 8fe9 bfbd 6bb4 8cbe 8df5 803d 3b8c aebd
00000210: e870 75bc c000 f73c 1c6e 21be 9dff 51be
00000220: 8d4c 50be 0834 b9be 7be6 a0be b845 60be
00000230: 367f 58be 7379 8bbe 1b0c c4be e86d 2cbe
00000240: 4608 bfbd 7bc4 343e 70c5 6bbd 01b7 943d
00000250: 51e2 153d 13c6 94bd 2a67 5ebe e491 08be
00000260: 466d c7be 8fd6 a9be 1237 2fbc aab2 77bc
00000270: 6e2f 58bb 999c f8bd 8381 2cbe 35eb 193d
00000280: 20ef 0abe a767 b23d fd6f 5bbd 06c4 09bd
00000290: c8e5 30be 7f05 5d3c d343 6dbe 6f91 f8bd
000002a0: 1122 d3ba 2f9d 773d fedc 583d 8d5a 143e
000002b0: 55bd 803c 94bf 8e3d 283d 07be f5fc 903c
000002c0: 033c 4abe acda 25bd 825d 723d fafd 0fbd
000002d0: 4cec 3f3d afc1 44be 1a01 67be 441f 2dbe
000002e0: b4df 85bd a967 663c ea6a 0ebd 6de9 c1bd
000002f0: c428 5bbd cc8f 9ebd 4d1b f5bd bed8 8ebb
00000300: eb24 88be 1c2e 71be 4f15 603e 9a1a 7fba
00000310: c75e fd3e 5206 113e 7d9a 5fbe 4f26 1ebc
00000320: 3cfd 73bc 42c4 a8bd 60f3 0a3e 00fd 9bbd
00000330: 67d8 85bd 0fd5 5cbe cc9b e9be ecc8 98bd
00000340: e553 eebe 9f00 f2be 08f6 88be fc77 a9bd
00000350: 7799 8cbe 2b9c 33be b809 5cbe a28f 9bbe
00000360: 1add d0be b0bf ffbe aac9 b23e 61f5 82be
00000370: 838f 49bd 7e2f 69bb 2638 aebe 651e 00bd
00000380: fe72 073e 3eaa 96be 21bd 253e 7c01 89be
00000390: cd46 1c3d f366 953c 145d 97be 916a adbe
000003a0: 2a09 b1be bd73 cdbd 4457 e6be bea6 65be
000003b0: 229b 50be 915e 45be 494c 90be 784b 7dbe
000003c0: 92fb 75bd a09d b13d cf4b d2bc 417b c53d
000003d0: 9e73 a5bd b372 65bd cc16 09be 3f1a 9a3d
000003e0: 5818 d9bd f1ce 193c 37b5 313e 1b00 aa3d
000003f0: 2ee7 0f3e b8de 4c3d 1e77 2fbe 0f43 1ebd

model.0.bias f4 [512]
-0.1245499 0.0636908 0.060754377 -0.15248509 0.25757623 -0.03815761 -0.27788118 -0.07050899
-0.17256682 0.051732004 -0.12429023 -0.41249603 0.069423184 -0.23051135 0.03600567 -0.27926064
-0.52596426 0.6190553 -0.109794825 -0.18388033 0.15579438 0.014027102 -0.15485075 -0.24732137
-0.4788893 -0.15635285 0.23227333 -0.20703827 0.17332514 0.0056465 -0.08418823 -0.12466409
0.7463727 -0.04014416 0.0056283083 -0.13531384 -0.24392624 -0.22696193 -0.2904437 -0.19788559
-0.12391759 0.13933913 0.15012977 -0.016897148 0.008577459 -0.022687975 -0.1975148 0.057612322
-0.08337818 -0.039024174 -0.31696287 -0.0014200708 -0.17110483 -0.09509194 -0.04976801 -0.19009085
-0.029358922 -0.022301788 0.03802731 0.04063023 0.109277666 -0.41285565 0.084988095 -0.15391213
-0.27831113 -0.06357663 -0.13519344 -0.16462557 0.19115937 0.40806136 -0.041173294 0.041165665
-0.3120681 -0.017088447 -0.506128 -0.20327595 -0.22792925 -0.1842523 -0.0059906417 0.08075683
-0.08336714 0.06197926 0.007786835 -0.06708952 0.09636864 -0.19833554 0.5048884 0.2435084
-0.30199328 -0.1937751 -0.20516162 -0.16998495 -0.1345914 0.12918976 -0.057815157 -0.16032888
-0.19218089 -0.31229812 -0.33884197 0.04353931 -0.08811979 -0.016741091 -0.16212657 0.36482713
-0.22153506 -0.259 -0.13156785 0.7483043 0.22399563 -0.026101973 -0.3568475 0.1028617
-0.2542406 -0.10969206 -0.117672645 -0.027798006 0.19256203 -0.022044202 0.1149386 0.15248582
0.14864187 0.10831329 -0.14300519 0.17031392 -0.17767605 0.06230376 -0.15055266 -0.22121252
0.009007264 0.11178688 -0.0049679694 -0.4358656 -0.5373676 -0.006107904 0.16256113 -0.003012928
-0.16399816 -0.22088982 0.4650189 0.23932463 -0.2875911 -0.020093191 -0.36618146 0.054679867
0.6235214 0.05432397 -0.19343004 -0.5822278 -0.24787591 0.018810987 -0.2919227 -0.07472874
0.009369985 -0.0916241 0.25183573 -0.06777199 -0.2597494 0.059665788 0.36749685 -0.09498744
-0.042712584 -0.2719109 -0.12343241 -0.19668359 -0.14678246 -0.36498466 0.06859282 0.060811173
0.3173631 -0.29183593 0.6847747 -0.10582288 -0.21208398 -0.090441 -0.0822619 0.14843266
0.19418551 0.27058503 -0.19414046 0.14589177 -0.16023949 -0.0067458823 -0.06429912 -0.30942348
-0.010597422 -0.38296765 -0.059539165 0.07908033 -0.12320401 -0.018062335 -0.25129074 -0.018648937
0.39360708 -0.11291322 -0.19003573 -0.31580034 -0.25550333 0.27768734 0.036742475 -0.1812844
-0.2302244 -0.10448244 0.07956384 0.46226445 -0.25647208 0.63015634 -0.2661212 0.06393359
-0.26750574 -0.020205533 -0.05364904 -0.14389898 -0.17174377 0.35620382 0.34285888 -0.042974874
-0.24762161 -0.15914534 -0.31303373 0.6445993 -0.17312124 0.64743584 -0.038157076 -0.16172002
-0.4022228 -0.34361383 -0.10789822 -0.07417564 -0.15757824 0.14285636 -0.2947577 0.062272348
-0.22748432 -0.15938751 -0.10818041 -0.2052773 -0.37007803 -0.20723419 -0.08009122 -0.29160005
0.04687712 -0.021473086 -0.30159873 -0.04572663 -0.070091635 -0.33153138 -0.32443073 -0.32936504
-0.29135013 -0.20980093 -0.13728845 -0.08419738 -0.121827565 -0.070132166 0.42122802 -0.1746318
00000000: 0514 ffbd 5270 823d 95d9 783d 0d25 1cbe
00000010: 08e1 833e 274b 1cbd 7146 8ebe 0467 90bd
00000020: 5bb5 30be f0e4 533d e08b febd ae32 d3be
00000030: be2d 8e3d 2b0b 6cbe ae7a 133d 40fb 8ebe
00000040: 98a5 06bf 687a 1e3f 1cdc e0bd 204b 3cbe
00000050: 9088 1f3e eed1 653c 3291 1ebe d041 7dbe
00000060: fa30 f5be f61a 20be 0fd9 6d3e d701 54be
00000070: 257c 313e 4606 b93b e16a acbd e34f ffbd
00000080: 4812 3f3f 346e 24bd ac6d b83b b68f 0abe
00000090: cdc7 79be b568 68be 09b5 94be 85a2 4abe
000000a0: 81c8 fdbd ebae 0e3e 9ebb 193e e36b 8abc
000000b0: 7888 0c3c 22dc b9bc 5241 4abe e6fa 6b3d
000000c0: 2ec2 aabd d0d7 1fbd f548 a2be ab21 baba
000000d0: 1b36 2fbe 90bf c2bd 8ad9 4bbd 2da7 42be
000000e0: 1f82 f0bc 3db2 b6bc 86c2 1b3d e26b 263d
000000f0: f8cc df3d d161 d3be 3d0e ae3d 249b 1dbe
00000100: cc7e 8ebe 7734 82bd 2670 0abe 9b93 28be
00000110: 48bf 433e 6bed d03e 54a5 28bd 549d 283d
00000120: 64c7 9fbe 12fd 8bbc 9b91 01bf 9227 50be
00000130: 4966 69be a3ac 3cbe 254d c4bb d663 a53d
00000140: 64bc aabd f7dd 7d3d b528 ff3b 3b66 89bd
00000150: ec5c c53d 7918 4bbe 5e40 013f 445a 793e
00000160: dd9e 9abe fb6c 46be e315 52be 8910 2ebe
00000170: 54d2 09be 524a 043e 96cf 6cbd 412d 24be
00000180: 11cb 44be 8ae5 9fbe b27c adbe 4756 323d
00000190: 2678 b4bd 9d24 89bc 8204 26be 9fca ba3e
000001a0: 16da 62be a69b 84be b9b9 06be df90 3f3f
000001b0: 1c5f 653e ced3 d5bc b7b4 b6be 28a9 d23d
000001c0: d32b 82be 3ba6 e0bd 5bfe f0bd a5b8 e3bc
000001d0: fb2e 453e 0b96 b4bc ee64 eb3d 3e25 1c3e
000001e0: 9335 183e 5cd3 dd3d f46f 12be c666 2e3e
000001f0: b6f0 35be 3a32 7f3d 7a2a 1abe 8985 62be
00000200: 3493 133c 85f0 e43d 59ca a2bb c729 dfbe
00000210: ec90 09bf d024 c8bb 6d76 263e 8b74 45bb
00000220: 22ef 27be f130 62be f516 ee3e 8411 753e
00000230: 243f 93be 7a9a a4bc 237c bbbe fff7 5f3d
00000240: 199f 1f3f d082 5e3d 8612 46be e20c 15bf
00000250: 2fd3 7dbe 8019 9a3c e476 95be 620b 99bd
00000260: 9184 193c 6ba5 bbbd 9df0 803e 0bcc 8abd
00000270: e0fd 84be 1d64 743d 8c28 bc3e c688 c2bd
00000280: 64f3 2ebd e837 8bbe 22ca fcbd 6c67 49be
00000290: 244e 16be 45df babe 647a 8c3d 2315 793d
000002a0: 6b7d a23e 856b 95be 654d 2f3f abb9 d8bd
000002b0: 8b2c 59be 2239 b9bd ed78 a8bd bbfe 173e
000002c0: 91d8 463e 1f8a 8a3e c2cc 46be a764 153e
000002d0: d215 24be 900c ddbb 42af 83bd c16c 9ebe
000002e0: cfa0 2dbc 5614 c4be 57df 73bd def4 a13d
000002f0: 6252 fcbd 76f7 93bc 2ea9 80be a8c5 98bc
00000300: de86 c93e 0c3f e7bd ba98 42be 95b0 a1be
00000310: 55d1 82be 092d 8e3e 477f 163d 9ea2 39be
00000320: f2bf 6bbe e4fa d5bd 5ef2 a23d edad ec3e
00000330: 4f50 83be ed51 213f 0a41 88be 9def 823d
00000340: 83f6 88be 1386 a5bc 19bf 5bbd 415a 13be
00000350: 99dd 2fbe 5960 b63e 338b af3e 6c06 30bd
00000360: 8590 7dbe fff6 22be f545 a0be 7604 253f
00000370: b246 31be 5bbe 253f 984a 1cbd ef99 25be
00000380: 26f0 cdbe 27ee afbe bef9 dcbd 66e9 97bd
00000390: 315c 21be f048 123e 7bea 96be 4a11 7f3d
000003a0: a6f1 68be 7b36 23be b18d ddbd 3634 52be
000003b0: de7a bdbe 3335 54be de06 a4bd 9a4c 95be
000003c0: 3902 403d 53e8 afbc 266b 9abe d94b 3bbd
000003d0: 348c 8fbd 7bbe a9be c91b a6be 89a2 a8be
000003e0: d82b 95be 0ed6 56be 5895 0cbe ad6f acbd
000003f0: bb80 f9bd 74a1 8fbd 33ab d73e aed2 32be

model.2.weight f4 [256, 512]
0.12666947 -0.093856215 -0.0137681225 -0.050482426 -0.14698681 -0.012216605 -0.0012005538 -0.026144978
-0.16633867 -0.06140431 -0.03980334 0.0013859129 -0.058799364 -0.052461814 -0.06656846 -0.048420284
-0.19507861 -0.20044301 -0.05228056 0.01471272 -0.05299366 -0.03165016 -0.21936677 -0.047348123
0.016576445 -0.13625906 -0.20391451 -0.0051984186 -0.17173003 -0.031824443 -0.061073888 -0.064887054
-0.31503275 -0.012548127 -0.053473264 -0.0064858506 -0.12922001 -0.1582808 -0.015725289 -0.036922246
-0.026561344 0.014728504 0.027202256 -0.018483844 -0.051423423 -0.06590344 0.021402601 -0.06522132
-0.00091656024 -0.047255874 -0.038040843 -0.06417863 -0.053027634 -0.035156727 -0.017846603 -0.020373445
-0.17731503 -0.116624445 -0.030965028 -0.05591755 -0.15129867 0.021388046 -0.101647645 -0.01645652
0.039629407 -0.0204544 0.036070585 0.0044201836 -0.04331668 -0.11149379 -0.05922962 0.016141934
-0.0136287585 -0.00030756628 0.07784 0.013037526 0.00096241245 -0.06447009 -0.06398763 -0.04668387
-0.06150898 -0.22452307 -0.011987146 -0.17622703 -0.0024806303 -0.029143643 -0.3326843 0.006609311
-0.041092508 0.0027328492 -0.019319052 -0.013513031 -0.008422367 0.0035270741 -0.064155154 -0.047808517
-0.010940738 -0.060726475 -0.016662609 -0.03477569 -0.16464464 -0.0371536 -0.059424642 -0.06481217
-0.037463024 -0.044987775 -0.05257988 0.015890755 -0.07415257 -0.015018251 0.0036067956 0.004287222
-0.039969396 -0.033616498 -0.035699073 -0.115745924 -0.19271359 -0.012900501 -0.19282666 -0.02022078
-0.0129440725 -0.04163224 -0.03294084 -0.17020497 0.010382132 -0.063849516 -0.15636219 0.07848961
-0.009441437 0.030648926 -0.03422395 0.009206805 -0.02138048 -0.027299574 0.014986745 -0.02805778
-0.07753271 -0.050492447 -0.066654176 -0.070103884 -0.05123942 -0.026479792 -0.050910685 -0.04331803
0.05982486 -0.020049816 -0.052312814 -0.2078033 -0.06678829 0.0032653564 0.047431197 -0.06793628
0.0019462167 -0.052896585 -0.14326252 -0.021214878 -0.040156245 -0.0181613 0.22761603 -0.03837158
0.009935665 -5.1627387e-05 0.009069079 0.01879136 -0.017234147 -0.038145572 -0.018401008 -0.036889408
0.042378366 -0.0324817 0.21884325 -0.05726033 -0.057599697 0.008057777 -0.01895914 -0.12582098
-0.08329389 -0.060522113 0.033024557 -0.02581957 -0.015623021 0.014939355 0.01338563 0.021680057
-0.014752341 -0.037198894 -0.058460135 -0.00016760213 -0.011371821 -0.05566739 -0.031387955 -0.031115388
-0.15128742 0.010432094 -0.06250219 0.020727191 0.00319444 -0.0134793455 -0.06269247 -0.059620287
-0.057433225 0.020201553 -0.029781437 -0.0011329715 0.04591273 -0.0055813324 -0.060282208 -0.010183787
-0.019338366 -0.06216032 -0.06404508 -0.0624467 -0.022821868 -0.18615162 -0.29630607 0.017116046
-0.04450553 0.018558057 -0.06566528 -0.2808684 -0.026085315 -0.057865284 -0.06622712 0.0014624951
-0.0857216 -0.026673311 -0.03871942 -0.044616353 -0.06603324 -0.06328591 -0.017342754 -0.10538006
-0.06585363 -0.02126023 -0.043734122 0.02001002 -0.0053591733 -0.13843425 -0.029588182 -0.045453046
-0.022933718 -0.03938807 0.011996105 -0.009293874 -0.046988163 0.024783669 -0.05475702 0.0035021272
-0.0030730944 -0.01955457 -0.17511259 -0.035366986 0.02409553 -0.04917162 -0.02544464 0.018777737
00000000: a4b5 013e b037 c0bd b193 61bc a9c6 4ebd
00000010: b683 16be 2828 48bc e75b 9dba fe2d d6bc
00000020: af54 2abe 1683 7bbd d408 23bd 85a7 b53a
00000030: 9ad7 70bd 33e2 56bd 0b55 88bd 5954 46bd
00000040: b0c2 47be ef40 4dbe 2424 56bd 9f0d 713c
00000050: e10f 59bd 99a3 01bd afa1 60be 1bf0 41bd
00000060: 53cb 873c 7f87 0bbe f7ce 50be 7f57 aabb
00000070: ffd9 2fbe 595a 02bd 9d28 7abd 81e3 84bd
00000080: f94b a1be a996 4dbc c806 5bbd 4287 d4bb
00000090: 4052 04be 5d14 22be 52d2 80bc c83b 17bd
000000a0: 2d97 d9bc d34f 713c 44d7 de3c 6e6b 97bc
000000b0: 5ea1 52bd 62f8 86bd 8254 af3c c192 85bd
000000c0: 5145 70ba 608f 41bd b7d0 1bbd 1670 83bd
000000d0: 8133 59bd 8000 10bd 0a33 92bc 36e6 a6bc
000000e0: 1292 35be ccd8 eebd 5faa fdbc cd09 65bd
000000f0: 0aee 1abe fc35 af3c a42c d0bd d3cf 86bc
00000100: 7252 223d fc8f a7bc c0be 133d 30d7 903b
00000110: d56c 31bd db56 e4bd c29a 72bd 173c 843c
00000120: 284b 5fbc d940 a1b9 946a 9f3d 599b 553c
00000130: 684a 7c3a e508 84bd f20b 83bd 9637 3fbd
00000140: d7f0 7bbd 60e9 65be bc65 44bc dc74 34be
00000150: 1292 22bb a6be eebc 9955 aabe eb92 d83b
00000160: 9e50 28bd 9a19 333b fd42 9ebc c365 5dbc
00000170: f8fd 09bc 7c26 673b c763 83bd ddd2 43bd
00000180: c840 33bc 53bc 78bd 0680 88bc f470 0ebd
00000190: 9b98 28be 602e 18bd 4167 73bd 3ebc 84bd
000001a0: d472 19bd 1a45 38bd 005e 57bd 542d 823c
000001b0: 4ddd 97bd 1c0f 76bc fd5f 6c3b d37b 8c3b
000001c0: f3b6 23bd 74b1 09bd 3139 12bd 330c edbd
000001d0: b656 45be 9f5c 53bc 5a74 45be 0da6 a5bc
000001e0: 6013 54bc 9186 2abd f9ec 06bd 364a 2ebe
000001f0: d119 2a3c 89c3 82bd 691d 20be 29bf a03d
00000200: 42b0 1abc 7513 fb3c 6a2e 0cbd 24d8 163c
00000210: 1e26 afbc 5ba3 dfbc f78a 753c 6ed9 e5bc
00000220: 78c9 9ebd 2bd1 4ebd fc81 88bd a092 8fbd
00000230: 6de0 51bd 26ec d8bc b987 50bd 3f6e 31bd
00000240: ea0a 753d 833f a4bc f645 56bd 63ca 54be
00000250: 4dc8 88bd 97ff 553b 3747 423d 2d22 8bbd
00000260: 3218 ff3a 17aa 58bd 69b3 12be d3ca adbc
00000270: e07a 24bd 02c7 94bc 2d14 693e 852b 1dbd
00000280: 33c9 223c 7c8a 58b8 7996 143c 57f0 993c
00000290: a02e 8dbc 883e 1cbd b6bd 96bc 5919 17bd
000002a0: f094 2d3d 880b 05bd 7218 603e cf89 6abd
000002b0: a9ed 6bbd c404 043c 3350 9bbc 37d7 00be
000002c0: fd95 aabd 09e6 77bd c244 073d 9083 d3bc
000002d0: b3f7 7fbc 32c4 743c 674f 5b3c 609a b13c
000002e0: ceb3 71bc de5d 18bd e573 6fbd 5bbe 2fb9
000002f0: e050 3abc 7d03 64bd a890 00bd b3e5 febc
00000300: 17eb 1abe 60eb 2a3c 2601 80bd 12cc a93c
00000310: cf59 513b 79d8 5cbc e964 80bd 6734 74bd
00000320: 1a3f 6bbd ba7d a53c 33f8 f3bc 3780 94ba
00000330: fd0e 3c3d 9ce3 b6bb 7aea 76bd e6d9 26bc
00000340: 7e6b 9ebc d29b 7ebd 112a 83bd 1cc8 7fbd
00000350: edf4 babc 889e 3ebe 6eb5 97be f336 8c3c
00000360: 6e4b 36bd 1107 983c 857b 86bd fccd 8fbe
00000370: dfb0 d5bc 2604 6dbd 16a2 87bd 31b1 bf3a
00000380: ce8e afbd fd81 dabc 4198 1ebd a3bf 36bd
00000390: 6f3c 87bd 0b9c 81bd 6412 8ebc 80d1 d7bd
000003a0: 45de 86bd ef29 aebc 8d22 33bd 0eec a33c
000003b0: 019c afbb b5c1 0dbe ea62 f2bc f92c 3abd
000003c0: 7edf bbbc 6355 21bd 508b 443c 5545 18bc
000003d0: a976 40bd 1f07 cb3c e648 60bd f283 653b
000003e0: f865 49bb e830 a0bc b750 33be f9dc 10bd
000003f0: fd63 c53c 2e68 49bd 4771 d0bc c5d3 993c

model.2.bias f4 [256]
-0.10820677 0.0055250484 -0.0030625374 -0.038108006 -0.04877415 -0.06806734 -0.03305551 0.072163075
0.003502465 -0.03453279 -0.05546559 0.1840535 -0.016583988 -0.08020877 -0.060985014 -0.038566504
-0.057290733 -0.022354199 -0.034948885 -0.023229567 -0.058583885 -0.05838233 -0.14057972 0.50666434
-0.09019087 -0.084631614 -0.2159193 -0.02326961 -0.24910825 -0.07747916 -0.006785781 -0.12049136
-0.06797583 -0.061546385 -0.10523514 0.1475843 -0.15042312 -0.05718354 -0.13564079 -0.03815581
-0.041317634 0.22737393 -0.025882438 -0.16047172 -0.1240178 0.12396903 -0.10456345 -0.064505056
-0.058532257 -0.17825985 -0.014859152 -0.07662725 0.01044911 -0.041056484 -0.031680983 -0.086369015
-0.06405692 -0.20231645 -0.00039819293 -0.026320968 0.012281636 -0.13286877 -0.053681813 -0.1301959
0.008398447 -0.07214233 0.019618781 0.018145964 -0.03240109 -0.08545911 -0.039079536 -0.059673283
-0.03506832 -0.029372403 0.18728755 -0.23727554 -0.059252962 -0.07700732 -0.035413746 -0.026314173
0.0018702769 -0.060659766 -0.3307131 -0.047110464 -0.07271276 -0.007889896 -0.11387599 -0.005654678
-0.042671014 -0.24226503 -0.5342704 0.008057433 -0.050729133 -0.1481507 0.010217648 -0.1380697
-0.04680584 0.009964558 -0.07242488 0.37070614 -0.046304442 -0.006835999 -0.025220033 -0.05990714
0.007868339 -0.04165973 -0.010127754 -0.007420193 -0.027482104 -0.060537126 -0.18198355 -0.010173285
0.011333485 -0.023342991 -0.16770445 -0.038367033 -0.13977571 -0.19127388 -0.033497695 -0.03914648
0.28774095 -0.021741347 0.04222525 -0.20378095 -0.02605053 -0.23025785 0.27558106 -0.029536072
-0.060930163 -0.08563584 -0.11917537 -0.021911213 0.45024914 -0.056423336 -0.1872731 0.0066629974
-0.038942557 0.41403228 -0.066198535 -0.02399618 -0.058875937 -0.008337578 0.016278833 -0.10101264
-0.05780991 -0.016366538 -0.03821931 -0.030403994 -0.070919715 -0.11877648 -0.056526963 0.016931532
0.0528886 -0.14609635 -0.065803476 0.34505773 -0.19760749 -0.21503296 -0.06171274 0.34677657
0.011284733 -0.15035836 0.0079300245 -0.12886101 -0.17907128 -0.042601287 -0.0064517767 0.034921035
-0.15251824 -0.0681384 0.016838726 -0.16720635 -0.06798617 -0.008923771 -0.02280595 -0.2528321
-0.00058083015 -0.31852952 -0.13589007 -0.004342677 -0.029640295 -0.11821203 0.001347681 -0.065483525
0.1509515 -0.065477446 -0.04464356 -0.20626509 -0.014129885 -0.080856696 -0.019552577 0.27108872
-0.0266006 -0.1436521 -0.08488282 -0.07089048 -0.07717513 0.0049605654 -0.08295356 -0.11188037
-0.040719222 -0.07536145 -0.13919686 -0.1711955 0.009184309 -0.073540434 -0.084514804 -0.019027915
-0.0712038 -0.15202922 -0.19092824 -0.030678531 -0.21884412 -0.06512915 -0.013758428 0.029818298
-0.030037135 0.6265901 -0.19286908 -0.13658997 -0.06739574 -0.17613398 -0.04281981 -0.08528517
-0.09292022 0.017348263 -0.021089088 0.080511376 -0.050076056 -0.06968936 -0.067564 -0.17256601
-0.05293277 -0.21894634 -0.0014080436 0.068092376 -0.096802376 -0.0138249835 -0.166226 -0.008113355
-0.06492788 -0.18709758 -0.1177344 -0.013157473 -0.039320186 -0.05989172 0.3484422 -0.19701707
0.2096434 -0.057003528 -0.0328087 -0.026360951 0.013628638 -0.0671755 -0.054425713 -0.017230812
00000000: 839b ddbd 770b b53b dab4 48bb 2417 1cbd
00000010: 67c7 47bd e466 8bbd 3765 07bd 3cca 933d
00000020: 9d89 653b 4172 0dbd e32f 63bd 8578 3c3e
00000030: 25db 87bc 7f44 a4bd 6ccb 79bd e9f7 1dbd
00000040: b0a9 6abd 2720 b7bc 9026 0fbd ef4b bebc
00000050: a8f5 6fbd 4f22 6fbd 21f4 0fbe c1b4 013f
00000060: feb5 b8bd 5753 adbd f319 5dbe e99f bebc
00000070: 3c16 7fbe 65ad 9ebd 425b debb 2dc4 f6bd
00000080: e936 8bbd 1018 7cbd 8585 d7bd 5720 173e
00000090: 8508 1abe 4a39 6abd 6be5 0abe 4449 1cbd
000000a0: ae3c 29bd b6d4 683e 6807 d4bc b352 24be
000000b0: 0bfd fdbd 7ae3 fd3d 5d25 d6bd 3a1b 84bd
000000c0: 85bf 6fbd c089 36be cd73 73bc bfee 9cbd
000000d0: be32 2b3c d82a 28bd ebc3 01bd 3de2 b0bd
000000e0: 4630 83bd 0b2c 4fbe 8dc4 d0b9 129f d7bc
000000f0: ea38 493c c00e 08be 76e1 5bbd 1352 05be
00000100: a499 093c 5cbf 93bd 91b7 a03c d8a6 943c
00000110: 01b7 04bd 3005 afbd dd11 20bd f96b 74bd
00000120: cca3 0fbd 659e f0bc 4fc8 3f3e 5cf8 72be
00000130: 3cb3 72bd 04b6 9dbd 010e 11bd d290 d7bc
00000140: 1424 f53a 6076 78bd 3a53 a9be e7f6 40bd
00000150: 6dea 94bd 9f44 01bc d137 e9bd e14a b9bb
00000160: cdc7 2ebd 5314 78be f2c5 08bf 5303 043c
00000170: 5ac9 4fbd d1b4 17be ec67 273c 2562 0dbe
00000180: 7bb7 3fbd 6342 233c 7f53 94bd 32cd bd3e
00000190: baa9 3dbd 8400 e0bb 3e9a cebc 3061 75bd
000001a0: 35ea 003c 65a3 2abd e1ee 25bc 1725 f3bb
000001b0: 2622 e1bc c7f5 77bd e559 3abe daad 26bc
000001c0: 15b0 393c cd39 bfbc b7ba 2bbe c026 1dbd
000001d0: 5d21 0fbe 4ddd 43be e134 09bd 0f58 20bd
000001e0: c852 933e e91a b2bc 62f4 2c3d f4ab 50be
000001f0: ec67 d5bc b7c8 6bbe f618 8d3e a2f5 f1bc
00000200: e891 79bd d861 afbd 3712 f4bd 257f b3bc
00000210: 0e87 e63e 281c 67bd 85c4 3fbe 4655 da3b
00000220: 3b82 1fbd 0afc d33e 1993 87bd a393 c4bc
00000230: e527 71bd 569a 08bc 305b 853c b7df cebd
00000240: 16ca 6cbd 1e13 86bc da8b 1cbd cc11 f9bc
00000250: 5b3e 91bd 1541 f3bd d188 67bd ffb3 8a3c
00000260: b7a1 583d 489a 15be f9c3 86bd 68ab b03e
00000270: 9e59 4abe 9a31 5cbe 80c6 7cbd b38c b13e
00000280: 9ae3 383c 8bf7 19be efec 013c 24f4 03be
00000290: 765e 37be b07e 2ebd 6d69 d3bb 5c09 0f3d
000002a0: be2d 1cbe 258c 8bbd 5ef1 893c 2438 2bbe
000002b0: 553c 8bbd 0235 12bc 8bd3 babc 3673 81be
000002c0: da42 18ba 4d16 a3be c426 0bbe 044d 8ebb
000002d0: 34d0 f2bc 2619 f2bd aca4 b03a 3a1c 86bd
000002e0: 0893 1a3e 0a19 86bd 2adc 36bd 2837 53be
000002f0: 0881 67bc 3298 a5bd ba2c a0bc 24cc 8a3e
00000300: 80e9 d9bc 8919 13be 0bd7 adbd 072f 91bd
00000310: ff0d 9ebd 3d8c a23b 8ee3 a9bd 8921 e5bd
00000320: 33c9 26bd 1b57 9abd 9f89 0ebe e04d 2fbe
00000330: c979 163c 5e9c 96bd 1916 adbd 6ee0 9bbc
00000340: 4cd3 91bd 8cad 1bbe b182 43be 8b51 fbbc
00000350: ac18 60be 6f62 85bd 086b 61bc 8145 f43c
00000360: 7010 f6bc 3568 203f 797f 45be 3ede 0bbe
00000370: c706 8abd 775c 34be d363 2fbd fea9 aebd
00000380: f54c bebd f21d 8e3c 06c3 acbc 26e3 a43d
00000390: 8d1c 4dbd 4cb9 8ebd ff5e 8abd 25b5 30be
000003a0: 08d0 58bd 7833 60be 1a8e b8ba 0474 8b3d
000003b0: 5340 c6bd 2f82 62bc 2637 2abe e1ed 04bc
000003c0: e9f8 84bd 8296 3fbe bc1e f1bd 7192 57bc
000003d0: 340e 21bd 0551 75bd 0467 b23e d8be 49be
000003e0: c2ac 563e 887c 69bd 6a62 06bd ecf2 d7bc
000003f0: a74a 5f3c 4f93 89bd 7fed 5ebd a227 8dbc

model.4.weight f4 [64, 256]
0.045024067 0.032567777 -0.05050254 0.03326016 0.03564471 -0.00671063 0.03610812 -0.017327271
-0.054882556 -0.08190572 0.024881944 -0.059183717 0.0112760365 -0.045515433 -0.033483826 -0.020565838
0.045289032 0.05921267 -0.036040716 -0.054185413 -0.009693228 -0.013189055 0.016920663 -0.0050171507
0.05548644 -0.046765067 -0.0019359663 0.007727036 -0.017829843 0.04320485 -0.05282677 -0.08353352
0.032931708 0.037310988 0.011533476 -0.02349562 -0.043106556 -0.026682124 0.049376093 -0.048060894
0.024881087 0.012310215 -0.046772912 0.06079386 -0.0398848 -0.027573116 0.024501719 0.01638621
0.0279916 -0.055611312 -0.05878699 -0.047814183 -0.016348086 -0.02018696 -0.004931055 0.03175077
-0.013395295 0.004506327 -0.047723856 -0.024924835 0.02224913 0.020524874 -0.054372758 0.013283387
-0.05590243 -0.067193426 0.028289437 -0.048718885 -0.017199226 -0.011363089 0.061436206 0.028071731
-0.049636275 0.037056506 -0.07279168 0.04274857 -0.0024341717 -0.011280224 -0.030006021 -0.053665154
-0.015811749 -0.033268362 -0.0064484626 -0.02527529 -0.03721981 -0.00021837652 0.04247774 -0.054708906
-0.061225295 0.045260333 -0.05872991 -0.001502685 -0.028368898 0.05440513 -0.02048374 -0.02887562
-0.033917323 -0.06011378 -0.054025076 -0.021638982 -0.02821637 -0.031689174 0.02107126 0.050625294
-0.0042314976 -0.027219526 0.038548917 -0.054925315 -0.03265614 0.04125824 -0.04838348 -0.0026276782
-0.025634274 -0.06602926 0.020106092 -0.03719814 -0.017790802 -0.04237725 0.0062526986 -0.0072840005
-0.05616512 -0.061319746 -0.06784631 0.045521703 -0.045539998 -0.007661611 -0.04656785 -0.024954345
-0.027533412 0.04491085 0.015515968 0.05974652 0.0056127366 0.061140038 0.05878646 0.0036054328
-0.0404007 -0.030954607 0.021560788 -0.04182204 -0.05409103 -0.06103395 -0.037100717 -0.023363909
-0.024088636 -0.033731706 0.041976683 0.058934785 0.050135247 -0.01077605 -0.039528824 0.036724545
0.021988118 -0.026668645 0.021116696 -0.08920838 0.026430652 -0.054806776 -0.012460902 0.006157942
0.023826286 -0.03232581 -0.024886169 0.03029155 -0.020062953 -0.03448309 -0.024593838 -0.0036144033
0.045373507 -0.081765406 -0.047340192 -0.021016926 0.0147194015 0.044788912 -0.019882131 -0.031977348
0.051571354 0.001717107 -0.044919252 0.0045232847 0.0046458617 -0.017846324 0.011986613 -0.04965599
-0.06077744 0.029534139 -0.018019876 -0.009058058 0.03967026 0.016646974 -0.023056775 -0.070677355
0.033507623 0.038708173 0.0077798367 -0.037832975 0.025293954 -0.056648828 -0.034185782 -0.040434107
-0.040630408 -0.05882421 -0.056218617 0.055618115 0.02638065 -0.05158984 0.047005206 -0.0014522672
-0.05361212 0.04744359 -0.039455794 0.023360398 -0.006138101 -0.004295327 0.016402088 0.0042277537
-0.0035350248 -0.036677033 0.031194963 -0.004190657 0.006851542 0.016750239 -0.03746023 0.021587871
0.033787914 -0.058753774 -0.01736375 -0.03793566 -0.0039542913 0.051607735 -0.00036840126 -0.0125460075
0.056157373 0.021114968 -0.040039547 -0.04875269 -0.0019806204 -0.0250438 -0.009942405 -0.0064957663
-0.05477912 -0.040396087 0.016600579 0.038792484 0.03253749 -0.037326828 -0.03901856 0.01953686
-0.074988686 -0.053449146 0.015192799 0.024581611 -0.055663574 -0.056119904 -0.022720285 0.021024816
00000000: 286b 383d ca65 053d c0db 4ebd ce3b 083d
00000010: 3000 123d d8e4 dbbb 1ce6 133d ecf1 8dbc
00000020: 88cc 60bd 30be a7bd 38d5 cb3c a06a 72bd
00000030: 20bf 383c 646e 3abd 5626 09bd b079 a8bc
00000040: fe80 393d fc88 723d 6e9f 13bd 86f1 5dbd
00000050: 58d0 1ebc e816 58bc 349d 8a3c e966 a4bb
00000060: c045 633d ba8c 3fbd 40c0 fdba 1333 fd3b
00000070: e40f 92bc 92f7 303d e260 58bd 9f13 abbd
00000080: 66e3 063d 68d3 183d e8f6 3c3c e379 c0bc
00000090: 8090 30bd 7894 dabc 963e 4a3d 80db 44bd
000000a0: 6cd3 cb3c c9b0 493c f494 3fbd fc02 793d
000000b0: 3e5e 23bd 04e1 e1bc d4b7 c83c 603c 863c
000000c0: a44e e53c b0c8 63bd a0ca 70bd ced8 43bd
000000d0: 6cec 85bc 205f a5bc b094 a1bb 180d 023d
000000e0: f077 5bbc d0a9 933b 177a 43bd 2b2f ccbc
000000f0: cf43 b63c c823 a83c f8b5 5ebd 90a2 593c
00000100: f2f9 64bd b59c 89bd 40bf e73c 748d 47bd
00000110: 64e5 8cbc 402c 3abc 88a4 7b3d b0f6 e53c
00000120: 684f 4bbd 90c8 173d ce13 95bd 2019 2f3d
00000130: a086 1fbb b0d0 38bc 30cf f5bc fecf 5bbd
00000140: a487 81bc 6844 08bd a04d d3bb 200e cfbc
00000150: cd73 18bd 00fc 64b9 24fd 2d3d 7216 60bd
00000160: 60c7 7abd e662 393d c68e 70bd bef5 c4ba
00000170: e465 e8bc ead7 5e3d 84cd a7bc 908c ecbc
00000180: e4ec 0abd de39 76bd 6649 5dbd 3c44 b1bc
00000190: 0426 e7bc 82cc 01bd a39d ac3c 785c 4f3d
000001a0: 60a8 8abb 7cfb debc 78e5 1d3d 5ef9 60bd
000001b0: 72c2 05bd 66fe 283d c22d 46bd 2035 2cbb
000001c0: f8fe d1bc 593a 87bd 88b5 a43c 145d 18bd
000001d0: 04be 91bc c493 2dbd 70e3 cc3b a0ae eebb
000001e0: 660d 66bd 6a2a 7bbd 02f3 8abd f774 3a3d
000001f0: 2688 3abd 400e fbbb eebd 3ebd 0e6d ccbc
00000200: c08d e1bc 70f4 373d b036 7e3c c4b8 743d
00000210: 0ceb b73b fa6d 7a3d 12ca 703d 2049 6c3b
00000220: 347b 25bd 8494 fdbc 40a0 b03c 964d 2bbd
00000230: 8e8e 5dbd bcfe 79bd ecf6 17bd ab65 bfbc
00000240: 8855 c5bc 422a 0abd beef 2b3d 9a65 713d
00000250: 9e5a 4d3d 088e 30bc fae8 21bd 7a6c 163d
00000260: 6d20 b43c 3478 dabc ecfc ac3c e2b2 b6bd
00000270: 1885 d83c 127d 60bd d028 4cbc 90c8 c93b
00000280: 582f c33c 1268 04bd 14de cbbc fc25 f83c
00000290: 105b a4bc 243e 0dbd 0479 c9bc a0df 6cbb
000002a0: 92d9 393d 9f74 a7bd cae7 41bd b02b acbc
000002b0: a529 713c 9474 373d dadf a2bc aefa 02bd
000002c0: 7c3c 533d 8d10 e13a 40fd 37bd 1038 943b
000002d0: 503c 983b 7432 92bc 8063 443c 1464 4bbd
000002e0: c4f1 78bd 94f1 f13c 6b9e 93bc 4068 14bc
000002f0: 487d 223d 3c5f 883c 90e1 bcbc 4abf 90bd
00000300: 4a3f 093d 768c 1e3d 00ee fe3b c0f6 1abd
00000310: 4435 cf3c 9a08 68bd 6406 0cbd 3c9e 25bd
00000320: 126c 26bd a8f1 70bd 7e45 66bd d2cf 633d
00000330: 3c1c d83c de4f 53bd 8888 403d 005a beba
00000340: 6298 5bbd 3654 423d 669c 21bd 4e5e bf3c
00000350: 2022 c9bb d0bf 8cbb ac5d 863c f888 8a3b
00000360: e0ab 67bb a83a 16bd 948c ff3c c751 89bb
00000370: e682 e03b cc37 893c e66f 19bd 0cd9 b03c
00000380: 3265 0a3d cca7 70bd 6c3e 8ebc 6c62 1bbd
00000390: 0093 81bb a262 533d fb25 c1b9 c58d 4dbc
000003a0: 4605 663d 4cf9 ac3c 8200 24bd e7b0 47bd
000003b0: 4ccd 01bb a828 cdbc 78e5 22bc 70da d4bb
000003c0: 1260 60bd 5e76 25bd f0fd 873c dee4 1e3d
000003d0: 0846 053d 04e4 18bd edd1 1fbd c40b a03c
000003e0: ab93 99bd 7eed 5abd 38eb 783c 605f c93c
000003f0: 7dff 63bd fcdd 65bd e41f babc 3c3c ac3c

model.4.bias f4 [64]
-0.048658367 0.29392117 0.1939532 0.017520018 -0.015636798 -0.10349444 0.16469558 -0.100865535
-0.052365366 0.41354915 0.428988 0.36789808 -0.06608571 -0.043267015 -0.07566954 -0.07951886
-0.03198719 0.32072175 0.19259527 -0.025532572 -0.000792764 -0.20055528 -0.06469619 -0.009891721
-0.031117981 -0.077153444 -0.019247511 0.1232652 -0.05862198 0.0040966435 -0.16002232 -0.006731995
-0.16448417 0.310995 -0.10143748 -0.07309749 0.15519428 -0.0022436855 0.052392885 -0.026465226
-0.15730694 -0.1619313 0.022789305 0.050326645 -0.07690337 -0.09394408 -0.07474483 -0.2831983
0.014546689 0.07726557 -0.04147488 -0.38082087 -0.088245444 0.109302744 0.0068820827 -0.025753736
-0.12471604 -0.19059072 -0.14996445 -0.056398846 0.18045445 -0.34697184 -0.13528578 0.07318086
00000000: ff4d 47bd d67c 963e ab9b 463e 2486 8f3c
00000010: be18 80bc e5f4 d3bd f5a5 283e 9792 cebd
00000020: 117d 56bd b7bc d33e 51a4 db3e 235d bc3e
00000030: f257 87bd c138 31bd a2f8 9abd c9da a2bd
00000040: 0005 03bd a435 a43e b237 453e af29 d1bc
00000050: 7ed1 4fba 5d5e 4dbe 707f 84bd e310 22bc
00000060: 23eb febc a002 9ebd f5ac 9dbc 7772 fc3d
00000070: 9a1d 70bd 233d 863b e4dc 23be 1198 dcbb
00000080: 8a6e 28be bd3a 9f3e 74be cfbd 23b4 95bd
00000090: 40eb 1e3e cc0a 13bb ec99 563d 9acd d8bc
000000a0: 1215 21be 52d1 25be a3b0 ba3c 5023 4e3d
000000b0: 847f 9dbd c165 c0bd d113 99bd 5eff 90be
000000c0: 3c55 6e3c 693d 9e3d 90e1 29bd f4fa c2be
000000d0: 07ba b4bd 1eda df3d 1883 e13b 80f9 d2bc
000000e0: 206b ffbd 372a 43be 4890 19be 7a02 67bd
000000f0: 0dc9 383e 4ba6 b1be 5b88 0abe d9df 953d

model.6.weight f4 [1, 64]
0.062164824 -0.15516189 -0.0010651768 0.0135087175 0.08497046 -0.026730277 0.27746007 0.056527738
0.035673276 -0.0032790978 -0.23606205 -0.124498494 0.005317456 0.05805286 0.047744527 0.042521313
0.09095748 -0.25189775 0.022408752 0.005999035 0.08544554 -0.016367575 -0.014010636 0.053776458
0.067725204 -0.007657974 0.01346139 -0.2703397 0.022876605 -0.013064509 0.024859412 -0.06331931
-0.004153215 -0.19659401 -0.09769234 -0.003024475 -0.014775402 -0.057273593 0.0045290478 0.047691107
0.06675919 0.004865487 0.0006428801 -0.047362074 0.1088798 0.05830694 0.01046758 -0.11473
0.0747576 0.063778624 0.022226505 0.0039051166 0.037228305 0.008362122 0.0888376 0.057388548
-0.11264752 0.16915013 -0.011928525 -0.13636567 -0.0027533472 0.057513934 -0.031259798 0.06474031
00000000: 8ba0 7e3d c2e2 1ebe 679d 8bba ab53 5d3c
00000010: fe04 ae3d 74f9 dabc 3f0f 8e3e a189 673d
00000020: 241e 123d 22e6 56bb 40ba 71be 11f9 febd
00000030: 0e3e ae3b d6c8 6d3d c48f 433d d42a 2e3d
00000040: ea47 ba3d bef8 80be 8f92 b73c 8e93 c43b
00000050: 12fe ae3d 4b15 86bc de8c 65bc b444 5c3d
00000060: 83b3 8a3d beef fabb 298d 5c3c f769 8abe
00000070: b867 bb3c 860c 56bc f7a5 cb3c 8ead 81bd
00000080: b117 88bb f14f 49be ec12 c8bd 4536 46bb
00000090: 8714 72bc b797 6abd 6868 943b c057 433d
000000a0: 0bb9 883d aa6e 9f3b f486 283a bcfe 41bd
000000b0: 5ffc de3d 42d3 6e3d 3680 2b3c 90f7 eabd
000000c0: 831a 993d 5e9e 823d 5c14 b63c fcec 7f3b
000000d0: b57c 183d 4801 093c 7df0 b53d 4110 6b3d
000000e0: beb3 e6bd b135 2d3e dc6f 43bc 71a3 0bbe
000000f0: 8071 34bb bb93 6b3d 460a 00bd 9196 843d
