model_weight/critic/14_14 02:22:29 std 0.5 lr_critic_0.004- gamma_0.8 memory300 critic_weight.pth (torch, 645007 bytes, 7 tensors)

model.0.weight f4 [512, 24]
0.032156236 -0.024925752 -0.08085446 -0.108680576 -0.06603156 0.010926916 -0.0069165905 0.01346463
0.111139454 -0.2786053 0.10963612 -0.029522134 0.067461476 -0.0063646426 -0.15705858 0.0017580923
0.05537493 0.018814005 -0.0757733 -0.3437246 -0.14584698 -0.16839893 -0.16315036 -0.2277369
0.049421176 0.20357952 -0.027273996 0.06269924 0.11536424 -0.0085215485 -0.07093401 0.05324163
-0.21797474 -0.15457684 -0.041314524 0.11098338 -0.03966666 0.054204915 -0.13647132 0.10406512
0.037075438 0.03609401 -0.20290066 -0.21720904 -0.046184804 0.016038286 -0.05662002 -0.11765907
0.08171702 0.14050315 -0.08598543 -0.030785518 -0.03842505 0.05767655 -0.07117673 0.124728784
-0.082315736 -0.068172574 -0.032573584 -0.07938299 -0.11391749 0.05485046 -0.05830756 0.038714707
-0.037520833 -0.21910691 -0.06490951 -0.22680812 -0.14208111 -0.20657647 -0.1950813 -0.26182985
-0.50516623 -0.5398059 0.7365225 -0.05797278 -0.030516481 0.12297846 -0.3184089 0.033156306
-0.029542822 -0.4989103 -0.020507392 0.027415719 0.0021860942 -0.003903609 -0.32007524 -0.21795413
-0.25767255 -0.23495793 -0.26739594 -0.16400123 -0.4430402 -0.27464318 -0.42274845 -0.028096935
0.59500784 0.7706214 -1.2063931 -0.6352195 0.40612158 0.10673536 0.36012772 0.10923086
-0.20479542 0.2512418 -0.10766557 0.18402046 0.050543893 -0.21834433 -0.37091094 -0.5316905
-0.28184322 -0.41553092 -0.4406052 -0.58154756 -0.578311 -0.64671487 -0.22850186 -0.16877265
0.15629165 0.27158633 -0.104128845 -0.4187799 0.08541909 -0.16538827 0.1467221 0.02677212
0.040755358 -0.3083722 -0.12688519 0.02717291 -0.114898205 0.18732317 -0.30255127 -0.32381326
-0.18315339 -0.23025423 -0.21081455 -0.45767477 -0.29362813 -0.11856525 -0.45322558 -0.11456107
-0.41606852 0.110830426 0.15701686 -0.13062836 -0.11012941 -0.0022406373 -0.14252077 0.04205368
-0.08195549 -0.1268822 0.11695038 -0.11086498 -0.047694385 -0.15580776 -0.1590854 -0.43212232
-0.12069534 -0.22554497 -0.13511427 -0.42485934 -0.22239651 -0.31870532 -0.24297199 -0.013250262
-0.13333808 -0.33383232 0.21866609 -0.3297181 0.046508055 0.015145842 -0.3176342 -0.003590436
0.08959799 -0.18480602 -0.09131043 -0.18491936 -0.04351171 0.111603364 -0.31332615 -0.43599728
-0.2450129 -0.37093234 -0.31613785 -0.4053355 -0.080966555 -0.07633347 -0.43930626 0.08676234
-0.043682966 -0.047156826 -0.12799467 -0.12014483 0.14086966 -0.13111974 0.006393015 -0.1219668
0.11879875 -0.14972119 -0.041700695 -0.23429592 -0.08942687 0.03824711 -0.14073065 -0.32726613
-0.044084597 -0.24482678 -0.10695545 -0.03134176 -0.17893513 -0.2176663 0.07237246 -0.14040096
0.016070742 -0.21136902 -0.06029775 0.014683784 -0.033918194 0.036344185 0.04443113 -0.011881177
0.022169383 -0.17145117 -0.065192565 -0.0045309532 0.08941133 -0.14169204 -0.071842544 -0.21633609
-0.17187013 0.05623072 -0.16741264 -0.16428338 -0.23502015 -0.15083286 -0.07745473 -0.2860811
-0.007859765 0.2098005 0.2797687 -0.5335017 0.3101741 -0.10896724 -0.035072137 0.07869117
-0.041482463 -0.11249236 -0.012302923 -0.024996474 0.045985408 0.0039763614 -0.25158805 -0.22196065
00000000: 42b6 033d 1731 ccbc 0697 a5bd ec93 debd
00000010: 8e3b 87bd cf06 333c 91a4 e2bb c09a 5c3c
00000020: 159d e33d 5ba5 8ebe e788 e03d 67d8 f1bc
00000030: 3e29 8a3d 7e8e d0bb f7d3 20be ca6f e63a
00000040: d3d0 623d d41f 9a3c 082f 9bbd acfc afbe
00000050: e958 15be c570 2cbe e310 27be dd33 69be
00000060: dc6d 4a3d 2677 503e b76d dfbc 7668 803d
00000070: 1644 ec3d f79d 0bbc da45 91bd e513 5a3d
00000080: c534 5fbe 6449 1ebe 6b39 29bd 414b e33d
00000090: 8279 22bd f905 5e3d 23bf 0bbe 1820 d53d
000000a0: 6adc 173d 50d7 133d 31c5 4fbe 0c6c 5ebe
000000b0: 472c 3dbd b962 833c 65ea 67bd 3df7 f0bd
000000c0: 415b a73d 0fe0 0f3e 2119 b0bd e931 fcbc
000000d0: 9663 1dbd 3f3e 6c3d 1bc5 91bd ce71 ff3d
000000e0: 2795 a8bd 109e 8bbd e16b 05bd 8d93 a2bd
000000f0: 934d e9bd e0aa 603d e8d3 6ebd 5093 1e3d
00000100: 72af 19bd 905d 60be 47ef 84bd 6340 68be
00000110: b67d 11be c888 53be 64c3 47be 900e 86be
00000120: 9352 01bf b830 0abf bd8c 3c3f de74 6dbd
00000130: b3fd f9bc 21dc fb3d 7e06 a3be e8ce 073d
00000140: ca03 f2bc 2c71 ffbe 1eff a7bc ee96 e03c
00000150: 9344 0f3b b1d3 7fbb e7e0 a3be 5e2f 5fbe
00000160: a8ed 83be d098 70be 1fe8 88be f0ef 27be
00000170: 2ad6 e2be 089e 8cbe 7c72 d8be 8b2b e6bc
00000180: 6f52 183f 7247 453f 176b 9abf bf9d 22bf
00000190: 2bef cf3e 1298 da3d a962 b83e 6eb4 df3d
000001a0: e4b5 51be c4a2 803e c47f dcbd dc6f 3c3e
000001b0: 1d07 4f3d a895 5fbe 0ae8 bdbe de1c 08bf
000001c0: c14d 90be 78c0 d4be 0197 e1be 4de0 14bf
000001d0: 310c 14bf 1b8f 25bf 64fc 69be bdd2 2cbe
000001e0: eb0a 203e 5d0d 8b3e 8141 d5bd 526a d6be
000001f0: 34f0 ae3d 8b5b 29be 513e 163e 3451 db3c
00000200: 17ef 263d f6e2 9dbe 31ee 01be b999 de3c
00000210: c04f ebbd a5d1 3f3e 00e8 9abe daca a5be
00000220: 908c 3bbe c4c7 6bbe c5df 57be 5954 eabe
00000230: 6d56 96be 56d2 f2bd 2f0d e8be ff9e eabd
00000240: ef06 d5be 10fb e23d 07c9 203e 71c3 05be
00000250: 878b e1bd a8d7 12bb f7f0 11be 7b40 2c3d
00000260: 48d8 a7bd 68ed 01be ae83 ef3d 2e0d e3bd
00000270: 305b 43bd 128c 1fbe 48e7 22be 233f ddbe
00000280: 1e2f f7bd 43f5 66be 655b 0abe 2a87 d9be
00000290: e9bb 63be 582d a3be a6cd 78be a017 59bc
000002a0: c789 08be 12ec aabe 01ea 5f3e d0d0 a8be
000002b0: 3b7f 3e3d 4426 783c f3a0 a2be 854d 6bbb
000002c0: 277f b73d ca3d 3dbe f600 bbbd 805b 3dbe
000002d0: 5639 32bd 4e90 e43d 496c a0be 093b dfbe
000002e0: a9e4 7abe d8ea bdbe d2dc a1be 2288 cfbe
000002f0: cbd1 a5bd b954 9cbd c0ec e0be 74b0 b13d
00000300: e9ec 32bd 8427 41bd 0911 03be 7e0e f6bd
00000310: 2340 103e 4144 06be 7f7c d13b bbc9 f9bd
00000320: c24c f33d 8350 19be 59ce 2abd 45eb 6fbe
00000330: 6f25 b7bd 00a9 1c3d b21b 10be 6d8f a7be
00000340: 0d92 34bd dfb3 7abe 750b dbbd 3860 00bd
00000350: c53a 37be eae3 5ebe 0338 943d 45c5 0fbe
00000360: caa6 833c 1f71 58be c6fa 76bd 4194 703c
00000370: ceed 0abd a4dd 143d 6bfd 353d 45a9 42bc
00000380: 919c b53c e590 2fbe ae83 85bd 6478 94bb
00000390: 4a1d b73d b817 11be 2f22 93bd 3587 5dbe
000003a0: b9fe 2fbe 2f52 663d 386e 2bbe e739 28be
000003b0: 1fa9 70be ee73 1abe 96a0 9ebd 3979 92be
000003c0: 3ec6 00bc f1d5 563e d83d 8f3e 9193 08bf
000003d0: 24cf 9e3e 372a dfbd cda7 0fbd d628 a13d
000003e0: 84e9 29bd 6562 e6bd 3392 49bc 68c5 ccbc
000003f0: 325b 3c3d 234c 823b 26d0 80be a749 63be

model.0.bias f4 [512]
-0.08892753 -0.2741549 -0.07560284 0.27396718 -0.18240294 0.1303365 -0.26509312 -0.10824143
-0.116703905 -0.07034207 0.15367785 -0.0884573 -0.18822972 -0.040598366 -0.1358044 -0.026128765
-0.2060695 -0.21128695 -0.22053243 0.08700393 -0.02335576 0.070486836 0.36134833 -0.14083266
-0.17853963 -0.014327022 -0.14724211 0.19073382 -0.26668805 -0.1901882 0.15453152 -0.190751
-0.19370237 0.3141973 0.20769888 -0.13971551 -0.062818214 -0.16695142 0.095709525 -0.02601715
0.0882296 -0.14310819 -0.109065674 0.12821929 -0.27228108 0.014605106 0.098266184 -0.03908
-0.15327518 -0.14957291 -0.13647074 -0.6492906 -0.1617679 -0.21054499 -0.24468605 -0.076182015
-0.0021507381 0.09783259 0.15079148 0.09912569 -0.18533567 -0.12188665 -0.15222105 0.28964606
-0.16806264 -0.04068079 0.05799942 -0.07656635 0.18333235 0.007832926 -0.20201616 0.25794202
-0.32764712 0.33827522 -0.06421547 -0.2896754 0.08466837 0.0331824 -0.2685972 -0.04265013
-0.15227051 -0.04955353 -0.29566717 -0.12291973 -0.26872194 -0.15294543 0.06297199 -0.036439784
0.37521628 -0.14776441 0.24050999 0.034813512 -0.26532134 0.0066736694 0.31877664 0.02902132
-0.17877114 0.061255965 0.2648247 0.110442884 0.1272778 -0.2495973 0.10991367 -0.024808466
-0.056012962 -0.13341054 -0.13904814 0.110469475 0.31490916 -0.14125383 -0.024797456 0.13262957
-0.35183075 -0.25366992 -0.08383373 0.004697945 -0.07692464 0.08511777 -0.13318488 0.0050034174
-0.23121043 -0.3802699 -0.21201141 -0.699033 0.10499215 -0.111977525 0.05037326 0.051814932
-0.26864022 -0.05173382 -0.10420272 -0.15955488 -0.24341185 -0.14506085 0.050149266 -0.2927349
-0.18107006 -0.09032499 -0.117399454 -0.23494628 -0.022384938 -0.25498042 0.16121614 -0.09440934
-0.021375114 -0.051300533 0.23595141 -0.32310566 0.3419306 -0.077069506 0.049794108 -0.13724719
-0.22583617 -0.47149217 -0.16818605 -0.3619904 -0.117487915 -0.18813576 0.41960385 -0.078854
-0.017298726 0.08210828 0.46678403 -0.14199847 -0.20529167 -0.24703161 -0.06626611 -0.049386952
-0.5808158 -0.3212207 -0.01260107 0.12851527 -0.33164683 -0.18111132 -0.07187752 -0.15444236
-0.045954786 -0.09019063 0.024756035 -0.13228951 -0.13522996 0.396951 0.5041081 -0.15788248
-0.19687587 -0.085841626 0.5656705 -0.22482422 0.09231651 -0.086146496 -0.077774726 0.12076928
-0.33042818 0.02823374 -0.13051668 1.6643391e-05 0.019098347 -0.042477977 0.036674906 -0.48459554
-0.022194797 0.09033259 -0.22412805 0.43638763 -0.2424975 0.034964133 0.527742 0.022891866
-0.15132177 -0.01166646 -0.6052369 0.6754159 -0.12760603 -0.0142572075 -0.1948091 -0.28033814
0.0047958405 -0.15511662 -0.041650508 0.03849344 0.009614469 0.00233256 0.11544141 0.47396836
0.020786077 0.22026312 0.06313591 -0.24666663 0.031526413 0.05363422 -0.51066697 0.050909698
-0.18489172 0.26672634 0.2859883 -0.11744746 0.120185845 0.4634519 -0.28519392 -0.10170427
-0.16687638 -0.22365074 -0.25686336 0.09234622 0.22922343 -0.002617538 0.18025923 -0.23035069
-0.13795361 0.57378674 -0.32236072 -0.19031921 -0.10707529 0.16398855 0.051878 -0.18577906
00000000: a31f b6bd 085e 8cbe a9d5 9abd 6d45 8c3e
00000010: d6c7 3abe ee76 053e 49ba 87be afad ddbd
00000020: 7502 efbd 810f 90bd ba5d 1d3e 1a29 b5bd
00000030: 4bbf 40be 794a 26bd 4f10 0bbe fe0b d6bc
00000040: e203 53be 9b5b 58be 41d3 61be 1e2f b23d
00000050: 9454 bfbc 675b 903d a602 b93e 7036 10be
00000060: 18d3 36be e3bb 6abc a3c6 16be ba4f 433e
00000070: 568b 88be b2c0 42be 833d 1e3e 3b54 43be
00000080: ea59 46be 78de a03e 04af 543e 9511 0fbe
00000090: d6a6 80bd 50f5 2abe 5b03 c43d eb21 d5bc
000000a0: b8b1 b43d f48a 12be d35d dfbd eb4b 033e
000000b0: 6d68 8bbe 414a 6f3c c83f c93d 5a12 20bd
000000c0: 2bf4 1cbe a429 19be fcbe 0bbe e937 26bf
000000d0: 7ca6 25be 1b99 57be fb8e 7abe 5105 9cbd
000000e0: 66f3 0cbb 745c c83d 1569 1a3e 6902 cb3d
000000f0: a2c8 3dbe b59f f9bd d6df 1bbe 7d4c 943e
00000100: 9d18 2cbe e6a0 26bd cd90 6d3d d2ce 9cbd
00000110: 7abb 3b3e ac55 003c 53dd 4ebe fa10 843e
00000120: 5dc1 a7be 6932 ad3e 6683 83bd 5650 94be
00000130: 9c66 ad3d 45ea 073d 9285 89be e7b1 2ebd
00000140: cdec 1bbe a4f8 4abd b061 97be 57bd fbbd
00000150: ec95 89be ba9d 1cbe 75f7 803d e241 15bd
00000160: 591c c03e 8e4f 17be 4048 763e 9d98 0e3d
00000170: 33d8 87be ccae da3b b136 a33e 1fbe ed3c
00000180: c80f 37be 89e7 7a3d 1a97 873e e12f e23d
00000190: 1d55 023e 6f96 7fbe 6b1a e13d 203b cbbc
000001a0: d96d 65bd c69c 08be a362 0ebe d23d e23d
000001b0: c63b a13e d8a4 10be 0924 cbbc 0cd0 073e
000001c0: 2923 b4be 06e1 81be 05b1 abbd 38f1 993b
000001d0: aa8a 9dbd 3a52 ae3d 9e61 08be b5f3 a33b
000001e0: 6dc2 6cbe bdb2 c2be 8519 59be d4f3 32bf
000001f0: 2006 d73d 7954 e5bd 3154 4e3d e53b 543d
00000200: 368b 89be d8e6 53bd 3c68 d5bd 5b62 23be
00000210: f540 79be d58a 14be 5169 4d3d 59e1 95be
00000220: 6e6a 39be 4ffc b8bd 206f f0bd c295 70be
00000230: 9e60 b7bc cb8c 82be d815 253e af59 c1bd
00000240: dd1a afbc 8220 52bd 3f9d 713e 1b6e a5be
00000250: 8711 af3e 9ed6 9dbd e8f4 4b3d 878a 0cbe
00000260: 9941 67be 6c67 f1be f738 2cbe ce56 b9be
00000270: 819d f0bd a9a6 40be 51d6 d63e 357e a1bd
00000280: 0fb6 8dbc 6328 a83d 51fe ee3e 0c68 11be
00000290: fb37 52be dbf5 7cbe 87b6 87bd f949 4abd
000002a0: 58b0 14bf 0a77 a4be b874 4ebc 8299 033e
000002b0: 9dcd a9be 3f75 39be 8534 93bd 2326 1ebe
000002c0: 163b 3cbd ddb5 b8bd 2bcd ca3c e776 07be
000002d0: b979 0abe 293d cb3e 3a0d 013f f2ab 21be
000002e0: d499 49be bccd afbd c8cf 103f 5238 66be
000002f0: 7010 bd3d 936d b0bd 5b48 9fbd e255 f73d
00000300: e22d a9be 724a e73c 2aa6 05be 699d 8b37
00000310: 2374 9c3c 63fd 2dbd 6d38 163d e81c f8be
00000320: ddd1 b5bc 4b00 b93d d381 65be 336e df3e
00000330: 4451 78be 8d36 0f3d 1a1a 073f b987 bb3c
00000340: 18f4 1abe ae24 3fbc cef0 1abf 0ee8 2c3f
00000350: 28ab 02be 1097 69bc 097c 47be 7b88 8fbe
00000360: 6d26 9d3b e4d6 1ebe b999 2abd 4cab 1d3d
00000370: 0186 1d3c dddd 183b 8c6c ec3d fbab f23e
00000380: 9047 aa3c a88c 613e 664d 813d 2d96 7cbe
00000390: d721 013d 8eaf 5b3d 12bb 02bf b086 503d
000003a0: 4154 3dbe 5b90 883e 0f6d 923e 4b88 f0bd
000003b0: ff23 f63d 9149 ed3e f004 92be 544a d0bd
000003c0: a4e1 2abe b304 65be 9883 83be 0420 bd3d
000003d0: 8cb9 6a3e 008b 2bbb e095 383e 0de1 6bbe
000003e0: b643 0dbe b0e3 123f 770c a5be 0ae3 42be
000003f0: 4a4a dbbd 9dec 273e 077e 543d de3c 3ebe

model.2.weight f4 [256, 512]
0.013275104 0.0058028162 0.016087867 -0.06286297 0.0033483566 -0.004613458 -0.027930524 -0.00949445
-0.061022565 -0.059445206 -0.016890973 -0.013994035 0.0031603745 0.0059059756 0.019931985 -0.051184
-0.034904674 -0.010362776 0.0042521395 0.010935634 -0.03392701 0.00017397873 0.0007070059 -0.014404017
-0.055990994 -0.04485913 -0.04101435 -0.0061093136 -0.05233558 -0.0065802974 -0.066935524 -0.0216425
-0.0059350585 -0.05691401 -0.007763868 -0.06209747 0.0078308685 0.011066815 -0.054102022 -0.055781916
0.018812217 -0.007934528 -0.018737841 -0.0644865 -0.0023167494 -0.041649323 -0.0007374171 -0.032057352
-0.004129172 0.0071001956 -0.037244316 -0.008597401 -0.053473867 -0.025546612 -0.0354262 0.0100783035
-0.048281383 -0.037825927 -0.0156588 -0.009075515 -0.018055562 -0.003343553 0.0023240042 -0.046542782
0.012953796 -0.0181521 -0.063675545 -0.025134446 -0.032568436 0.0032075855 0.010321726 -0.0051871645
0.016605109 0.013121096 -0.014690295 0.00037488985 0.018884284 -0.01810135 -0.0016212612 -0.03628212
0.012128413 -0.02813532 -0.02976804 0.025025425 -0.060654294 0.017387593 -0.067959264 -0.044464726
-0.05182568 -0.034859497 -0.0045957654 0.006351255 0.017195536 0.024322351 -0.01797024 -0.024205519
-0.014617556 -0.034378905 -0.015941933 -0.02260874 -0.06776806 0.01451209 -0.0047027883 0.017196098
-0.023193695 -0.028193308 0.03492296 -0.023613272 0.012719288 -0.027284676 -0.06262822 -0.05373483
0.0110804485 -0.05608762 -0.050669316 0.0093300715 0.01249026 -0.030087695 0.004872065 -0.056498826
0.0035039294 -0.025427572 0.015260746 -0.022987872 0.004040713 -0.049762987 -0.017769389 -0.022093678
-0.036064345 -0.0062004044 -0.03962924 -0.06474857 -0.044805687 0.010045388 -0.051474474 -0.0077808965
-0.017252516 -0.035980698 -0.0007304383 -0.05785697 -0.016582625 -0.0019336428 -0.003035181 -0.028471613
-0.03804672 -0.003042628 -0.048549846 0.0064054574 -0.0667469 -0.0479511 -0.04642181 -0.06550984
0.04573644 -0.06279066 -0.044181526 -0.051441822 0.006110639 0.017818358 -0.025775654 0.06259602
-0.036613695 -0.021851603 -0.011245413 0.007926654 -0.048795573 -0.057147156 0.04543944 -0.033195272
0.0030124811 0.0038496477 -0.05410347 -0.05920677 -0.04010737 -0.029930098 -0.007721068 -0.0074344804
-0.044937633 0.0146445725 -0.019478422 -0.048182435 0.013288256 -0.028077507 0.025122577 -0.02656711
0.061957315 -0.022479659 -0.053742193 -0.021976676 -0.028803866 -0.062643565 -0.014660498 -0.046603527
-0.015248963 0.020100242 -0.03787828 0.048692785 -0.06566861 -0.044051833 -0.032825887 -0.01529258
0.016710972 -0.046637394 -0.02252234 -0.03960502 0.007872916 -0.055193353 0.00114839 -0.034257546
0.016531272 -0.012527305 -0.056969307 -0.038881533 -0.067842446 -0.039744113 0.0028418335 -0.060580507
-0.041880034 -0.031739958 -0.06642201 -0.017270628 0.017586537 -0.06644875 0.0134987645 -0.04962784
-0.042389933 0.016543845 -0.04362132 -0.04268828 -0.01153088 -0.037201654 -0.06592796 -0.025401108
0.011253694 -0.032182086 -0.061041325 -0.015900197 -0.054739587 -0.045305006 -0.03213123 -0.0270203
0.030172475 -0.038747933 -0.05727293 -0.040821854 -0.05022197 -0.019247074 0.017625844 -0.04010791
0.060533177 -0.02990936 -0.030284522 0.04236396 -0.060973156 -0.010559387 -0.055440046 -0.0053617214
00000000: d27f 593c 8d25 be3b b4ca 833c 4dbe 80bd
00000010: 1a70 5b3b 7e2c 97bb 8ece e4bc 9c8e 1bbc
00000020: ccf2 79bd d17c 73bd f05e 8abc 3d47 65bc
00000030: 491e 4f3b ea86 c13b 6748 a33c 50a6 51bd
00000040: 34f8 0ebd a2c8 29bc 8855 8b3b 602b 333c
00000050: 0cf7 0abd 0f6e 3639 5d56 393a d3fe 6bbc
00000060: d056 65bd 35be 37bd aafe 27bd a330 c8bb
00000070: d55d 56bd 899f d7bb 7e15 89bd 9d4b b1bc
00000080: e17a c2bb aa1e 69bd 0c68 febb eb59 7ebd
00000090: 0b4d 003c 9651 353c 159a 5dbd 947b 64bd
000000a0: 141c 9a3c d3ff 01bc 1a80 99bc 8011 84bd
000000b0: 9bd4 17bb 7b98 2abd 394f 41ba 924e 03bd
000000c0: 014e 87bb c2a8 e83b 7f8d 18bd 1ddc 0cbc
000000d0: 6a07 5bbd 2147 d1bc 101b 11bd 781f 253c
000000e0: b3c2 45bd 5cef 1abd e246 80bc 78b1 14bc
000000f0: 42e9 93bc 831f 5bbb 524e 183b a5a3 3ebd
00000100: 293c 543c b6b3 94bc 5368 82bd c1e6 cdbc
00000110: 7b66 05bd 5b36 523b 751c 293c 17f9 a9bb
00000120: 7007 883c def9 563c 90af 70bc dd8c c439
00000130: 37b3 9a3c 4849 94bc 8080 d4ba 8f9c 14bd
00000140: 40b6 463c 0b7c e6bc 1bdc f3bc 1f02 cd3c
00000150: a370 78bd 6d70 8e3c 3a2e 8bbd a520 36bd
00000160: 2a47 54bd d5c8 0ebd 1398 96bb 301e d03b
00000170: a7dd 8c3c ab3f c73c 5336 93bc a74a c6bc
00000180: 797e 6fbc e5d0 0cbd a898 82bc f735 b9bc
00000190: fbc9 8abd 1ec4 6d3c d919 9abb d5de 8c3c
000001a0: b400 bebc a7f5 e6bc 610b 0f3d 9f70 c1bc
000001b0: 8f64 503c 1d84 dfbc 3943 80bd 0e19 5cbd
000001c0: c58a 353c 22bc 65bd a18a 4fbd 28dd 183c
000001d0: f3a3 4c3c 787a f6bc d8a5 9f3b 506b 67bd
000001e0: 2ea2 653b 7c4d d0bc 3508 7a3c 1051 bcbc
000001f0: f567 843b 46d4 4bbd 1c91 91bc cdfd b4bc
00000200: 35b8 13bd c32c cbbb 4552 22bd e69a 84bd
00000210: 2b86 37bd 6995 243c e6d6 52bd e4f6 febb
00000220: 2655 8dbc 7f60 13bd e27a 3fba 6efb 6cbd
00000230: 49d8 87bc 4972 fdba e3e9 46bb 4d3d e9bc
00000240: e1d6 1bbd d466 47bb 34dc 46bd dfe4 d13b
00000250: 99b2 88bd 5f68 44bd cc24 3ebd 062a 86bd
00000260: 2256 3b3d 6498 80bd b0f7 34bd a9b4 52bd
00000270: c13b c83b cef7 913c 7727 d3bc 5832 803d
00000280: 3ef8 15bd 2202 b3bc ae3e 38bc ccde 013c
00000290: dedd 47bd 2313 6abd b51e 3a3d c4f7 07bd
000002a0: 0c6d 453b 5f4a 7c3b 9a9b 5dbd cc82 72bd
000002b0: a047 24bd f72f f5bc 0301 fdbb f19c f3bb
000002c0: 8610 38bd caef 6f3c 3691 9fbc f25a 45bd
000002d0: fcb6 593c cd02 e6bc ddcd cd3c 45a3 d9bc
000002e0: f4c6 7d3d 4327 b8bc c620 5cbd 6e08 b4bc
000002f0: 16f6 ebbc 454b 80bd 9632 70bc 57e3 3ebd
00000300: c9d6 79bc 43a9 a43c 4126 1bbd 1672 473d
00000310: 447d 86bd b26f 34bd 7074 06bd bb8d 7abc
00000320: 73e5 883c da06 3fbd c580 b8bc e038 22bd
00000330: 67fd 003c 6d12 62bd 9385 963a a451 0cbd
00000340: 976c 873c 533f 4dbc a658 69bd 3e42 1fbd
00000350: fbf0 8abd b9ca 22bd 0e3e 3a3b 4423 78bd
00000360: 668a 2bbd c201 02bd 4308 88bd 227b 8dbc
00000370: a411 903c 4816 88bd ec29 5d3c 9046 4bbd
00000380: 11a1 2dbd f586 873c 45ac 32bd e8d9 2ebd
00000390: 04ec 3cbc c360 18bd 3d05 87bd fc15 d0bc
000003a0: 6a61 383c 5dd1 03bd 7806 7abd 2141 82bc
000003b0: 9e36 60bd be91 39bd 099c 03bd ad59 ddbc
000003c0: 442c f73c 27b6 1ebd 0597 6abd d134 27bd
000003d0: 8db5 4dbd 0aac 9dbc 1364 903c 3148 24bd
000003e0: a3f1 773d 7904 f5bc 3f17 f8bc d585 2d3d
000003f0: fdbe 79bd 4701 2dbc 1a15 63bd 61b1 afbb

model.2.bias f4 [256]
-0.022288773 0.032839302 0.19240588 -0.04965704 -0.043443974 -0.18583164 0.25181252 -0.014705541
0.011675262 0.12674299 -0.026939854 -0.0584416 -0.04006934 -0.03251286 0.010588957 0.036524437
-0.0629878 -0.0476106 -0.06925038 -0.050007924 -0.06469465 0.15776902 -0.013446606 -0.09000242
-0.031833544 -0.040901296 -0.015363414 -0.04808799 -0.059678495 0.13142101 0.12203557 -0.14675122
-0.013997486 -0.0077135763 -0.06116346 -0.0077135866 0.009687389 -0.030687237 0.14148888 -0.00024547515
-0.24250622 -0.011790281 -0.09050499 -0.0031590506 -0.007942999 0.019032475 -0.07129368 -0.01885625
-0.114073746 -0.0126346825 -0.011891095 -0.001879974 0.015904557 -0.03259873 -0.037726685 0.24201097
-0.06502704 -0.04752036 -0.0032929105 -0.009739834 -0.009287325 -0.041292608 0.18625644 -0.029088544
-0.074260905 0.115447186 -0.06242402 0.26397216 -0.032270677 -0.21471182 -0.038607307 -0.043143768
-0.04702543 0.2625212 0.014574431 -0.018624768 -0.051734693 -0.04214572 -0.12221972 -0.15711634
-0.033710558 -0.0024118659 -0.057055153 -0.046154052 -0.04156048 0.041838255 0.19046912 0.68114096
-0.010945671 0.24777804 0.07246418 -0.075889125 0.029359642 -0.09227004 0.13433899 -0.052778676
0.18060409 0.012719514 0.12099215 -0.056666177 0.009662245 -0.008751183 -0.04579543 -0.044488188
-0.027095392 -0.06689182 -0.038216814 -0.0648115 0.0629311 -0.0058201174 -0.063624755 0.01165202
-0.030864457 -0.03087984 -0.00836436 -0.016229302 -0.03928436 0.018316383 -0.10406802 -0.027771791
0.007905667 0.25354055 -0.09065493 0.3490754 -0.0009931294 -0.017873293 -0.02945257 0.007308098
-0.0645081 0.019612672 0.10904174 -0.022788782 -0.10074133 0.051731423 -0.03126389 -0.0323024
0.010786905 -0.020050216 -0.14276095 -0.0137604 -0.026001675 -0.11594121 -0.0010131632 -0.045981456
0.12550399 0.2085532 -0.015433011 -0.056344397 -0.0043139714 -0.0053138593 -0.0271671 0.11750301
0.17240769 -0.04443991 -0.14182365 -0.03139506 -0.029509118 0.009211582 -0.056852553 -0.038495988
-0.024305835 -0.041883077 -0.02516889 -0.04269778 0.0024868671 0.15993825 -0.01345828 -0.026577273
-0.054585624 -0.038555607 -0.018715903 -0.10306743 -0.04042436 0.010322291 -0.011924645 -0.44588226
-0.39705732 0.15554056 0.029021 -0.075046755 -0.052212354 -0.024079662 -0.025754474 -0.011727088
-0.05792453 -0.10777871 -0.019039512 -0.010776074 -0.0055499896 -0.061580703 0.075280756 -0.18253963
-0.02441051 -0.07155971 -0.020802885 -0.033855602 -0.014364565 0.08638669 -0.030056505 0.7823023
-0.09577972 0.024840603 0.06240281 0.19283088 -0.089201584 0.017498588 0.16483858 -0.08341372
0.022539407 -0.057393868 -0.14390454 -0.09711775 0.020090772 -0.0595675 -0.10849855 0.019138735
-0.048890404 -0.024496544 0.2714769 -0.06419494 -0.20616199 -0.12560894 0.012936914 -0.03257175
-0.07258358 -0.029856695 -0.056770705 -0.012698227 -0.021716757 -0.10597685 -0.058732826 -0.006785629
-0.057264663 -0.043841463 0.01251635 -0.008363291 -0.058120675 -0.018690592 -0.075387724 -0.066548854
-0.024500322 -0.05042748 -0.029980138 0.07177405 -0.15108237 -0.011802927 -0.10444276 0.011018848
0.041083466 9.639703e-05 -0.12040456 -0.03897199 -0.04270461 -0.06756787 -0.13938041 -0.07446386
00000000: f296 b6bc 8182 063d 0c06 453e 2e65 4bbd
00000010: 4ff2 31bd a64a 3ebe 92ed 803e 82ef 70bc
00000020: 9949 3f3c eac8 013e f8b0 dcbc 7660 6fbd
00000030: c01f 24bd 342c 05bd 4e7d 2d3c a69a 153d
00000040: bfff 80bd 5503 43bd 25d3 8dbd 1cd5 4cbd
00000050: a17e 84bd 348e 213e 274f 5cbc 3053 b8bd
00000060: e463 02bd 1e88 27bd d4b6 7bbc eaf7 44bd
00000070: 7071 74bd 3b93 063e c9ed f93d f445 16be
00000080: b655 65bc 2bc2 fcbb 8986 7abd 41c2 fcbb
00000090: dbb7 1e3c cd63 fbbc 76e2 103e 1eb3 80b9
000000a0: 8d53 78be 062c 41bc ae5a b9bd 1308 4fbb
000000b0: 5a23 02bc fee9 9b3c 6c02 92bd 6c78 9abc
000000c0: 7f9f e9bd b301 4fbc ded2 42bc 7669 f6ba
000000d0: 464a 823c 3f86 05bd 4c87 1abd b9d1 773e
000000e0: e62c 85bd b6a4 42bd dfcd 57bb d393 1fbc
000000f0: dd29 18bc 7022 29bd 02ba 3e3e 194b eebc
00000100: 1a16 98bd 936f ec3d 54b0 7fbd 5c27 873e
00000110: 422e 04bd 6add 5bbe b222 1ebd 85b7 30bd
00000120: bd9d 40bd 2e69 863e 98c9 6e3c f892 98bc
00000130: c2e7 53bd fea0 2cbd 554e fabd 1be3 20be
00000140: 1514 0abd 6510 1ebb aab2 69bd 080c 3dbd
00000150: 523b 2abd 975e 2b3d 560a 433e 415f 2e3f
00000160: 7955 33bc 87b9 7d3e 1a68 943d c26b 9bbd
00000170: a283 f03c 13f8 bcbd 2990 093e 742e 58bd
00000180: 47f0 383e 8265 503c bbca f73d cb1a 68bd
00000190: 654e 1e3c 1f61 0fbc fd93 3bbd 3f39 36bd
000001a0: 28f7 ddbc 94fe 88bd 3c89 1cbd e4bb 84bd
000001b0: 05e2 803d afb6 bebb b24d 82bd 1de8 3e3c
000001c0: 75d7 fcbc b8f7 fcbc ab0a 09bc 50f3 84bc
000001d0: a3e8 20bd 3d0c 963c 9d21 d5bd ab81 e3bc
000001e0: c586 013c 11d0 813e 4ba9 b9bd 03ba b23e
000001f0: e52b 82ba 036b 92bc 8446 f1bc c578 ef3b
00000200: d31c 84bd c1aa a03c 4751 df3d 8aaf babc
00000210: 7851 cebd 54e4 533d 910e 00bd 854f 04bd
00000220: 8fbb 303c 5a40 a4bc ed2f 12be 4d73 61bc
00000230: 7701 d5bc 9672 edbd 1ecc 84ba 0d57 3cbd
00000240: 1e84 003e f88e 553e bdda 7cbc 62c9 66bd
00000250: 375c 8dbb e21f aebb 8a8d debc 6ba5 f03d
00000260: a48b 303e a006 36bd 383a 11be 1b98 00bd
00000270: 1bbd f1bc 2dec 163c 39de 68bd f8ad 1dbd
00000280: 081d c7bc 978d 2bbd fd2e cebc dee3 2ebd
00000290: b5fa 223b dac6 233e 1e80 5cbc 95b8 d9bc
000002a0: 2d95 5fbd 7cec 1dbd 1852 99bc 0415 d3bd
000002b0: 0494 25bd d41e 293c 965f 43bc ae4a e4be
000002c0: 194b cbbe 0646 1f3e 73bd ed3c 1db2 99bd
000002d0: 9fdc 55bd b642 c5bc 0cfb d2bc f922 40bc
000002e0: 4642 6dbd 16bb dcbd c0f8 9bbc 218e 30bc
000002f0: b0dc b5bb 0c3c 7cbd cc2c 9a3d abeb 3abe
00000300: 8df8 c7bc e68d 92bd d06a aabc 2cac 0abd
00000310: 5a59 6bbc 81eb b03d 0f39 f6bc f744 483f
00000320: 2828 c4bd 857e cb3c 179a 7f3d 7575 453e
00000330: 52af b6bd 3359 8f3c 72cb 283e d0d4 aabd
00000340: 90a4 b83c d515 6bbd b65b 13be ace5 c6bd
00000350: 6795 a43c 0dfd 73bd 7d34 debd d6c8 9c3c
00000360: 4e41 48bd faac c8bc 05ff 8a3e a378 83bd
00000370: 211c 53be a19f 00be 5af5 533c f569 05bd
00000380: b3a6 94bd 0796 f4bc 6688 68bd 390c 50bc
00000390: 57e7 b1bc 640a d9bd d591 70bd fb59 debb
000003a0: 5a8e 6abd 1b93 33bd 6011 4d3c 2f06 09bc
000003b0: f20f 6ebd 031d 99bc e164 9abd c44a 88bd
000003c0: e6b4 c8bc 0c8d 4ebd e898 f5bc 46fe 923d
000003d0: 56b5 1abe 1061 41bc 16e6 d5bd 6688 343c
000003e0: 2347 283d c328 ca38 aa96 f6bd 18a1 1fbd
000003f0: 07eb 2ebd 0661 8abd bdb9 0ebe 8280 98bd

model.4.weight f4 [64, 256]
0.006360909 -0.011818018 -0.069585524 -0.07432214 0.04857471 0.058458414 -0.13919349 -0.021299466
-0.03841796 -0.115007184 0.016392166 0.04334495 0.041053932 0.07788521 -0.040884186 0.32920653
0.035643388 -0.054858025 -0.113042854 0.011595359 0.30413705 -0.18872271 0.042531654 0.054211132
-0.01688084 -0.049037673 -0.043286487 0.024520926 0.16669439 -0.20454267 -0.16802925 -0.097156525
-0.084938705 -0.005031556 0.0020255316 -0.0006102827 0.0056662997 -0.0013815865 -0.1329722 0.018454159
-0.090397045 0.05490188 -0.0063560903 -0.029154431 0.18654022 -0.020166917 -0.10855894 -0.023739338
-0.20426089 -0.34721652 0.032606002 -0.049415797 -0.01245939 -0.061798446 0.22282527 0.20174666
-0.010955486 0.037751514 0.07210165 -0.0030611183 -0.077345535 -0.031045627 0.05513561 0.047503542
0.026539419 0.024281261 -0.027593274 0.19436494 -0.078656495 -0.17009225 -0.06857699 -0.011418127
-0.053315148 0.06280202 0.039506104 -0.023474338 -0.007930805 -0.05234286 0.053949147 0.039542116
-0.0480749 -0.0624881 0.03594627 -0.009552766 0.04241882 -0.19790141 -0.15292098 0.04808395
0.04717981 -0.052435085 -0.10444063 0.020479534 0.26421094 0.05775035 -0.15280129 0.0075100185
0.076089405 -0.21555014 -0.12183812 -0.031627696 0.055152778 -0.010147301 0.034936976 0.24363199
0.002405032 -0.027696176 0.020705106 0.021538708 -0.16573092 -0.26774248 0.032193344 -0.021502763
-0.13621368 -0.015873142 0.07121907 0.07390329 0.02666292 0.037296955 0.32248786 -0.015226081
0.030840876 -0.08035298 -0.010373771 -0.25724855 0.04136927 -0.040346287 -0.20312822 -0.16158284
-0.13735788 -0.035889998 0.14696966 0.052159533 0.011640817 0.26688197 0.026111357 -0.05930721
-0.09444093 -0.062553205 -0.018499969 -0.033865336 -0.026082523 0.029992472 -0.02370521 -0.010755359
-0.0979556 -0.012374128 0.031446487 -0.03561885 0.01278337 -0.04791055 0.017967487 -0.07320204
-0.14346004 -0.048972484 0.05119384 -0.024532538 -0.065348476 -0.004941297 -0.016774803 0.00016264488
-0.07772771 -0.049067874 0.28965038 0.02263368 -0.0035767008 0.15062478 -0.010823763 -0.06393402
-0.12828565 -0.10927205 0.22836512 -0.0361309 0.011171676 0.07341936 -0.036648996 -0.22444177
-0.10920449 0.24573533 -0.150771 0.011593821 -0.07834084 -0.016433876 -0.04066665 -0.008835127
-0.043794587 -0.029229254 -0.028478706 -0.057154212 -0.044157144 -0.06566945 0.102488525 -0.3298702
0.04446336 0.01981584 0.028791793 0.029012319 -0.067682266 -0.057966553 -0.022298457 -0.05954357
0.07681388 -0.17839813 0.19086866 -0.20234661 0.023410361 -0.03565848 -0.093803346 -0.08448291
0.31439102 -0.07241191 0.05292207 -0.062274266 -0.08561476 -0.017851308 0.04586747 0.053956836
-0.027834687 -0.07954617 -0.08208191 -0.073394015 -0.049099494 -0.16062902 -0.039722085 -0.14776352
-0.00013826649 -0.020550707 -0.04416264 -0.12558849 -0.034209248 -0.0047721285 -0.04516255 -0.052178476
0.056368362 -0.001280345 0.079923004 -0.20190819 0.03700426 -0.058312174 -0.05306123 -0.013619752
-0.017937362 -0.09911729 -0.009333399 0.3356113 0.15890436 -0.014659253 -0.0059427693 0.04251575
0.2539543 -0.03127915 -0.015575847 0.072180875 -0.014736325 0.0008866026 -0.036027193 0.05164691
00000000: 2c6f d03b 5ca0 41bc db82 8ebd 3536 98bd
00000010: 46f6 463d 1772 6f3d bd88 0ebe 387c aebc
00000020: 275c 1dbd e388 ebbd dd48 863c 798a 313d
00000030: 2b28 283d 4882 9f3d 2d76 27bd c28d a83e
00000040: cdfe 113d cfb2 60bd 0383 e7bd 76fa 3d3c
00000050: dab7 9b3e 8740 41be ac35 2e3d 7e0c 5e3d
00000060: b049 8abc badb 48bd 2c4d 31bd 1ce0 c83c
00000070: efb1 2a3e a273 51be dc0f 2cbe 00fa c6bd
00000080: 58f4 adbd c0df a4bb c8be 043b 61fb 1fba
00000090: 5eac b93b 5a16 b5ba dd29 08be 2d2d 973c
000000a0: 1622 b9bd cbe0 603d c046 d0bb 46d5 eebc
000000b0: 6604 3f3e 1735 a5bc 2654 debd 0079 c2bc
000000c0: c429 51be 5dc6 b1be df8d 053d 3868 4abd
000000d0: 7822 4cbc 5e20 7dbd 4f2c 643e ad96 4e3e
000000e0: a47e 33bc 55a1 1a3d 08aa 933d 0b9d 48bb
000000f0: 5667 9ebd 6653 febc e1d5 613d 1393 423d
00000100: 3269 d93c 7fe9 c63c 4a0b e2bc 9a07 473e
00000110: a816 a1bd aa2c 2ebe 1872 8cbd 1913 3bbc
00000120: fc60 5abd 589e 803d 27d1 213d 414d c0bc
00000130: 35f0 01bc 7765 56bd c8f9 5c3d eaf6 213d
00000140: 30ea 44bd 86f3 7fbd 653c 133d 3483 1cbc
00000150: 5bbf 2d3d aba6 4abe 5197 1cbe adf3 443d
00000160: 9e3f 413d 2cc6 56bd f8e4 d5bd b2c4 a73c
00000170: a846 873e a28b 6c3d f177 1cbe 9a16 f63b
00000180: c3d4 9b3d 2db9 5cbe 4486 f9bd 0b8c 01bd
00000190: e1e7 613d dd40 26bc 131a 0f3d aa7a 793e
000001a0: be9d 1d3b 17e3 e2bc c19d a93c f271 b03c
000001b0: 5eb5 29be 8b15 89be 2bdd 033d 9026 b0bc
000001c0: 997b 0bbe 6408 82bc 4edb 913d 9c5a 973d
000001d0: 326c da3c b1c4 183d 211d a53e d076 79bc
000001e0: 01a6 fc3c 1a90 a4bd c0f6 29bc 15b6 83be
000001f0: d372 293d 2642 25bd d800 50be f975 25be
00000200: 8ba7 0cbe 6401 13bd 377f 163e 3ca5 553d
00000210: 20b9 3e3c c1a4 883e 7ce7 d53c 1eec 72bd
00000220: 3f6a c1bd e51b 80bd 3f8d 97bc 61b6 0abd
00000230: 04ab d5bc c6b2 f53c 6e31 c2bc 3f37 30bc
00000240: f29c c8bd dbbc 4abc 08ce 003d 12e5 11bd
00000250: 5771 513c da3d 44bd 8d30 933c f3ea 95bd
00000260: 30e7 12be 5f97 48bd a2b0 513d 76f8 c8bc
00000270: 6cd5 85bd 9bea a1bb 506b 89bc a78b 2a39
00000280: b52f 9fbd 65fb 48bd 0e4d 943e 446a b93c
00000290: 1567 6abb 623d 1a3e 2756 31bc d7ef 82bd
000002a0: 505d 03be 06ca dfbd 8cd8 693e fffd 13bd
000002b0: 6809 373c e45c 963d 421d 16bd 10d4 65be
000002c0: 9ba6 dfbd 0ba2 7b3e b763 1abe 03f4 3d3c
000002d0: 2a71 a0bd 56a0 86bc 1392 26bd 35c1 10bc
000002e0: f461 33bd 3072 efbc 2d4c e9bc 891a 6abd
000002f0: 1fde 34bd b47d 86bd 81e5 d13d bfe4 a8be
00000300: 361f 363d d454 a23c c4dc eb3c 3eab ed3c
00000310: 009d 8abd 566e 6dbd 41ab b6bc f5e3 73bd
00000320: 9850 9d3d 00ae 36be 1373 433e f333 4fbe
00000330: 16c7 bf3c a00e 12bd f81b c0bd 6005 adbd
00000340: dcf7 a03e b24c 94bd d0c4 583d 4d13 7fbd
00000350: cb56 afbd e83c 92bc 87df 3b3d d801 5d3d
00000360: 9205 e4bc 1ae9 a2bd 8f1a a8bd 9a4f 96bd
00000370: 8d1c 49bd ef7b 24be a0b3 22bd 524f 17be
00000380: a1fb 10b9 f559 a8bc e2e3 34bd 459a 00be
00000390: ff1e 0cbd 845f 9cbb 5efc 38bd 19b9 55bd
000003a0: 83e2 663d 40d1 a7ba acae a33d 05c1 4ebe
000003b0: c791 173d bfd8 6ebd bb56 59bd 6125 5fbc
000003c0: 60f1 92bc 01fe cabd 1deb 18bc 3fd5 ab3e
000003d0: d3b7 223e 5d2d 70bc 90bb c2bb ff24 2e3d
000003e0: 4c06 823e 911e 00bd d631 7fbc 91d3 933d
000003f0: a070 71bc e56a 683a 4091 13bd b68b 533d

model.4.bias f4 [64]
-0.16933912 0.01573446 -0.18520677 -0.013807772 -0.0012934969 0.12548767 0.24350467 -0.20769008
0.23419915 -0.15944408 0.03783814 -0.31214884 -0.047443517 -0.016094975 -0.086925544 0.1519382
0.18621379 0.24447407 0.021954859 0.23003756 -0.04599133 -0.32741487 -0.020298446 0.032261316
-0.061706915 -0.03647877 -0.07847096 0.20481704 -0.041065354 -0.042837195 0.031673696 -0.02448362
-0.18398157 0.009411807 -0.02007088 -0.13212642 -0.09161166 -0.022366498 0.085681856 -0.013697527
0.16754669 -0.18890087 0.06795584 -0.16935445 -0.030540328 -0.02887677 -0.13397507 -0.060702328
-0.09707321 0.097945035 0.1158316 -0.059294876 -0.054028675 -0.014294021 -0.098289944 -0.0113832615
-0.087016374 0.29134288 0.023579903 -0.05584713 0.01283683 -0.089090966 -0.006213988 -0.028836362
00000000: 3c67 2dbe 8ee5 803c d8a6 3dbe fe39 62bc
00000010: 8e8a a9ba d77f 003e 4a59 793e b5ac 54be
00000020: e7d1 6f3e 4f45 23be 2afc 1a3d f9d1 9fbe
00000030: 2254 42bd 9cd9 83bc 0506 b2bd b095 1b3e
00000040: d4ae 3e3e 6957 7a3e adda b33c f78e 6b3e
00000050: 6861 3cbd eca2 a7be ed48 a6bc 7124 043d
00000060: 64c0 7cbd c36a 15bd 62b5 a0bd 8fbb 513e
00000070: 2534 28bd 0e76 2fbd 47bc 013d df91 c8bc
00000080: aa65 3cbe fb33 1a3c b06b a4bc 264c 07be
00000090: e59e bbbd f239 b7bc f879 af3d 986b 60bc
000000a0: 5c91 2b3e 3b6f 41be 6e2c 8b3d 416b 2dbe
000000b0: b62f fabc fa8e ecbc c330 09be 01a3 78bd
000000c0: 52ce c6bd 6897 c83d 1e39 ed3d 2fdf 72bd
000000d0: 2c4d 5dbd 7831 6abc 3d4c c9bd dc80 3abc
000000e0: a435 b2bd e52a 953e a42a c13c f6bf 64bd
000000f0: 9151 523c 5375 b6bd b69e cbbb 3c3a ecbc

model.6.weight f4 [1, 64]
0.028830476 -0.018552005 -0.06847526 0.06437971 -0.0071420018 -0.0037504283 -0.25240052 0.062833615
-0.14555727 0.0295207 0.0012420309 -0.055694174 0.049953397 -6.528092e-05 0.0067604617 0.008606633
-0.19819337 -0.25017673 -0.12780252 0.057252884 -0.1008542 0.112339646 0.05832302 -0.012989071
-0.057309218 0.09030968 0.033150513 -0.03611031 0.071406476 -0.003208178 -0.007645457 -0.0033420674
0.0031523958 -0.0042064358 -0.0345803 -0.07038635 0.044712536 0.008693673 0.0019171025 0.022366757
-0.026601428 0.0073453872 0.0030459992 0.049978413 0.0049074 -0.044300526 -0.019939968 0.14548473
-0.22481664 -0.010046746 -0.016166048 0.0202914 -0.071625635 0.020510703 0.01825743 0.071950406
-0.012825564 -0.20548205 0.000838367 0.05518873 0.06684982 0.12714908 -0.0012331364 0.14476205
00000000: e42d ec3c 60fa 97bc c23c 8cbd 82d9 833d
00000010: 7407 eabb bfc9 75bb a43a 81be e9ae 803d
00000020: f70c 15be 65d5 f13c a4cb a23a 931f 64bd
00000030: ef9b 4c3d 6de7 88b8 dd86 dd3b d602 0d3c
00000040: 34f3 4abe 2a17 80be aade 02be 0082 6a3d
00000050: a68c cebd 5412 e63d 1ee4 6e3d 1dd0 54bc
00000060: 12bd 6abd 48f4 b83d d5c8 073d 68e8 13bd
00000070: 8f3d 923d 4c40 52bb be86 fabb 9606 5bbb
00000080: 6d98 4e3b 24d6 89bb 13a4 0dbd b826 90bd
00000090: 7e24 373d e86f 0e3c 4947 fb3a 7d3a b73c
000000a0: 3deb d9bc 93b1 f03b 639f 473b 2ab6 4c3d
000000b0: 41ce a03b 7874 35bd 2559 a3bc f3f9 143e
000000c0: 5536 66be 1b9b 24bc a96e 84bc 263a a63c
000000d0: 76b0 92bd 1006 a83c 9b90 953c bc5a 933d
000000e0: 5022 52bc e369 52be dbc5 5b3a 940d 623d
000000f0: 8fe8 883d 5e33 023e 31a1 a1ba 813c 143e
