model_weight/critic/14_14 00:49:05 std 0.4 lr_critic_0.004- gamma_0.8 memory500 critic_weight.pth (torch, 645007 bytes, 7 tensors)

model.0.weight f4 [512, 24]
000000 83 e0 ae 3e 37 6c 45 3d 1f 72 b1 3d f3 1c be be
       0.34155664 0.048198905 0.08664345 -0.37131462
000010 b4 ef e6 bd 1f 95 79 3e 1d 8f 55 3b 21 19 59 3d
       -0.112761885 0.24373291 0.0032586523 0.05300248
000020 24 e2 d5 bd 64 05 b2 3e 2d 65 bb 3b f4 d8 15 bd
       -0.104435235 0.34769738 0.005718848 -0.036583856
000030 cf c5 81 3d b3 26 9c 3c 9b 9c 4a be a0 42 3f be
       0.06336557 0.019061422 -0.19786303 -0.18677759
000040 f6 c4 fc be b1 fd 9e be 60 85 f7 be a6 4f a5 be
       -0.4936902 -0.31052926 -0.48343945 -0.3228733
000050 b0 57 c4 be 80 a7 e7 be 62 4e f7 be 9a e1 d4 bd
       -0.3834815 -0.4524498 -0.4830199 -0.103945926
000060 9c ca 6a 3e d6 0a d4 3e ff db 52 3e 9d b1 9c be
       0.22928852 0.41414517 0.20591734 -0.30604258
000070 1c a1 11 bc 7f d3 34 3b 57 15 1a bd 96 5e 0a 3d
       -0.008888509 0.0027591882 -0.037618008 0.03378161
000080 58 18 a6 be 29 ef b1 3e c7 91 10 3d bb f2 61 be
       -0.32440448 0.34752777 0.035295274 -0.2206525
000090 cb b2 01 be 7e 1a bf be 9f c2 31 be de 51 f2 be
       -0.1266586 -0.373249 -0.17359398 -0.47328085
0000a0 dc ae b1 be 91 a9 34 be 1b d0 ab be ba e3 ea be
       -0.3470372 -0.1764281 -0.3355721 -0.45876867
0000b0 1b c0 b6 be 6d 48 c3 be ef 76 6f be 46 f4 44 bd
       -0.3569344 -0.38141194 -0.23385213 -0.04808452
0000c0 1f e4 38 bf c8 77 3d be 6d a4 7f 3e 4c 89 04 3f
       -0.72223085 -0.18502724 0.24965067 0.51772
0000d0 21 88 0d bf c1 25 af 3d c0 6e cd be 13 26 dc 3d
       -0.5528584 0.08552123 -0.40123558 0.107494496
0000e0 1f 27 dc 3c ee fe 2e 3e 4b 71 b8 bd 64 25 c8 3d
       0.026874123 0.17089435 -0.09005984 0.09772757
0000f0 fa e8 c5 bc 04 8d b6 3c 90 92 37 3e 60 d8 51 3e
       -0.024158943 0.022284038 0.17927003 0.20492697
000100 59 98 a8 3d 6c b4 d2 3d 08 bb 5e 3e 8b 25 17 be
       0.08232183 0.10288319 0.21751034 -0.14760415
000110 5a 42 71 3e fc bd 30 3e 93 11 85 bd 07 64 7b 3e
       0.23560467 0.17259973 -0.06497493 0.24549876
000120 48 d0 8c be a4 57 39 3d a4 7f b1 be 0d cf e8 3e
       -0.27502656 0.045249596 -0.34667695 0.45470467
000130 a3 8d ce 3e 78 13 4a bd b5 92 76 3e 2f 69 a3 bd
       0.40342435 -0.049334973 0.24079402 -0.079790466
000140 76 cb 14 bd 8c 5f 06 3f 73 5d 0e 3d 82 d9 75 3e
       -0.036326848 0.5248954 0.03475709 0.24008754
000150 68 90 3d 3c 07 ee 97 39 22 18 ce 3e 7a 58 cc 3e
       0.011570074 0.0002897831 0.40252787 0.39911252
000160 2a be c5 3e fa d7 51 3e 42 f8 c3 3e c4 49 d5 3e
       0.38621646 0.20492545 0.38275343 0.4165784
000170 52 60 a9 3e 47 82 dd 3e 38 6c 7d 3e 21 26 8c be
       0.330813 0.43263456 0.24748313 -0.2737284
000180 a0 2a ed bd d4 45 0b bd 72 c5 f2 3c dd b7 b3 be
       -0.11580396 -0.03400214 0.029635165 -0.35101214
000190 ea 44 e3 bd 56 83 92 3d 59 86 da bd 8b a2 37 3e
       -0.11097129 0.071539566 -0.10670156 0.17933099
0001a0 44 9d 0f bc a8 0d 05 3f 3d f5 33 3d 8b b8 3e bd
       -0.008765522 0.5197396 0.04393505 -0.046562713
0001b0 cf 67 67 bd 71 64 a2 3d 37 b9 c1 bd 52 5d 4b be
       -0.056495484 0.07929314 -0.09459155 -0.19859818
0001c0 39 f2 57 bc fc 7b 75 be 03 67 1d be 78 c4 68 be
       -0.013180309 -0.23973078 -0.15371327 -0.22731197
0001d0 76 6d ba be 24 e9 88 be 06 a2 7c be 15 f9 2a bd
       -0.36411637 -0.26740372 -0.24671182 -0.04174145
0001e0 49 59 f0 bd 1d 75 04 3e 1b 12 56 3e 48 87 6c 3e
       -0.1173578 0.129353 0.20905344 0.2309848
0001f0 70 37 36 be e6 9a cc 3d de 1a af be 46 bf fc 3d
       -0.17794585 0.09990482 -0.34200186 0.1234117
000200 f2 23 3f bd 18 eb 3e bd 6f c0 a3 3e ce 25 b5 bd
       -0.04666514 -0.04661092 0.31982753 -0.08845101
000210 60 17 d5 3d ae f7 92 bd ff 5b 81 3c 98 ca af be
       0.10404849 -0.071761474 0.015790937 -0.34334254
000220 59 f1 aa be 80 30 82 be ed f7 e1 3b 8f 39 b7 be
       -0.3338726 -0.25427628 0.00689601 -0.357861
000230 f1 c4 96 bd e6 46 0d bd 88 9f a7 be d5 1a 8f bd
       -0.07361782 -0.034491442 -0.327389 -0.0698754
000240 c9 68 4a 3d b2 b9 9e bc 31 ea 29 be 3a b4 ab 3e
       0.049416337 -0.019375656 -0.16593243 0.3353594
000250 5f 46 74 bd 48 15 29 be ee 5f fd 3c 23 00 09 bb
       -0.059637424 -0.16512024 0.030929532 -0.0020904623
000260 92 d4 bb bb 72 3b c9 3d df c4 16 3d 44 c6 c0 bd
       -0.0057321275 0.098257914 0.036808845 -0.09412816
000270 34 92 00 be 4f fb 84 bd aa d2 e4 bb c8 52 2d be
       -0.12555772 -0.06493246 -0.006983121 -0.1692611
000280 fa c1 38 3d 9b c8 7a be 1e 63 85 3d ed 97 b2 bd
       0.045106865 -0.24490587 0.06513046 -0.08720384
000290 78 ad 94 3d ef de 85 bc d6 6f 67 be c2 75 37 bd
       0.07259649 -0.016341655 -0.22601256 -0.044790037
0002a0 6d 52 f7 bb 98 ce 51 3e 1f 30 1f be 97 45 0f 3e
       -0.0075476677 0.20488966 -0.155457 0.1399139
0002b0 b2 ba 81 bd e9 ff 8d bd e0 5e 98 3d 26 24 d9 3d
       -0.063344374 -0.069335766 0.07439971 0.10602598
0002c0 84 39 2b bd a0 24 54 3e 17 8d a0 bd 8e 4b 09 be
       -0.041802898 0.20717096 -0.07839411 -0.13407728
0002d0 d5 a8 9d 3c 33 04 8e bd 17 a7 7e be bd f7 ce bc
       0.019245544 -0.06934395 -0.24868427 -0.025264615
0002e0 af f7 06 be 3c 24 a9 3d a7 e0 3a be cd 24 2b be
       -0.13180421 0.08258864 -0.1824976 -0.16713257
0002f0 32 df c7 bd 6c 34 5e be a3 5a dc bd 48 e1 ac bd
       -0.09759368 -0.21699685 -0.10759475 -0.084414065
000300 34 53 64 bd 71 bb ef 3b 3f 27 49 be 90 d9 c4 bc
       -0.05574341 0.007316046 -0.19643877 -0.024029523
000310 6e 55 6e be 9b 94 4a 3d 2d 86 7c be 55 d2 df 3c
       -0.23274776 0.049458127 -0.24660559 0.027321974
000320 d0 5b 07 be da 1f 3b 3e 84 3e 1c bd ae b1 be 3d
       -0.13218617 0.18273869 -0.038145557 0.093112335
000330 67 0d cc 3c 3b 38 95 3d 31 1c 57 3d 0c 09 f1 bd
       0.024908734 0.07286116 0.05251712 -0.11769304
000340 77 22 31 3d fd 54 34 be b3 f0 ea bd ba 3e 5d bc
       0.04324576 -0.17610545 -0.11471691 -0.013503725
000350 fb 6c 34 be 66 35 59 be d6 a6 a8 3d 92 bb b3 bd
       -0.17619698 -0.21211776 0.082349464 -0.087760106
000360 94 66 24 bf f1 21 a4 3d 70 ec 33 3e 76 c5 5c 3e
       -0.6421902 0.08014286 0.17570662 0.215597
000370 cf cd cf be 58 1a bb bb a8 79 de 3d a4 e5 25 ba
       -0.40586707 -0.0057099275 0.10863048 -0.00063284696
000380 2b 65 6d bd 78 10 ac be f3 88 21 3d 4c 55 f4 be
       -0.05795781 -0.33606315 0.039437246 -0.47721326
000390 18 68 99 3c 89 68 21 bb 5d 78 85 bd 37 df d8 bd
       0.018726394 -0.0024628958 -0.06517098 -0.1058945
0003a0 5b 80 37 be e4 5f 2d be 7e c1 08 be f5 ba 85 bd
       -0.17920057 -0.1693111 -0.13355061 -0.065298
0003b0 42 88 a6 bd 44 b8 7e bd f5 ac b1 3d f6 82 28 bd
       -0.08131458 -0.06218745 0.08675567 -0.04114052
0003c0 19 37 ca be 29 17 9d bd 01 46 2d be 44 a5 9c be
       -0.3949516 -0.07670433 -0.16921236 -0.30594838
0003d0 4a 72 53 3d e6 67 14 bd 78 fb f0 3e d8 6e 00 be
       0.051622666 -0.036231898 0.47066855 -0.12542284
0003e0 2a 11 d5 bd 11 91 75 3e 73 e4 88 3e fa c0 6e 3d
       -0.104036644 0.2398112 0.26736793 0.058289506
0003f0 5e e7 b7 bc a4 4d d9 3d 84 2d 95 be c9 6c a5 bd
       -0.022449192 0.10610512 -0.29136288 -0.0807739

model.0.bias f4 [512]
000000 3c 17 da bd 56 bb 38 bc 54 62 54 3e a6 4a 02 bf
       -0.10648963 -0.011275133 0.20740634 -0.50895154
000010 e3 c2 22 3e 3c fa f5 bd 0f 36 49 be 02 2c 52 be
       0.15894656 -0.12010619 -0.19649528 -0.205246
000020 f6 58 d7 bc 2f 0a 8b 3e 65 cd 99 be 37 85 86 be
       -0.026287537 0.27156207 -0.30039516 -0.2627351
000030 1f 13 b5 3c d9 a4 28 3d 71 b7 3e be 92 7e 0d 3f
       0.022103844 0.041172836 -0.18624665 0.55271256
000040 e1 4c a1 3e 55 26 48 bf 2c 4d 6c 3e 7b af c7 bb
       0.31503966 -0.7818349 0.23076314 -0.006093917
000050 91 46 a0 bc 08 dc e0 bb 1e c6 9b 3e e7 04 01 bd
       -0.019564899 -0.0068621673 0.3042459 -0.031498816
000060 09 58 a2 3e a3 c2 63 3e eb 8f 9b bc ee df 7a 3e
       0.3170779 0.22242217 -0.018989524 0.24499485
000070 01 c4 9b bc 3f 05 43 3e 6e f2 70 3e d7 87 b4 bd
       -0.01901436 0.1904497 0.2352998 -0.08814972
000080 13 be 29 3f ad 11 a6 3a 0c 31 01 3c 5d 30 d6 3e
       0.66305655 0.0012670063 0.007885229 0.41833773
000090 e3 c7 ff 3e 38 ad dd 3e ec f6 5a 3d b6 0c 34 bd
       0.4995719 0.43296218 0.05345814 -0.043957435
0000a0 5e f6 14 be 89 0f 3e 3d 03 e3 ce 3d 4b c6 81 3e
       -0.14547107 0.046401534 0.10101893 0.25346598
0000b0 44 93 08 3e fd 9a 91 bd f9 4a de 3e 44 99 cd 3e
       0.13337427 -0.0710964 0.43416575 0.40155995
0000c0 62 0a 17 3d 61 05 66 be 34 72 85 3d 71 2c 82 3e
       0.036875136 -0.2246299 0.06515923 0.2542453
0000d0 b8 57 88 3e 33 f1 62 be 35 73 7b 3e 2f 94 84 be
       0.26629424 -0.22162323 0.24555667 -0.25894305
0000e0 dd b9 10 be 55 72 88 bd 7b 94 f6 bd d0 3b cb 3d
       -0.14133401 -0.06662432 -0.12040039 0.09923518
0000f0 91 8f 5a be 50 16 55 be d4 8c 17 be 61 4b fe bd
       -0.21343829 -0.20809293 -0.14799815 -0.12416721
000100 28 29 1d 3f b0 52 05 be 41 a6 c9 bb 1b c6 82 3e
       0.61390924 -0.13019824 -0.006153852 0.25541767
000110 2b 40 84 bd 64 42 05 3e c0 57 80 be 69 5a fe 3e
       -0.064575516 0.13013607 -0.25066948 0.49678352
000120 98 71 27 3e 6d 5a fe 3c 36 db 4b bd 89 97 51 3e
       0.16351926 0.031048978 -0.049769603 0.20467962
000130 13 bb 4b bd 9b 6d 87 3e ac 84 b6 bd 64 90 64 3e
       -0.049738955 0.2645081 -0.08912024 0.22320706
000140 e2 d8 16 3d 68 ef 8e be 09 85 a2 3e 20 42 19 3f
       0.03682793 -0.27917027 0.31742123 0.59866524
000150 4a 19 87 3e 86 3f 39 3e da c9 7f be 33 c1 31 be
       0.26386482 0.18090639 -0.24979344 -0.17358856
000160 26 17 48 3e 2c 24 1d 3e 0b 92 8c be 8f 2d ff be
       0.1954008 0.1534583 -0.27455172 -0.49839446
000170 9d 97 7a bd fe e7 0c be 70 9e 92 be 16 c9 c9 be
       -0.061179746 -0.13760373 -0.28636503 -0.3941123
000180 0e c1 7f be 56 07 0a bf 95 f3 a4 bd bd 9f 27 3e
       -0.24975988 -0.53917444 -0.08054272 0.16369529
000190 4f e0 20 3d 1c 48 25 3d a9 b9 d2 bd a7 53 4a 3d
       0.039276417 0.040351972 -0.10289318 0.049396183
0001a0 ae f3 ef bc fb 7a 95 be a3 f2 71 be 12 02 a2 3c
       -0.029291 -0.2919539 -0.23627715 0.019776378
0001b0 ad 35 bd be 75 56 ff bd 56 4e 4f be 23 60 76 be
       -0.36955014 -0.12467662 -0.20244727 -0.24060111
0001c0 5a 33 d6 3d 38 15 92 3b 28 b5 b0 3d 8a b4 66 be
       0.10459013 0.004458096 0.08628303 -0.22529808
0001d0 fc 7f 05 3c 0d dd 88 3e 3a de 38 be aa 8e 20 be
       0.00814819 0.26731148 -0.18053523 -0.15679422
0001e0 24 e5 11 3f b2 29 82 3e aa fb 03 3e 1d d2 84 bd
       0.56990266 0.25422436 0.12888971 -0.064853884
0001f0 93 47 a3 bd d7 86 49 be ee 29 0c be 2d d0 d1 3d
       -0.07972636 -0.19680344 -0.1368787 0.102447845
000200 bd 29 60 be 52 bf 90 3e bc 35 9c 3e 66 12 39 3e
       -0.21890922 0.28270966 0.30509746 0.18073425
000210 6b 3d c9 3d 74 cf 69 be cd 91 89 be 7f af 32 be
       0.09826168 -0.22833043 -0.2686905 -0.17449759
000220 a9 8b 93 3e a9 b0 e6 3d 16 b4 02 be e6 2b bd be
       0.2881749 0.11264164 -0.1276401 -0.36947554
000230 99 f7 52 be 6a 7d 6e be 71 29 10 be d1 bb fc 3e
       -0.20602264 -0.23290029 -0.14078309 0.49362043
000240 13 4b 7f bd 44 a1 80 3d 41 4c 8e be 20 9a c4 3c
       -0.062327456 0.06280759 -0.27792552 0.023999274
000250 c5 d2 d9 bd 93 de 53 3d 8f bb c7 bd ca d3 a1 be
       -0.10635904 0.051725935 -0.09752571 -0.31606895
000260 37 af 89 3e 2c 07 0d be 70 e1 39 3e c7 ae ab bd
       0.2689149 -0.13772267 0.18152404 -0.083829455
000270 7d 21 82 be 7d 07 10 3f d8 e8 15 be 61 41 96 3e
       -0.25416175 0.56261426 -0.14639604 0.29346755
000280 ae 31 d3 bc 21 6c 54 bd 4b c0 c3 3e 2a 79 15 be
       -0.025780525 -0.051860932 0.38232645 -0.14597002
000290 8d 35 a2 3e c1 97 0c 3e 48 09 13 be 4d 57 b9 bd
       0.3168148 0.13729765 -0.1435901 -0.090498544
0002a0 33 43 a9 bd 8f f5 cb 3d 9a 0b 27 3e 30 45 1a be
       -0.0826477 0.09958946 0.1631302 -0.15065455
0002b0 26 c0 e4 3d b6 90 1b be 3e 86 69 3e 52 06 14 be
       0.11169462 -0.15191922 0.22805116 -0.14455536
0002c0 19 55 d4 3d 0a 5d 5c be d6 52 a3 be 5e 61 12 3e
       0.103677936 -0.21519867 -0.31899136 0.14294955
0002d0 9f 7a 15 be fd 75 9d bd cf 6b 8e 3e 53 c6 4c be
       -0.14597557 -0.0768852 0.27816626 -0.1999753
0002e0 c5 03 f4 3e 02 cd 4e be e7 33 41 3e c5 55 35 bd
       0.47659126 -0.20195392 0.18867455 -0.04427125
0002f0 e4 9f 9b be 6d 8e cb bd f1 24 d9 3d c8 60 98 3e
       -0.30395424 -0.09939275 0.10602749 0.29761338
000300 fe 1f 87 3d 74 e3 76 be 2e 26 f3 3c 31 24 c1 3d
       0.06597899 -0.24110204 0.029681291 0.09430731
000310 04 5a 42 be a3 f1 62 be 3c 0c a7 be 4e 97 89 be
       -0.1897965 -0.2216249 -0.32626522 -0.2687325
000320 02 96 8f bb 63 7e 65 3e 05 5c 0d be 06 fe 50 3e
       -0.004381896 0.22411494 -0.13804634 0.20409402
000330 3f ac 34 bf 57 c2 b3 3e 1c be aa 3e 87 28 c1 bd
       -0.70575327 0.35109207 0.33348167 -0.09431558
000340 25 c2 86 be d3 bb b2 3e 0a 59 50 be b9 cf ce bd
       -0.26319996 0.34908924 -0.20346466 -0.10098214
000350 89 e2 10 bd ff 36 04 bd 7a 2c 3f bc e0 59 9d 3d
       -0.03537229 -0.03227901 -0.011668319 0.07683158
000360 2d e1 f0 bd 54 76 f3 3e 4b 99 01 be 0a 82 a5 be
       -0.11761699 0.47551215 -0.12656133 -0.32325774
000370 0d db 3f be ef db 10 3e 78 18 8e be cd 27 4e be
       -0.18735905 0.14146398 -0.27753043 -0.2013237
000380 40 c5 99 bd ae 58 a8 bc 01 c1 b4 bd 7c 0f d5 3e
       -0.075083256 -0.020550098 -0.08825875 0.41613376
000390 61 ea 74 3d 70 a8 08 bd b4 54 2b be 6d 6a 94 be
       0.059793834 -0.03336376 -0.1673153 -0.28987446
0003a0 b4 8b 21 3e 43 d6 62 be ed fd f8 be 7a 5b 9c 3d
       0.15775949 -0.22152047 -0.4863123 0.07634635
0003b0 cf 85 16 3e 32 bc 06 be 42 3b 75 bd 8e e9 a8 3e
       0.14699481 -0.13157728 -0.059870966 0.32990688
0003c0 6f e0 29 be 5e 4c 01 be 6c 31 84 3b b4 01 63 3e
       -0.16589521 -0.12626788 0.004034212 0.22168618
0003d0 52 93 6d be fb e9 f5 bd f0 2e 11 3c 31 bf 16 3e
       -0.2320073 -0.12007519 0.008861288 0.14721371
0003e0 71 cb f4 3e eb ba e2 3e e9 84 00 be 02 89 6f be
       0.47811463 0.44283232 -0.12550701 -0.23392108
0003f0 84 2f 41 be c5 e8 ef bd 1c 60 03 3e fc 43 91 bc
       -0.18865782 -0.11714319 0.12829632 -0.017732613

model.2.weight f4 [256, 512]
000000 9e c5 bb 3b 8f 6a 10 bd c4 2c 14 3c fc 8d 58 bd
       0.005730345 -0.035257872 0.009043876 -0.05286978
000010 61 5c 3a bc ae bb 3e bd ad bf 32 bd ec 4a df bb
       -0.011374564 -0.046565704 -0.043639828 -0.0068143513
000020 8c 98 ab bc 14 c8 69 3d 8d 6a ad 3c 01 b0 73 bd
       -0.020946763 0.057075575 0.021168971 -0.059494022
000030 c6 2e 0c bd f3 5b ef bc 7b 63 08 3d 48 91 f3 bc
       -0.034224294 -0.02921865 0.033297997 -0.029732361
000040 3f ae 45 bc 78 da 39 bd 9e 8b 77 ba 3c be 4c bd
       -0.012065469 -0.045374364 -0.0009443107 -0.04998611
000050 de 82 8c 3c 62 21 fd bb c0 f4 8a bd f1 4f 0a bd
       0.017152246 -0.007724927 -0.067849636 -0.033767644
000060 2b 5b ba bb e5 79 11 3a fa f7 ec bc 32 c7 61 bd
       -0.0056871376 0.0005549475 -0.028926838 -0.055121608
000070 8d 39 e7 3c 13 17 1b 3c 5c bf ea bc c8 74 6f bd
       0.028225685 0.009465951 -0.0286557 -0.05846098
000080 1a 04 04 bd 7b ba 4b bd 23 71 fb 3b 55 45 2b 3a
       -0.032230474 -0.04973839 0.007673399 0.00065334636
000090 c6 f4 28 bd 67 76 78 3d f5 e9 4d bd 7f f5 3e bd
       -0.04124906 0.060659792 -0.050271947 -0.046620842
0000a0 ac 6b 94 3c 47 ab 2e 3b 79 43 40 3c 9c 54 9c 3b
       0.018117748 0.0026652382 0.011734837 0.0047708284
0000b0 4f c0 0b 3c 5a 3e b8 bc 82 d6 10 bd 8f eb d1 ba
       0.008529737 -0.022490669 -0.03536082 -0.0016015637
0000c0 42 ba 0a 3c 3e 61 73 bc be ea 59 3c 08 a4 a4 bc
       0.008467259 -0.014854727 0.013300596 -0.020097747
0000d0 4e b8 e2 3b 82 6c 0d bc d9 87 be bc 56 33 2d 3d
       0.0069189435 -0.008631827 -0.023258137 0.042285286
0000e0 99 64 6f b9 c4 a9 34 3d 5b ba c9 3b d9 b9 19 bd
       -0.00022830292 0.044107214 0.0061562485 -0.037530754
0000f0 12 79 b2 3b 4f 4a 07 3d 3a c1 f4 3c 31 a3 1e bd
       0.0054465616 0.03302985 0.029877294 -0.03872985
000100 96 c9 bf 3c 6c 5a d2 ba e1 01 6e bd 1f 24 14 3d
       0.023411553 -0.0016048676 -0.05810726 0.03616726
000110 3e b6 07 bc be 2f 4c 3c b8 5d 11 bd 03 64 70 3d
       -0.008283196 0.0124625545 -0.035489768 0.05868913
000120 9a 0d ab bc 4d ea 0c bd a1 46 5e bd bd 7e 58 bd
       -0.02088051 -0.034403134 -0.054266576 -0.052855242
000130 a6 60 d4 3c cb f7 85 bc 71 01 f1 bc f9 bf 2c 3c
       0.025924992 -0.016353508 -0.029419633 0.010543817
000140 02 2d 82 bc 03 5b f1 3c 47 8e d1 3c 04 b9 18 bb
       -0.015890602 0.029462343 0.025580538 -0.0023303637
000150 e6 1a 0d bd fd 15 8c bc c5 c6 3d bc 01 f3 86 bd
       -0.03444948 -0.017100329 -0.011583035 -0.06589318
000160 06 47 43 3b f0 fe 26 bd 20 89 04 bc 27 98 cf 3c
       0.0029796972 -0.04077047 -0.008089334 0.025341107
000170 29 d4 1f bd dd e6 0f 3d 99 e4 78 bc 6d 32 5d bd
       -0.03902069 0.035132278 -0.015191221 -0.054003168
000180 28 35 65 3a 39 1d 91 3c 60 98 0f bd e4 f0 80 3c
       0.00087435776 0.01771413 -0.035057425 0.015739866
000190 a4 24 6b 3c c0 e9 6f 3b 8a 8c 82 bc 37 20 18 bd
       0.0143519975 0.0036607832 -0.015936155 -0.037140097
0001a0 cc a5 62 bd f4 61 40 bd fd c0 a8 bc 9a ff fb 3a
       -0.055333897 -0.046968415 -0.020599836 0.0019225955
0001b0 a9 97 04 bc a9 64 17 bd 87 58 82 bd 0b bb 28 b9
       -0.008092799 -0.03696123 -0.063645415 -0.00016091407
0001c0 62 e3 ed bc b2 48 fe ba 1e cb 04 bc 62 07 85 bc
       -0.029039089 -0.0019400327 -0.008105068 -0.016238872
0001d0 04 bd 20 3c 5c 13 2b 3b 02 c0 2b bc a6 70 0a bd
       0.00981069 0.0026104068 -0.01048279 -0.033798836
0001e0 8d d6 92 3c b4 cc 09 bc 6a 47 81 bd ae 63 0a 3c
       0.017924571 -0.008410621 -0.06312449 0.008446617
0001f0 7a 92 07 bd 7a d8 18 bd aa ad 89 3c 91 1d a8 3c
       -0.033098675 -0.037315823 0.016806442 0.02052191
000200 b1 16 57 bc e3 ab 7a bd 3a bc ee 3c 24 5f 17 bd
       -0.013127969 -0.06119908 0.029142488 -0.036955968
000210 44 2e ae bc 89 50 f7 bc 3d 98 3f bc 65 91 29 bc
       -0.021262296 -0.03018977 -0.011694011 -0.010349606
000220 a9 6d f3 bc a3 fe 86 bd c7 fe 00 bc 1a b2 43 bd
       -0.029715376 -0.06591537 -0.007873244 -0.047777273
000230 b9 68 56 ba 8d 89 77 bd a6 2e 6f bd bd 21 1b bd
       -0.0008179057 -0.060433913 -0.058394097 -0.037873972
000240 5a f6 11 3d 37 d1 36 bc c1 3f 34 3d 7e 9b 45 bc
       0.03563533 -0.011158279 0.044006113 -0.012060998
000250 0a 4d f5 bc d6 b9 d7 3c ef e8 2d bd 47 2b c1 bc
       -0.029943962 0.02633373 -0.04245847 -0.023580207
000260 22 fc 46 bd 71 0e 4a 3b bb ca 3c bd 23 67 49 bd
       -0.048580296 0.0030831362 -0.046091776 -0.049170624
000270 be 52 3a 3d 85 02 61 3c 01 cd 86 bd a4 4f 13 bd
       0.045489065 0.013733511 -0.0658207 -0.035964623
000280 39 71 40 bc 19 53 2e bd 0b 27 0b 3d 63 8d ba bc
       -0.011745744 -0.042559717 0.03397278 -0.022772497
000290 9f 6d 36 3d dc bc 92 3c b1 80 9a 3c 36 6d 06 bc
       0.044538137 0.01791232 0.018860193 -0.008204749
0002a0 de 08 39 bc c8 a1 6b 3c 54 92 85 3c d6 b8 a7 bb
       -0.011293618 0.014381833 0.016305126 -0.0051184697
0002b0 1a 10 60 bc 71 2e c5 3b 32 b4 07 3d 75 92 8b bb
       -0.013675714 0.006017499 0.033130832 -0.0042594024
0002c0 83 b0 80 ba 5e b7 97 bc ea 01 7f bb 22 c9 4a bd
       -0.000981823 -0.018520053 -0.0038911053 -0.04950822
0002d0 90 b7 e3 3b 7c 7a 41 bd 51 56 9a bc f2 7f be 3b
       0.0069493726 -0.04723595 -0.018839987 0.005813592
0002e0 41 5f 06 3c fc 40 cd 3c e8 c9 9c 3c b5 85 68 bd
       0.008201421 0.025055401 0.019139245 -0.056768138
0002f0 5d 23 7f 3b fa 42 0c bd 87 82 ea 3b 3d af 9c bc
       0.003893099 -0.03424356 0.0071566734 -0.019126529
000300 a0 a1 35 bd 45 8a 24 3c e1 21 5a bc 07 de 86 bc
       -0.04434359 0.010042732 -0.013313741 -0.016463293
000310 00 20 e8 bc 5a 8b 0d 3c f6 e6 63 3d 8d c0 84 3a
       -0.028335571 0.008639181 0.055640183 0.0010128185
000320 b5 26 b4 3c a7 d1 9f bc 07 54 7b 3d 38 80 de bc
       0.021991113 -0.01950915 0.06135943 -0.027160749
000330 64 04 20 bd 5e 9f 80 3c 72 d3 21 bc d3 f4 28 3c
       -0.039066687 0.015700992 -0.009877073 0.010312277
000340 3c c8 ab bc af 6a bb 3b 6d 48 2a bd f8 88 c5 bc
       -0.020969503 0.005719505 -0.041572977 -0.024113163
000350 8f a7 10 bd af 21 a1 bc 3e 8e 90 3c f4 f6 13 bd
       -0.035316046 -0.019669382 0.017645951 -0.036124185
000360 2a ca 88 bd d8 64 af bc 04 79 cb bc 3d 9d 22 3d
       -0.06679185 -0.02141039 -0.024837978 0.039700735
000370 76 09 56 3d 39 69 c0 3c d6 de 18 3d d1 20 c5 bc
       0.052255116 0.023487674 0.037321888 -0.0240635
000380 b7 39 e8 bb c9 b2 dd 3c 99 93 71 bc 01 ca 15 3d
       -0.0070869583 0.02706279 -0.014744663 0.0365696
000390 4d 6b 6c 3c 93 99 ca bc 72 d8 25 bd 6e e6 d2 ba
       0.014429879 -0.024731433 -0.04048962 -0.0016090402
0003a0 6f df 9d bc ca 3a 6b bd c6 21 cb bc 05 7f 0f bd
       -0.01927158 -0.057429112 -0.024796378 -0.035033245
0003b0 c7 c3 6a bb 0e c8 2a 3c b4 9f 5f 3c 5d 4b 5f bc
       -0.0035822259 0.010423673 0.013648916 -0.013628808
0003c0 bc 64 0a 3d 46 6d d0 bc 3e c5 5e 3d 09 02 a8 bc
       0.033787474 -0.02544273 0.054387324 -0.020508783
0003d0 1e 49 be bb fd df 1c bd 30 37 96 3c 74 a9 84 bc
       -0.005807056 -0.03829955 0.018336862 -0.016194083
0003e0 52 6d 3d 3c f0 58 98 3c a4 8d 03 3b ef 5d 8d bc
       0.0115617085 0.018597096 0.0020073438 -0.017256705
0003f0 9f d6 ef 3c 01 84 2c 3d e5 fd 7c bd 2b 06 8a 3c
       0.029277144 0.042118076 -0.06176557 0.016848644

model.2.bias f4 [256]
000000 81 1a bb bc cd ab e4 bc 16 69 96 bd f4 40 fb 3b
       -0.022839786 -0.027913952 -0.07344262 0.007667655
000010 9e 53 66 bd 99 24 c5 bb da 7a d9 3c d1 f5 fd bc
       -0.056232087 -0.0060163257 0.026547838 -0.031001003
000020 31 66 c7 3c 26 0a 89 3d f0 7a 88 3c 07 86 cb bc
       0.02434072 0.06691389 0.016660184 -0.024844183
000030 38 6e f0 b8 7c 01 ee 3d aa e5 d3 3b 45 2d 76 3c
       -0.00011464622 0.11621377 0.006466587 0.015025442
000040 f4 46 17 3c 90 48 3f 3e e1 9f 33 bd 9d 40 6e 3d
       0.009233225 0.18680024 -0.043853644 0.05816709
000050 dc b8 dd 3e 1b 9f 84 3d 6f 54 06 bd bc c5 dc ba
       0.433051 0.064756595 -0.032795366 -0.0016843597
000060 03 cd 3b bd c2 26 a9 bc 6b 49 8a bd 55 6b 36 3c
       -0.04584981 -0.020648364 -0.067522846 0.011133988
000070 cd 06 21 3b d4 2a c4 bd c9 4a 1e bb b4 35 cd bb
       0.0024570704 -0.09578481 -0.0024153462 -0.0062625054
000080 e4 33 11 bd 9e ef 86 3e b4 ec 09 bd 35 1f a8 3a
       -0.035449877 0.26354688 -0.033673003 0.0012826683
000090 66 4e 50 bd 38 f3 78 bd 2a 54 0f 3c 65 d4 18 3e
       -0.050856017 -0.060778826 0.008748094 0.14924772
0000a0 83 72 17 bc 29 d0 27 bd f0 4b 0e bd 73 16 81 bd
       -0.00924361 -0.04097 -0.03474039 -0.0630311
0000b0 ac 5b bb 3b 3f 66 c7 3c a2 4f e2 3b ef 5f 17 bd
       0.0057177152 0.024340747 0.0069064656 -0.036956724
0000c0 08 47 ce bb 04 cf 82 3e fc 70 7a 3d 75 94 a8 bc
       -0.0062950887 0.25548565 0.061142907 -0.020578602
0000d0 2c 39 15 bc 33 1e 4e 3c ff 71 00 bc ae a8 86 bd
       -0.009107869 0.012580442 -0.007839679 -0.06575142
0000e0 6e f3 81 3e 98 b8 3e bd ef bc b4 3d bd df 25 bd
       0.25381035 -0.04656276 0.08825099 -0.040496577
0000f0 49 e8 32 bd 45 e7 7d bb 06 b6 c1 bc a2 e2 3a 3d
       -0.043678556 -0.0038742584 -0.023646366 0.04562629
000100 4e 51 15 bd d8 17 29 3d 0d da 5d bd d8 e4 be bc
       -0.03645449 0.041282505 -0.054163028 -0.02330248
000110 0e 86 02 3f 74 db 43 3e fd 83 92 bc f9 e5 e0 bc
       0.509858 0.19126683 -0.017885203 -0.02745341
000120 1f 91 1f bd 54 ff b3 3c 54 44 d0 3d 41 ec c0 bb
       -0.038956758 0.021972336 0.101692826 -0.0058875387
000130 69 e3 b0 3c 0b 47 49 bd 32 6a e6 bc 2c 2c 57 bd
       0.021592813 -0.049140017 -0.02812681 -0.05253236
000140 08 03 8a 3c f9 13 50 3c b8 e6 bc 3b 37 c4 1c 3e
       0.016847149 0.012700074 0.0057648085 0.15309225
000150 eb 7c 79 bc 1c 6c 2c bd 98 61 fc bc c6 bc 88 bd
       -0.015227537 -0.04209529 -0.030808255 -0.06676631
000160 95 bc 9f 3c 83 0e 9d 3b d6 6e e4 3c 35 33 42 bd
       0.019499103 0.0047929897 0.027884882 -0.047412116
000170 9e 5c 67 bd f4 86 44 bd 51 a2 51 bc 9a 39 77 bb
       -0.05648481 -0.047980264 -0.012795047 -0.0037723542
000180 d6 96 77 bd 38 18 3c bd 31 49 a8 ba 1c 49 65 bd
       -0.060446583 -0.045921534 -0.0012839196 -0.055977926
000190 92 55 05 3d 1e 7b e8 3c 7a 2b 1c bc c8 28 b8 bc
       0.03255231 0.02837902 -0.00953185 -0.022480384
0001a0 bc 85 0a 3d 63 0d fb bc 59 f3 63 bc b3 10 69 bb
       0.033818945 -0.030646032 -0.013912999 -0.0035562932
0001b0 24 8b 20 3d 12 3b 49 bc 8b 22 d8 bc b4 2b 08 3b
       0.039195195 -0.01228215 -0.026383659 0.0020778002
0001c0 a9 5e 9b bd 09 29 d4 3e b2 c1 1b bc 47 56 03 bd
       -0.07586414 0.41437557 -0.00950663 -0.032064702
0001d0 80 b9 af 3a d6 ba 4c bd 5e ff 7c bd 15 60 41 3e
       0.0013406724 -0.049982868 -0.061766975 0.18884309
0001e0 c9 4c 32 3d af bb 5b 3c 50 45 aa bc 20 71 b9 3e
       0.04353026 0.0134114465 -0.020785004 0.3621912
0001f0 b6 3a 91 3c d9 75 fd bc ac c4 2c 3d 5c 54 fe bc
       0.01772819 -0.030939983 0.04217975 -0.031046085
000200 ed 67 1e 3e 88 2a 4e 3d 95 39 64 3e 81 8f 0e 3e
       0.15469332 0.05033353 0.22287591 0.1392193
000210 d0 57 ef bc 17 68 78 3d 59 f6 81 3b b3 df f3 3b
       -0.029216677 0.060646143 0.0039661345 0.0074424385
000220 4c 82 12 bd 40 a5 14 bd d4 19 b5 3b c2 20 85 3d
       -0.035768792 -0.036290407 0.0055267606 0.06500389
000230 8f d5 70 bd b7 90 a0 bc 19 85 c8 bc 26 73 05 3c
       -0.058797415 -0.019600255 -0.024477528 0.008145129
000240 11 12 c5 3c da 31 7e bd 28 a7 86 bd de 2a cb 3b
       0.024056466 -0.06205926 -0.06574851 0.0062001785
000250 06 a4 95 3c 8d 08 15 3d 80 81 93 3c 9e 4d 33 3d
       0.018266689 0.036385108 0.018006086 0.043775193
000260 1b a6 bd bb 2a f3 04 bd a3 fb e2 bc 02 2c ab bd
       -0.0057876236 -0.03245846 -0.02770788 -0.08358003
000270 79 b0 3a bd 6d 1e a0 3b 42 f1 4a 3c bc c1 4b 3d
       -0.045578454 0.0048864395 0.012386622 0.049745306
000280 5e f9 b2 3d 22 b8 86 3c b1 a7 73 bd ea 90 41 bd
       0.08738969 0.016445223 -0.059486095 -0.04725734
000290 c7 18 89 bd 85 b6 c9 bc 73 89 a0 bc 92 82 74 3c
       -0.06694179 -0.024623165 -0.01959679 0.0149237085
0002a0 d0 a3 f6 bc ce 07 07 bc 69 a8 87 bb 0e bd f7 bc
       -0.030107409 -0.008241607 -0.004139949 -0.030241515
0002b0 a9 63 dc 3d b9 81 cc ba b8 dd c0 bd 85 bb 81 bd
       0.10761196 -0.0015602625 -0.094172895 -0.06334595
0002c0 9d 3d 29 bd 61 be ec bc 98 4a 08 3e 8e 6e 6a bc
       -0.041318525 -0.028899373 0.13309705 -0.014308585
0002d0 33 97 45 3c 0c c9 81 bb 01 67 0d 3c 71 5b 32 3c
       0.0120599745 -0.0039607342 0.008630515 0.010886059
0002e0 a6 34 dc bc 54 ee 61 bd 23 c0 39 3c 05 29 02 bd
       -0.026880573 -0.055158928 0.011337313 -0.0317774
0002f0 f0 f5 5c 3b 50 02 30 3d 9d 72 02 bd 13 9a 1d bc
       0.0033715926 0.042970955 -0.031847585 -0.009619254
000300 5c b1 bf 3b 9c ac 40 bc 39 59 9e bc eb 30 ac bc
       0.0058500003 -0.011759903 -0.019329654 -0.02101942
000310 95 68 46 bd 5d c4 3b bb 2f 8b 5e 3d ce 25 cb bc
       -0.04843958 -0.0028650977 0.054331955 -0.0247983
000320 bc f8 89 3e 28 3b 8b 3d 4b e5 f4 bc cf ca 62 3c
       0.26947582 0.067983925 -0.029894492 0.013842299
000330 3c c4 4f bd 3d f1 9f 3d e4 ae 63 bc 3a f6 55 bd
       -0.050724253 0.078096844 -0.013896678 -0.052236773
000340 92 1a 26 3c 0d 32 42 bd 13 40 a1 3d 0a e6 6f bd
       0.010138171 -0.047411013 0.07873549 -0.05856899
000350 f6 82 07 bb 44 d6 c2 3b f8 7d 1e be 7a 5f 47 bd
       -0.0020677424 0.0059459526 -0.15477741 -0.048675038
000360 8c 10 ff bb 45 60 36 bb d9 f1 99 3e bf cd 67 bb
       -0.007783955 -0.0027828377 0.30067328 -0.0035370437
000370 dd dd 54 bd 16 9a 56 3e b6 fb 20 bd 8c 8c d7 3c
       -0.051969398 0.20957217 -0.03930255 0.026312135
000380 9b f1 a0 3e 99 6b d8 3b f0 fb d3 bb 51 5a 57 3e
       0.3143433 0.0066046235 -0.0064692423 0.21030547
000390 47 0d 0d 3d d1 f3 83 bd d0 cb 2e 3c 7a 1e 94 bd
       0.03443649 -0.06442989 0.01066871 -0.072323754
0003a0 ad dc 84 3d ba 6a fb bc 3d 70 af 3b 06 95 fb bc
       0.06487403 -0.03069054 0.005353956 -0.030710708
0003b0 36 1a f8 bc 1b 7b 82 3c 19 04 02 bd 29 f6 83 3d
       -0.030285936 0.015927842 -0.03174219 0.06443436
0003c0 e6 37 01 bd ed 98 76 bc f1 f9 d3 bc 81 04 2f 3d
       -0.03154745 -0.015051109 -0.025876017 0.042728905
0003d0 8e 0a d0 bc 57 09 12 3c 81 44 89 bc 96 f0 a3 3e
       -0.025395658 0.00891336 -0.016756298 0.3201949
0003e0 7d 2c 31 bc b0 73 51 bd 9c cc 0d bc 03 c5 95 bc
       -0.0108138295 -0.05113572 -0.00865474 -0.01828242
0003f0 52 28 61 bc 18 62 ef bc 00 11 2b bc c8 a9 e4 bc
       -0.013742523 -0.02922158 -0.010441065 -0.02791299

model.4.weight f4 [64, 256]
000000 52 63 a4 bd 91 97 91 bd fb 85 ec bc 2f 5b 22 bd
       -0.08026756 -0.07108987 -0.02887248 -0.03963774
000010 f4 88 13 3d 7e 92 e1 bc 03 dd 49 bc 84 4d 84 3b
       0.03601928 -0.027535673 -0.01232076 0.004037561
000020 8a 37 56 bd f8 0d 87 bd 2f ce 13 bd ee 3c 2f 3b
       -0.05229906 -0.06594461 -0.036085304 0.0026739198
000030 6c 36 97 bd 38 ca b0 bd 46 99 1d 3d e7 a0 ed 3c
       -0.07383427 -0.0863232 0.03847625 0.029007388
000040 59 6c 9d bd 5c fd 7c bd f7 36 81 bd bd 13 dd bc
       -0.07686681 -0.06176506 -0.06309312 -0.026986951
000050 5b 30 38 be 34 cf 7a bd cb 8b 0f bd 6a 69 01 3d
       -0.17987196 -0.06123276 -0.035045426 0.03159467
000060 02 0f 68 bd 12 5f a6 bd fe 18 1a bb 53 9c 2c 3c
       -0.056654938 -0.08123602 -0.0023513432 0.0105353175
000070 7b cd 91 bc 06 36 5b 3d 26 ca 14 bd d3 6e e5 3b
       -0.017798176 0.053518318 -0.036325596 0.0070017367
000080 d8 5a f8 3c 6c 8a 5e bd 51 01 40 bd a6 2b 4e bd
       0.030316755 -0.054331228 -0.046876255 -0.050334595
000090 ca 51 32 3e 60 e4 5e 3b e6 7d a6 bd c7 13 44 bd
       0.17414013 0.0034010634 -0.08129482 -0.047870424
0000a0 44 83 94 bd 68 bc 21 bc 45 ca a1 bd fd 7d be 3c
       -0.072515994 -0.00987158 -0.07899908 0.023253435
0000b0 4f e4 92 bd 02 ad 03 3c 55 e2 77 bd c3 75 06 be
       -0.07172453 0.008036854 -0.06051858 -0.1313086
0000c0 26 0e 00 3d 86 f3 9e bd 73 a9 bd bd 8f 98 97 bd
       0.031263493 -0.07761292 -0.092608355 -0.07402145
0000d0 0e 41 05 3d a4 7e e4 3c 9d b2 c4 3c 12 3a cd 3c
       0.032532744 0.027892418 0.02401095 0.025052104
0000e0 71 dd 9a bd e0 8f 43 bd fe 92 b0 bd 14 39 57 bc
       -0.07561768 -0.04774463 -0.086217865 -0.013136167
0000f0 00 b3 d5 bb 4d 69 7a 3b fe 3a 95 3a 1e 75 d4 bb
       -0.0065215826 0.0038209737 0.0011385379 -0.006483688
000100 30 a9 64 bd e8 49 07 3d 93 db 55 bd 6c 39 cf 3c
       -0.055825412 0.033029467 -0.052211355 0.025295936
000110 be 10 86 be bf 9f c3 bc 1f 33 14 3d cc 66 51 3b
       -0.26184648 -0.023879884 0.036181565 0.003195214
000120 01 d9 d7 bb 99 6d 77 bd 1e 6c d8 bc fc 12 fa bc
       -0.006587148 -0.060407255 -0.026418742 -0.03052663
000130 43 52 79 bd dc 9c 57 bd b9 4b 08 3d 46 a2 65 3d
       -0.060869467 -0.052639827 0.03327534 0.05606296
000140 ef e4 a0 bd 5b 0c a0 3c ec 9a 38 3b 04 ec ba bd
       -0.078561656 0.019537142 0.0028168513 -0.09127048
000150 de 1f 8e bb 20 b9 02 3d 40 3c 2b 3d 05 3d 8f 3b
       -0.004337295 0.03191483 0.041805506 0.0043712878
000160 44 a9 68 3d 2a 3e ee bc 30 6c 32 bd a8 4e 2f 3c
       0.05680205 -0.029082377 -0.043560207 0.010699905
000170 83 d5 04 bd c7 7f ac bc d0 ae a5 3c 64 b8 74 bd
       -0.032430183 -0.021057023 0.020224959 -0.05974616
000180 1e db ee 3c fc 3c f6 3c 54 9b 55 bd 62 d8 00 bd
       0.029157218 0.030058376 -0.052150086 -0.03145636
000190 20 19 f6 bc 5a 55 66 bd 9a e8 78 3d 22 8f 91 bd
       -0.030041277 -0.05623374 0.0607687 -0.071073785
0001a0 b4 78 0a bb 00 47 84 3d 30 7b bd 3c ad e1 6d bd
       -0.0021129074 0.06458855 0.02313003 -0.05807655
0001b0 30 72 bb bd cc 6f 3d 3b 47 ee 89 bd a7 bd d4 bc
       -0.09152639 0.0028905747 -0.06734901 -0.02596934
0001c0 7d 2b bc 3c 53 52 0c be f4 4c a1 bc 4f 5f 32 3b
       0.022969956 -0.13703279 -0.019690014 0.0027217453
0001d0 4e e9 d6 bc 59 db 93 3b cc e4 cd 3c d2 07 56 bd
       -0.026234295 0.0045122323 0.025133513 -0.05225355
0001e0 37 93 ad bd 40 63 39 bc d9 3c 7b bc 71 11 dd bd
       -0.08475345 -0.011315167 -0.015334331 -0.10794342
0001f0 e7 d5 21 bb d9 48 16 bb 34 ee 61 3c b5 47 5d bd
       -0.0024694146 -0.0022931604 0.013789702 -0.054023463
000200 5e e6 68 3d f1 91 ba 3d b4 33 95 bd b0 5b 84 3d
       0.05686032 0.09109867 -0.07285252 0.064628005
000210 f5 97 a3 bd 51 fc cf bd 07 8d 30 3c 4f c4 82 bd
       -0.07987968 -0.101555474 0.010775811 -0.06385099
000220 9c 3b 4e 3c 78 eb ab bd 55 92 4f 3c 9f 44 18 3d
       0.012587454 -0.083945215 0.012669166 0.037174817
000230 ec 88 c8 bc a7 cc f4 bc fc cf 96 bc d9 f3 e2 3c
       -0.024479352 -0.029882742 -0.018409722 0.027704166
000240 2c cd 87 bd 11 4f a3 bd d2 78 24 ba 08 97 6e bd
       -0.0663093 -0.07974065 -0.0006274107 -0.058249503
000250 27 f2 13 bd fc f0 3e ba 7e ad 0c bc ed 62 1a be
       -0.036119606 -0.0007283834 -0.008586286 -0.150768
000260 63 b8 3b bd 94 1b 34 3d 4e 5b ab bd 96 8d 0d bc
       -0.04583014 0.043971613 -0.08367024 -0.008639714
000270 be d3 1f bc a6 e8 1e bd 6d 6f d2 bb b6 08 68 bc
       -0.009755073 -0.03879609 -0.0064219744 -0.014162233
000280 21 85 04 3e 4d 5d 10 be fc 84 57 bd a3 52 06 3d
       0.1294141 -0.14098091 -0.05261706 0.032793652
000290 63 01 c7 bb e7 08 8a bd 78 57 e3 bc 1d 40 31 bd
       -0.0060731634 -0.06739979 -0.02775167 -0.043274034
0002a0 4a b4 7a 3d d6 00 9b bd d8 8a 9e 3c aa 04 00 3d
       0.061207093 -0.07568519 0.019353315 0.031254448
0002b0 1d c7 53 be 47 38 7b bc 76 a1 73 be 2e 1a 8c bd
       -0.20681424 -0.015333242 -0.23792061 -0.06840931
0002c0 6b 7b da 3c 21 3e 47 bd f2 1d 7b be 6a e5 3b 3d
       0.026670178 -0.048643235 -0.24523142 0.045873083
0002d0 c1 bb 84 bd 2e 8d 8b bd 63 de b4 bd f4 cd 56 3c
       -0.06481124 -0.06814037 -0.088314794 0.0131106265
0002e0 b3 5a 5d bd aa 8f 1e bd ba f0 4d bd 18 30 1f bb
       -0.054041576 -0.038711227 -0.050278403 -0.002429014
0002f0 e8 b3 5b bc d7 38 94 bd 77 70 44 3d 99 2b 5f bb
       -0.013409592 -0.07237404 0.047958817 -0.0034053086
000300 77 37 df 3d dc f6 bb bc f7 fb 07 3d d2 57 14 be
       0.10899251 -0.02294486 0.033199277 -0.14486626
000310 c1 6c a1 bd 5b cb 8e bd 8c e5 9c bd 78 92 a4 bd
       -0.07882071 -0.06972381 -0.0766097 -0.08035749
000320 cb ac 2b be cc d8 70 3c 19 ab 88 bd 86 39 b5 3c
       -0.16765134 0.014700126 -0.06673259 0.022122156
000330 41 e6 48 bd 13 8c 3d bd 2b fe 4b bd 60 34 45 bd
       -0.049047712 -0.046276163 -0.04980294 -0.04814565
000340 f2 5e 1b bd ba ec 5c bd 42 db a2 bd 00 b6 df 3a
       -0.037932344 -0.053936698 -0.07951976 0.001706779
000350 91 22 96 3c 9a da 18 bd 61 dd 8a 3d 80 94 67 3d
       0.01832703 -0.03731785 0.06780506 0.056538105
000360 ab 25 be bc 0f ef ab bd 18 64 05 be 80 ad fc bc
       -0.02321132 -0.08395206 -0.13026464 -0.03084445
000370 40 e3 c3 3a 6e 81 9c bd 1f b7 37 bd bb 42 81 bd
       0.0014945045 -0.07641874 -0.044852372 -0.06311556
000380 c2 21 03 be 84 42 15 3d e7 d7 e4 3b 90 95 ad bd
       -0.12805846 0.036440387 0.0069837454 -0.084757924
000390 57 0e 2b 3d d4 d8 78 bd 45 3e bd bd a8 4d 89 bd
       0.041761722 -0.06075366 -0.092403926 -0.06704265
0003a0 75 be 26 3d e0 c1 88 bd 1a e2 d7 3c af d3 00 3d
       0.040708978 -0.06677604 0.02635293 0.031451877
0003b0 db a4 a6 bd 65 f7 27 bd 04 79 2d 3d 75 32 ac bd
       -0.081369124 -0.04100742 0.042351738 -0.084080614
0003c0 c9 16 33 3b ce 0f 9a bd 54 0e d3 bc 25 21 b7 bc
       0.0027326813 -0.07522546 -0.025763668 -0.022354672
0003d0 e9 18 9d bd b1 fc 42 bd 98 94 c2 3c 4f 13 1e be
       -0.07670767 -0.047604267 0.023752496 -0.15437053
0003e0 24 d8 8d bd 9a 6e 45 bd 4a d8 74 bd fd af 15 3c
       -0.06925991 -0.04820118 -0.05977658 0.009136197
0003f0 d1 6a 1a bd 9e 2c df 3c 93 c1 aa bd 76 fc c4 bc
       -0.037699524 0.027242955 -0.083377026 -0.024046164

model.4.bias f4 [64]
000000 10 0c 27 be d2 88 ea bc 77 64 f3 3e de 06 74 3e
       -0.16313195 -0.028629694 0.47537586 0.23830745
000010 31 e3 30 be d8 b8 0c 3f b7 f4 ad 3d 26 b1 07 3f
       -0.17274167 0.5496955 0.08493941 0.5300468
000020 b8 b5 cc 3e d3 1f 2b be 48 91 0c be 78 5f 07 3f
       0.3998239 -0.16711359 -0.13727295 0.5288005
000030 49 4a 8b be d9 b4 07 3f 1d a7 6c be 3a be c4 3e
       -0.27205113 0.53010327 -0.23110624 0.3842638
000040 62 8c bc 3f 1a 7c 46 bd 94 fc d8 bc 9b 22 03 be
       1.4730341 -0.048458196 -0.026487626 -0.1280617
000050 3d db 12 3e ea 8d 97 bd 84 f3 68 bd d0 9c cd bd
       0.14341445 -0.07400115 -0.05687286 -0.10039675
000060 c5 c2 f0 bd 82 d8 1b 3c ae 9e f2 bd 43 71 42 bd
       -0.11755899 0.009512069 -0.11846672 -0.047471296
000070 f3 0b b9 bd f9 9e 00 3f d3 36 0c 3e a3 e9 82 bd
       -0.09035482 0.50242573 0.13692789 -0.06392219
000080 db 7e e8 3e 36 03 ea 3e 4b 39 6e be a9 54 8b bd
       0.45409283 0.45705575 -0.23264043 -0.06803257
000090 f5 bf ef 3e bf 36 e4 bc 68 12 03 3f 11 69 d0 3e
       0.4682614 -0.027858136 0.5119996 0.4070516
0000a0 dc 0f 0c be 8c dc 3d 3e 81 8c f9 bd fd b5 be be
       -0.13677925 0.18541163 -0.12185002 -0.3724822
0000b0 a4 91 b6 3e 7d e9 2d bd 9b 6a 18 be 37 1e 82 3e
       0.3565799 -0.042459 -0.14884417 0.25413677
0000c0 1d bb bf 3e 00 d6 68 3c 61 c3 e7 3e ad 9b de bd
       0.37447444 0.014211178 0.4526625 -0.108695365
0000d0 89 bf 0d be 61 17 ee bd aa 9f f0 3e 4b f2 22 3e
       -0.13842596 -0.11625553 0.46996814 0.1591274
0000e0 c8 0c 74 bd 48 95 e4 bc f6 ad 63 be 10 51 4d bd
       -0.0595825 -0.027903214 -0.2223433 -0.050126135
0000f0 fd 8d b3 3e 70 c9 b5 be f6 8b 99 3b 17 bf c7 bc
       0.35069266 -0.35505247 0.004685874 -0.02438311

model.6.weight f4 [1, 64]
000000 c4 ba 90 3a 58 42 82 3b 94 6f 39 be 6a 9a 94 bc
       0.0011041989 0.003975194 -0.1810897 -0.018140037
000010 e2 7d 15 bc c9 16 95 bb 84 d5 b3 bc d2 03 7d be
       -0.009124251 -0.0045498353 -0.021952398 -0.24708489
000020 b2 da 36 bd a0 8b ee bb f8 81 56 3b db 74 50 be
       -0.044642158 -0.007279828 0.0032731276 -0.20357077
000030 6a 99 93 bc 81 df 4b be b4 5a b1 3d 58 37 e6 bd
       -0.01801749 -0.19909479 0.086598784 -0.11241025
000040 1a d7 14 3f 7e 0b 5c 3c a2 82 a1 3b 6a 79 86 bb
       0.5814072 0.013430474 0.0049289027 -0.004103829
000050 dc c0 dd 3b 50 4e b8 3e bc 39 1a bb 64 ba a0 3d
       0.0067673754 0.35997248 -0.0023532948 0.07848051
000060 13 eb 3b 3d 75 44 00 3d c2 4d 68 3e 1e 27 bc 3d
       0.04587848 0.031315286 0.22685912 0.091871485
000070 92 c0 8e 3d 15 23 44 be 0f 9f 13 3d 20 c4 09 3d
       0.069703236 -0.19154008 0.036040362 0.033634305
000080 6a 04 b9 bd 16 37 13 be 82 33 d4 3d 34 a0 02 3d
       -0.09034045 -0.14376482 0.10361387 0.031891063
000090 23 68 eb bd 27 a9 ec 3c 7c ae 69 be 6e 2b 53 bd
       -0.11494472 0.028889252 -0.22820467 -0.05155509
0000a0 22 4e bf 3c 61 ed bd 3c cd f4 7b bd b2 6c 73 bd
       0.023352686 0.02318448 -0.061512757 -0.05942983
0000b0 9e 29 75 bd 8d 7e 95 bd 1a 2b c6 3d fd 73 9c bb
       -0.059854142 -0.07299528 0.0967619 -0.004774569
0000c0 fd ca 2d bd 97 1b 9c 3e 32 6b 15 be 32 46 5e be
       -0.042429913 0.304898 -0.14591673 -0.21706465
0000d0 cb b5 64 3c 3d b6 ef bd be 03 dc bd b4 aa da bd
       0.013959358 -0.11704681 -0.10742901 -0.1067709
0000e0 82 b9 03 3d d5 7f 64 3d 32 6c 5e 3c 9f 93 e4 3b
       0.032159336 0.055785973 0.0135756 0.0069756056
0000f0 60 b2 10 bb a9 ce 9d 3b ea c8 82 bb fb e0 33 bd
       -0.0022078976 0.0048158956 -0.003991236 -0.04391573
